tmp/tmp0model100.pt (torch, 23679 bytes, 25 tensors)

node_encoder.0.weight f4 [16, 5]
000000 80 6d 5b bb a0 a9 75 3e 96 74 bc be ac 82 a8 be
       -0.0033482015 0.23990488 -0.36807698 -0.32912195
000010 54 61 30 be 8d 83 d3 3d a9 39 48 bc 19 85 ab 3e
       -0.17224628 0.10327826 -0.0122207785 0.33499983
000020 68 8f 22 bd 85 d0 e4 3d 4f 94 0e be 91 65 bc bd
       -0.039687544 0.111725844 -0.13923763 -0.0919906
000030 d6 bf da be 1c a5 97 be b6 c6 3c be f8 f7 b1 3c
       -0.42724484 -0.29618156 -0.18435177 0.021724686
000040 17 53 3a 3e c0 07 8c 3e fe 3a 9b be 34 6b 47 be
       0.18195759 0.27349663 -0.30318445 -0.19474488
000050 2c 89 24 3e b6 60 b5 3e eb 10 b3 bd ec 57 ab 3e
       0.16067952 0.35425347 -0.08743461 0.33465517
000060 f8 d4 05 bd 57 57 25 3d e0 c4 cb 3e 6c 69 d4 be
       -0.032673806 0.040366497 0.3979864 -0.4148668
000070 bd 25 90 be 73 c0 0d be 42 57 44 be a6 ea bc 3e
       -0.28153792 -0.13842945 -0.19173911 0.36897773
000080 76 6a 94 be d4 ce 52 be 56 f8 9f be 90 72 d6 be
       -0.28987473 -0.20586711 -0.31244153 -0.4188428
000090 38 a9 85 be 36 d3 c4 3e 20 58 4c 3e 48 f4 5d 3e
       -0.26105666 0.3844239 0.19955492 0.21675217
0000a0 82 4f 04 3d 1f ac 53 be 2c 22 b0 3d 8d ca d5 be
       0.032302387 -0.20671128 0.08600268 -0.41756096
0000b0 cc 72 a5 be cb e1 6f be d7 91 8e 3e 89 5a 84 3e
       -0.32314146 -0.23425977 0.27845642 0.25850323
0000c0 db 18 4b be 78 1e 2c bd 87 2a 92 3e 32 b7 e6 3e
       -0.198337 -0.042021245 0.2854807 0.45061642
0000d0 f7 87 32 3e 20 76 77 3d e6 b8 8d 3e fa 83 88 be
       0.17434679 0.060415387 0.2768013 -0.2666319
0000e0 9f e3 a3 3d 39 86 b1 be c2 b2 9e be 58 91 6c be
       0.080024 -0.34672716 -0.30995756 -0.23102319
0000f0 6a 72 54 3e b7 91 42 3e 3a dc 8a be 54 59 0a 3e
       0.2074677 0.19000898 -0.27121145 0.13510638
000100 55 d8 86 3e d7 d0 84 bd a2 04 6b 3c 10 b1 d0 3d
       0.26336923 -0.064851455 0.014344366 0.10190022
000110 ba 0c 8e 3e 70 38 dd 3e c8 73 b0 be d8 d2 27 be
       0.27744085 0.4320712 -0.34463334 -0.16389024
000120 44 fa 33 3e 3a b7 bd 3e 1a 41 c7 3e 2d 73 c1 3e
       0.17575938 0.37053853 0.38916856 0.37783185
000130 65 ee 93 3d 7c 1c c7 be b8 82 28 3d 38 3f 8f be
       0.072232045 -0.3888892 0.041140288 -0.2797792

node_encoder.0.bias f4 [16]
000000 86 64 d5 be 31 eb c2 3e da 02 ac 3e 2b c4 e1 be
       -0.41678256 0.38070062 0.33595926 -0.44094977
000010 3c d5 a7 3d 0a 89 a8 bd 0b 63 ba bd d6 a0 51 be
       0.08194968 -0.08229263 -0.09100922 -0.2047151
000020 87 19 39 3e 20 85 89 be ac 53 27 3e 42 32 64 3e
       0.18076144 -0.2685938 0.16340512 0.22284797
000030 dd 88 a6 3e d9 9f 22 3e 7d 9f e2 be de 1e 9d be
       0.32526293 0.1588129 -0.44262305 -0.30687612

node_encoder.2.weight f4 [16, 16]
000000 38 a6 ff 3d 17 8a 4f 3d 2c 07 58 be bf c0 3e be
       0.124828756 0.050668802 -0.21096486 -0.18628214
000010 cb 0b 62 3e 47 b2 1e 3e fb 6f fe bd d4 dc 80 bd
       0.22074811 0.15497695 -0.12423702 -0.062921196
000020 61 d6 6a be 37 fc df bc 67 ba 47 be 90 88 55 be
       -0.22933342 -0.027341945 -0.195047 -0.20852876
000030 d1 d7 a5 bc df 66 26 3d f4 ad d1 bd ea 1d 08 3e
       -0.02024451 0.04062545 -0.10238257 0.13292661
000040 38 c9 1b be f6 b4 61 3e 0e 27 2f 3e 11 44 59 be
       -0.15213478 0.22041687 0.17104742 -0.21217372
000050 83 7a 88 bd 8e 46 30 3c d9 a3 15 3d d0 dd 72 3d
       -0.06663992 0.010759009 0.03653321 0.059293568
000060 44 6d b3 3d 9a df 8a 3c 58 d4 01 be 9c 40 f1 3d
       0.08761075 0.016952325 -0.12678659 0.117799014
000070 a9 e5 79 be 51 a3 19 be 3c 2b 80 bd d4 b3 f9 bd
       -0.24404015 -0.15003707 -0.06258246 -0.121925026
000080 5c 1d b3 bd 3c c7 55 be 57 15 57 bd 8b 8d 88 3d
       -0.08745834 -0.20876783 -0.052510586 0.06667622
000090 37 4c 29 be 93 05 88 bc 00 3f 36 3e f0 88 d2 bc
       -0.1653298 -0.01660422 0.1779747 -0.025700063
0000a0 d6 b0 f1 b8 91 3c a9 bc 4e 5c 42 3d cf b8 22 3e
       -0.00011524714 -0.020658763 0.04745131 0.15890811
0000b0 b4 74 6e 3e 22 ec 1c 3e c4 0c 73 3e 55 cf 98 bc
       0.23286706 0.15324453 0.23735338 -0.018653551
0000c0 66 f8 65 be 89 d6 dd bd 4d 6b 44 3e f2 19 b6 bc
       -0.22458038 -0.10831935 0.19181557 -0.022229169
0000d0 ed ae ea bd 36 d8 2d be 24 35 59 be ec 10 58 be
       -0.11459146 -0.16977009 -0.21211678 -0.21100205
0000e0 00 48 16 bd 53 bf 03 3e 13 da 12 3e 44 51 60 be
       -0.03668976 0.12865953 0.14341001 -0.21906
0000f0 95 a5 2b 3e 8b fd 42 be f0 7b 58 bd 22 b4 a3 bd
       0.16762383 -0.19042031 -0.05285257 -0.07993342
000100 f0 3c 45 bd a2 6d 29 bd 31 86 5a be 52 4c 58 be
       -0.048153818 -0.04136432 -0.21340252 -0.21122864
000110 b4 57 ee bc d2 7c 73 3c 63 bd d2 bd b8 de c0 3d
       -0.029094554 0.014861302 -0.10290029 0.0941748
000120 71 08 62 be 22 ff 3a bc dd 06 6a 3e 9a 64 ba bd
       -0.22073533 -0.011413367 0.2285418 -0.091012195
000130 db d9 70 3e da 7f c8 3d ae 07 67 be 64 03 2d 3e
       0.23520605 0.09790011 -0.22561523 0.16895825
000140 f0 53 ec bc a0 0f e1 bd d5 79 3e 3e 08 65 3a be
       -0.028848618 -0.10989308 0.18601163 -0.18202603
000150 c3 ad d0 3c 69 78 89 bd 8a 67 28 3e 08 ec 8e 3d
       0.025473481 -0.067124195 0.16445747 0.06978613
000160 06 fd fe 3d 9f 77 cc 3d b9 aa 72 bd b3 6b 88 bd
       0.12450604 0.099837534 -0.059244845 -0.06661167
000170 50 b8 56 be 3b 72 0d 3e 26 42 4b 3e 9e 00 21 3e
       -0.20968747 0.13813107 0.19849452 0.15722892
000180 ac 93 34 be c6 ca 85 3c 14 36 34 be 54 60 ed bd
       -0.17634457 0.016332041 -0.17598754 -0.11590639
000190 be fc 08 be 9d 15 b5 3d 5d e1 18 be 00 ba b2 bb
       -0.13377663 0.08842013 -0.1492972 -0.005454302
0001a0 7f 85 c6 3c 08 5c 2f 3e 2c c6 3b be 58 51 2f be
       0.024233578 0.17124951 -0.18337315 -0.17120874
0001b0 57 c9 10 be fd 55 28 3e cc 0b b8 bd 1a 3d 57 3e
       -0.14139305 0.16439052 -0.08986625 0.21019402
0001c0 a0 24 b9 3d 4a 0a 64 3c 25 28 03 bd 5d 0c 12 bd
       0.09040189 0.013918469 -0.032020707 -0.03565632
0001d0 a0 11 82 3c 2e 44 ad bd 93 94 fa bc c0 a7 02 3d
       0.015877545 -0.0846027 -0.030588424 0.03189826
0001e0 2c f6 59 be 94 6b 07 be 04 06 3e 3e b0 62 6e be
       -0.21285313 -0.13224632 0.18556982 -0.23279834
0001f0 10 87 19 bd a8 07 6d 3e 10 f4 b8 3d 70 e7 b5 bc
       -0.03748232 0.23147452 0.09030926 -0.022205085
000200 26 da 5d be e6 e1 02 3e b8 6d 24 be 59 32 24 bd
       -0.21665248 0.12781486 -0.1605748 -0.040087078
000210 7a f1 8c bd 95 68 ab bc 19 d9 9e 3c 96 26 53 3e
       -0.068819955 -0.020923892 0.01939063 0.20620188
000220 38 47 41 3d 92 61 6e 3e 6a d9 21 3e fc f4 0f be
       0.04718706 0.23279408 0.15805593 -0.14058298
000230 91 34 f1 3d 0d 43 49 be 9c ff d8 bd d9 32 b9 3d
       0.11777604 -0.19654484 -0.105956286 0.090429015
000240 f0 0e a9 3d f5 b3 35 3e e7 71 b0 bd f9 12 a2 bc
       0.08254802 0.1774443 -0.08615475 -0.019784437
000250 60 84 f1 3d 39 63 80 be 9f 3a 32 3e 30 b1 53 be
       0.11792827 -0.250757 0.17405175 -0.2067306
000260 c6 6d 65 bc 11 e2 3a bd b1 c5 0f be 5d 6d e1 3c
       -0.014003223 -0.04562575 -0.14040257 0.027517969
000270 83 c9 4a 3e f6 64 93 bd 56 fc 17 be a2 b1 c9 bd
       0.19803433 -0.07196991 -0.14842352 -0.09848334
000280 e6 bb 7d be 92 7b da 3d c6 f3 de bd 54 1b 23 be
       -0.24778709 0.106681004 -0.1088634 -0.15928394
000290 31 60 11 be 28 61 1c 3e d8 9f 13 3e 50 7c 44 3e
       -0.1419685 0.15271437 0.14416444 0.19188046
0002a0 f7 65 97 3d d9 51 a6 bd 91 4d 92 bd d9 17 af 3d
       0.07392495 -0.0812108 -0.07143701 0.085494705
0002b0 a4 dd 53 3e 6f c5 8a 3d 1c 40 f2 bd 77 ce d8 bd
       0.20690018 0.06775939 -0.11828634 -0.10586255
0002c0 42 0a 72 be d0 76 6b 3d bb 69 10 be 6f 70 67 be
       -0.23636726 0.057486355 -0.14102833 -0.22601484
0002d0 bd 66 63 3e 28 d6 21 be eb 69 f0 bc 48 af 92 3d
       0.2220716 -0.1580435 -0.02934738 0.071623385
0002e0 d1 34 ce 3b 40 26 2c be 83 5f 49 be 97 a1 4a 3e
       0.0062929173 -0.16811466 -0.19665341 0.19788204
0002f0 6c a0 46 3d d7 a3 5e 3e a8 a4 ab bd 7b ea 94 3d
       0.048492834 0.21742187 -0.08381015 0.07271286
000300 18 2a 6a bd bc 5b 26 bc 3a be 16 be 3e 77 c9 3d
       -0.05716905 -0.010153707 -0.14721003 0.09837197
000310 85 b4 b2 3d 57 a4 d5 ba c0 7f 54 bd 58 ce 1d be
       0.087258376 -0.0016299587 -0.051879644 -0.15410745
000320 65 a1 21 3e 13 a8 30 be 10 62 dc 3d d6 89 a2 bd
       0.15784223 -0.17251615 0.107608914 -0.07936446
000330 ef 66 ec bd b2 ae 39 3d 22 fb 04 be 7d 32 7e 3d
       -0.115430705 0.045332618 -0.12986425 0.062059868
000340 10 18 49 3d 05 d0 2c be 8b 32 2c 3d ac e4 7f 3d
       0.049095213 -0.16876228 0.04204039 0.062473938
000350 2c 00 c7 3d 04 f9 f4 bc 04 2a 50 be 90 da 1d bd
       0.0971683 -0.029903896 -0.20328528 -0.038538516
000360 58 c6 ee 3d c1 50 e9 bd 48 ac d3 3d 6b c2 2a 3e
       0.11658925 -0.11392356 0.103355944 0.16675727
000370 a3 3b fc bd 42 21 8c 3c 24 b6 d3 3d 85 60 ab 3c
       -0.12316062 0.017105702 0.10337475 0.020920048
000380 90 12 ab 3c dd eb 5b 3d 0d 3b 49 be 24 39 54 3d
       0.020882875 0.053691734 -0.19651432 0.051812306
000390 f1 d3 42 3e 68 3c 64 3e 3e f2 15 3e 18 38 09 3d
       0.19026162 0.22288668 0.1464319 0.03350076
0003a0 61 f1 0c 3e c1 5f c0 bd 6f a1 3c be b5 ac 5b be
       0.13763954 -0.093932636 -0.18420957 -0.21452601
0003b0 b8 1d 89 3e 2f ca 38 3e b2 f4 30 be e4 16 c7 3d
       0.26780486 0.18045877 -0.17280844 0.09721163
0003c0 aa 52 41 3e d0 b1 78 3e 60 b4 58 3e f0 47 3f 3e
       0.1887919 0.2428658 0.21162558 0.18679786
0003d0 e6 c8 83 bd 41 ae c0 bd 08 e8 4b 3e 0a 75 0f 3e
       -0.06434803 -0.09408236 0.19912732 0.1400949
0003e0 91 b2 20 be 9e d0 65 3e 85 9c e6 3d 7a 08 04 3e
       -0.15693118 0.22442862 0.112603225 0.12893859
0003f0 43 54 29 be fd c7 83 3d ec 7c b3 bd ee ab 41 3e
       -0.1653605 0.06434629 -0.08764061 0.18913242

node_encoder.2.bias f4 [16]
000000 cc 31 45 bd 07 95 b8 3d c6 26 26 3d cd 7c f3 3d
       -0.048143193 0.090128 0.04056432 0.11889038
000010 41 a1 9c bd 92 30 f7 3d e7 c2 2b be 60 ec 17 3d
       -0.07647944 0.12069811 -0.16773568 0.03709066
000020 28 ae 24 be d3 4f 84 be dd f1 52 be 9e ba 4d 3e
       -0.1608206 -0.2584215 -0.20600076 0.2009072
000030 21 a0 0c 3e c1 10 80 3e 96 7f 62 3e 83 5e 6c be
       0.1373296 0.25012782 0.22118983 -0.23082928

node_encoder.3.weight f4 [16]
000000 23 0d 7f 3f 06 99 7e 3f c8 bd 7d 3f 6e ff 80 3f
       0.9962942 0.99452245 0.9911771 1.0077951
000010 6e 0a 81 3f 28 60 7f 3f a2 4e 7d 3f e5 07 7c 3f
       1.0081308 0.997561 0.9894811 0.98449546
000020 d0 c9 82 3f 1a 08 81 3f dd 55 80 3f 7c 7e 80 3f
       1.0217838 1.0080597 1.0026203 1.00386
000030 74 34 80 3f a4 f3 81 3f 8e 1b 82 3f 67 a5 7f 3f
       1.0016007 1.0152478 1.0164659 0.9986176

node_encoder.3.bias f4 [16]
000000 c5 2d 91 bb e7 87 a5 bb af 98 52 bb dd 27 3e 3c
       -0.004430505 -0.005051601 -0.0032134464 0.011606184
000010 35 1c 23 3c d5 1c 66 39 99 f7 2e 3c 67 a6 8f bc
       0.009955456 0.0002194525 0.010679149 -0.017535402
000020 da e4 21 3c b1 1f 0f bc d8 4a 21 bb 51 6c b5 3b
       0.009881223 -0.008735583 -0.002461126 0.005536594
000030 b0 04 6e 3b f6 f3 64 3c d7 30 a8 3c b8 fc bf bb
       0.0036318712 0.01397418 0.020531101 -0.005858984

edge_encoder.0.weight f4 [16, 4]
000000 62 15 b3 be 5d 6e ab bd 8c 8a aa be 45 2f ae 3e
       -0.3497725 -0.083706595 -0.33308828 0.3402044
000010 ba 89 c1 be 38 ce 79 be c4 51 f7 be c6 57 91 be
       -0.3780039 -0.24395072 -0.4830457 -0.28387278
000020 f2 e6 ca 3e b1 ca db 3e d9 e8 ae 3e bf 2d c0 3e
       0.39629322 0.4292808 0.34162024 0.37534901
000030 89 58 e4 3e 71 8f d0 bd 72 f4 60 3e 0f 6e e3 3e
       0.44598797 -0.10183609 0.21968248 0.44419906
000040 13 26 2c 3e d2 0e 01 3f c0 56 80 3e d4 55 a9 3e
       0.16811399 0.5041324 0.25066185 0.33073294
000050 2c 32 33 be f4 ab 75 3e 20 54 6b 3d 88 8c f4 bd
       -0.17499608 0.23991376 0.057453275 -0.11940867
000060 49 3b 7f be 1f 2e c0 be b2 fc c4 be d1 cc a4 3e
       -0.24924959 -0.37535188 -0.3847404 0.32187513
000070 ea 11 92 3e a0 16 69 bd c4 24 94 be 76 ef a1 3e
       0.28529292 -0.056906343 -0.289343 0.31628007
000080 cd 4e d4 3e 81 c9 a6 ba b8 bb 71 be e1 47 ee 3e
       0.4146637 -0.0012724848 -0.23606765 0.46539214
000090 db b1 9a 3e 5a 57 c2 be 8b 69 02 3f cc fc b6 3e
       0.30213818 -0.3795727 0.50942296 0.35739744
0000a0 8c 9e 3a be fc 72 8a 3e d6 74 91 be bc 00 95 bd
       -0.18224543 0.2704085 -0.2840945 -0.07275531
0000b0 25 7c da 3e 2b f5 c5 3c 8e 97 9e be 63 ae 26 be
       0.4267284 0.024164757 -0.30975002 -0.16277461
0000c0 dc fa 0a be 20 8f c5 bd b0 fe 43 3d a2 c1 ec 3e
       -0.13572258 -0.096464396 0.04785031 0.4624148
0000d0 24 17 1b 3d 52 cc ab be b2 89 89 3c 3a a5 4c 3e
       0.037863865 -0.33554322 0.016789291 0.19984904
0000e0 29 a7 84 3e e0 f7 e9 be b0 3c b7 bd b8 3e be be
       0.25908783 -0.45696926 -0.08947122 -0.37157226
0000f0 66 fd ed bd 90 52 28 3e 18 cb b5 be b4 1a 33 3e
       -0.116205975 0.16437745 -0.3550651 0.17490655

edge_encoder.0.bias f4 [16]
000000 62 48 d4 3e 30 53 06 3d 3c 9f ae be 4e c1 35 be
       0.41461474 0.032794178 -0.3410586 -0.17749521
000010 a7 12 e5 3d 46 27 c3 be ad 84 6c 3e ec 2b 06 bf
       0.11185198 -0.381159 0.23097487 -0.5241077
000020 29 16 f3 be f4 31 e9 be dc 94 e5 bd 50 81 ac 3e
       -0.47477844 -0.45545924 -0.11210033 0.33692408
000030 72 4c f2 be 4d 3f cc 3e 7e 7a 41 be 52 a8 0e 3e
       -0.47323948 0.39892045 -0.18894383 0.13931397

edge_encoder.2.weight f4 [16, 16]
000000 28 9e cd 3c 10 d7 66 be c9 42 72 3e ea ad 11 3e
       0.025099829 -0.22542977 0.23658289 0.14226499
000010 6c 50 84 3e 96 55 01 3e b0 80 21 be 36 fe 17 3e
       0.25842607 0.12630305 -0.15771747 0.14843068
000020 2b 15 95 bd a8 6e 32 3e 94 26 41 be 00 bf 87 bd
       -0.07279428 0.17425025 -0.18862373 -0.06628227
000030 54 5c 7b be 7b 42 c8 bd 67 6f 58 3d 8e 8b 38 be
       -0.24546939 -0.09778305 0.052840617 -0.18021986
000040 20 0e 8f 3d 2c 6c 09 3e 86 4f 1b 39 43 99 2f be
       0.06985116 0.1342017 0.00014811577 -0.17148308
000050 7a e2 54 be e4 f5 9d bd 99 c1 da 3d 77 03 97 3e
       -0.20789519 -0.077129155 0.10681457 0.2949483
000060 69 44 5c 3e c9 bc d7 bd 90 5e 87 3d cb b1 7e be
       0.21510471 -0.10534055 0.06609833 -0.2487251
000070 62 a6 5a be e4 e0 eb 3d 3f 50 07 be a6 40 d2 3d
       -0.21352533 0.11517504 -0.13214205 0.10266237
000080 28 f5 33 be 64 99 fd bd c0 b9 57 be c5 24 0e 3e
       -0.17573988 -0.123827726 -0.21066952 0.13881214
000090 10 1e cb bc 94 04 45 3e 6f a4 24 3e bb e5 df 3d
       -0.024794608 0.19240028 0.16078351 0.109324895
0000a0 2d b8 0e bd c7 94 37 be e0 ee 98 bd c4 cf 11 3d
       -0.034843612 -0.17927848 -0.07467437 0.03559853
0000b0 a4 cd fd 3d ff 16 27 be c4 9a 60 3e d8 f1 0f bd
       0.123927385 -0.16317366 0.21934038 -0.03514275
0000c0 02 81 60 be c4 82 0a be 81 a0 3d 3e 33 8d 5c 3e
       -0.21924213 -0.13526446 0.18518259 0.21538238
0000d0 13 39 73 be 6e 8e 34 3e 2d 6b e7 3d 5f 92 0e 3e
       -0.23752241 0.17632458 0.11299739 0.13923024
0000e0 a5 9b 57 3e 7e fd 5f be 90 fe a1 3d e5 fe d1 3d
       0.21055467 -0.21874043 0.07909882 0.102536954
0000f0 e8 4a 97 bd b9 66 9f 3d 11 cd 83 bd b3 d0 15 3e
       -0.07387334 0.07783265 -0.06435598 0.14630394
000100 2a 1b 87 bd 14 df be bd b3 e0 60 3d ac c4 8c 3d
       -0.06596978 -0.093198925 0.05490179 0.0687345
000110 ed e5 e8 bd 30 0a b5 3c f5 de 0e 3e 69 71 88 bd
       -0.1137198 0.022099584 0.13952239 -0.06662256
000120 9e 39 b3 3c fc 1a 2f be d3 02 c4 3d df 2d 3f be
       0.02187806 -0.17100137 0.09570851 -0.18669842
000130 0e 89 16 be 8c dd 03 be fc a9 5e 3e ef 12 7b bd
       -0.1470072 -0.12877482 0.21744531 -0.061297353
000140 3c c0 0b 3c cc 0f f8 bd c5 ed 87 3e 8f fa 6d 3e
       0.008529719 -0.12112388 0.2654859 0.23240112
000150 d7 89 32 be 10 88 4f be 3c 2f 45 be 61 a2 57 bd
       -0.17435394 -0.20266747 -0.192563 -0.05264509
000160 65 bd 1e be b1 7b 6c be cb 59 86 bd bb 28 4a 3d
       -0.15501936 -0.2309406 -0.065600954 0.04935525
000170 f4 c1 05 be 81 d9 44 3d b2 cf 8b bd e3 7b cd bd
       -0.13062268 0.04805899 -0.06826724 -0.10033395
000180 4e 0b 24 3d 84 7f 52 3e 3e 96 35 be 77 7a 1a 3d
       0.040049843 0.20556456 -0.17733094 0.037714448
000190 14 05 b5 bd e4 36 7b 3e 84 a0 62 be 9f 36 39 be
       -0.08838859 0.24532658 -0.22131544 -0.18087243
0001a0 ba c7 a7 3e dc ab 1f be 4b 22 27 3d 54 c7 8e bb
       0.32769567 -0.15592903 0.04080419 -0.004357258
0001b0 78 b6 57 bd 92 3e 13 bd d7 5d 3d 3e 5d d9 1c 3c
       -0.05266425 -0.035948344 0.18492828 0.009573308
0001c0 4c 46 6f be d8 21 17 be 86 14 8e bd 08 42 0c 3e
       -0.2336666 -0.14759004 -0.06937508 0.13697064
0001d0 ea 3a 20 be 2e 63 71 3e 4d 89 23 bd e0 6f 26 bd
       -0.15647474 0.2357299 -0.039925862 -0.040634036
0001e0 4d c6 50 3e e7 d1 02 3e 51 59 60 3e c9 85 19 3e
       0.20388146 0.12775384 0.21909072 0.14992441
0001f0 34 51 9b bd 52 a8 22 be 9d ed 55 bc a1 d1 5d 3e
       -0.07583848 -0.15884522 -0.01305714 0.21661998
000200 03 1b c5 bd 1e 68 6d be de 0a df 3d 29 61 7f 3e
       -0.09624293 -0.23184249 0.108907446 0.24939407
000210 ba 1b a3 bd 5a f9 53 be 8c 40 77 be 54 13 02 3d
       -0.07964273 -0.20700589 -0.24145716 0.031756714
000220 af 39 4d bd cb 16 c6 bc 6a 26 45 3d d5 c3 c3 3d
       -0.05010384 -0.02418079 0.048132338 0.09558836
000230 06 9a 4b 3e 56 a2 41 3e c4 5e 03 bd d5 8e 6c be
       0.19882974 0.18909582 -0.032072797 -0.23101361
000240 c2 e0 70 be 48 06 6f 3e 94 d5 c6 3d 67 83 d6 3d
       -0.23523238 0.2334224 0.097087055 0.10474282
000250 cd 46 63 be 5e 0f 6d 3e af 42 6a 3e 2b 7a 6a 3e
       -0.22194977 0.23150393 0.22877 0.22898166
000260 25 90 4b be ee 9b 8f bd 2f 90 36 be b0 3f 6e 3e
       -0.19879206 -0.07012163 -0.17828439 0.23266482
000270 04 ff db bd fe b6 ee bd 17 08 04 3e 36 9a 00 be
       -0.10742 -0.11655997 0.12893711 -0.12558827
000280 52 b9 ef bd 40 24 b3 bc 2e cf 91 3a b9 a5 35 be
       -0.11705269 -0.021867871 0.0011124366 -0.17739
000290 d2 7e 5a 3e b4 da e1 bd 14 05 c0 3d 94 37 20 3e
       0.2133744 -0.110280424 0.093759686 0.15646201
0002a0 2d 92 3e 3d f6 f8 10 3e 09 cb 5c 3e 32 36 1f 3d
       0.046526123 0.14157471 0.21561827 0.038870044
0002b0 54 e1 ec bd a7 26 7a 3e 7e 09 82 3d d8 87 73 be
       -0.115664154 0.24428807 0.06349467 -0.23782289
0002c0 05 da 94 bd fe 60 2e be 33 cc 6b 3e 08 e1 2a bd
       -0.072681464 -0.17029187 0.23027115 -0.041718513
0002d0 a1 4b 6d be 80 be 80 bc e4 e9 1e 3e 82 90 9c 3d
       -0.23173381 -0.015715837 0.1551891 0.0764475
0002e0 4b 1b b4 3d 30 94 16 3e cd 97 b5 3d cb 25 87 bd
       0.08794268 0.14704967 0.08866844 -0.06599005
0002f0 78 ac cb bd d1 2d 75 be 4c 79 49 be 0a 2b dc 3d
       -0.09945005 -0.23943259 -0.19675177 0.107503965
000300 d2 53 0f be e0 e8 12 3d 27 ef ac 3d 86 14 3c 3c
       -0.13996819 0.03586662 0.08444052 0.011479503
000310 72 5d 21 be f0 d1 74 3e 20 6c 15 be 71 df 6f 3e
       -0.15758303 0.2390821 -0.14592028 0.2342508
000320 dc d5 14 be 61 04 50 bd 13 55 1d 3e b8 4d d1 bd
       -0.14534706 -0.050785426 0.15364484 -0.10219902
000330 0e 0d 57 3e d6 9a 34 be a4 bd 5f be 29 1a c2 bd
       0.21001074 -0.1763719 -0.21849686 -0.09477646
000340 fd bd 20 3d a8 b6 6b 3e 19 a7 0d be 8b 69 a6 3d
       0.039243687 0.23018897 -0.13833274 0.081255995
000350 6b c9 92 bd 28 11 5e bd 4f e2 49 3e 63 ba 1c be
       -0.07167324 -0.05421558 0.19715236 -0.15305476
000360 88 6b bb 3d 2e c5 58 3e b7 75 34 bd 9f f3 3a 3e
       0.09151369 0.21168968 -0.044057574 0.18256997
000370 84 ac 9d bd 44 d8 47 3e dc 51 80 be c6 5d 26 bd
       -0.0769892 0.19516093 -0.25062454 -0.040616773
000380 a3 7d 44 bd 78 ee a5 3d 67 62 a1 3d 63 4d 4a 3e
       -0.04797138 0.08102125 0.07880097 0.19756083
000390 1c d3 28 bd 60 6d 22 bc 20 72 25 3e 18 55 b1 bc
       -0.041216955 -0.009913772 0.16156816 -0.021647021
0003a0 b0 18 96 3e b2 55 8a be 32 3e 1b bd d0 36 14 bc
       0.2931571 -0.27018505 -0.03790111 -0.009046271
0003b0 a0 75 e4 3d 1b 7c 37 3e a5 17 dc bc c0 0c 5e be
       0.11155248 0.17918436 -0.026866743 -0.21684551
0003c0 4b 71 ea 3d cc 27 99 3d 41 72 a6 3d 24 5e 3c be
       0.1144739 0.07478294 0.08127261 -0.18395287
0003d0 c1 a7 1b 3e c0 78 72 3e 03 d5 c4 3b 64 d4 25 be
       0.15200712 0.23678875 0.0060068383 -0.16194302
0003e0 02 c3 89 3e 55 23 9a be 3a 04 51 3d c3 c1 a2 3c
       0.26906592 -0.3010508 0.05102942 0.019867783
0003f0 7c a2 ef bd 4c a3 8b 3d 2c 37 7c be 96 7f 45 3d
       -0.11700913 0.06818256 -0.24630421 0.04821738

edge_encoder.2.bias f4 [16]
000000 53 4b 1d be 23 54 0c bd d3 ab 1e 3d 58 f8 56 3e
       -0.15360765 -0.034259927 0.038738083 0.20993173
000010 b0 d7 e7 bd 56 52 29 3e 7d 19 a5 bc 16 c9 e9 bd
       -0.11320436 0.16535315 -0.020153755 -0.11415307
000020 ff 08 67 be cb d9 6e be f1 05 7e 3e 37 71 8b bd
       -0.22562025 -0.23325269 0.24806954 -0.068087034
000030 47 5e 57 3c 42 5f 75 3d a6 32 30 3e 0b 94 4f 3e
       0.013145036 0.059905298 0.17206821 0.20271318

edge_encoder.3.weight f4 [16]
000000 45 8c 80 3f 1f d5 7e 3f 35 92 7e 3f b0 da 7e 3f
       1.0042807 0.99543947 0.99441844 0.9955244
000010 da 3f 7e 3f a6 be 7f 3f 61 fe 7b 3f 96 89 7e 3f
       0.9931618 0.9990028 0.98435026 0.9942869
000020 cf 3a 81 3f 1d 20 80 3f b3 cc 7e 3f cb 91 80 3f
       1.0096072 1.00098 0.99531096 1.0044492
000030 c8 36 7d 3f 9f 52 7e 3f 09 1e 80 3f 07 36 7d 3f
       0.98911715 0.9934482 1.0009166 0.98910564

edge_encoder.3.bias f4 [16]
000000 87 f7 e1 3b df e2 a8 bb 6a b8 e6 3b f8 02 c6 bb
       0.0068959626 -0.0051539983 0.007041027 -0.0060428344
000010 3a 79 f1 3b 80 de 87 3b 22 06 47 3c df 01 c5 3b
       0.0073691877 0.004146397 0.012147458 0.006012186
000020 dc a9 42 bb b9 7d 8e 38 a3 83 2a bb f2 37 68 bb
       -0.0029703295 6.794505e-05 -0.0026018403 -0.0035433737
000030 c3 c4 1e 3c a7 90 f7 bb 82 e6 1f bb 3c 7a 41 bc
       0.009690466 -0.0075550857 -0.0024398868 -0.011808928

node_model.0.weight f4 [16, 48]
000000 c0 a7 00 3e da 89 0b be dc c7 bb 3a e8 b8 9c bd
       0.12563992 -0.13626805 0.001432653 -0.076524556
000010 31 23 8b bd 8e 22 dd 3c 26 e3 05 3e 7d ef f1 bd
       -0.067938216 0.026994016 0.13074932 -0.11813257
000020 33 d1 cf 3d 5c 5f 9d bd cd 85 03 bd 75 07 e5 3d
       0.101473235 -0.07684204 -0.032110024 0.11183063
000030 bd f3 0b bd 8c 61 95 3c ff 4e c2 bd 4e a9 d9 3d
       -0.034167994 0.01823499 -0.094877236 0.106279954
000040 4f b8 c2 bc c3 3d f1 bd c3 e1 d5 3c 01 7c dd bd
       -0.023769526 -0.11779358 0.026108628 -0.108146675
000050 42 ea dc bd 1a a5 e3 3b 89 64 fe 3d f0 8a 0b bd
       -0.10786869 0.006947172 0.12421519 -0.034068048
000060 01 10 5f 3d 6e 19 11 3e ef 79 a1 3d bb 5d 96 bd
       0.054458622 0.14169857 0.07884585 -0.073420964
000070 a6 c0 0a bd 8c 15 1a bd 6d b3 d0 bd ab a6 e2 3c
       -0.03387513 -0.037618205 -0.10190473 0.027667364
000080 e5 db d4 3d 00 46 fb 3d 91 42 b1 3c c8 d2 ca 3c
       0.10393504 0.12269211 0.021638187 0.024758711
000090 2f 4b 2f bd 63 15 ce 3d 0f 8b a3 bd 18 ce c4 bd
       -0.04279631 0.10062673 -0.07985508 -0.09609622
0000a0 0c 3a 02 3d 8f cb af 3d cd c9 f9 bd 34 cf 05 3e
       0.03179364 0.085837476 -0.121966936 0.13067323
0000b0 a2 10 12 3d ee 42 c0 bd 32 a7 51 bd 0e 34 f3 3d
       0.035660394 -0.09387766 -0.05118484 0.11875163
0000c0 2b e2 f1 bd 2a 6e 3a bd a8 4b e5 3c d7 f3 f4 bd
       -0.11810716 -0.045515217 0.027990177 -0.11960571
0000d0 e8 eb ad 3d 8d fb 85 3d a8 07 a9 3d 7b c6 aa bd
       0.08492261 0.0654212 0.082534134 -0.083386384
0000e0 cc a9 34 3e 46 5c b8 bd 2e 2b 08 3e e9 4d 07 be
       0.17642897 -0.09001975 0.13297722 -0.13213314
0000f0 0b 5c f3 bd e4 90 c4 3d 73 d7 9c 3c 1a 46 6b 3b
       -0.1188279 0.09597948 0.019145703 0.0035899938
000100 2e 5c c7 bd fb 83 cd bd 09 4a 16 bd 20 08 1c be
       -0.09734379 -0.10034939 -0.0366917 -0.15237474
000110 59 07 f8 ba bb b4 cf bb db 57 ad 3b f6 3b 4b 3d
       -0.0018923088 -0.0063386834 0.005290014 0.04961773
000120 c6 47 04 3e 9b e2 80 3d ee 6a cb bd 2f 82 17 bd
       0.12918004 0.062932216 -0.099325046 -0.036989387
000130 85 87 d8 bd 55 4c cd bd b2 50 a5 bc 0f 7a 17 3b
       -0.10572723 -0.10024325 -0.02018008 0.0023113524
000140 d0 e3 7b 3d ec d5 79 bd a1 53 f4 3d 7f 13 08 be
       0.061496556 -0.060995027 0.119300134 -0.13288687
000150 d5 7e 44 3c 1d ef 1a 3e b8 7e 2d 3e 6b 12 d1 bd
       0.01199313 0.15130277 0.1694287 -0.10208591
000160 90 c6 c6 3c 68 94 4a 3c d7 d0 8c bd 10 24 36 bd
       0.024264604 0.012364484 -0.068757705 -0.044467986
000170 5e 1a bd 3b f5 31 d3 bd b5 ba 3c 3c 13 12 93 3d
       0.0057709655 -0.10312263 0.011519124 0.07181182
000180 61 72 7d bd 38 6a e4 3d 3c d2 d2 bc d3 52 a0 3d
       -0.06187666 0.11153072 -0.025735013 0.078282975
000190 ec 7c 1b 3e 89 b5 5d bd 7c 20 8b 3d be 7d 04 bd
       0.15184373 -0.054128204 0.06793305 -0.03234648
0001a0 27 c4 7e 3b 29 7f f6 bc b9 6b 68 bc 96 61 45 bd
       0.003887424 -0.030089932 -0.014185839 -0.04818877
0001b0 3b 8e 35 3d 8a ee 8e 3c 58 b4 c9 3d b2 79 8f bc
       0.044325095 0.017447729 0.09848851 -0.017514084
0001c0 d6 8c 19 3c 2e 85 5e bd cf 50 03 be 11 81 31 3d
       0.009371957 -0.05432623 -0.12823795 0.043335978
0001d0 3f 3a 0b 3d 8e dc 9e bd 70 ce 50 bd 50 fc 50 3d
       0.033991095 -0.07756911 -0.050978124 0.051021874
0001e0 4a ce 61 bc a3 ba cb 3d e9 60 53 bc a7 02 16 3d
       -0.013782093 0.099477075 -0.012901523 0.036623623
0001f0 2e da 27 3d e6 d3 c4 bc 6a a7 98 3d 10 d9 00 3e
       0.040979557 -0.024026822 0.07453807 0.12582803
000200 65 c0 b6 3c fe e3 3e 3d 89 aa ac bb 14 50 ba 3d
       0.022308538 0.04660415 -0.005269353 0.09097305
000210 95 7b 12 bd 03 b7 b4 bd a0 70 45 3d e3 f0 18 be
       -0.03576239 -0.08823969 0.04820311 -0.14935641
000220 b3 1f ac 3c 8d 44 80 bd 97 94 e0 3d de f1 ff bd
       0.02101121 -0.06263075 0.10965841 -0.124973044
000230 db ab 83 3d be 7c 0b 3e 2a 2d af 3c 0c d8 b8 bc
       0.06429263 0.13621804 0.02138384 -0.022563957
000240 f6 91 f0 3d 2c 3e 3b bd b1 93 07 bd c8 1a 73 bd
       0.1174659 -0.04571359 -0.033099834 -0.059351712
000250 cc ad a9 bc fa ca b4 3c 8a 50 2b 3c 0d 65 37 bc
       -0.020712756 0.022069443 0.010456214 -0.011193526
000260 24 8b 1e be e2 cd f0 bb 89 35 42 bc f0 81 30 3d
       -0.15482765 -0.007348762 -0.011853584 0.043092668
000270 0f 87 03 3e ba 67 17 3e c0 86 9b bd 06 58 60 bb
       0.1284449 0.14785662 -0.07594061 -0.0034232154
000280 f1 26 64 bd 42 c8 14 be fa 88 f1 bd 39 03 f6 3d
       -0.0557012 -0.14529517 -0.11793704 0.120123334
000290 e0 b9 b5 3d 80 43 bd 3d 4c 3e 8f 3d e6 9d 02 be
       0.088733435 0.0924139 0.06994304 -0.12755546
0002a0 f8 29 0b 3d a8 90 12 3e 16 b9 7b bd 2c f3 d4 3d
       0.03397557 0.14312994 -0.06145581 0.10397944
0002b0 e6 b7 0b 3d d0 1b ff 3d b5 e9 30 bd 3e c4 44 3d
       0.034110926 0.12456477 -0.04319163 0.048038714
0002c0 22 92 d9 bd cf 49 6f bc dd a8 66 3d 85 ec f9 3c
       -0.10623576 -0.014605 0.056313384 0.03050829
0002d0 08 df f6 3d f6 06 1d 3e 0c 20 07 3e b8 3d 96 3d
       0.120542586 0.15334687 0.13195819 0.07335991
0002e0 05 74 af 3d 88 b3 c7 bb 96 5f fd bd 80 91 6f bd
       0.08567051 -0.0060944 -0.12371747 -0.05848837
0002f0 42 e0 08 bd e1 7d c2 bd 8c bc ae 3d 3a 53 8e 3d
       -0.033416994 -0.09496666 0.08532056 0.06949468
000300 ac 53 72 3c a1 08 ce 3c 1d 08 ec 3d 67 aa 98 3d
       0.014790457 0.025150599 0.11524985 0.07454377
000310 be cf e6 bd 69 61 ed bd 49 ea 4d 3d d0 b7 df 3c
       -0.112700924 -0.11590845 0.05027226 0.027309328
000320 50 a3 ca 3d 31 18 1f be 64 e5 15 be 2d 40 c8 3d
       0.09894431 -0.15536572 -0.14638287 0.097778656
000330 f1 9a d3 3d 31 c2 e8 bd eb 0e 8d 3d 33 5b 0a be
       0.10332287 -0.11365164 0.06887611 -0.13511352
000340 66 90 c9 3d e9 b5 60 3d 6d 2d 03 3e 6c c8 17 be
       0.09841995 0.054860983 0.12810297 -0.14822549
000350 04 19 f6 bd d0 fd ee 3d 2b 3d 1f 3e 29 a2 bf 3d
       -0.1201649 0.11669505 0.15550677 0.093571015
000360 08 84 a0 3d e6 4f 13 be c4 5b 00 3e 12 f1 2c be
       0.07837683 -0.14385948 0.12535006 -0.16888836
000370 0d fa 5a 3d ee eb 8c bd cf fd 81 bd 6c 37 8c 3c
       0.053461123 -0.068809375 -0.06347238 0.017116271
000380 23 0d 35 bd b6 bb 00 bd af d9 0a be ed 9d 0d be
       -0.04420198 -0.031429015 -0.13559602 -0.13829775
000390 2a 75 53 3d c1 04 63 bd 07 03 92 bd f5 81 5b bd
       0.05162541 -0.055424456 -0.07129484 -0.053590734
0003a0 9b 40 07 be 42 b2 ef bd d6 77 9b 3d 1c 64 d1 3d
       -0.13208239 -0.11703922 0.07591216 0.102241725
0003b0 e5 a0 08 3d 3d 9e be bd 89 f2 8c 3d c9 49 43 3c
       0.033356566 -0.09307525 0.068821974 0.011919447
0003c0 37 82 bb bd a6 ba 9e 3c 20 77 12 3e 22 f4 1c be
       -0.09155696 0.01937611 0.14303255 -0.15327504
0003d0 06 2c 08 be da 8a f7 3c ce 71 f6 3d 7c cf cb bd
       -0.13298044 0.030217577 0.12033425 -0.09951684
0003e0 5b 67 17 3d 83 a0 e7 3d 95 23 66 3d a1 3b a0 3c
       0.0369638 0.11309912 0.056186277 0.019559683
0003f0 21 89 07 3e 1f d2 a8 3d a3 1c be bd 27 29 c6 3c
       0.13235904 0.082432024 -0.09282806 0.024189545

node_model.0.bias f4 [16]
000000 e2 3f ef 3d 38 39 a2 3c b9 3a d6 3d 8b b7 94 3d
       0.116821066 0.019802675 0.10460419 0.072615705
000010 9f 38 b6 3d 48 9e 0d be 4a 12 b2 bd 9b 07 a5 3d
       0.08897518 -0.13829911 -0.086948946 0.08058091
000020 cb 5e 09 bd c5 fa fd bd d3 ad eb 3d a6 57 36 3a
       -0.033537667 -0.12401346 0.11507764 0.00069558097
000030 13 d8 d6 3d 0b 42 03 be 87 a5 7e 3d b2 7a 12 bd
       0.10490432 -0.12818162 0.062169578 -0.035761543

node_model.2.weight f4 [16, 16]
000000 5d b4 27 be 7a 22 8f bd 9b 20 ac bd 27 94 11 3e
       -0.16377397 -0.06988998 -0.084046565 0.14216672
000010 bb bf 01 3d 55 cf 38 3e 04 18 76 3d d5 c0 b5 3d
       0.03167699 0.18047841 0.060081497 0.088746704
000020 88 d9 49 be df 9e 84 be 08 2e b0 bd c2 8f 83 be
       -0.19711888 -0.2590246 -0.0860253 -0.25695616
000030 9c 60 37 bd 09 2f 97 bb 50 49 2d 3d 83 e0 bc bd
       -0.04476987 -0.0046137613 0.042306244 -0.0922251
000040 6c a6 0a 3e e8 65 cf 3d 83 5d a1 bd 2b 32 05 be
       0.13540047 0.10126859 -0.07879164 -0.13007419
000050 ee 71 4c 3e 58 43 54 3e 05 ca 74 be 5f 5c 30 bd
       0.19965336 0.20728815 -0.2390519 -0.043056842
000060 de 7c 4b bd 5f 16 f5 bd 82 75 40 3e 3d 86 b0 bc
       -0.04967963 -0.119671576 0.18794826 -0.021548385
000070 03 14 4b 3e 15 19 6d bc c1 a5 eb 3c e4 2c 19 be
       0.19831853 -0.014471312 0.028765561 -0.1495853
000080 c0 2b 05 be cd aa 3e 3d 48 3a f6 3d 0c 8b 10 bd
       -0.1300497 0.046549607 0.12022835 -0.035288855
000090 4f 55 8e 3e 8a f1 31 be e3 63 9a 3d c0 ab 84 3e
       0.2779946 -0.17377296 0.07538583 0.25912285
0000a0 f8 36 68 bd 13 78 29 3e e3 4a 80 bc 5c be 5f be
       -0.056693047 0.16549711 -0.015660709 -0.2184996
0000b0 6c d4 0f be 64 f4 a7 3d 44 3f bc bd e8 4e 9a 3d
       -0.14045876 0.08200911 -0.091917545 0.075345814
0000c0 a2 60 90 3e cc 65 ec 3d a3 41 ce bc 3a 51 e1 3d
       0.28198725 0.11542854 -0.025177782 0.11001821
0000d0 08 43 19 be 00 1b 4e be b6 f4 2e be ed c6 44 be
       -0.14966977 -0.20127487 -0.17085537 -0.19216509
0000e0 d7 38 99 3d d2 e9 a3 3d 39 59 b5 bd 11 1e 7a be
       0.074815445 0.08003582 -0.088549085 -0.24425532
0000f0 fe 23 15 3e fb 76 06 be 8d fa fc bc 90 2e 55 be
       0.14564511 -0.13131325 -0.03088119 -0.20818543
000100 26 b4 ad bd ca 58 19 3e 12 6e 80 be a8 41 d2 bd
       -0.08481626 0.14975277 -0.25083977 -0.10266429
000110 6b c1 fb 3d 8a c8 f1 bd 52 0c b3 bd fc fd 19 be
       0.12292751 -0.11805828 -0.08742584 -0.15038294
000120 c1 0a 9a 3d 85 36 06 be 93 a8 47 3d 52 7b 05 3e
       0.075215824 -0.13106735 0.04874475 0.13035324
000130 25 74 52 bc 66 32 5c 3d b6 85 65 be f5 0f bf 3d
       -0.012845074 0.053759 -0.22414288 0.093292154
000140 e2 9f f7 3d c2 02 47 3b 3e a6 37 be 68 73 f9 3d
       0.12091042 0.0030366634 -0.1793451 0.12180215
000150 c9 e0 41 3d 77 79 0a bd 55 3f 0f 3e 2b 49 9d bc
       0.047333512 -0.033807244 0.13989003 -0.019199928
000160 fc c4 bc bd d8 4c a9 3b cb 36 89 3e f2 80 d0 3b
       -0.09217259 0.005166631 0.26799616 0.0063630277
000170 84 7a 48 be 76 f9 7b bc c0 b4 42 3c 12 4c bd bd
       -0.19577986 -0.0153793 0.0118839145 -0.09243025
000180 53 55 b8 bd c7 f3 79 3e 86 09 11 3e a4 96 85 3b
       -0.09000649 0.244094 0.14163789 0.0040767957
000190 58 8c 40 bd 0a f3 14 bd 53 dd 54 3d c1 97 06 bd
       -0.047008842 -0.036364593 0.051968884 -0.032859568
0001a0 ac 74 06 be ca 79 90 3d 40 35 f4 3c cf d8 2e bc
       -0.13130444 0.070544794 0.029810548 -0.010671808
0001b0 2c 15 b8 bd 63 48 a2 3d 49 22 7d be 9e fd 64 3d
       -0.08988413 0.07923963 -0.2472011 0.05590593
0001c0 c2 d1 18 3e 41 24 f8 bc 85 34 46 be 18 7c 3e bd
       0.14923766 -0.030290725 -0.19355972 -0.046505064
0001d0 4b 9d be bd ad c8 66 be 3f aa 4a be c7 8a f1 3d
       -0.09307345 -0.22537489 -0.19791506 0.11794048
0001e0 4b 8c 69 3e be ca 12 3e 1b 5a 3c 3e 96 db 99 3d
       0.22807424 0.14335153 0.18393748 0.07512586
0001f0 ce 3e c1 3d 79 17 34 3e 04 ee 18 be ca 42 82 bd
       0.09435807 0.17587079 -0.14934546 -0.06360395
000200 8d 94 08 3e 4a 94 0c bd f1 d0 12 be 25 e3 67 be
       0.13337918 -0.034321107 -0.14337517 -0.22645243
000210 ff aa 5c 3e 48 93 5a 3e 70 c8 43 3e b0 94 c2 3d
       0.21549605 0.21345246 0.1911943 0.09501016
000220 2a 68 3d 3e d3 ac 80 be fb 4d 4a be b3 dc 6a be
       0.18496767 -0.25131854 -0.1975631 -0.22935753
000230 cb 0e 48 3e 8d 9c 57 bc fe 63 9a bd 52 04 d9 3d
       0.19536893 -0.013159883 -0.07538603 0.10596527
000240 7b f5 37 bd d4 6e f0 bd 3b 41 ce 3d 2c 6c b4 3d
       -0.044911843 -0.11739889 0.100710355 0.08809695
000250 1c 44 44 be 4b 27 32 be 4e 2f 0a 3e e9 9d 53 3e
       -0.19166607 -0.17397802 0.13494608 0.20665707
000260 b0 15 e8 3c 87 94 bf bd 0c b6 09 3e f8 e2 82 3d
       0.028330654 -0.09354501 0.13448352 0.06390947
000270 2b 99 5e be ee 7d 1d be ff 66 8c 3d 47 3b 30 3e
       -0.21738116 -0.1538007 0.068555824 0.17210113
000280 b9 5a fe bd 77 10 98 3d 7e c2 25 be a2 6d 46 3e
       -0.12419648 0.074250154 -0.16187474 0.19377759
000290 70 fc 52 3e 41 dc 3f 3d db 79 b4 3d 22 6f 86 3d
       0.2060411 0.04684091 0.088123046 0.06564166
0002a0 9a a4 eb bd 1d 6c 0e bd 6d 86 00 3d 59 81 0c bd
       -0.11506005 -0.034771074 0.0313782 -0.034303043
0002b0 4b af 6a 3e d5 6d a3 bd d1 3f 64 be af 5a 02 be
       0.22918431 -0.07979933 -0.22289969 -0.12729906
0002c0 0a 4d 89 be c1 34 36 3e a1 24 ea bd 8e 43 4d be
       -0.2681659 0.17793562 -0.11432768 -0.20045301
0002d0 d6 8a 39 3c df 52 35 be 4f 4d 01 be e6 fd 1e 3e
       0.011324605 -0.17707394 -0.12627147 0.15526542
0002e0 84 bc 27 be f4 97 b2 3d 6b 9d 26 3e 81 c1 e4 ba
       -0.16380507 0.08720389 0.16270988 -0.0017452688
0002f0 9f 3f d8 3d 65 4f 1a be 77 cb 50 3e 37 62 7a 3e
       0.1055901 -0.15069349 0.20390116 0.24451528
000300 b7 13 3a 3c 2b 97 59 3e 46 95 89 be 9f 4e 31 bd
       0.011357239 0.21249072 -0.268717 -0.04328787
000310 a7 f7 16 bc b1 9d 54 be 05 f5 0a 3e f0 64 24 be
       -0.009214318 -0.2076328 0.1357003 -0.1605413
000320 af 0f d2 bd 1f 35 56 be d8 ca d5 3d e1 2a 31 be
       -0.10256898 -0.20918702 0.1043908 -0.17301513
000330 9f c1 19 bd 2b 8b f5 3d 23 00 1e 3e 43 6f 9a 3c
       -0.037538167 0.11989435 0.1542974 0.018851882
000340 70 fe c4 bc 88 27 c7 bd 9a 23 01 3e 6c ac 45 3d
       -0.024047107 -0.09724337 0.12611237 0.048260137
000350 29 6b 54 3e f8 9a d3 3d d5 26 2b 3e a8 1b 61 be
       0.20744003 0.10332292 0.16714032 -0.21983206
000360 15 76 64 3e 62 68 bf bd 7f 00 82 bd 3b 99 99 3c
       0.2231067 -0.09346081 -0.06347751 0.018749824
000370 73 9a 81 bd 5e ec 2b 3d bf 24 41 3e f1 3a 08 be
       -0.06328287 0.041973464 0.18861674 -0.13303734
000380 37 44 a8 3c bd d6 78 be 68 83 fa 3c 07 fa 18 3e
       0.02054034 -0.24300666 0.030580238 0.14939128
000390 8d ec 5d 3e 74 34 5e 3e dc dd 02 3e f2 74 6e 3a
       0.21672268 0.21699697 0.12779945 0.00090964057
0003a0 fc f8 4a 3d 96 13 eb bd db 41 42 3e ea 72 0f 3e
       0.049553856 -0.11478345 0.18970434 0.1400868
0003b0 95 94 57 be 9e 90 4f 3e fd b2 4e 3c 66 98 8e bb
       -0.21052773 0.20270011 0.012615916 -0.0043516634
0003c0 a6 6a 03 bd e0 eb 3b bd e7 44 27 3c 7a be f9 bd
       -0.03208413 -0.045879245 0.010209299 -0.12194534
0003d0 f2 65 41 be 94 1e 00 be b0 ac 1c bd 92 9c 48 3e
       -0.18886545 -0.12511665 -0.038250625 0.19590977
0003e0 1e 7f 4d 3e eb 55 06 be 90 4c 77 3c e0 c7 7c bd
       0.20068023 -0.13118713 0.0150939375 -0.061714053
0003f0 51 e1 e7 bd df 4a ca bc 2a ea 54 bd 1b 83 f6 3d
       -0.113222726 -0.024693904 -0.05198113 0.12036725

node_model.2.bias f4 [16]
000000 1a 79 d8 bd fd 6c 49 3c e1 77 21 be 60 96 49 bd
       -0.10569973 0.012294051 -0.15768386 -0.049215674
000010 36 d1 56 3e 96 30 da bd b4 42 ae 3a 40 0e 4d 3e
       0.20978245 -0.10653798 0.0013295026 0.20024967
000020 ba cc ab 3d ec 88 b7 bd 31 30 36 be a2 6a c5 bd
       0.08388658 -0.08961663 -0.17791821 -0.09639479
000030 d2 40 d9 bd 0d 95 e0 3d c4 db a1 bd 3e 41 60 3e
       -0.106080666 0.10965929 -0.07903245 0.21899888

node_model.3.weight f4 [16]
000000 11 fb 8b 3f a8 c5 7b 3f 87 ce 8f 3f 63 33 8c 3f
       1.0935994 0.98348475 1.1234902 1.0953182
000010 b0 1e 8c 3f f3 31 8d 3f f4 76 91 3f 46 3c 8b 3f
       1.0946865 1.1030868 1.1364427 1.0877769
000020 b9 dd 8e 3f fe 34 84 3f 94 36 80 3f 02 44 88 3f
       1.1161414 1.0328672 1.0016656 1.0645754
000030 93 35 88 3f c0 c7 8b 3f 10 83 8e 3f d2 18 81 3f
       1.064135 1.0920334 1.1133747 1.00857

node_model.3.bias f4 [16]
000000 90 e6 bd bd f8 e9 6a bd c9 07 ce bd e6 37 a8 3d
       -0.09272492 -0.057352036 -0.10060079 0.08213787
000010 b0 fe be 3d cb 9b 9a 3d 3d aa d8 3d 2c c1 d9 3d
       0.093259215 0.075492464 0.105793454 0.10632548
000020 13 54 b1 bd 7a 68 5e bd 5d 57 83 bb cf 84 b8 bd
       -0.08658614 -0.054298855 -0.0040082172 -0.09009706
000030 19 63 90 3d 4f 96 b8 bd a3 67 cb bd 43 25 3a bd
       0.070501514 -0.09013044 -0.099318765 -0.04544569

edge_model.0.weight f4 [16, 96]
000000 41 27 81 bd 27 43 c5 bc 72 8a e2 3c 81 54 a9 3d
       -0.06306315 -0.024079872 0.027653906 0.08268071
000010 3c 18 c4 3d e6 d8 73 3c 81 91 f7 b9 28 aa 29 bd
       0.09574935 0.014883256 -0.0004721992 -0.04142204
000020 06 6c 16 3d 55 b3 85 bd f8 31 05 bd c6 70 9d bd
       0.036724113 -0.065283455 -0.032518357 -0.076875255
000030 e3 c3 b9 bd 83 43 81 3d 22 32 54 3c 5f ea 89 3d
       -0.090705656 0.06311705 0.012951406 0.06734156
000040 e6 a7 9d 3d 2d b4 a1 3d 6b 2e ca 3c b7 f9 f8 bc
       0.0769804 0.07895694 0.024680337 -0.03039251
000050 09 38 5a 3d a8 76 73 3d cc 3b d1 3b c0 9f a0 3b
       0.053276096 0.05943933 0.006385302 0.004901856
000060 e7 15 87 3c 4b e1 b8 bc eb a3 86 bd 45 e1 07 3d
       0.016489936 -0.022568366 -0.065742336 0.03317382
000070 dd ec 59 bd ec ba 5f 3d a0 28 3a bd b7 2e 67 bd
       -0.053204406 0.054621622 -0.0454489 -0.056441035
000080 a6 60 4d bd 6b da a8 3d 94 32 ab bd a6 bb 6c 3d
       -0.050141 0.08244785 -0.083592564 0.057796143
000090 35 7a 4f 3d 18 6f 95 3d bc a2 a2 3c a4 28 62 3d
       0.050653655 0.0729658 0.019852988 0.05521454
0000a0 07 1b 9f 3d 16 1c 74 3c e3 f5 e6 3c 29 71 98 bd
       0.07768827 0.014899274 0.02819342 -0.074434586
0000b0 46 f4 a8 bc 05 41 99 3c 35 04 a2 3c 0c 45 6c bd
       -0.020624291 0.018707762 0.019777397 -0.057683036
0000c0 05 0d dc bd c2 d4 bf bc 05 90 dd 3c 0a e5 b3 3d
       -0.10744671 -0.02341688 0.027046213 0.0878392
0000d0 b3 0f a8 bd 4c 8e 0b 3d 60 3a e2 bd e2 b7 b3 bd
       -0.082061194 0.03407125 -0.110462904 -0.08775307
0000e0 e6 48 74 bd 05 1f da bc 99 84 19 3c b9 15 99 bd
       -0.059639834 -0.02662612 0.009369993 -0.074748464
0000f0 57 1a a4 3d 89 d1 d8 3d 6d 2f 82 3c 8e 3c b4 3d
       0.080128364 0.10586841 0.015891755 0.088006124
000100 88 01 7c bd 0f 95 3f bd 0d b4 68 bb de a5 92 3c
       -0.061524898 -0.046773013 -0.003550771 0.017901357
000110 a1 94 9e bd f0 e4 9b bd 4a 2e 16 3d 67 b9 cf 3c
       -0.077431925 -0.07612026 0.03666524 0.025356961
000120 42 14 c6 3d a5 6e 36 bd 0e 7f 27 3d 0a dd 45 bd
       0.096718326 -0.044539113 0.040892653 -0.048306502
000130 30 25 34 3d 43 83 00 3b 89 08 a8 3d c9 e7 76 3d
       0.043980777 0.0019609488 0.08204753 0.06027964
000140 a4 30 a4 3d 3a 19 54 3d 30 92 a6 3b f3 f2 b5 3d
       0.0801709 0.05178187 0.005083345 0.088842295
000150 53 15 67 bd c9 32 d5 3d 77 f7 b9 3d 4b b2 ac 3d
       -0.05641682 0.10410077 0.09080403 0.08432444
000160 e6 62 60 bd 06 31 99 bd d2 82 7d 3c da b9 29 3d
       -0.054781817 -0.074800536 0.0154730845 0.041437007
000170 52 2e ec 3c 47 bd 58 3d ba 13 ba 3d c3 64 6d bc
       0.028830681 0.052914884 0.09085794 -0.0144893555
000180 64 07 18 bd 40 aa 08 3d 41 4c 13 3d e3 18 74 bd
       -0.037116423 0.033365488 0.035961393 -0.059594046
000190 8e ca 27 3c 0c 62 9a bd be 47 04 bd 8e cb 1e bd
       0.010241164 -0.07538232 -0.03229498 -0.038768344
0001a0 53 d8 88 3c 14 69 cc bd 8e 8e 71 bd ec 1f be bd
       0.016704714 -0.099809796 -0.05897384 -0.09283432
0001b0 be 30 d2 3c 0d 65 9b bd 0d ca 26 3d 79 1d af bd
       0.025658008 -0.07587633 0.040720034 -0.08550543
0001c0 4e eb 83 bd 13 9d 56 bd 7d b5 85 3c 61 ef bb 3d
       -0.06441365 -0.05239589 0.016321892 0.09176517
0001d0 90 a6 d3 3d 37 68 98 bb 15 6b f2 bd 08 93 0b bd
       0.10334504 -0.0046510953 -0.118368305 -0.034075767
0001e0 42 46 0b bd 10 2d ce bc a8 69 46 3d 71 46 6e 3d
       -0.03400255 -0.025167972 0.048440605 0.058172647
0001f0 31 19 25 3d 7b ca 1b 3d 2b a1 f2 bc 82 e6 87 bc
       0.040307228 0.038034897 -0.029617867 -0.016589407
000200 5e 57 f9 3b 05 35 12 bd 76 32 7c bc ee 1f 15 bc
       0.007609292 -0.035695095 -0.01539289 -0.009101851
000210 4e 71 d6 bd 9a 65 99 3d 25 df 4f bc e9 9c bc bd
       -0.1047083 0.07490082 -0.012687479 -0.09209616
000220 eb bd 62 3d fa 04 77 bd 01 ef 13 3d 92 cb d8 3d
       0.0553569 -0.06030748 0.036116604 0.10585703
000230 8b 0c 0e 3c a6 54 0c 3d 9c cc 3f 3d e9 57 80 3d
       0.008669983 0.034260415 0.04682599 0.062667675
000240 97 3a 19 bd e5 47 81 bd b4 8b 07 bb 16 f5 a6 3d
       -0.03740939 -0.06312541 -0.0020682635 0.08152215
000250 89 fe 58 3a 94 df 68 3d 9e 7b 2b ba b9 9e c7 3c
       0.0008277675 0.056853846 -0.0006541553 0.024367677
000260 df 40 2e 3c 19 b3 ba 3b a4 9b cc bd 01 8e 9e bd
       0.010635584 0.0056976196 -0.099906236 -0.07741929
000270 e0 33 54 3c d1 80 55 3d a4 7f 85 3d 7a 1e 6f 3c
       0.012951821 0.052124802 0.06518486 0.0145946685
000280 40 4c 48 3d ba 02 20 3c aa 9f a7 bd af d0 ab bd
       0.048900843 0.009766275 -0.081847504 -0.083894126
000290 f6 60 b4 bd 30 67 0d 3c 2f 8a 79 bd ff b2 b3 bc
       -0.08807556 0.008630559 -0.060922798 -0.021935938
0002a0 ae 19 93 bc 47 47 1a 3d d8 6a dd 3c ed 6a bb 3d
       -0.017956581 0.03766563 0.027028486 0.09151254
0002b0 fc 97 bb 3d bb 21 84 bd bb 61 81 bb c8 cd a6 3c
       0.09159848 -0.06451746 -0.003948418 0.020361796
0002c0 0b cf ae 3d a2 e9 0b bd a4 7c 4f bd 7c 25 5e bd
       0.08535584 -0.034158356 -0.050655976 -0.054234967
0002d0 de 7f 93 3d 52 32 64 bc 76 48 19 bd 63 8e b4 3d
       0.07202123 -0.013928013 -0.03742262 0.088162206
0002e0 1c 13 b3 3d aa 79 05 bd 42 af 6a bd 83 c9 c6 3d
       0.08743879 -0.03258673 -0.057296045 0.09706404
0002f0 97 08 1a bd a5 c3 37 bd fc 65 86 bd 29 84 39 bd
       -0.03760585 -0.044864316 -0.06562421 -0.045292053
000300 a1 61 b5 bd f7 41 9e bd d5 55 a7 bd 7c 23 4c bc
       -0.08856512 -0.077274255 -0.08170668 -0.012459632
000310 24 dd 7a 3d 5c fa bf bd fa 14 6a bc be c9 b9 bc
       0.061246052 -0.09373924 -0.014287228 -0.022679206
000320 14 0f ea b9 c2 b2 8c 3d 4e 26 be bc a3 79 15 bd
       -0.00044643192 0.06870033 -0.023211624 -0.036492955
000330 e0 d3 8e bd be 78 4b bd b7 cf 44 3d 3d 42 10 3c
       -0.06974006 -0.049675696 0.048049655 0.008804855
000340 14 a1 38 3d 8f a6 94 bc cc c4 0e 3d 22 9f c8 bd
       0.04507549 -0.018145828 0.03485565 -0.09795977
000350 3f a0 03 3d 87 b5 ed 3d 7f 2d db bd 90 6f 2d bd
       0.032135244 0.11606889 -0.10702037 -0.042342722
000360 e9 e9 68 3d a4 d5 8b bc 01 69 53 bd a8 94 5a 3d
       0.0568637 -0.017069645 -0.05161381 0.053364426
000370 48 6e 36 3c e7 51 af 3c a7 c0 8a bc aa 0d 98 3d
       0.011134692 0.021401359 -0.016937567 0.07424481
000380 50 99 16 3d a0 08 78 3c 8e c3 88 3b 3d ec 80 3d
       0.036767304 0.015138775 0.0041737026 0.06295059
000390 21 e6 92 3d f9 c9 61 bd ae 3e c6 bc 92 0d 6f 3d
       0.071728 -0.055124257 -0.02419981 0.05836255
0003a0 c1 17 26 bd eb dd a1 3d 4b cc ad bd e1 27 86 3d
       -0.040549997 0.079036556 -0.084862314 0.06550575
0003b0 52 8e 62 bd 59 ca 3b 3d f4 3c ae 3d 65 f6 4e 3c
       -0.05531151 0.04584727 0.0850772 0.012631987
0003c0 50 80 a1 bc 25 5f 7d 3d 70 d8 aa bd 6f df aa bd
       -0.019714504 0.061858315 -0.083420634 -0.08343398
0003d0 96 a8 b5 bd f9 8d 3c bd 0e cc 57 bc e6 a8 32 bd
       -0.08870046 -0.046033833 -0.013171209 -0.043618105
0003e0 26 fa 1b 3d 0d 8c b5 3a e4 28 ad 3d 32 15 73 bd
       0.038080357 0.0013850942 0.08455065 -0.059346385
0003f0 38 af ba bc cc b8 bd 3d a5 01 c6 3a 10 7f a5 3d
       -0.022788629 0.09263763 0.0015106691 0.08080876

edge_model.0.bias f4 [16]
000000 bd 4d 2d 3d f7 ac c4 3d ce bb 92 3c 05 39 b4 bd
       0.042310465 0.09603303 0.017911818 -0.08799938
000010 77 4d e5 bc 2a a4 e9 3c bd ca 40 3d bb d9 dc bd
       -0.02799104 0.028520662 0.047068346 -0.10783716
000020 24 47 96 3d 8d 67 a9 bd 99 50 6b 3d 5a 3c d8 3d
       0.07337788 -0.08271704 0.05744991 0.10558386
000030 b0 0a ce 3c 57 31 e1 bc 3e ac 76 3d 12 d3 13 bd
       0.02515158 -0.027489347 0.060222857 -0.036089964
