tmp/tmp0model300.pt (torch, 23679 bytes, 25 tensors)

node_encoder.0.weight f4 [16, 5]
-0.0033482015 0.23990488 -0.36807698 -0.32912195 -0.17224628 0.10255609 -0.015295589 0.33437228
-0.039687544 0.1150408 -0.14170638 -0.09445929 -0.42724484 -0.29618156 -0.18435177 0.021143144
0.181376 0.27291504 -0.30318445 -0.19474488 0.16025007 0.35277724 -0.0871688 0.33465517
-0.020119017 0.04130605 0.39892578 -0.4148668 -0.28153792 -0.16321336 -0.19171402 0.36900285
-0.28987473 -0.20586711 -0.31244153 -0.4188428 -0.26105666 0.3844239 0.19955492 0.21675217
0.032649085 -0.20675427 0.086828694 -0.41756096 -0.32314146 -0.2339754 0.2787408 0.2587876
-0.198337 -0.042021245 0.28418222 0.4501835 0.17260095 0.060415387 0.2681078 -0.26610208
0.0805539 -0.34672716 -0.30995756 -0.23102319 0.20744248 0.19035693 -0.27167442 0.13510638
0.2796391 -0.06506047 0.01770605 0.10160277 0.27744085 0.44534478 -0.34463334 -0.16389024
0.17575938 0.37053853 0.38916856 0.37646228 0.07086237 -0.3888892 0.041140288 -0.2797792
00000000: 806d 5bbb a0a9 753e 9674 bcbe ac82 a8be
00000010: 5461 30be ed08 d23d 5a9a 7abc d832 ab3e
00000020: 688f 22bd 839a eb3d 7a1b 11be df73 c1bd
00000030: d6bf dabe 1ca5 97be b6c6 3cbe 6334 ad3c
00000040: a1ba 393e 85bb 8b3e fe3a 9bbe 346b 47be
00000050: 9818 243e 389f b43e 8e85 b2bd ec57 ab3e
00000060: a3d0 a4bc 8830 293d 0040 cc3e 6c69 d4be
00000070: bd25 90be 6721 27be ae50 44be f1ed bc3e
00000080: 766a 94be d4ce 52be 56f8 9fbe 9072 d6be
00000090: 38a9 85be 36d3 c43e 2058 4c3e 48f4 5d3e
000000a0: 0cbb 053d 64b7 53be 3ed3 b13d 8dca d5be
000000b0: cc72 a5be 3f97 6fbe 1db7 8e3e cf7f 843e
000000c0: db18 4bbe 781e 2cbd 5580 913e 747e e63e
000000d0: 4ebe 303e 2076 773d 6d45 893e 883e 88be
000000e0: 71f9 a43d 3986 b1be c2b2 9ebe 5891 6cbe
000000f0: cd6b 543e edec 423e e918 8bbe 5459 0a3e
00000100: db2c 8f3e 6c3e 85bd 470c 913c 1d15 d03d
00000110: ba0c 8e3e 3b04 e43e c873 b0be d8d2 27be
00000120: 44fa 333e 3ab7 bd3e 1a41 c73e aabf c03e
00000130: 4a20 913d 7c1c c7be b882 283d 383f 8fbe

node_encoder.0.bias f4 [16]
-0.41678256 0.37997836 0.3334905 -0.44153142 0.08152013 -0.08135308 -0.090984255 -0.2047151
0.18110815 -0.26830938 0.16210684 0.22337787 0.3252375 0.15860392 -0.44262305 -0.3082457
00000000: 8664 d5be 868c c23e 44bf aa3e 6810 e2be
00000010: 07f4 a63d 729c a6bd f455 babd d6a0 51be
00000020: 6a74 393e d95f 89be 56ff 253e 2bbd 643e
00000030: 8885 a63e 1169 223e 7d9f e2be 61d2 9dbe

node_encoder.2.weight f4 [16, 16]
0.124828756 0.05149542 -0.21091694 -0.18354024 0.22097188 0.15524967 -0.12410785 -0.062921196
-0.22929919 -0.025823306 -0.1944259 -0.20834014 -0.019537715 0.04244288 -0.10238257 0.13301161
-0.15213478 0.22089039 0.17188424 -0.2213294 -0.0663927 0.011897676 0.037655734 0.059293568
0.09115644 0.01101701 -0.12681372 0.119103745 -0.24375747 -0.1517452 -0.06258246 -0.120932706
-0.08745834 -0.20984267 -0.049757183 0.07052787 -0.16386431 -0.0137801 0.18070397 -0.025700063
-0.0065972363 -0.018343769 0.04805201 0.161785 0.23459072 0.15489803 0.23735338 -0.015761193
-0.22458038 -0.1081365 0.19054995 -0.021860687 -0.115236424 -0.17079431 -0.21328819 -0.21100205
-0.0345205 0.12877691 0.14271152 -0.22015892 0.16638263 -0.19316612 -0.05285257 -0.08125053
-0.048153818 -0.041575752 -0.2129845 -0.21597816 -0.029429166 0.015237777 -0.10271539 0.0941748
-0.223339 -0.014239646 0.22842903 -0.09106882 0.23542798 0.09948499 -0.22561523 0.16929534
-0.028848618 -0.11008819 0.18408354 -0.1840938 0.024621401 -0.06920053 0.16229394 0.06978613
0.12693931 0.09847194 -0.05980307 -0.068860106 -0.21093325 0.13743268 0.19849452 0.15509233
-0.17634457 0.017012324 -0.17594272 -0.11277298 -0.13165213 0.08854639 -0.1489458 -0.005454302
0.024534205 0.17319822 -0.1818377 -0.17054224 -0.1401086 0.16513298 -0.08986625 0.21034814
0.09040189 0.01423646 -0.031527486 -0.035026953 0.018243099 -0.08359864 -0.030017665 0.03189826
-0.21237685 -0.13177593 0.18660706 -0.23213568 -0.03622379 0.23146488 0.09030926 -0.021618854
-0.21665248 0.12715562 -0.15974316 -0.037199885 -0.06754572 -0.020339826 0.02022745 0.20620188
0.046564292 0.23516306 0.15833777 -0.13979198 0.11786584 -0.19874266 -0.105956286 0.09131192
0.08254802 0.17779931 -0.08695537 -0.029937776 0.11573306 -0.25173116 0.17292465 -0.2067306
-0.014907001 -0.052610062 -0.14119843 0.02615473 0.19759855 -0.06555965 -0.14842352 -0.09943557
-0.24778709 0.10856733 -0.10678398 -0.15449598 -0.14085509 0.15384574 0.14601545 0.19188046
0.07502662 -0.07841159 -0.07009788 0.08702029 0.20751657 0.06711818 -0.11828634 -0.10374925
-0.23636726 0.056064624 -0.13915113 -0.21930699 0.22352788 -0.15582886 -0.027626114 0.071623385
0.0019456157 -0.16334863 -0.19655907 0.19937028 0.048958447 0.21545763 -0.08381015 0.0746121
-0.05716905 -0.010859921 -0.14762679 0.095887296 0.08672949 -0.0019663975 -0.051979758 -0.15410745
0.15698653 -0.17392345 0.10693221 -0.079131745 -0.11590933 0.04464762 -0.12986425 0.061765805
0.049095213 -0.16783018 0.040456608 0.060383964 0.09676958 -0.031096198 -0.20494851 -0.038538516
0.1191751 -0.1152918 0.10354716 0.16514312 -0.12332874 0.017404027 0.10337475 0.019167868
0.020882875 0.054070067 -0.19651261 0.056643464 0.1907859 0.22243042 0.14646268 0.03350076
0.13605908 -0.08981919 -0.18322569 -0.21441828 0.26885602 0.18334514 -0.17280844 0.09722169
0.1887919 0.24005485 0.20769168 0.18531659 -0.06928723 -0.09909525 0.19505775 0.1400949
-0.15835191 0.22363053 0.10854982 0.12520845 -0.17002201 0.061250985 -0.08764061 0.18474327
00000000: 38a6 ff3d ddec 523d 9cfa 57be f9f1 3bbe
00000010: 7446 623e c5f9 1e3e 422c febd d4dc 80bd
00000020: 68cd 6abe 668b d3bc 9517 47be 1e57 55be
00000030: 8f0d a0bc 96d8 2d3d f4ad d1bd 3234 083e
00000040: 38c9 1bbe 1731 623e 6c02 303e 2da4 62be
00000050: e5f8 87bd 78ee 423c e63c 1a3d d0dd 723d
00000060: 3ab0 ba3d b080 343c 75db 01be aaec f33d
00000070: 8f9b 79be 1863 1bbe 3c2b 80bd 91ab f7bd
00000080: 5c1d b3bd ffe0 56be 30ce 4bbd ea70 903d
00000090: 0ccc 27be eec5 61bc 760a 393e f088 d2bc
000000a0: a12d d8bb ac45 96bc 2fd2 443d f8aa 253e
000000b0: 8d38 703e 979d 1e3e c40c 733e 9e1d 81bc
000000c0: 66f8 65be ab76 ddbd 871f 433e 2f15 b3bc
000000d0: 1301 ecbd b4e4 2ebe 3868 5abe ec10 58be
000000e0: 5e65 0dbd 18de 033e f822 123e 5771 61be
000000f0: 3560 2a3e 57cd 45be f07b 58bd ae66 a6bd
00000100: f03c 45bd 564b 2abd 9c18 5abe 6129 5dbe
00000110: 6f15 f1bc dea7 793c 725c d2bd b8de c03d
00000120: fbb2 64be 674d 69bc 4de9 693e 4a82 babd
00000130: 0814 713e c9be cb3d ae07 67be c25b 2d3e
00000140: f053 ecbc eb75 e1bd 6580 3c3e 1683 3cbe
00000150: d2b2 c93c 02b9 8dbd 6230 263e 08ec 8e3d
00000160: 61fc 013e a8ab c93d 10f4 74bd 8706 8dbd
00000170: e3fe 57be 27bb 0c3e 2642 4b3e 86d0 1e3e
00000180: ac93 34be 6e5d 8b3c 542a 34be 85f5 e6bd
00000190: d1cf 06be cf57 b53d 3f85 18be 00ba b2bb
000001a0: f5fb c83c e05a 313e a933 3abe a0a2 2ebe
000001b0: a178 0fbe 9f18 293e cc0b b8bd 8165 573e
000001c0: a024 b93d 0b40 693c f722 01bd 6c78 0fbd
000001d0: 8d72 953c c435 abbd 9be7 f5bc c0a7 023d
000001e0: 5179 59be 45f0 06be ec15 3f3e fab4 6dbe
000001f0: 665f 14bd 2105 6d3e 10f4 b83d 061a b1bc
00000200: 26da 5dbe 1535 023e b693 23be e85e 18bd
00000210: 6955 8abd b59f a6bc 0ab4 a53c 9626 533e
00000220: 33ba 3e3d 96ce 703e 4c23 223e a125 0fbe
00000230: a563 f13d 3283 4bbe 9cff d8bd be01 bb3d
00000240: f00e a93d 0611 363e a815 b2bd 1140 f5bc
00000250: 7405 ed3d e8e2 80be 2913 313e 30b1 53be
00000260: 7e3c 74bc a67d 57bd 5296 10be 7242 d63c
00000270: 4657 4a3e 2344 86bd 56fc 17be e0a4 cbbd
00000280: e6bb 7dbe 8c58 de3d 8fb1 dabd 3234 1ebe
00000290: 513c 10be bd89 1d3e 1385 153e 507c 443e
000002a0: 8ea7 993d 4196 a0bd 7a8f 8fbd b237 b23d
000002b0: 397f 543e 4275 893d 1c40 f2bd 7d7a d4bd
000002c0: 420a 72be 05a4 653d a27d 0ebe 0392 60be
000002d0: 7ee4 643e 9a91 1fbe 2950 e2bc 48af 923d
000002e0: 0804 ff3a dd44 27be c846 49be b927 4c3e
000002f0: a788 483d eda0 5c3e a8a4 abbd 3bce 983d
00000300: 182a 6abd cfed 31bc 7a2b 17be 8f60 c43d
00000310: 3b9f b13d adde 00bb bae8 54bd 58ce 1dbe
00000320: 14c1 203e fd18 32be 46ff da3d d30f a2bd
00000330: df61 edbd 6ce0 363d 22fb 04be 24fe 7c3d
00000340: 1018 493d addb 2bbe d4b5 253d 2d55 773d
00000350: 212f c63d 74bd febc 06de 51be 90da 1dbd
00000360: 1312 f43d 1b1e ecbd 8910 d43d 471b 293e
00000370: c793 fcbd e492 8e3c 24b6 d33d ef05 9d3c
00000380: 9012 ab3c 9378 5d3d 9a3a 49be fa02 683d
00000390: 615d 433e cdc4 633e 50fa 153e 1838 093d
000003a0: 1253 0b3e 20f3 b7bd 849f 3bbe 7790 5bbe
000003b0: 7fa7 893e d4be 3b3e b2f4 30be 2a1c c73d
000003c0: aa52 413e f0d0 753e 21ad 543e a2c3 3d3e
000003d0: 77e6 8dbd 73f2 cabd 38bd 473e 0a75 0f3e
000003e0: 0127 22be 67ff 643e 5e4f de3d a536 003e
000003f0: 401a 2ebe 50e2 7a3d ec7c b3bd 572d 3d3e

node_encoder.2.bias f4 [16]
-0.047441717 0.090889566 0.039778277 0.11915442 -0.076599695 0.120034374 -0.1669909 0.037614964
-0.16117075 -0.25906786 -0.20384638 0.20005907 0.13670324 0.25083825 0.22129886 -0.23438759
00000000: 3f52 42bd 4f24 ba3d 8cee 223d 3c07 f43d
00000010: 4de0 9cbd 95d4 f53d aaff 2abe 2612 1a3d
00000020: f209 25be 8ba4 84be 1bbd 50be 49dc 4c3e
00000030: effb 0b3e df6d 803e 2b9c 623e 4d03 70be

node_encoder.3.weight f4 [16]
0.99533373 0.9951976 0.9949645 1.0082878 1.0082593 0.998809 0.98508644 0.98442984
1.0382156 1.0079815 0.99948645 1.0019175 1.0006163 1.0163698 1.0161554 1.0013459
00000000: 31ce 7e3f 45c5 7e3f feb5 7e3f 930f 813f
00000010: a40e 813f f2b1 7f3f a02e 7c3f 9803 7c3f
00000020: 40e4 843f 8a05 813f 58de 7f3f d53e 803f
00000030: 3214 803f 6818 823f 6111 823f 1a2c 803f

node_encoder.3.bias f4 [16]
-0.0035178624 -0.004405612 -0.0030203995 0.011514719 0.009834812 -3.8793776e-05 0.015287774 -0.01673658
0.010021188 -0.009131643 -0.00065357424 0.005115282 0.0030176397 0.01447616 0.020489236 -0.008679151
00000000: f08b 66bb f45c 90bb e5f1 45bb 3ba8 3c3c
00000010: 3122 213c 80b6 22b8 9279 7a3c 271b 89bc
00000020: e92f 243c e39c 15bc a054 2bba 189e a73b
00000030: 98c3 453b 6a2d 6d3c 0bd9 a73c ff32 0ebc

edge_encoder.0.weight f4 [16, 4]
-0.35049653 -0.08431793 -0.3296508 0.32970887 -0.3780039 -0.24395072 -0.4830457 -0.28387278
0.3981788 0.428477 0.34188777 0.3758479 0.44539636 0.0116383005 0.21737173 0.45986083
0.1702103 0.5032036 0.24206445 0.33397287 -0.17499608 0.23991376 0.057453275 -0.11940867
-0.24788505 -0.3691965 -0.3847404 0.3265092 0.27881557 -0.056906343 -0.289343 0.3098027
0.46783197 -0.03015488 -0.23606765 0.4789777 0.3511646 -0.3795727 0.52646923 0.35049024
-0.18224543 0.27367896 -0.2840945 -0.1665771 0.4278314 0.022280244 -0.30243075 -0.15290263
-0.13572258 -0.096464396 0.04785031 0.4624148 0.036502317 -0.33583617 0.018049968 0.21546273
0.25893766 -0.45696926 -0.08947122 -0.37157226 -0.12012841 0.16594958 -0.3550651 0.16006477
00000000: 4874 b3be e1ae acbd fdc7 a8be 9acf a83e
00000010: ba89 c1be 38ce 79be c451 f7be c657 91be
00000020: 17de cb3e 5661 db3e ea0b af3e 236f c03e
00000030: fe0a e43e 92ae 3e3c b296 5e3e e172 eb3e
00000040: 9c4b 2e3e f3d1 003f bedf 773e 7efe aa3e
00000050: 2c32 33be f4ab 753e 2054 6b3d 888c f4bd
00000060: 94d5 7dbe 5307 bdbe b2fc c4be 372c a73e
00000070: eac0 8e3e a016 69bd c424 94be 769e 9e3e
00000080: ac87 ef3e 5e07 f7bc b8bb 71be 913c f53e
00000090: d9cb b33e 5a57 c2be b0c6 063f 7573 b33e
000000a0: 8c9e 3abe a61f 8c3e d674 91be 3093 2abe
000000b0: b80c db3e 0f85 b63c 34d8 9abe 8292 1cbe
000000c0: dcfa 0abe 208f c5bd b0fe 433d a2c1 ec3e
000000d0: 7483 153d b8f2 abbe 87dd 933c 43a2 5c3e
000000e0: 7a93 843e e0f7 e9be b03c b7bd b83e bebe
000000f0: e205 f6bd b0ee 293e 18cb b5be 05e8 233e

edge_encoder.0.bias f4 [16]
0.4149465 0.032794178 -0.34114888 -0.17436504 0.1113527 -0.381159 0.23520435 -0.5305844
-0.45358887 -0.43916714 -0.10883012 0.33583236 -0.47323948 0.39708018 -0.18909398 0.1411417
00000000: de73 d43e 3053 063d 11ab aebe c08c 32be
00000010: e20c e43d 4627 c3be 69d9 703e 61d4 07bf
00000020: cd3c e8be 84da e0be 53e2 debd 38f2 ab3e
00000030: 724c f2be 184e cb3e daa1 41be 7387 103e

edge_encoder.2.weight f4 [16, 16]
0.025091428 -0.22542977 0.23803785 0.14474422 0.25827315 0.12630305 -0.15777223 0.1311817
-0.13530931 0.13810939 -0.18955185 -0.06582662 -0.24546939 -0.096648104 0.05604178 -0.18031919
0.070573814 0.1342017 -0.005528202 -0.17447934 -0.20710577 -0.077129155 0.105815284 0.30127802
0.24475709 -0.09701786 0.06995746 -0.24845974 -0.21352533 0.11422393 -0.13375214 0.10399593
-0.1752323 -0.123827726 -0.20951247 0.13861887 -0.025008664 0.19240028 0.1625216 0.112662256
-0.010054565 -0.2210851 -0.07735153 0.03462813 0.123927385 -0.16252592 0.21973044 -0.035702713
-0.21799688 -0.13526446 0.18656334 0.21365301 -0.23662196 0.17632458 0.114496656 0.1370455
0.19502328 -0.20870204 0.08009072 0.101964116 -0.07387334 0.07669097 -0.06769074 0.1474799
-0.063459046 -0.093198925 0.059598874 0.06976209 -0.11260955 0.022099584 0.15900873 -0.07303743
-0.014131792 -0.15960123 0.09527646 -0.1876788 -0.1470072 -0.12806387 0.21508642 -0.059713047
0.011067365 -0.12112388 0.26774442 0.23469171 -0.17493384 -0.20266747 -0.18734695 -0.06629538
-0.20958728 -0.330622 -0.069796406 0.047430042 -0.13062268 0.05092564 -0.06660757 -0.100186914
0.04021752 0.20556456 -0.18621418 0.033483323 -0.089087635 0.24532658 -0.21885848 -0.17036659
0.37651947 -0.19304386 0.042448424 -0.0046394407 -0.05266425 -0.037498195 0.18148683 0.009520211
-0.23429908 -0.14759004 -0.07307506 0.1366671 -0.15679926 0.2357299 -0.04634869 -0.044441905
0.19459328 0.0377336 0.22034106 0.15150417 -0.07583848 -0.1592768 -0.010856832 0.21671298
-0.09676795 -0.23184249 0.11150639 0.25163773 -0.079808235 -0.20700589 -0.2439638 0.037263986
-0.019377572 -0.013964485 0.04715657 0.09584765 0.19882974 0.18954685 -0.03098856 -0.23144612
-0.23452538 0.2334224 0.10194758 0.106913745 -0.22131832 0.23150393 0.23511155 0.23655014
-0.15712748 0.0018303022 -0.17883609 0.23120542 -0.10742 -0.11564218 0.1243658 -0.12533371
-0.1177265 -0.021867871 0.0062566735 -0.17418444 0.21322137 -0.110280424 0.09111008 0.14623663
0.0025031725 0.15855135 0.21379223 0.03916492 -0.115664154 0.24519564 0.06528289 -0.23843504
-0.07385156 -0.17029187 0.22802226 -0.040477358 -0.23213096 -0.015715837 0.1528467 0.07652978
0.0871252 0.19740124 0.08932168 -0.06487098 -0.09945005 -0.23893669 -0.19625473 0.10678766
-0.14244308 0.03586662 0.07498622 0.004628322 -0.15850791 0.2390821 -0.16775222 0.2372324
-0.13263956 -0.10154617 0.1551018 -0.10098897 0.21001074 -0.17871311 -0.21670207 -0.09610217
0.04232215 0.23018897 -0.12529972 0.08258913 -0.07045561 -0.05421558 0.21641286 -0.1448459
0.1322482 0.33790323 -0.045330122 0.17993137 -0.0769892 0.19571193 -0.25319803 -0.039760645
-0.049565583 0.08102125 0.07448699 0.1940904 -0.041593853 -0.009913772 0.14629598 -0.014376491
0.3195873 -0.2993372 -0.03549114 -0.009287575 0.11155248 0.17681085 -0.027355436 -0.21698976
0.112967364 0.07478294 0.0722651 -0.19363002 0.15128542 0.23678875 -0.013909391 -0.15562962
0.29706135 -0.40005773 0.05243896 0.021320783 -0.11700913 0.0637977 -0.24311367 0.047543056
00000000: 8a8c cd3c 10d7 66be 32c0 733e d437 143e
00000010: 613c 843e 9655 013e 0b8f 21be 7f54 063e
00000020: 868e 0abe 8c6c 0d3e e119 42be 1bd0 86bd
00000030: 545c 7bbe 71ef c5bd 118c 653d 98a5 38be
00000040: 0189 903d 2c6c 093e eb25 b5bb b6aa 32be
00000050: 8913 54be e4f5 9dbd afb5 d83d 1d41 9a3e
00000060: 9aa1 7a3e 4db1 c6bd db45 8f3d 3b6c 7ebe
00000070: 62a6 5abe 3cee e93d 52f6 08be d1fb d43d
00000080: 1970 33be 6499 fdbd 708a 56be 1bf2 0d3e
00000090: f8de ccbc 9404 453e 106c 263e 78bb e63d
000000a0: e7bb 24bc 2264 62be 7b6a 9ebd 3ad6 0d3d
000000b0: a4cd fd3d 326d 26be 0401 613e 023d 12bd
000000c0: 933a 5fbe c482 0abe 760a 3f3e dbc7 5a3e
000000d0: 074d 72be 6e8e 343e 397d ea3d a855 0c3e
000000e0: 2fb4 473e fdb5 55be 9a06 a43d 90d2 d03d
000000f0: e84a 97bd 2810 9d3d 71a1 8abd f904 173e
00000100: d1f6 81bd 14df bebd f31d 743d 6ddf 8e3d
00000110: d69f e6bd 300a b53c 2fd3 223e a694 95bd
00000120: 0889 67bc 816e 23be 4e20 c33d df2e 40be
00000130: 0e89 16be 2d23 03be 9d3f 5c3e ab95 74bd
00000140: e553 353c cc0f f8bd cc15 893e 0653 703e
00000150: db21 33be 1088 4fbe e1d7 3fbe dfc5 87bd
00000160: 0c9e 56be 4947 a9be 6bf1 8ebd 0146 423d
00000170: f4c1 05be 6797 503d 8d69 88bd cc2e cdbd
00000180: 20bb 243d 847f 523e eeae 3ebe cf25 093d
00000190: 9473 b6bd e436 7b3e 701c 60be 9474 2ebe
000001a0: 29c7 c03e 4aad 45be 66de 2d3d 7306 98bb
000001b0: 78b6 57bd b597 19bd afd7 393e a9fa 1b3c
000001c0: 19ec 6fbe d821 17be 61a8 95bd 76f2 0b3e
000001d0: fc8f 20be 2e63 713e 20d8 3dbd b708 36bd
000001e0: 7643 473e 8c8e 1a3d 16a1 613e e923 1b3e
000001f0: 3451 9bbd 7519 23be dbe0 31bc 02ea 5d3e
00000200: 462e c6bd 1e68 6dbe 765d e43d a9d6 803e
00000210: 8072 a3bd 5af9 53be a5d1 79be 1fa2 183d
00000220: b7bd 9ebc 4ccb 64bc 3f27 413d c64b c43d
00000230: 069a 4b3e 9218 423e b8db fdbc 3600 6dbe
00000240: 6c27 70be 4806 6f3e e5c9 d03d 98f5 da3d
00000250: 45a1 62be 5e0f 6d3e 15c1 703e 333a 723e
00000260: 07e6 20be c0e6 ef3a cf20 37be 1dc1 6c3e
00000270: 04ff dbbd cfd5 ecbd 7fb3 fe3d 7b57 00be
00000280: 971a f1bd 4024 b3bc c804 cd3b 685d 32be
00000290: b456 5a3e b4da e1bd ec97 ba3d 0ebf 153e
000002a0: 440c 243b 495b 223e 5aec 5a3e 656b 203d
000002b0: 54e1 ecbd 9114 7b3e 09b3 853d 5128 74be
000002c0: 7d3f 97bd fe60 2ebe ab7e 693e 96cb 25bd
000002d0: bdb3 6dbe 80be 80bc d883 1c3e a5bb 9c3d
000002e0: b26e b23d 8d23 4a3e 49ee b63d 14db 84bd
000002f0: 78ac cbbd d2ab 74be 00f7 48be 7db3 da3d
00000300: 99dc 11be e0e8 123d 6092 993d 2ea9 973b
00000310: e64f 22be f0d1 743e 3dc7 2bbe 0ded 723e
00000320: aad2 07be 70f7 cfbd 02d3 1e3e 4ed3 cebd
00000330: 0e0d 573e 9200 37be 26e7 5dbe 37d1 c4bd
00000340: fe59 2d3d a8b6 6b3e 924e 00be 7d24 a93d
00000350: 084b 90bd 2811 5ebd 559b 5d3e 7c52 14be
00000360: 126c 073e a701 ad3e 14ac 39bd ee3f 383e
00000370: 84ac 9dbd b568 483e 2ca3 81be 0fdc 22bd
00000380: 4805 4bbd 78ee a53d a38c 983d a2bf 463e
00000390: 515e 2abd 606d 22bc 9dce 153e 608b 6bbc
000003a0: f2a0 a33e ba42 99be 285f 11bd ea2a 18bc
000003b0: a075 e43d e70d 353e 8218 e0bc 9032 5ebe
000003c0: 6f5b e73d cc27 993d baff 933d f346 46be
000003d0: 91ea 1a3e c078 723e 37e4 63bc 5f5d 1fbe
000003e0: 6d18 983e 5ed4 ccbe 3cca 563d eca8 ae3c
000003f0: 7ca2 efbd 5ea8 823d caf2 78be 82bc 423d

edge_encoder.2.bias f4 [16]
-0.15372895 -0.033245984 0.03837036 0.21028547 -0.11302036 0.16468866 -0.020228727 -0.11385112
-0.2258731 -0.2332961 0.24768579 -0.067724384 0.01353191 0.05880062 0.17169783 0.20296645
00000000: 1f6b 1dbe f12c 08bd 3d2a 1d3d 1355 573e
00000010: 3877 e7bd 25a4 283e b7b6 a5bc c72a e9bd
00000020: 474b 67be 2ce5 6ebe 58a1 7d3e 15b3 8abd
00000030: f2b4 5d3c ebd8 703d 8ed1 2f3e 70d6 4f3e

edge_encoder.3.weight f4 [16]
1.0038942 0.99590313 0.99618345 0.99590296 0.9936549 0.9995228 0.9893142 0.99647737
1.0107461 1.0008817 0.9950623 1.0045725 0.9922682 0.9939723 0.99913275 0.98918915
00000000: 9b7f 803f 82f3 7e3f e105 7f3f 7ff3 7e3f
00000010: 2b60 7e3f bae0 7f3f b243 7d3f 2419 7f3f
00000020: 2160 813f e41c 803f 67bc 7e3f d595 803f
00000030: 4a05 7e3f f874 7e3f 2ac7 7f3f 803b 7d3f

edge_encoder.3.bias f4 [16]
0.006723667 -0.005138403 0.006277818 -0.0052743102 0.007377378 0.0041403472 0.011025992 0.0058401353
-0.0033093714 -0.00012927002 -0.0026614664 -0.003906415 0.008740364 -0.0077622486 -0.0033421651 -0.012197432
00000000: 3552 dc3b 0c60 a8bb 28b6 cd3b 1fd4 acbb
00000010: efbd f13b c0ab 873b 5da6 343c 9b5e bf3b
00000020: 0ae2 58bb a88c 07b9 ff6b 2ebb 6201 80bb
00000030: be33 0f3c 765a febb 3a08 5bbb bdd7 47bc

node_model.0.weight f4 [16, 48]
0.12732776 -0.14134848 0.0020039205 -0.07485775 -0.06475876 0.024821157 0.13032004 -0.11705535
0.10973256 -0.07618687 -0.03339706 0.10986442 -0.034812 0.018049654 -0.09585223 0.111740306
-0.023849 -0.116726495 0.021789722 -0.10916856 -0.10700712 0.011949949 0.12231638 -0.03496537
0.055005766 0.14163598 0.077616565 -0.07609771 -0.03214172 -0.03637663 -0.097089104 0.027063284
0.10515993 0.1245293 0.02282337 0.024445705 -0.04692852 0.09542836 -0.07985903 -0.094954506
0.03453659 0.08550754 -0.1199491 0.12629238 0.038494524 -0.09402358 -0.04949406 0.11714454
-0.11883776 -0.050520718 0.027745375 -0.11783227 0.08816394 0.06282402 0.08120648 -0.08108734
0.18667614 -0.090753384 0.13135551 -0.13171932 -0.11770527 0.09708797 0.01980918 0.0033172027
-0.09982002 -0.1145109 -0.03694594 -0.15355736 0.00038613778 -0.0032857428 0.0061185495 0.049869336
0.12632757 0.06431764 -0.10233863 -0.03787335 -0.1056116 -0.099621765 -0.019910356 0.003206493
0.058883455 -0.062409636 0.11781754 -0.13316515 0.011458223 0.15192266 0.17256352 -0.10140655
0.024355143 0.011188802 -0.06825774 -0.043935087 0.006291252 -0.103448346 0.011774739 0.07151981
-0.06113109 0.108999036 -0.025007559 0.07918174 0.15320396 -0.054880403 0.067314945 -0.03231544
0.008374295 -0.029803475 -0.0147128375 -0.04835998 0.04427463 0.018061709 0.098811924 -0.018463336
0.007791983 -0.054138795 -0.13156761 0.042084977 0.034380887 -0.07636312 -0.05181712 0.05748939
-0.016580595 0.10272307 -0.016117213 0.03955519 0.03676609 -0.025382776 0.07547017 0.1295733
0.016452836 0.045234617 -0.006735506 0.08697313 -0.034734067 -0.08880869 0.050508127 -0.14655186
0.02303621 -0.06465331 0.11332553 -0.12548922 0.060939956 0.138684 0.020354452 -0.026889425
0.11628124 -0.051608007 -0.021435382 -0.057236746 -0.016542261 0.01814474 0.00841598 -0.0082255835
-0.15973993 -0.00962546 -0.012828679 0.044829715 0.12976286 0.14923006 -0.07345805 -0.006749937
-0.057608765 -0.15093762 -0.11683746 0.11628345 0.090138644 0.08803737 0.0724809 -0.1309247
0.035650223 0.14453954 -0.06017736 0.10253392 0.03360572 0.12564044 -0.04408113 0.049532827
-0.10966851 -0.015993835 0.05788877 0.027953427 0.119847804 0.15277544 0.13265721 0.07136783
0.08726543 -0.008606581 -0.12320063 -0.058531716 -0.03400518 -0.094131745 0.08776439 0.07173063
0.014714669 0.023317533 0.11729846 0.074920624 -0.11132147 -0.11683182 0.049438857 0.027916837
0.09993508 -0.15599988 -0.1468577 0.098695554 0.103388004 -0.11307621 0.06990919 -0.13630575
0.097542465 0.054129466 0.12531054 -0.150969 -0.11960437 0.11835393 0.15397081 0.09809847
0.0772071 -0.14026009 0.12413883 -0.16936441 0.046703495 -0.065313555 -0.047294445 0.01875833
-0.047176644 -0.03442956 -0.13498944 -0.13840067 0.056028552 -0.052850086 -0.06995736 -0.051197696
-0.13245729 -0.11526967 0.07447034 0.10007298 0.031450514 -0.09344157 0.06568697 0.0099523235
-0.09155696 0.01937611 0.14303255 -0.15327504 -0.13298044 0.030217577 0.12033425 -0.09951684
0.0369638 0.11309912 0.056186277 0.019559683 0.13235904 0.082432024 -0.09282806 0.024189545
00000000: 3562 023e a8bd 10be 3554 033b 054f 99bd
00000010: 3ea0 84bd bd55 cb3c 9e72 053e b7ba efbd
00000020: 77bb e03d dd07 9cbd 5bcb 08bd 9900 e13d
00000030: 0797 0ebd dedc 933c 2d4e c4bd 1ad8 e43d
00000040: fa5e c3bc 4d0e efbd 5c80 b23c c493 dfbd
00000050: 8d26 dbbd b8c9 433c 0381 fa3d d937 0fbd
00000060: ba4d 613d 0609 113e 6ff5 9e3d 1ed9 9bbd
00000070: 09a7 03bd a9ff 14bd a7d6 c6bd d2b3 dd3c
00000080: 175e d73d 3809 ff3d 13f8 ba3c 5c42 c83c
00000090: 1f38 40bd f26f c33d 228d a3bd 8277 c2bd
000000a0: 3d76 0d3d 941e af3d e0a7 f5bd ca52 013e
000000b0: 6fac 1d3d 6f8f c0bd 49ba 4abd 7ae9 ef3d
000000c0: 3661 f3bd d0ee 4ebd 454a e33c 0c52 f1bd
000000d0: 4c8f b43d e1a9 803d 954f a63d 1f11 a6bd
000000e0: 0828 3f3e e9dc b9bd 0f82 063e 6ee1 06be
000000f0: 760f f1bd 0fd6 c63d dd46 a23c 6d65 593b
00000100: 706e ccbd b184 eabd a054 17bd 243e 1dbe
00000110: 8972 ca39 9e55 57bb 1d7e c83b ca43 4c3d
00000120: 045c 013e f8b8 833d ea96 d1bd 1621 1bbd
00000130: e54a d8bd 7f06 ccbd 0b1b a3bc 0724 523b
00000140: c72f 713d 3fa1 7fbd 534a f13d 725c 08be
00000150: 45bb 3b3c 9d91 1b3e 7eb4 303e 3dae cfbd
00000160: 7084 c73c 3d51 373c b7ca 8bbd 47f5 33bd
00000170: d926 ce3b badc d3bd d6ea 403c fa78 923d
00000180: 9864 7abd e33a df3d a7dc ccbc 092a a23d
00000190: 80e1 1c3e 46ca 60bd 6bdc 893d 325d 04bd
000001a0: 5734 093c 6b26 f4bc 1d0e 71bc 1d15 46bd
000001b0: 5059 353d 26f6 933c e85d ca3d 6c40 97bc
000001c0: e453 ff3b a4c0 5dbd a9b9 06be 4c61 2c3d
000001d0: f9d2 0c3d 4464 9cbd 303e 54bd ff79 6b3d
000001e0: 07d4 87bc 7960 d23d 3f08 84bc 9f04 223d
000001f0: 0a98 163d 8aef cfbc 1b90 9a3d ddae 043e
00000200: 19c8 863c ef47 393d 85b5 dcbb f81e b23d
00000210: 4f45 0ebd 55e1 b5bd 9ce1 4e3d b111 16be
00000220: 6fb6 bc3c f468 84bd 3717 e83d 3f80 00be
00000230: 2d9c 793d 2e03 0e3e 61be a63c 3647 dcbc
00000240: dc24 ee3d eb62 53bd 4199 afbc 1471 6abd
00000250: a383 87bc 47a4 943c 2ee3 093c 99c4 06bc
00000260: dd92 23be 1bb4 1dbc 612f 52bc 5d9f 373d
00000270: 8ee0 043e c4cf 183e 2d71 96bd 932e ddbb
00000280: 2bf7 6bbd 648f 1abe 7a48 efbd 0426 ee3d
00000290: 9c9a b83d f04c b43d de70 943d 2011 06be
000002a0: f805 123d 2c02 143e 897c 76bd 4efd d13d
000002b0: 27a6 093d e3a7 003e 6a8e 34bd efe2 4a3d
000002c0: e299 e0bd 8105 83bc c61c 6d3d 96fe e43c
000002d0: c472 f53d 2a71 1c3e 4bd7 073e 4c29 923d
000002e0: 38b8 b23d 9e02 0dbc 9d50 fcbd f4be 6fbd
000002f0: 0449 0bbd 25c8 c0bd d1bd b33d 82e7 923d
00000300: cc15 713c 6904 bf3c 2d3a f03d fc6f 993d
00000310: 83fc e3bd 8545 efbd 6680 4a3d dab1 e43c
00000320: c3aa cc3d 6fbe 1fbe dd61 16be e520 ca3d
00000330: 17bd d33d 8094 e7bd 8d2c 8f3d bc93 0bbe
00000340: 58c4 c73d dcb6 5d3d 6851 003e 9e97 1abe
00000350: 23f3 f4bd 8c63 f23d 86aa 1d3e dae7 c83d
00000360: c21e 9e3d 57a0 0fbe 803c fe3d dd6d 2dbe
00000370: 2a4c 3f3d 1dc3 85bd d2b7 41bd 12ab 993c
00000380: 4c3c 41bd 0306 0dbd ac3a 0abe e8b8 0dbe
00000390: 327e 653d 5579 58bd ce45 8fbd adb4 51bd
000003a0: e2a2 07be 8112 ecbd e883 983d 10f3 cc3d
000003b0: 41d2 003d 4b5e bfbd e486 863d 120f 233c
000003c0: 3782 bbbd a6ba 9e3c 2077 123e 22f4 1cbe
000003d0: 062c 08be da8a f73c ce71 f63d 7ccf cbbd
000003e0: 5b67 173d 83a0 e73d 9523 663d a13b a03c
000003f0: 2189 073e 1fd2 a83d a31c bebd 2729 c63c

node_model.0.bias f4 [16]
0.11653633 0.020964772 0.10497279 0.07496592 0.08977796 -0.13829911 -0.086061046 0.083078414
-0.033043936 -0.12453182 0.11514543 0.0023166735 0.10556123 -0.12842546 0.06406933 -0.03453783
00000000: 99aa ee3d 50be ab3c f9fb d63d bb87 993d
00000010: 82dd b73d 489e 0dbe c640 b0bd 0425 aa3d
00000020: 1459 07bd 8a0a ffbd 5ed1 eb3d 55d3 173b
00000030: 7c30 d83d f781 03be c836 833d 8a77 0dbd

node_model.2.weight f4 [16, 16]
-0.1624109 -0.0706635 -0.08653311 0.14789943 0.040631387 0.18047841 0.06021406 0.12242209
-0.2001831 -0.262559 -0.08678257 -0.2571473 -0.031439085 -0.0046140514 0.054818414 -0.092523105
0.13381125 0.09724601 -0.0833706 -0.13675772 0.19051298 0.20728815 -0.25186518 -0.043055885
-0.05369108 -0.119966075 0.18657863 -0.039802365 0.19221005 -0.014470999 0.020103864 -0.15413904
-0.13872285 0.04279495 0.12020523 -0.036255438 0.27887303 -0.17377296 0.07515903 0.2651806
-0.054155372 0.16466175 -0.020440383 -0.21895157 -0.13127357 0.08200923 -0.09059755 0.07245688
0.27646592 0.1131417 -0.025330419 0.10852807 -0.12840396 -0.20127487 -0.16898549 -0.15454006
0.0734852 0.07986415 -0.08971651 -0.24809511 0.15573186 -0.13131316 -0.017150948 -0.20933704
-0.07365914 0.15578803 -0.25051147 -0.09938222 0.1221422 -0.11805828 -0.08651169 -0.1594279
0.071944855 -0.1316398 0.05414632 0.13058701 -0.018244693 0.05375909 -0.22427091 0.09764329
0.1296655 0.008327786 -0.17750964 0.12193779 0.025121756 -0.033807244 0.13914645 -0.056748766
-0.090965115 0.005102089 0.26846752 0.010331867 -0.22400926 -0.015379321 -0.01208362 -0.0905196
-0.08965359 0.24345149 0.14247115 0.007627188 -0.036838394 -0.036364593 0.05929483 -0.020215767
-0.12920663 0.06992887 0.030159954 -0.0067881634 -0.07151456 0.07923841 -0.2342146 0.05866436
0.16493203 -0.02686046 -0.19704086 -0.055937413 -0.10479175 -0.22537489 -0.20122012 0.075677134
0.22989929 0.14569497 0.18612906 0.07710871 0.06005674 0.17586853 -0.171906 -0.06674269
0.1334996 -0.03686204 -0.14421742 -0.22530928 0.21736392 0.21345246 0.19086064 0.100668
0.18295982 -0.25073856 -0.19788961 -0.2281437 0.20287605 -0.013160472 -0.072408 0.105825424
-0.044562537 -0.1165433 0.1039742 0.08729881 -0.19905391 -0.17397802 0.13680674 0.1930133
0.024599811 -0.09409643 0.13574958 0.06402269 -0.22240616 -0.15380038 0.061315008 0.17194414
-0.11675976 0.07763284 -0.16758141 0.194099 0.17644557 0.04684091 0.08181709 0.030885575
-0.11785341 -0.037497047 0.03533934 -0.03605216 0.18837433 -0.07979802 -0.28530008 -0.12987599
-0.27456215 0.17621821 -0.11406289 -0.20783575 0.004530186 -0.17707394 -0.12724803 0.14804368
-0.16143522 0.08527092 0.16114075 -0.0052131107 0.10304277 -0.15069343 0.1913729 0.24112912
-0.0015852795 0.20842181 -0.267332 -0.04788167 -0.006228113 -0.2076328 0.1345798 -0.15431784
-0.09968697 -0.20781833 0.101214826 -0.17448564 -0.039400768 0.119894795 0.15573367 0.019384593
-0.019241327 -0.09379565 0.12821546 0.04904655 0.18499334 0.10332292 0.16591227 -0.23631969
0.22476566 -0.09200865 -0.059582993 0.022184713 -0.07734245 0.041975092 0.16609958 -0.13055815
0.0039003626 -0.2475418 0.03422338 0.14538556 0.21636963 0.21699697 0.12920666 0.0060192347
0.05246728 -0.11159936 0.18734396 0.14176017 -0.2064786 0.20270026 0.017584685 -0.0022035826
-0.029925676 -0.048308313 0.013906443 -0.121482275 -0.18262883 -0.12511665 -0.036431234 0.20005703
0.20017532 -0.12826823 0.016820388 -0.054131392 -0.1138 -0.024694376 -0.0366941 0.12247942
00000000: 0b4f 26be 06b8 90bd 4538 b1bd f372 173e
00000010: 196d 263d 55cf 383e 05a3 763d 6fb8 fa3d
00000020: ccfc 4cbe 226e 86be 0fbb b1bd d0a8 83be
00000030: 45c6 00bd 7831 97bb 4689 603d c17c bdbd
00000040: d105 093e eb28 c73d 35be aabd 370a 0cbe
00000050: d615 433e 5843 543e 79f4 80be 5e5b 30bd
00000060: 2eeb 5bbd c6b0 f5bd 780e 3f3e ce07 23bd
00000070: b6d2 443e c517 6dbc dcb0 a43c a0d6 1dbe
00000080: 5d0d 0ebe c249 2f3d 292e f63d 9580 14bd
00000090: 72c8 8e3e 8af1 31be faec 993d c0c5 873e
000000a0: 06d2 5dbd 179d 283e 9772 a7bc d734 60be
000000b0: 946c 06be 75f4 a73d 358b b9bd 4664 943d
000000c0: f18c 8d3e d6b6 e73d bd81 cfbc f743 de3d
000000d0: 547c 03be 001b 4ebe 880a 2dbe c03f 1ebe
000000e0: 697f 963d d18f a33d 4abd b7bd a50c 7ebe
000000f0: 2c78 1f3e f576 06be 2580 8cbc 735c 56be
00000100: 9ada 96bd e686 1f3e 0a43 80be e888 cbbd
00000110: b125 fa3d 8ac8 f1bd 0a2d b1bd 1141 23be
00000120: d357 933d 95cc 06be 88c8 5d3d 9ab8 053e
00000130: e575 95bc 7e32 5c3d 46a7 65be 35f9 c73d
00000140: 08c7 043e 4471 083c 16c5 35be 85ba f93d
00000150: 24cc cd3c 7779 0abd 687c 0e3e 6571 68bd
00000160: eb4b babd 6d2f a73b 9374 893e fe46 293c
00000170: af62 65be 8cf9 7bbc 60fa 45bc 5762 b9bd
00000180: 4d9c b7bd 594b 793e f5e3 113e 7eed f93b
00000190: dbe3 16bd 0af3 14bd 23df 723d 899b a5bc
000001a0: be4e 04be de36 8f3d 0212 f73c 3e6f debb
000001b0: 3a76 92bd bf47 a23d f4d5 6fbe 0a4a 703d
000001c0: f1e3 283e 780a dcbc 14c5 49be a11e 65bd
000001d0: 0f9d d6bd adc8 66be a60c 4ebe 9dfc 9a3d
000001e0: b86a 6b3e 1031 153e 9e98 3e3e 2ceb 9d3d
000001f0: 0efe 753d e116 343e 2008 30be 64b0 88bd
00000200: 1fb4 083e a7fc 16bd bbad 13be 7ab7 66be
00000210: a694 5e3e 4893 5a3e f970 433e 062b ce3d
00000220: d259 3b3e ce60 80be 93a3 4abe 819e 69be
00000230: bdbe 4f3e 059f 57bc a54a 94bd 00bb d83d
00000240: 3587 36bd 41ae eebd 6df0 d43d b8c9 b23d
00000250: cad4 4bbe 4b27 32be 1117 0c3e 47a5 453e
00000260: 8b85 c93c a1b5 c0bd f001 0b3e 541e 833d
00000270: 71be 63be d97d 1dbe 7225 7b3d 2012 303e
00000280: be1f efbd f7fd 9e3d 769a 2bbe e3c1 463e
00000290: 26ae 343e 41dc 3f3d b88f a73d bf03 fd3c
000002a0: 215d f1bd 8196 19bd fcbf 103d 6eab 13bd
000002b0: 33e5 403e 256d a3bd da12 92be 36fe 04be
000002c0: 6993 8cbe 8c72 343e ce99 e9bd e5d2 54be
000002d0: f471 943b df52 35be 4f4d 02be c398 173e
000002e0: 464f 25be 85a2 ae3d 1502 253e bed2 aabb
000002f0: 1608 d33d 614f 1abe 42f7 433e 8dea 763e
00000300: 27c9 cfba 876c 553e bddf 88be 921f 44bd
00000310: 3315 ccbb b19d 54be 49cf 093e 7f05 1ebe
00000320: af28 ccbd 54ce 54be b849 cf3d 5dac 32be
00000330: b362 21bd 678b f53d a678 1f3e 70cc 9e3c
00000340: fd9f 9dbc ef17 c0bd ea4a 033e 09e5 483d
00000350: e56e 3d3e f89a d33d e8e4 293e cafd 71be
00000360: f828 663e 086f bcbd 4c0d 74bd b7bc b53c
00000370: b865 9ebd 13ee 2b3d 0216 2a3e 09b1 05be
00000380: 3a9d 7f3b 997b 7dbe d12d 0c3d f4df 143e
00000390: 0090 5d3e 7434 5e3e c04e 043e 003d c53b
000003a0: eee7 563d 358e e4bd 18d7 3f3e 9429 113e
000003b0: 206f 53be a890 4f3e c20d 903c fb69 10bb
000003c0: b126 f5bc f0de 45bd d9d7 633c b3cb f8bd
000003d0: 0d03 3bbe 941e 00be eb38 15bd c0db 4c3e
000003e0: c2fa 4c3e bf58 03be e9ca 893c e1b8 5dbd
000003f0: f90f e9bd dc4b cabc 8d4c 16bd 7dd6 fa3d

node_model.2.bias f4 [16]
-0.102686286 0.008592451 -0.15825397 -0.048846163 0.21129854 -0.106996275 0.0044442466 0.19372474
0.084450416 -0.089974314 -0.17890663 -0.099486805 -0.10683859 0.10953829 -0.0781479 0.21978863
00000000: 304d d2bd 5ac7 0c3c 540d 22be ea12 48bd
00000010: a55e 583e dd20 dbbd 0ba1 913b c75f 463e
00000020: 57f4 ac3d 7444 b8bd 4d33 37be bdbf cbbd
00000030: 31ce dabd 9c55 e03d 020c a0bd 4510 613e

node_model.3.weight f4 [16]
1.1655996 0.9910367 1.20737 1.1391599 1.1764468 1.2046392 1.2243763 1.1457531
1.1872886 1.0366349 1.0027524 1.1280662 1.0847526 1.1430036 1.1851267 1.0118812
00000000: 5e32 953f 95b4 7d3f 1a8b 9a3f fecf 913f
00000010: cf95 963f 9e31 9a3f 5db8 9c3f 0aa8 923f
00000020: 13f9 973f 74b0 843f 315a 803f 7964 903f
00000030: 2cd9 8a3f f14d 923f 3bb2 973f 5385 813f

node_model.3.bias f4 [16]
-0.15152413 -0.08578762 -0.17488939 0.11522945 0.14116478 0.123000436 0.17339998 0.17495224
-0.12515236 -0.088799104 -0.0015445749 -0.15417916 0.09726904 -0.15082908 -0.17297263 -0.06418593
00000000: 2429 1bbe 6bb1 afbd 3416 33be 6bfd eb3d
00000010: 808d 103e a7e7 fb3d c48f 313e ae26 333e
00000020: f127 00be 4edc b5bd 5573 caba 24e1 1dbe
00000030: fe34 c73d f072 1abe bd1f 31be ea73 83bd

edge_model.0.weight f4 [16, 96]
-0.062495 -0.022211567 0.028724076 0.08327787 0.09423452 0.016377587 -0.00049878476 -0.043422237
0.034812972 -0.06576785 -0.03209227 -0.076741636 -0.09046292 0.06415861 0.013920087 0.06334159
0.076782644 0.080345 0.0234033 -0.033917777 0.05127932 0.058969595 0.0005024426 0.0070483517
0.016454566 -0.017703654 -0.068322584 0.03673718 -0.056050718 0.05191969 -0.040463045 -0.054356296
-0.05091929 0.09153224 -0.08887428 0.058431603 0.045060646 0.07716576 0.019971134 0.052117437
0.078896835 0.014188635 0.027863538 -0.07365128 -0.018972244 0.020964744 0.020707723 -0.06261559
-0.10634185 -0.023552235 0.031147914 0.08965721 -0.08839673 0.028289035 -0.107225806 -0.08942589
-0.054889385 -0.026023911 0.00938164 -0.07411961 0.079406105 0.104446046 0.010290214 0.08936514
-0.068095595 -0.047264405 0.012596724 0.018024797 -0.0779997 -0.07718845 0.043821976 0.027970975
0.09393545 -0.045481764 0.041557405 -0.048625942 0.045648403 0.0011514707 0.08095868 0.06153344
0.07612191 0.05347163 0.0033421842 0.09253218 -0.05632001 0.10297747 0.091896445 0.08663624
-0.05695034 -0.073451355 0.013689833 0.041281722 0.031196052 0.049001504 0.09095473 -0.013133726
-0.03958269 0.035214655 0.03465822 -0.062112447 0.008536237 -0.074375704 -0.030661894 -0.038048986
0.0043672756 -0.099021174 -0.057327054 -0.09178997 0.025383893 -0.07828522 0.039317805 -0.083076306
-0.062048722 -0.04842846 0.0140393255 0.089836605 0.099769615 0.00013053273 -0.121352516 -0.035212226
-0.032201376 -0.025795728 0.05155644 0.05835023 0.040668923 0.041391976 -0.026352704 -0.018786501
0.009261545 -0.034788527 -0.01572669 -0.006282699 -0.10691687 0.078868374 -0.011799619 -0.09741167
0.07654088 -0.058753762 0.036444314 0.10418868 0.008309402 0.035227783 0.04584765 0.059064347
-0.036803577 -0.05898098 -0.0024498617 0.08185559 -0.0056210537 0.058388002 0.0005003162 0.021510992
0.0094847595 0.005481682 -0.098482706 -0.07820521 0.013155799 0.053298213 0.064242095 0.013812554
0.033670485 0.0054348195 -0.060238123 -0.08327976 -0.08971882 0.0074987877 -0.047549456 -0.01478869
-0.016928125 0.039152917 0.027124472 0.08846477 0.09726057 -0.065715685 -0.0061787004 0.018837381
0.07153958 -0.027177887 -0.050072502 -0.050117828 0.076773085 -0.017257914 -0.039629407 0.093725406
0.08781077 -0.037575845 -0.05716421 0.10373139 -0.038274784 -0.043986604 -0.06744899 -0.04377048
-0.08853449 -0.074784495 -0.08190721 -0.013345581 0.059389427 -0.09149588 -0.014031456 -0.025113283
-0.019015918 0.066489324 -0.02273677 -0.035444032 -0.06949854 -0.049277786 0.049404882 0.0072173476
0.044694666 -0.016027682 0.0344579 -0.09580464 0.03298433 0.12034268 -0.106360495 -0.042664174
0.053821377 -0.018809477 -0.048655655 0.053826563 0.0118699325 0.021556916 -0.01820977 0.072766595
0.036898285 0.01551515 0.0051280432 0.06330611 0.07069942 -0.05382303 -0.023885706 0.05659251
-0.051285747 0.07881899 -0.083964504 0.06549581 -0.055186167 0.046196837 0.08559066 0.009280449
-0.023994613 0.06209699 -0.08245206 -0.08587587 -0.09393601 -0.044321638 -0.014499363 -0.041400693
0.034621764 0.0023667668 0.08167711 -0.055911407 -0.02403485 0.09335234 0.008780668 0.08156959
00000000: c2fa 7fbd 08f5 b5bc c14e eb3c 978d aa3d
00000010: 07fe c03d 4a2a 863c e1c0 02ba 84db 31bd
00000020: 0c98 0e3d 4bb1 86bd 2f73 03bd b82a 9dbd
00000030: a044 b9bd 9765 833d 1411 643c 3cb9 813d
00000040: 3840 9d3d eb8b a43d 47b8 bf3c 5eed 0abd
00000050: 440a 523d 1a8a 713d 5ab6 033a dcf5 e63b
00000060: bacb 863c 4107 91bc b6ec 8bbd ba79 163d
00000070: 7095 65bd bea9 543d 94bc 25bd b5a4 5ebd
00000080: bf90 50bd 4175 bb3d b803 b6bd fa55 6f3d
00000090: 8391 383d 1509 9e3d 819a a33c 1879 553d
000000a0: aa94 a13d 7377 683c 1342 e43c 7bd6 96bd
000000b0: ae6b 9bbc 41be ab3c 3ea3 a93c 9a3c 80bd
000000c0: c1c9 d9bd 9ef0 c0bc e929 ff3c 339e b73d
000000d0: 5809 b5bd 68be e73c 3499 dbbd ec24 b7bd
000000e0: b1d3 60bd 1930 d5bc 73b5 193c 06cc 97bd
000000f0: ab9f a23d cfe7 d53d 4998 283c 1205 b73d
00000100: b475 8bbd 5298 41bd 7d62 4e3c bda8 933c
00000110: 4fbe 9fbd fa14 9ebd ac7e 333d 6323 e53c
00000120: 3b61 c03d 164b 3abd 1938 2a3d ff2b 47bd
00000130: d2f9 3a3d f2ec 963a aacd a53d 7d0a 7c3d
00000140: cee5 9b3d 1105 5b3d 8c08 5b3b 8381 bd3d
00000150: d0af 66bd dae5 d23d 3434 bc3d 576e b13d
00000160: c244 69bd aa6d 96bd 524b 603c 0617 293d
00000170: dd8e ff3c cdb5 483d 7946 ba3d d72e 57bc
00000180: 7521 22bd 3e3d 103d c7f5 0d3d 9f69 7ebd
00000190: 93db 0b3c 4a52 98bd a72e fbbc 41d9 1bbd
000001a0: 5d1b 8f3b 9dcb cabd c6cf 6abd 61fc bbbd
000001b0: e2f1 cf3c 0054 a0bd b50b 213d e923 aabd
000001c0: cd26 7ebd ec5c 46bd 3305 663c 41fc b73d
000001d0: 0354 cc3d 9ddf 0839 ab87 f8bd b23a 10bd
000001e0: 97e5 03bd 9051 d3bc d82c 533d a700 6f3d
000001f0: 7594 263d a28a 293d a0e1 d7bc 26e6 99bc
00000200: bcbd 173c 6a7e 0ebd 42d5 80bc 19df cdbb
00000210: 3bf7 dabd be85 a13d 3053 41bc c57f c7bd
00000220: 77c1 9c3d c9a7 70bd a246 153d e060 d53d
00000230: 2824 083c 024b 103d bfca 3b3d 75ed 713d
00000240: 59bf 16bd 0a96 71bd dc8d 20bb e7a3 a73d
00000250: d130 b8bb 4228 6f3d a727 033a d237 b03c
00000260: f765 1b3c ae9f b33b 4db1 c9bd 0e2a a0bd
00000270: 6c8b 573c 3a4f 5a3d 5c91 833d 0d4e 623c
00000280: 10ea 093d 9216 b23b 40bc 76bd 948e aabd
00000290: 80be b7bd 64b8 f53b 38c3 42bd 434c 72bc
000002a0: daac 8abc cf5e 203d 2434 de3c 042d b53d
000002b0: 8d30 c73d f295 86bd b276 cabb da50 9a3c
000002c0: 5883 923d 29a4 debc d318 4dbd 5a48 4dbd
000002d0: 353b 9d3d 7860 8dbc 7252 22bd 1bf3 bf3d
000002e0: 22d6 b33d 21e9 19bd 0525 6abd 1f71 d43d
000002f0: 05c6 1cbd 4c2b 34bd b222 8abd ad48 33bd
00000300: 9251 b5bd 9d28 99bd f8be a7bd 6ca7 5abc
00000310: 5442 733d 3162 bbbd 31e4 65bc 5fba cdbc
00000320: 45c7 9bbc 8e2b 883d 7642 babc c32d 11bd
00000330: 4055 8ebd 81d7 49bd c65c 4a3d 807f ec3b
00000340: c111 373d 7c4c 83bc ba23 0d3d 3935 c4bd
00000350: 941a 073d 3976 f63d 88d3 d9bd a1c0 2ebd
00000360: ce73 5c3d 5516 9abc 274b 47bd 3e79 5c3d
00000370: 1b7a 423c 2198 b03c a82c 95bc a706 953d
00000380: a822 173d 4133 7e3c 2509 a83b a2a6 813d
00000390: dcca 903d 8a75 5cbd f5ab c3bc 8ccd 673d
000003a0: 0111 52bd da6b a13d 95f5 abbd ab22 863d
000003b0: e40a 62bd e538 3d3d 284a af3d 060d 183c
000003c0: 5a90 c4bc 6a59 7e3d a0dc a8bd b0df afbd
000003d0: 8661 c0bd 9b8a 35bd bc8e 6dbc c693 29bd
000003e0: 8dcf 0d3d c21b 1b3b 5446 a73d 5c03 65bd
000003f0: bce4 c4bc 832f bf3d cadc 0f3c f50d a73d

edge_model.0.bias f4 [16]
0.042496312 0.094765864 0.017982287 -0.08756878 -0.031196088 0.02860773 0.047068346 -0.10783716
0.0742694 -0.08219685 0.056863118 0.10488668 0.02515158 -0.027794138 0.058806185 -0.036346555
00000000: 9d10 2e3d 9b14 c23d 974f 933c 4357 b3bd
00000010: f08e ffbc c25a ea3c bdca 403d bbd9 dcbd
00000020: 8e1a 983d d256 a8bd 4de9 683d d4ce d63d
00000030: b00a ce3c 88b0 e3bc c1de 703d 20e0 14bd

edge_model.2.weight f4 [16, 16]
-0.17263657 -0.12453698 0.16776665 0.20660031 -0.019468918 -0.23884451 -0.23883076 -0.060938966
0.15037063 -0.16296399 0.08344347 -0.14936236 0.20340365 -0.051149976 -0.039885394 -0.21678102
-0.22775678 0.01953135 0.068579674 0.11897843 -0.21819034 0.03504902 -0.042220194 0.13891816
-0.118901476 0.103047565 0.09882622 0.105410144 -0.0857473 0.057201173 -0.05492799 0.044902343
-0.15618508 -0.20619114 -0.22345313 -0.15175514 -0.1328129 0.0565261 -0.050460134 -0.1318673
0.00706311 -0.06959551 0.15349461 -0.20926535 -0.09227717 -0.15960048 0.023419628 0.027640337
-0.009053355 0.25643614 -0.111816615 -0.04147524 0.09243949 0.21219714 0.19646129 0.030557409
-0.088826485 0.0795361 0.16152963 0.013111293 0.13725841 0.18463233 -0.1278457 -0.057479277
-0.23974867 0.03688571 0.13288966 -0.06576865 0.019329416 0.08635972 -0.012882521 0.19379309
0.019002104 -0.2501897 -0.22187318 -0.24777804 0.010304093 0.12450747 -0.0673664 0.24300244
-0.061512925 0.059176438 0.21691467 0.14739646 -0.036524795 0.20280175 -0.14276724 0.1035883
0.15797023 -0.19831067 -0.23209883 0.11033817 -0.0948472 -0.08440833 0.03373653 -0.18390656
0.1997677 -0.012167683 -0.07318342 0.19626275 0.016337072 0.0060446677 -0.113101706 0.2393987
-0.07580155 0.18252438 -0.027705824 0.10538352 0.17578068 -0.18061216 -0.1960562 -0.24579895
0.1987041 0.22112729 -0.083522655 -0.12936488 0.069935255 0.17380801 0.05441804 -0.04232377
-0.140232 0.24847867 -0.13189761 -0.23740481 -0.09981814 0.055132493 0.117186435 0.114138216
-0.12044675 -0.121754795 -0.093756825 -0.09561277 -0.1982698 0.10129201 -0.066184185 -0.24157791
-0.13146712 -0.13205904 -0.09576103 -0.13435328 -0.04335481 0.10374829 -0.17442274 -0.004439963
-0.091185026 -0.11651547 -0.025161846 -0.13134646 -0.057936735 -0.20230766 0.052783124 0.21885952
0.2087689 -0.087087765 0.06325673 -0.25946927 0.21048585 -0.26468992 -0.26027608 -0.24687953
-0.22203775 0.014485167 -0.08601323 0.052720793 0.0043286113 0.004692457 -0.096023954 -0.14246143
-0.22303294 0.15795514 -0.13395602 -0.060510978 0.12142369 -0.059038375 -0.058215577 -0.17230915
-0.20087074 0.12980027 -0.047643837 0.14671586 0.049624685 0.022717603 -0.22192033 0.010012695
-0.04342703 -0.13094686 -0.042017546 0.013638207 -0.18837059 0.05709113 0.18661252 0.08197681
0.25088748 0.12896132 -0.16569555 -0.075688966 -0.038116883 0.059577927 0.00089473114 0.19565243
0.0434421 -0.16370478 -0.07685449 -0.20630157 -0.068932384 0.12518439 0.021362375 -0.25645146
-0.23764513 0.08858151 -0.21505909 -0.23502292 -0.1589877 0.20150064 -0.077519566 -0.11062892
-0.18566445 0.17315833 -0.056147765 0.024982935 0.059722483 0.060198028 0.14333121 -0.027300738
0.03474869 -0.018420983 -0.1963798 -0.040437784 0.28270712 -0.21330748 -0.15082903 -0.249716
0.031615935 -0.26494884 -0.11245961 0.25387436 0.103541225 0.14826666 0.06328391 -0.22175355
-0.107528836 -0.21589603 -0.18337257 0.098756775 -0.006162562 0.2697045 -0.18857835 -0.22438969
0.24055004 -0.26021183 0.20459814 0.0882815 -0.22786283 0.21561818 -0.058036696 -0.10493786
00000000: a4c7 30be 3f0d ffbd 05cb 2b3e 088f 533e
00000010: 487d 9fbc a893 74be 0d90 74be 239b 79bd
00000020: c2fa 193e 08e0 26be 69e4 aa3d 72f2 18be
00000030: 0c49 503e a382 51bd de5e 23bd d8fb 5dbe
00000040: 1339 69be 3600 a03c 8073 8c3d f7aa f33d
00000050: 4a6d 5fbe 908f 0f3d 15ef 2cbd 9040 0e3e
00000060: 9e82 f3bd 9a0a d33d 6765 ca3d 46e1 d73d
00000070: 489c afbd c74b 6a3d 2cfc 60bd 85eb 373d
00000080: fbee 1fbe c523 53be e6d0 64be b365 1bbe
00000090: 1b00 08be e987 673d 49af 4ebd 3908 07be
000000a0: a971 e73b 1788 8ebd b12d 1d3e a849 56be
000000b0: d0fb bcbd 4f6e 23be 85da bf3c fd6d e23c
000000c0: 8654 14bc 994b 833e 1c00 e5bd f1e1 29bd
000000d0: ea50 bd3d 354a 593e 262d 493e 8853 fa3c
000000e0: a9ea b5bd d3e3 a23d 0668 253e c0d0 563c
000000f0: 788d 0c3e 4210 3d3e fce9 02be 646f 6bbd
00000100: ad80 75be 7815 173d 3a14 083e b7b1 86bd
00000110: b958 9e3c 5ddd b03d 3611 53bc b271 463e
00000120: 4daa 9b3c dd18 80be b932 63be 87b9 7dbe
00000130: 80d2 283c c6fd fe3d 65f7 89bd a2d5 783e
00000140: faf4 7bbd fe62 723d e11e 5e3e 19ef 163e
00000150: 069b 15bd 43ab 4f3e 9331 12be 1a26 d43d
00000160: f3c2 213e f411 4bbe 51ab 6dbe faf8 e13d
00000170: 403f c2bd 46de acbd 512f 0a3d 0052 3cbe
00000180: e78f 4c3e f65a 47bc 30e1 95bd 1af9 483e
00000190: 53d5 853c 5912 c63b dea1 e7bd ef24 753e
000001a0: d83d 9bbd ace7 3a3e 53f7 e2bc 51d3 d73d
000001b0: daff 333e 65f2 38be f5c2 48be b8b2 7bbe
000001c0: 1679 4b3e 316f 623e ed0d abbd 3a78 04be
000001d0: 373a 8f3d bafa 313e 73e5 5e3d b05b 2dbd
000001e0: fa98 0fbe 3171 7e3e 2b10 07be 3f1a 73be
000001f0: 746d ccbd 9cd2 613d 71ff ef3d 4cc1 e93d
00000200: c9ac f6bd 945a f9bd 9403 c0bd a1d0 c3bd
00000210: 3d07 4bbe 2f72 cf3d 938b 87bd 3360 77be
00000220: 519f 06be 7c3a 07be 5c1e c4bd e893 09be
00000230: d094 31bd fc79 d43d e09b 32be 1c7d 91bb
00000240: 37bf babd aa9f eebd 3720 cebc b07f 06be
00000250: 124f 6dbd bd29 4fbe 1e33 583d b61c 603e
00000260: 84c7 553e 125b b2bd bf8c 813d 28d9 84be
00000270: 9a89 573e 7085 87be e842 85be fdcd 7cbe
00000280: dd5d 63be 3253 6d3c b427 b0bd c2f1 573d
00000290: 06d7 8d3b 2fc3 993b 35a8 c4bd 69e1 11be
000002a0: bf62 64be febe 213e c42b 09be 5cda 77bd
000002b0: fcac f83d 39d2 71bd 7573 6ebd cf71 30be
000002c0: 0fb1 4dbe 5dea 043e 2f26 43bd af3c 163e
000002d0: 4143 4b3d 441a ba3c 153f 63be 490c 243c
000002e0: 8be0 31bd ef16 06be 971a 2cbd c972 5f3c
000002f0: 38e4 40be 64d8 693d 5a17 3f3e 75e3 a73d
00000300: 5374 803e 700e 043e 18ac 29be d102 9bbd
00000310: 7320 1cbd fc07 743d 648c 6a3a 1c59 483e
00000320: 58f0 313d 3aa2 27be e365 9dbd b840 53be
00000330: 6c2c 8dbd 5630 003e 2600 af3c 9b4d 83be
00000340: 3f59 73be 396a b53d 7338 5cbe d9a9 70be
00000350: accd 22be 2f56 4e3e 94c2 9ebd 6a91 e2bd
00000360: d21e 3ebe 6b50 313e 33fb 65bd 03a9 cc3c
00000370: 909f 743d 3592 763d 6bc5 123e cca5 dfbc
00000380: a454 0e3d 9ae7 96bc c917 49be 17a2 25bd
00000390: fdbe 903e 476d 5abe ed72 1abe 8db5 7fbe
000003a0: b67f 013d 60a7 87be 3951 e6bd d2fb 813e
000003b0: 6c0d d43d 37d3 173e ff9a 813d 5d13 63be
000003c0: 1438 dcbd d913 5dbe 05c6 3bbe fe40 ca3d
000003d0: 51ef c9bb b516 8a3e af1a 41be 69c6 65be
000003e0: c052 763e 7c3a 85be 2d82 513e eecc b43d
000003f0: e054 69be 03cb 5c3e e3b7 6dbd a9e9 d6bd

edge_model.2.bias f4 [16]
-0.1752336 -0.21182759 0.054373596 -0.24048182 0.08019321 -0.067247525 0.078646064 -0.039423358
0.10660189 -0.020332845 0.06916429 -0.09231225 -0.14941566 0.015987447 -0.14725111 -0.16079298
00000000: 7070 33be 55e9 58be d9b6 5e3d de40 76be
00000010: 563c a43d 12b9 89bd 3011 a13d 637a 21bd
00000020: 1752 da3d 1191 a6bc 02a6 8d3d 340e bdbd
00000030: 6b00 19be 1bf8 823c ffc8 16be eaa6 24be

edge_model.3.weight f4 [16]
1.0221386 0.9973513 1.0026214 0.9974662 0.9808636 1.0101858 0.98586553 1.0099494
0.97208893 1.019922 1.0049587 0.99828196 0.9672492 1.0064476 1.0159142 0.9990435
00000000: 70d5 823f 6a52 7f3f e655 803f f259 7f3f
00000010: e019 7b3f c54d 813f af61 7c3f 0646 813f
00000020: d2da 783f ce8c 823f 7da2 803f 688f 7f3f
00000030: a59d 773f 46d3 803f 7a09 823f 51c1 7f3f

edge_model.3.bias f4 [16]
0.009276795 -0.0054162666 0.009751285 0.003375334 -0.021258203 -0.0091872895 -0.002654234 0.027253672
0.03269272 -0.011478172 -0.006055155 0.020222822 0.006557382 -0.020413913 0.0053985054 -0.00802752
00000000: b3fd 173c f07a b1bb dbc3 1f3c b534 5d3b
00000010: af25 aebc 4986 16bc a8f2 2dbb 1843 df3c
00000020: cde8 053d f10e 3cbc 526a c6bb 55aa a53c
00000030: 4fdf d63b 143b a7bc f2e5 b03b dc85 03bc

node_decoder.0.weight f4 [1, 16]
-0.39210108 -0.07872676 -0.39917314 0.34353375 0.40941522 0.2711365 0.41666126 0.2400184
-0.41735047 -0.08665094 0.006554827 -0.30045208 0.19316053 -0.19852896 -0.2929004 -0.055486288
00000000: 79c1 c8be 7f3b a1bd 6c60 ccbe a8e3 af3e
00000010: df9e d13e 67d2 8a3e a054 d53e 62c7 753e
00000020: f6ae d5be 0c76 b1bd e0c9 d63b dbd4 99be
00000030: e0cb 453e 2d4b 4bbe 0bf7 95be 9745 63bd
