tmp/tmp0model700.pt (torch, 23679 bytes, 25 tensors)

node_encoder.0.weight f4 [16, 5]
0	0xbb5b6d80	-0.0033482015
1	0x3e75a9a0	0.23990488
2	0xbebc7496	-0.36807698
3	0xbea882ac	-0.32912195
4	0xbe306154	-0.17224628
5	0x3dd0fee0	0.102048635
6	0xbc8c66e8	-0.017138913
7	0x3eab84ff	0.33499905
8	0xbd228f68	-0.039687544
9	0x3df2a75a	0.11848326
10	0xbe14663c	-0.14492124
11	0xbdc80963	-0.097674154
12	0xbedabfd6	-0.42724484
13	0xbe97a51c	-0.29618156
14	0xbe3cc6b6	-0.18435177
15	0x3ca8329c	0.020531945
16	0x3e391a6f	0.1807649
17	0x3e8b6b6a	0.27230388
18	0xbe9b3afe	-0.30318445
19	0xbe476b34	-0.19474488
20	0x3e23ecde	0.16008326
21	0x3eb3138f	0.3497586
22	0xbdae4158	-0.08508557
23	0x3eab57ec	0.33465517
24	0xbc795b20	-0.01521948
25	0x3d338708	0.043829948
26	0x3ecd8ac1	0.40144923
27	0xbed4696c	-0.4148668
28	0xbe9025bd	-0.28153792
29	0xbe3912da	-0.18073598
30	0xbe46c92d	-0.1941268
31	0x3ebbb1b8	0.36659026
32	0xbe946a76	-0.28987473
33	0xbe52ced4	-0.20586711
34	0xbe9ff856	-0.31244153
35	0xbed67290	-0.4188428
36	0xbe85a938	-0.26105666
37	0x3ec4d336	0.3844239
38	0x3e4c5820	0.19955492
39	0x3e5df448	0.21675217
40	0x3d068158	0.032838196
41	0xbe53b789	-0.20675482
42	0x3db23c14	0.08702865
43	0xbed5ca8d	-0.41756096
44	0xbea572cc	-0.32314146
45	0xbe712753	-0.23550157
46	0x3e8def10	0.27721453
47	0x3e83b7c2	0.25726134
48	0xbe4b18db	-0.198337
49	0xbd2c1e78	-0.042021245
50	0x3e90550d	0.2818989
51	0x3ee5f7b5	0.44915548
52	0x3e2e8ca6	0.1704584
53	0x3d777620	0.060415387
54	0x3e88c9fe	0.26716608
55	0xbe8852f4	-0.26625788
56	0x3da4a7ea	0.080398396
57	0xbeb18639	-0.34672716
58	0xbe9eb2c2	-0.30995756
59	0xbe6c9158	-0.23102319
60	0x3e54b15a	0.20770779
61	0x3e4313a6	0.19050464
62	0xbe8acebf	-0.2711086
63	0x3e0a5954	0.13510638
64	0x3e92e7e3	0.2869254
65	0xbd85da60	-0.06535792
66	0x3c9a987b	0.018871536
67	0x3dcf6c03	0.101280235
68	0x3e8e0cba	0.27744085
69	0x3ee95770	0.45574522
70	0xbeb073c8	-0.34463334
71	0xbe27d2d8	-0.16389024
72	0x3e33fa44	0.17575938
73	0x3ebdb73a	0.37053853
74	0x3ec7411a	0.38916856
75	0x3ec1131b	0.3770989
76	0x3d926dc0	0.071498394
77	0xbec71c7c	-0.3888892
78	0x3d2882b8	0.041140288
79	0xbe8f3f38	-0.2797792

node_encoder.0.bias f4 [16]
0	0xbed56486	-0.41678256
1	0x3ec24a09	0.3794711
2	0x3ea919df	0.3302755
3	0xbee26083	-0.44214258
4	0x3da69ca0	0.081353426
5	0xbda1713b	-0.07882925
6	0xbdbf46f1	-0.09339703
7	0xbe51a0d6	-0.2047151
8	0x3e39a606	0.18129739
9	0xbe8a27e1	-0.2698355
10	0x3e23a8d4	0.15982372
11	0x3e649456	0.2232221
12	0x3ea6a851	0.3255029
13	0x3e221b0f	0.15830635
14	0xbee29f7d	-0.44262305
15	0xbe9d7ef1	-0.3076091

node_encoder.2.weight f4 [16, 16]
0	0x3dffa638	0.124828756
1	0x3d555ab4	0.052088454
2	0xbe579034	-0.21051103
3	0xbe39bb4a	-0.18137851
4	0x3e62affe	0.22137448
5	0x3e1f9671	0.15584733
6	0xbdfd6e83	-0.12374594
7	0xbd80dcd4	-0.062921196
8	0xbe6af9b6	-0.2294682
9	0xbcc9af66	-0.02461977
10	0xbe467a2b	-0.19382541
11	0xbe55546d	-0.20832987
12	0xbc9a363f	-0.018824695
13	0x3d3319f4	0.043725923
14	0xbdd1adf4	-0.10238257
15	0x3e08c83c	0.13357633
16	0xbe1bc938	-0.15213478
17	0x3e626201	0.22107698
18	0x3e3167d3	0.17324762
19	0xbe64ef06	-0.22356805
20	0xbd85e168	-0.065371335
21	0x3c5f3f57	0.013625941
22	0x3d213bc5	0.03936364
23	0x3d72ddd0	0.059293568
24	0x3dbc9106	0.092073485
25	0x3c22feee	0.009948475
26	0xbe017619	-0.12642707
27	0x3df96a70	0.121785045
28	0xbe78ce75	-0.24297507
29	0xbe1cf0e1	-0.15326263
30	0xbd802b3c	-0.06258246
31	0xbdf4db85	-0.119559325
32	0xbdb31d5c	-0.08745834
33	0xbe586263	-0.21131282
34	0xbd47a24f	-0.048738774
35	0x3d9b3973	0.07579317
36	0xbe274a78	-0.16337001
37	0xbc4f7657	-0.012662492
38	0x3e3a0c19	0.18168677
39	0xbcd288f0	-0.025700063
40	0xbc3c3b0f	-0.01148869
41	0xbc74823b	-0.0149236275
42	0x3d43dc7b	0.04781769
43	0x3e26f4b6	0.16304287
44	0x3e709f07	0.23498164
45	0x3e1f0ff3	0.15533428
46	0x3e730cc4	0.23735338
47	0xbc6fc7c3	-0.014635029
48	0xbe65f866	-0.22458038
49	0xbddbcfef	-0.107330196
50	0x3e43cd48	0.19121277
51	0xbcab8084	-0.020935304
52	0xbde9f0e0	-0.114228964
53	0xbe2dc1a4	-0.169684
54	0xbe59953e	-0.21248338
55	0xbe5810ec	-0.21100205
56	0xbd062a40	-0.032755136
57	0x3e04383d	0.12912078
58	0x3e12aa5d	0.14322801
59	0xbe608ab0	-0.21927905
60	0x3e2abf5a	0.16674557
61	0xbe46e327	-0.19422589
62	0xbd587bf0	-0.05285257
63	0xbda4d6f6	-0.08048813
64	0xbd453cf0	-0.048153818
65	0xbd2cc593	-0.04218061
66	0xbe58e241	-0.21180059
67	0xbe5e9e14	-0.2173999
68	0xbced84bc	-0.028993957
69	0x3c877ff5	0.016540507
70	0xbdd0495a	-0.10170241
71	0x3dc0deb8	0.0941748
72	0xbe6799e9	-0.22617306
73	0xbc817eaa	-0.015807468
74	0x3e69fdf3	0.2285078
75	0xbdb9be8d	-0.09069548
76	0x3e71a638	0.23598564
77	0x3dca0818	0.09864825
78	0xbe6707ae	-0.22561523
79	0x3e2ec832	0.17068556
80	0xbcec53f0	-0.028848618
81	0xbde5c60b	-0.11219414
82	0x3e3b836e	0.18311855
83	0xbe4263eb	-0.18983428
84	0x3cb6c4a1	0.022310557
85	0xbd900471	-0.07032097
86	0x3e24dd34	0.16100007
87	0x3d8eec08	0.06978613
88	0x3e020304	0.12696463
89	0x3dc0fc5e	0.09423135
90	0xbd7f8741	-0.062384848
91	0xbd91709e	-0.07101558
92	0xbe5a2a11	-0.2130511
93	0x3e0a00b5	0.13476832
94	0x3e4b4226	0.19849452
95	0x3e1dd1a7	0.15412007
96	0xbe3493ac	-0.17634457
97	0x3c8c182e	0.017101374
98	0xbe324f2f	-0.17413019
99	0xbde1d8e2	-0.11027695
100	0xbe03e95b	-0.12881987
101	0x3db96351	0.09052146
102	0xbe16418c	-0.14673442
103	0xbbb2ba00	-0.005454302
104	0x3cbba4e6	0.022905778
105	0x3e33815d	0.17529817
106	0xbe380ce4	-0.17973667
107	0xbe2b1a3a	-0.16709223
108	0xbe0ca9aa	-0.13736597
109	0x3e2ac9ee	0.16678593
110	0xbdb80bcc	-0.08986625
111	0x3e593729	0.21212448
112	0x3db924a0	0.09040189
113	0x3c6cc669	0.014451602
114	0xbd0d74d8	-0.03453526
115	0xbd01c9a1	-0.03168643
116	0x3c95f6e1	0.018306198
117	0xbdb223fd	-0.086982705
118	0xbd0744fa	-0.033024766
119	0x3d02a7c0	0.03189826
120	0xbe598df4	-0.21245557
121	0xbe0458c0	-0.1292448
122	0x3e3fa8a8	0.18716681
123	0xbe7076cc	-0.23482817
124	0xbd14f3dc	-0.036365375
125	0x3e6e580a	0.23275772
126	0x3db8f410	0.09030926
127	0xbccdd324	-0.025125094
128	0xbe5dda26	-0.21665248
129	0x3e00cfce	0.12579271
130	0xbe22f37c	-0.15913194
131	0xbd11c63f	-0.035589453
132	0xbd88b5e6	-0.066753194
133	0xbca16cb5	-0.019705156
134	0x3cac87d6	0.021060865
135	0x3e532696	0.20620188
136	0x3d34feb4	0.044188216
137	0x3e72407d	0.23657413
138	0x3e220002	0.15820315
139	0xbe0d8299	-0.1381935
140	0x3df1e3d5	0.11811034
141	0xbe4bbf22	-0.1989713
142	0xbdd8ff9c	-0.105956286
143	0x3dbc22f7	0.091863565
144	0x3da90ef0	0.08254802
145	0x3e37660b	0.1791002
146	0xbdb690ef	-0.08914363
147	0xbd1ae038	-0.037811488
148	0x3de6b1a1	0.11264349
149	0xbe82317f	-0.25428388
150	0x3e2e84bf	0.17042826
151	0xbe53b130	-0.2067306
152	0xbc34dfff	-0.011039733
153	0xbd6f2e7b	-0.058393937
154	0xbe12629d	-0.1429543
155	0x3cbad715	0.022807637
156	0x3e482586	0.19545564
157	0xbd7e116d	-0.062028337
158	0xbe17fc56	-0.14842352
159	0xbdd050d7	-0.10171669
160	0xbe7dbbe6	-0.24778709
161	0x3de34bbf	0.11098432
162	0xbdd77a68	-0.10521394
163	0xbe1b6548	-0.15175354
164	0xbe0f5e81	-0.14000894
165	0x3e1ee56c	0.15517205
166	0x3e16a11b	0.14709894
167	0x3e447c50	0.19188046
168	0x3d9d62ab	0.07684835
169	0xbd9d95a7	-0.076945595
170	0xbd8d190c	-0.06889543
171	0x3db157d1	0.08659328
172	0x3e5564ef	0.20839284
173	0x3d88ffb2	0.06689395
174	0xbdf2401c	-0.11828634
175	0xbdd0b518	-0.10190791
176	0xbe720a42	-0.23636726
177	0x3d65104f	0.055923756
178	0xbe089b37	-0.1334046
179	0xbe5ce605	-0.2157212
180	0x3e67ce76	0.22637352
181	0xbe185ab2	-0.14878348
182	0xbcb25046	-0.021766793
183	0x3d92af48	0.071623385
184	0xba8a4129	-0.0010547984
185	0xbe24b9c8	-0.16086495
186	0xbe47cd87	-0.19511996
187	0x3e5251ce	0.20539019
188	0x3d527e5d	0.05139004
189	0x3e5b76b7	0.21432005
190	0xbdaba4a8	-0.08381015
191	0x3da6022c	0.08105883
192	0xbd6a2a18	-0.05716905
193	0xbc3e252d	-0.011605543
194	0xbe17afd8	-0.14813173
195	0x3dc15953	0.09440865
196	0x3db11857	0.086472206
197	0xbb1d6ac6	-0.002401994
198	0xbd5580b3	-0.05212469
199	0xbe1dce58	-0.15410745
200	0x3e1ea037	0.15490805
201	0xbe329a8d	-0.17441769
202	0x3dd9fdc1	0.10644103
203	0xbd9ff6ed	-0.07810769
204	0xbdee1814	-0.11625686
205	0x3d34f91e	0.04418289
206	0xbe04fb22	-0.12986425
207	0x3d7a3aa8	0.061091095
208	0x3d491810	0.049095213
209	0xbe2a78b4	-0.16647607
210	0x3d1eb66e	0.038748197
211	0x3d4fb01a	0.050705053
212	0x3dc22c8b	0.09481152
213	0xbd06bcbc	-0.032894835
214	0xbe540c98	-0.20707929
215	0xbd1dda90	-0.038538516
216	0x3dfaedb7	0.12252372
217	0xbdf8d558	-0.12150067
218	0x3dd3215c	0.10309097
219	0x3e25a411	0.16175868
220	0xbdfed24e	-0.12442456
221	0x3c92eea7	0.017936064
222	0x3dd3b624	0.10337475
223	0x3c8ef6d0	0.017451674
224	0x3cab1290	0.020882875
225	0x3d602748	0.05472496
226	0xbe493d3b	-0.19652264
227	0x3d799129	0.06092945
228	0x3e43d414	0.1912387
229	0x3e63188c	0.22177333
230	0x3e1605f8	0.14650714
231	0x3d093818	0.03350076
232	0x3e0b6478	0.13612545
233	0xbdb0ec41	-0.08638812
234	0xbe3ad0aa	-0.18243662
235	0xbe5b488e	-0.21414396
236	0x3e89e9f9	0.2693632
237	0x3e3cecf9	0.18449773
238	0xbe30f4b2	-0.17280844
239	0x3dc6efca	0.09713705
240	0x3e4152aa	0.1887919
241	0x3e749063	0.23883204
242	0x3e4e51f7	0.20148455
243	0x3e39a0ee	0.18127796
244	0xbd9a1abf	-0.07524633
245	0xbddb4586	-0.1070662
246	0x3e414fe6	0.18878135
247	0x3e0f750a	0.1400949
248	0xbe1f94f8	-0.15584171
249	0x3e624a8f	0.22098754
250	0x3dd63658	0.10459584
251	0x3df4f568	0.1196087
252	0xbe33b4cd	-0.17549439
253	0x3d7769a6	0.06040349
254	0xbdb37cec	-0.08764061
255	0x3e35cb2a	0.17753282

node_encoder.2.bias f4 [16]
0	0xbd3ff6a4	-0.046866074
1	0x3dbb8797	0.09156721
2	0x3d1d0e70	0.038343847
3	0x3df60cd8	0.120141685
4	0xbd9cbbf0	-0.07653034
5	0x3df14d4a	0.1178232
6	0xbe2a6827	-0.16641293
7	0x3d19a774	0.03751321
8	0xbe263586	-0.16231355
9	0xbe84fad2	-0.2597261
10	0xbe4e6ad5	-0.2015794
11	0x3e4dc1ac	0.20093411
12	0x3e0b55f3	0.13607006
13	0x3e80e027	0.25171015
14	0x3e632993	0.22183828
15	0xbe7312ab	-0.2373759

node_encoder.3.weight f4 [16]
0	0x3f7ea473	0.9946968
1	0x3f7e7431	0.99396044
2	0x3f7f510c	0.9973304
3	0x3f81470f	1.009981
4	0x3f8126c6	1.0089958
5	0x3f804dee	1.0023782
6	0x3f7b8660	0.98251915
7	0x3f7c2944	0.98500466
8	0x3f85a28a	1.0440228
9	0x3f812298	1.0088682
10	0x3f7f41a3	0.9970953
11	0x3f803fd5	1.001948
12	0x3f7fdf6c	0.9995029
13	0x3f8247b1	1.0178128
14	0x3f822eb1	1.0170499
15	0x3f80c890	1.0061207

node_encoder.3.bias f4 [16]
0	0xbb2d0f25	-0.0026406732
1	0xbb732456	-0.0037100515
2	0xbb640f0d	-0.003479901
3	0x3c4e5e69	0.012595751
4	0x3c276fb1	0.0102195
5	0xbb1f14bd	-0.0024273836
6	0x3c911b0e	0.017713096
7	0xbc870693	-0.016482627
8	0x3c1f776a	0.00973306
9	0xbc2c24f6	-0.010506859
10	0x3a3d9f3b	0.0007233505
11	0x3be3357c	0.006933866
12	0x3b2e701e	0.002661712
13	0x3c785130	0.015156075
14	0x3cafcd54	0.021460213
15	0xbc44f820	-0.012022048

edge_encoder.0.weight f4 [16, 4]
0	0xbeb32c1f	-0.349946
1	0xbdb6557a	-0.08903022
2	0xbea7935d	-0.32729617
3	0x3eac546c	0.3365816
4	0xbec189ba	-0.3780039
5	0xbe79ce38	-0.24395072
6	0xbef751c4	-0.4830457
7	0xbe9157c6	-0.28387278
8	0x3ecd8bae	0.4014563
9	0x3eda32a0	0.4261675
10	0x3eaf5e84	0.34251797
11	0x3ec0162b	0.37516913
12	0x3ee2f756	0.44329327
13	0x3def2463	0.11676862
14	0x3e5c592c	0.21518391
15	0x3eeff6a7	0.46867868
16	0x3e30e1da	0.17273656
17	0x3f007753	0.50182074
18	0x3e743cb7	0.23851286
19	0x3eaabf9d	0.33349314
20	0xbe33322c	-0.17499608
21	0x3e75abf4	0.23991376
22	0x3d6b5420	0.057453275
23	0xbdf48c88	-0.11940867
24	0xbe7cf5e5	-0.24703176
25	0xbeb9b76d	-0.36272755
26	0xbec4fcb2	-0.3847404
27	0x3eab1c4b	0.33420023
28	0x3e8d9b27	0.27657434
29	0xbd6916a0	-0.056906343
30	0xbe9424c4	-0.289343
31	0x3e9d78b3	0.3075615
32	0x3eedac26	0.464204
33	0xbd6b07af	-0.057380375
34	0xbe71bbb8	-0.23606765
35	0x3f0390b5	0.5139268
36	0x3ec31612	0.38102776
37	0xbec2575a	-0.3795727
38	0x3f03ce62	0.5148679
39	0x3eb34433	0.3501297
40	0xbe3a9e8c	-0.18224543
41	0x3e8f89ea	0.28034908
42	0xbe9174d6	-0.2840945
43	0xbe368df9	-0.17827596
44	0x3edad3e5	0.42739788
45	0x3cb8801f	0.02252203
46	0xbea452fd	-0.32094565
47	0xbe19904a	-0.14996448
48	0xbe0afadc	-0.13572258
49	0xbdc58f20	-0.096464396
50	0x3d43feb0	0.04785031
51	0x3eecc1a2	0.4624148
52	0x3d1a2749	0.03763512
53	0xbeac6b53	-0.33675632
54	0x3ca41601	0.020030024
55	0x3e6ab32d	0.22919913
56	0x3e83384c	0.2562889
57	0xbee9f7e0	-0.45696926
58	0xbdb73cb0	-0.08947122
59	0xbebe3eb8	-0.37157226
60	0xbe0c32b7	-0.13691221
61	0x3e2bea1c	0.16788524
62	0xbeb5cb18	-0.3550651
63	0x3e1b3c8c	0.15159816

edge_encoder.0.bias f4 [16]
0	0x3ed43617	0.41447517
1	0x3d065330	0.032794178
2	0xbeaecc8a	-0.34140426
3	0xbe324294	-0.1740821
4	0x3de35b6c	0.11101422
5	0xbec32746	-0.381159
6	0x3e78099b	0.24222414
7	0xbf086741	-0.5328255
8	0xbee9e067	-0.45679018
9	0xbee6b900	-0.4506302
10	0xbdd13927	-0.10215979
11	0x3eab82ce	0.33498234
12	0xbef24c72	-0.47323948
13	0x3ecad9b6	0.39619225
14	0xbe445831	-0.19174267
15	0x3e11ada2	0.14226392

edge_encoder.2.weight f4 [16, 16]
0	0x3cc93728	0.024562433
1	0xbe66d710	-0.22542977
2	0x3e7352a3	0.23761992
3	0x3e17c6e0	0.14821959
4	0x3e83fd56	0.25779217
5	0x3e015596	0.12630305
6	0xbe2000d6	-0.15625319
7	0x3df86090	0.12127793
8	0xbe11ba14	-0.1423114
9	0x3dd098e2	0.1018541
10	0xbe434c79	-0.19072141
11	0xbd85b1f7	-0.06528085
12	0xbe7b5c54	-0.24546939
13	0xbdc1d0f6	-0.09463684
14	0x3d751abd	0.059839953
15	0xbe397028	-0.1810919
16	0x3d927e35	0.07152978
17	0x3e096c2c	0.1342017
18	0xbbed41db	-0.0072405166
19	0xbe33051f	-0.17482422
20	0xbe53a5bf	-0.20668696
21	0xbd9df5e4	-0.077129155
22	0x3dde5aa2	0.108571306
23	0x3e9bbe1f	0.30418488
24	0x3e7cd6ac	0.24691266
25	0xbd850375	-0.064948
26	0x3d91f744	0.0712724
27	0xbe7e9af1	-0.24863793
28	0xbe5aa662	-0.21352533
29	0x3deb739c	0.1149666
30	0xbe0a090f	-0.13480018
31	0x3dd5ec86	0.10445504
32	0xbe32a1aa	-0.17444482
33	0xbdfd9964	-0.123827726
34	0xbe532b9a	-0.20622101
35	0x3e0b7d4e	0.13622019
36	0xbcbfe498	-0.023424432
37	0x3e450494	0.19240028
38	0x3e2419ef	0.16025518
39	0x3def17b7	0.11674445
40	0xbc8a8651	-0.01690975
41	0xbe5b8579	-0.21437635
42	0xbd9ba176	-0.075991556
43	0x3d075aa2	0.03304542
44	0x3dfdcda4	0.123927385
45	0xbe27e383	-0.16395383
46	0x3e5e0fee	0.21685764
47	0xbd0c0874	-0.03418775
48	0xbe5e5327	-0.21711408
49	0xbe0a82c4	-0.13526446
50	0x3e42f543	0.19038872
51	0x3e58281a	0.21109048
52	0xbe70b765	-0.2350746
53	0x3e348e6e	0.17632458
54	0x3ddf6199	0.10907287
55	0x3e0a4394	0.13502342
56	0x3e183a3a	0.14865962
57	0xbe485ad6	-0.19565901
58	0x3da74d1e	0.08169006
59	0x3dd02d52	0.10164894
60	0xbd974ae8	-0.07387334
61	0x3d9854b3	0.0743803
62	0xbd90bea5	-0.070676126
63	0x3e18b1d1	0.14911582
64	0xbd7b2cdb	-0.061322074
65	0xbdbedf14	-0.093198925
66	0x3d827384	0.06369689
67	0x3d9162ca	0.07098921
68	0xbde43f47	-0.11144882
69	0x3cb50a30	0.022099584
70	0x3e326751	0.17422225
71	0xbd9cf787	-0.076643996
72	0xbd085b6f	-0.033290323
73	0xbe13abc0	-0.14420986
74	0x3dc273b0	0.09494722
75	0xbe412d90	-0.18865037
76	0xbe16890e	-0.1470072
77	0xbe02a001	-0.12756349
78	0x3e59b93e	0.2126207
79	0xbd6e538c	-0.058185145
80	0x3c3a6947	0.011377639
81	0xbdf80fcc	-0.12112388
82	0x3e897c77	0.26852772
83	0x3e6fd103	0.23419575
84	0xbe32ad81	-0.17448999
85	0xbe4f8810	-0.20266747
86	0xbe414f70	-0.18877959
87	0xbd943c35	-0.07238046
88	0xbe795bc1	-0.24351408
89	0xbedb709e	-0.42859358
90	0xbd91543c	-0.070961446
91	0x3d3e91ff	0.04652595
92	0xbe05c1f4	-0.13062268
93	0x3d54060d	0.051763583
94	0xbd87167f	-0.06596088
95	0xbdccd2ae	-0.100011215
96	0x3d2aec01	0.041728977
97	0x3e527f84	0.20556456
98	0xbe3ea889	-0.18618979
99	0x3ce4554a	0.0278727
100	0xbdb42a86	-0.08797173
101	0x3e7b36e4	0.24532658
102	0xbe60ad95	-0.21941216
103	0xbe2873f7	-0.16450487
104	0x3ec2ca59	0.38045004
105	0xbe667446	-0.22505292
106	0x3d3932cf	0.04521447
107	0xbba37bf8	-0.0049891435
108	0xbd57b678	-0.05266425
109	0xbd2732b0	-0.040819824
110	0x3e34fa61	0.17673637
111	0x3c3d8824	0.011568103
112	0xbe6f68d7	-0.23379837
113	0xbe1721d8	-0.14759004
114	0xbd9783f5	-0.07398216
115	0x3e0a72d5	0.13520367
116	0xbe1fe899	-0.15616073
117	0x3e71632e	0.2357299
118	0xbd63fcd6	-0.055661045
119	0xbd3c4466	-0.045963667
120	0x3e4ba653	0.19887666
121	0xbcee8fd5	-0.029121319
122	0x3e64f7a7	0.22360097
123	0x3e1bf0b3	0.15228538
124	0xbd9b5134	-0.07583848
125	0xbe24a4a1	-0.16078426
126	0xbc2ed13c	-0.010670003
127	0x3e5fb287	0.21845447
128	0xbdc71a6c	-0.097218364
129	0xbe6d681e	-0.23184249
130	0x3de4a9ac	0.11165175
131	0x3e817f4c	0.25292432
132	0xbda40df3	-0.08010473
133	0xbe53f95a	-0.20700589
134	0xbe7bbbeb	-0.24583404
135	0x3d218809	0.039436374
136	0xbc1844df	-0.009293764
137	0xbd2b794a	-0.041863717
138	0x3d3ddfa5	0.046355862
139	0x3dc524ca	0.096261576
140	0x3e4b9a06	0.19882974
141	0x3e429032	0.19000319
142	0xbcf08f98	-0.029365346
143	0xbe6d7d31	-0.23192288
144	0xbe6fcee2	-0.23418763
145	0x3e6f0648	0.2334224
146	0x3dd584f9	0.10425753
147	0x3ddd5ce1	0.10808731
148	0xbe6296cf	-0.22127841
149	0x3e6d0f5e	0.23150393
150	0x3e77fdb1	0.2421787
151	0x3e77be51	0.24193694
152	0xbe1b9cd7	-0.15196548
153	0x3d3425e2	0.04398144
154	0xbe384179	-0.17993726
155	0x3e6aa6a0	0.22915125
156	0xbddbff04	-0.10742
157	0xbdeb8abf	-0.11501073
158	0x3df55f54	0.11981073
159	0xbe0076d6	-0.12545332
160	0xbdf44515	-0.11927239
161	0xbcb32440	-0.021867871
162	0x3bc7143b	0.0060754097
163	0xbe30771c	-0.17232937
164	0x3e598bcd	0.21244736
165	0xbde1dab4	-0.110280424
166	0x3daece90	0.085354924
167	0x3e1009da	0.14066258
168	0xb9f6c87c	-0.0004707015
169	0x3e19adb8	0.15007675
170	0x3e596bec	0.21232575
171	0x3d22ce28	0.039747387
172	0xbdece154	-0.115664154
173	0x3e7be80b	0.24600236
174	0x3d8acf0c	0.06777772
175	0xbe75a1e2	-0.23987535
176	0xbd9a5134	-0.075350195
177	0xbe2e60fe	-0.17029187
178	0x3e636347	0.2220584
179	0xbd2002cb	-0.039065164
180	0xbe6f64d2	-0.23378304
181	0xbc80be80	-0.015715837
182	0x3e1dcd78	0.15410411
183	0x3d9e47dc	0.0772855
184	0x3de2f434	0.11081734
185	0x3e5ca803	0.21548466
186	0x3db63560	0.08896899
187	0xbd812f84	-0.06307891
188	0xbdcbac78	-0.09945005
189	0xbe72d7ec	-0.2371518
190	0xbe45d437	-0.19319235
191	0x3dd731ba	0.105075315
192	0xbe12d7ec	-0.1434018
193	0x3d12e8e0	0.03586662
194	0x3d9094f8	0.070596635
195	0xbac1c3bd	-0.0014783066
196	0xbe22e085	-0.1590596
197	0x3e74d1f0	0.2390821
198	0xbe37c82f	-0.17947458
199	0x3e737702	0.23775867
200	0xbdfbb44c	-0.12290248
201	0xbe0c769a	-0.13717118
202	0x3e1ff783	0.15621762
203	0xbdcd82c0	-0.10034704
204	0x3e570d0e	0.21001074
205	0xbe3a95eb	-0.18221252
206	0xbe5dd9be	-0.21665093
207	0xbdc5a61c	-0.096508235
208	0x3d3b24c6	0.045689367
209	0x3e6bb6a8	0.23018897
210	0xbdebca11	-0.115131505
211	0x3dad376e	0.08457838
212	0xbd8fb6f5	-0.07017318
213	0xbd5e1128	-0.05421558
214	0x3e779bcf	0.2418053
215	0xbe11037c	-0.14161485
216	0x3e0b3133	0.13592987
217	0x3ee27907	0.44232962
218	0xbd411de3	-0.047147643
219	0x3e371c66	0.17881927
220	0xbd9dac84	-0.0769892
221	0x3e494f2c	0.19659108
222	0xbe823cd5	-0.25437036
223	0xbd1fb54b	-0.038991254
224	0xbd4ca6e3	-0.049963843
225	0x3da5ee78	0.08102125
226	0x3d97ec7a	0.07418151
227	0x3e45a9c6	0.19303045
228	0xbd2a7533	-0.041615676
229	0xbc226d60	-0.009913772
230	0x3e0ff2f3	0.14057522
231	0xbc49de8e	-0.012321128
232	0x3ea05383	0.31313714
233	0xbe96c3dc	-0.29446304
234	0xbd0a8c97	-0.033825483
235	0xbc18fa03	-0.009336951
236	0x3de475a0	0.11155248
237	0x3e33d23d	0.17560668
238	0xbce44d77	-0.02786897
239	0xbe5dc6a5	-0.21657808
240	0x3de52b6c	0.11189923
241	0x3d9927cc	0.07478294
242	0x3d8cc54e	0.068735704
243	0xbe4a3d21	-0.19749881
244	0x3e1a486a	0.15066686
245	0x3e7278c0	0.23678875
246	0xbcc783c1	-0.024354817
247	0xbe1a0e3e	-0.15044495
248	0x3ea2e899	0.31818083
249	0xbed43873	-0.41449317
250	0x3d579e51	0.052641217
251	0x3cb2a1e0	0.021805704
252	0xbdefa27c	-0.11700913
253	0x3d810b12	0.063009396
254	0xbe77893a	-0.24173442
255	0x3d3f62c1	0.04672504

edge_encoder.2.bias f4 [16]
0	0xbe1d7af6	-0.15378937
1	0xbd05930f	-0.03261095
2	0x3d1e849c	0.038700685
3	0x3e5804e1	0.21095611
4	0xbde6dab0	-0.1127218
5	0x3e28fb25	0.16502054
6	0xbca328c6	-0.019916903
7	0xbde899a0	-0.11357427
8	0xbe676bfa	-0.22599784
9	0xbe6f5bfc	-0.23374933
10	0x3e7d54fa	0.24739447
11	0xbd8b20b6	-0.067933485
12	0x3c5b19a5	0.013372813
13	0x3d6d4052	0.05792267
14	0x3e2f905f	0.17144917
15	0x3e4fbfd9	0.20288028

edge_encoder.3.weight f4 [16]
0	0x3f803a8b	1.0017866
1	0x3f7f1b7a	0.996513
2	0x3f7e3746	0.9930309
3	0x3f7eff7f	0.99608606
4	0x3f7e74ee	0.9939717
5	0x3f7ffd9e	0.99996364
6	0x3f7dc0a7	0.9912209
7	0x3f7f7d4b	0.99800557
8	0x3f817625	1.011418
9	0x3f801875	1.0007464
10	0x3f7ea468	0.99469614
11	0x3f8089ce	1.0042055
12	0x3f7e5caf	0.99360174
13	0x3f7eda85	0.99552184
14	0x3f7f6ea4	0.997782
15	0x3f7ca819	0.98693997

edge_encoder.3.bias f4 [16]
0	0x3bd6197f	0.006533801
1	0xbba4ec8a	-0.0050330805
2	0x3bce6e39	0.0062997607
3	0xbb97f508	-0.0046373643
4	0x3bf7f931	0.0075675477
5	0x3b877d4a	0.0041348087
6	0x3c363709	0.01112152
7	0x3bc562d6	0.006023745
8	0xbb5e5508	-0.0033925194
9	0xb993450e	-0.00028089475
10	0xbb414a01	-0.0029493573
11	0xbb916978	-0.0044376217
12	0x3c07dcaa	0.0082923565
13	0xbc0943e2	-0.008378001
14	0xbb8510b3	-0.0040608286
15	0xbc64a425	-0.013955151

node_model.0.weight f4 [16, 48]
0	0x3e04045e	0.12892291
1	0xbe14762d	-0.14498205
2	0x3bbf130e	0.005831129
3	0xbd9900ac	-0.07470831
4	0xbd812ee5	-0.063077725
5	0x3cc7b0d3	0.024376309
6	0x3e05a41f	0.13050888
7	0xbdf055bb	-0.11735102
8	0x3de06eb0	0.10958612
9	0xbd9c5246	-0.0763288
10	0xbd0795d1	-0.03310186
11	0x3dddd0c1	0.10830832
12	0xbd120157	-0.03564581
13	0x3c8d6937	0.017262084
14	0xbdc4834f	-0.095953576
15	0x3de68e2a	0.112575844
16	0xbcbf2a99	-0.023335742
17	0xbdf0bd92	-0.11754908
18	0x3ccb7791	0.024837287
19	0xbde39dce	-0.11114083
20	0xbddec89e	-0.108781084
21	0x3c83730d	0.016046071
22	0x3dfa30b8	0.122163236
23	0xbd1cc2a9	-0.03827158
24	0x3d6e4039	0.058166716
25	0x3e118f46	0.1421481
26	0x3da0ccc5	0.07851557
27	0xbd9bf526	-0.07615118
28	0xbcf8a420	-0.030351698
29	0xbd18249e	-0.037144296
30	0xbdc1bfae	-0.09460388
31	0x3cd62d5b	0.026144674
32	0x3de1b10c	0.11020097
33	0x3dffd473	0.12491693
34	0x3cb662ac	0.022263847
35	0x3cb81172	0.022469256
36	0xbd4af635	-0.049551208
37	0x3dbfb6dd	0.0936105
38	0xbd9e7580	-0.07737255
39	0xbdbd58f6	-0.092454836
40	0x3d132f70	0.03593391
41	0x3db0d78c	0.08634862
42	0xbdf42352	-0.11920799
43	0x3df8ea0d	0.12154017
44	0x3d2eff3d	0.042723883
45	0xbdc73240	-0.09726381
46	0xbd550d1c	-0.052014455
47	0x3ded8e7a	0.11599441
48	0xbdf51d0e	-0.11968432
49	0xbd5766a4	-0.05258812
50	0x3cdbc8c1	0.026829125
51	0xbdf0664d	-0.11738262
52	0x3db7b4b9	0.08970017
53	0x3d7bcbd3	0.06147368
54	0x3da5682a	0.08076508
55	0xbda23bf0	-0.079215884
56	0x3e420732	0.18948057
57	0xbdba72e6	-0.091039464
58	0x3e05b0db	0.13055746
59	0xbe06a7cf	-0.13149951
60	0xbdefd631	-0.11710776
61	0x3dc7013e	0.09717034
62	0x3ca2785c	0.019832782
63	0x3b859d7f	0.004077613
64	0xbdd14305	-0.10217861
65	0xbdfb49c9	-0.12269933
66	0xbd1a0422	-0.037601598
67	0xbe1ddf10	-0.15417123
68	0x3b4463e7	0.0029966773
69	0x3b6675ef	0.0035165509
70	0x3bd10976	0.0063793017
71	0x3d545bc9	0.051845346
72	0x3dff9b1d	0.124807574
73	0x3d851e96	0.064999744
74	0xbdd7049d	-0.10498927
75	0xbd160c8f	-0.03663307
76	0xbdd79f69	-0.10528452
77	0xbdcd2bf2	-0.100181475
78	0xbca327da	-0.019916464
79	0x3b677dfa	0.003532289
80	0x3d6f70b9	0.05845711
81	0xbd81221f	-0.06305336
82	0x3deed4ac	0.11661658
83	0xbe08b871	-0.13351609
84	0x3c377b43	0.0111988215
85	0x3e1d16d5	0.15340741
86	0x3e34f2eb	0.17670791
87	0xbdd2a437	-0.10285228
88	0x3cc9edac	0.024649464
89	0x3c357922	0.011076244
90	0xbd8bb72d	-0.068220474
91	0xbd35b0f6	-0.044358216
92	0x3bc006fb	0.005860207
93	0xbdda0eda	-0.10647364
94	0x3c3fff87	0.011718637
95	0x3d937e83	0.072018646
96	0xbd78c579	-0.0607352
97	0x3dd7e383	0.10541441
98	0xbca21008	-0.019783035
99	0x3da42484	0.08014777
100	0x3e1f69e9	0.15567745
101	0xbd68df14	-0.05685337
102	0x3d86f98d	0.06590567
103	0xbcfd6a67	-0.030934526
104	0x3c279519	0.010228419
105	0xbcf931f7	-0.030419333
106	0xbc789604	-0.015172485
107	0xbd41b3d6	-0.047290646
108	0x3d358ac3	0.044321787
109	0x3c9d6f3d	0.019218082
110	0x3dccf1a5	0.100070275
111	0xbca64cbd	-0.020300264
112	0x3bb551bc	0.005533425
113	0xbd616f7b	-0.055037957
114	0xbe0d4e3d	-0.13799377
115	0x3d28aaa9	0.04117838
116	0x3d1546c8	0.036444455
117	0xbd8fa614	-0.07014099
118	0xbd4f64bf	-0.05063319
119	0x3d844e6b	0.064602695
120	0xbcbb270a	-0.022845764
121	0x3dda0964	0.10646322
122	0xbca0e05d	-0.019638235
123	0x3d30715a	0.04307685
124	0x3d130a45	0.035898466
125	0xbcc2a8a9	-0.023762064
126	0x3d9c73be	0.076392636
127	0x3e07da68	0.13266909
128	0x3c1c13f0	0.009526238
129	0x3d445130	0.04792899
130	0xbc0cec23	-0.008601221
131	0x3db6a16b	0.08917507
132	0xbd18350e	-0.037159972
133	0xbdc63bd0	-0.09679377
134	0x3d5d2d33	0.053998183
135	0xbe114510	-0.14186502
136	0x3ccb1896	0.024791997
137	0xbd8cd8da	-0.06877299
138	0x3dfb19ac	0.12260756
139	0xbe009317	-0.1255611
140	0x3d7271d2	0.05919058
141	0x3e13a773	0.14419346
142	0x3c892c80	0.016744852
143	0xbd0fb2c3	-0.03508259
144	0x3dedd971	0.11613739
145	0xbd5beb8c	-0.053691432
146	0xbc6659b8	-0.014059477
147	0xbd64ecfc	-0.05589007
148	0xbc777731	-0.015104101
149	0x3c8a81ef	0.01690766
150	0x3bfcb869	0.007712413
151	0xbbfc4342	-0.0076984474
152	0xbe233c7a	-0.15941039
153	0xbc2d7624	-0.010587249
154	0xbc5d2e6c	-0.013499837
155	0x3d38c610	0.045110762
156	0x3e05a4dc	0.1305117
157	0x3e195b8b	0.14976327
158	0xbd948019	-0.07250995
159	0xbc068d8f	-0.008212461
160	0xbd6be8ab	-0.057594936
161	0xbe1df675	-0.15426047
162	0xbde8ca98	-0.11366767
163	0x3dec4194	0.115359455
164	0x3db9460d	0.09046564
165	0x3da86b1c	0.082235545
166	0x3d9dddf1	0.077083476
167	0xbe0f6f81	-0.14007379
168	0x3d1a8dd6	0.03773292
169	0x3e143212	0.14472225
170	0xbd7249f9	-0.059152577
171	0x3dcd1b6f	0.10014998
172	0x3d0820c9	0.03323439
173	0x3e00f3e9	0.12593044
174	0xbd4051ab	-0.046952885
175	0x3d51ede8	0.051252276
176	0xbde5f15c	-0.11227676
177	0xbca40dbe	-0.020026084
178	0x3d779180	0.060441494
179	0x3cca91c6	0.024727713
180	0x3df49afa	0.11943622
181	0x3e1c4443	0.15260415
182	0x3e070f9d	0.1318955
183	0x3d8d3c36	0.0689625
184	0x3db33699	0.08750648
185	0xbc13288c	-0.008981835
186	0xbdfc9358	-0.12332791
187	0xbd6bf10f	-0.05760294
188	0xbd0dbe6a	-0.03460542
189	0xbdbd2ba8	-0.092368424
190	0x3dbbe8b7	0.09175246
191	0x3d9a559d	0.07535861
192	0x3c817496	0.015802663
193	0x3cb27f08	0.021789089
194	0x3df8927e	0.12137316
195	0x3d9824e8	0.07428914
196	0xbde25074	-0.110505015
197	0xbdf04d97	-0.11733549
198	0x3d4a4d21	0.049389962
199	0x3ce8113c	0.02832853
200	0x3dcbb62d	0.09946857
201	0xbe1f2611	-0.15541865
202	0xbe158c17	-0.14604221
203	0x3dca2706	0.098707244
204	0x3dd15b3f	0.10222482
205	0xbde82919	-0.11335964
206	0x3d8eefb3	0.06979313
207	0xbe0b8236	-0.1362389
208	0x3dc75722	0.09733416
209	0x3d5b3690	0.05351883
210	0x3dfa1d9c	0.12212679
211	0xbe1c5599	-0.15267028
212	0xbdf416fc	-0.119184464
213	0x3df94071	0.12170494
214	0x3e1cdf15	0.15319474
215	0x3dd2e42f	0.10297429
216	0x3d99a56d	0.075022556
217	0xbe0b7fd6	-0.13622984
218	0x3df9a85f	0.12190317
219	0xbe31b5de	-0.17354533
220	0x3d22f702	0.039786346
221	0xbd817449	-0.06321008
222	0xbcf20723	-0.029544419
223	0x3caed8f3	0.021343684
224	0xbd48a299	-0.04898319
225	0xbd0cca56	-0.03437265
226	0xbe0f14b5	-0.13972743
227	0xbe089eb7	-0.13341795
228	0x3d6e17af	0.058128055
229	0xbd4e7caf	-0.050411876
230	0xbd8bfe65	-0.06835631
231	0xbd4a139e	-0.049335115
232	0xbe06f93e	-0.13181016
233	0xbdeda2ff	-0.11603355
234	0x3d9971ba	0.07492395
235	0x3dca48d3	0.09877171
236	0x3d061e07	0.03274348
237	0xbdc2c77e	-0.09510706
238	0x3d7ff715	0.062491495
239	0x3bf289d0	0.0074016824
240	0xbdbb8237	-0.09155696
241	0x3c9ebaa6	0.01937611
242	0x3e127720	0.14303255
243	0xbe1cf422	-0.15327504
244	0xbe082c06	-0.13298044
245	0x3cf78ada	0.030217577
246	0x3df671ce	0.12033425
247	0xbdcbcf7c	-0.09951684
248	0x3d17675b	0.0369638
249	0x3de7a083	0.11309912
250	0x3d662395	0.056186277
251	0x3ca03ba1	0.019559683
252	0x3e078921	0.13235904
253	0x3da8d21f	0.082432024
254	0xbdbe1ca3	-0.09282806
255	0x3cc62927	0.024189545

node_model.0.bias f4 [16]
0	0x3dee09f6	0.11622994
1	0x3caf4bcb	0.021398446
2	0x3dd97f39	0.10619969
3	0x3d9b4608	0.07581717
4	0x3db7a778	0.08967489
5	0xbe0d9e48	-0.13829911
6	0xbdae76cb	-0.08518752
7	0x3dad46a8	0.08460742
8	0xbd055827	-0.03255477
9	0xbdff4565	-0.12464408
10	0x3de9fb7b	0.11424919
11	0x3b8c0896	0.0042734845
12	0x3dd56c6a	0.10421069
13	0xbe03b651	-0.12862517
14	0x3d8757d8	0.06608552
15	0xbd0137d9	-0.0315474

node_model.2.weight f4 [16, 16]
0	0xbe1c04af	-0.15236162
1	0xbd8cb565	-0.06870536
2	0xbdb55957	-0.08854931
3	0x3e1b2762	0.15151742
4	0x3d12010d	0.035645533
5	0x3e38cf55	0.18047841
6	0x3d6c3ecf	0.057677086
7	0x3e020524	0.12697273
8	0xbe4cd955	-0.2000478
9	0xbe88083a	-0.26568776
10	0xbdb02ed3	-0.08602681
11	0xbe831d80	-0.25608444
12	0xbceff7e6	-0.029293012
13	0xbb9759d6	-0.0046188636
14	0x3d559516	0.052144133
15	0xbdbe9d9f	-0.093074076
16	0x3e0d0d97	0.13774715
17	0x3dc3ac37	0.09554332
18	0xbdc9056f	-0.098154895
19	0xbe124623	-0.14284568
20	0x3e3a47a3	0.1819139
21	0x3e544358	0.20728815
22	0xbe8dc427	-0.27688715
23	0xbd2f06b3	-0.042731
24	0xbd6ab6bb	-0.05730317
25	0xbdf76b05	-0.12080959
26	0x3e3f251c	0.186665
27	0xbd7ea62f	-0.062170204
28	0x3e426f23	0.18987708
29	0xbc6ceffb	-0.014461513
30	0xb96af696	-0.0002240784
31	0xbe25fb78	-0.16209209
32	0xbe1897d4	-0.14901668
33	0x3d1ec34a	0.03876046
34	0x3df6e966	0.12056236
35	0xbd10e054	-0.035370186
36	0x3e8cce15	0.27500978
37	0xbe31f18a	-0.17377296
38	0x3d986e9d	0.07442973
39	0x3e8b153d	0.2716464
40	0xbd50c0d3	-0.05096514
41	0x3e275216	0.16339907
42	0xbcdb88f6	-0.026798707
43	0xbe5ed205	-0.21759804
44	0xbdfdb111	-0.12387288
45	0x3da7fd8e	0.082026586
46	0xbdbcd70c	-0.092207044
47	0x3d9003b7	0.070319586
48	0x3e890083	0.26758203
49	0x3de51e3e	0.11187409
50	0xbcd98f24	-0.026557513
51	0x3dd66fcc	0.10470542
52	0xbde5ca75	-0.11220256
53	0xbe4e1b00	-0.20127487
54	0xbe2d75a7	-0.16939412
55	0xbe0bc925	-0.1365095
56	0x3d93c287	0.072148375
57	0x3da1a071	0.0789193
58	0xbdbbe494	-0.09174457
59	0xbe81a1b4	-0.25318682
60	0x3e25f9de	0.16208598
61	0xbe0674e8	-0.13130534
62	0xbc6fc5de	-0.014634578
63	0xbe5903a8	-0.21192801
64	0xbd814f59	-0.063139625
65	0x3e2350b9	0.15948762
66	0xbe7ffa63	-0.24997859
67	0xbdcb4034	-0.09924355
68	0x3e018d58	0.12651575
69	0xbdf1c88a	-0.11805828
70	0xbdae6a72	-0.085163966
71	0xbe267deb	-0.16258971
72	0x3d8d15ad	0.068889
73	0xbe07174f	-0.13192485
74	0x3d736846	0.059425615
75	0x3e049538	0.12947547
76	0xbcaf7fd2	-0.021423254
77	0x3d5c2f46	0.05375602
78	0xbe643a80	-0.22287941
79	0x3dca62e6	0.09882145
80	0x3e120c1c	0.14262432
81	0x3c4e182d	0.012579006
82	0xbe34adcb	-0.17644422
83	0x3dfc5ae6	0.12322025
84	0x3cda2aca	0.026631732
85	0xbd0a7977	-0.033807244
86	0x3e100582	0.14064601
87	0xbd8ad33f	-0.06778573
88	0xbdb2dbeb	-0.08733352
89	0x3b953fb7	0.0045547145
90	0x3e8aac8c	0.27084768
91	0x3c182911	0.009287135
92	0xbe7eb184	-0.24872404
93	0xbc7beb2b	-0.015375893
94	0xbc4ae3fd	-0.012383458
95	0xbdb6343b	-0.08896681
96	0xbdb46f9d	-0.08810351
97	0x3e786865	0.24258573
98	0x3e1295ca	0.14314952
99	0x3c0e8aa7	0.0087000495
100	0xbcdbcebb	-0.026831975
101	0xbd14f30a	-0.036364593
102	0x3d842b94	0.06453624
103	0xbc5ac33c	-0.013352212
104	0xbdf98256	-0.12183063
105	0x3d8edd67	0.06975823
106	0x3d0134ae	0.03154438
107	0xbb8e9906	-0.004351738
108	0xbd86d266	-0.06583099
109	0x3da23a8e	0.07921325
110	0xbe653ee7	-0.22387277
111	0x3d7d3e84	0.061827198
112	0x3e348c43	0.1763163
113	0xbcd53233	-0.026024913
114	0xbe4ffcee	-0.20311329
115	0xbd83433e	-0.0640931
116	0xbdd32df1	-0.10311497
117	0xbe66c8ad	-0.22537489
118	0xbe5009e1	-0.20316269
119	0x3d834ddd	0.064113356
120	0x3e710e87	0.23540698
121	0x3e17863a	0.14797297
122	0x3e3f8b3a	0.18705454
123	0x3d977a1d	0.07396338
124	0x3d3dec82	0.04636813
125	0x3e33f92a	0.17575517
126	0xbe3017a1	-0.17196514
127	0xbd8cc8bb	-0.06874224
128	0x3e0ae73f	0.13564776
129	0xbd221dfc	-0.039579377
130	0xbe14d7a9	-0.14535393
131	0xbe65ec5e	-0.22453448
132	0x3e538b28	0.20658553
133	0x3e5a9348	0.21345246
134	0x3e416351	0.18885542
135	0x3dc9e112	0.09857382
136	0x3e3974d0	0.18110967
137	0xbe7fbf63	-0.24975352
138	0xbe4ac946	-0.19803342
139	0xbe67ca21	-0.226357
140	0x3e4efe02	0.20214084
141	0xbc580974	-0.013185848
142	0xbd98c866	-0.07460098
143	0x3dd866d8	0.10566491
144	0xbd3cbb17	-0.04607686
145	0xbdef6730	-0.11689603
146	0x3ddaf4cc	0.106912225
147	0x3db1797d	0.0866575
148	0xbe461c62	-0.19346765
149	0xbe32274b	-0.17397802
150	0x3e0fcbb0	0.14042544
151	0x3e3e6d31	0.1859634
152	0x3c961f6b	0.018325528
153	0xbdc0ea40	-0.0941968
154	0x3e0ab744	0.13546473
155	0x3d934dab	0.07192548
156	0xbe62eb23	-0.2216001
157	0xbe1d7f78	-0.15380657
158	0x3d839c43	0.06426289
159	0x3e3309b5	0.17484172
160	0xbdd9f980	-0.106432915
161	0x3da35b22	0.079763666
162	0xbe30f2db	-0.17280142
163	0x3e482c96	0.19548258
164	0x3e3366a0	0.17519617
165	0x3d3fdc41	0.04684091
166	0x3d9d7cb5	0.076898016
167	0x3c98b8df	0.01864284
168	0xbe00d58a	-0.12581459
169	0xbd27ad84	-0.04093696
170	0x3d200c57	0.03907427
171	0xbd195b6c	-0.037440702
172	0x3e344a67	0.17606507
173	0xbda34392	-0.079718724
174	0xbe976f26	-0.29576987
175	0xbe07498e	-0.13211653
176	0xbe91c503	-0.2847062
177	0x3e342b82	0.17594722
178	0xbde3819f	-0.11108708
179	0xbe575ba5	-0.21031053
180	0xbb65f974	-0.0035091313
181	0xbe3552df	-0.17707394
182	0xbe01add8	-0.12663972
183	0x3e107f00	0.14110947
184	0xbe240124	-0.1601606
185	0x3da94437	0.08264964
186	0x3e224c0b	0.1584932
187	0xbb9a2d27	-0.0047050896
188	0x3dcfb7fb	0.10142513
189	0xbe1a4e01	-0.15068819
190	0x3e3b5bc4	0.18296725
191	0x3e745805	0.23861702
192	0xbc717925	-0.014738356
193	0x3e5688a0	0.20950556
194	0xbe88769f	-0.26653
195	0xbd4df797	-0.05028495
196	0x3ba2963c	0.004961757
197	0xbe549db1	-0.2076328
198	0x3e09ece3	0.13469271
199	0xbe0e2e85	-0.13884933
200	0xbdc7f34c	-0.09763202
201	0xbe541cad	-0.20714064
202	0x3dcb6a79	0.099324174
203	0xbe351033	-0.17681961
204	0xbd1fdc0c	-0.039028212
205	0x3df599d5	0.11992232
206	0x3e227b5a	0.15867367
207	0x3c9deeac	0.019278847
208	0xbcab2b50	-0.020894676
209	0xbdbe862f	-0.09302937
210	0x3e0e1750	0.1387608
211	0x3d5224c8	0.05130461
212	0x3e31f17a	0.17377272
213	0x3dd39af8	0.10332292
214	0x3e305acd	0.17222138
215	0xbe76a8f4	-0.24087888
216	0x3e66d2e1	0.22541381
217	0xbdb94263	-0.090458654
218	0xbd722d9f	-0.05912554
219	0x3d0975bf	0.033559557
220	0xbd93dd52	-0.07219948
221	0x3d2c35e8	0.042043597
222	0x3e24da91	0.16099001
223	0xbdfb85ff	-0.12281417
224	0xbc86a094	-0.016433991
225	0xbe80849c	-0.25101173
226	0x3d320f46	0.043471597
227	0x3e17b43e	0.1481485
228	0x3e56d606	0.20980081
229	0x3e5e3474	0.21699697
230	0x3e0ac1a5	0.13550432
231	0x3c12aa5d	0.008951751
232	0x3d6232c2	0.055224188
233	0xbddd7768	-0.108137906
234	0x3e3ccca7	0.18437444
235	0x3e181a93	0.14853887
236	0xbe4c6abb	-0.1996259
237	0x3e4f8ece	0.2026932
238	0x3ca03251	0.019555243
239	0x3b5a151d	0.0033276745
240	0xbd081e04	-0.03323175
241	0xbd4ef27a	-0.050524212
242	0x3cb752ce	0.022378352
243	0xbdf4fa57	-0.11961811
244	0xbe3e9417	-0.1861118
245	0xbe001e94	-0.12511665
246	0xbcf042b8	-0.029328689
247	0x3e4ae19a	0.19812623
248	0x3e4e5446	0.20149335
249	0xbdffb3e7	-0.124854855
250	0x3c9504e8	0.018190816
251	0xbd378f5b	-0.04481445
252	0xbdf8eea7	-0.12154894
253	0xbcca951a	-0.0247293
254	0xbccae002	-0.024765018
255	0x3e023e54	0.12719089

node_model.2.bias f4 [16]
0	0xbdd08ca8	-0.10183078
1	0x3b6c2b0c	0.00360364
2	0xbe227096	-0.1586326
3	0xbd4f32d9	-0.0505856
4	0x3e58d67e	0.21175572
5	0xbdd990ed	-0.106233455
6	0x3bdb6c00	0.006696224
7	0x3e423760	0.18966436
8	0x3dacb711	0.08433355
9	0xbdb7ead4	-0.08980337
10	0xbe38089c	-0.17972034
11	0xbdcefa8e	-0.10106383
12	0xbddb16c7	-0.10697704
13	0x3ded0539	0.11573262
14	0xbd96b799	-0.07359237
15	0x3e64e969	0.22354664

node_model.3.weight f4 [16]
0	0x3f9dc8c8	1.2326899
1	0x3f7f350b	0.9969031
2	0x3fa42a1c	1.2825351
3	0x3f94aa6d	1.161451
4	0x3f9d54b9	1.229148
5	0x3fa74ccc	1.3070312
6	0x3fa53c93	1.2909111
7	0x3f9963b8	1.1983557
8	0x3f9ee9c0	1.2415085
9	0x3f849a7f	1.0359648
10	0x3f805767	1.0026673
11	0x3f980305	1.1875921
12	0x3f8cacc0	1.0990219
13	0x3f966cd0	1.1751957
14	0x3f9cfff3	1.226561
15	0x3f820f12	1.0160849

node_model.3.bias f4 [16]
0	0xbe3c3a8e	-0.18381712
1	0xbdce8f36	-0.10085909
2	0xbe5ef19f	-0.21771859
3	0x3e04dcbe	0.12974831
4	0x3e23b601	0.15987398
5	0x3e1884cb	0.14894406
6	0x3e614214	0.21997863
7	0x3e5e3f95	0.21703942
8	0xbe119cad	-0.14219923
9	0xbdec5bec	-0.1154097
10	0x3af88319	0.0018959969
11	0xbe4f358e	-0.20235273
12	0x3de1a8e9	0.11018545
13	0xbe483063	-0.19549708
14	0xbe6415e8	-0.22273982
15	0xbd9890a0	-0.0744946

edge_model.0.weight f4 [16, 96]
0	0xbd7c1b90	-0.061549723
1	0xbca01187	-0.019539608
2	0x3cf34aed	0.029698813
3	0x3dac4d9f	0.084132425
4	0x3dbd05b4	0.092296034
5	0x3c964ad4	0.018346228
6	0xb9e630b6	-0.0004390531
7	0xbd3c6f4d	-0.046004582
8	0x3d051eb7	0.032499995
9	0xbd88118c	-0.06643972
10	0xbd01a873	-0.031654786
11	0xbd9d422a	-0.076786354
12	0xbdb8efde	-0.09030126
13	0x3d85cffe	0.06533812
14	0x3c74435c	0.014908638
15	0x3d723564	0.05913295
16	0x3d9ea1b1	0.07745684
17	0x3dab312a	0.08358987
18	0x3cb207ba	0.0217322
19	0xbd1313b9	-0.03590748
20	0x3d4a8916	0.04944714
21	0x3d71d6ae	0.059042625
22	0xbbca654b	-0.006176626
23	0x3bfe9f28	0.0077704377
24	0x3c700d87	0.014651663
25	0xbc86f121	-0.016472401
26	0xbd8bc079	-0.068238206
27	0x3d21b56d	0.03947966
28	0xbd693bbd	-0.056941736
29	0x3d4fd56c	0.050740644
30	0xbd122064	-0.03567542
31	0xbd617f00	-0.055052757
32	0xbd538f25	-0.051650185
33	0x3dcace8d	0.09902678
34	0xbdbcf00d	-0.092254736
35	0x3d6f2a99	0.058390234
36	0x3d25181f	0.040306207
37	0x3da5b00d	0.0809022
38	0x3ca624ca	0.020281214
39	0x3d4aa9a3	0.049478184
40	0x3d907541	0.070536144
41	0x3c5ccdca	0.013476798
42	0x3ce6b403	0.028162008
43	0xbd957e0b	-0.072994314
44	0xbc92248b	-0.01783969
45	0x3cb7e421	0.022447648
46	0x3cb002a2	0.02148563
47	0xbd880569	-0.06641657
48	0xbdd148d3	-0.10218968
49	0xbcce494f	-0.02518144
50	0x3d16f998	0.036859125
51	0x3dbe5867	0.09294205
52	0xbdc5b604	-0.09653857
53	0x3c958f28	0.018256739
54	0xbdd73592	-0.105082646
55	0xbdbd31fd	-0.0923805
56	0xbd49ee6e	-0.04929965
57	0xbcd0c5d5	-0.025484959
58	0x3c17f336	0.009274295
59	0xbd9b6e8e	-0.07589446
60	0x3da24fc7	0.079253726
61	0x3ddaa729	0.106764145
62	0x3bc1063e	0.0058906367
63	0x3db9e4b5	0.090768255
64	0xbd8f81a1	-0.070071466
65	0xbd43b172	-0.047776647
66	0x3ca056fb	0.019572726
67	0x3c927b4e	0.017881062
68	0xbda06370	-0.07831466
69	0xbd9fb1cf	-0.07797586
70	0x3d45a481	0.048252586
71	0x3cfab762	0.030605022
72	0x3dbbb770	0.09165847
73	0xbd3da238	-0.046297282
74	0x3d2b1387	0.04176667
75	0xbd44ff3e	-0.04809498
76	0x3d3fcfc8	0.046829015
77	0xb78a9ec0	-1.6524806e-05
78	0x3da2ec86	0.079552695
79	0x3d80ace6	0.06282978
80	0x3d9aea78	0.075642526
81	0x3d5e4c4d	0.054271985
82	0xba1854a4	-0.0005810952
83	0x3dc28ffa	0.095001176
84	0xbd63132c	-0.055438206
85	0x3dd46340	0.10370493
86	0x3dbee3de	0.09320806
87	0x3daf9605	0.08573536
88	0xbd707741	-0.05870748
89	0xbd98f187	-0.07467943
90	0x3c501422	0.012700113
91	0x3d32a6ae	0.04361599
92	0x3d05b18c	0.032640025
93	0x3d2536e4	0.04033555
94	0x3db9d39d	0.09073565
95	0xbc2d8fce	-0.010593368
96	0xbd23f809	-0.040031467
97	0x3d180af1	0.03711981
98	0x3d09bc56	0.033626877
99	0xbd816374	-0.06317797
100	0x3bd5d428	0.006525535
101	0xbd944500	-0.07239723
102	0xbcf32636	-0.029681306
103	0xbd259fea	-0.04043571
104	0xbaf41a1b	-0.0018623503
105	0xbdca95a8	-0.09891826
106	0xbd66e89c	-0.056374177
107	0xbdba8c7a	-0.09108825
108	0x3ccfc866	0.025364112
109	0xbda0a2e4	-0.07843569
110	0x3d2090cc	0.03920059
111	0xbdab1d4d	-0.08355198
112	0xbd79a6a7	-0.060949948
113	0xbd3b7f1b	-0.045775514
114	0x3c470afe	0.012148617
115	0x3db67636	0.08909266
116	0x3dca6af3	0.0988368
117	0x3b7b83cc	0.0038378118
118	0xbdfb3bc4	-0.12267259
119	0xbd14d028	-0.036331326
120	0xbd01ab47	-0.031657483
121	0xbcdb1fa0	-0.026748478
122	0x3d5f35a3	0.05449451
123	0x3d73ded0	0.059538662
124	0x3d29aebb	0.0414264
125	0x3d2f2c4d	0.042766858
126	0xbccc5f75	-0.024947861
127	0xbcaa53cf	-0.020791916
128	0x3c26a69c	0.010171559
129	0xbd0e68b3	-0.034767818
130	0xbc78809d	-0.015167383
131	0xbbd67a22	-0.006545321
132	0xbddc41ec	-0.10754761
133	0x3da4d6ba	0.08048768
134	0xbc34eae0	-0.011042327
135	0xbdcccd52	-0.10000099
136	0x3d9e9ced	0.07744775
137	0xbd6cb6e7	-0.057791617
138	0x3d1a3f5d	0.037658084
139	0x3dd3d878	0.103440225
140	0x3bf7251d	0.007542266
141	0x3d0fa240	0.035066843
142	0x3d39c3f9	0.04535291
143	0x3d6b82e5	0.057497878
144	0xbd17e75f	-0.037085887
145	0xbd65a4ed	-0.05606549
146	0xba8d01b1	-0.001075795
147	0x3da84f8e	0.08218299
148	0xbc0f4649	-0.008744785
149	0x3d74c2c7	0.059756067
150	0x3aa14ae5	0.0012305646
151	0x3ca36651	0.01994625
152	0x3bfff378	0.007811006
153	0x3b9fb4a5	0.0048738294
154	0xbdc6e34c	-0.09711322
155	0xbd9fdd51	-0.07805885
156	0x3c5c0f58	0.013431393
157	0x3d5803c9	0.052737985
158	0x3d820ed9	0.06350488
159	0x3c555877	0.01302158
160	0x3cd9bf0f	0.026580362
161	0x3b9a7411	0.004713543
162	0xbd49276e	-0.04910987
163	0xbdab083b	-0.08351179
164	0xbdb8b9a2	-0.09019782
165	0x3bc95537	0.0061441916
166	0xbd2019a4	-0.039086953
167	0xbc257330	-0.010098264
168	0xbc8adde1	-0.016951503
169	0x3d22e45b	0.039768558
170	0x3cdc018e	0.02685621
171	0x3db3c6b3	0.08778133
172	0x3dcd7c5b	0.100334845
173	0xbd89d1fc	-0.067295045
174	0xbbffbfcf	-0.007804848
175	0x3c983df9	0.018584238
176	0x3d87b5bd	0.06626461
177	0xbcb92beb	-0.02260395
178	0xbd4c02f8	-0.04980752
179	0xbd45e614	-0.048315123
180	0x3da7557b	0.08170601
181	0xbca21b95	-0.019788543
182	0xbd291469	-0.04127923
183	0x3dc3cad3	0.0956017
184	0x3db50c1b	0.088401996
185	0xbd248a9f	-0.040171262
186	0xbd69cb0b	-0.057078402
187	0x3dda5298	0.10660285
188	0xbd1f0a0d	-0.038827945
189	0xbd35447c	-0.044254765
190	0xbd8cca42	-0.06874515
191	0xbd2e48a5	-0.042549748
192	0xbdb2eb86	-0.08736329
193	0xbd95212b	-0.07281717
194	0xbda94907	-0.08265882
195	0xbc610dde	-0.013736216
196	0x3d6c37c8	0.057670385
197	0xbdb76d07	-0.08956342
198	0xbc55d6bc	-0.013051685
199	0xbce59b94	-0.028028287
200	0xbcb7966b	-0.022410592
201	0x3d87d1dc	0.066318244
202	0xbcb7c613	-0.022433316
203	0xbd155fdf	-0.036468383
204	0xbd8ee74f	-0.06977712
205	0xbd4c0952	-0.049813576
206	0x3d4941f8	0.04913518
207	0x3bee5a86	0.007273975
208	0x3d3681aa	0.04455725
209	0xbc7f1d28	-0.015570916
210	0x3d11a7d0	0.03556043
211	0xbdbdd025	-0.09268216
212	0x3d0d6426	0.034519337
213	0x3df73bbc	0.1207194
214	0xbdd7f75a	-0.105452254
215	0xbd2f89d1	-0.04285604
216	0x3d62e1fe	0.055391304
217	0xbcad310f	-0.021141557
218	0xbd3f9e47	-0.046781804
219	0x3d5b10f2	0.053482957
220	0x3c50aa0f	0.012735858
221	0x3ca542ac	0.020173393
222	0xbca9c82a	-0.020725328
223	0x3d92e722	0.07172991
224	0x3d19a0b4	0.037506774
225	0x3c88fe99	0.016722964
226	0x3bb00295	0.0053714016
227	0x3d8146da	0.06312342
228	0x3d8b8e19	0.06814212
229	0xbd4a93ff	-0.049457546
230	0xbcba4adb	-0.022740772
231	0x3d5c04d7	0.053715553
232	0xbd5c1ad8	-0.053736538
233	0x3da2e0ab	0.07953008
234	0xbdaa239e	-0.08307575
235	0x3d841231	0.06448782
236	0xbd635108	-0.0554972
237	0x3d3c0698	0.045904726
238	0x3dad64d6	0.084664986
239	0x3c135bbd	0.00899404
240	0xbd196ae5	-0.03745546
241	0x3d8287cc	0.063735574
242	0xbda753d3	-0.08170285
243	0xbdb622ae	-0.088933334
244	0xbdbaf3ce	-0.09128533
245	0xbd24baf0	-0.04021734
246	0xbc8550a3	-0.016273802
247	0xbd192c17	-0.037395563
248	0x3d0bb796	0.034110628
249	0x3b375aee	0.0027977782
250	0x3da14024	0.07873562
251	0xbd49e8f5	-0.04929443
252	0xbccfb972	-0.025356982
253	0x3dbd76b1	0.09251154
254	0x3c8757dd	0.016521389
255	0x3da86f89	0.08224399

edge_model.0.bias f4 [16]
0	0x3d2e5af1	0.042567197
1	0x3dc06b68	0.09395486
2	0x3c8bc4bf	0.01706159
3	0xbdb28476	-0.08716671
4	0xbd053ac9	-0.032526765
5	0x3ce78a25	0.028264115
6	0x3d40cabd	0.047068346
7	0xbddcd9bb	-0.10783716
8	0x3d982e8d	0.07430754
9	0xbda703d0	-0.08155024
10	0x3d67697d	0.056497086
11	0x3dd71c39	0.1050343
12	0x3cce0ab0	0.02515158
13	0xbce7259d	-0.028216178
14	0x3d6bd34f	0.057574566
15	0xbd113642	-0.035452135

edge_model.2.weight f4 [16, 16]
0	0xbe31132c	-0.1729247
1	0xbdeb41d9	-0.11487169
2	0x3e2cd1b8	0.16876876
3	0x3e5498ff	0.20761488
4	0xbc9e7e32	-0.019347284
5	0xbe711f47	-0.23547088
6	0xbe74900d	-0.23883076
7	0xbd799b23	-0.060938966
8	0x3e1aafa6	0.15106067
9	0xbe29361c	-0.16524547
10	0x3db1a436	0.08673899
11	0xbe18db60	-0.14927435
12	0x3e50490c	0.20340365
13	0xbd517276	-0.05113455
14	0xbd26c98f	-0.040719565
15	0xbe52f91a	-0.20602837
16	0xbe65bbab	-0.22434871
17	0x3cc8293f	0.02443373
18	0x3d9416d6	0.07230918
19	0x3df788c1	0.120866306
20	0xbe5fa7be	-0.21841332
21	0x3ce4f212	0.02794746
22	0xbd2cef15	-0.042220194
23	0x3e0e4090	0.13891816
24	0xbdfaecc1	-0.122521885
25	0x3ddadc58	0.106865585
26	0x3dcd80d7	0.1003434
27	0x3dd385c1	0.10328246
28	0xbdaf9c48	-0.0857473
29	0x3d6a50e9	0.05720607
30	0xbd5fa4f4	-0.05460067
31	0x3d306946	0.043069147
32	0xbe1f75e8	-0.15572321
33	0xbe565a22	-0.2093282
34	0xbe68b125	-0.22723825
35	0xbe196b00	-0.14982224
36	0xbe09934f	-0.134351
37	0x3d69cdac	0.05708091
38	0xbd4eaf49	-0.050460134
39	0xbe070839	-0.1318673
40	0x3c14f7b6	0.009092262
41	0xbd9537d8	-0.07286042
42	0x3e1a7dfc	0.15087122
43	0xbe54e7cc	-0.20791548
44	0xbdbcfbd0	-0.09227717
45	0xbe236db6	-0.1595982
46	0x3cb0f848	0.021602765
47	0x3cd41ab1	0.025891634
48	0xbc187cfd	-0.009307143
49	0x3e825f09	0.2546313
50	0xbde8af05	-0.11361507
51	0xbd2a9918	-0.041649908
52	0x3dc1b8fe	0.094591126
53	0x3e5a6686	0.21328172
54	0x3e492d26	0.19646129
55	0x3cfa5388	0.030557409
56	0xbdb2dcde	-0.08733533
57	0x3da04511	0.07825673
58	0x3e243ad4	0.16038066
59	0x3c66280a	0.014047632
60	0x3e0c8d78	0.13725841
61	0x3e3d0c0b	0.18461625
62	0xbe012936	-0.12613377
63	0xbd677454	-0.056507424
64	0xbe762924	-0.24039131
65	0x3d13f6b1	0.036123935
66	0x3e04e566	0.12978134
67	0xbd8577e1	-0.06517006
68	0x3c9c8882	0.01910806
69	0x3dca29ec	0.09871277
70	0xbc531136	-0.012882521
71	0x3e4671b2	0.19379309
72	0x3c9a5baa	0.018842537
73	0xbe80519c	-0.25062263
74	0xbe63ecd1	-0.22258307
75	0xbe7ddb3f	-0.24790667
76	0x3c28d280	0.010304093
77	0x3dfefcd7	0.12450569
78	0xbd885c44	-0.06658223
79	0x3e8033b1	0.25039437
80	0xbd812019	-0.0630495
81	0x3d6f5434	0.05842991
82	0x3e590344	0.21192652
83	0x3e1871b5	0.14887126
84	0xbd159b9f	-0.036525365
85	0x3e4a7f28	0.19775069
86	0xbe123193	-0.14276724
87	0x3dd4261a	0.1035883
88	0x3e25712e	0.16156456
89	0xbe5020d5	-0.20325024
90	0xbe6c3a88	-0.23069203
91	0x3de69446	0.1125875
92	0xbdc23f40	-0.0948472
93	0xbdacd647	-0.08439308
94	0x3d015ae1	0.03158081
95	0xbe47bb6b	-0.19505088
96	0x3e4cd45f	0.20002888
97	0xbc1e4438	-0.009659819
98	0xbd9ebd06	-0.07750897
99	0x3e4dd416	0.20100436
100	0x3c5a716d	0.013332707
101	0xbbb65236	-0.0055639995
102	0xbde7a1de	-0.113101706
103	0x3e7524ef	0.2393987
104	0xbd9ebbc6	-0.07750659
105	0x3e395c5c	0.18101639
106	0xbcef674d	-0.029224062
107	0x3dd559a8	0.10417491
108	0x3e33ffda	0.17578068
109	0xbe38f252	-0.18061188
110	0xbe4e8e61	-0.201715
111	0xbe7ef4dc	-0.24898094
112	0x3e4b554a	0.19856754
113	0x3e61cdb1	0.22051121
114	0xbdaa79c5	-0.08324007
115	0xbe05081a	-0.12991372
116	0x3d875353	0.0660769
117	0x3e32d7aa	0.17465082
118	0x3d5ee573	0.05441804
119	0xbd2d5bb0	-0.04232377
120	0xbe0e81c0	-0.13916683
121	0x3e7e3435	0.24824603
122	0xbe06eeeb	-0.13177077
123	0xbe734476	-0.23756585
124	0xbdcc6d74	-0.09981814
125	0x3d61d14c	0.05513124
126	0x3df48121	0.11938692
127	0x3dee5c93	0.11638751
128	0xbdf8dd7a	-0.12151618
129	0xbe009b6e	-0.12559292
130	0xbdc20fbc	-0.09475657
131	0xbdc57733	-0.09641876
132	0xbe4570a5	-0.19281252
133	0x3dd61c4f	0.10454618
134	0xbd878b93	-0.066184185
135	0xbe776033	-0.24157791
136	0xbe048582	-0.12941554
137	0xbe067c2d	-0.13133307
138	0xbdca1e54	-0.09869066
139	0xbe072d21	-0.13200809
140	0xbd3194d0	-0.04335481
141	0x3dd4760d	0.10374079
142	0xbe2c283c	-0.16812223
143	0xbaa2a98d	-0.0012410149
144	0xbdbb4afd	-0.09145162
145	0xbde820d2	-0.11334385
146	0xbce66d23	-0.028128212
147	0xbe06a363	-0.13148265
148	0xbd7903ed	-0.06079476
149	0xbe4e26d8	-0.20132005
150	0x3d58331e	0.052783124
151	0x3e601cb6	0.21885952
152	0x3e5581e0	0.20850325
153	0xbda5cb66	-0.08095436
154	0x3d821152	0.0635096
155	0xbe84d8bf	-0.25946614
156	0x3e57899a	0.21048585
157	0xbe8785a2	-0.2646914
158	0xbe8483ab	-0.25881705
159	0xbe7dca2c	-0.24784154
160	0xbe62917b	-0.22125809
161	0x3c6ac86c	0.014330011
162	0xbda193a8	-0.07889491
163	0x3d58e50c	0.05295281
164	0x3a86201f	0.0010232962
165	0x3b8f2a80	0.00436908
166	0xbdc4a835	-0.096023954
167	0xbe11e169	-0.14246143
168	0xbe63d090	-0.22247529
169	0x3e22111b	0.15826838
170	0xbe08a086	-0.13342485
171	0xbd78f66a	-0.060781874
172	0x3df8acfc	0.12142369
173	0xbd71d3f6	-0.059040032
174	0xbd6cbb5e	-0.057795875
175	0xbe356f94	-0.17718345
176	0xbe4e47f3	-0.20144634
177	0x3e023345	0.1271487
178	0xbd3a76cb	-0.045523446
179	0x3e0f38ba	0.13986483
180	0x3d3df8e0	0.046379924
181	0x3ce17e83	0.027526146
182	0xbe633f15	-0.22192033
183	0x3c240c49	0.010012695
184	0xbd2fe68b	-0.042944472
185	0xbe0cd8fc	-0.13754648
186	0xbd29848b	-0.04138617
187	0x3c5e4f1b	0.013568665
188	0xbe40e438	-0.18837059
189	0x3d69df97	0.057097998
190	0x3e3d3dd7	0.18480621
191	0x3dbc16e3	0.09184053
192	0x3e829198	0.25501704
193	0x3e06cf6c	0.13165063
194	0xbe2382c7	-0.15967856
195	0xbd93a6b1	-0.07209528
196	0xbd1dd573	-0.03853364
197	0x3d7611d9	0.060075615
198	0x3a6a8c64	0.00089473114
199	0x3e48591c	0.19565243
200	0x3d1c06ec	0.03809254
201	0xbe246906	-0.16055688
202	0xbd9b8e6f	-0.075955264
203	0xbe55e2e8	-0.20887339
204	0xbd8d2c6c	-0.068932384
205	0x3e003072	0.1251848
206	0x3cb6ba0f	0.022305517
207	0xbe86cdeb	-0.26328978
208	0xbe744ef2	-0.2385824
209	0x3db91b2b	0.09038385
210	0xbe5ab2a0	-0.21357203
211	0xbe73734d	-0.23774453
212	0xbe25b61c	-0.1618275
213	0x3e46af87	0.19402896
214	0xbd9ec294	-0.077519566
215	0xbde2916a	-0.11062892
216	0xbe3f6084	-0.18689162
217	0x3e37684c	0.1791088
218	0xbd5e38c3	-0.05425335
219	0x3cba91ed	0.022774661
220	0x3d749f90	0.059722483
221	0x3d76940b	0.06019978
222	0x3e14527a	0.14484587
223	0xbd05445d	-0.0325359
224	0x3d0b8627	0.034063485
225	0xbc973c3f	-0.018461345
226	0xbe47e50b	-0.19520967
227	0xbd28b255	-0.041185696
228	0x3e94f7f1	0.29095414
229	0xbe55559f	-0.20833443
230	0xbe1a72ed	-0.15082903
231	0xbe7fb58d	-0.249716
232	0x3d03ad79	0.03214786
233	0xbe89139d	-0.26772776
234	0xbde45fe9	-0.11151106
235	0x3e823cf5	0.25437132
236	0x3dd40d6c	0.103541225
237	0x3e17d25b	0.14826338
238	0x3d785f55	0.06063779
239	0xbe5ee949	-0.21768679
240	0xbddb0f99	-0.106963344
241	0xbe5eb98f	-0.21750472
242	0xbe3ac7ca	-0.18240276
243	0x3dc2d5e4	0.09513453
244	0x3a9b90aa	0.0011868675
245	0x3e8c161f	0.27360627
246	0xbe411aaf	-0.18857835
247	0xbe65c669	-0.22438969
248	0x3e7605d5	0.24025662
249	0xbe861870	-0.2619052
250	0x3e4fbe83	0.20287518
251	0x3dbba570	0.09162414
252	0xbe6954e0	-0.22786283
253	0x3e5cc86b	0.21560828
254	0xbd6cace8	-0.057782084
255	0xbdda2b5b	-0.10652801

edge_model.2.bias f4 [16]
0	0xbe326501	-0.17421342
1	0xbe575da8	-0.21031821
2	0x3d5a2cbf	0.05326533
3	0xbe764763	-0.2405067
4	0x3da3c7fa	0.07997127
5	0xbd8ba05a	-0.06817694
6	0x3d9af312	0.07565893
7	0xbd250687	-0.040289428
8	0x3dd9c4d9	0.10633249
9	0xbca6e410	-0.02037242
10	0x3d90c695	0.070691265
11	0xbdc1fdf6	-0.09472267
12	0xbe167494	-0.14692909
13	0x3c85b88f	0.016323356
14	0xbe162f4c	-0.1466648
15	0xbe253999	-0.16135253
