tmp/tmp0model1000.pt (torch, 23679 bytes, 25 tensors)

node_encoder.0.weight f4 [16, 5]
000000 80 6d 5b bb a0 a9 75 3e 96 74 bc be ac 82 a8 be
       -0.0033482015 0.23990488 -0.36807698 -0.32912195
000010 54 61 30 be ca 0d d3 3d ca 84 93 bc c6 b3 ac 3e
       -0.17224628 0.103053644 -0.018007655 0.33730906
000020 68 8f 22 bd ed f8 f2 3d 68 93 16 be d0 63 cc bd
       -0.039687544 0.11863885 -0.14704669 -0.09979975
000030 d6 bf da be 1c a5 97 be b6 c6 3c be 97 28 a9 3c
       -0.42724484 -0.29618156 -0.18435177 0.020649238
000040 22 39 39 3e d5 7a 8b 3e fe 3a 9b be 34 6b 47 be
       0.180882 0.2724215 -0.30318445 -0.19474488
000050 02 5b 23 3e e5 63 b1 3e e3 2e ab bd ec 57 ab 3e
       0.15952685 0.34646526 -0.08358552 0.33465517
000060 41 1c 2c bc d8 c0 3a 3d f7 71 ce 3e 6c 69 d4 be
       -0.010504783 0.045594066 0.40321323 -0.4148668
000070 bd 25 90 be ee 22 3e be cb 05 48 be 67 13 bb 3e
       -0.28153792 -0.18568012 -0.1953346 0.3653824
000080 76 6a 94 be d4 ce 52 be 56 f8 9f be 90 72 d6 be
       -0.28987473 -0.20586711 -0.31244153 -0.4188428
000090 38 a9 85 be 36 d3 c4 3e 20 58 4c 3e 48 f4 5d 3e
       -0.26105666 0.3844239 0.19955492 0.21675217
0000a0 3c 11 08 3d a3 3b 54 be 1b 34 b6 3d 8d ca d5 be
       0.03321956 -0.20725875 0.08896657 -0.41756096
0000b0 cc 72 a5 be ec df 71 be cd 92 8d 3e 7f 5b 83 3e
       -0.32314146 -0.23620576 0.27651063 0.25655743
0000c0 db 18 4b be 78 1e 2c bd 88 9b 8f 3e e1 e4 e5 3e
       -0.198337 -0.042021245 0.28048348 0.44901183
0000d0 43 f8 2c 3e 20 76 77 3d 31 f9 88 3e 8e fd 87 be
       0.1689158 0.060415387 0.26752618 -0.26560634
0000e0 55 fd a5 3d 39 86 b1 be c2 b2 9e be 58 91 6c be
       0.0810496 -0.34672716 -0.30995756 -0.23102319
0000f0 00 3b 55 3e 1b 7c 43 3e c9 df 8a be 54 59 0a 3e
       0.20823288 0.19090311 -0.2712386 0.13510638
000100 25 30 94 3e 39 70 86 bd 9d e0 9e 3c 0c 60 ce 3d
       0.2894298 -0.065643735 0.019394213 0.10076913
000110 ba 0c 8e 3e b4 ef ea 3e c8 73 b0 be d8 d2 27 be
       0.27744085 0.45886004 -0.34463334 -0.16389024
000120 44 fa 33 3e 3a b7 bd 3e 1a 41 c7 3e 70 61 c1 3e
       0.17575938 0.37053853 0.38916856 0.3776965
000130 07 a7 93 3d 7c 1c c7 be b8 82 28 3d 38 3f 8f be
       0.07209592 -0.3888892 0.041140288 -0.2797792

node_encoder.0.bias f4 [16]
000000 86 64 d5 be d3 cd c2 3e 3c 03 a8 3e 18 51 e2 be
       -0.41678256 0.38047656 0.32814968 -0.44202495
000010 ef 78 a5 3d 5a d4 9d bd 2b c0 c1 bd d6 a0 51 be
       0.08079707 -0.077065185 -0.09460481 -0.2047151
000020 03 0a 3a 3e 25 84 8a be ae 35 22 3e 11 3f 65 3e
       0.18167882 -0.27053943 0.1584079 0.22387339
000030 2b ed a6 3e 2c d0 21 3e 7d 9f e2 be 9c 30 9d be
       0.3260282 0.15802068 -0.44262305 -0.3070115

node_encoder.2.weight f4 [16, 16]
000000 38 a6 ff 3d 36 5d 50 3d 61 d8 56 be c1 f9 39 be
       0.124828756 0.050870143 -0.2098098 -0.1816168
000010 ba 51 62 3e fc 38 20 3e e3 17 fc bd d4 dc 80 bd
       0.22101489 0.15646738 -0.123092435 -0.062921196
000020 16 4e 6d be 57 9b ce bc 57 1d 47 be 2a 55 55 be
       -0.23174319 -0.025220556 -0.19444786 -0.20833269
000030 d1 49 9b bc 0b 6d 30 3d f4 ad d1 bd 6e bf 09 3e
       -0.018956097 0.04307274 -0.10238257 0.13451931
000040 38 c9 1b be a3 3d 62 3e 3e 68 31 3e 72 85 64 be
       -0.15213478 0.22093825 0.17324921 -0.2231653
000050 fb 4c 85 bd 94 af 62 3c 52 d6 21 3d d0 dd 72 3d
       -0.065088235 0.013835806 0.039511032 0.059293568
000060 f4 4e bc 3d a3 68 37 3c bd 78 01 be e3 1e fb 3d
       0.091947466 0.011194381 -0.12643714 0.122617505
000070 cc cd 78 be f0 fc 1d be 3c 2b 80 bd be 10 f5 bd
       -0.24297255 -0.15428519 -0.06258246 -0.11966084
000080 5c 1d b3 bd 5b a2 59 be df f1 45 bd c6 5b a0 3d
       -0.08745834 -0.2125334 -0.04832637 0.078300044
000090 62 3e 27 be 97 15 48 bc d8 68 3a 3e f0 88 d2 bc
       -0.16332391 -0.012212179 0.18204057 -0.025700063
0000a0 76 71 60 bc ac ec 5b bc 9c 31 41 3d 60 b1 27 3e
       -0.013698926 -0.013423126 0.04716645 0.16376257
0000b0 c8 1e 70 3e 0c e2 1d 3e c4 0c 73 3e 40 15 68 bc
       0.23449242 0.15418261 0.23735338 -0.014165223
0000c0 66 f8 65 be a2 59 db bd ff dc 44 3e f9 6e b1 bc
       -0.22458038 -0.107104555 0.19224928 -0.021659361
0000d0 d8 d4 e8 bd 85 29 2c be bb 3f 58 be ec 10 58 be
       -0.11368722 -0.16812713 -0.21118061 -0.21100205
0000e0 bb 98 04 bd c1 73 03 3e cb ef 12 3e b7 0f 5f be
       -0.032372218 0.12837125 0.14349286 -0.21783338
0000f0 81 3e 2b 3e 7a 07 47 be f0 7b 58 bd f3 1b a2 bd
       0.16723062 -0.19436446 -0.05285257 -0.07915487
000100 f0 3c 45 bd 42 93 31 bd 02 65 57 be 91 6a 5f be
       -0.048153818 -0.043353327 -0.21034625 -0.21817996
000110 61 c6 e6 bc 2c 49 96 3c 29 30 cd bd b8 de c0 3d
       -0.028170766 0.018345438 -0.100189514 0.0941748
000120 a4 ec 6d be 6f fd 8b bc 1b 32 6a 3e ae ed b6 bd
       -0.23234802 -0.01708862 0.22870676 -0.089320526
000130 a2 8e 72 3e 4e 0a c8 3d ae 07 67 be 28 a6 30 3e
       0.23687223 0.097675905 -0.22561523 0.17250884
000140 f0 53 ec bc cd e8 e5 bd 9e b3 3b 3e 90 35 44 be
       -0.028848618 -0.11226044 0.18330237 -0.19161057
000150 ce 94 b9 3c c4 95 8f bd 60 e8 24 3e 08 ec 8e 3d
       0.022653963 -0.070109874 0.16104269 0.06978613
000160 e9 41 02 3e 29 43 bf 3d 62 52 7f bd ce 57 92 bd
       0.12720455 0.09338982 -0.062334426 -0.07145654
000170 cb fe 59 be 09 77 09 3e 26 42 4b 3e 94 25 1e 3e
       -0.21288602 0.13424315 0.19849452 0.15444022
000180 ac 93 34 be cd d5 84 3c 65 8a 32 be d0 e7 de bd
       -0.17634457 0.01621523 -0.17435606 -0.108840585
000190 73 de 03 be ba fd b8 3d 47 6a 16 be 00 ba b2 bb
       -0.12877826 0.090327695 -0.14688979 -0.005454302
0001a0 39 b7 b2 3c b5 05 35 3e d5 81 38 be 93 a5 2a be
       0.021815883 0.17677958 -0.18018277 -0.16664724
0001b0 ba f6 0c be 12 7b 2a 3e cc 0b b8 bd 37 c9 58 3e
       -0.13765994 0.1664851 -0.08986625 0.21170507
0001c0 a0 24 b9 3d 66 d4 6f 3c 50 45 17 bd 06 6a ee bc
       0.09040189 0.014638042 -0.036931336 -0.02910329
0001d0 f2 61 94 3c e2 c1 b8 bd a0 b8 11 bd c0 a7 02 3d
       0.01811311 -0.09021355 -0.035576463 0.03189826
0001e0 83 5a 59 be 0f d9 01 be 1e e6 3f 3e 1b 14 73 be
       -0.21225934 -0.12680458 0.18740126 -0.23738138
0001f0 1b e9 17 bd 7b b5 6e 3e 10 f4 b8 3d 87 6f e7 bc
       -0.03708754 0.23311417 0.09030926 -0.028251423
000200 26 da 5d be 16 77 00 3e 0a d3 22 be 7e 25 07 bd
       -0.21665248 0.12545428 -0.15900818 -0.03299474
000210 40 6c 87 bd b1 ce 9e bc 02 6e ae 3c 96 26 53 3e
       -0.06612444 -0.019385668 0.02129269 0.20620188
000220 60 65 32 3d d3 b1 73 3e 4f 38 22 3e 82 5e 0c be
       0.04355371 0.23798303 0.15841793 -0.13707927
000230 05 84 f2 3d 24 bd 4b be 9c ff d8 bd 83 11 bc 3d
       0.11841587 -0.1989637 -0.105956286 0.091830276
000240 f0 0e a9 3d 85 38 3b 3e 9f 6e b9 bd 58 65 2a bd
       0.08254802 0.18283279 -0.090543024 -0.041600555
000250 5d a8 e3 3d 74 1c 83 be 07 f5 2c 3e 30 b1 53 be
       0.11116097 -0.25607646 0.16890346 -0.2067306
000260 7d 75 b4 bb d9 db 78 bd c1 20 12 be 8e e8 a9 3c
       -0.0055071698 -0.060756538 -0.14270307 0.020740774
000270 f2 52 47 3e 01 15 6a bd 56 fc 17 be e1 91 d3 bd
       0.19465235 -0.057148937 -0.14842352 -0.103305586
000280 e6 bb 7d be 43 32 e7 3d ef 5c d4 bd 75 78 1a be
       -0.24778709 0.112888835 -0.10369288 -0.15085013
000290 e5 5c 0e be 5e 51 20 3e 46 03 18 3e 50 7c 44 3e
       -0.13902624 0.15656039 0.14844999 0.19188046
0002a0 de e9 9e 3d a1 d0 9d bd 8c ce 8a bd f1 29 b2 3d
       0.077594504 -0.077058084 -0.06777677 0.08699406
0002b0 9d 8e 56 3e d1 dc 88 3d 1c 40 f2 bd bb f6 cc bd
       0.2095284 0.066827424 -0.11828634 -0.100079976
0002c0 42 0a 72 be b2 cc 63 3d df dd 02 be 23 1d 5c be
       -0.23636726 0.055615135 -0.1277995 -0.2149549
0002d0 64 81 69 3e 9c bc 10 be 2c 41 81 bc 48 af 92 3d
       0.22803265 -0.14134449 -0.015778147 0.071623385
0002e0 27 ef 84 bb b1 d6 24 be ad f3 46 be dc 51 59 3e
       -0.0040568295 -0.16097523 -0.19428892 0.21222633
0002f0 bb 02 5b 3d e7 48 5b 3e a8 a4 ab bd 9c 45 b4 3d
       0.0534694 0.21414529 -0.08381015 0.088023394
000300 18 2a 6a bd b4 23 4b bc 43 dc 18 be d2 22 c1 3d
       -0.05716905 -0.012398649 -0.14927773 0.094304696
000310 17 a9 af 3d 45 58 68 bb 53 dc 59 bd 58 ce 1d be
       0.08577173 -0.0035453003 -0.053188633 -0.15410745
000320 d4 2a 1d 3e f9 f5 31 be 1b 7c d8 3d a3 d2 a0 bd
       0.15348369 -0.17378987 0.10570546 -0.07852676
000330 d8 db ef bd ef 4c 32 3d 22 fb 04 be 40 6c 74 3d
       -0.11711854 0.0435304 -0.12986425 0.059673548
000340 10 18 49 3d 75 25 29 be f8 9a 1c 3d 55 da 32 3d
       0.049095213 -0.16518195 0.038233727 0.04366525
000350 ad 7d c0 3d 83 ad 09 bd 40 cd 54 be 90 da 1d bd
       0.09398971 -0.03361274 -0.20781422 -0.038538516
000360 55 e5 fe 3d 72 ea 00 be b5 3e d3 3d f8 cc 23 3e
       0.12446085 -0.12589434 0.10314695 0.15996158
000370 92 59 ff bd ab 17 9e 3c 24 b6 d3 3d d4 bf 8b 3c
       -0.12468256 0.019298395 0.10337475 0.017059244
000380 90 12 ab 3c 5d fe 62 3d 59 4c 4a be f8 00 81 3d
       0.020882875 0.05541836 -0.19755687 0.06299013
000390 46 da 43 3e f3 4d 61 3e d5 d4 14 3e 18 38 09 3d
       0.19126233 0.22002392 0.14534314 0.03350076
0003a0 61 2c 0c 3e 6f 16 ae bd 22 55 3a be 7c a3 5c be
       0.13688804 -0.085003726 -0.18196538 -0.2154674
0003b0 24 ef 89 3e 42 82 3d 3e b2 f4 30 be 98 22 c4 3d
       0.26940262 0.1850672 -0.17280844 0.09576911
0003c0 aa 52 41 3e 85 e3 75 3e d7 77 4b 3e 01 cf 36 3e
       0.1887919 0.24012573 0.19869934 0.17852403
0003d0 37 c0 9e bd 0d d8 e1 bd 21 83 3e 3e 0a 75 0f 3e
       -0.07751506 -0.110275365 0.18604709 0.1400949
0003e0 f5 9f 1c be d3 86 60 3e 3b a7 d4 3d cf 81 f0 3d
       -0.15295394 0.21926431 0.10383459 0.11743509
0003f0 06 51 35 be 73 99 80 3d ec 7c b3 bd c8 57 32 3e
       -0.17706689 0.06279268 -0.08764061 0.17416298

node_encoder.2.bias f4 [16]
000000 fb 6a 43 bd 74 93 bb 3d 33 5c 18 3d f7 cf f6 3d
       -0.047709446 0.09158984 0.037197303 0.12051385
000010 ca f2 9c bd 56 81 f1 3d c0 81 2b be 8e 4a 19 3d
       -0.07663496 0.11792247 -0.16748714 0.037424617
000020 db 75 26 be f3 37 84 be de 99 4c be fe 56 4e 3e
       -0.16255896 -0.25823936 -0.1998057 0.20150372
000030 4e 72 0a 3e 36 51 81 3e 11 bc 63 3e ca f7 72 be
       0.13520166 0.25257272 0.2223971 -0.23727337

node_encoder.3.weight f4 [16]
000000 f9 e0 7e 3f 3a 4b 7e 3f cf a2 7f 3f 4f 59 81 3f
       0.9956203 0.99333537 0.998578 1.010538
000010 3e 53 81 3f ae 29 80 3f a2 b7 7b 3f 00 39 7c 3f
       1.0103528 1.001272 0.98327076 0.98524475
000020 0d c0 85 3f aa 0b 81 3f ac e4 7e 3f ff 38 80 3f
       1.0449234 1.0081685 0.99567676 1.0017394
000030 1d 99 7f 3f bc 50 82 3f 60 35 82 3f 2b ee 80 3f
       0.9984301 1.0180888 1.0172539 1.0072683

node_encoder.3.bias f4 [16]
000000 0b 11 50 bb e3 43 6f bb 7d df 8e bb 97 0b 55 3c
       -0.003174844 -0.003650897 -0.004360138 0.0130032515
000010 f7 c5 2a 3c 6c ef 15 bb f5 af 89 3c 00 59 88 bc
       0.010423175 -0.0022878302 0.016807536 -0.016644001
000020 21 19 21 3c 3c ca 24 bc 82 40 ec 3a b5 31 01 3c
       0.009832651 -0.010057982 0.0018024596 0.007885386
000030 a9 2a f3 3a 88 da 7d 3c 9c 31 b2 3c dd 3e 4c bc
       0.0018552142 0.015493996 0.021752171 -0.01246616

edge_encoder.0.weight f4 [16, 4]
000000 4a 7d b2 be 1a ec bf bd c7 bd a5 be 78 73 ae 3e
       -0.34861213 -0.09371205 -0.3237135 0.3407247
000010 ba 89 c1 be 38 ce 79 be c4 51 f7 be c6 57 91 be
       -0.3780039 -0.24395072 -0.4830457 -0.28387278
000020 6f 33 cf 3e 8d c6 d9 3e 5f 4c af 3e bd 8f c0 3e
       0.40468928 0.42534295 0.34237954 0.37609664
000030 0b c2 e1 3e 64 bd 1c 3e 78 3a 5a 3e a1 fe ef 3e
       0.44093356 0.15306622 0.21311367 0.46873954
000040 93 c8 32 3e 93 2e 00 3f 8c 9e 72 3e f8 70 ab 3e
       0.17459325 0.50071067 0.23693293 0.33484626
000050 2c 32 33 be f4 ab 75 3e 20 54 6b 3d 88 8c f4 bd
       -0.17499608 0.23991376 0.057453275 -0.11940867
000060 f1 ce 7c be 87 6e be be b2 fc c4 be 57 6a ab 3e
       -0.24688317 -0.371937 -0.3847404 0.33479568
000070 f9 5f 8c 3e a0 16 69 bd c4 24 94 be 85 3d 9c 3e
       0.2741697 -0.056906343 -0.289343 0.30515686
000080 ce 21 ed 3e 5b c8 9d bd b8 bb 71 be d5 d8 08 3f
       0.46314853 -0.077042304 -0.23606765 0.5345586
000090 67 02 c7 3e 5a 57 c2 be 79 42 fd 3e c1 2b b1 3e
       0.3886902 -0.3795727 0.49464777 0.34603694
0000a0 8c 9e 3a be 51 92 90 3e d6 74 91 be 79 0e 3b be
       -0.18224543 0.2823663 -0.2840945 -0.1826724
0000b0 66 ff d9 3e c9 f3 d0 3c 69 ce ab be 11 97 19 be
       0.42577666 0.02550687 -0.33555916 -0.14999034
0000c0 dc fa 0a be 20 8f c5 bd b0 fe 43 3d a2 c1 ec 3e
       -0.13572258 -0.096464396 0.04785031 0.4624148
0000d0 33 3e 1e 3d 7d 59 ac be f4 3c a0 3c 8c a9 6b 3e
       0.038633537 -0.33662024 0.019560315 0.23013896
0000e0 22 ea 81 3e e0 f7 e9 be b0 3c b7 bd b8 3e be be
       0.25373942 -0.45696926 -0.08947122 -0.37157226
0000f0 41 15 12 be 9d 68 2c 3e 18 cb b5 be 1a e4 17 3e
       -0.1426592 0.16836782 -0.3550651 0.14833108

edge_encoder.0.bias f4 [16]
000000 86 d0 d3 3e 30 53 06 3d 6a 7c ae be 78 d0 34 be
       0.41370028 0.032794178 -0.34079295 -0.1765765
000010 b1 fa e2 3d 46 27 c3 be 28 98 78 3e c1 04 09 bf
       0.11082972 -0.381159 0.24276793 -0.5352288
000020 c0 48 ea be 57 14 f1 be 7c 17 cd bd f6 77 ab 3e
       -0.4575863 -0.4708583 -0.10014245 0.3348996
000030 72 4c f2 be 4a 28 cb 3e 88 f4 46 be 28 c6 11 3e
       -0.47323948 0.39679176 -0.19429219 0.14235747

edge_encoder.2.weight f4 [16, 16]
000000 99 9f c4 3c 10 d7 66 be c3 ec 72 3e e0 75 1a 3e
       0.024001883 -0.22542977 0.2372313 0.15084028
000010 98 b9 83 3e 96 55 01 3e 52 e1 1e be f5 27 f1 3d
       0.25727534 0.12630305 -0.1551564 0.11775199
000020 d5 b7 16 be a6 88 9c 3d 7f 71 44 be 3b 29 85 bd
       -0.14718564 0.07643251 -0.1918392 -0.06502005
000030 54 5c 7b be a4 e3 be bd 79 db 7f 3d 84 44 3a be
       -0.24546939 -0.09320763 0.062465165 -0.18190199
000040 cb 66 90 3d 2c 6c 09 3e b8 8b 1c bc 46 a5 32 be
       0.07050856 0.1342017 -0.009554796 -0.1744586
000050 41 bd 54 be e4 f5 9d bd 3b 24 e2 3d d3 0f 9c 3e
       -0.2077532 -0.077129155 0.11042067 0.30480823
000060 43 00 81 3e d0 60 52 bd 70 48 8e 3d 83 e7 7e be
       0.25195512 -0.05136186 0.0694741 -0.24893002
000070 62 a6 5a be 49 9f ed 3d e2 df 09 be 7e 10 d2 3d
       -0.21352533 0.11602647 -0.13464311 0.10257052
000080 eb e8 32 be 64 99 fd bd f9 4a 52 be a9 8c 09 3e
       -0.17471664 -0.123827726 -0.20536412 0.13432564
000090 3f 39 be bc 94 04 45 3e c2 7f 22 3e f5 89 f4 3d
       -0.023220656 0.19240028 0.15869048 0.11940376
0000a0 95 fa 97 bc d2 15 3f be 5a 2b 9a bd 96 a3 00 3d
       -0.018552104 -0.18660668 -0.075278 0.031406008
0000b0 a4 cd fd 3d 29 2f 29 be a2 59 5b 3e 2c f7 0a bd
       0.123927385 -0.16521896 0.21420911 -0.033927128
0000c0 05 4b 5d be c4 82 0a be 4b d7 44 3e cd e5 55 3e
       -0.21610649 -0.13526446 0.19222753 0.20888443
0000d0 84 13 6f be 6e 8e 34 3e 61 20 d6 3d f4 68 09 3e
       -0.23347288 0.17632458 0.104553945 0.13418943
0000e0 d9 79 ff 3d b1 8c 40 be a9 0a ac 3d cd 9c d1 3d
       0.124744125 -0.1880367 0.08400471 0.102349855
0000f0 e8 4a 97 bd 87 b1 95 3d 35 20 94 bd 0f 74 1a 3e
       -0.07387334 0.07309251 -0.072327055 0.15083335
000100 9d 26 79 bd 14 df be bd d3 76 84 3d a3 6b 91 3d
       -0.06082784 -0.093198925 0.064679764 0.07100608
000110 ec 5a e3 bd 30 0a b5 3c d2 97 33 3e d0 1f a0 bd
       -0.11101326 0.022099584 0.17538384 -0.07818568
000120 ae 91 12 bd 16 6c 0a be 9a e3 c2 3d 59 75 41 be
       -0.035783462 -0.13517794 0.09516068 -0.18892421
000130 0e 89 16 be 16 7a 02 be f2 a8 58 3e 02 71 6c bd
       -0.1470072 -0.12741885 0.21158198 -0.05772496
000140 73 80 41 3c cc 0f f8 bd a8 04 8a 3e f5 2a 70 3e
       0.01181041 -0.12112388 0.26956677 0.23453887
000150 89 e3 31 be 10 88 4f be 52 f0 42 be e7 05 97 bd
       -0.17371954 -0.20266747 -0.19036987 -0.07374173
000160 64 cb 81 be 6c 1b e1 be eb 30 90 bd 05 7e 40 3d
       -0.25350487 -0.43966234 -0.0704058 0.04699518
000170 f4 c1 05 be 3a 4b 57 3d 34 e6 86 bd 8b b7 cb bd
       -0.13062268 0.052561976 -0.065868765 -0.099471174
000180 95 6e 2c 3d 84 7f 52 3e 00 59 3e be a1 01 c4 3c
       0.042097647 0.20556456 -0.18588638 0.023926558
000190 4c e6 b3 bd e4 36 7b 3e 2f 47 61 be b1 ef 25 be
       -0.0878416 0.24532658 -0.2199981 -0.16204716
0001a0 12 dc c3 3e df bb 54 be 4d b5 3d 3d 76 ba c9 bb
       0.38253838 -0.20774792 0.04631548 -0.006156261
0001b0 78 b6 57 bd bf 02 34 bd d7 8a 30 3e 7d cd 4b 3c
       -0.05266425 -0.04394793 0.17240463 0.012439129
0001c0 6d e9 6e be d8 21 17 be a5 a3 96 bd d9 24 09 3e
       -0.23331232 -0.14759004 -0.073554315 0.13392963
0001d0 bc b1 1f be 2e 63 71 3e 5a 73 73 bd 96 65 3b bd
       -0.15595144 0.2357299 -0.05943618 -0.045751177
0001e0 7e cc 48 3e f8 5f 38 bd f4 ab 66 3e 7c 84 1b 3e
       0.19609258 -0.045013398 0.22526532 0.15187258
0001f0 34 51 9b bd da 59 26 be 41 ea 3c bc 8b 0e 61 3e
       -0.07583848 -0.16245213 -0.01153046 0.21978204
000200 b5 1c c7 bd 1e 68 6d be 73 fb e4 3d 58 93 81 3e
       -0.09722272 -0.23184249 0.11180773 0.25307727
000210 d6 31 a4 bd 5a f9 53 be 81 8a 7c be 51 70 26 3d
       -0.08017318 -0.20700589 -0.2466221 0.040634457
000220 6f 25 2b bc 46 b5 75 bd dd 11 3d 3d e0 36 c5 3d
       -0.010445937 -0.05998733 0.046159614 0.09629607
000230 06 9a 4b 3e 3b 54 42 3e e1 1a ed bc 68 77 6d be
       0.19882974 0.18977444 -0.02894348 -0.23190081
000240 5a 6b 6f be 48 06 6f 3e 94 e8 d5 3d 6a 34 db 3d
       -0.23380795 0.2334224 0.104447514 0.107033566
000250 60 62 62 be 5e 0f 6d 3e 2b d0 7a 3e f6 b5 79 3e
       -0.2210784 0.23150393 0.24493472 0.24385819
000260 12 9a 12 be 16 a3 4a 3d 59 40 38 be a5 b2 69 3e
       -0.14316586 0.049471937 -0.17993297 0.22822054
000270 04 ff db bd 55 62 eb bd 00 fe ef 3d f6 3b 00 be
       -0.10742 -0.11493365 0.117183685 -0.12522873
000280 0c 44 f4 bd 40 24 b3 bc 02 66 d1 3b 6c 57 2f be
       -0.119270414 -0.021867871 0.006390334 -0.17123193
000290 71 9f 59 3e b4 da e1 bd 28 c6 ad 3d 58 3b 0e 3e
       0.21252228 -0.110280424 0.08485061 0.13889825
0002a0 cc fc 94 bb ba 32 0e 3e a6 2b 59 3e 93 f0 24 3d
       -0.0045467373 0.13886538 0.21208057 0.040268492
0002b0 54 e1 ec bd f8 7d 7c 3e 49 92 8d 3d 85 b4 75 be
       -0.115664154 0.24657428 0.06912667 -0.23994644
0002c0 ad 29 9b bd fe 60 2e be 9c ad 61 3e b6 3f 18 bd
       -0.075763084 -0.17029187 0.22038883 -0.037170134
0002d0 a5 17 70 be 80 be 80 bc 4d 09 20 3e 24 69 9d 3d
       -0.2344652 -0.015715837 0.15628548 0.076860696
0002e0 a5 34 fc 3d cf 0d 60 3e 36 b0 b4 3d e4 7c 7d bd
       0.12314729 0.21880268 0.08822672 -0.061886683
0002f0 78 ac cb bd 67 28 71 be 60 3c 43 be fa 82 d5 3d
       -0.09945005 -0.23550569 -0.19066 0.104253724
000300 4b ca 12 be e0 e8 12 3d 80 57 8e 3d 85 1b 3c bb
       -0.14334981 0.03586662 0.06950283 -0.0028702926
000310 6c ef 22 be f0 d1 74 3e 48 2d 37 be 06 ef 72 3e
       -0.15911645 0.2390821 -0.17888367 0.23723993
000320 dd a6 f5 bd 46 b3 32 be 90 37 20 3e 96 bd cc bd
       -0.11994717 -0.174512 0.15646195 -0.09997098
000330 0e 0d 57 3e 81 40 3b be 18 54 5d be 91 85 c5 bd
       0.21001074 -0.18286325 -0.2161411 -0.096446164
000340 7f 0e 3e 3d a8 b6 6b 3e 1a c0 e6 bd 15 17 ad 3d
       0.046400543 0.23018897 -0.11267109 0.08451668
000350 cc 8e 90 bd 28 11 5e bd 49 2f 7e 3e 68 66 10 be
       -0.07058486 -0.05421558 0.24822725 -0.14101565
000360 05 df 0d 3e 15 de f9 3e aa 3c 41 bd 7d 39 36 3e
       0.13854606 0.48802248 -0.047176994 0.17795368
000370 84 ac 9d bd ca a0 48 3e e2 b0 82 be e8 bf 1d bd
       -0.0769892 0.19592586 -0.25525576 -0.038513094
000380 fd 34 4d bd 78 ee a5 3d 67 79 98 3d a9 e9 45 3e
       -0.05009936 0.08102125 0.07445031 0.19327416
000390 6d 77 29 bd 60 6d 22 bc 3c 0b 0d 3e 12 cd 49 bc
       -0.04137366 -0.009913772 0.13773817 -0.012316959
0003a0 61 03 a0 3e af 9c 93 be d6 7e 07 bd 1b 64 10 bc
       0.31252578 -0.28830478 -0.033079945 -0.0088129295
0003b0 a0 75 e4 3d f2 ec 33 3e 1b 0a e1 bc b6 a3 5d be
       0.11155248 0.17570856 -0.027470639 -0.21644482
0003c0 6a 00 e4 3d cc 27 99 3d a2 39 8a 3d d5 81 48 be
       0.111328915 0.07478294 0.06749274 -0.19580777
0003d0 70 e3 19 3e c0 78 72 3e d5 e2 c1 bc a7 b4 17 be
       0.15028167 0.23678875 -0.023667732 -0.14815007
0003e0 be fa a6 3e 01 93 d5 be 00 00 55 3d dc 9d b9 3c
       0.32613176 -0.41713718 0.052001953 0.022658281
0003f0 7c a2 ef bd b9 e0 88 3d bd 6a 74 be f6 2b 3c 3d
       -0.11700913 0.066834874 -0.23868842 0.045940362

edge_encoder.2.bias f4 [16]
000000 3c b0 1d be 39 a3 06 bd 9e df 1c 3d 7b 41 59 3e
       -0.1539926 -0.032870505 0.038299195 0.21216385
000010 a0 66 e6 bd 25 d0 29 3e d6 10 a8 bc d5 91 e9 bd
       -0.11250043 0.16583307 -0.02051584 -0.114047684
000020 6d 8e 67 be 84 4f 6f be e2 89 7d 3e f9 21 8b bd
       -0.22612925 -0.23370177 0.2475963 -0.06793589
000030 ae a8 5b 3c 18 6e 68 3d fc dc 2f 3e 70 f7 4f 3e
       0.013406916 0.05674562 0.17174143 0.20309234

edge_encoder.3.weight f4 [16]
000000 eb 1f 80 3f 7f 37 7f 3f 2a 7f 7d 3f 56 15 7f 3f
       1.000974 0.99694055 0.9902216 0.9964193
000010 fb 7a 7e 3f df 07 80 3f 1e 21 7e 3f 63 d8 7f 3f
       0.99406403 1.0002402 0.9926928 0.99939555
000020 65 82 81 3f e2 12 80 3f c2 97 7e 3f 90 75 80 3f
       1.0117918 1.0005763 0.99450314 1.0035877
000030 0a 65 7e 3f 98 89 7e 3f 65 62 7f 3f 06 25 7c 3f
       0.99372923 0.994287 0.99759513 0.98493993

edge_encoder.3.bias f4 [16]
000000 b1 04 cc 3b 68 e9 b4 bb 23 39 aa 3b 86 b0 80 bb
       0.006226145 -0.0055209883 0.0051947995 -0.0039272932
000010 63 f6 f8 3b 20 56 8f 3b 33 84 25 3c e7 90 ad 3b
       0.007597731 0.0043742806 0.0101023195 0.0052968147
000020 ab 92 6e bb f2 ee a1 b9 92 40 49 bb bd 8d 96 bb
       -0.003640334 -0.0003088634 -0.0030708653 -0.0045945332
000030 8c c3 03 3c b9 56 2b bc 2f ce 89 bb 99 a6 75 bc
       0.0080422275 -0.010457688 -0.004205487 -0.014993333

node_model.0.weight f4 [16, 48]
000000 3f 97 05 3e 73 eb 16 be b1 b3 26 3c fe e9 9a bd
       0.13045977 -0.14738254 0.010174678 -0.07564162
000010 60 01 80 bd 15 20 ce 3c 4b 6f 06 3e ab a3 f2 bd
       -0.06250262 0.025161782 0.13128392 -0.118476234
000020 80 c1 de 3d d2 a5 9b bd a2 ca 02 bd 30 7a da 3d
       0.10876751 -0.07599987 -0.031931527 0.10667837
000030 b5 52 17 bd a8 c6 82 3c 7a 14 c5 bd 7e 16 e6 3d
       -0.03694411 0.015963867 -0.09623046 0.11234759
000040 76 0d b9 bc ba e2 ef bd b7 cf d2 3c 3e 9d e5 bd
       -0.022589426 -0.117131665 0.025733812 -0.11211632
000050 ea 45 e0 bd 5e 6a 93 3c 6c dc f7 3d f3 89 25 bd
       -0.10950835 0.017995056 0.12102589 -0.04041476
000060 59 37 7c 3d 30 cf 10 3e 06 03 a4 3d 0d 79 96 bd
       0.06157622 0.14141536 0.08008389 -0.07347307
000070 32 c4 e5 bc 09 c2 1b bd ba 31 c0 bd 5f 30 c7 3c
       -0.028047655 -0.038026843 -0.093844846 0.024315057
000080 6d ee f2 3d 31 21 fd 3d 77 a5 ac 3c 9d ba a9 3c
       0.11861882 0.123598464 0.021074994 0.020718867
000090 1e 50 4a bd 82 6b c1 3d 52 af 98 bd a9 98 b9 bd
       -0.049392812 0.094443336 -0.07455315 -0.09062321
0000a0 8c 1b 0f 3d 59 34 b7 3d 6f 7a f7 bd 8b 2e f1 3d
       0.03493838 0.089455314 -0.12083899 0.117764555
0000b0 e2 d2 3e 3d 36 ae d2 bd d1 c1 5c bd 73 a5 ed 3d
       0.046587832 -0.10287134 -0.053895775 0.116038226
0000c0 c1 f3 f6 bd 7a 4c 5a bd 0d 6d d0 3c 20 0e ef bd
       -0.12058211 -0.05329559 0.025442624 -0.11672616
0000d0 e5 35 b9 3d c1 e8 77 3d 71 22 a4 3d be 28 a0 bd
       0.09043483 0.060524706 0.08014382 -0.07820271
0000e0 53 e8 43 3e 2a 7a bb bd 3f dc 04 3e f5 ff 05 be
       0.19131593 -0.0915416 0.12974642 -0.13085921
0000f0 8b 3d ee bd 8a 1a c8 3d d5 83 a6 3c e8 61 7a 3b
       -0.11632832 0.09770687 0.020326534 0.003820533
000100 9d 31 d4 bd 6b 50 02 be 87 73 17 bd 43 2b 1e be
       -0.103610255 -0.1272599 -0.03697541 -0.1544619
000110 b0 93 93 3b 63 d2 97 3b a3 92 cf 3b 05 f0 5b 3d
       0.0045036897 0.0046332343 0.006334619 0.053695697
000120 e7 49 ff 3d eb ff 85 3d 9b 24 dd bd 35 9a 11 bd
       0.12465268 0.06542953 -0.107979976 -0.035547454
000130 a5 aa d7 bd 3e 9c ce bd 0b ca a1 bc 4f 14 81 3b
       -0.10530595 -0.100883946 -0.019749662 0.0039391886
000140 60 55 76 3d f5 00 82 bd 79 4e ef 3d e4 91 09 be
       0.060140014 -0.06347839 0.11684889 -0.13434559
000150 11 b5 3c 3c 19 5c 1e 3e 3d 8f 36 3e 85 1a d6 bd
       0.011517779 0.1546482 0.17828079 -0.10454277
000160 38 a2 cd 3c 05 3f 34 3c 75 d6 8b bd e2 09 34 bd
       0.025101766 0.011001353 -0.06828014 -0.043954737
000170 24 89 a9 3b d3 17 e0 bd 73 da 3c 3c 89 e0 94 3d
       0.005173819 -0.10942044 0.011526692 0.07269389
000180 76 eb 78 bd 81 a6 d6 3d 88 a7 a9 bc 87 8f a4 3d
       -0.060771428 0.10480977 -0.020709768 0.08035188
000190 22 e3 1f 3e 59 75 6b bd bd 2f 86 3d ba 9d f7 bc
       0.15613988 -0.05748496 0.06552074 -0.030226577
0001a0 1d 07 1e 3c ac 19 fa bc 5f 8a 79 bc 87 ee 3e bd
       0.009645251 -0.03052982 -0.015230744 -0.046614196
0001b0 ce f4 35 3d c9 f2 a1 3c 79 5f cd 3d 1e fc a8 bc
       0.044422917 0.01976909 0.100279756 -0.020628031
0001c0 ef 6d 75 3b a0 78 5f bd 39 2f 13 be 8c a3 26 3d
       0.0037449559 -0.054558396 -0.14373483 0.040683314
0001d0 c5 5f 19 3d fa 71 81 bd af dd 4c bd 8a 55 91 3d
       0.03744485 -0.063205674 -0.0500161 0.070963934
0001e0 04 36 d6 bc 5c cf dc 3d 81 ce a8 bc 98 43 33 3d
       -0.026148804 0.10781738 -0.020606281 0.043765634
0001f0 3b ed 17 3d 60 10 bb bc e7 24 9d 3d 93 f9 08 3e
       0.037091475 -0.022834957 0.07673054 0.13376455
000200 82 7d bf 3b e6 c4 4c 3d 8a a1 59 bc bc a4 bc 3d
       0.005843819 0.049992464 -0.013283143 0.09211108
000210 9f 60 1f bd dc 1b cf bd f3 a0 60 3d f9 1f 0f be
       -0.038910504 -0.10112736 0.054840993 -0.1397704
000220 b2 c6 c7 3c cd 94 93 bd 05 f3 02 3e 29 60 fd bd
       0.024386737 -0.07206116 0.12788017 -0.12371857
000230 9a 08 74 3d 91 83 17 3e fb 8e 89 3c 76 19 20 bd
       0.059578516 0.14796282 0.016791811 -0.03908678
000240 a8 60 ed 3d b0 b8 5c bd 8c 30 29 bc e8 bd 64 bd
       0.11590701 -0.05388707 -0.010326516 -0.05584517
000250 e7 86 74 bc f4 5e 8c 3c e8 a0 fc 3b 55 6b 00 bc
       -0.014924741 0.01713512 0.007709611 -0.00783809
000260 e4 b3 22 be 5e b0 30 bc 8c 67 5e bc 64 c3 37 3d
       -0.15888935 -0.010784237 -0.013574492 0.044864073
000270 c2 b9 05 3e 27 1c 19 3e 35 2c 94 bd 23 d0 08 bc
       0.13059142 0.14952146 -0.07234994 -0.008350405
000280 89 f2 69 bd 52 cc 1f be 0d ae e3 bd b4 f6 eb 3d
       -0.057116065 -0.15605286 -0.11117182 0.11521664
000290 88 d4 b7 3d 0d 73 a3 3d a7 c4 a2 3d 6d 8c 14 be
       0.08976084 0.079809286 0.07947665 -0.14506693
0002a0 48 53 1e 3d 56 a7 14 3e a5 6d 72 bd 3b 58 ce 3d
       0.038653642 0.14516959 -0.059186596 0.100754224
0002b0 65 93 08 3d e5 8d 00 3e 6e 90 48 bd 4d b1 57 3d
       0.03334369 0.12554128 -0.048965864 0.05265932
0002c0 83 8c e5 bd f6 30 a3 bc 41 3d 82 3d 52 36 bd 3c
       -0.11208441 -0.019920807 0.063593395 0.023097191
0002d0 2a 96 f2 3d 3c 6f 19 3e 18 d3 07 3e bc 87 8b 3d
       0.11845048 0.14983839 0.1326412 0.06812999
0002e0 9f 0d b5 3d 4f e9 ee bb 2f ac fa bd 18 39 7e bd
       0.08840489 -0.007290996 -0.12239873 -0.062066168
0002f0 42 55 14 bd 97 61 bc bd 74 e6 ba 3d c1 59 9d 3d
       -0.03621412 -0.09198301 0.09125987 0.07683135
000300 f9 90 86 3c cf 50 b4 3c 3d d1 f4 3d ef 0e 97 3d
       0.01642655 0.022011189 0.119539715 0.07375895
000310 27 08 e3 bd 03 a8 ef bd ae ec 4b 3d 77 6b e6 3c
       -0.11085539 -0.117019676 0.049786262 0.028127415
000320 b1 7f c9 3d a3 74 1e be 03 e6 14 be f8 82 c9 3d
       0.09838808 -0.15474181 -0.14540868 0.098394334
000330 ad 08 d0 3d e4 9c e8 bd 49 c0 8d 3d a0 e8 0a be
       0.10157905 -0.113580495 0.06921441 -0.13565302
000340 8f 98 c7 3d 95 5c 5d 3d 79 25 f7 3d 8c bc 1c be
       0.09745895 0.05404337 0.12067694 -0.153063
000350 d1 c3 f4 bd 73 5c fb 3d 8c d2 1b 3e bf b1 da 3d
       -0.119514115 0.12273493 0.15217036 0.106784336
000360 a1 4e 99 3d 3e 23 0a be 79 bb f5 3d 50 0c 36 be
       0.074857004 -0.13490006 0.11998648 -0.17778134
000370 92 af 11 3d bb 0f 80 bd ff 0e 9e bc 20 02 bd 3c
       0.035567828 -0.06253 -0.01929426 0.023072302
000380 e5 66 47 bd 39 95 0c bd c2 40 12 be 9e 31 04 be
       -0.048682112 -0.034321997 -0.14282516 -0.12909552
000390 5e 31 74 3d a3 da 44 bd eb f6 8d bd 6e 6d 4b bd
       0.059617393 -0.04806007 -0.069318615 -0.049664907
0003a0 c6 fa 06 be ed 19 ee bd c7 16 97 3d d8 66 cd 3d
       -0.131816 -0.11626039 0.07377391 0.100293815
0003b0 d5 93 08 3d 1d 46 c4 bd de f4 80 3d 95 bf f6 3b
       0.03334411 -0.095836855 0.06296705 0.0075301626
0003c0 37 82 bb bd a6 ba 9e 3c 20 77 12 3e 22 f4 1c be
       -0.09155696 0.01937611 0.14303255 -0.15327504
0003d0 06 2c 08 be da 8a f7 3c ce 71 f6 3d 7c cf cb bd
       -0.13298044 0.030217577 0.12033425 -0.09951684
0003e0 5b 67 17 3d 83 a0 e7 3d 95 23 66 3d a1 3b a0 3c
       0.0369638 0.11309912 0.056186277 0.019559683
0003f0 21 89 07 3e 1f d2 a8 3d a3 1c be bd 27 29 c6 3c
       0.13235904 0.082432024 -0.09282806 0.024189545

node_model.0.bias f4 [16]
000000 90 8c ec 3d 93 72 b4 3c 13 40 da 3d 87 66 9b 3d
       0.11550248 0.02202729 0.106567524 0.07587915
000010 64 b7 b6 3d 48 9e 0d be cb 75 ad bd 53 1f ae 3d
       0.08921698 -0.13829911 -0.08469733 0.08502068
000020 31 c0 03 bd d7 2c ff bd 29 e1 e7 3d 2c c3 a8 3b
       -0.03216571 -0.124597244 0.11322243 0.0051502194
000030 d2 d8 d4 3d 62 d0 03 be e7 7b 87 3d 6d 59 fb bc
       0.10392918 -0.1287246 0.06615429 -0.03068229

node_model.2.weight f4 [16, 16]
000000 07 e5 13 be e0 32 8c bd 62 b8 b8 bd e8 95 1b 3e
       -0.14442836 -0.06845641 -0.09019543 0.15193903
000010 99 4b 04 3d 55 cf 38 3e f7 0c 66 3d 50 29 02 3e
       0.032298658 0.18047841 0.056164708 0.12711072
000020 e6 e2 4d be 15 d3 88 be 61 82 af bd 43 bf 82 be
       -0.20106086 -0.26723543 -0.0856979 -0.25536546
000030 83 2a eb bc d3 67 97 bb a4 e0 49 3d fb 62 c2 bd
       -0.028706795 -0.004620531 0.0492865 -0.09491535
000040 15 e7 11 3e a3 aa c2 3d b9 db ec bd 58 e4 17 be
       0.14248307 0.095052026 -0.11565346 -0.148332
000050 81 5c 3a 3e 58 43 54 3e ed 54 98 be a6 9c 27 bd
       0.1819935 0.20728815 -0.29752293 -0.040920876
000060 47 0e 73 bd 42 23 fb bd e6 be 3f 3e e4 0f 97 bd
       -0.059339788 -0.12262584 0.18725166 -0.07376078
000070 71 83 44 3e 5e cb 6c bc a8 67 85 bc 16 c0 2e be
       0.19190766 -0.014452783 -0.016284779 -0.17065462
000080 48 51 1d be db 99 1b 3d 42 55 f6 3d c9 d8 0e bd
       -0.15363038 0.037988525 0.120279804 -0.03487471
000090 f2 f8 8b 3e 8a f1 31 be eb 09 97 3d 9f 5b 8e 3e
       0.27338368 -0.17377296 0.073749386 0.27804276
0000a0 0f a1 47 bd e2 d8 26 3e 79 a0 f2 bc d8 35 5e be
       -0.04873758 0.16293672 -0.029617535 -0.21700227
0000b0 86 16 f5 bd c4 01 a8 3d 9e 66 c0 bd 06 8d 8c 3d
       -0.11967187 0.08203462 -0.09394573 0.068628356
0000c0 5e bd 85 3e 36 eb e7 3d 40 90 d9 bc d3 82 d4 3d
       0.26121038 0.1132416 -0.026558042 0.10376515
0000d0 7a 52 d4 bd 00 1b 4e be 0b 1f 2d be 77 37 08 be
       -0.10367294 -0.20127487 -0.16906373 -0.13302408
0000e0 d2 ce 92 3d a5 98 a0 3d 43 9f bd bd c3 e7 82 be
       0.07168354 0.07841615 -0.092588924 -0.25567445
0000f0 0c e2 28 3e ef 73 06 be a5 7a 5f bc 27 47 59 be
       0.1649248 -0.13130163 -0.013640081 -0.21218549
000100 d8 bc 6e bd ce 18 25 3e 06 32 7f be e8 9b ca bd
       -0.058285564 0.16122743 -0.24921426 -0.09893018
000110 b0 c8 04 3e 8a c8 f1 bd af 70 ac bd 68 15 27 be
       0.12967181 -0.11805828 -0.0841993 -0.1631676
000120 6d 5e 86 3d 49 e1 06 be a9 4e 7e 3d cd d1 03 3e
       0.06560979 -0.13171877 0.062086735 0.12873001
000130 96 f5 b5 bc ed 2e 5c 3d 6e 65 62 be e3 b7 cc 3d
       -0.022211831 0.05375569 -0.22109005 0.09996011
000140 40 92 1a 3e 01 49 68 3c 33 64 33 be 5e 11 ff 3d
       0.15094852 0.014177562 -0.17518692 0.124544844
000150 7d 9b 03 3d 77 79 0a bd 04 49 11 3e 63 79 8e bd
       0.032130707 -0.033807244 0.1418801 -0.069567464
000160 e4 0e ac bd cf 2d aa 3b 5b 60 8b 3e f4 1d 07 3c
       -0.08401278 0.005193449 0.2722195 0.0082468875
000170 8e 98 84 be 71 e6 7b bc ce 7a 1f bc af a5 b1 bd
       -0.2589764 -0.015374766 -0.009733869 -0.0867418
000180 6c b4 b1 bd 08 99 77 3e da f7 14 3e 2f 0a 1a 3c
       -0.08676991 0.2417947 0.14547673 0.009401842
000190 3d 3e b5 bc 0a f3 14 bd a1 42 8b 3d a4 45 29 bc
       -0.022124404 -0.036364593 0.06799818 -0.010331545
0001a0 66 a1 e5 bd 2b 3e 8f 3d 47 1c 04 3d 8a d7 72 bb
       -0.11212425 0.069942795 0.03225353 -0.003705474
0001b0 52 c0 83 bd 1f 33 a2 3d ca 59 5f be 65 b8 85 3d
       -0.064331666 0.07919907 -0.21811596 0.06529311
0001c0 50 38 3b 3e f7 33 d6 bc cd 7a 51 be 96 49 8d bd
       0.182832 -0.026147826 -0.20457001 -0.06898801
0001d0 48 38 d0 bd ad c8 66 be bd dd 50 be 08 91 6f 3d
       -0.10166985 -0.22537489 -0.20397086 0.058487922
0001e0 62 f5 73 3e 34 5d 19 3e 66 1f 40 3e 2a c7 92 3d
       0.23824075 0.1497696 0.18761978 0.07166894
0001f0 3a 70 1f 3d 59 e7 33 3e cd 6e 2e be 3f 5a 8a bd
       0.038925387 0.17568721 -0.17034455 -0.06755494
000200 f6 8b 0b 3e e0 17 2a bd 33 d3 15 be 32 1b 66 be
       0.1362761 -0.041526675 -0.14631347 -0.22471312
000210 3e be 4a 3e 48 93 5a 3e 8a cb 3f 3e 6f fa c9 3d
       0.19799134 0.21345246 0.18729988 0.098622195
000220 b0 1d 39 3e 7e f3 7e be b9 30 4b be 28 cb 66 be
       0.18077731 -0.24897572 -0.19842805 -0.22538435
000230 2c 8a 4c 3e ca 4d 58 bc 19 4d 9d bd aa d8 d6 3d
       0.19974583 -0.01320214 -0.07680721 0.10490544
000240 1a 1a 44 bd f1 41 f1 bd dc f7 dd 3d 4c f3 b0 3d
       -0.047876455 -0.117801555 0.10838291 0.08640155
000250 3f de 43 be 4b 27 32 be 0f 13 12 3e 8b d9 3a 3e
       -0.19127749 -0.17397802 0.14265083 0.18247049
000260 7b e0 70 3c 82 34 c2 bd 5d 03 0a 3e fe 74 a2 3d
       0.014701958 -0.09482671 0.13477845 0.07932471
000270 e2 21 62 be 61 80 1d be 90 09 8b 3d 91 b8 35 3e
       -0.22083238 -0.15381004 0.06788933 0.17746188
000280 c9 59 cd bd dc 23 a3 3d d8 7a 34 be 53 9a 47 3e
       -0.10026891 0.07965824 -0.17624986 0.19492464
000290 99 0f 34 3e 41 dc 3f 3d f9 6f 96 3d 32 be 76 3c
       0.17584075 0.04684091 0.07345576 0.0150599945
0002a0 d6 4d 04 be be d1 2d bd 29 d2 24 3d 3f 86 1c bd
       -0.12920317 -0.042436354 0.040239487 -0.038213965
0002b0 8a 6e 31 3e f1 3a a3 bd 0f bd 99 be de a1 09 be
       0.17327324 -0.079702266 -0.30027053 -0.13440654
0002c0 5f e0 94 be e3 3a 35 3e 42 6c e1 bd 2b 47 56 be
       -0.29077432 0.17698245 -0.11006977 -0.20925586
0002d0 f4 13 ca bb df 52 35 be a2 4a 01 be 20 4f 0c 3e
       -0.0061669294 -0.17707394 -0.12626126 0.13702059
0002e0 5f fe 23 be 52 59 a6 3d 2a 39 21 3e 59 67 72 bb
       -0.16015004 0.08122505 0.15744463 -0.003698787
0002f0 3f 0d d0 3d 58 4c 1a be f7 73 37 3e ce c7 71 3e
       0.101587765 -0.15068185 0.17915331 0.23611376
000300 8d e4 c2 bc 39 41 59 3e 62 e7 87 be ab f8 4e bd
       -0.023790622 0.21216287 -0.2654372 -0.050530117
000310 c1 ba 72 3c b1 9d 54 be 7f ec 0a 3e 78 cf 04 be
       0.014815033 -0.2076328 0.13566779 -0.12969768
000320 56 cf cb bd 69 be 53 be d4 09 c8 3d 3d 54 36 be
       -0.099516556 -0.20678104 0.097674996 -0.17805572
000330 23 30 14 bd bf a2 f5 3d 5a 33 25 3e 55 dc a1 3c
       -0.03617872 0.11993932 0.1613287 0.019758383
000340 9a 14 d7 bc 45 94 bd bd 37 6d 19 3e ea 21 5b 3d
       -0.02625494 -0.09256796 0.14983068 0.05349914
000350 13 b1 27 3e f8 9a d3 3d 8d 99 35 3e bc a8 78 be
       0.16376142 0.10332292 0.17734356 -0.24283117
000360 39 73 69 3e 5e 1a b7 bd 4b c6 73 bd 99 ac 20 3d
       0.2279786 -0.08940576 -0.05951528 0.039227102
000370 dd 26 9a bd 90 58 2c 3d 24 f3 23 3e 29 e0 ea bd
       -0.07526944 0.042076647 0.1601072 -0.114685364
000380 c9 e5 d1 bc 20 fb 80 be 28 19 41 3d c4 ba 19 3e
       -0.025622265 -0.25191593 0.04714313 0.15012652
000390 f0 d0 50 3e 74 34 5e 3e 97 0b 0d 3e 64 c7 01 3c
       0.20392203 0.21699697 0.13773952 0.007921074
0003a0 72 29 64 3d 4e 9e db bd ab 05 3b 3e 06 eb 1b 3e
       0.055703588 -0.107235536 0.18263881 0.15226373
0003b0 b3 41 4d be 57 8e 4f 3e 2c 14 96 3c 2b d6 a9 3b
       -0.20044594 0.20269142 0.018320166 0.0051830015
0003c0 eb fc 0b bd 73 0f 5f bd e9 7c e2 3c 26 58 f3 bd
       -0.03417675 -0.054458093 0.027647452 -0.11882047
0003d0 d9 5f 45 be 94 1e 00 be 75 c5 b9 bc 15 40 44 3e
       -0.19274844 -0.12511665 -0.022677163 0.1916507
0003e0 8c 8d 4e 3e 3f 54 fe bd 49 88 a6 3c d0 30 1a bd
       0.20171183 -0.124184124 0.020328658 -0.037644207
0003f0 be 95 02 be 41 bf ca bc 62 86 8d bc 2f ac 05 3e
       -0.12752435 -0.0247494 -0.017275993 0.13053964

node_model.2.bias f4 [16]
000000 96 fe d0 bd 28 b8 89 ba c2 2b 22 be d3 40 51 bd
       -0.102048084 -0.0010507153 -0.15837005 -0.05108721
000010 7c 36 59 3e fe 1b d7 bd cf 6d 18 3c 52 8e 40 3e
       0.2121219 -0.10503386 0.009303524 0.18804291
000020 5c 20 ac 3d 9b a2 b9 bd c3 3d 39 be 1f b0 cf bd
       0.084046096 -0.09064218 -0.18089966 -0.10141014
000030 74 64 da bd 3d 39 f7 3d a9 8b 92 bd 90 36 66 3e
       -0.10663691 0.12071464 -0.07155544 0.22481751

node_model.3.weight f4 [16]
000000 bb b7 a1 3f 65 0d 80 3f 62 f2 a8 3f 21 84 95 3f
       1.2634195 1.0004088 1.3198969 1.1680948
000010 92 f7 9f 3f a1 a8 ae 3f 07 da a8 3f 42 0e 9c 3f
       1.2497427 1.3645211 1.3191537 1.2191851
000020 68 af a1 3f 2f 5e 84 3f 27 63 80 3f 2a c6 9b 3f
       1.2631655 1.0341243 1.0030259 1.216985
000030 96 8f 8d 3f 32 99 97 3f 6b 87 9e 3f 08 40 82 3f
       1.1059444 1.1843626 1.2385076 1.0175791

node_model.3.bias f4 [16]
000000 92 dd 44 be 70 68 d9 bd 29 e6 68 be fc 3d 09 3e
       -0.19225147 -0.10615623 -0.22744049 0.13402551
000010 a9 a7 28 3e d0 a8 20 3e b1 e1 70 3e d3 b4 6a 3e
       0.16470207 0.15689397 0.23523594 0.22920541
000020 49 3a 16 be 92 fd 01 be 68 e4 3d 3b 85 58 5e be
       -0.14670672 -0.12694386 0.0028975252 -0.21713455
000030 bc 8d e9 3d f9 9d 57 be c5 f2 72 be 5e 19 a0 bd
       0.11403987 -0.21056356 -0.23725422 -0.078173384

edge_model.0.weight f4 [16, 96]
000000 06 02 79 bd 18 d3 96 bc 08 25 fa 3c 28 00 ae 3d
       -0.060792945 -0.018411204 0.030535236 0.084961236
000010 5e 5d bb 3d d1 b1 9b 3c 36 0b 0f ba 2a 73 42 bd
       0.09148668 0.019005688 -0.00054566876 -0.04747311
000020 b1 d6 03 3d f2 77 89 bd da f1 01 bd ab fc 9c bd
       0.032187168 -0.06712331 -0.03172479 -0.0766538
000030 d9 87 b8 bd d1 5c 87 3d 9e 97 80 3c df 79 67 3d
       -0.09010286 0.066095 0.015697297 0.05651271
000040 81 15 9d 3d 6f 4e b0 3d 4b 18 a1 3c 67 0c 1a bd
       0.07670117 0.0860871 0.019664904 -0.037609484
000050 31 eb 4f 3d fb b0 6f 3d 1a 32 08 bc 17 45 1b 3c
       0.050761405 0.05851839 -0.008312726 0.0094769215
000060 2e 13 45 3c 31 d3 81 bc 4d c1 8d bd 45 1d 2b 3d
       0.012028499 -0.015847774 -0.06921635 0.04177596
000070 1e ee 6d bd 59 4f 45 3d b2 f2 10 bd 68 d2 5d bd
       -0.058088414 0.048171375 -0.035387702 -0.054155737
000080 14 b4 56 bd 27 60 d4 3d 08 7b c1 bd 0e a5 6e 3d
       -0.05241783 0.10369902 -0.094472945 0.058262877
000090 60 e7 18 3d 66 c3 a9 3d a2 f8 a6 3c 3c 42 45 3d
       0.03733003 0.082892224 0.02038223 0.04815887
0000a0 7a ca 7d 3d 84 ea 53 3c 48 c5 e6 3c ae 03 94 bd
       0.061960675 0.012934331 0.028170243 -0.07227264
0000b0 1a 1b 8b bc 24 d6 be 3c ba 94 b4 3c 89 d6 8b bd
       -0.016980696 0.02329547 0.022043575 -0.06828029
0000c0 28 7b d2 bd c7 86 d8 bc 85 ea 20 3d 65 3d c1 3d
       -0.102773964 -0.026431454 0.039286155 0.09435538
0000d0 af 9b c4 bd 03 4f 4a 3c ed ab d1 bd 7e 0d bd bd
       -0.09600007 0.012347939 -0.1023787 -0.09231089
0000e0 a3 4f 3d bd 43 85 cc bc 56 13 08 3c cf 55 9f bd
       -0.046218526 -0.024965888 0.008305391 -0.077800386
0000f0 27 dd a0 3d 88 b6 d9 3d 97 09 10 3b cb ae bd 3d
       0.078546815 0.10630518 0.0021978372 0.09261855
000100 7a ab 8f bd 7c 55 46 bd fe 27 b3 3c 18 0a 93 3c
       -0.070151284 -0.048421368 0.021869656 0.017949149
000110 75 04 a1 bd 30 fa 9f bd e7 f6 4d 3d b1 93 03 3d
       -0.07862178 -0.07811391 0.050284293 0.03212327
000120 52 b3 b8 3d 2a 50 40 bd 8b e9 2b 3d 5e a0 43 bd
       0.09018578 -0.04695145 0.04197077 -0.04776036
000130 7c 57 41 3d ce 8d 22 ba 1e 44 a1 3d 9d 99 82 3d
       0.047202572 -0.000620094 0.078743204 0.06376956
000140 4c c5 a0 3d ff 51 5f 3d 89 ba a5 bb 59 f8 c5 3d
       0.078501314 0.054521557 -0.005057637 0.09666509
000150 6f 64 5e bd 12 f1 d8 3d 4d eb be 3d 15 4a a7 3d
       -0.054295 0.105928555 0.09322224 0.08168427
000160 3b a4 76 bd fc 02 97 bd 90 8b 2b 3c 61 9b 3c 3d
       -0.060215216 -0.07373616 0.010470286 0.04604662
000170 71 fc 0d 3d f0 60 ee 3c a0 8f ba 3d 4d bc 00 bc
       0.034664575 0.029098958 0.091094255 -0.007857394
000180 9b fd 25 bd 27 b7 19 3d 60 91 08 3d 8a 5d 7e bd
       -0.04052506 0.037528183 0.033341765 -0.062100925
000190 c0 db cf 3b 9b 83 94 bd 95 05 fa bc 23 ce 27 bd
       0.006343335 -0.07251664 -0.03052024 -0.04096807
0001a0 61 27 5c bb 80 a2 cd bd ff a9 6a bd 9e c2 b7 bd
       -0.0033592808 -0.1004076 -0.057291027 -0.08972667
0001b0 86 80 d8 3c 47 81 9d bd 92 70 26 3d 22 a2 af bd
       0.026428472 -0.07690673 0.0406347 -0.08575846
0001c0 e0 a6 7b bd fa 5c 3b bd 96 81 16 3c e1 37 b4 3d
       -0.06143844 -0.045742966 0.009186169 0.087997206
0001d0 fe 0e cc 3d f8 25 fa 3b 72 dd fa bd 66 24 1e bd
       0.09963797 0.0076339208 -0.122492686 -0.03860893
0001e0 2e d5 05 bd a9 34 dc bc 19 c9 69 3d 7f 3b 73 3d
       -0.032674007 -0.02688058 0.057076547 0.05938291
0001f0 e5 11 2e 3d 80 0b 3a 3d 5a b1 c3 bc e1 2d b8 bc
       0.042497534 0.045421124 -0.023888279 -0.022482814
000200 e9 ef 1f 3c ba ba 10 bd 07 63 75 bc 9b 58 bc bb
       0.009761789 -0.035334326 -0.014977223 -0.0057478673
000210 19 5b da bd 96 d2 a1 3d cd fb 44 bc bc 39 ca bd
       -0.10661907 0.07901494 -0.012022925 -0.09874293
000220 fb 7f 9b 3d 67 59 70 bd 67 0a 18 3d 2d 6b d5 3d
       0.0759277 -0.05867901 0.037119295 0.10420833
000230 58 05 03 3c 42 7c 12 3d b0 67 3e 3d 60 0a 66 3d
       0.0079968795 0.035763033 0.046485603 0.056162238
000240 ea 10 0e bd 39 c4 68 bd e2 aa 27 3b 0d 9f a9 3d
       -0.0346841 -0.056827758 0.0025584032 0.0828229
000250 ce 8b 35 bc 00 82 6d 3d db 07 25 3b 10 70 90 3c
       -0.011080695 0.057985306 0.0025181684 0.01763156
000260 e7 6c f3 3a d4 13 97 3b b2 45 c4 bd 2a 75 9a bd
       0.0018571884 0.004610518 -0.09583606 -0.075418785
000270 8b 30 63 3c ca cd 51 3d bb 14 7e 3d cd 69 4b 3c
       0.013866554 0.051221646 0.06203149 0.012415362
000280 4d d5 c6 3c cf 8b 8b 3b be 65 3f bd 0e e9 a8 bd
       0.024271632 0.00425861 -0.04672789 -0.08247577
000290 96 c5 ba bd 23 f4 df 3b 89 89 1a bd 93 62 2a bc
       -0.09119718 0.0068345233 -0.03772882 -0.0103994785
0002a0 be 40 92 bc 1a eb 1f 3d e0 95 e3 3c 84 9e b1 3d
       -0.017853137 0.03904257 0.027781427 0.086728126
0002b0 23 7d cb 3d f9 e5 87 bd 4e e7 e3 bb 43 f3 9f 3c
       0.09935977 -0.06635661 -0.006955064 0.019525176
0002c0 47 87 83 3d 7a 75 bb bc b4 44 4f bd f6 31 47 bd
       0.064222865 -0.022883166 -0.05060263 -0.04863163
0002d0 b8 a8 ab 3d 54 c7 98 bc 3e 55 26 bd 79 30 c8 3d
       0.0838179 -0.018649735 -0.040608637 0.097748704
0002e0 cd 7d b7 3d 37 41 29 bd f6 59 69 bd b6 af da 3d
       0.089595415 -0.04132196 -0.05697056 0.106780455
0002f0 fd 37 21 bd 5c 12 38 bd a9 78 8e bd 97 16 30 bd
       -0.039360035 -0.044939384 -0.06956608 -0.042990293
000300 e7 d2 b0 bd d7 1c 95 bd a4 c2 a7 bd a2 63 60 bc
       -0.086339764 -0.072808914 -0.08191422 -0.013695629
000310 8d 3d 6c 3d 45 6a b6 bd 36 b0 50 bc 29 84 ed bc
       0.057675887 -0.08906988 -0.012737324 -0.028993683
000320 ff 5d a0 bc 28 da 87 3d c0 d1 b7 bc bc 16 1a bd
       -0.01957607 0.06633407 -0.022438884 -0.037619337
000330 19 11 90 bd 55 3b 4e bd 72 a1 48 3d 69 43 f2 3b
       -0.07034511 -0.050349552 0.04898209 0.00739329
000340 ba b0 3c 3d 64 eb 84 bc 0a b4 1f 3d f3 63 ba bd
       0.046066977 -0.016225524 0.038990058 -0.09101095
000350 8b a7 0c 3d 75 dc f3 3d f9 70 d8 bd 8c e4 34 bd
       0.03433947 0.11907283 -0.10568423 -0.04416327
000360 42 93 74 3d ba 05 b8 bc e7 8f 39 bd 73 fe 56 3d
       0.05971075 -0.022463668 -0.04530325 0.052488755
000370 e1 28 57 3c 5f 90 ad 3c c2 bc aa bc 71 d7 90 3d
       0.013132305 0.021187006 -0.02084196 0.07072342
000380 76 97 18 3d bd 5a 8f 3c ae 4a b0 3b f0 e4 7e 3d
       0.03725382 0.017499322 0.0053799963 0.06223005
000390 5c c9 88 3d de f4 3e bd fd 9e b5 bc b6 fa 59 3d
       0.06679031 -0.046620242 -0.022170538 0.053217612
0003a0 16 da 62 bd 47 8a a3 3d 52 6f a9 bd 05 39 83 3d
       -0.055383764 0.07985359 -0.08273186 0.0640736
0003b0 0f 95 63 bd 5a a0 3a 3d a1 40 ac 3d 48 b7 1f 3c
       -0.055562075 0.04556308 0.084107645 0.0097482875
0003c0 02 37 24 bd 36 b3 84 3d cf 3e a5 bd 06 25 ba bd
       -0.040091522 0.06479494 -0.080686204 -0.09089093
0003d0 30 91 c1 bd ba e8 20 bd 7f b5 99 bc e3 5a 15 bd
       -0.094515204 -0.039284445 -0.018763302 -0.03646363
0003e0 a1 1e 0f 3d c3 57 56 3b 5b 98 9e 3d 12 3e 21 bd
       0.03494132 0.0032706119 0.07743903 -0.039365835
0003f0 0e 25 d5 bc 28 88 bd 3d 46 3c b2 3c f4 f6 a8 3d
       -0.026018646 0.09254485 0.021757256 0.082502276

edge_model.0.bias f4 [16]
000000 46 1a 2f 3d 05 84 c2 3d 98 6c 88 3c b1 dc b2 bd
       0.042749666 0.09497837 0.016653344 -0.087335
000010 a2 4d 07 bd 93 90 e3 3c bd ca 40 3d bb d9 dc bd
       -0.03303302 0.0277789 0.047068346 -0.10783716
000020 7e a1 9b 3d 90 17 a5 bd c1 45 67 3d b7 67 d8 3d
       0.075991616 -0.08061135 0.056463007 0.10566657
000030 b0 0a ce 3c 93 8c e7 bc 4d 0d 6b 3d 44 8d 0f bd
       0.02515158 -0.028265273 0.05738573 -0.03504683
