tmp/tmp1model100.pt (torch, 23679 bytes, 25 tensors)

node_encoder.0.weight f4 [16, 5]
0	0x3e6bf68c	0.23043269
1	0xbe4a20b2	-0.19739035
2	0xbdb18e74	-0.08669749
3	0x3e56f22c	0.20990819
4	0xbed79060	-0.42102337
5	0x3e88170b	0.2658008
6	0xbdffca79	-0.124897905
7	0x3e6684d8	0.22511613
8	0x3d7ea640	0.062170267
9	0x3c3e2079	0.011604422
10	0x3dfd191b	0.12358304
11	0x3ca6b610	0.020350486
12	0x3e2f5d3d	0.17125411
13	0xbe32765a	-0.1742796
14	0xbcd9e967	-0.026600553
15	0xbd4bb0a2	-0.049728997
16	0x3d68952b	0.056782883
17	0xbb215ad4	-0.0024620788
18	0x3ec82930	0.39093924
19	0x3e04d053	0.12970094
20	0xbe2579c2	-0.16159728
21	0xbe8a4a83	-0.27009973
22	0xbd8f628a	-0.07001217
23	0xbe4587f4	-0.19290143
24	0xbe12bf94	-0.14330894
25	0x3ca3a2fb	0.019975176
26	0x3e86822b	0.26271185
27	0x3e70e182	0.23523524
28	0xbedfd546	-0.43717402
29	0x3e7c4012	0.24633816
30	0x3dff61ed	0.1246985
31	0x3ed4d47d	0.41568366
32	0x3e917e3b	0.2841662
33	0xbed0a052	-0.40747315
34	0xbee3da2d	-0.44502392
35	0xbe6247b1	-0.2209766
36	0x3ec442da	0.38332254
37	0xbd8c5767	-0.06852608
38	0x3e43fb8c	0.19138926
39	0xbe43ba6e	-0.19114086
40	0x3edfa805	0.43682876
41	0xbe413bde	-0.18870494
42	0x3ea64970	0.32477903
43	0x3bad8800	0.0052957535
44	0xbe794d2a	-0.24345842
45	0x3e6f0540	0.23341846
46	0xbe69689b	-0.2279381
47	0x3df7e2c0	0.12103796
48	0xbe043c44	-0.12913615
49	0xbce86bb9	-0.028371679
50	0xbedb424b	-0.42824015
51	0xbe84b669	-0.25920418
52	0x3e7a3e70	0.2443788
53	0xbddea204	-0.10870746
54	0x3ee4f12f	0.44715258
55	0x3ec05601	0.37565616
56	0xbb76c448	-0.0037653614
57	0xbe98d5fa	-0.2985075
58	0x3e8b6fa6	0.27233618
59	0x3dda9321	0.10672594
60	0xbe8ea3d6	-0.27859372
61	0x3e958ddd	0.29209796
62	0x3e942dbd	0.28941146
63	0x3ecb1348	0.39663148
64	0xbe895262	-0.26820666
65	0xbd81617a	-0.0631742
66	0xbb911980	-0.0044280887
67	0x3d8d3b4f	0.06896078
68	0xbeadc5a6	-0.33939856
69	0xbea27c10	-0.31735277
70	0x3e857d8e	0.26072353
71	0xbd9aa16a	-0.075503185
72	0x3e71219c	0.23547977
73	0x3cd0dc30	0.025495619
74	0x3e04b1c0	0.12958431
75	0x3dd5d0c3	0.10440209
76	0x3e2e8136	0.17041478
77	0x3e6a8148	0.2290088
78	0xbed40e14	-0.4141699
79	0x3e8afcfd	0.2714614

node_encoder.0.bias f4 [16]
0	0xbea0ff1a	-0.31444627
1	0xbeadfde1	-0.33982757
2	0x3cdb0ed1	0.026740463
3	0xbdaf76da	-0.08567591
4	0x3e8903cf	0.26760718
5	0xbe8557c9	-0.26043537
6	0xbecbaca8	-0.39780164
7	0x3ea3f0d6	0.3201968
8	0xbd8be01b	-0.06829854
9	0x3e829a2f	0.25508258
10	0x3e14f81b	0.1454777
11	0xbea2e86c	-0.3181795
12	0x3dcd7e4c	0.10033855
13	0x3df16012	0.11785902
14	0xbe90621b	-0.2819985
15	0xbe531298	-0.20612562

node_encoder.2.weight f4 [16, 16]
0	0x3dae945c	0.08524391
1	0x3d7bf85d	0.061516155
2	0xbdc190d6	-0.094514534
3	0xbd9db199	-0.0769989
4	0x3e7d5392	0.24738911
5	0xbcad7f7a	-0.02117895
6	0x3def2b28	0.11678153
7	0x3db604a4	0.08887604
8	0xbe1595eb	-0.1460797
9	0xbe4b9994	-0.19882804
10	0x3e92b25d	0.28651705
11	0xbc2f4c4f	-0.010699346
12	0x3e21c08d	0.15796109
13	0x3d6518f1	0.05593199
14	0x3dcc0d90	0.09963524
15	0x3e4eab32	0.20182493
16	0x3e72be32	0.23705366
17	0xbe373d76	-0.17894539
18	0x3cc059d2	0.02348033
19	0x3e5c514b	0.21515386
20	0x3e305687	0.17220508
21	0x3e23375e	0.1593909
22	0xbe415563	-0.18880229
23	0xbe30a4ad	-0.17250319
24	0xbe29b2b8	-0.16572082
25	0x3cbc709a	0.023002911
26	0x3e8605d3	0.2617632
27	0xbe189bfd	-0.14903255
28	0x3df34185	0.11877731
29	0xbe1e061e	-0.15432021
30	0xbe785d03	-0.24254231
31	0xbd61aab4	-0.055094436
32	0x3e137ff0	0.14404273
33	0x3e5a2509	0.2130319
34	0xbe243647	-0.1603633
35	0x3d8b43e8	0.068000615
36	0x3e47a5ba	0.19496813
37	0x3e2c8f89	0.1685163
38	0x3e13a88b	0.14419763
39	0x3e380e1c	0.17974132
40	0x3e15746d	0.14595194
41	0x3d709fb7	0.058746066
42	0xbe0b3978	-0.13596141
43	0xbe5996e4	-0.21248966
44	0xbe024bbf	-0.12724207
45	0xbd41d6ae	-0.047323875
46	0xbe1ee237	-0.15515982
47	0x3db9230c	0.09039888
48	0x3d9e7530	0.077371955
49	0xbd5c7cc0	-0.05382991
50	0x3dd24e75	0.10268871
51	0x3dd50484	0.10401252
52	0x3e1733ec	0.147659
53	0x3e4bd68f	0.19906066
54	0xbdbf8149	-0.09350831
55	0x3e6e4da9	0.23271812
56	0xbcc639fd	-0.024197573
57	0xbb66a394	-0.0035192715
58	0xbe575632	-0.21028975
59	0xbe214d3c	-0.15752119
60	0xbe1315ee	-0.14363834
61	0xbde7471f	-0.11292862
62	0x3e49c9d4	0.19705898
63	0xbd6fa519	-0.05850706
64	0xbe3f4dd2	-0.1868203
65	0x3ddc5798	0.10758895
66	0x3dc6d3d2	0.0970837
67	0x3e10fbdb	0.14158575
68	0xbdf9822c	-0.121830314
69	0x3d633080	0.055466175
70	0xbd7a17ce	-0.06105786
71	0xbd0dac50	-0.034588158
72	0xbe38b592	-0.18038014
73	0xbdc96762	-0.09834172
74	0xbda49b08	-0.08037382
75	0x3dc455bf	0.09586667
76	0x3d97dafe	0.07414816
77	0x3db8e123	0.090273164
78	0x3e7e458f	0.24831222
79	0x3e7eaafc	0.24869913
80	0x3e2e9aa4	0.17051178
81	0x3c653e52	0.013991909
82	0xbe292092	-0.16516331
83	0x3e41d82b	0.18930118
84	0xbd5ac9cd	-0.05341511
85	0xbc8d56a1	-0.017253222
86	0xbe4e823a	-0.20166865
87	0xbd18e7de	-0.0373305
88	0xbe1cb37c	-0.15302843
89	0x3e72cfaf	0.23712038
90	0xbe5bd667	-0.21468507
91	0xbe55a9f6	-0.20865616
92	0x3b3db859	0.002894899
93	0xbe001e56	-0.12511572
94	0x3dc2ae61	0.095059164
95	0xbdbd5385	-0.09244446
96	0xbdf07ae4	-0.117421895
97	0x3cbf7819	0.023372697
98	0x3e40661d	0.18788953
99	0xbe23e487	-0.16005145
100	0x3df8f202	0.12155534
101	0x3e27b6cb	0.16378324
102	0x3e841c56	0.2580287
103	0xbe2cdcef	-0.16881154
104	0x3d8bc55b	0.06824752
105	0xbe378b94	-0.17924339
106	0x3e0fd07e	0.14044377
107	0xbd923464	-0.07138899
108	0x3e2772c0	0.16352367
109	0x3ca5c318	0.02023463
110	0xbcd5ac33	-0.026083088
111	0xb9cd9d6f	-0.00039217944
112	0x3d2e1308	0.04249862
113	0x3df926ea	0.121656254
114	0x3d275c38	0.04085943
115	0x3d58efb5	0.052962977
116	0xbe5d0089	-0.21582235
117	0x3e2668c2	0.162509
118	0x3e5a6e11	0.2133105
119	0x3e582624	0.211083
120	0x3e3f305f	0.18670796
121	0xbe368574	-0.17824346
122	0xbd6dafa7	-0.058028843
123	0x3e4cf350	0.20014691
124	0xbe4930a7	-0.19647466
125	0x3e6c4aa5	0.2307535
126	0xbe4cded7	-0.20006882
127	0xbe4286a1	-0.1899667
128	0x3dfa4e38	0.1222195
129	0xbe3d62cf	-0.18494724
130	0xbd850680	-0.064953804
131	0x3e29c81f	0.16580246
132	0x3e454330	0.19263911
133	0x3e5cdedb	0.21569388
134	0xbd4e7e1b	-0.050413232
135	0xbe44fe88	-0.19237721
136	0x3e7506ce	0.23928377
137	0xbd7dde59	-0.061979625
138	0xbe14ded8	-0.14538133
139	0x3d87df93	0.0663444
140	0xbe33bbb6	-0.17552075
141	0x3e254cd4	0.16142589
142	0x3e0e2ab7	0.13883482
143	0xbe5c23f5	-0.21498092
144	0xbe524576	-0.2053431
145	0xbcf358a7	-0.029705359
146	0x3dca51b1	0.09878863
147	0xbcc91efe	-0.024550911
148	0xbe060ffb	-0.13092034
149	0xbbd567aa	-0.006512602
150	0xbe6ada81	-0.22934915
151	0xbe2fc9db	-0.17166846
152	0xbe310a1c	-0.17289013
153	0x3e4a7f03	0.19775014
154	0x3e626280	0.22107887
155	0xbdd39faf	-0.103331916
156	0x3c5a1911	0.01331164
157	0x3de308e7	0.11085682
158	0x3c8b937f	0.017038105
159	0xbe0ce25d	-0.13758226
160	0x3e13a520	0.14418459
161	0x3e368d4e	0.17827341
162	0xbaab3f97	-0.0013065216
163	0xbd03dc6b	-0.03219263
164	0x3e81bfe3	0.2534171
165	0x3e653cdd	0.22386499
166	0xbe06ca2b	-0.13163058
167	0x3e718423	0.23585562
168	0x3da6757b	0.08127876
169	0xbe1b5700	-0.15169907
170	0x3e03cd1d	0.12871213
171	0xbe405f10	-0.18786263
172	0x3e7b7d75	0.24559577
173	0xbe0cff0d	-0.13769169
174	0x3dae7435	0.085182585
175	0x3db25d65	0.0870922
176	0x3d739108	0.059464484
177	0x3e50d7a4	0.2039476
178	0xbdd306e6	-0.1030405
179	0xbdc1cafa	-0.09462543
180	0xbe6edc45	-0.23326214
181	0x3c2e6401	0.01064396
182	0xbdcdd3ea	-0.10050185
183	0x3d11bc08	0.03557971
184	0xbd68e822	-0.056862004
185	0x3da92299	0.08258552
186	0x3e8ba3a0	0.27273273
187	0x3da97c2e	0.082756385
188	0xbda72cf5	-0.08162872
189	0xbe09a528	-0.13441908
190	0xbe545245	-0.20734508
191	0x3e6620a1	0.22473384
192	0xbd41fc98	-0.047360033
193	0x3d353172	0.044236608
194	0x3a179e5b	0.00057837897
195	0xbe3771ee	-0.17914554
196	0x3e14aefd	0.14519878
197	0x3dea02eb	0.11426338
198	0x3c00d866	0.007864093
199	0xbe162d06	-0.14665613
200	0xbde42127	-0.11139136
201	0xbb56b237	-0.0032760033
202	0xbe3c1e63	-0.18370967
203	0xbe0de1cf	-0.1385567
204	0xbd318233	-0.04333706
205	0xbd894ce1	-0.067041166
206	0x3d0e219c	0.03470002
207	0xbdb73f04	-0.08947566
208	0xbd07bea0	-0.03314078
209	0xbdce8561	-0.10084034
210	0xbe730aa9	-0.23734535
211	0x3e5a6c17	0.21330296
212	0x3d3b8a22	0.04578603
213	0x3e51bccf	0.20482181
214	0xbd4d6d0f	-0.050152835
215	0xbda023c2	-0.0781932
216	0xbe78af27	-0.24285565
217	0xbdd5d45a	-0.104408935
218	0x3de2449c	0.110482424
219	0xbe695808	-0.22787488
220	0xbdbf493d	-0.09340141
221	0x3e17a236	0.14807972
222	0x3e0a65ed	0.13515444
223	0x3dab7c3b	0.083733045
224	0xbd4ab220	-0.04948628
225	0xbc6c308e	-0.014415873
226	0xbd267fdb	-0.040649276
227	0xbda21fe2	-0.079162374
228	0x3dce8706	0.100843474
229	0xbd8abdd7	-0.0677449
230	0xbe13f8d4	-0.14450389
231	0x3d45f879	0.048332665
232	0xbe3264cb	-0.17421262
233	0xbd3b1f0c	-0.045683905
234	0x3e26609b	0.1624779
235	0x3dae0ffb	0.08499142
236	0x3e5b5e7e	0.21422765
237	0xbe2ad5dc	-0.16683143
238	0x3ca36614	0.019946136
239	0xbd65b163	-0.056077372
240	0xbe0f2f62	-0.13982919
241	0xbe1ef61d	-0.15523572
242	0x3d6d9540	0.058003664
243	0x3d63638c	0.055514857
244	0xbe13199b	-0.14365236
245	0xbe2132e6	-0.15742072
246	0xbe5d7518	-0.21626699
247	0x3e6dab5d	0.23209901
248	0xbd49d285	-0.049273033
249	0xbd835db5	-0.064143576
250	0xbdc610ab	-0.09671148
251	0xbdf08086	-0.11743264
252	0xbe6e214a	-0.23254886
253	0xbe1f61f7	-0.15564714
254	0x3e18f963	0.14938883
255	0x3d8299e8	0.063770115

node_encoder.2.bias f4 [16]
0	0xbda74d0f	-0.08168995
1	0xbdc00b3e	-0.09377144
2	0x3e234fc1	0.15948392
3	0x3e3a932b	0.18220203
4	0x3e835e90	0.25658083
5	0x3da580df	0.08081221
6	0x3e01d046	0.12677106
7	0xbc8c79bd	-0.017147893
8	0xbe1c53f4	-0.152664
9	0xbe7fd48b	-0.24983422
10	0x3e21e1ca	0.15808788
11	0xbcce78e4	-0.02520413
12	0x3dc56c87	0.096398406
13	0x3a8c8b41	0.0010722653
14	0xbe7048de	-0.23465297
15	0xbe054cb0	-0.13017535

node_encoder.3.weight f4 [16]
0	0x3f7d1e76	0.98874605
1	0x3f802acd	1.0013062
2	0x3f7d2f94	0.98900723
3	0x3f7ee215	0.99563724
4	0x3f7ff30a	0.99980223
5	0x3f801eb8	1.0009375
6	0x3f801936	1.0007694
7	0x3f802b4b	1.0013212
8	0x3f7f8a86	0.99820745
9	0x3f7fd2f7	0.9993128
10	0x3f7ec320	0.9951649
11	0x3f81f2ba	1.0152199
12	0x3f7eb7ee	0.99499404
13	0x3f80d189	1.0063945
14	0x3f7ccb7e	0.98748004
15	0x3f7ef448	0.99591494

node_encoder.3.bias f4 [16]
0	0x3bccfc10	0.006255634
1	0x3bb2c59e	0.0054556867
2	0xbc104610	-0.008805767
3	0xbab78391	-0.0014001002
4	0x3ba46c8e	0.0050178235
5	0x3bfea521	0.0077711497
6	0x3a80a184	0.000981376
7	0x39c97e99	0.0003843203
8	0xbb945f1f	-0.004527941
9	0x39afd552	0.00033537537
10	0xbb211291	-0.0024577717
11	0x3bdfc018	0.0068283193
12	0xbc05eab9	-0.008173638
13	0xbbe8d553	-0.0071055084
14	0x3c0905c6	0.008363193
15	0xbb79dbf0	-0.0038125478

edge_encoder.0.weight f4 [16, 4]
0	0x3e0adbcd	0.1356041
1	0x3acdb94b	0.001569548
2	0xbef735a8	-0.48283124
3	0x3e3140e6	0.17309913
4	0x3cdd20b7	0.026993139
5	0xbe7e82e6	-0.24854621
6	0x3e2c096e	0.16800472
7	0x3dc69900	0.09697151
8	0xbe67c14e	-0.22632334
9	0x3eda07f2	0.42584187
10	0x3e827848	0.25482392
11	0x3d823ae3	0.06358888
12	0xbdc4a920	-0.096025705
13	0xbed8d79a	-0.4235199
14	0x3ec5a6de	0.38603872
15	0xbe041dd8	-0.1290201
16	0xbe73459b	-0.23757021
17	0x3e9cdbe6	0.3063652
18	0x3e42f2b5	0.19037898
19	0x3ddc6c78	0.10762876
20	0xbe246335	-0.1605347
21	0xbe946f2f	-0.28991076
22	0x3d9d7593	0.07688441
23	0x3ec4ec40	0.38461494
24	0x3d84f97e	0.06492899
25	0xbe7abf8f	-0.24487136
26	0x3ef3fb40	0.47652626
27	0xba957fe9	-0.0011405918
28	0x3ecb2378	0.39675498
29	0x3e1779c2	0.1479254
30	0x3eed062b	0.46293768
31	0x3e88e4f2	0.2673717
32	0xbe828408	-0.25491357
33	0x3eb3d41c	0.35122764
34	0x3b52cd00	0.0032165647
35	0xbecd7ee2	-0.40135866
36	0xbdcc9fd5	-0.09991423
37	0xbef10b98	-0.47079158
38	0xbe8d0c92	-0.27548653
39	0xbeaa852c	-0.33304727
40	0x3ea267f6	0.3171994
41	0xbdd72158	-0.10504407
42	0xbdb0ec70	-0.08638847
43	0x3e5bfcc4	0.21483141
44	0x3e56e5c0	0.2098608
45	0xbee15434	-0.44009554
46	0x3e07578e	0.13216993
47	0x3e504d5a	0.20342007
48	0xbecb8c4a	-0.3975547
49	0x3ee5d58f	0.44889495
50	0xbeb65c08	-0.3561709
51	0xbdd39a6e	-0.103321895
52	0xbedafd06	-0.42771167
53	0x3ef0a4c4	0.47000706
54	0x3d7491a5	0.05970921
55	0x3ed5cf2d	0.41759625
56	0x3d05bc70	0.03265041
57	0x3e86aa19	0.2630165
58	0xbe237964	-0.15964276
59	0xbecc3b06	-0.3988878
60	0x3da7a6ae	0.081860885
61	0xbd0e1437	-0.034687247
62	0x3c6d2d0c	0.014476072
63	0xbe8093a0	-0.2511263

edge_encoder.0.bias f4 [16]
0	0xbb4fe0e9	-0.003171975
1	0x3e1631ab	0.14667384
2	0x3e3a4ba4	0.18192917
3	0xbece3976	-0.40278214
4	0x3e74e38d	0.23914929
5	0x3d3d2bb1	0.046184245
6	0x3eaf56d6	0.34245938
7	0x3eb56a76	0.35432786
8	0xbec99a90	-0.39375734
9	0x3ef93bf3	0.4867855
10	0xbf043973	-0.5165016
11	0x3e9340d0	0.28760386
12	0x3d4a36a6	0.049368523
13	0x3e683350	0.22675824
14	0xbe8eeb3f	-0.27913854
15	0x3e9afb4a	0.30269843

edge_encoder.2.weight f4 [16, 16]
0	0xbe083887	-0.13302813
1	0xbe64f713	-0.22359876
2	0x3dadf318	0.08493632
3	0x3e0c1fc0	0.13683987
4	0x3e7bfd39	0.24608316
5	0xbd23bc76	-0.039974652
6	0x3e75e2b1	0.24012257
7	0x3e232a1c	0.15934032
8	0xbdfdef00	-0.12399101
9	0xbe4b88ef	-0.19876455
10	0x3e2d285c	0.16909927
11	0xbe1023c9	-0.14076151
12	0x3dd89427	0.10575133
13	0xbe5f0485	-0.21779068
14	0x3e33fc05	0.17576607
15	0x3d9245d3	0.07142224
16	0xbc9814e1	-0.018564643
17	0x3dde5d6a	0.10857661
18	0xbe388be5	-0.18022116
19	0xbd5fda80	-0.054651737
20	0xbb33d292	-0.0027438742
21	0xbe2c1508	-0.16804898
22	0xbd86300b	-0.06552132
23	0xbdcd3eb2	-0.10021724
24	0x3e73fa2e	0.23825905
25	0x3e63b4da	0.22236958
26	0x3e529b11	0.20566966
27	0x3e53ae2f	0.20671915
28	0xbe61e5ce	-0.2206032
29	0x3da12fb6	0.07870428
30	0x3dd4a3a1	0.10382772
31	0xbe2e119f	-0.1699891
32	0x3d9ec79e	0.07752918
33	0xbe18f68f	-0.14937805
34	0x3d4b768f	0.049673613
35	0x3da996e4	0.08280733
36	0x3e5976be	0.21236703
37	0xbe19202e	-0.14953682
38	0xbe5210f4	-0.2051428
39	0x3e622f1d	0.22088285
40	0x3dd6ebd0	0.104941964
41	0x3de36ef3	0.11105146
42	0x3e000247	0.12500869
43	0xbdd75770	-0.10514724
44	0x3e348946	0.1763049
45	0xbe6f0904	-0.23343283
46	0x3d58bf0d	0.052916575
47	0x3ddca9b2	0.10774554
48	0x3e25cca9	0.16191353
49	0xbe0288e6	-0.12747535
50	0xbe1cdb09	-0.1531793
51	0x3dbfe9a8	0.09370738
52	0xbe3fde90	-0.18737245
53	0xbe54d632	-0.20784834
54	0xbe6516ed	-0.22372027
55	0xbdf33cc1	-0.11876822
56	0xbd437578	-0.04771945
57	0xbe1b355b	-0.15157072
58	0xbdb00b63	-0.08595922
59	0xbe672038	-0.22570884
60	0x3e310b9e	0.17289588
61	0xbd4d3612	-0.050100394
62	0xbe13b24e	-0.14423487
63	0x3d92fb2a	0.07176812
64	0xbe3b703f	-0.18304537
65	0x3e356241	0.17713262
66	0x3e0dda25	0.13852747
67	0xbe7b92fc	-0.24567789
68	0xbe4cc55d	-0.19997163
69	0xbe27937f	-0.16364859
70	0xbe097349	-0.13422884
71	0x3cfcb0ba	0.030845989
72	0xbe7d25b8	-0.2472142
73	0xbe383f44	-0.17992884
74	0x3dd2b638	0.10288662
75	0xbda21931	-0.07914961
76	0xbdd6d324	-0.10489491
77	0xbe59ac78	-0.21257198
78	0x3dbed045	0.09317068
79	0x3cabbab6	0.020963054
80	0xbdbd1692	-0.092328206
81	0xbe10548d	-0.14094754
82	0x3d3d0d0f	0.04615503
83	0x3d8b4f9c	0.06802294
84	0x3ddf5928	0.10905677
85	0x3dcd5bc1	0.10027266
86	0xbd0b4ea7	-0.034010556
87	0xbe48f2e4	-0.19623905
88	0x3e22f8c4	0.15915209
89	0xbad90281	-0.0016556532
90	0xbe26dc76	-0.16295037
91	0x3e645dc4	0.22301394
92	0x3decd635	0.11564294
93	0xbe4952b7	-0.1966046
94	0xbe0eba42	-0.13938239
95	0xbdc4cada	-0.09609003
96	0xbe1f2100	-0.15539932
97	0x3dc528b0	0.09626901
98	0xbe302cf8	-0.17204654
99	0x3e6deb20	0.23234224
100	0xbdd1c927	-0.10243445
101	0x3e07e5c1	0.13271238
102	0xbc102bb3	-0.008799481
103	0xbdf68bcf	-0.12038385
104	0x3e2af3d0	0.1669457
105	0xbe4ba9db	-0.19889013
106	0xbe0a968a	-0.13533989
107	0x3c3ffc7b	0.011717911
108	0x3e6344e6	0.22194251
109	0xbddeaf4f	-0.10873281
110	0xbe0baa2d	-0.13639136
111	0xbe229c00	-0.15879822
112	0xbddf27ea	-0.10896285
113	0xbdb47846	-0.08812003
114	0xbd9dbcff	-0.07702064
115	0xbe11a282	-0.14222148
116	0x3d744851	0.05963928
117	0xbcb68066	-0.022278022
118	0xbe286668	-0.16445315
119	0xbe145051	-0.14483763
120	0x3d58d588	0.052938014
121	0xbb0b65b9	-0.0021270348
122	0x3e27b685	0.1637822
123	0xbd13eab7	-0.036112513
124	0xbe66f0af	-0.22552751
125	0xbe50b6d7	-0.20382248
126	0xbda4b2d9	-0.08041925
127	0xbd588e84	-0.05287029
128	0x3d0b152c	0.033955738
129	0xbd4fd9ec	-0.050744936
130	0x3db6d364	0.08927038
131	0xbdaa486c	-0.083145946
132	0x3e3c01f0	0.18360114
133	0x3d871268	0.065953076
134	0xbd9bb646	-0.07603125
135	0x3e61a10e	0.22034094
136	0x3d82b5e4	0.06382349
137	0xbe2ba961	-0.16763832
138	0xbe161c37	-0.146592
139	0x3e26019e	0.16211554
140	0x3dcf898c	0.10133657
141	0x3e4a3a39	0.19748773
142	0xbd020f53	-0.031752896
143	0x3e343c5a	0.17601147
144	0x3df02e74	0.1172761
145	0x3d9a5ccc	0.07537231
146	0xbd3138af	-0.04326695
147	0x3e76c7f4	0.24099714
148	0x3d78d6aa	0.060751595
149	0xbda33690	-0.07969391
150	0x3b0615ca	0.0020459765
151	0x3e81cc1d	0.2535104
152	0x3e2bf150	0.16791272
153	0xbcaf26b4	-0.02138076
154	0x3e72fbb3	0.23728828
155	0x3ddb76e9	0.1071604
156	0xbddaf8fc	-0.10692021
157	0xbe61b876	-0.22043023
158	0x3e29059e	0.16506049
159	0x3e7a28a5	0.24429567
160	0xbe0702ae	-0.13184616
161	0x3de4c9dc	0.11171314
162	0x3a007fb0	0.00049018394
163	0xbd5af2f8	-0.05345437
164	0xbd94e87b	-0.07270905
165	0x3dac8d51	0.084253915
166	0x3d77bd7a	0.060483433
167	0x3e30b316	0.17255816
168	0x3dbb6e14	0.09151855
169	0x3df9f383	0.12204649
170	0x3e5c1bab	0.2149493
171	0x3db3b4ab	0.08774694
172	0x3c9f80f6	0.019470673
173	0xbdbc914a	-0.09207399
174	0x3e302819	0.17202796
175	0x3d12404d	0.035705853
176	0x3e0c78a5	0.13717897
177	0x3e5f83bd	0.21827598
178	0xbd35bab9	-0.044367526
179	0x3e343ff4	0.17602521
180	0xbd2c857e	-0.042119496
181	0x3e5a121b	0.21295969
182	0x3e36643f	0.17811678
183	0xbdd3ee06	-0.10348134
184	0x3c12e600	0.008965969
185	0xbe07caab	-0.13260905
186	0xbda22fc4	-0.07919267
187	0xbd9cdb56	-0.076590225
188	0x3c91655e	0.017748531
189	0xbda28168	-0.079348385
190	0xbe656e82	-0.22405437
191	0xbe28ea96	-0.16495737
192	0xbc9d4ae6	-0.019200753
193	0xbd9fd70c	-0.07804689
194	0x3e45d960	0.19321203
195	0x3e501764	0.20321423
196	0x3e2a06f5	0.16604216
197	0x3de0a369	0.10968668
198	0xbe47eb7c	-0.19523424
199	0x3e75b2df	0.23994015
200	0xbe6196fc	-0.22030252
201	0xbda59f18	-0.08086985
202	0xbe0af7de	-0.13571116
203	0x3dbc390c	0.09190568
204	0xbe529a35	-0.20566638
205	0xbded4f85	-0.11587433
206	0xbe29ede0	-0.16594648
207	0xbe1b4d49	-0.151662
208	0xbdc39605	-0.09550098
209	0x3e87989f	0.26483628
210	0xbcf74d28	-0.030188158
211	0x3d9c1278	0.0762071
212	0xbe7fe34e	-0.24989054
213	0x3e775a07	0.24155436
214	0xbd24bf7f	-0.040221687
215	0xbe5ff225	-0.21869715
216	0x3e306cc0	0.17228985
217	0xbd56d4f0	-0.052449167
218	0x3e3f7d39	0.18700112
219	0xbe19ef6e	-0.15032741
220	0xbe815532	-0.2526031
221	0xbe3cc91c	-0.18436092
222	0x3dc6bd74	0.09704104
223	0xbcd7244f	-0.02626243
224	0xbe65e92f	-0.22452234
225	0x3d6632b9	0.056200717
226	0xbca2357a	-0.01980089
227	0x3db8f854	0.0903174
228	0xbe01c749	-0.12673678
229	0xbe2abc4a	-0.16673389
230	0x3e35448c	0.1770193
231	0xbdf05ca5	-0.117364205
232	0x3e34144e	0.1758587
233	0x3e53e4a2	0.20692685
234	0xbe319b0a	-0.17344299
235	0xbdda802f	-0.1066898
236	0x3c4f71ac	0.012661379
237	0xbe6e6860	-0.23282003
238	0x3d922ce9	0.07137472
239	0xbdd995db	-0.10624286
240	0xbdf2421e	-0.11829017
241	0xbe5572fa	-0.20844641
242	0x3dfadfce	0.122497186
243	0xbe2322a0	-0.15931177
244	0xbe4b36d0	-0.19845128
245	0xbdc4bede	-0.096067175
246	0xbe14eeb5	-0.14544185
247	0xbe78f1bd	-0.24310966
248	0x3dce57e8	0.100753605
249	0xbdc79927	-0.09746008
250	0x3e2999cf	0.1656258
251	0x3e2ae1d0	0.16687703
252	0xbe16b9bc	-0.1471929
253	0xbe16dbba	-0.14732257
254	0xbdad86ca	-0.084729746
255	0x3e1b6280	0.15174294

edge_encoder.2.bias f4 [16]
0	0xbc5bde38	-0.01341968
1	0xbda9adbf	-0.082850926
2	0x3e1150d0	0.14190984
3	0x3e754c0a	0.23954788
4	0x3e3f2b7a	0.18668929
5	0xbe464207	-0.19361125
6	0xbd718259	-0.0589622
7	0xbd6244e4	-0.05524148
8	0x3e5cb59a	0.2155365
9	0xbdfcaa29	-0.12337143
10	0xbe0efe7c	-0.13964266
11	0xbbd14403	-0.0063862815
12	0xbd6302f7	-0.05542275
13	0x3dd52411	0.1040727
14	0x3d058ef4	0.032607034
15	0xbe186b3f	-0.14884661

edge_encoder.3.weight f4 [16]
0	0x3f804228	1.0020189
1	0x3f7cb660	0.9871578
2	0x3f7ea73b	0.99473923
3	0x3f806528	1.003087
4	0x3f7dd6a6	0.9915565
5	0x3f80032e	1.000097
6	0x3f801017	1.000491
7	0x3f7fe849	0.99963814
8	0x3f7c8286	0.9863666
9	0x3f7e56c4	0.99351144
10	0x3f8086dc	1.0041156
11	0x3f7b2afe	0.98112476
12	0x3f81447b	1.0099024
13	0x3f80429c	1.0020328
14	0x3f7d5d03	0.9897005
15	0x3f7e8aad	0.9943035

edge_encoder.3.bias f4 [16]
0	0xbb4044d7	-0.0029337907
1	0x3b4bd000	0.003109932
2	0xbc6a1915	-0.014288207
3	0x3c1b366f	0.009473427
4	0xba54f796	-0.00081240514
5	0xbab3f220	-0.0013728775
6	0xbb6fbdbd	-0.0036581599
7	0xbae67794	-0.0017583244
8	0xbc89f3b4	-0.01683984
9	0x3b91763d	0.004439144
10	0x3a04a00c	0.0005059249
11	0xbbc14969	-0.0058986438
12	0x3ba04520	0.004891053
13	0x3bd44777	0.006478246
14	0x3afeec7c	0.001944914
15	0x3bdf191d	0.0068084137

node_model.0.weight f4 [16, 48]
0	0x3df97f68	0.12182504
1	0x3dc9f2b1	0.09860743
2	0x3cb9073a	0.022586454
3	0xbe0ecc1c	-0.13945049
4	0x3d6e15b5	0.05812617
5	0x3dcff25b	0.101536475
6	0x3cf65829	0.030071335
7	0xbd74bd78	-0.059751004
8	0x3c842f85	0.01613594
9	0xbd43df0a	-0.04782013
10	0x3e0218f7	0.12704836
11	0x3e10b7a9	0.14132561
12	0xbd1dd677	-0.038534608
13	0xbdb2d799	-0.08732528
14	0x3dc37840	0.0954442
15	0x3dab81e2	0.083743826
16	0x3d828201	0.063724525
17	0xbdc64bca	-0.09682424
18	0x3d882721	0.06648088
19	0xbd9942e0	-0.074834585
20	0xbdf11301	-0.11771203
21	0xbdc3b6df	-0.09556364
22	0x3d8eed23	0.06978824
23	0x3d344265	0.04400863
24	0xbdf28652	-0.11842026
25	0x3d9a4342	0.0753236
26	0x3da772ad	0.081761695
27	0x3dd5cbbc	0.1043925
28	0x3d50dfaa	0.050994553
29	0xbd68ae5a	-0.0568069
30	0x3ddcb208	0.10776144
31	0x3df03e98	0.11730689
32	0x3dc26865	0.09492568
33	0xbddcb574	-0.10776797
34	0xbd1d0ae7	-0.038340475
35	0x3df84af5	0.12123672
36	0x3dcb9c4f	0.09941923
37	0x3d95dcc9	0.07317502
38	0xbd7e4738	-0.06207964
39	0xbcbccdaa	-0.023047287
40	0xbde335be	-0.11094235
41	0xbdbb307d	-0.09140108
42	0x3e1b841b	0.15187113
43	0xbde88bbf	-0.113547795
44	0xbcec1d8b	-0.028822681
45	0x3cd9bac4	0.026578315
46	0xbdc1fd62	-0.09472157
47	0x3ce9f6c4	0.02856005
48	0xbcb4c06f	-0.022064416
49	0x3d48136c	0.048846647
50	0xbdd66898	-0.104691684
51	0x3cf9eda9	0.030508833
52	0xbe0136b1	-0.1261852
53	0x3dbede0a	0.09319694
54	0x3e110617	0.1416248
55	0xbd0d6b5a	-0.034526207
56	0x3ade5bdb	0.0016964631
57	0xbdb0b005	-0.08627323
58	0xbdabbfca	-0.0838619
59	0xbdb43e5d	-0.08800957
60	0xbd8f631c	-0.070013255
61	0x3cc14c34	0.023595907
62	0xbca01fce	-0.019546416
63	0x3c52c53f	0.01286441
64	0xbddac700	-0.106824875
65	0xbdb9c855	-0.090714134
66	0xbe048b24	-0.12943703
67	0xbdc71db8	-0.09722465
68	0x3dc87011	0.09787
69	0x3d6cfe4f	0.057859715
70	0xbe1e8839	-0.15481652
71	0xbce1ba51	-0.027554663
72	0x3b9aa345	0.0047191703
73	0x3da9c9d6	0.0829045
74	0x3e246073	0.16052417
75	0x3d48e3b8	0.049045295
76	0x3dd43f4b	0.10363635
77	0xbd39b454	-0.04533799
78	0xbc1cee39	-0.009578281
79	0xbda2eb90	-0.07955086
80	0x3d36b900	0.044610023
81	0x3dfe8f66	0.12429695
82	0x3d99f2b2	0.075169936
83	0x3e28444e	0.16432306
84	0xbdbb9ea2	-0.09161116
85	0xbce3884f	-0.027774958
86	0x3c351bcd	0.0110539915
87	0x3df4ea87	0.11958795
88	0xbe0437ab	-0.1291186
89	0xbdabb460	-0.08384013
90	0x3d053cfe	0.03252887
91	0xbdad3417	-0.08457201
92	0x3d58bc7b	0.052914124
93	0x398ffe50	0.00027464563
94	0xbd4174f3	-0.047230672
95	0x3db1a307	0.08673673
96	0x3dc2d9e5	0.09514216
97	0x3e043f86	0.12914857
98	0x3d97a79b	0.07405015
99	0x3c188003	0.009307864
100	0x3dfc341a	0.12314625
101	0x3e0cc012	0.13745144
102	0xbd990af9	-0.07472796
103	0x3da6adf5	0.081386484
104	0xbb3dd50c	-0.0028966097
105	0xbd969236	-0.07352106
106	0xbcd5b3aa	-0.026086647
107	0xbd2e38f2	-0.042534776
108	0xbdc5849c	-0.09644434
109	0xbd6133cd	-0.05498104
110	0x3d30d1cd	0.04316883
111	0x3deecedf	0.11660551
112	0x3b2744bf	0.0025523154
113	0xbe1afea2	-0.15136197
114	0x3dafc635	0.08582727
115	0xbcfac50a	-0.030611534
116	0x3e0a0c8b	0.13481347
117	0xbded90fc	-0.11599919
118	0xbd0d62e1	-0.034518126
119	0x3e0350aa	0.1282374
120	0x3d2dfe59	0.042478893
121	0xbdabf531	-0.08396376
122	0xbdedceef	-0.11611735
123	0xbca8ffa7	-0.020629717
124	0x3d7aae0f	0.06120115
125	0xbe05f114	-0.13080245
126	0xbe0177c0	-0.12643337
127	0x3bfff8ec	0.007811656
128	0xbcbd06ea	-0.023074586
129	0x3e07fc1e	0.13279769
130	0xbe071577	-0.13191782
131	0xbd63713b	-0.055527907
132	0xbdfdc834	-0.12391701
133	0xbc91d458	-0.017801449
134	0xbda77fde	-0.081786856
135	0x3cf49e9d	0.029860789
136	0xbdf2a9ea	-0.11848815
137	0xbde16917	-0.110063724
138	0xbd8be724	-0.06831196
139	0xbe08cb7d	-0.13358875
140	0x3dce617f	0.1007719
141	0xbbd4a27d	-0.0064890967
142	0xbdb5cd7b	-0.08877083
143	0x3dde066c	0.108410686
144	0xbd74c31f	-0.059756394
145	0x3d4cd164	0.050004378
146	0xbcbda3a0	-0.023149312
147	0xbdcde7f4	-0.10054007
148	0x3d45f4d7	0.0483292
149	0x3e0a5456	0.13508734
150	0xbdf5edb8	-0.12008232
151	0x3d4c67a5	0.04990353
152	0x3ccd5f2f	0.025069801
153	0xba018c33	-0.0004941851
154	0x3c502523	0.012704167
155	0xbd8f856e	-0.070078716
156	0xbda9d202	-0.08292009
157	0xbc48068f	-0.012208595
158	0xbdee539f	-0.11637043
159	0xbe0bfa22	-0.13669637
160	0xbd2efcb8	-0.04272148
161	0xbd9c1ccc	-0.0762268
162	0x3cf8a1e8	0.03035064
163	0x3de8e10c	0.11371049
164	0x3ded2892	0.11580004
165	0xbd3da459	-0.046299312
166	0x3d55d14d	0.052201558
167	0x3dd7056c	0.10499081
168	0x3a98cb07	0.0011657187
169	0x3d75bcf8	0.059994668
170	0x3d8f47c9	0.06996114
171	0x3e18638e	0.14881727
172	0x3d4e0050	0.050293267
173	0x3d8b3364	0.06796911
174	0xbd88600f	-0.06658947
175	0xbdb693c2	-0.08914901
176	0xbd97af04	-0.074064285
177	0x3e068a91	0.13138796
178	0xbd191c84	-0.03738071
179	0x3ce961c1	0.028488996
180	0xbe3411f8	-0.1758498
181	0x3c5ab004	0.013347629
182	0xbd9f2cbe	-0.07772206
183	0xbd79b4e3	-0.060963523
184	0x3de8190a	0.11332901
185	0xbe244823	-0.16043143
186	0xbd519e1e	-0.051176183
187	0xb9ace3fa	-0.00032976252
188	0xbe1925bd	-0.14955802
189	0x3da7fcad	0.08202491
190	0xbcad5664	-0.021159358
191	0x3d3a30a6	0.04545655
192	0x3dbaad5f	0.09115099
193	0x3e0d1cf5	0.13780577
194	0x3cce2f20	0.025168955
195	0x3dc86288	0.09784418
196	0x3dfbbcd8	0.122918785
197	0x3c936168	0.017990783
198	0xbd233a7a	-0.03985069
199	0xbd50d6d8	-0.05098614
200	0x3ce8fa51	0.028439673
201	0x3d7fc1ee	0.062440805
202	0xbe161649	-0.14656939
203	0x3dcc23bf	0.099677555
204	0x3c45fdd1	0.01208444
205	0xbdfdc124	-0.12390354
206	0x3d684943	0.056710493
207	0x3dd0c744	0.10194257
208	0x3d32037a	0.043460347
209	0x3ddbf1f2	0.10739507
210	0x3c5ef547	0.013608283
211	0xbe056613	-0.1302722
212	0xbc341632	-0.01099162
213	0x3dc1ab63	0.094565175
214	0xbd72520f	-0.05916029
215	0x3d508ffd	0.050918568
216	0x3d33a677	0.043859925
217	0xbd0c6284	-0.03427364
218	0x3c49e1ae	0.012321873
219	0x3d51d440	0.051227808
220	0xbdb5935d	-0.08865998
221	0x3da4dfea	0.08050521
222	0x3ddd7633	0.1081356
223	0x3dbc00c6	0.09179835
224	0x3e1ea41c	0.1549229
225	0xbc8b101b	-0.016975453
226	0xbdbd6287	-0.09247308
227	0x3ce310b3	0.027717924
228	0xbd047042	-0.03233362
229	0x3d24ff12	0.040282317
230	0x3de3b006	0.11117558
231	0xbdb6f29a	-0.08932991
232	0x3c88d546	0.01670326
233	0x3e1a2479	0.15052976
234	0xbdd6401e	-0.10461448
235	0xbd111c5c	-0.035427436
236	0x3e1a47e4	0.15066487
237	0x3de4fd28	0.11181098
238	0x3d006a85	0.031351585
239	0xbd53a531	-0.05167121
240	0xbc868061	-0.016418638
241	0xbe14c3cd	-0.14527817
242	0xbdf97b00	-0.121816635
243	0xbdf5fdda	-0.12011309
244	0x3e16b3e5	0.14717062
245	0x3dd52ad2	0.10408558
246	0x3d8c4011	0.06848157
247	0xbc909f00	-0.017653942
248	0x3dd1442b	0.1021808
249	0xbd621a98	-0.055201143
250	0x3de8c577	0.113657884
251	0xbca8a19b	-0.020584872
252	0xbd72ab9e	-0.0592457
253	0xbd624652	-0.055242844
254	0xbd238988	-0.039926082
255	0xbe0e8e70	-0.13921523

node_model.0.bias f4 [16]
0	0xbd8ff0e1	-0.07028366
1	0x3d8fdc38	0.07024425
2	0x3d2e0b6c	0.04249136
3	0x3dda68a6	0.10664491
4	0xbc9c5156	-0.019081753
5	0x3db410c7	0.087922625
6	0x3c1ef5c3	0.009702149
7	0xbca2234b	-0.01979222
8	0x3a4804fa	0.0007630136
9	0xbe275aea	-0.16343275
10	0xbc90ae59	-0.01766126
11	0xbd4191ee	-0.04725831
12	0xbd4158d0	-0.04720384
13	0xbd46e779	-0.048560593
14	0xbccb9c0b	-0.02485468
15	0xbdfa599c	-0.12224123

node_model.2.weight f4 [16, 16]
0	0xbbfcaf7f	-0.0077113505
1	0xbd830d47	-0.06399017
2	0xbd6c6713	-0.057715487
3	0x3e124ef5	0.14287932
4	0x3e3639ad	0.17795439
5	0x3d1cf68b	0.03832106
6	0xbe24436f	-0.16041349
7	0xbd143577	-0.0361838
8	0xbe78cff8	-0.24298084
9	0x3e1bf692	0.15230778
10	0x3e70175d	0.23446412
11	0xbd8748ba	-0.06605668
12	0x3e0a5ae2	0.13511232
13	0x3e1be2d5	0.15223248
14	0xbcbd8524	-0.023134775
15	0xbdc45f77	-0.09588521
16	0x3ccef42c	0.025262915
17	0x3dac0c26	0.08400755
18	0xbe5eab78	-0.21745098
19	0xbd0e857b	-0.034795266
20	0xbda43498	-0.08017844
21	0x3e43aaea	0.19108167
22	0xbce1e5e1	-0.027575435
23	0x3e339d8a	0.17540565
24	0x3e80f57d	0.25187293
25	0xbdc78203	-0.09741595
26	0x3cfbc0aa	0.030731518
27	0x3c619a92	0.013769763
28	0xbda5d105	-0.08096508
29	0xbe3a8802	-0.18215945
30	0x3c0dc7cd	0.008653593
31	0x3d74dc0d	0.05978017
32	0xbd1a16be	-0.037619345
33	0x3da89b51	0.08232749
34	0x3e39bfbc	0.18139547
35	0x3e078457	0.13234077
36	0x3dcba5f7	0.09943765
37	0x3dcde3c4	0.100532085
38	0xbe2ff694	-0.17183906
39	0xbe12b4cf	-0.14326786
40	0xbe13559c	-0.14388126
41	0x3e26a8a0	0.16275263
42	0xbe492168	-0.1964165
43	0xbe28f6f9	-0.16500463
44	0x3e51e119	0.20496024
45	0x3e2cdafb	0.1688041
46	0xbe77351f	-0.24141358
47	0x3e1d3712	0.15353039
48	0xbd20ad30	-0.039227664
49	0x3db26f04	0.08712581
50	0xbe17c546	-0.14821348
51	0xbd930bf9	-0.07180018
52	0x3d883183	0.066500686
53	0x3e6af24f	0.22943996
54	0x3dd4d11b	0.10391446
55	0xbe407063	-0.18792872
56	0xbe2679e6	-0.16257438
57	0xbd0ea609	-0.034826312
58	0x3dc9b2de	0.09848569
59	0x3e1dda0a	0.15415207
60	0xbe769c6b	-0.24083106
61	0xbdb1ed7d	-0.086878754
62	0x3bdc1652	0.006716528
63	0xbdd0d816	-0.10197465
64	0x3e537c36	0.20652851
65	0xbd0f34e0	-0.034962535
66	0xbe6d7e05	-0.23192604
67	0xbdff1b1c	-0.124563426
68	0x3cc69eb8	0.024245605
69	0xbdea9e3b	-0.11455961
70	0x3d831dd5	0.064021744
71	0x3e629773	0.22128086
72	0x3d30d2ca	0.043169774
73	0xbd783057	-0.060592975
74	0x3e7bff70	0.2460916
75	0x3e72c29d	0.23707052
76	0x3e5f0309	0.21778502
77	0xbba228bd	-0.004948704
78	0x3ca5bd5a	0.020231891
79	0xbe379dc8	-0.17931283
80	0x3d02ab3d	0.031901587
81	0x3e85aa9e	0.26106733
82	0x3afdff76	0.0019378501
83	0xbe842121	-0.25806525
84	0x3e16cf66	0.14727554
85	0x3e80c705	0.2515184
86	0x3e2948f2	0.16531733
87	0xbccfecc6	-0.025381457
88	0x3d1f2ab6	0.03885909
89	0x3cb07ff0	0.02154538
90	0xbdc53b60	-0.096304655
91	0xbcfa757f	-0.030573605
92	0x3e5091b4	0.20368081
93	0xbcf3d5ea	-0.029765088
94	0x3e6de832	0.23233107
95	0xbe1c90e8	-0.15289652
96	0xbd3adef3	-0.045622777
97	0x3dbbbe49	0.091671534
98	0xbe2a11af	-0.16608308
99	0x3e618117	0.220219
100	0x3e2d8afd	0.16947551
101	0xbda8d883	-0.08244421
102	0x3e6b37c1	0.22970487
103	0x3e7a28bd	0.24429603
104	0xbdc226d7	-0.09480064
105	0xbc05ca7f	-0.008165955
106	0x3e8229eb	0.25422606
107	0xbdfd7116	-0.12375085
108	0x3d2252de	0.03962981
109	0xbe427668	-0.18990481
110	0x3e3d221d	0.18470044
111	0x3d365909	0.044518504
112	0x3e05b666	0.1305786
113	0x3e19a703	0.15005116
114	0xbcfeb2d9	-0.03109114
115	0xbe565109	-0.2092935
116	0x3acf0c74	0.0015796558
117	0xbd91cba9	-0.07118923
118	0x3e15ab6c	0.14616174
119	0x3e385c06	0.18003854
120	0xbde35476	-0.11100094
121	0xbda1d8ea	-0.07902701
122	0x3e1541c8	0.14575875
123	0x3d3993da	0.045307018
124	0x3d47ab89	0.048747573
125	0x3e471743	0.19442467
126	0x3df83e21	0.12121225
127	0xbe408b6a	-0.18803182
128	0x3c2c488b	0.0105153425
129	0x3da62222	0.08111979
130	0xbe7fa502	-0.24965289
131	0x3d47f638	0.048818797
132	0x3c061ad7	0.00818511
133	0x3e64da6c	0.22348946
134	0xbe6ad9f5	-0.22934707
135	0x3e72d428	0.23713744
136	0xbde16fd1	-0.110076554
137	0x3e088c17	0.1333469
138	0x3e5570f0	0.20843863
139	0xbc87d1e1	-0.01657957
140	0xbd935d5d	-0.07195542
141	0xbda20b5e	-0.07912324
142	0xbe1c5b90	-0.15269303
143	0x3d2d0214	0.04223831
144	0x3dd684c9	0.104745455
145	0x3ba5901c	0.0050525796
146	0xbdca65de	-0.09882711
147	0x3e0f8735	0.14016421
148	0x3e6053ef	0.21907018
149	0xbe046c06	-0.12931833
150	0x3df4ac3d	0.11946914
151	0xbd115e04	-0.03549005
152	0x3d75f36f	0.06004661
153	0xbe258706	-0.16164789
154	0xbe469c5a	-0.19395581
155	0xbd0e13b2	-0.03468675
156	0xbe7d7685	-0.24752243
157	0x3df03f27	0.11730795
158	0x3e6d4c95	0.23173745
159	0xbd30d4aa	-0.043171562
160	0xbc95fab0	-0.018308014
161	0xbcf4edc3	-0.02989853
162	0xbe04fab4	-0.1298626
163	0xbc7df95e	-0.015501348
164	0x3d56b629	0.052419815
165	0x3e30307e	0.17205998
166	0xbe43504c	-0.190736
167	0x3cbf74a5	0.02337105
168	0xbe7059be	-0.23471734
169	0xbbeda8f0	-0.007252805
170	0xbca66f36	-0.020316701
171	0xbe158b93	-0.14604025
172	0x3e03b36c	0.12861413
173	0x3e5b5dc3	0.21422486
174	0xbdd31090	-0.103058934
175	0xbd4e22b2	-0.050326057
176	0xbd8a5efb	-0.06756397
177	0x3cb32e13	0.021872556
178	0x3de6a439	0.11261792
179	0x3e75cd3b	0.2400407
180	0xbe61294b	-0.21988408
181	0x3de6ccb5	0.112695135
182	0xbdf10087	-0.11767679
183	0xbe2a214f	-0.16614269
184	0x3e5896d5	0.21151288
185	0xbd94f307	-0.07272916
186	0xbe134d65	-0.14384992
187	0x3da07da9	0.07836468
188	0xbd2d2718	-0.04227361
189	0xbe2b00e6	-0.16699561
190	0xbe095090	-0.13409638
191	0xbddd064e	-0.10792218
192	0xbd1c895a	-0.038216926
193	0xbe4fbda7	-0.2028719
194	0xbe8898b6	-0.2667901
195	0x3e23a65c	0.1598143
196	0xbe6644b4	-0.22487146
197	0xbd84b1d4	-0.064792305
198	0x3e7a6b2b	0.24454944
199	0xbd8235f8	-0.0635795
200	0xbe45ece8	-0.19328654
201	0x3daf8e92	0.08572115
202	0x3e555d88	0.2083646
203	0xbd69abc9	-0.057048593
204	0xbcffbbd0	-0.031217486
205	0x3e304692	0.1721442
206	0x3d08160f	0.03322416
207	0x3d254272	0.04034657
208	0x3e036b04	0.12833792
209	0x3d889626	0.066692635
210	0xbe63fbf4	-0.22264081
211	0xbe0122fc	-0.12611002
212	0x3e22c0ae	0.15893814
213	0xbcc43044	-0.023948796
214	0x3d0f3f97	0.034972753
215	0x3e785989	0.24252905
216	0x3de3be44	0.11120275
217	0x3de59033	0.112091444
218	0x3e652ef7	0.22381197
219	0xbe87e371	-0.26540712
220	0xbc44d830	-0.012014434
221	0x3de1731a	0.11008282
222	0xbd257859	-0.040397976
223	0xbe026b25	-0.12736185
224	0x3d7adf52	0.06124813
225	0xbe131778	-0.14364421
226	0xbde6b28a	-0.112645224
227	0x3e79bcba	0.243884
228	0xbda52ef7	-0.080655985
229	0x3caa51f0	0.020791024
230	0x3e17c1ab	0.14819972
231	0xbda85118	-0.082185924
232	0x3dbf62b2	0.093449965
233	0xbe6f5ca3	-0.23375182
234	0x3e01007d	0.12597843
235	0xbe37c9f6	-0.17948136
236	0x3dbe564c	0.092938036
237	0xbe5dd14b	-0.2166187
238	0xbe58d7f8	-0.21176136
239	0x3e3fbd2a	0.18724504
240	0xbd8432b1	-0.06454981
241	0xbcf4755e	-0.029841121
242	0x3c20345a	0.009778107
243	0x3e7dac89	0.24772848
244	0x3d8cd897	0.06877249
245	0x3dd2e511	0.10297597
246	0xbdb47d31	-0.08812941
247	0xbd914106	-0.0709248
248	0x3e45c651	0.19313933
249	0x3ddc1327	0.107458405
250	0x3d1dac9e	0.0384947
251	0xbe4001a6	-0.18750629
252	0xbe4a8ea0	-0.1978097
253	0x3db8e8e7	0.090287976
254	0xbe1ca571	-0.15297486
255	0x3e2325a7	0.15932332

node_model.2.bias f4 [16]
0	0x3e13edbc	0.14446157
1	0xbdd9fca1	-0.10643888
2	0xbe09ca90	-0.13456178
3	0x3e531356	0.20612845
4	0xbdd989bb	-0.10621973
5	0xbe6d0fb6	-0.23150524
6	0xbe1d6178	-0.15369213
7	0x3da9c25e	0.08289026
8	0x3d5f38d5	0.05449756
9	0x3e11ede2	0.14250901
10	0x3e4b71ad	0.19867583
11	0x3e03ae6e	0.12859508
12	0x3d45fe08	0.048337966
13	0x3e4764c7	0.19472037
14	0xbd7b9473	-0.06142087
15	0xbccee882	-0.025257353

node_model.3.weight f4 [16]
0	0x3f749cd4	0.955518
1	0x3f8e46e3	1.1115383
2	0x3f84900b	1.0356458
3	0x3f894db6	1.072684
4	0x3f807f1a	1.0038788
5	0x3f8d6212	1.1045554
6	0x3f8138f9	1.0095512
7	0x3f960645	1.1720663
8	0x3f90b382	1.1304781
9	0x3f920688	1.1408243
10	0x3f81c2c4	1.0137563
11	0x3f8a14ea	1.0787632
12	0x3f8f1567	1.1178406
13	0x3f8d5eac	1.1044517
14	0x3f8c67c9	1.0969173
15	0x3f812742	1.0090106

node_model.3.bias f4 [16]
0	0xbd346f63	-0.04405154
1	0xbda45349	-0.08023698
2	0xbd55b793	-0.052177023
3	0xbd8e47ae	-0.069472656
4	0xbd86e34d	-0.06586323
5	0xbdb158b8	-0.086595
6	0xbd760379	-0.060061906
7	0x3db42a6c	0.08797154
8	0xbd9da2f5	-0.07697097
9	0x3deee2f2	0.1166438
10	0x3d08ccf3	0.03339858
11	0xbd3646af	-0.044501003
12	0x3d82dada	0.06389399
13	0x3db1818c	0.08667287
14	0xbde69f35	-0.11260835
15	0x3c3d247f	0.011544346

edge_model.0.weight f4 [16, 96]
0	0x3db85980	0.09001446
1	0xbce41263	-0.027840799
2	0x3d4dc20d	0.05023389
3	0x3c801f76	0.015640002
4	0x3d09b6a3	0.03362144
5	0xbd397d8e	-0.045285754
6	0xbdb6d393	-0.08927073
7	0x3d72017e	0.059083454
8	0x3db5e990	0.08882439
9	0xbd99dbd7	-0.07512634
10	0xbd50d4c4	-0.05098416
11	0x3cd8b0d5	0.026451508
12	0x3d326672	0.04355473
13	0xbbbff392	-0.0058578933
14	0xbd2cbee8	-0.04217425
15	0x3da06774	0.07832232
16	0xbd4ea395	-0.050448973
17	0x3da4b98b	0.08043202
18	0x3c2511bb	0.010075028
19	0x3d31b81a	0.043388464
20	0x3d03b7ea	0.032157816
21	0x3c077908	0.008268602
22	0x3dcad8e6	0.09904651
23	0xbb7a7caa	-0.0038221278
24	0x3d9f16c7	0.07768016
25	0x3cfd0961	0.030888261
26	0xbd5f0ce2	-0.054455645
27	0x3d2fdd10	0.04293543
28	0xbd81f9e1	-0.06346489
29	0x3d5941fc	0.053041443
30	0xbcac2e35	-0.021018127
31	0x3ccaae3a	0.02474128
32	0xbb4e30b6	-0.003146214
33	0x3cc76d89	0.024344223
34	0xbd0d3d62	-0.034482367
35	0x3d1aa4b7	0.03775474
36	0x3d31794f	0.04332858
37	0xbdf3d59c	-0.11905977
38	0x3daee225	0.085392274
39	0xbd9e39f2	-0.07725896
40	0xbd3cb3c2	-0.046069868
41	0x3d2d0623	0.04224218
42	0x3dbadecf	0.091245286
43	0x3c9dc48c	0.01925876
44	0xbd8550b5	-0.06509534
45	0x3cce436a	0.02517863
46	0xbd65711c	-0.056016073
47	0x3d5334d8	0.051564068
48	0x3b89372f	0.0041874866
49	0xbb73f735	-0.0037226204
50	0xbd95b6ef	-0.073102824
51	0x3d3bcc36	0.045849048
52	0x3de25c80	0.11052799
53	0xbdbc1910	-0.09184468
54	0x3d8b3cc8	0.067987025
55	0xbce9316f	-0.028465955
56	0xbca101b0	-0.019654125
57	0x3db3a89f	0.08772396
58	0xbdcece04	-0.10097888
59	0xbd7fa0f0	-0.06240934
60	0x3d349ef4	0.044096902
61	0x3d44c78e	0.048041873
62	0xbd1b8c30	-0.03797549
63	0xbd8096b0	-0.06278741
64	0x3c708d6a	0.014682153
65	0xbda26873	-0.07930078
66	0x3bb90aaf	0.0056470255
67	0xbd9059b3	-0.07048359
68	0xbd079665	-0.03310241
69	0x3dc2632c	0.09491572
70	0xbda02d69	-0.07821161
71	0xbd3f84d7	-0.046757545
72	0xbda81fb7	-0.08209174
73	0x3d75f3d5	0.06004699
74	0x3daa189f	0.08305477
75	0xbd5ac5cd	-0.053411294
76	0x3d800e5c	0.06252739
77	0x3d93b75c	0.072127074
78	0xbdb45751	-0.08805717
79	0x3d19ee22	0.037580617
80	0x3d44d3a7	0.04805341
81	0xbc7ccda7	-0.015429891
82	0x3d8b5c0c	0.06804666
83	0xbc97361e	-0.018458422
84	0xbc6816ff	-0.014165639
85	0x3d5e7442	0.05431009
86	0xbdc6bcce	-0.097039804
87	0xbddb015e	-0.1069362
88	0x3caf8792	0.02142695
89	0x3caa4e70	0.020789355
90	0x3cc75944	0.024334557
91	0xbd8c1ce3	-0.06841447
92	0x3db0e37b	0.086371385
93	0xbd77bbe1	-0.06048191
94	0xbd76b1b0	-0.06022805
95	0xbda7f3e0	-0.08200812
96	0xbdccda74	-0.10002604
97	0x3ceb0dc3	0.028693086
98	0xbd3b46ed	-0.045721937
99	0x3d69d9ee	0.0570926
100	0x3dbfe075	0.09368984
101	0x3d07880d	0.033088733
102	0x3db1d8d5	0.086839356
103	0xbd9c80a4	-0.07641724
104	0x3d8ac044	0.06774953
105	0x3d812043	0.063049816
106	0xbd3c5f76	-0.045989476
107	0xbc3bc25a	-0.011459911
108	0xbd774d45	-0.060376424
109	0x3c3ec724	0.0116441585
110	0xbdc03f4b	-0.09387072
111	0xbd6c66c8	-0.057715207
112	0xbdb6a7f8	-0.08918756
113	0xbc1c798c	-0.009550463
114	0x3c41367b	0.011792774
115	0xbda525d8	-0.08063859
116	0xbd110eed	-0.035414625
117	0x3d3abc30	0.045589626
118	0x3be6bf7c	0.0070418697
119	0xbcdaa23a	-0.026688684
120	0xbd1d637a	-0.038424946
121	0xbcfbe253	-0.030747568
122	0xbdc4e58d	-0.09614096
123	0x3de0f3b5	0.109839834
124	0x3be48ef7	0.0069750505
125	0x3d069e0b	0.032865565
126	0x3d82cc2d	0.063866
127	0x3db9f78f	0.09080421
128	0xbd70411b	-0.05865584
129	0x3d045c02	0.032314308
130	0xbdbdac05	-0.09261326
131	0x3d0c3fb0	0.034240425
132	0xbd71f12c	-0.05906789
133	0x3ca74a94	0.020421304
134	0xbda5d5d4	-0.08097425
135	0x3d66c9f0	0.056344926
136	0x3d939b89	0.072074
137	0x3d6f5219	0.058427904
138	0xbdb6b404	-0.08921054
139	0x3d824e15	0.06362549
140	0xbd9b92ee	-0.07596384
141	0xbdb7ffe1	-0.08984352
142	0x3d952fbf	0.072844975
143	0x3cd21531	0.02564487
144	0xbd3729a4	-0.044717446
145	0xbd90a5fc	-0.07062909
146	0x3cd480b0	0.02594027
147	0xbd30e6e6	-0.043188952
148	0xbda54d4f	-0.08071386
149	0xbd44eff9	-0.04808042
150	0xbdb99385	-0.0906134
151	0x3c908a64	0.017644115
152	0xbd81b32e	-0.06333004
153	0xbc9e9461	-0.019357862
154	0xbe19737a	-0.14985457
155	0x3d0fd6f5	0.03511711
156	0xbd7b3c36	-0.06133672
157	0x3d1ade08	0.0378094
158	0xbc551459	-0.01300534
159	0x3de2fac3	0.11082985
160	0x3da499ad	0.08037124
161	0x3cf7b314	0.030236758
162	0xbd1b74f5	-0.037953336
163	0xbda6d607	-0.08146291
164	0xbd874cf9	-0.06606478
165	0xbd08f721	-0.033438805
166	0xbd800c2e	-0.06252323
167	0x3d69c991	0.057076994
168	0xbd21aad5	-0.03946956
169	0x39a15b73	0.00030776448
170	0x3bb9b5ed	0.005667439
171	0xbdd1e4bb	-0.10248705
172	0x3d895b66	0.06706886
173	0xbd0ba3c6	-0.034091733
174	0xbd5e3c96	-0.054256998
175	0x3b56eced	0.0032795027
176	0xbdb11251	-0.08646072
177	0xbc319442	-0.01083857
178	0xbd860eef	-0.06545817
179	0xbce2815a	-0.02764957
180	0xbd05d93f	-0.032677885
181	0x3d8238da	0.063585
182	0x3d9fc379	0.07800955
183	0x3dc44a0c	0.09584436
184	0x3c98d03b	0.01865398
185	0x3d9606f3	0.07325544
186	0xbda647cb	-0.08119162
187	0xbd974fcd	-0.07388268
188	0x3d8ae2c5	0.06781534
189	0x3cea2cfb	0.028585901
190	0x3ccdf420	0.025140822
191	0x3d823ead	0.06359611
192	0x3d9f1fa3	0.07769706
193	0x3d6f8514	0.058476523
194	0xbd4621c1	-0.048372034
195	0xbd26693b	-0.0406277
196	0x3c83c576	0.016085368
197	0x3d6d20d5	0.05789264
198	0xbc471f2e	-0.01215343
199	0xbd510830	-0.0510332
200	0x3d49a607	0.0492306
201	0x3d9b4ab6	0.07582609
202	0xbba1a4b1	-0.004932963
203	0xbc518669	-0.012788394
204	0xbdf2555f	-0.118326895
205	0x3cba0a66	0.022710036
206	0x3d1e5f8c	0.03866534
207	0xbd8d0cc7	-0.06887203
208	0xbd950381	-0.07276059
209	0xbde454f3	-0.11149015
210	0x3d99c736	0.075086996
211	0x3dc0aa30	0.09407461
212	0x3dcf273d	0.10114906
213	0x3d8fe15a	0.07025404
214	0x3b3f2eb7	0.0029172131
215	0x3d819096	0.06326406
216	0x3d5c0309	0.053713832
217	0xbc9acfb0	-0.018897861
218	0xbd921c7d	-0.0713434
219	0x3d752de0	0.059858203
220	0x3c62fe5e	0.013854591
221	0x3d256e6a	0.040388502
222	0xbd0e4f1c	-0.034743413
223	0xbd5f874e	-0.054572396
224	0xbc9883c9	-0.018617528
225	0x3bf5c7aa	0.0075006085
226	0x3d6231ff	0.05522346
227	0x3d72199f	0.059106465
228	0xbcd53c3e	-0.026029702
229	0x3debe4a6	0.115182206
230	0xbd6f2f16	-0.058394514
231	0x3b737bde	0.0037152688
232	0xbd613dd5	-0.05499061
233	0x3cd8cd72	0.026465151
234	0x3dadb57e	0.084818825
235	0xbdaec2a5	-0.08533219
236	0x3cd2244b	0.025652071
237	0xbdca0c78	-0.098656595
238	0xbc78d224	-0.01518682
239	0xbd120a17	-0.035654154
240	0xbac6d0a8	-0.0015168386
241	0xbda8de91	-0.08245576
242	0x3cc215ad	0.023691976
243	0xbddb5015	-0.10708634
244	0x3c8361cb	0.016037842
245	0xbd68e480	-0.05685854
246	0xbd2adbb8	-0.041713446
247	0x3df806e0	0.12110686
248	0x3cbbac99	0.02290945
249	0xbd607469	-0.054798517
250	0xbd950cdd	-0.07277844
251	0xbdbf5b10	-0.09343541
252	0xbcfd26f7	-0.030902369
253	0x3c6ce761	0.014459462
254	0x3c37ec61	0.011225791
255	0x3dab1a9b	0.08354684

edge_model.0.bias f4 [16]
0	0x3d4d5eaf	0.050139125
1	0xbd4fea5d	-0.050760616
2	0xbbb9acd9	-0.005666357
3	0x3d65583c	0.05599235
4	0xbda31361	-0.079626806
5	0x3da91c44	0.08257344
6	0xbda10bde	-0.078635916
7	0xbcfd0544	-0.0308863
8	0x3cdfeb09	0.027333753
9	0xbc9826e9	-0.018573241
10	0xbdd14459	-0.102181144
11	0xbda0213f	-0.07818841
12	0xbc535b1c	-0.01290014
13	0xbd4ccfc5	-0.050002832
14	0xbcc0a83d	-0.023517722
15	0x3d892d4a	0.06698091

edge_model.2.weight f4 [16, 16]
0	0xbde087f3	-0.1096343
1	0x3d0c3ebd	0.03423952
2	0xbe602359	-0.21888484
3	0xbdc4edda	-0.09615679
4	0x3e5d98de	0.21640345
5	0x3e03cfbe	0.12872216
6	0xbb736d3d	-0.0037143969
7	0xbdcf4078	-0.10119718
8	0xbe3e6265	-0.18592222
9	0x3dfa150a	0.12211044
10	0xbddb8230	-0.10718191
11	0xbcad2ced	-0.021139586
12	0xbe1e8411	-0.15480067
13	0xbda4d2ef	-0.08048045
14	0x39cc492e	0.00038964435
15	0xbc853435	-0.016260246
16	0xbb4cc98f	-0.0031248068
17	0xbd9354fb	-0.07193943
18	0x3ddcbb2a	0.10777886
19	0x3da2b0f1	0.07943905
20	0x3e61c816	0.22048983
21	0xbc8e8551	-0.017397555
22	0xbe7b243b	-0.2452554
23	0xbc5099c0	-0.012731969
24	0x3e632240	0.22181034
25	0xbdb037ce	-0.08604394
26	0x3cd88439	0.026430236
27	0x3cdf40da	0.027252603
28	0xbe296ebb	-0.16546147
29	0x3e782699	0.24233474
30	0xbd3dd58c	-0.046346232
31	0xbe53a054	-0.20666629
32	0xbe38235f	-0.17982243
33	0xbe289b16	-0.1646541
34	0xbe716449	-0.23573412
35	0x3e387541	0.18013479
36	0x3e57cbcd	0.21073838
37	0xbe5ad381	-0.21369745
38	0xbdfffcfb	-0.12499424
39	0x3df84b84	0.121237785
40	0xbd51f5e0	-0.051259875
41	0x3e79107d	0.24322696
42	0xbdec44de	-0.11536573
43	0xbdb5379c	-0.08848497
44	0xbe47c85f	-0.1951003
45	0xbdb93c8a	-0.0904475
46	0x3e28d8dc	0.16488975
47	0xbd6f91a0	-0.05848849
48	0xbe6073cf	-0.21919177
49	0x3e048f7d	0.12945361
50	0xbe19c9cb	-0.15018384
51	0x3db4f8ac	0.08836493
52	0x3e830279	0.25587824
53	0x3e08e32d	0.1336791
54	0x3e5c95dc	0.21541542
55	0xbe3fd6cc	-0.18734282
56	0xbe37fb1d	-0.17966886
57	0xbe6b7203	-0.22992711
58	0x3e298510	0.16554666
59	0xbd2b3c97	-0.04180583
60	0x3dd214a4	0.10257843
61	0xbe1fe531	-0.15614773
62	0x3c9c621a	0.019089747
63	0x3e77bdbc	0.24193472
64	0x3c6b04aa	0.014344374
65	0x3e67fadd	0.2265429
66	0xbe31bf55	-0.17358144
67	0x3c169409	0.009190568
68	0xbd83c9bd	-0.06434963
69	0xbe7b47a2	-0.24539044
70	0xbdf79419	-0.12088794
71	0xbcc7e530	-0.024401277
72	0xbe830f8b	-0.25597796
73	0x3e358aa9	0.17728676
74	0xbe150592	-0.14552906
75	0x3c22f6a8	0.009946503
76	0xbbf03be5	-0.0073313587
77	0xbe7c3fd6	-0.24633726
78	0xbdf4c475	-0.11951534
79	0x3d05a183	0.032624733
80	0xbd5d47fb	-0.054023724
81	0x3e38852b	0.1801955
82	0x3d9d300a	0.07675178
83	0x3e02bf58	0.12768304
84	0x3e1d813b	0.15381329
85	0xbb4152b5	-0.002949876
86	0xbe822195	-0.25416246
87	0x3ddf1fa8	0.1089471
88	0xbdbaf3e0	-0.09128547
89	0x3d8e0dde	0.06936239
90	0x3db06a38	0.086140096
91	0x3d9ab156	0.075533554
92	0x3e2a423b	0.16626827
93	0x3e77700d	0.24163838
94	0xbe313e5e	-0.17308947
95	0xbdb93f7e	-0.09045313
96	0x3db14694	0.0865604
97	0xbd54a7c1	-0.051917795
98	0x3d06bbb0	0.032893836
99	0xbe61c94b	-0.22049443
100	0xbdff0c7b	-0.12453552
101	0xbd1afbd4	-0.03783782
102	0x3e3d337e	0.18476674
103	0xbe3c1390	-0.18366838
104	0x3d6dd3df	0.058063384
105	0x3d0f8ea1	0.03504813
106	0xbddfae3c	-0.109219044
107	0x3df27845	0.11839346
108	0x3e6a8bd9	0.2290491
109	0x3e564121	0.20923282
110	0xbd4572d4	-0.04820521
111	0xbd09ac37	-0.033611502
112	0xbc8ccc69	-0.017187314
113	0x3e228fd9	0.15875186
114	0xbe110e37	-0.14165579
115	0x3d289ccf	0.04116517
116	0x3e1219a4	0.14267594
117	0x3e239521	0.15974857
118	0xbde0722c	-0.109592766
119	0x3e12374c	0.14278907
120	0xbe674491	-0.2258475
121	0xbda3506e	-0.07974325
122	0x3e46f795	0.19430383
123	0xbe02e3e2	-0.12782243
124	0x3b7d78c8	0.0038676728
125	0x3e723bb7	0.23655592
126	0x3cce401a	0.02517705
127	0x3c27cfd5	0.010242422
128	0x3db3f095	0.08786122
129	0xbe0cbe56	-0.13744482
130	0xbe63a2be	-0.2223005
131	0x3e123f6b	0.14282005
132	0xbc0ff4a7	-0.008786357
133	0x3e113e9b	0.14184038
134	0xbbe4ed2a	-0.00698628
135	0x3e396c7a	0.18107787
136	0xbe3797e2	-0.17929032
137	0xbdd8b599	-0.10581512
138	0xbe5a9b77	-0.21348368
139	0xbe584766	-0.21120986
140	0x3e3dfd58	0.18553674
141	0xbd67693b	-0.05649684
142	0xbdff1497	-0.12455099
143	0xbd5816db	-0.05275617
144	0xbcacd3b7	-0.021097047
145	0xbdc51e37	-0.09624904
146	0xbe70574d	-0.23470803
147	0x3e1c605a	0.1527113
148	0xbcd91df2	-0.026503537
149	0xbe48b3a1	-0.19599773
150	0x3da571b1	0.080783255
151	0xbda05810	-0.078292966
152	0xbd9d0dbb	-0.076686345
153	0xbe433f5c	-0.19067138
154	0xbe76e6eb	-0.24111526
155	0x3db90502	0.09034158
156	0xbe680b68	-0.22660601
157	0x3e1e29f3	0.1544569
158	0xbe5fbf41	-0.21850301
159	0xbd5a8fc7	-0.053359773
160	0xbe59572a	-0.21224657
161	0xbe3aeede	-0.18255183
162	0xbe5d1a50	-0.21592069
163	0xbe211272	-0.15729693
164	0x3bc95fa4	0.0061454345
165	0x3d4da6b9	0.050207827
166	0xbddff595	-0.10935513
167	0x3e1957f0	0.14974952
168	0xbdc10462	-0.09424664
169	0xbd5fac3d	-0.05460762
170	0x3e0620a8	0.13098395
171	0x3e64ed11	0.22356059
172	0x3e56c4bd	0.20973487
173	0xbe77b771	-0.24191071
174	0xbe377434	-0.17915422
175	0x3d205017	0.03913888
176	0x3c207a83	0.009794834
177	0x3e65114f	0.22369884
178	0x3e1e067d	0.15432163
179	0xbe46928c	-0.1939184
180	0x3e66770c	0.2250635
181	0x3d8cb60c	0.0687066
182	0x3ddb12ac	0.10696921
183	0xbd3c7e90	-0.046019137
184	0x3e199069	0.14996494
185	0xbe4b3f43	-0.19848351
186	0x3de8bcfd	0.11364172
187	0x3e738d51	0.23784377
188	0x3d825396	0.06363599
189	0xbdb4677c	-0.088088006
190	0xba67cc92	-0.0008842434
191	0x3e5b8b6b	0.21439902
192	0xbe07a898	-0.13247907
193	0xbe0f16f4	-0.139736
194	0x3d0ef890	0.034905016
195	0xbddcd838	-0.10783428
196	0xbd7053fa	-0.058673836
197	0xbdf7207f	-0.12066745
198	0x3e25c724	0.16189247
199	0xbe5c5638	-0.21517265
200	0xbe3bb286	-0.1832982
201	0x3e5c91b6	0.2153996
202	0xbd1dcc05	-0.038524646
203	0xbe54bfd4	-0.20776302
204	0x3e0310c3	0.12799363
205	0xbe1dd688	-0.15413868
206	0xbbef6d7e	-0.0073067537
207	0x3e0e91b1	0.13922764
208	0xbdee8a7a	-0.11647506
209	0xbe56742f	-0.20942758
210	0x3d8e7a4e	0.069569215
211	0xbdf99fd0	-0.12188685
212	0xbd33d0a6	-0.043900155
213	0x3e60a3cb	0.21937482
214	0x3da51feb	0.080627285
215	0x3d927c44	0.07152608
216	0xbe6445ae	-0.22292206
217	0xbe215f54	-0.15759021
218	0xbe36bee5	-0.17846258
219	0x3e72ef16	0.23724017
220	0xbdcc7cd7	-0.09984749
221	0x3e717209	0.23578657
222	0x3e78c39a	0.24293366
223	0xbe1fb1e3	-0.15595202
224	0x3dae49e8	0.0851019
225	0xbd72a92d	-0.05924337
226	0x3e5f53d6	0.21809325
227	0x3e1abb29	0.15110458
228	0x3d5fc98c	0.05463557
229	0x3e1c0992	0.15238026
230	0xbd430d14	-0.047619894
231	0xbd03d9c8	-0.032190114
232	0xbd8b5dc3	-0.06804993
233	0xbe2c3ecf	-0.16820835
234	0xbe5c603b	-0.21521084
235	0xbd3dd4b0	-0.046345413
236	0xbda9d9c8	-0.082934916
237	0x3e4a1127	0.19733106
238	0x3e67d380	0.22639275
239	0xbe524759	-0.2053503
240	0xbe5fd972	-0.21860293
241	0xbddeda0b	-0.10881432
242	0xbe81442d	-0.25247326
243	0xbcdab643	-0.026698237
244	0x3d5f127a	0.05446098
245	0xbc313331	-0.010815428
246	0x3d3d3a8a	0.046198405
247	0xbd2cf350	-0.04222423
248	0xbe6f84bb	-0.23390476
249	0xbe2ed75f	-0.17074345
250	0xbe827dd4	-0.25486624
251	0xbe18eba8	-0.14933646
252	0xbe17deb2	-0.14831045
253	0x3e344204	0.17603308
254	0xbdba9a46	-0.091114566
255	0xbda4a331	-0.08038939

edge_model.2.bias f4 [16]
0	0xbe4546c1	-0.19265272
1	0xbd73b239	-0.05949614
2	0x3d44b291	0.048021857
3	0x3d6e550c	0.058186576
4	0x3e64fbec	0.22361726
5	0x3da9e5db	0.082957946
6	0xbcc1efda	-0.02367394
7	0x3e33a9bc	0.17545217
8	0xbe0e8731	-0.13918759
9	0xbcb8841b	-0.02252393
10	0x3d3f6f1b	0.046736818
11	0x3d4dc455	0.050236065
12	0xbd7571a1	-0.059922818
13	0x3d340fcf	0.04396039
14	0x3d96898b	0.07350453
15	0xbc9f292c	-0.019428812
