tmp/tmp1model400.pt (torch, 23679 bytes, 25 tensors)

node_encoder.0.weight f4 [16, 5]
000000 8c f6 6b 3e b2 20 4a be 74 8e b1 bd 2c f2 56 3e
       0.23043269 -0.19739035 -0.08669749 0.20990819
000010 60 90 d7 be a8 2a 88 3e e4 dd fe bd 18 ac 66 3e
       -0.42102337 0.26595044 -0.12444666 0.22526586
000020 40 a6 7e 3d 33 fe 57 3c 9e cb fd 3d f4 66 bc 3c
       0.062170267 0.013183164 0.123923525 0.02299831
000030 4f bd 25 3e 5a 76 32 be 0c 46 22 bd 0b b4 3f bd
       0.16185497 -0.1742796 -0.039617583 -0.04680256
000040 02 23 8b 3d c7 d6 24 3c 30 29 c8 3e 7f cf 07 3e
       0.067937866 0.0100609725 0.39093924 0.13262747
000050 1e 37 24 be 83 4a 8a be 3b dd 8c bd f4 87 45 be
       -0.1603665 -0.27009973 -0.06878134 -0.19290143
000060 94 bf 12 be bf e4 9d 3c 8b 33 86 3e 1c 69 70 3e
       -0.14330894 0.019274114 0.262112 0.23477596
000070 46 d5 df be 8d 06 7c 3e 2c 11 ff 3d 7e 74 d5 3e
       -0.43717402 0.24611874 0.12454447 0.4169044
000080 99 49 8c 3e 52 a0 d0 be 2d da e3 be cb ae 65 be
       0.273999 -0.40747315 -0.44502392 -0.2242996
000090 02 19 c1 3e 5a 39 8d bd 8c fb 43 3e 91 96 5c be
       0.37714392 -0.068957046 0.19138926 -0.21541812
0000a0 aa 8a df 3e 50 14 41 be fb 7c a5 3e 00 88 ad 3b
       0.4366048 -0.18855405 0.32321915 0.0052957535
0000b0 1b 82 7e be 81 36 6e 3e b0 76 6a be de 43 fc 3d
       -0.24854319 0.23262979 -0.22896838 0.12317632
0000c0 44 3c 04 be b7 b7 86 bd fd 02 d3 be da 33 ac be
       -0.12913615 -0.065780096 -0.41213217 -0.3363331
0000d0 87 5e 85 3e 04 a2 de bd f2 17 f8 3e 6e f7 c1 3e
       0.2604868 -0.10870746 0.4845577 0.37884086
0000e0 dd 16 18 ba fa d5 98 be a6 6f 8b 3e 88 ad d8 3d
       -0.0005801747 -0.2985075 0.27233618 0.105799735
0000f0 a8 09 8d be 41 1e 96 3e 4d bc 93 3e 48 13 cb 3e
       -0.2754643 0.29319957 0.288546 0.39663148
000100 4a 0f 8d be ca 06 83 bd 9b e3 b1 bb 89 ed 89 3d
       -0.27550727 -0.06397779 -0.005428744 0.06734759
000110 a6 c5 ad be 10 7c a2 be 6e 4f 86 3e 6a 48 9a bd
       -0.33939856 -0.31735277 0.26232475 -0.07533343
000120 5b cd 72 3e 30 dc d0 3c 49 8b 05 3e 3b 90 d6 3d
       0.2371115 0.025495619 0.13041414 0.104767285
000130 b1 62 2e 3e a5 e3 69 3e 14 0e d4 be 25 32 98 3e
       0.17029835 0.22840746 -0.4141699 0.29725757

node_encoder.0.bias f4 [16]
000000 1a ff a0 be 44 ea ad be f7 d8 dd 3c 84 78 a9 bd
       -0.31444627 -0.33967793 0.027080996 -0.0827494
000010 2d a5 89 3e 9c b3 85 be e3 c0 cb be 59 3d a2 3e
       0.26883832 -0.26113594 -0.39795598 0.3168743
000020 be 55 8c bd d3 32 82 3e b9 76 25 3e ff 46 a1 be
       -0.068522915 0.254294 0.1615857 -0.31499478
000030 eb e6 d3 3d c3 ba ef 3d 3a 90 8f be e7 b2 52 be
       0.103467785 0.11705544 -0.28039724 -0.20576058

node_encoder.2.weight f4 [16, 16]
000000 5c 94 ae 3d 83 70 81 3d 87 87 c1 bd 30 9c db bd
       0.08524391 0.06320288 -0.09449678 -0.1072315
000010 ac b6 7c 3e 46 17 c4 bc 95 30 ee 3d 7c 9e ab 3d
       0.24679059 -0.023936879 0.1163036 0.08379838
000020 02 30 15 be 21 07 4b be 4f be a8 3e ec 3f 96 bc
       -0.14569095 -0.19826938 0.32957694 -0.018341027
000030 b5 c1 1f 3e 4e f2 61 3d 8e cb cf 3d 3f ca 4f 3e
       0.15601237 0.05516272 0.10146247 0.20291995
000040 32 be 72 3e 85 05 3c be 9d d6 a5 3c 49 76 57 3e
       0.23705366 -0.1836148 0.020243937 0.21041216
000050 7b f1 2a 3e 9d 83 20 3e cb 6e 41 be 24 9a 30 be
       0.1669368 0.15675206 -0.1888992 -0.172463
000060 e7 26 32 be 2a e2 97 3c 54 12 85 3e 8d cd 18 be
       -0.17397653 0.01854046 0.25990546 -0.14922161
000070 5b 62 f0 3d 0e e2 22 be 66 bb 7d be f8 c1 71 bd
       0.1173751 -0.15906546 -0.24778518 -0.059022874
000080 f0 7f 13 3e 61 2b 5b 3e fb a3 24 be a5 93 67 3d
       0.14404273 0.21403266 -0.16078179 0.05653729
000090 6c 23 47 3e a1 43 2d 3e 96 9e 13 3e af c5 36 3e
       0.19447106 0.1692033 0.14415964 0.17848848
0000a0 94 6f 15 3e 86 8f 6e 3d 96 49 f4 bd 51 9f 5c be
       0.14593345 0.058242343 -0.11928098 -0.2154515
0000b0 20 2c 02 be 91 a7 44 bd 29 f8 1c be 4f 08 ba 3d
       -0.12712145 -0.048011366 -0.1532904 0.09083616
0000c0 30 75 9e 3d 4c 79 50 bd c3 0b d3 3d 3b 3f c4 3d
       0.077371955 -0.050896928 0.10304978 0.09582373
0000d0 63 4d 19 3e b1 d2 4a 3e 88 b0 c0 bd d0 75 6c 3e
       0.14970927 0.19806935 -0.09408671 0.23091817
0000e0 7c d1 ba bc 46 66 38 bb 0f 6a 4e be 21 93 24 be
       -0.022804968 -0.0028137132 -0.20157646 -0.1607175
0000f0 57 1c 13 be 2d 41 e5 bd 3c ea 4c 3e f6 7f 70 bd
       -0.1436628 -0.11194072 0.20011228 -0.058715783
000100 d2 4d 3f be 94 aa d1 3d ac 74 c7 3d fa b4 18 3e
       -0.1868203 0.10237613 0.0973905 0.14912787
000110 45 4b 01 be a9 cb 6d 3d 1a 1c 70 bd 08 82 ff bc
       -0.1262637 0.058055554 -0.05862055 -0.031189933
000120 c3 83 3e be 88 ed cb bd 64 f3 c2 bd 20 77 d0 3d
       -0.1860495 -0.09957415 -0.09519079 0.10178971
000130 9f b2 9a 3d 29 e9 b6 3d a3 4f 78 3e 92 f9 7e 3e
       0.075536005 0.089311905 0.24249129 0.24899891
000140 a4 9a 2e 3e a6 eb 6e 3c 33 eb 27 be c3 74 45 3e
       0.17051178 0.01458255 -0.16398315 0.19282822
000150 c4 95 50 bd b0 ad 87 bc 34 9d 4c be e8 47 16 bd
       -0.050924078 -0.016562313 -0.19981843 -0.03668967
000160 f7 49 1b be 30 bb 73 3e 83 58 73 be e7 a9 55 be
       -0.15164934 0.23801875 -0.23764233 -0.20865594
000170 c9 67 b6 3b 8a 6a fc bd c8 dd c3 3d f3 ec bb bd
       0.0055665714 -0.12325008 0.09563786 -0.09176054
000180 e4 7a f0 bd ca 4c a7 3c 6e af 40 3e 6f 67 c3 bd
       -0.117421895 0.020422358 0.18816921 -0.09541213
000190 4d bc f7 3d 2a 34 2e 3e 37 2f 84 3e f4 35 2a be
       0.120964624 0.17012087 0.25817272 -0.16622144
0001a0 3f 20 8a 3d 92 a7 37 be 55 22 c9 3d 9b 6a 87 bd
       0.06744432 -0.17935017 0.098210014 -0.0661213
0001b0 ce f4 27 3e e6 e9 a5 3c c4 19 ef bc d3 5f 2d 3a
       0.1640198 0.020253133 -0.02918709 0.0006613705
0001c0 08 13 2e 3d b5 f1 f8 3d c2 26 27 3d 80 b0 5f 3d
       0.04249862 0.12155477 0.040808447 0.054611683
0001d0 44 99 5d be 1f c1 26 3e 81 cd 59 3e 8c 5a 58 3e
       -0.21640497 0.16284607 0.212698 0.21128291
0001e0 af d6 3e 3e fa 90 36 be a3 4a 19 bd c3 fc 4c 3e
       0.18636583 -0.17828742 -0.037424695 0.20018296
0001f0 96 c7 49 be f6 7e 6b 3e 23 c4 4c be ea cc 41 be
       -0.19705042 0.2299765 -0.19996695 -0.18925825
000200 38 4e fa 3d f5 77 3d be 96 a3 84 bd 22 f2 2d 3e
       0.1222195 -0.18502791 -0.06476514 0.16986898
000210 b3 ae 46 3e 1a 35 59 3e 09 ec 5e bd 5d 9b 45 be
       0.1940258 0.21211663 -0.05442432 -0.19297548
000220 f9 3d 75 3e 62 af 7d bd 5d 23 28 be 68 af 80 3d
       0.23949422 -0.061934836 -0.1641974 0.06283456
000230 f2 a1 33 be 94 6a 25 3e 44 de 0d 3e 3d a2 5d be
       -0.17542246 0.16153938 0.13854319 -0.2164392
000240 76 45 52 be cf c5 f8 bc 24 6a c8 3d c5 10 22 bd
       -0.2053431 -0.03036776 0.0978587 -0.039566774
000250 a0 4e 03 be df 31 86 bc bf b0 6a be d0 0c 31 be
       -0.12822962 -0.016381202 -0.22918986 -0.17290044
000260 07 0c 31 be 8e 7a 49 3e f6 c4 3c 3e 83 50 d8 bd
       -0.17289744 0.19675657 0.1843451 -0.105622314
000270 d2 31 65 3c 7a 12 e4 3d 5e c8 67 3c f9 0d 11 be
       0.013988929 0.111363366 0.014146892 -0.14165486
000280 20 a5 13 3e 9a 81 3b 3e e8 17 dd 39 cb 4d ef bc
       0.14418459 0.18311158 0.00042170216 -0.0292119
000290 03 fb 83 3e 01 f2 63 3e 83 7b 08 be 7b 7e 70 3e
       0.25777444 0.22260286 -0.13328366 0.23485748
0002a0 4c 92 ab 3d 24 8c 18 be d2 e9 0a 3e 7a 9d 3a be
       0.08377513 -0.1489721 0.13565758 -0.18224135
0002b0 52 23 7a 3e 6a bf 0a be d9 ab b5 3d 26 85 b6 3d
       0.24427536 -0.13549581 0.08870668 0.08912115
0002c0 08 91 73 3d 2a 8a 50 3e 90 66 d3 bd 81 16 09 be
       0.059464484 0.20365205 -0.103222966 -0.13387491
0002d0 7f 81 79 be f8 50 d8 3b c3 e7 c8 bd f3 86 13 3d
       -0.24365805 0.006601449 -0.0980983 0.03601737
0002e0 18 35 6a bd 67 9f a8 3d 8b b5 98 3e 90 82 a6 3d
       -0.05717954 0.082335286 0.29826006 0.081303716
0002f0 91 cc a4 bd 17 ad 0a be b8 d9 54 be e5 13 65 3e
       -0.080468304 -0.13542591 -0.20786178 0.2237087
000300 98 fc 41 bd f6 88 d7 3c 6a ee 04 bb 81 61 33 be
       -0.047360033 0.026310425 -0.0020283707 -0.17517664
000310 58 45 09 3e 03 75 e3 3d 9f 16 2b 3c a8 b7 12 be
       0.13405359 0.111063026 0.010442405 -0.14327872
000320 c1 52 f0 bd 75 14 f4 bb 5a 8a 5b be f6 43 09 be
       -0.11734534 -0.0074487277 -0.21439496 -0.13404831
000330 b6 6b 2b bd 1d 25 8d bd 17 6e 7b 3c 1e a7 c3 bd
       -0.041850768 -0.068918444 0.015346072 -0.095533594
000340 a0 be 07 bd b1 85 cb bd a6 a3 72 be 71 41 61 3e
       -0.03314078 -0.09937609 -0.2369524 0.2199762
000350 05 05 3e 3d 00 c3 58 3e fe 79 54 bd 4e 49 a2 bd
       0.046391506 0.21168137 -0.051874153 -0.07924138
000360 47 1c 78 be 4e bc d4 bd c0 5f 0d 3e 9d 69 6a be
       -0.24229537 -0.10387479 0.13806057 -0.22891851
000370 42 c7 c0 bd 9e e2 17 3e 8d 94 0c 3e 5e 81 ae 3d
       -0.094130054 0.14832541 0.13728543 0.085207686
000380 20 b2 4a bd 4f 2d 1c bc 3f a6 14 bd 47 b0 98 bd
       -0.04948628 -0.009532287 -0.036291357 -0.07455497
000390 53 9b d3 3d 62 63 7e bd 34 bf 15 be 11 16 41 3d
       0.1033236 -0.062106498 -0.1462372 0.047140185
0003a0 a2 51 2b be d4 61 15 bd aa a0 60 3e 4b a7 ad 3d
       -0.16730359 -0.03647025 0.21936288 0.08479174
0003b0 36 eb 58 3e f3 b9 25 be 20 e3 d3 3c 40 d0 40 bd
       0.21183476 -0.16184215 0.025865138 -0.047073603
0003c0 62 2f 0f be de c8 25 be 25 57 68 3d be 25 79 3d
       -0.13982919 -0.16189906 0.056723733 0.06082701
0003d0 3b eb 1a be b3 2d 20 be 61 3f 5d be b9 d2 6d 3e
       -0.15128796 -0.15642433 -0.21606208 0.23224916
0003e0 4d 43 54 bd 18 52 86 bd 13 c8 cf bd ad 17 ec bd
       -0.051821996 -0.06558627 -0.10145583 -0.11527953
0003f0 e9 0b 6f be 35 0a 20 be a2 6f 10 3e 6f 7e 7f 3d
       -0.23344387 -0.15628894 0.14105085 0.062376436

node_encoder.2.bias f4 [16]
000000 32 e3 a7 bd 24 d1 c2 bd dd 4b 22 3e 1d 16 3a 3e
       -0.08197631 -0.09512547 0.15849252 0.18172498
000010 0c c3 84 3e 93 19 a7 3d 75 0a 03 3e 5c 78 8b bc
       0.2593006 0.08159175 0.12796958 -0.017025165
000020 d7 3d 1c be 1d 98 80 be e2 99 23 3e 19 a1 cf bc
       -0.15257965 -0.25116053 0.1597667 -0.025345372
000030 60 fe c4 3d 5f d0 95 3a 82 2e 6f be cc bb 05 be
       0.09618831 0.0011429897 -0.23357585 -0.1305992

node_encoder.3.weight f4 [16]
000000 d8 90 7d 3f 8c 92 80 3f 44 d2 7c 3f a0 70 7e 3f
       0.9904914 1.0044723 0.9875834 0.993906
000010 5d 18 80 3f 7e 32 80 3f 86 03 80 3f 02 04 80 3f
       1.0007435 1.0015409 1.0001075 1.0001223
000020 ff 37 7f 3f 81 f5 7f 3f 9c 54 7e 3f d1 b4 83 3f
       0.9969482 0.99983984 0.99347854 1.0289556
000030 6f e0 7d 3f 13 d4 80 3f d8 6e 7c 3f 5b 22 7f 3f
       0.99170583 1.006472 0.98606634 0.996618

node_encoder.3.bias f4 [16]
000000 8b 62 af 3b e5 ee 4a 3b d3 29 26 bc 99 9d 31 bb
       0.0053523234 0.0030965146 -0.010141808 -0.0027101992
000010 a6 81 b0 3b 6f ec 0b 3c d4 42 eb 3a 61 7c 87 b6
       0.005386549 0.008540257 0.0017948993 -4.037793e-06
000020 5a e8 84 bb 7f 80 38 ba ab 64 84 bb bc e8 d5 3b
       -0.004056019 -0.00070381904 -0.004040321 0.0065279882
000030 42 ad 0f bc 70 cd e6 bb bd 84 15 3c 55 5e 8d bb
       -0.008769335 -0.007043533 0.009125886 -0.004314224

edge_encoder.0.weight f4 [16, 4]
000000 12 3f 07 3e 9e 8a 19 3c a8 35 f7 be 0b a0 3e 3e
       0.13207653 0.009371428 -0.48283124 0.18615739
000010 c8 6a f3 3c 21 7b 7d be f1 b4 23 3e 8b 53 aa 3d
       0.029714003 -0.24754001 0.15986992 0.08316716
000020 7d 4e 61 be 1c c9 d9 3e 52 b9 84 3e 8e cb 61 3d
       -0.22002597 0.42536247 0.25922638 0.055125766
000030 20 a9 c4 bd 9a d7 d8 be de a6 c5 3e d8 1d 04 be
       -0.096025705 -0.4235199 0.38603872 -0.1290201
000040 a1 00 76 be 92 1d 9c 3e aa a6 51 3e 07 f7 a9 3d
       -0.24023677 0.3049131 0.20473734 0.0829907
000050 34 6b 24 be a9 8a b5 be 6b 0f b6 3d 71 45 b9 3e
       -0.1605652 -0.35457352 0.088896595 0.36185792
000060 35 03 84 3d f4 27 7a be 7b 05 f0 3e f7 73 7f bc
       0.06445924 -0.24429303 0.4687918 -0.015591613
000070 67 cb c7 3e 52 8d 14 3e b6 79 fb 3e cd a0 8a 3e
       0.3902237 0.14507034 0.49116296 0.27075806
000080 08 84 82 be 1c d4 b3 3e 00 cd 52 3b e2 7e cd be
       -0.25491357 0.35122764 0.0032165647 -0.40135866
000090 76 b6 c4 bd 3c 10 f1 be 19 7a 92 be 08 3b ab be
       -0.09605114 -0.47082698 -0.28608778 -0.33443475
0000a0 ba a5 9f 3e 58 21 d7 bd 70 ec b0 bd 31 78 56 3e
       0.31181127 -0.10504407 -0.08638847 0.20944287
0000b0 91 e0 5a 3e a4 d0 f6 be 8a 91 fa 3d 29 47 44 3e
       0.21374728 -0.48206055 0.122347906 0.1916777
0000c0 4a 8c cb be d1 57 e4 3e 8d c5 c3 be ca 56 38 be
       -0.3975547 0.4459825 -0.38236657 -0.18001857
0000d0 3d c9 db be d9 7f f3 3e 62 9c 4d 3d 2b 3e da 3e
       -0.4292697 0.47558478 0.050197966 0.42625555
0000e0 70 bc 05 3d 19 aa 86 3e 64 79 23 be 06 3b cc be
       0.03265041 0.2630165 -0.15964276 -0.3988878
0000f0 82 b2 ae 3d 18 8b 12 bd c0 8e 9a 3c fe a1 64 be
       0.085301414 -0.03577718 0.018866897 -0.2232742

edge_encoder.0.bias f4 [16]
000000 6e 55 b5 bb 39 dc 17 3e 6f a1 3a 3e 76 39 ce be
       -0.0055338657 0.14830102 0.18225645 -0.40278214
000010 6b b0 73 3e ea 4b f9 3c 21 41 af 3e cc e2 b3 3e
       0.23797767 0.030431706 0.34229377 0.3513397
000020 90 9a c9 be d0 a6 f9 3e 94 9a 05 bf 75 51 94 3e
       -0.39375734 0.4876008 -0.5218899 0.28968397
000030 70 48 3e 3d c6 e9 6a 3e 3f eb 8e be c3 d7 9b 3e
       0.0464558 0.2294074 -0.27913854 0.3043805

edge_encoder.2.weight f4 [16, 16]
000000 ef 2d 0a be f8 9e 67 be 2b 7f b3 3d c0 1f 0c 3e
       -0.13494085 -0.22619236 0.0876449 0.13683987
000010 81 53 7e 3e 43 62 3c bd c9 4b 74 3e 6f 6a 22 3e
       0.24836542 -0.045992147 0.23857035 0.15860914
000020 00 ef fd bd 75 6f 4e be 19 4c 2d 3e cd b6 12 be
       -0.12399101 -0.20159705 0.1692356 -0.14327545
000030 18 59 dd 3d f2 83 5c be 05 fc 33 3e b8 db 8e 3d
       0.10808009 -0.21534708 0.17576607 0.06975502
000040 48 06 6d bc 57 85 da 3d e6 06 38 be 80 da 5f bd
       -0.01446683 0.10669964 -0.17971382 -0.054651737
000050 97 a2 26 bb 97 ef 3f be 3e 52 86 bd 11 da c9 bd
       -0.00254265 -0.1874374 -0.06558655 -0.09856046
000060 2e fa 73 3e b9 5a 65 3e 32 b0 52 3e 17 03 54 3e
       0.23825905 0.22397889 0.20575026 0.20704304
000070 07 cb 60 be ef dd a2 3d a1 a3 d4 3d ac 19 2d be
       -0.21952449 0.07952487 0.10382772 -0.16904324
000080 88 fb 9a 3d 13 5e 16 be fa d2 41 3d e4 96 a9 3d
       0.07567507 -0.14684324 0.047320344 0.08280733
000090 9d 4d 57 3e d9 30 0f be 8e af 50 be d7 0b 61 3e
       0.21025701 -0.13983478 -0.20379469 0.21977173
0000a0 d0 eb d6 3d 1f 53 e3 3d 0a 36 01 3e f3 ee d5 bd
       0.104941964 0.110998385 0.1261827 -0.104459666
0000b0 20 25 31 3e a6 fd 71 be 0d bf 58 3d 58 da da 3d
       0.17299318 -0.23631915 0.052916575 0.10686177
0000c0 8d 8c 26 3e 99 dc 05 be e6 a3 1b be a8 e9 bf 3d
       0.16264553 -0.13072433 -0.15199241 0.09370738
0000d0 3b 82 3e be 88 35 4f be 7e 30 67 be 16 09 f4 bd
       -0.18604366 -0.20235264 -0.22577092 -0.119157955
0000e0 78 75 43 bd 8b 5f 1e be 8a ab ad bd 76 2c 6a be
       -0.04771945 -0.15466134 -0.08479984 -0.22868523
0000f0 6e bb 31 3e 85 d2 44 bd 4e b2 13 be d1 72 8f 3d
       0.17356655 -0.04805233 -0.14423487 0.07004321
000100 78 ae 38 be e7 dd 3a 3e e8 f2 07 3e fc 92 7b be
       -0.18035305 0.18248712 0.13276255 -0.24567789
000110 b7 3e 53 be 35 fc 33 be 95 6b 04 be ea 41 09 3d
       -0.20629393 -0.17576678 -0.12931664 0.033510126
000120 b8 25 7d be 03 ba 30 be dd 6c d3 3d fb ef 95 bd
       -0.2472142 -0.17258458 0.103234984 -0.07321163
000130 af cb de bd 02 09 62 be 45 d0 be 3d bb 6e da 3c
       -0.10878693 -0.22073749 0.09317068 0.026664129
000140 d7 2c c8 bd 4c 0e 0c be ee d8 37 3d 9c 4f 8b 3d
       -0.097741775 -0.13677329 0.044884615 0.06802294
000150 f0 d3 dc 3d 83 59 db 3d c8 65 0a bd 99 35 4a be
       0.10782611 0.107104324 -0.033788472 -0.19747008
000160 c4 f8 22 3e 2a f9 04 ba 61 b9 26 be 49 e5 67 3e
       0.15915209 -0.0005072529 -0.16281654 0.22646059
000170 2b 5a eb 3d 1b 02 4b be 42 ba 0e be c2 b6 c3 bd
       0.114918076 -0.19825022 -0.13938239 -0.09556343
000180 f0 c2 1f be d9 c0 c9 3d e2 c5 30 be 20 eb 6d 3e
       -0.15601707 0.09851236 -0.17262986 0.23234224
000190 31 d0 d2 bd b6 8f 0c 3e bf c1 f3 bb f8 c2 f7 bd
       -0.102936156 0.13726696 -0.007438868 -0.12097734
0001a0 d0 f3 2a 3e 17 b1 49 be 61 69 09 be a4 d2 4c 3c
       0.1669457 -0.1969646 -0.13419105 0.0125013925
0001b0 b2 4c 62 3e fa 7b e0 bd 2d aa 0b be 67 9d 22 be
       0.2209957 -0.10961147 -0.13639136 -0.15880357
0001c0 65 87 e4 bd 8e 5b bb bd be e8 9d bd 82 a2 11 be
       -0.11158637 -0.09148322 -0.07710408 -0.14222148
0001d0 54 69 6f 3d f7 c6 41 bd 55 98 29 be 10 1b 14 be
       0.058450058 -0.04730889 -0.16562016 -0.14463449
0001e0 88 d5 58 3d ee e5 54 bb 82 9b 24 3e e7 fc 1b bd
       0.052938014 -0.0032485682 0.16074947 -0.038082983
0001f0 ec 33 65 be 3c 3b 53 be d9 b2 a4 bd ab 53 54 bd
       -0.22383088 -0.20628065 -0.08041925 -0.051837604
000200 4b ec 02 3d e0 33 60 bd d3 e5 b6 3d 6c 48 aa bd
       0.031963628 -0.05473697 0.08930554 -0.083145946
000210 f0 f5 3b 3e be 03 82 3d 54 5f ab bd e4 cf 5c 3e
       0.18355536 0.0634837 -0.08367792 0.21563679
000220 e4 b5 82 3d f3 01 2d be 11 21 17 be 69 9a 23 3e
       0.06382349 -0.16895275 -0.14758708 0.15976872
000230 c8 7a d1 3d 89 5e 4a 3e 53 0f 02 bd 2b c2 33 3e
       0.10228497 0.19762625 -0.031752896 0.17554538
000240 7b 44 fe 3d 1e e8 a4 3d 11 d1 30 bd f4 c7 76 3e
       0.12415405 0.08052085 -0.04316813 0.24099714
000250 c4 b7 79 3d ed 0f a1 bd ce 44 22 3c 1d 85 84 3e
       0.06096627 -0.07864366 0.0099041 0.25882807
000260 50 f1 2b 3e 13 54 8a bc 1c a0 72 3e 8a d8 e3 3d
       0.16791272 -0.016885793 0.2369389 0.11125286
000270 7c 4b dd bd e1 53 61 be 9e 05 29 3e aa b2 7b 3e
       -0.10805413 -0.22004654 0.16506049 0.24579874
000280 4a b5 06 be f6 28 e8 3d ea dd 0d 39 f8 f2 5a bd
       -0.13155094 0.11335938 0.00013529477 -0.05345437
000290 f5 a6 95 bd d4 b8 af 3d 70 f5 7b 3d 93 1a 31 3e
       -0.07307235 0.08580175 0.061513364 0.17295294
0002a0 14 6e bb 3d 01 ba fc 3d 24 d8 5b 3e 12 a0 b6 3d
       0.09151855 0.12340165 0.2146917 0.0891725
0002b0 75 0c 9e 3c 83 df bd bd 19 28 30 3e 75 1c 16 3d
       0.01929305 -0.09271147 0.17202796 0.036648232
0002c0 64 5c fd 3d 31 c2 55 3e 43 a7 1e bd f4 3f 34 3e
       0.12371138 0.2087486 -0.038733732 0.17602521
0002d0 ec 7c 15 bd b5 21 5c 3e a5 79 2f 3e c8 d7 df bd
       -0.036496088 0.21497233 0.17136247 -0.10929829
0002e0 00 e6 12 3c 3b 5a 12 be 5d 7d a1 bd b4 4d b5 bd
       0.008965969 -0.14292233 -0.07885239 -0.08852711
0002f0 36 d1 b6 3c 94 5b 99 bd 82 6e 65 be 3a 8c 2d be
       0.022316556 -0.0748817 -0.22405437 -0.16948023
000300 42 c6 c2 bc 8d a0 a4 bd 68 d7 4e 3e 64 17 50 3e
       -0.023776177 -0.08038435 0.20199358 0.20321423
000310 d1 79 33 3e e6 f7 f4 3d 94 cf 49 be 9d 31 73 3e
       0.17526938 0.119613454 -0.19708091 0.23749395
000320 fc 96 61 be cc 65 b2 bd 88 64 08 be 5b 22 b3 3d
       -0.22030252 -0.087108225 -0.133196 0.08746787
000330 45 0b 4e be 4b 2f db bd e0 ed 29 be a1 57 20 be
       -0.20121486 -0.1070238 -0.16594648 -0.15658428
000340 20 b3 bc bd 13 19 88 3e 3d 43 ff bc 78 12 9c 3d
       -0.09213853 0.2658163 -0.031159991 0.0762071
000350 00 84 80 be ba 99 71 3e 86 20 22 bd 8e b7 5e be
       -0.25100708 0.23593798 -0.039581798 -0.21749708
000360 c0 6c 30 3e 3e f8 4e bd 15 13 3e 3e 63 a0 17 be
       0.17228985 -0.05052971 0.18561967 -0.14807276
000370 8e 7d 81 be 0e 73 3d be 74 bd c6 3d fd 19 cf bc
       -0.25291103 -0.18500921 0.09704104 -0.025280947
000380 d0 df 63 be 32 38 62 3d 65 46 9c bc 54 f8 b8 3d
       -0.22253346 0.055229373 -0.019076535 0.0903174
000390 e4 0a 01 be 8d 61 2c be c7 1c 34 3e 3b fc ee bd
       -0.1260181 -0.16834088 0.17589103 -0.11669203
0003a0 4e 14 34 3e 4a 79 53 3e fc 71 32 be f6 2a da bd
       0.1758587 0.20651737 -0.17426294 -0.106527254
0003b0 d3 33 65 3c 69 9e 6c be e9 2c 92 3d 74 e2 d9 bd
       0.013989407 -0.23107304 0.07137472 -0.10638896
0003c0 93 88 e5 bd d4 91 50 be 89 75 fe 3d a0 22 23 be
       -0.1120769 -0.20368129 0.12424762 -0.15931177
0003d0 2e 38 49 be 71 9a b2 bd 9c e0 10 be 95 5d 76 be
       -0.19650337 -0.087208636 -0.14148182 -0.24059136
0003e0 e8 57 ce 3d 9a 4d bc bd 89 50 29 3e 90 ec 2e 3e
       0.100753605 -0.09194489 0.16534628 0.17082429
0003f0 95 a5 15 be 55 98 14 be ca 86 ad bd 1c 4e 1d 3e
       -0.14613946 -0.14511235 -0.084729746 0.15361828

edge_encoder.2.bias f4 [16]
000000 83 5b 71 bc d0 e6 a7 bd f6 24 10 3e 88 cb 74 3e
       -0.014731291 -0.08198321 0.140766 0.23905766
000010 2d 9c 41 3e e8 a3 46 be 08 78 72 bd ee 2f 68 bd
       0.18907233 -0.19398463 -0.059196502 -0.056686334
000020 8d 1b 5c 3e f2 d6 f8 bd ef 70 0e be 78 be 1d bc
       0.21494885 -0.121503726 -0.13910268 -0.009627931
000030 0f dd 6d bd 1f 6d d6 3d 45 4b 07 3d c0 01 16 be
       -0.058072146 0.10470032 0.033030767 -0.14649105

edge_encoder.3.weight f4 [16]
000000 fd 79 80 3f e9 7a 7c 3f c6 45 7e 3f 99 99 80 3f
       1.0037228 0.98625046 0.99325216 1.0046874
000010 29 a9 7f 3f b2 0f 80 3f 4f 02 80 3f 5e ec 7f 3f
       0.9986749 1.000479 1.0000705 0.9997004
000020 54 1e 7d 3f 11 59 7f 3f 8d ae 80 3f 33 39 7c 3f
       0.988744 0.9974528 1.0053269 0.9852478
000030 68 0f 83 3f 08 32 80 3f e7 8e 7c 3f e7 61 7d 3f
       1.0239077 1.0015268 0.9865555 0.9897751

edge_encoder.3.bias f4 [16]
000000 17 ae 3f bb 1f 69 96 3b ab 9b 7a bc 6b 98 1c 3c
       -0.0029248053 0.004590168 -0.015295903 0.009557824
000010 0e 24 fc 38 18 3d 05 bb 0f 3b 84 bb b9 c7 ec ba
       0.00012023012 -0.0020330604 -0.0040353606 -0.0018064893
000020 69 ac 85 bc bb b9 c8 3b d5 f7 63 3a 0c a2 d4 bb
       -0.016317563 0.0061256564 0.00086962926 -0.006489044
000030 9c 63 c6 3b de 49 e6 3b 1a b5 2e 3b 00 8c 2f 3c
       0.006054355 0.0070278486 0.0026658238 0.010714531

node_model.0.weight f4 [16, 48]
000000 a2 13 06 3e cb df c9 3d ff 52 bb 3c 79 6d 0e be
       0.13093427 0.09857138 0.022866724 -0.13908948
000010 51 2b 6d 3d 57 7c b9 3d ad 90 f1 3c bb d4 66 bd
       0.057902638 0.09056919 0.029487932 -0.05635522
000020 9c 1c 6a 3c 57 2d 49 bd cc 6b 02 3e b4 65 0d 3e
       0.014289048 -0.049115505 0.12736434 0.13808328
000030 78 6a 36 bd c7 0c b1 bd 69 c7 c4 3d ee c9 ad 3d
       -0.04453513 -0.08645015 0.09608347 0.08485781
000040 3c d0 79 3d 3a 19 c5 bd 19 2d 93 3d 44 51 ab bd
       0.060989603 -0.09623952 0.07186336 -0.083651096
000050 f9 8f f2 bd 8b 88 ca bd 66 aa 8f 3d 54 db 37 3d
       -0.11843867 -0.09889325 0.07014923 0.044886902
000060 76 4c f9 bd db 40 a5 3d 2d b7 85 3d e6 d9 d8 3d
       -0.12172787 0.08069011 0.06529079 0.10588436
000070 d2 b3 25 3d 79 75 3e bd f2 52 dc 3d 80 22 f9 3d
       0.040454693 -0.04649875 0.10758008 0.121647835
000080 fa 98 e4 3d 2e 4b cc bd a6 50 02 bd e4 17 f4 3d
       0.111619905 -0.09975277 -0.031815194 0.11918619
000090 87 31 ca 3d bf fd 96 3d 05 b3 73 bd 3a 9b 05 bd
       0.09872728 0.07372617 -0.0594969 -0.03261874
0000a0 bd c6 e5 bd e3 a3 be bd b1 bb 2c 3e b1 fd e7 bd
       -0.11219547 -0.09308603 0.16868474 -0.11327685
0000b0 4e 38 ab bc 4b 65 bc 3c ed 56 d0 bd 2d f6 df 3c
       -0.020900872 0.022997519 -0.1017283 0.027339065
0000c0 06 45 d3 bc 21 63 3e 3d a2 ea d1 bd 3a bc 06 3d
       -0.025789749 0.046481255 -0.10249831 0.03289435
0000d0 13 e7 fc bd b9 d6 c6 3d 2c 81 13 3e fd 21 0d bd
       -0.123487614 0.09708924 0.14404744 -0.034456242
0000e0 05 81 90 b9 78 ef b4 bd 2f c9 a6 bd 0e bb b5 bd
       -0.00027561947 -0.088347375 -0.081438415 -0.088735685
0000f0 c3 d9 8b bd 22 b1 ae 3c dc ab b3 bc 21 bc 2e 3c
       -0.06828644 0.021324698 -0.021932535 0.010664971
000100 3d 02 d8 bd 47 85 bc bd 03 8f 08 be c5 06 c3 bd
       -0.10547302 -0.09205108 -0.13335805 -0.095227756
000110 ab bd c9 3d 5e 4e 44 3d 9e e3 1e be f4 bc 9a bc
       0.098506294 0.0479263 -0.15516517 -0.018888928
000120 e6 1e 1d 3c df 37 aa 3d 60 d1 26 3e 83 6b 4d 3d
       0.009589886 0.08311438 0.16290808 0.05015136
000130 3b 2a d6 3d 27 ae 25 bd 91 a6 66 bc 77 57 ab bd
       0.104572736 -0.040449288 -0.014077798 -0.08366292
000140 30 bf 2d 3d f7 69 f6 3d 3c 36 9e 3d 92 f8 2a 3e
       0.04241866 0.1203193 0.07725188 0.16696385
000150 6c a1 be bd b2 cc fa bc 4a 49 1f 3c b1 47 fb 3d
       -0.093081325 -0.030615184 0.009722063 0.122695334
000160 a5 c4 06 be 36 87 af bd 20 0a f0 3c 6a e5 a8 bd
       -0.13160951 -0.08570711 0.029301703 -0.08246882
000170 5e df 4d 3d 9c 7b 68 3a 3e 8d 3a bd 93 0f ae 3d
       0.050261848 0.0008868517 -0.045544855 0.08499064
000180 5d 82 c4 3d 27 31 04 3e 5c c8 97 3d 8b f4 1e 3c
       0.09595177 0.12909375 0.074112624 0.009701858
000190 c0 61 fc 3d a6 e8 0b 3e 72 3d 9a bd a8 3c aa 3d
       0.12323332 0.13662967 -0.07531251 0.083123505
0001a0 8a 9c aa bb 84 45 98 bd 52 30 d4 bc 6a b8 2a bd
       -0.005206649 -0.07435134 -0.025901947 -0.041679777
0001b0 0e ef c7 bd 75 92 5f bd 0d de 31 3d a1 a7 f0 3d
       -0.09762393 -0.05458303 0.043424655 0.11750723
0001c0 c2 e6 4e 3b 9d 7b 1b be 99 63 b1 3d 0d 5c f8 bc
       0.0031570648 -0.15183873 0.08661575 -0.03031733
0001d0 fe 2d 0a 3e df 44 ee bd d5 4c 0d bd 3a 9d 03 3e
       0.13494107 -0.1163423 -0.0344971 0.12852946
0001e0 37 72 23 3d 12 5c ae bd 9c df ec bd 7a 01 a7 bc
       0.039903846 -0.08513655 -0.115660876 -0.020386446
0001f0 70 41 76 3d 5a ef 05 be 70 27 01 be 56 ae 10 3c
       0.060121 -0.13079587 -0.126127 0.008830627
000200 64 51 b6 bc 85 a0 14 3e 95 47 06 be 91 86 6a bd
       -0.022255607 0.14514358 -0.13113244 -0.05725724
000210 d8 4c 00 be e6 01 83 bc 6a 23 ac bd 67 27 f4 3c
       -0.12529314 -0.015992116 -0.08405192 0.029803945
000220 21 d7 f1 bd ff e8 e0 bd fd 4b 89 bd 3e 33 09 be
       -0.11808611 -0.109819405 -0.06703947 -0.13398454
000230 e0 46 c6 3d 4c 17 01 bc 49 44 b7 bd 8a 81 df 3d
       0.09681487 -0.00787909 -0.08948571 0.109133795
000240 fa d2 67 bd 53 be 4a 3d 8e fb b9 bc f0 e6 cc bd
       -0.056597687 0.049497914 -0.022702958 -0.10004985
000250 a9 e7 47 3d 77 60 04 3e 2e 31 f2 bd e8 81 54 3d
       0.048804913 0.12927423 -0.118257865 0.0518817
000260 ea 14 b7 3c 07 19 07 bb 68 8f 66 3c 64 c2 9a bd
       0.02234884 -0.0020614283 0.014072277 -0.07556608
000270 ee 47 b3 bd e6 9c 43 bc 44 12 ee bd e3 b5 0c be
       -0.08753954 -0.011939263 -0.11624578 -0.1374126
000280 33 ed 30 bd ad 02 83 bd 47 74 05 3d c0 c0 ec 3d
       -0.04319496 -0.06396995 0.032581594 0.11560202
000290 aa e9 ec 3d 00 d7 16 bd 7f 6d 39 3d df 38 cc 3d
       0.115680054 -0.036826134 0.04527044 0.09971785
0002a0 57 d6 30 3b 74 61 5c 3d 6a 3c 91 3d 45 67 1b 3e
       0.0026983225 0.053803876 0.07091601 0.15176113
0002b0 77 a5 09 3d f0 12 81 3d 64 a1 89 bd 06 73 af bd
       0.033605065 0.0630244 -0.06720236 -0.08566861
0002c0 7e 46 95 bd bc 64 03 3e b0 a2 1c bd 56 00 d7 3c
       -0.07288836 0.12831396 -0.03824109 0.026245277
0002d0 85 2b 36 be 69 49 8d 3c e4 ad a7 bd 7c 57 3b bd
       -0.17790039 0.017246919 -0.08187464 -0.04573773
0002e0 6d ce f8 3d 8b b7 34 be 50 aa 5c bd 9f 19 9f bb
       0.121487476 -0.17648141 -0.05387336 -0.004855349
0002f0 8c 2e 20 be e8 1f ae 3d a1 6b 93 bc 8f 43 2f 3d
       -0.15642756 0.085021794 -0.017995657 0.04278904
000300 83 a9 c4 3d 90 b9 1a 3e 48 09 5e 3c 3d df ac 3d
       0.09602644 0.15109849 0.0135520175 0.08441017
000310 9d ba e0 3d 75 cc 30 3c 7f 50 47 bd 42 c5 9a bd
       0.10973094 0.010790934 -0.04866075 -0.07557155
000320 b4 b4 fb 3b 89 8b a1 3d 95 29 24 be e3 3b 03 3e
       0.0076814536 0.07887942 -0.16031487 0.12815814
000330 55 de 2c 3c c2 37 ea bd 7f db 86 3d 21 79 e2 3d
       0.010551055 -0.11436416 0.06584834 0.1105826
000340 86 36 7b 3d fe 1b bc 3d f0 5a e0 3c fc 63 0f be
       0.061331294 0.091850266 0.027387112 -0.14002985
000350 e9 77 05 bd ca 80 b7 3d a6 b3 6b bd 66 71 17 3d
       -0.03258506 0.089601114 -0.057544373 0.03697338
000360 bd 1c 4e 3d 19 80 54 bd 1c 71 12 3d 3b d3 48 3d
       0.050320376 -0.051879976 0.0357524 0.04902957
000370 cc 35 9a bd 70 f5 8d 3d c5 c5 f1 3d bc 2d cb 3d
       -0.07529792 0.06931579 0.118053 0.099208325
000380 e2 80 14 3e b5 6f 21 bc 56 0f a2 bd ba d7 8c 3d
       0.1450229 -0.009853293 -0.07913081 0.06877084
000390 f2 5b 97 bc a3 7d 42 3d 39 7d fd 3d 46 e9 d5 bd
       -0.01847646 0.047483098 0.123774 -0.10444884
0003a0 79 30 c3 3c 9e ce 2a 3e 43 59 c8 bd 89 0f 41 bd
       0.023826825 0.1668038 -0.0978265 -0.047133956
0003b0 c3 35 21 3e 8d f5 cd 3d c4 67 e5 3c 41 b3 3d bd
       0.15743165 0.10056601 0.02800358 -0.046313528
0003c0 d2 4b 97 bc a4 79 16 be 16 46 f6 bd 20 e9 f1 bd
       -0.018468771 -0.1469484 -0.120250866 -0.11812043
0003d0 01 f4 18 3e 48 a3 da 3d 1a 56 8e 3d 3a 55 8c bc
       0.1493683 0.10675675 0.06950016 -0.017130483
0003e0 32 45 cc 3d 12 18 6a bd 82 95 ec 3d 7a cc 96 bc
       0.099741355 -0.05715186 0.11551954 -0.018408049
0003f0 f9 eb 7a bd 25 06 67 bd a9 dd 29 bd e8 50 0f be
       -0.061260197 -0.056402344 -0.041471157 -0.13995707

node_model.0.bias f4 [16]
000000 ef 9d 8f bd 69 b8 94 3d 75 83 2e 3d 51 c4 db 3d
       -0.07012545 0.07261736 0.042605836 0.10730804
000010 91 b5 00 bd ea c0 b7 3d 67 4f 12 3c 65 25 9f bc
       -0.031423155 0.08972342 0.008930064 -0.01942701
000020 b3 85 57 3a 5f e8 28 be be ee 73 bc 97 02 47 bd
       0.0008221522 -0.16494893 -0.014888464 -0.048586454
000030 d9 59 2d bd f4 a1 44 bd 6d e6 ca bc 9c 59 fa bd
       -0.042322014 -0.048006013 -0.024768079 -0.12224123

node_model.2.weight f4 [16, 16]
000000 30 a5 1c bc 3b 25 95 bd 1d 1b 2a bd 4e c4 0f 3e
       -0.009560868 -0.07282492 -0.041529763 0.14039728
000010 31 ea 22 3e 40 11 0b 3d bf 48 27 be 4f 6f 14 bd
       0.1590965 0.033951998 -0.16336344 -0.036238965
000020 09 e1 7b be b4 11 1c 3e 76 d5 7b 3e 0c d1 98 bd
       -0.24597563 0.15241128 0.24593148 -0.074617475
000030 d0 93 05 3e 3e c3 18 3e 3d a3 03 bd 77 5f c4 bd
       0.13044667 0.14918229 -0.032138098 -0.09588521
000040 44 75 0e 3d 8b 1d b3 3d 45 81 5f be 57 ed 08 bd
       0.034779802 0.08745869 -0.21826656 -0.03342947
000050 89 3e 86 bd c9 66 46 3e bb 87 d4 bc 13 8b 35 3e
       -0.065548964 0.19375147 -0.025943628 0.17728834
000060 f6 c3 81 3e 4a 03 c8 bd 6b a8 de 3c ab f7 a5 3c
       0.2534482 -0.09766252 0.027179917 0.020259699
000070 4a a0 9f bd 3c 3d 39 be 98 ed b1 3c 0d dc 74 3d
       -0.077942446 -0.18089765 0.021719739 0.05978017
000080 4e ad 2d bd 2b 48 bd 3d 16 06 3c 3e ce 65 0f 3e
       -0.042401604 0.092422806 0.18361697 0.14003679
000090 5b 7d 20 3e 9d 1d de 3d 04 aa 2f be 7c 79 10 be
       0.1567282 0.10845492 -0.171547 -0.14108843
0000a0 40 fd 0f be 8e 48 27 3e f7 c1 38 be a6 63 25 be
       -0.14061451 0.16336271 -0.18042742 -0.16151294
0000b0 66 13 5f 3e 29 52 2e 3e 6c 44 80 be 12 37 1d 3e
       0.21784744 0.17023529 -0.25052202 0.15353039
0000c0 cf 32 08 bd d1 d3 b8 3d c3 12 1a be f4 2b 91 bd
       -0.03325158 0.09024776 -0.1504622 -0.070884615
0000d0 33 3f c8 3d 71 87 6d 3e ae b7 d2 3d d2 1b 41 be
       0.09777679 0.23196198 0.1028894 -0.18858269
0000e0 3b 4a 26 be e8 1e 0f bd 78 3f 02 3e cf 4c 25 3e
       -0.16239254 -0.034941584 0.12719524 0.16142581
0000f0 32 4b 73 be b6 3a b9 bd 42 24 16 3c 16 d8 d0 bd
       -0.23759153 -0.09044401 0.009163918 -0.10197465
000100 c7 94 60 3e f5 81 be bc 03 27 70 be 79 a1 f9 bd
       0.21931754 -0.023255328 -0.23452382 -0.121890016
000110 f0 c8 c3 3e c9 6f cd bd b8 91 94 3d 23 8f 6d 3e
       0.3823924 -0.10031087 0.07254356 0.23199134
000120 76 c3 51 3d ef 1b 77 bd 62 82 82 3e 58 01 85 3e
       0.051211797 -0.060329374 0.254901 0.25977588
000130 4e 79 5f 3e a2 b8 06 bd 92 ad 17 3d c8 9d 37 be
       0.21823618 -0.032890923 0.037030764 -0.17931283
000140 5a 46 04 3d fc 7b 85 3e 18 19 5d 3b a2 51 84 be
       0.032293655 0.26071155 0.003373688 -0.2584353
000150 20 69 1b 3e 45 c4 7d 3e 91 3d 20 3e 75 3c cd bc
       0.15176821 0.24781902 0.15648486 -0.025053242
000160 d7 b9 1a 3d 9e 78 b0 3c 6f 45 95 bd 2c 64 00 bd
       0.037774887 0.02154189 -0.07288634 -0.03134553
000170 86 96 4b 3e 0f 6b ff bc 15 6d 69 3e e8 90 1c be
       0.19881639 -0.03117898 0.22795518 -0.15289652
000180 41 06 2f bd fa 87 cc 3d 73 fd 34 be 7d 81 69 3e
       -0.042730574 0.09986873 -0.17674808 0.22803302
000190 b2 8b 97 3e a7 9f 98 bd 7f 77 6e 3e 16 17 7b 3e
       0.29598767 -0.07452326 0.23287772 0.24520525
0001a0 89 5d bc bd ea 31 02 bc ad 9f 73 3e ca e0 ef bd
       -0.09197528 -0.007946471 0.2379138 -0.11712797
0001b0 8b 32 5d 3d 71 2e 59 be a8 12 40 3e 09 59 36 3d
       0.05400328 -0.21209122 0.18757117 0.044518504
0001c0 b4 21 03 3e bc de 13 3e 9b 0f f3 bc 9e ad 56 be
       0.12805825 0.14440435 -0.029670527 -0.20964667
0001d0 da 9f d4 bc d3 93 a7 bd bc 37 23 3e c4 78 42 3e
       -0.02595513 -0.08182492 0.1593923 0.18991381
0001e0 a7 15 e0 bd 4a 97 a1 bd f8 d1 06 3e e3 1b 7a 3c
       -0.1094163 -0.07890184 0.13166034 0.015265438
0001f0 d4 7f 2b 3d ed df 52 3e 8b 5e 05 3e 6a 8b 40 be
       0.041869953 0.20593233 0.13024347 -0.18803182
000200 d3 65 21 3c 74 b5 c9 3d b8 5b 7f be cb 02 4c 3d
       0.009850937 0.098490626 -0.24937332 0.04980735
000210 3b 3a 51 3d 58 e8 69 3e b1 51 6c be 17 ec 6c 3e
       0.051080924 0.22842538 -0.23078038 0.23136936
000220 d3 26 e1 bd 20 74 08 3e 2f 4a 3a 3e 7e 48 67 bc
       -0.10993733 0.13325548 0.18192361 -0.014116405
000230 92 12 4e bd d8 3a a8 bd db 8e 19 be 14 02 2d 3d
       -0.05031068 -0.082143486 -0.14995901 0.04223831
000240 fd e7 c8 3d 3e e2 7e 3b d8 bd bc bd ee 4e 11 3e
       0.09809873 0.0038892175 -0.09215897 0.14190266
000250 1d 73 56 3e d6 d8 ff bd 9a 98 f0 3d bc 77 07 bd
       0.2094235 -0.1249253 0.117478564 -0.033073172
000260 f6 81 75 3d a7 95 25 be ce 42 3e be 45 f7 4d bc
       0.059938394 -0.16170369 -0.18580171 -0.012571161
000270 f3 8d 7b be 2f f1 e1 3d 75 72 6a 3e aa d4 30 bd
       -0.24565868 0.1103233 0.22895224 -0.043171562
000280 f0 0d c9 bc 29 73 71 bd 84 15 02 be fd ca 8e bc
       -0.024542779 -0.058947716 -0.1270352 -0.017430777
000290 b7 d1 01 bd e3 a3 24 3e 15 6b 46 be 8f d1 be 3c
       -0.03169414 0.16078143 -0.19376786 0.023293285
0002a0 95 cc 7a be b0 4e e8 bb 42 56 bf bb 10 23 25 be
       -0.24492104 -0.0070894584 -0.00583914 -0.16126657
0002b0 b7 18 f7 3d 20 ac 62 3e d8 18 df bd b2 22 4e bd
       0.12065261 0.22135973 -0.108934104 -0.050326057
0002c0 3c 8c 89 bd 1d 92 05 3c 42 d6 eb 3d 5d 58 6e 3e
       -0.06716201 0.008152512 0.11515476 0.23275895
0002d0 6f 91 62 be 90 93 d0 3d 33 53 e9 bd 6e 90 25 be
       -0.22125791 0.10184395 -0.11392822 -0.16168377
0002e0 58 65 56 3e aa 05 94 bd 4c c9 f5 bd 78 32 92 3d
       0.20937097 -0.07227643 -0.12001285 0.071385324
0002f0 b3 28 6d bd 44 a8 18 be 48 4c 0b be 4e 06 dd bd
       -0.057900142 -0.14907938 -0.13603318 -0.10792218
000300 60 24 2b bd 0f 24 53 be 32 68 88 be 82 36 22 3e
       -0.041782737 -0.20619224 -0.26641995 0.15841106
000310 6e f1 6a be 6f d5 88 bd 55 38 79 3e 32 7e 87 bd
       -0.2294366 -0.06681334 0.24337895 -0.06615867
000320 85 07 48 be 1d a3 af 3d 15 ef 36 3e 67 1d 76 bd
       -0.19534118 0.08576033 0.1786464 -0.060086634
000330 71 d4 0b bd a4 5f 2e 3e f7 16 dc 3c 72 42 25 3d
       -0.034138147 0.17028672 0.02686642 0.04034657
000340 7d cf fc 3d 76 c9 84 3d 0f b6 63 be 49 bd 08 be
       0.12344263 0.06483738 -0.22237419 -0.13353457
000350 05 25 e0 3d 2f 74 d7 bc 76 8d a5 3c fd 15 70 3e
       0.10944561 -0.026300518 0.020209055 0.23445888
000360 57 6a dd 3d 64 c2 e4 3d 43 ea 54 3e 30 92 8b be
       0.10811298 0.111698896 0.20792489 -0.2725997
000370 2b b8 7e bc 1b 5a ca 3d f0 26 b0 bc 25 6b 02 be
       -0.015546839 0.098804675 -0.021502942 -0.12736185
000380 7a 4c 83 3d 56 3c 02 be 26 af f5 bd a5 7b 7b 3e
       0.06411071 -0.12718329 -0.119962975 0.24558885
000390 5d 4d 08 bd 56 1c 08 3d ec 08 1c 3e f4 1b bd bd
       -0.033276904 0.03323015 0.15237778 -0.09233847
0003a0 b3 61 d2 3d 73 53 6f be b1 fd d9 3d b1 31 20 be
       0.10272541 -0.23371677 0.10644091 -0.15643956
0003b0 e8 ad ca 3d 39 bb 5d be fc c6 56 be 2a bd 3f 3e
       0.09896451 -0.21653451 -0.20974344 0.18724504
0003c0 ea 98 18 bd 27 3c db bc e8 71 e9 3b bc 5e 7c 3e
       -0.037255205 -0.026762081 0.0071241744 0.24645513
0003d0 0c 66 1c 3d 41 a8 d2 3d 1e d5 b5 bd b7 30 97 bd
       0.038183257 0.10285998 -0.088785395 -0.073823385
0003e0 43 3d 4d 3e 0e d5 db 3d 80 6e 30 3d 63 50 41 be
       0.200429 0.10733996 0.04307413 -0.18878321
0003f0 05 3f 49 be 63 ca c5 3d f6 a9 17 be a7 25 23 3e
       -0.19652946 0.09657743 -0.14810929 0.15932332

node_model.2.bias f4 [16]
000000 06 2b 10 3e b1 c3 d5 bd c2 39 06 be 47 51 53 3e
       0.14078912 -0.10437716 -0.1310797 0.20636474
000010 03 9c cf bd 2f ab 6e be d0 8f 1a be 42 3e ad 3d
       -0.10137179 -0.23307489 -0.15093923 0.0845914
000020 1b 53 5e 3d bf dd 12 3e fe ac 48 3e 69 19 02 3e
       0.054278474 0.14342402 0.19597241 0.12705006
000030 7b 1a 3f 3d ab ab 40 3e 9d 0a 6c bd 9a ad c9 bc
       0.046656113 0.18815486 -0.05762731 -0.024618912

node_model.3.weight f4 [16]
000000 04 53 73 3f 02 72 95 3f 4a e7 86 3f 54 96 96 3f
       0.95048547 1.1675417 1.0539334 1.1764627
000010 50 c4 80 3f d1 0f 95 3f 40 c4 81 3f 4d e0 b0 3f
       1.005991 1.1645452 1.0138016 1.3818451
000020 32 82 9e 3f d1 b0 9f 3f 0e c5 82 3f f3 ea 8d 3f
       1.2383482 1.2475835 1.0216386 1.1087326
000030 db 5c 98 3f 2e 2d 96 3f da c9 96 3f 26 9a 82 3f
       1.1903337 1.1732538 1.178035 1.0203292

node_model.3.bias f4 [16]
000000 ee 65 5f bd 8d 68 e1 bd 80 09 8e bd e7 c7 c9 bd
       -0.054540567 -0.110062696 -0.06935406 -0.098525815
000010 08 40 bd bd 83 83 01 be 81 5b 9d bd 37 77 08 3e
       -0.092407286 -0.12647824 -0.076834686 0.13326727
000020 b5 bb d8 bd 2f c9 36 3e 95 f4 62 3d 2d ae 7b bd
       -0.10582677 0.17850183 0.055409033 -0.061445404
000030 bd e0 a7 3d e0 be 07 3e 8e d0 46 be 3b ca c2 3c
       0.08197162 0.13256407 -0.19415495 0.023778072

edge_model.0.weight f4 [16, 96]
000000 de 96 bb 3d 87 1e dd bc 44 ef 4a 3d 80 04 71 3c
       0.09159635 -0.026992096 0.049544588 0.014710546
000010 a5 67 08 3d 6f f0 43 bd 98 58 b6 bd ed db 65 3d
       0.033301968 -0.047836717 -0.08903617 0.05611794
000020 c9 5d b6 3d ea cd 97 bd 37 4c 51 bd 57 63 19 3d
       0.08904607 -0.07412322 -0.051098075 0.037448253
000030 72 4e 21 3d a0 0a a3 bb 05 45 2b bd d7 e1 9e 3d
       0.039381452 -0.004975632 -0.04181387 0.07757919
000040 96 7d 50 bd 25 e6 a4 3d 03 55 2c 3c 6a ac 2e 3d
       -0.050901018 0.08051709 0.010518315 0.042644896
000050 4c 68 08 3d e7 b4 fe 3b b4 20 d1 3d da 00 fd bb
       0.03330259 0.00777303 0.10211316 -0.007721049
000060 c0 f7 9f 3d 25 f7 fe 3c e0 7b 5f bd 15 8e 27 3d
       0.078109264 0.031123707 -0.054561496 0.040906984
000070 27 fb 75 bd dc 8d 54 3d 34 43 aa bc d5 a5 b9 3c
       -0.06005397 0.0518931 -0.020783998 0.022662083
000080 24 38 19 bb a7 79 cb 3c 98 d3 0e bd f0 12 1a 3d
       -0.002337941 0.024838282 -0.03486976 0.037615716
000090 bd 35 2f 3d 7b 9c f4 bd b1 f6 ab 3d 69 ae 97 bd
       0.04277586 -0.11943909 0.08396662 -0.07406313
0000a0 ee f7 41 bd b5 29 2b 3d 0d a4 b9 3d 5f ae 7d 3c
       -0.047355585 0.04178782 0.09064493 0.015483468
0000b0 7d 35 85 bd 74 4c d4 3c 81 7f 62 bd b3 7d 59 3d
       -0.06504343 0.025915362 -0.05529738 0.05309839
0000c0 6e 49 a0 3b 7b f9 9a bb be a1 94 bd 1d cd 36 3d
       0.004891566 -0.0047294474 -0.072574124 0.044629205
0000d0 aa e0 e2 3d fe b8 c6 bd e0 76 93 3d 46 ae b0 bc
       0.110780075 -0.09703253 0.07200408 -0.021567475
0000e0 18 21 a7 bc 14 86 b1 3d 2e 05 cf bd 3b 4e a6 bd
       -0.020401523 0.086681515 -0.1010841 -0.0812039
0000f0 49 e1 4c 3d 3b 71 4b 3d ff 04 1b bd ac 23 80 bd
       0.050019536 0.049668532 -0.03784656 -0.06256804
000100 a8 86 60 3c bf e0 9f bd 28 52 95 3b ff bb 9c bd
       0.01370398 -0.07806539 0.004556913 -0.07653045
000110 07 88 08 bd db db c2 3d fa 69 9f bd 08 b5 3e bd
       -0.03333285 0.0951459 -0.07783885 -0.046559364
000120 0d 3f a9 bd 7b 84 7e 3d 33 e2 b0 3d 30 f3 51 bd
       -0.08263979 0.062138062 0.08636894 -0.051257312
000130 d1 cb 79 3d fa e5 96 3d 68 9c b0 bd ba ca 1a 3d
       0.06098539 0.07368083 -0.08623582 0.03779099
000140 10 93 3d 3d b6 b0 57 bc 87 f0 88 3d 67 9c 04 bd
       0.046282828 -0.01316469 0.06686502 -0.03237572
000150 0a 5f 74 bc e0 dd 55 3d 8e ac c3 bd f9 6b df bd
       -0.014915237 0.05221355 -0.095543966 -0.10909266
000160 a9 67 b2 3c f8 4d eb 3c d6 68 0e 3d 1d 30 8c bd
       0.021777945 0.028723702 0.034767948 -0.068451144
000170 2b b3 b3 3d b8 7e 6e bd 04 16 72 bd 51 08 a8 bd
       0.08774408 -0.058226317 -0.059103027 -0.08204711
000180 18 7f cf bd 7f 7b dd 3c 7d 77 35 bd e1 fd 6f 3d
       -0.10131663 0.027036427 -0.044303406 0.058591727
000190 b6 65 c3 3d 20 50 0d 3d d3 f4 b4 3d 8e c2 9d bd
       0.09540884 0.03450024 0.08835759 -0.07703124
0001a0 3d 1a 88 3d f1 18 7c 3d c8 c1 35 bd 93 3c 2d bc
       0.066456296 0.061547223 -0.044374257 -0.010573524
0001b0 7d 46 76 bd fa b4 27 3c 05 f9 c2 bd 1b 24 73 bd
       -0.060125817 0.010236019 -0.09520153 -0.059360605
0001c0 23 dc b4 bd eb de 25 bc 01 25 27 3c 4b 2e a0 bd
       -0.0883105 -0.010123949 0.0102016935 -0.0782133
0001d0 47 19 17 bd 22 1a 21 3d d3 fd 92 3b 2a ea 2e bd
       -0.03688934 0.039331563 0.0044858246 -0.042703785
0001e0 1a 04 1d bd c3 8a e2 bc 2e 0a c9 bd 90 c8 ed 3d
       -0.03833399 -0.027654057 -0.09816395 0.1161052
0001f0 4a a4 c5 3b 48 0e e6 3c bf ac 8b 3d 49 1f bc 3d
       0.0060315477 0.028082982 0.06820058 0.09185655
000200 11 6f 75 bd 94 e2 fb 3c e3 d2 ba bd af be 12 3d
       -0.059920374 0.03074769 -0.09122255 0.03582638
000210 4a 86 6a bd a2 75 b6 3c 3a 60 a3 bd 2c 6d 6c 3d
       -0.057256974 0.022272889 -0.07977338 0.057721302
000220 36 98 8f 3d 3c 80 68 3d b7 97 b3 bd ce e1 81 3d
       0.07011454 0.05676292 -0.08769172 0.06341897
000230 15 60 9b bd 49 df ba bd d0 87 92 3d 8b 4f c9 3c
       -0.075866856 -0.091246195 0.071548104 0.024574062
000240 7e 0f 34 bd a5 aa 8f bd 0d 99 e5 3c 8a 57 30 bd
       -0.043960087 -0.0701497 0.028027082 -0.043052234
000250 12 7b aa bd a9 bc 59 bd 8d 1a bd bd f9 d8 05 3c
       -0.08324255 -0.053158436 -0.0923358 0.008169406
000260 07 51 82 bd 03 a6 8a bc 2c 55 1e be 9d 5f 2e 3d
       -0.06363111 -0.016924864 -0.15462178 0.042571653
000270 ec f8 8a bd f7 c4 06 3d d3 c3 2d bc 2c 74 ef 3d
       -0.06785759 0.032902684 -0.01060577 0.1169208
000280 61 55 a9 3d 91 0b e5 3c f6 29 17 bd af e2 ac bd
       0.08268238 0.027959617 -0.03690525 -0.08441674
000290 0a ab 82 bd 73 02 0f bd 41 c4 82 bd b8 34 63 3d
       -0.06380279 -0.034914445 -0.06385089 0.0554702
0002a0 1a 61 1c bd b8 bd 1f 3b cd c0 ff 3b 3b b7 d4 bd
       -0.03817854 0.0024374556 0.007804966 -0.10386511
0002b0 bc d9 8d 3d 59 01 12 bd 68 c6 5d bd 9c 38 e9 3a
       0.06926295 -0.035645816 -0.054144293 0.001779336
0002c0 5f 8a b4 bd ba 7c 66 bc f1 1f 89 bd f7 ac cf bc
       -0.08815455 -0.014067823 -0.066955455 -0.02535103
0002d0 2d 11 ef bc a8 2e 7c 3d 35 80 a4 3d e2 67 c7 3d
       -0.029182995 0.061567932 0.08032266 0.09736611
0002e0 c9 22 96 3c 8b 35 97 3d 68 ab aa bd 35 9e 94 bd
       0.018327134 0.073832594 -0.083334744 -0.07256738
0002f0 6a 4c 8c 3d ea a6 f5 3c 17 9b d7 3c f0 ae 7e 3d
       0.06850512 0.029986817 0.02631907 0.062178552
000300 e6 01 a8 3d 41 b4 7b 3d a5 df 51 bd ad 7e 32 bd
       0.08203487 0.0614512 -0.051238675 -0.04357784
000310 d5 a0 5c 3c ba 74 52 3d 25 e8 5f bc f7 3d 66 bd
       0.01346608 0.05138085 -0.013666187 -0.056211438
000320 2b 8c 51 3d 5b 47 a1 3d c1 63 e2 bb e9 b5 4e bb
       0.051159065 0.07874938 -0.0069088642 -0.0031541532
000330 8e ca 00 be 27 ca d5 3c 81 60 29 3d b1 65 89 bd
       -0.12577268 0.02609737 0.0413518 -0.06708849
000340 00 06 8f bd 3f 08 e8 bd 3e b0 a0 3d a1 dd b9 3d
       -0.06983566 -0.11329698 0.078461155 0.090754755
000350 e9 f7 cb 3d 34 33 83 3d 36 e9 1b 3c ec 83 57 3d
       0.099593945 0.064062506 0.009516051 0.052616045
000360 f1 69 59 3d 89 2c 99 bc 41 df 90 bd 71 bf 62 3d
       0.05307955 -0.018697994 -0.07073832 0.055358354
000370 d0 db a2 3c 9c f5 1f 3d 75 16 06 bd af 10 5a bd
       0.019880205 0.03905259 -0.03273626 -0.053238567
000380 c8 9d 88 bc c2 f2 1d 3c 23 07 59 3d 3f e4 68 3d
       -0.016676798 0.0096403975 0.05298532 0.056858297
000390 e8 e8 ef bc 5c 28 e8 3d db 5c 7a bd ec 1d d3 3b
       -0.029285863 0.11335823 -0.06112371 0.006442776
0003a0 ee 84 52 bd a4 de e9 3c 48 c7 a7 3d 8d c7 c1 bd
       -0.051396303 0.028548546 0.08192307 -0.094618894
0003b0 af 19 d3 3c 33 22 c6 bd f2 89 4b bc 52 89 02 bd
       0.025769083 -0.09674492 -0.012423025 -0.03186924
0003c0 9e ad 46 ba bf 43 aa bd b3 bf bf 3c bd 48 dd bd
       -0.00075789716 -0.08313703 0.023406839 -0.10804889
0003d0 4e 7a 8f 3c 32 40 92 bd 41 27 03 bd b0 dd ef 3d
       0.017514374 -0.071411505 -0.032019857 0.117122054
0003e0 69 f0 ba 3c 73 ff 5a bd 83 22 9b bd 6c 97 e0 bd
       0.022819715 -0.05346627 -0.07574942 -0.109663814
0003f0 d3 fd a7 bc cb 6b 67 3c 77 4e 64 3c 08 00 aa 3d
       -0.020506775 0.014124821 0.013934723 0.08300787

edge_model.0.bias f4 [16]
000000 57 5c 4b 3d 6d ab 49 bd 55 bb 07 bc b6 c5 66 3d
       0.04964861 -0.04923575 -0.0082844095 0.056340896
000010 2c 11 a3 bd b5 e3 a9 3d f9 37 a0 bd 44 05 fd bc
       -0.0796226 0.08295385 -0.07823176 -0.0308863
000020 bd f7 db 3c 15 1f 88 bc fe fe cf bd e5 5b a1 bd
       0.02685153 -0.016616384 -0.10156058 -0.078788556
000030 1c 5b 53 bc c5 cf 4c bd 01 d6 c0 bc 81 df 86 3d
       -0.01290014 -0.050002832 -0.023539545 0.06585599
