tmp/tmp2model300.pt (torch, 23679 bytes, 25 tensors)

node_encoder.0.weight f4 [16, 5]
00000000: 60d1 003e 1ca2 b2bd c1f1 163e a020 bbbc
00000010: 1bd7 563e 05c0 cd3d 6222 6bbd ce1d b9be
00000020: 981c d13d 68b8 cabe 80bf 703d 3079 f33c
00000030: 4867 c9bd 163b bb3e d07e f43c bd11 3b3e
00000040: 52df 3e3e a08e 84be ee0c 30be bd00 e43e
00000050: 3446 e0be e0d2 f8bc 282b 11bd b869 a23e
00000060: a825 2ebd c82b f13d 70dd afbc 8036 80be
00000070: a5c7 81be 697c 5ebe 1c00 d0be 8399 94be
00000080: f88d d73d aab2 963e e079 b43c 4412 51be
00000090: 541b 4a3e 012b 29be 40e3 cabd bb0c 7bbe
000000a0: e2cb 0fbe aa2a d4be b866 433e ec10 323e
000000b0: 58ed b53d e952 603e 2323 423e 8d56 7d3c
000000c0: 10ff 413d 68a4 923c 9de1 843e 9ed1 9f3e
000000d0: b359 ad3e d8b6 843e a3ae cebd 3f48 e3bc
000000e0: 3dbc e1bc ad36 813e 506f 4b3d 57e9 cf3e
000000f0: 7e2e 543e 5f1d cabe 1935 dd3d bc03 dc3e
00000100: 8d3c c23e e86e d3bc 6bb1 043e f0c9 d6be
00000110: 6cfe 11be 2aeb 673e fce6 c9be 922a ce3e
00000120: 1494 96be 24d0 103e 7e81 1bbd 12f7 d33d
00000130: 244e 8b3d f5f1 e2be e8bb c4bd 8ad0 8fbe
0.1257987 -0.08722326 0.1474066 -0.022842705 0.20980494 0.100463904 -0.057405837 -0.36155552
0.10210532 -0.39593816 0.05877638 0.029720873 -0.098341525 0.36568516 0.029845625 0.18268485
0.18639877 -0.25890064 -0.17192432 0.44531813 -0.4380356 -0.03037399 -0.035441548 0.31721282
-0.04251638 0.11775929 -0.021467894 -0.2504158 -0.2534763 -0.21727146 -0.40625083 -0.2902337
0.10525125 0.29433185 0.02203077 -0.20417124 0.19736987 -0.16520311 -0.09906626 -0.24516575
-0.14042619 -0.414388 0.19082153 0.17389268 0.0888316 0.21906628 0.18958716 0.01546253
0.047362387 0.01790066 0.2595338 0.31214613 0.33857498 0.2592075 -0.10091903 -0.02774441
-0.02755558 0.25237027 0.049666703 0.40607712 0.2072086 -0.39475533 0.10801143 0.429716
0.37936822 -0.02580972 0.12958305 -0.4195094 -0.1425721 0.22648302 -0.3943404 0.40266854
-0.2940985 0.141419 -0.03796529 0.10349859 0.068020135 -0.44325224 -0.09606153 -0.2808879

node_encoder.0.bias f4 [16]
00000000: 1b8c ce3e 1273 79bd 29fe e3be 792a d83d
00000010: 64df 463e f600 4dbe 10d6 2bbd 64d2 463e
00000020: 0078 8ebe f598 72be a62f b6bc 2ecf a4be
00000030: 19af 823e 83c9 913c 00ae 8f3e 7d39 873e
0.40341267 -0.060900755 -0.44529846 0.10554976 0.19421154 -0.20019898 -0.041952193 0.19416195
-0.27825928 -0.23691161 -0.022239517 -0.32189316 0.25524214 0.017796284 0.2806244 0.26411048

node_encoder.2.weight f4 [16, 16]
00000000: 4a61 38be 956a 19be 7419 2fbe f329 9dbd
00000010: e818 bbbd 68ff 24bd 90a7 77be ba41 bf3d
00000020: 023b 113e 23ed b33d a183 2f3e 01c8 3a3e
00000030: c60d 6ebe 439a 013d 2667 613e 6c57 48be
00000040: 4217 f3bd 31c1 eabb dc40 1fbe f809 57bd
00000050: 3051 17bd ae16 643e a0c6 80bc 732e 1b3e
00000060: 6876 3b3e 3e21 c53d c9e9 6cbe 5217 373e
00000070: c257 253e 0491 20be 55db 8bbd 5aa0 423e
00000080: f320 65be ec4b 5abe 9281 2dbe 008c d33d
00000090: ac15 d1bd aa4f 64be 7477 c63d abdf 2c3e
000000a0: a0c6 bf3d 6e1e 4cbe a9c7 843e 897a 413b
000000b0: 3484 5fbe b9de b9bb 5811 523e 22fb 213e
000000c0: cf8d 943b 8753 2e3e b291 69be 2848 2d3e
000000d0: 7e1e 7e3e 22aa 1bbe a0a4 5b3d 21b8 39bd
000000e0: d41c 58be f908 6ebc c628 a6bd 4a75 4bbe
000000f0: d401 2fbe c217 c9bb eecc 643e 0f80 aa3d
00000100: d758 2fbe 456e 2a3e a01b a83c a80a 82be
00000110: 804b 423c 4856 243e 8287 16be ac05 0ebd
00000120: 4816 ffbd 2864 4ebe 63b2 14be b5b8 f53b
00000130: 532e 243e fd28 6dbd 0342 7abe 472b d9bc
00000140: c1a9 70be 7278 a93c dccd 3d3e 2b0c b53d
00000150: 3294 1cbe 78fe 61bd a004 cd3d 5e84 7d3d
00000160: a477 70be 0889 21be 153d d3bd 4c19 953d
00000170: 8f4a 513e e0d4 be3d ef37 ae3d ad69 5ebe
00000180: 9cc2 223e ce11 ab3d c0a3 a4bd 2738 f8bd
00000190: ac8e 913d 8cc3 0abe 88d7 cf3d 9a06 483e
000001a0: 2cea 28be 36ad 21be ecb0 dabd 26a6 6ebe
000001b0: 7164 0abd d961 243e b212 ca3d 045e 9abd
000001c0: 094e a9bc fc65 d2bd 54a7 4ebe 689c 37bd
000001d0: f056 8d3c ead2 01be fec9 3fbe ea75 d03d
000001e0: 28d6 163d 715b 86bd 609a a33d fd08 813e
000001f0: 132d 993c 2e64 16be 56f6 833e 84f5 543e
00000200: 46db 17bd fffe dabd 6c09 d8bd f2a5 5c3e
00000210: 3ebb 053e bca5 03be 007a 233c 2721 a93c
00000220: c058 873d 43a0 abbc 3d8a 12be 7cbf 9f3c
00000230: 2a93 9fbd d6b3 e2bd ff88 1cbe b292 19be
00000240: c8b5 f8bd 1374 bd3d d66e 58be 346b 74be
00000250: e4f5 5a3e 9cce b73d d097 0d3e 073d eb3d
00000260: b44a c3bd 687d 23be e889 32be 2ee1 a3bc
00000270: 9e7c 693d e6ec 6bbe 9002 3fbe 340b 173e
00000280: 3497 f23c 7700 2f3e 9c05 643e 3750 173e
00000290: 789e 59bd 34cf e3bd cce1 903d 15c9 383e
000002a0: 7a6e 75be d15d 823d 63eb 47be d718 45be
000002b0: 8779 bc3d bdac ec3d 4292 863d 3a3b 483d
000002c0: b8dd 9abd 504e 453c 480e 62be 01c7 0cbe
000002d0: 409c a73b a0be 6abd d82f 1fbd 41e0 273e
000002e0: 143b c03d 0c7f 36bd d1a3 acbd 0569 2fbe
000002f0: dfb5 043e 0a44 12be 06e6 d83d 206b 9dbc
00000300: cb31 4d3e 0e7a 29be b84b 27be 2082 cc3c
00000310: 40b5 f03b b83b dcbd 2cae 7f3e 72c8 42be
00000320: 1cba 0a3e 5db1 013e cf45 49bd c596 883d
00000330: 0291 2ebd acda 31be caeb 3b3e dfec 3abd
00000340: b0d3 24bd 917e 803e bae7 773e 7d4f 44be
00000350: 4c20 86bd 38f7 103e 28ab 1e3e cbc3 28be
00000360: 6036 3abe b99a d83d 8114 2ebe 48df 3f3e
00000370: a79c 49be c739 18be 189a d73d 8ea0 1a3e
00000380: 1e28 debd 244b 1abe 5435 c43d a1fc 9b3d
00000390: 904a 833d 2e0e 6cbe 045f 9abd 5aef b2bd
000003a0: 8069 293b d194 663e 4d7c 49be fac6 86bc
000003b0: 64ca 933d 732f 1e3e 3ee3 75be f767 6c3c
000003c0: c7c0 543e 68e2 20be de3c 1f3e b88a e5bc
000003d0: 4e70 663e 84fe 5bbe a8a2 333d e6c2 363e
000003e0: 6647 393e 88a0 eebd 356b 46be f669 da3c
000003f0: 1ca4 debd bbe7 1c3e 219d 0abe 016b aa3c
-0.18005863 -0.14982064 -0.17099553 -0.07674017 -0.0913561 -0.040282637 -0.24185014 0.09338708
0.14182666 0.087854646 0.17140056 0.18240358 -0.23247442 0.031641256 0.22012004 -0.19564599
-0.118696705 -0.0071641435 -0.15552086 -0.05249974 -0.03694266 0.22274277 -0.015719712 0.15154438
0.18306887 0.09625481 -0.23136057 0.1787999 0.16146758 -0.15680319 -0.06828944 0.19006482
-0.2237585 -0.21318024 -0.16943958 0.10329437 -0.10209212 -0.22296014 0.096907526 0.16882198
0.093640566 -0.19933483 0.2593358 0.00295225 -0.21827775 -0.0056723026 0.20514429 0.15818456
0.0045335065 0.1702405 -0.22809485 0.16922057 0.2481632 -0.1520162 0.053623796 -0.045341615
-0.21104747 -0.014528506 -0.08113246 -0.19868961 -0.17090541 -0.0061368654 0.223438 0.083252065
-0.17123733 0.16643627 0.020520985 -0.25398755 0.011858821 0.16048539 -0.1470013 -0.034673378
-0.12455422 -0.20155394 -0.14521174 0.0074988254 0.16033296 -0.057900418 -0.24439244 -0.026509894
-0.23502256 0.020687316 0.1853556 0.088402115 -0.15290907 -0.05517432 0.10010648 0.061893813
-0.2348314 -0.1577493 -0.10314385 0.072802156 0.20438598 0.093179464 0.08506762 -0.2172
0.1589455 0.08353005 -0.08039045 -0.12120085 0.071072906 -0.13551158 0.10148531 0.19533768
-0.1649558 -0.15788731 -0.106782764 -0.23305568 -0.033787195 0.16052951 0.09866847 -0.07537463
-0.020667093 -0.10273358 -0.20181018 -0.044826895 0.01725337 -0.12678114 -0.18729398 0.1017874
0.03682533 -0.0656041 0.07988429 0.2520217 0.01869825 -0.14686653 0.25773877 0.20796782
-0.03707435 -0.10693168 -0.10548672 0.21547678 0.13059708 -0.12856191 0.009977818 0.020645691
0.066087246 -0.020950442 -0.14310546 0.019500487 -0.07791741 -0.11069457 -0.15286635 -0.14997366
-0.12144047 0.09250655 -0.2113603 -0.2386902 0.21382862 0.089749545 0.13827443 0.114862494
-0.09535733 -0.15965807 -0.1743542 -0.020004835 0.05700361 -0.23039588 -0.18653321 0.14750367
0.029613115 0.17090021 0.22267765 0.14776693 -0.053129643 -0.11123505 0.07074317 0.18045457
-0.23967925 0.0636555 -0.19523387 -0.19247757 0.09202867 0.11556385 0.06570865 0.048884608
-0.07561821 0.012042597 -0.2207576 -0.13747789 0.005115062 -0.0573107 -0.038863987 0.1639414
0.09386268 -0.044554755 -0.08429683 -0.17129906 0.12960003 -0.14283767 0.105907485 -0.01921612
0.20038526 -0.16550466 -0.16337478 0.024964392 0.0073458254 -0.10753578 0.24968785 -0.19021776
0.13547558 0.12665315 -0.04913884 0.06669382 -0.04261876 -0.17368573 0.18351665 -0.045636054
-0.040240943 0.25096563 0.2420949 -0.19170947 -0.06549129 0.14156806 0.15494978 -0.16480939
-0.18184805 0.10576386 -0.17000009 0.18737519 -0.19688664 -0.1486579 0.10527438 0.15100309
-0.108474955 -0.15067726 0.09580484 0.076165445 0.06410706 -0.23052284 -0.07537654 -0.08737059
0.0025850236 0.22517706 -0.19676323 -0.016452301 0.07216337 0.15447788 -0.24012467 0.014429084
0.20776664 -0.15711367 0.15550563 -0.028020248 0.22503778 -0.21483809 0.043856293 0.17847785
0.18093643 -0.11651713 -0.19376834 0.026661854 -0.10871145 0.15322773 -0.13536502 0.020802977

node_encoder.2.bias f4 [16]
00000000: 1c26 56be aca7 c9bb d7bf 743e 7cca 0c3e
00000010: a907 ca3d 1c00 27be abcf 593e 42e8 dfbd
00000020: ce99 583e 2d86 56be 5f5a 02be 8cfb 96bd
00000030: d794 4d3d c752 0e3e add9 0d3d 5514 aebd
-0.20912975 -0.0061540212 0.23901306 0.13749117 0.09864742 -0.16308635 0.21270625 -0.109329715
0.21152422 -0.20949621 -0.12729786 -0.073721975 0.050190773 0.13898765 0.03463142 -0.08499972

node_encoder.3.weight f4 [16]
00000000: c5f0 7d3f 5081 803f 3391 823f 05de 7f3f
00000010: 73ad 803f c934 813f 81ee 7f3f d5ac 7f3f
00000020: d48e 7d3f d60a 803f 367e 7e3f 56d3 793f
00000030: 9660 803f dc8c 813f 7908 7f3f 4ea5 7d3f
0.9919551 1.0039463 1.0200561 0.9994815 1.0052933 1.0094234 0.99973303 0.99873096
0.99046063 1.0003307 0.9941133 0.975881 1.0029476 1.0121112 0.99622303 0.9908036

node_encoder.3.bias f4 [16]
00000000: 92b5 0e3c 5496 053b 5d38 983c 67a0 d33b
00000010: d140 b1ba 5585 27bc b2f0 d639 a618 a63c
00000020: c1dc 99bc 5f69 55ba 30b2 e0ba 5796 223c
00000030: 8859 1b3c fbe4 da3b 6a09 46bc c502 103c
0.008710282 0.0020383792 0.018581564 0.0064583304 -0.0013523345 -0.01022466 0.00040996593 0.020275425
-0.018782021 -0.00081410067 -0.0017142948 0.009923539 0.009481795 0.0066801286 -0.012087205 0.008789723

edge_encoder.0.weight f4 [16, 4]
00000000: 56e4 cbbe e0f3 2abe 89c1 69be 8d68 8abe
00000010: d04c 973e 75c0 b73d 0c99 89be 3ecb 813e
00000020: eaa7 acbe ae88 96be 6064 46bd afaf a23e
00000030: 6f24 833e 75d7 b7be 3bf5 ccbe e82c 1e3e
00000040: c61a 493a 6df3 603d d9fb 933c 6845 b7be
00000050: 50c4 acbd 0c9d 23be f00c b1bd fcf7 a03e
00000060: d239 f0be 0245 1b3d 061f 003f 3e09 e5be
00000070: b37c ea3e 7a3e 033f 0f6f 073f fb3a ae3e
00000080: 1062 4bbe c73e 713e 54cc 983d d8f8 f23e
00000090: ecb8 f6be a49e 7b3e 36be 9cbe 3aa3 e6be
000000a0: a653 f93e 3a70 fc3d c082 30be 36b9 e9be
000000b0: d47a ddbd ddcd 9abd 53a7 e83b d066 38be
000000c0: b08d 0c3e 0ce8 ab3e 3e30 cebe 781e 42be
000000d0: 0b0a e03e da19 f6be 086b d33e a8e5 b7bd
000000e0: a1a6 013e 0a46 91be c50f 613e 25f0 8e3d
000000f0: 1bab f5bd e877 f33e 66a6 dcbe d8fa ca3e
-0.39822644 -0.16694593 -0.22827734 -0.2703289 0.2955079 0.08972255 -0.26874578 0.25350374
-0.33721858 -0.29401153 -0.04843557 0.3177466 0.25613734 -0.35906568 -0.40030846 0.15446818
0.0007671531 0.05491965 0.018064426 -0.3579514 -0.08435881 -0.15977877 -0.08645046 0.31439197
-0.46919113 0.037907608 0.5004734 -0.44733614 0.45798263 0.51267207 0.52903837 0.34029374
-0.19861627 0.23559104 0.074608475 0.47455478 -0.4818796 0.24572235 -0.3061387 -0.45046407
0.4869663 0.12326093 -0.17237377 -0.45649117 -0.10814443 -0.075587966 0.0071000247 -0.1800797
0.13725924 0.33575475 -0.4027118 -0.18956935 0.43757662 -0.48066598 0.41292596 -0.0897935
0.1266122 -0.28373748 0.21978672 0.06979398 -0.119955264 0.4755242 -0.43095702 0.39644504

edge_encoder.0.bias f4 [16]
00000000: 5bf4 aa3e 9226 abbd 3cdf 29be 5b93 c53e
00000010: e011 613e 085a e3be a189 c0be 6b83 efbe
00000020: 7972 5dbe 7361 c2bd b467 513e 6fe7 963e
00000030: ec48 e4be 9883 873e 425f 293e 7743 253e
0.33389553 -0.08356966 -0.16589063 0.38588986 0.21979475 -0.44404626 -0.37605003 -0.4677995
-0.21625699 -0.09491243 0.20449716 0.29473445 -0.44586885 0.26467586 0.16540244 0.16139017

edge_encoder.2.weight f4 [16, 16]
00000000: 7ca9 63be 3a37 33be 2aaf 71bd c29d fb3d
00000010: 056d 2dbd 00e9 9fbd e744 e23c 8e23 923c
00000020: d564 06be 2138 0c3d bbad e7bd f290 603e
00000030: 20aa 743c 93f9 0d3e 0057 4abe bf98 aebd
00000040: 41e3 cf3d 5bbb 29be 4be3 d63c ce0e 0cbe
00000050: 2046 a4bd 80fd 483c 2854 4bbe 586b b03d
00000060: c03d 1c3e edac 4fbe 15af e8bc f894 5abd
00000070: ae32 68be 289d 81bd 36ef 4b3e 6b1e 5e3d
00000080: c76e 1dbc c906 523e d08c bf3d e007 333e
00000090: 402e 5cbe 3610 093e acc5 5c3e 3d99 5b3d
000000a0: b28b 47bd eff1 593e 30e6 1cbe f5c1 a43d
000000b0: 22dc 7dbe a487 56be cd53 77be d6b9 48be
000000c0: 3aa0 c7bd 2967 4bbe 8d78 20be c75c e6bd
000000d0: 272f ee3d ae19 6e3e 4068 ef3d b2cc 1dbe
000000e0: 9f3c 02be 1d51 073e 4a6f 11be 5ba9 4dbe
000000f0: e8c6 c8bd f58e 743e 685d 573e 892f 51be
00000100: 9d25 823e ed7b 08be 1519 97bd c870 69be
00000110: 913e 5b3e d6ee 493e ac96 803e 6d85 dd3d
00000120: 970b 3bbd 90bc 143e 8b15 8ebd 011a 69be
00000130: 9ac2 0bbe 7130 183e 0ad8 5ebe f29f 72be
00000140: 8921 5c3e e285 43be 831d 7a3d 9526 803e
00000150: 6cb8 6a3d 20e5 fabc 7e87 b63d 9720 543e
00000160: 277a 27be 1dff c93d fefa cfbd 90ec 25be
00000170: 0026 58bc 13b0 263e 536c 4cbe c929 85bd
00000180: de4c 89bd d08a 0d3e ecf3 a03d a28f f63d
00000190: 6b67 423e 80c2 0b3e 3035 e5bd 46a2 6a3c
000001a0: bc13 323e 5aa6 223e 66f1 31be 0edb e1bb
000001b0: dc3d d43d fde2 983d 2586 54bc bdf8 c8bc
000001c0: 9605 ca3d a84b 00be 0317 1b3e e39f 55be
000001d0: 72a1 66be b083 f13c f3bb 123d e06f 8c39
000001e0: 89f9 4bbe 1224 8f3d 4750 67be 86b3 e33d
000001f0: 8e94 213e f3dd 0cbe 6f0f e63c 29c9 173e
00000200: 6979 2cbd f64b d33d 30fa 22be d27a 823d
00000210: 63e6 8e3d 00fe 333d 8192 31be c9bf 113b
00000220: 64c5 363e 553a 44be 6ea9 8f3d f07e e7bd
00000230: 049a f4bd 5060 2fbe b701 ea3d 7e15 3c3e
00000240: 974d 5abe e8fc 553e 8e5a f53d 45a3 6e3d
00000250: 68d0 413e 001f 5c3d 0a64 693c 611e a73e
00000260: 24e7 20bb 605b 4d3e 35af 9f3a d3e0 5e3e
00000270: b075 b23c 5129 a7bd 9fd9 18bd 7b2c 5bbe
00000280: 75ab d9bd a2f8 fe3c 8727 5cbe 5834 53be
00000290: 36e7 903d 30b9 973d 7a5a 9dbd d96f 593e
000002a0: f73f b3bd 4c5e 0cbe d847 2f3d b9b9 fe3d
000002b0: 882a 03be eecf 833d b0d0 973d 81b6 e43d
000002c0: ef0d 283d 38f0 70be db43 85be 6276 573e
000002d0: d1d6 163e b64c 713e cf60 033e 0fef 133e
000002e0: 82c6 aebd c5bb e03d d7cb 043e 00ba 1dbe
000002f0: 0050 56bb edfa 6fbe 0e91 f33d 98f6 38bd
00000300: 2444 34be 23b7 213e c140 86bd 8624 26be
00000310: 5ab4 5abc 442f 18be adfa 193d 66bd 513e
00000320: 49e5 e63c 8518 813c 34a3 e2bc ecec 403e
00000330: 3614 513e d76b 913c a929 4abe a6cb 023e
00000340: 4a11 b73d bd28 0e3e 1d9b a1bd ed81 f73d
00000350: 88dc 3a3e c091 293e dad6 41be b18c a4bc
00000360: 2877 3dbe 64fa 70be 56ca 37be 17c7 d63d
00000370: be8d 2a3e d235 33be f4f1 25bd a120 a63d
00000380: 76c9 e13d 045d c93d c1ab 393e ea9f 063e
00000390: e8c5 4ebe 6c5e cb3d 9f38 393d f2e4 99be
000003a0: fd2e 253e a9d5 e43d 3bb8 49be 0368 e7bc
000003b0: 24a6 fe3d 65ae 473d 8751 6a3e 5ed0 5ebe
000003c0: f09a 11bd 7259 7cbe 60ab 683e 77ba 0bbe
000003d0: 3bec fe3d eab2 1b3e 259f abbd 5985 07be
000003e0: 2913 3a3e fa8a 753e 56d0 c0bc 0375 0cbd
000003f0: a4d9 5c3e c54d d73c 57bf 12be 6f6b 043e
-0.22232622 -0.17501536 -0.05900494 0.12285949 -0.042340297 -0.07808113 0.027620746 0.01783922
-0.13124402 0.034233216 -0.11312433 0.21930292 0.014933139 0.13864736 -0.1975975 -0.08525228
0.10150767 -0.16575377 0.026231429 -0.13677523 -0.08021188 0.01226747 -0.19856322 0.08614224
0.15257931 -0.2028081 -0.028403798 -0.053364724 -0.22675583 -0.06328803 0.1991547 0.054228228
-0.009608931 0.20510401 0.0935303 0.17483473 -0.21502018 0.1338509 0.21559781 0.053612936
-0.04871721 0.21283697 -0.15322185 0.08044807 -0.24791005 -0.2095018 -0.24153061 -0.19602141
-0.09747358 -0.19863571 -0.15670986 -0.112481646 0.11630087 0.23251984 0.11689806 -0.15410116
-0.12718438 0.13214536 -0.1420261 -0.20084135 -0.09803563 0.23882659 0.21031725 -0.2042829
0.25419322 -0.13328524 -0.07377831 -0.22796929 0.21410586 0.19720015 0.25114954 0.108164646
-0.04566535 0.14525056 -0.06937703 -0.22763826 -0.13648453 0.14862229 -0.217621 -0.23693827
0.21497168 -0.19094041 0.0610633 0.25029436 0.057304785 -0.030626833 0.08912562 0.20715557
-0.16355191 0.09863112 -0.10155295 -0.16203523 -0.013192654 0.16278104 -0.19963197 -0.065021105
-0.067041144 0.13822484 0.078590244 0.120391145 0.18984763 0.13648415 -0.11191785 0.014320916
0.1739034 0.1588377 -0.17377242 -0.0068925684 0.10363361 0.074651696 -0.012971436 -0.02453267
0.09864347 -0.1252886 0.15145497 -0.20861773 -0.22522524 0.029481739 0.035823774 0.00026786234
-0.19919409 0.06989302 -0.22589217 0.11118226 0.15779325 -0.13756542 0.028083531 0.1482283
-0.042107973 0.10317223 -0.15915751 0.06371082 0.069775365 0.043943405 -0.17341043 0.0022239557
0.17848736 -0.19162877 0.07014738 -0.11303508 -0.11943439 -0.17126584 0.11426108 0.18367574
-0.2131866 0.20897257 0.119801626 0.058261175 0.18927157 0.0537405 0.014245043 0.32640365
-0.0024551833 0.20054388 0.0012182953 0.21765451 0.021784633 -0.08162177 -0.037316915 -0.21403687
-0.10628406 0.031124417 -0.21499453 -0.20625436 0.0707535 0.074083686 -0.07683273 0.21234073
-0.08752435 -0.13707846 0.042793125 0.124377675 -0.12809193 0.06436144 0.07412851 0.11167622
0.041028913 -0.23529136 -0.26028332 0.21041253 0.14730383 0.23564419 0.12829898 0.14446662
-0.08533956 0.10973314 0.12968384 -0.15402985 -0.0032701492 -0.23435564 0.11892901 -0.045157045
-0.17604119 0.15792517 -0.065553196 -0.1622487 -0.013348663 -0.1486178 0.03759258 0.20482406
0.028185504 0.015758762 -0.027665712 0.18840379 0.20417866 0.017751617 -0.19742455 0.12772998
0.089388445 0.13882728 -0.07890914 0.12085328 0.18248188 0.16559505 -0.18929616 -0.020086618
-0.18502486 -0.23533016 -0.17948279 0.10487192 0.16655633 -0.17501 -0.040513948 0.08111692
0.11024754 0.098321944 0.18131925 0.1314694 -0.20192683 0.09930119 0.045220014 -0.30057484
0.16131206 0.11173565 -0.19699185 -0.028247839 0.124340326 0.0487503 0.22882663 -0.21759173
-0.03554815 -0.24643496 0.22721624 -0.1364535 0.12447401 0.15204969 -0.08379964 -0.13234462
0.18171372 0.23978797 -0.023536842 -0.03429128 0.21567398 0.0262822 -0.14330803 0.12931608

edge_encoder.2.bias f4 [16]
00000000: e56c 6cbe 3c47 3f3d 7edd 44be 4219 47bb
00000010: 5627 9ebd 30bf debd f1a4 dbbd dfcc 573d
00000020: 0c13 873d 56ba 4bbe d308 7d3e 68e7 263e
00000030: 041d 3fbe d9e0 783e de1c 80bd dd33 28be
-0.23088415 0.046698794 -0.19225118 -0.0030380045 -0.077223465 -0.1087631 -0.107248195 0.052685615
0.0659543 -0.198953 0.24710397 0.16299212 -0.18663412 0.24304523 -0.06255506 -0.16426034

edge_encoder.3.weight f4 [16]
00000000: f68b 7d3f 59b6 823f b449 813f 7f59 7b3f
00000010: ff25 7d3f bdac 803f 89e0 7c3f d37c 833f
00000020: a738 813f 9a23 7e3f f9b4 803f 2c2e 813f
00000030: 1391 7d3f cb43 813f 5589 833f 2154 7f3f
0.9904169 1.0211898 1.0100617 0.98183435 0.988861 1.0052716 0.98780113 1.0272468
1.0095414 0.99273074 1.0055228 1.0092216 0.9904949 1.0098814 1.0276285 0.99737746

edge_encoder.3.bias f4 [16]
00000000: 9238 1d3c bb68 ba3c 2541 24bc faab fb3b
00000010: bcbc 143c a57a 033b f97b 96bb 1583 60bc
00000020: 1398 9f3b f06b 3a3c 04b8 ce3b 88f2 f53b
00000030: 16fd 433c c853 0f3c 1394 94bb 810e 85bb
0.009596007 0.022755018 -0.010025297 0.0076804133 0.009078201 0.0020062116 -0.0045924154 -0.013703127
0.0048704236 0.011378273 0.0063085575 0.0075057186 0.011962196 0.008748002 -0.0045342534 -0.004060567

node_model.0.weight f4 [16, 48]
00000000: 07b1 8a3d 838c 143d ae71 87bd 7300 233d
00000010: f445 733d 44a0 883d 8c3e c1bd 2120 16be
00000020: 9c25 babc 8de8 04be 08f9 bc3c 421e 0bbe
00000030: b046 d8bc 8eed d53d d2a7 c2bd eb14 12bd
00000040: 37ce 813d eb54 e6bd 631b 17be 4ddc 28bd
00000050: ed54 2f3d 6335 1f3d 7c77 a5bd 9f73 f6bc
00000060: e1f3 07bd 3c69 0fbe 852e a3bb 3048 17bd
00000070: 8710 09be f28c a8bd a5d7 ec3d 2f00 733d
00000080: 188c e3bd 271f 013d b47b 28be b5b6 a1bd
00000090: 5749 1e3d 0dcc 89bd 4357 d6bd 84fe 913c
000000a0: 5e19 123d 19d9 f53d 0f88 96bc a23a 063e
000000b0: c6ad b63d 2061 20bd f36e f73d 8138 9ebd
000000c0: 4980 763c b679 983b c034 133d 1382 9f3d
000000d0: e794 5a3d e935 28be b322 d53d c86d 503d
000000e0: da49 6ebd a78f c23d 4f23 343c 7fb3 e4bd
000000f0: 6b2a 153e 57ec b23d 1e42 a03d 89b5 273c
00000100: 4da6 1e3d 325a 773d 87ff f63d 1392 1c3e
00000110: 4e7d 9b3c 9719 dfbb 39ed d7bd 8a0e d63d
00000120: d15d 18bd a02d 9cbb a013 8e3d 89f9 4dbd
00000130: b31f 913b 6148 e7bd b075 38bd bf07 02be
00000140: 3f44 49bd 8b4a 393e dbdd 9fbd 380e a1bd
00000150: b15a 24be 6cbb ef3a 545c 0d3e c930 a13d
00000160: a201 3b3e bef9 cb3c 7c5a ec3d 50aa 9fbd
00000170: 79d5 9bbd 0248 29be 4a2e 1dbe 0210 293d
00000180: 683e 89bb 436d 08be f95c babc 538e 0ebe
00000190: 6970 9b3d 374d c63d c766 cfbc 6375 f9bb
000001a0: 2e45 803c 5930 823c 7ccf 8abc 4873 75bd
000001b0: 7db6 cabc 0a36 333d 3699 02bc 2793 713d
000001c0: 653c 14bd 19c8 003e 46ef b33d de1d 6ebd
000001d0: 939b 00be 03e3 8d3d 9e34 f2bd 3daa 0f3e
000001e0: 3307 0dbe ba40 aa3d 8125 52bc 7896 a93c
000001f0: d6ff e33d 82cc d63d f656 e8bc a614 65bd
00000200: ab08 953d e809 39bd eeca 0ebe 953f 10be
00000210: cc61 1cbd c49e 5e3d 4c18 71bc b07f 053d
00000220: 580c c3bd f486 56bd 915b 1d3d ee8d 223e
00000230: e600 7fbd c0d7 4bbd 5078 233d 6a11 83bc
00000240: c498 3bbd 69d0 09be bda3 ef3d 5a10 55bd
00000250: 7867 9b3d 84be dcbd f16b f9bd 7108 883d
00000260: 2300 e6bd d9fb 273c ee62 a33c 453b 023d
00000270: 2bb2 e6bd 8d2b 5c3d f516 5a3c da92 563d
00000280: 8cce e53d a0cc e7bd 4920 eebb 7b0b 253d
00000290: 5eba 47bd 5440 b73d e220 d73d 37cf a9bd
000002a0: ae9d 27bd a89e 8b3d 4490 93bd 5e03 edbd
000002b0: 9b6d 153e 21f0 40bc 14d1 ba3d c2f7 973d
000002c0: 73fe 97bc 4e6e b9bd 0881 bc3d 538d 3cbd
000002d0: 4d74 8fba 8db7 9bbd c145 593c a32f acbc
000002e0: 3d2f babd ff10 12be 2a77 babd 4f44 58bd
000002f0: 7e83 1f3d d37c 003d 8b97 00be 3a0b 8fbd
00000300: a13f 033e f522 06be 9e01 16bd 2a95 123d
00000310: cdf5 ddbd 250b 0cbe 84d0 933d d761 d5bd
00000320: 6e12 023e 1536 cb3d 83d6 af3d 40fa bcbd
00000330: 9e55 17bd fbf6 843d ca5d b6bd 84a7 85bb
00000340: ae79 9c3d 6607 503c 6df9 333d 627a 26bd
00000350: f99b bb3c 09ca f8bd 7313 893d 1635 eabb
00000360: 4e9f d63d 9912 8fbc 3bb0 8fbd a606 063e
00000370: ca9d 0e3e 01eb c63d 6e51 15be a831 05be
00000380: a77d c43b da8c 25be d6fc b23d c953 023e
00000390: 1968 cb3d 7055 5bbb 62eb 81bd 2b17 aabd
000003a0: dc60 223d aa62 c43d f39e 9cbd 6d1e 0f3e
000003b0: f132 80bd 150b 18be 4fec edbb c2a4 bcbd
000003c0: c800 8cbd a752 f33d dad9 b1bd 7378 07be
000003d0: 4e68 253e 04dd c9bc 95f4 25bc 4156 a7bd
000003e0: 1073 89bd 8c76 c0bd 8fe0 cfbc 0524 14bd
000003f0: bca7 143e 7381 aebb 9a7c 573c 956d b1bd
0.067720465 0.036266815 -0.066134796 0.03979535 0.059392884 0.06671193 -0.09435758 -0.14660694
-0.022723012 -0.12979336 0.023067966 -0.13585761 -0.026400894 0.104457006 -0.095046654 -0.03566448
0.063381605 -0.112466656 -0.14756541 -0.04122572 0.0428056 0.038869273 -0.080794305 -0.03008443
-0.033191565 -0.14004987 -0.004979911 -0.036934078 -0.13385211 -0.08230008 0.115645684 0.059326347
-0.11110705 0.03152385 -0.16453439 -0.07896177 0.03864416 -0.06728373 -0.104658626 0.017821558
0.035668723 0.12004299 -0.018375425 0.13108304 0.089198634 -0.039155126 0.12081709 -0.07725621
0.015045234 0.004653181 0.03593898 0.077884816 0.05336466 -0.16426815 0.10407009 0.050885946
-0.0581759 0.09500056 0.010994746 -0.11167049 0.14566962 0.087364845 0.07825111 0.010236152
0.038732816 0.06038875 0.12060457 0.15290098 0.018980648 -0.0068084705 -0.105432935 0.10451992
-0.037198845 -0.004766181 0.06937337 -0.050286803 0.0044288277 -0.11293102 -0.04503411 -0.12698267
-0.04913735 0.18094842 -0.078059874 -0.0786404 -0.16050221 0.0018290109 0.13804752 0.07870633
0.18262342 0.02489936 0.11540696 -0.077961564 -0.07609076 -0.16531375 -0.15349689 0.041275032
-0.0041883476 -0.1332293 -0.022749411 -0.1392148 0.075898 0.09682696 -0.025317563 -0.0076128705
0.015657987 0.015892195 -0.01694464 -0.059924394 -0.02474522 0.043752708 -0.007971099 0.058978226
-0.03619041 0.12576331 0.08785872 -0.058133952 -0.12559347 0.06928065 -0.11826442 0.14029785
-0.13772278 0.08313127 -0.012826324 0.020701632 0.11132781 0.104882255 -0.028361779 -0.055927895
0.07277044 -0.045175463 -0.13944599 -0.14086755 -0.038179204 0.05435063 -0.0147152655 0.032592475
-0.09523839 -0.052374795 0.038417403 0.15874454 -0.062256716 -0.049766302 0.03990966 -0.015999515
-0.045799986 -0.13458408 0.117011525 -0.052017547 0.075880945 -0.107785255 -0.12178791 0.06642235
-0.11230495 0.010252916 0.019944634 0.031794805 -0.112644516 0.05375247 0.013311137 0.052386142
0.11221036 -0.11318326 -0.0072670323 0.04029415 -0.048761718 0.089478165 0.10504319 -0.08291476
-0.04092186 0.06817371 -0.07205251 -0.11572908 0.14592592 -0.011776001 0.0912191 0.07420303
-0.018553948 -0.09054242 0.09204298 -0.046033215 -0.0010944695 -0.07603369 0.0132612595 -0.021018809
-0.09091041 -0.14264296 -0.0910476 -0.05279952 0.03894376 0.03136904 -0.12557809 -0.06984563
0.12817241 -0.13099273 -0.036622636 0.035786785 -0.108378984 -0.13676126 0.072175056 -0.10419052
0.12702343 0.09922425 0.08585837 -0.09227419 -0.036946885 0.0649242 -0.089046076 -0.0040788073
0.07640396 0.012697076 0.043939043 -0.040644057 0.022901522 -0.1214791 0.06693163 -0.0071474416
0.10479604 -0.017464923 -0.07016035 0.13088474 0.13927379 0.09712792 -0.14581844 -0.13007224
0.0059964242 -0.16167012 0.08739631 0.12727274 0.099319644 -0.0033467673 -0.06343724 -0.083052
0.039643154 0.09589131 -0.07647505 0.1397645 -0.06259716 -0.14847977 -0.007260836 -0.092111126
-0.068360865 0.11880999 -0.0868413 -0.13229541 0.1615307 -0.024641521 -0.010129114 -0.081707485
-0.067113996 -0.09397611 -0.025375633 -0.036167163 0.1451711 -0.00532549 0.013152266 -0.08663479

node_model.0.bias f4 [16]
00000000: 2b08 ba3d 34ac d4bd 9cfa ff3d 43d5 003e
00000010: 6156 b0bd 112c a03b d390 82bd 9e9f 133e
00000020: d7d9 cbbd 9466 3c3c 544a e8bc 3e4e 14be
00000030: 4d42 c13d f2f5 ccbd 0f6d 3a3d c95a 04be
0.09083589 -0.10384408 0.12498972 0.12581353 -0.086102255 0.0048880656 -0.06375279 0.14416358
-0.09953659 0.011499066 -0.028355755 -0.14482972 0.09436474 -0.10007848 0.045514163 -0.12925257

node_model.2.weight f4 [16, 16]
00000000: 3da3 3d3e d8dd 68be a5e5 1abe c4d1 c1bd
00000010: a3b2 45be 75fc d0bd e302 fbbd 3cbf 39bd
00000020: f793 95be ab0c e7bd 2073 d3bc 16eb 03be
00000030: 77ff 85bd 893a 8ebd 0494 2a3c 8202 253e
00000040: 16ca 0abe bbf7 5e3e ef93 07bb 80ac 6f3e
00000050: 1442 7fbc 099a 4e3d 291d a3bd 4064 dc3d
00000060: 55e5 24be 91cd 8a3e 9730 2ebe c1f5 04be
00000070: 2a1d 65be 61e8 22be d386 83bc 37f4 713e
00000080: f3e3 663e a3ec 4ebe 4f1b a63e edef dbbd
00000090: a3f6 113d 701c 6fbe 4804 3cbe 5ca2 98bd
000000a0: 949a 2d3e 9f14 78bc 507a 07be 0712 47be
000000b0: eef8 643e 5e46 683e 76ff 48be b15f 93bc
000000c0: 3e2a cabd 660d 953d b23c 04be 85bb d23d
000000d0: 3f9e d23d a0ea 4a3e 7e9e 823e 3445 f53d
000000e0: a8ae 56be 6982 83be b608 1fbe bc7d 8f3d
000000f0: 06b1 d2bd f1e5 153e 430c 52bb 3f9f 513e
00000100: 5f8e 9abd 12c2 2f3e 3760 dc3c 8a88 d7bd
00000110: 55a0 b0bd 2a4e 81b9 9a9a f13d 17c8 0ebe
00000120: 4888 1cbe 09e3 2a3e 28b3 4abe 5b32 4c3e
00000130: 5314 e4bd 4a88 823e fc2c f73d 96b2 b6bb
00000140: 5864 853e 5cc2 0a3e f1eb f0bd efe8 3a3e
00000150: 205b 53bd 0641 52be 97bb f93d 67af 1f3d
00000160: b7c7 2a3d aae4 49be 79f8 ecbc 5c16 f53d
00000170: 460a 61be 28e1 073e 5c0b 86be 970d cabd
00000180: 4397 40be 30cf 5d3c 9d1a 5dbe c18b 203e
00000190: 6e5a a73b 2f19 003e 0b48 6a3d f8df 963e
000001a0: e9db 513e bad6 063d a22b 8cbc 5a64 223e
000001b0: ef48 dd3c 0ce2 633d a288 e03b 2744 723e
000001c0: 7c78 b9bc cd86 62bd 4af8 433e 6adb 703e
000001d0: ceb6 4e3e 4335 863d dbac 5a3e 0c34 8b3d
000001e0: e8a7 59bd c758 94be 5e44 aebd 9861 783c
000001f0: 5e92 d03c 8aa5 7ebe 7578 233e a49b b53d
00000200: bc6c fe3c e386 813d 391e 4b3e 633a 3c3e
00000210: 95b9 04be 728e babd c35e 633e 1eb1 0a3e
00000220: a68a 0abe 4c88 83be c3c1 9d3c dd29 3b3e
00000230: 68f3 813e 1ed4 d83d 9b38 87be 9b23 17bd
00000240: 890e 40be 1eeb 54bc b780 4bbd 3f53 973d
00000250: 7945 15be 4fb8 27be 6460 db3c b2d7 52be
00000260: 68b7 1bbe dbd6 28be 62d7 433e c3eb 75be
00000270: a1e8 923e 1445 603e ef94 583d 32db 8cbd
00000280: 7016 ccbc 65ae 113e f62b c9bd 8eb7 05b9
00000290: 16f1 42bd 0ffc 853e 4cfa 1c3e bdc4 ca3c
000002a0: 9806 8fbe fca4 babd 8427 5f3d ecd0 463b
000002b0: e2fe 8abc 5bbe 823c a336 7c3d 2cdd 3bbd
000002c0: 8954 56bd 0114 0bbd 351f af3d 7eb2 b9bc
000002d0: e299 213e 3928 913d e68e fb3d fb69 52be
000002e0: fafa 4b3e 03f3 d6bb a37b 333d 3afb 3cbe
000002f0: bff0 5b3e edc6 813a 0e94 e03b 5300 733e
00000300: d9e8 8bbe 44c9 dfbd 7b8f 90be 88a6 2c3e
00000310: a6e1 bf3d 1cca 22be 451f f83d a247 893e
00000320: 6399 bb3d a48f fe3d 8875 133d f204 54be
00000330: d797 1fbe 73f1 a5bb ba03 04bd 25e3 4a3d
00000340: 8593 31be 495f d2bd 4ff2 963d ac00 003e
00000350: e9e0 76be 556d 42be e801 edbd 8e3d 24bd
00000360: aad3 b2bd 8a1c a83c ad8b 393e a749 213d
00000370: ba7c 42be 79f6 e7bc cda4 babc 00b7 62be
00000380: c0b3 a8bb 4c41 01be 1fec 48be 2e46 bcbd
00000390: 34c0 e53c 3951 473e 9505 46bd 7076 293e
000003a0: 5bcf 033d cdae 0c3e 78a0 acbd ff6d c6bd
000003b0: a6b0 73be bbc6 053c f190 60bd b662 193d
000003c0: c8dc e13d b6b3 83be 5939 ec3d 3e21 6bbd
000003d0: 4731 3abd 107c 413a 80ef 54be 352c 85be
000003e0: 6963 40be bd93 533e 2c21 19be bb73 8c3d
000003f0: 28a2 febd e49e 473e f80f 21be 9aad 0ebd
0.18519302 -0.22740877 -0.15126665 -0.09463838 -0.19306426 -0.10204402 -0.1225641 -0.04534839
-0.2921445 -0.11281713 -0.025811732 -0.12882647 -0.06542867 -0.069447584 0.010411266 0.16114238
-0.13553652 0.21774189 -0.002068754 0.23405647 -0.015579719 0.050439868 -0.07964546 0.10761309
-0.16103108 0.2710996 -0.17010723 -0.12984373 -0.22374406 -0.15908958 -0.0160555 0.23628317
0.22547893 -0.20207457 0.3244271 -0.107391216 0.0356356 -0.23350692 -0.18361008 -0.074528426
0.16953498 -0.015141635 -0.13230252 -0.1944047 0.22360584 0.22683093 -0.196287 -0.017989965
-0.09871338 0.07277946 -0.12913778 0.10289673 0.10284089 0.19816065 0.25511545 0.1197609
-0.20965064 -0.25685433 -0.15530667 0.07006404 -0.10287671 0.14638497 -0.0032050766 0.20470904
-0.075466864 0.17163876 0.026901348 -0.1052409 -0.08624331 -0.00024663034 0.11797066 -0.13943516
-0.15286362 0.1668817 -0.19794905 0.19941084 -0.11136689 0.25494605 0.12069127 -0.0055754883
0.2605312 0.13550705 -0.11763752 0.1825292 -0.051600575 -0.20532617 0.12193983 0.038985636
0.04169437 -0.19716135 -0.028927075 0.11967155 -0.21976575 0.13269484 -0.26180542 -0.09865873
-0.18807702 0.013538167 -0.21592183 0.15678312 0.0051072156 0.12509607 0.05719761 0.2946775
0.20494045 0.032919623 -0.01711065 0.15858594 0.027012317 0.055635497 0.0068522254 0.2365881
-0.02264046 -0.055304337 0.19137684 0.235212 0.20186922 0.065531276 0.21355002 0.067970365
-0.053138644 -0.28973982 -0.08509134 0.015159987 0.025460418 -0.24867836 0.1596392 0.08867577
0.031057708 0.06324556 0.19835748 0.18381648 -0.12961419 -0.091092005 0.22204117 0.13544127
-0.13529453 -0.25689924 0.019257432 0.18277688 0.25381017 0.10587333 -0.26410374 -0.03689919
-0.18755545 -0.012995509 -0.0496833 0.07388925 -0.14577283 -0.16378902 0.026779361 -0.20590094
-0.15206683 -0.16488211 0.19125131 -0.24015717 0.28693107 0.21901351 0.05287641 -0.06877746
-0.024913043 0.14226682 -0.09822838 -0.00012752248 -0.0475932 0.26168868 0.15329856 0.024752015
-0.27934718 -0.091134995 0.054481044 0.003033693 -0.01696724 0.01595991 0.061575543 -0.045865223
-0.052326713 -0.033954624 0.08550874 -0.02266812 0.15781358 0.0708775 0.12283115 -0.20548241
0.19919959 -0.006559731 0.04381908 -0.1845521 0.21478556 0.0009901203 0.006853587 0.23730592
-0.27326086 -0.1092706 -0.28234467 0.16860402 0.09369211 -0.15897411 0.12115339 0.26812464
0.091601156 0.12429741 0.03600076 -0.20705011 -0.15585266 -0.0050641834 -0.032230116 0.04953303
-0.1734143 -0.102720805 0.073704354 0.12500256 -0.24109234 -0.1898702 -0.11572629 -0.040097766
-0.08731778 0.020521421 0.18119688 0.03937688 -0.18992892 -0.02831577 -0.022783661 -0.22140121
-0.005148381 -0.12622565 -0.19621323 -0.09193073 0.028045751 0.19464578 -0.048345167 0.16549087
0.03218017 0.13738556 -0.084290445 -0.09688949 -0.23797855 0.008165057 -0.054825727 0.037447654
0.11028439 -0.25723046 0.11534376 -0.05740475 -0.04545715 0.00073808525 -0.20794487 -0.2601029
-0.18787922 0.20661826 -0.1495406 0.06858011 -0.124332726 0.19494206 -0.15728748 -0.034833528

node_model.2.bias f4 [16]
00000000: 6b73 523e 6546 fdbc 9c60 a2bc b229 893d
00000010: 0015 58be be57 59bd 0d2f 4cbe 31cc 3f3e
00000020: e06f f1bd b5f4 0ebe bae2 8dbe 7465 5ebd
00000030: 3a5d 73bb 0930 eebd d34e 63bd b432 cd3d
0.20551841 -0.030917356 -0.019821458 0.06697406 -0.21101761 -0.053062193 -0.19939823 0.18730237
-0.117889166 -0.13960536 -0.2771204 -0.054295972 -0.0037134425 -0.11630256 -0.055495095 0.100194365

node_model.3.weight f4 [16]
00000000: d94c 9b3f d87c ad3f e520 9a3f 3111 8e3f
00000010: 1add a03f bddb 923f cf5c 9c3f 5a57 953f
00000020: be80 a23f ad90 843f 6cae 853f d9bc 953f
00000030: 066b a23f 305a 823f 00ae 9a3f 8fc9 943f
1.2132827 1.3553724 1.2041289 1.1098996 1.2567475 1.1473309 1.2215823 1.1667283
1.2695539 1.0356652 1.0443854 1.1698257 1.2688911 1.0183773 1.208435 1.1624011

node_model.3.bias f4 [16]
00000000: c7ce 563e d18b 01be d9c6 f43d d837 afbd
00000010: ded8 16be fe52 b73d b647 1ebe aab6 203e
00000020: 0150 df3d e023 8a3d 28e7 0bbe fcab 9b3d
00000030: 1020 1dbe 7c90 9b3d 2d0d f8bd ae36 103e
0.20977317 -0.12650992 0.1195199 -0.08555573 -0.14731166 0.089513764 -0.15457043 0.15694681
0.109039314 0.06745124 -0.13662398 0.07601163 -0.15344262 0.075959176 -0.12111888 0.14083359

edge_model.0.weight f4 [16, 96]
00000000: 76f4 b9bc 59ff 68bd f5aa d7bc 2b70 3bbd
00000010: b662 b53c 7838 4dbd b00d c7bd c5d3 80bb
00000020: febe 2ebd 9403 b2bd f4eb eebd e373 b7bd
00000030: 823c bcbd c927 dabc 6bbf 10bd 2f30 883d
00000040: 789a bf3d 9578 18bd 339c 9f3d 27da 8b3c
00000050: 7f2f d4bb d863 68bd 7a33 4bbc 1dbd 91bd
00000060: 2d9f af3d 8910 8bbd af5a 573d e4f6 0b3d
00000070: 335b 953d 4f54 48bd 7408 7d3d 4698 a63b
00000080: 6a35 973d 5ba6 a1bd 42c9 19bd bdfa 23bd
00000090: e00e 6dbd ead8 e0bb 7582 5ebd dbb6 86bd
000000a0: e59e 2fbc 7457 44bd c902 813d 6887 35bd
000000b0: 9b58 48bd 342c f9bd 8a13 bb3d feef 6c3d
000000c0: f9d0 8ebd 97bb 84bb cf60 723d 3474 8b3d
000000d0: dcbb 873c 297a ee3d def1 8d3d e76b b0bd
000000e0: f9c0 063d 338a 223d f377 3fbd 297b 003e
000000f0: afe5 8e3d 1acc 4abd 8a41 143d b8e7 9f3b
00000100: f4a0 80bd 54ef ecb8 2fae 2e3d 1266 923d
00000110: 5c49 5e3d e450 9c3b 099e bd3c 5ffc ac3d
00000120: b5e2 d93d b371 bbbc 36f0 6e3d 32c7 3bbd
00000130: 44f5 90bd 83cb a43d 4555 8e3d b89b c5bd
00000140: ef7c c0bd 543f 583d e419 013d 6954 503d
00000150: 5008 a0bd e9d2 633d 5071 8b3a b469 83bd
00000160: 18c0 cf3d 2edc 993d 4c17 b03d 263c 593d
00000170: 382e 9dbc 8ba8 bd3d 47aa b23d f86f 633c
00000180: e47e 2abc 0704 4ebd be15 00bd 02a9 97bd
00000190: 653e 483d 8de2 8639 2769 cc3c 7f75 3dbc
000001a0: eb73 933d 3139 89bd acd5 9a3d 1182 353d
000001b0: 5daf 5dbc e57b e53c 2168 ba3d 661e b73d
000001c0: e1e0 debb 0fea 1a3d b73b a8bd 5496 8f3d
000001d0: f6fc d13c 751d 70bd e087 a2bd 8db0 5d3d
000001e0: 699c dabd 47a7 93bc e083 703c fee9 873d
000001f0: b359 7fbd e17c 1fbd fad4 afbd 644e bc3c
00000200: 3396 023d a68c 873d 3c5f 9dbd 7755 a73d
00000210: ac46 293c 5203 dd3d 9e2b 0d3d 43ee a73d
00000220: 5378 02bd 9514 533d 5aef 38bd 91a5 ce3b
00000230: e7fe bebb 3bb2 4abd ef0e 92bd 4e7d a0bd
00000240: fb6a 213c bb34 913d a6f2 a1bd 6fbe babd
00000250: 0ca9 b5bd a8d9 e6bb 3b93 9f3d 7516 953d
00000260: 77a5 213d b8af a0bd 5d10 ac3d 335b 933d
00000270: 65c0 76bb 969c 89bd 2fd7 9ebd 9260 ae3d
00000280: 540c 583c 089b b8bd c0d2 513d f8ed df3c
00000290: 6a5b 75bc 696a 383d ded1 c739 0587 833d
000002a0: 820a 75bc 78f4 a7bd cef9 98bd b5e1 6cbc
000002b0: 6c5a 83bd 2210 5a3b c907 873d 40f7 77bc
000002c0: 3a90 91bd f36a c63d e2ce 0c3d 6952 133d
000002d0: d819 84bc 4bd5 d2bd d264 7b3d e538 0fbc
000002e0: 267a c9bc 223f a9bc 8035 b9bd c499 b0bd
000002f0: 3f7e adbd 4680 a3bd e5bf 8d3d 931c a2bd
00000300: 9019 01bd 8b86 8cbc 13b5 223c e8c3 403c
00000310: be79 373c b1e4 41bd 3eff 843d ccba b13d
00000320: ba3b 46bd 4e11 67bc d7ea 61bd 36c4 a0bd
00000330: e395 83bd dc6d 30bd e3a6 ad3c b0fa 4c3d
00000340: 0826 2d3d 3f2e 0f3c 4a5d 033c 3172 de3b
00000350: d4db 79bc 4ae1 af3d 0f89 a7bd d216 23bc
00000360: 74b8 8e3d a144 2abd 5f6e 70bd 596b 04bd
00000370: 0964 5abd 2abd afbd bb2e ae3d 1678 593d
00000380: 2d12 93bd bab4 983d 71bf 403d dc66 f9ba
00000390: efa3 72bd 7543 65bd 88f6 52bd 9c8f b2bd
000003a0: 38bb 5e3d e0d6 b83c 107d 7abd d09b 06bc
000003b0: fe7c 933d ae84 0a3d 9189 b4bd d8f7 c4bd
000003c0: 8078 8c3d ddb2 c6bc b102 67bd 5042 ed3d
000003d0: 5ccd 9bbd edee 12bd 23e1 8e3c 8023 b43c
000003e0: d08a ab3a 4b2d 61bd f5d5 43bd 90dc acbd
000003f0: ef2f b9bd 7cc7 de36 5120 3abc 0d3d f7bc
-0.022699576 -0.056884144 -0.026326636 -0.04576127 0.022141796 -0.05010268 -0.097194076 -0.003931495
-0.042662613 -0.08692089 -0.11666098 -0.089576505 -0.091912284 -0.0266303 -0.0353388 0.06649815
0.093556345 -0.03722437 0.077934645 0.017071797 -0.0064753885 -0.056735843 -0.01240241 -0.071161486
0.08575282 -0.06790263 0.052576717 0.034171 0.072927855 -0.048908528 0.06177564 0.0050840704
0.07383235 -0.07893058 -0.03754545 -0.040034045 -0.057875514 -0.0068617957 -0.054323632 -0.06577846
-0.010719036 -0.047934964 0.06299359 -0.044318587 -0.048912626 -0.12166634 0.09134586 0.057846062
-0.06973452 -0.0040506828 0.059174355 0.06809273 0.01656907 0.11644394 0.06930898 -0.08614331
0.032898877 0.03968258 -0.046745252 0.12546982 0.069774024 -0.049511053 0.036195315 0.004879918
-0.06280699 -0.00011297935 0.042646583 0.071483746 0.05426918 0.004770385 0.023146646 0.084465735
0.10638944 -0.022881364 0.05833455 -0.045844264 -0.07078031 0.08046629 0.069498576 -0.096488416
-0.09398829 0.05279477 0.03151883 0.05086175 -0.078140855 0.05562106 0.0010638628 -0.06416646
0.10144061 0.07512699 0.085981935 0.053035878 -0.019187078 0.09260663 0.08723884 0.013881676
-0.01040623 -0.05029681 -0.031270735 -0.074052826 0.04888763 0.00025727265 0.024952484 -0.011563658
0.07199844 -0.067003615 0.07560286 0.044313494 -0.013530579 0.02801318 0.09101892 0.08941345
-0.00680171 0.037820872 -0.08214515 0.07011095 0.025633316 -0.058621842 -0.07936072 0.05412345
-0.10674364 -0.0180241 0.014679879 0.06636427 -0.062341403 -0.038937453 -0.08585544 0.022986598
0.031881522 0.066186234 -0.0768418 0.08170598 0.010331791 0.10791649 0.034465425 0.08199742
-0.03185303 0.0515333 -0.04515014 0.006306358 -0.0058287266 -0.04948638 -0.071317546 -0.078364
0.009852166 0.07090136 -0.0790761 -0.091183536 -0.08870134 -0.0070449896 0.07791754 0.07279674
0.03946444 -0.07846016 0.084015585 0.07195129 -0.0037651297 -0.067193195 -0.07755887 0.08514513
0.013186533 -0.09013945 0.051226377 0.027335152 -0.014975408 0.045023356 0.000381126 0.06422237
-0.014956119 -0.082009256 -0.074695215 -0.01445811 -0.06413731 0.0033273776 0.06593282 -0.015134633
-0.07107587 0.09688368 0.034376986 0.035967264 -0.016125605 -0.10294589 0.061375447 -0.008741592
-0.024594378 -0.020659987 -0.090434074 -0.086230785 -0.08471345 -0.079834506 0.069213666 -0.07915606
-0.03151852 -0.017153999 0.009930867 0.011765458 0.011198459 -0.047337238 0.06493996 0.08678207
-0.048396803 -0.014103247 -0.0551556 -0.07849924 -0.06425073 -0.04307352 0.021197742 0.05004376
0.042272598 0.008739053 0.008017847 0.006788515 -0.015250165 0.08587892 -0.08180439 -0.009954171
0.069687754 -0.041569356 -0.058699008 -0.032328937 -0.053318057 -0.08581002 0.08505007 0.05309304
-0.07181201 0.07456346 0.047057573 -0.0019027847 -0.05923837 -0.055972535 -0.05150464 -0.087187976
0.054377764 0.022563398 -0.061154425 -0.0082158595 0.07201575 0.03381794 -0.08815301 -0.09617585
0.06858921 -0.02425521 -0.05639905 0.11584914 -0.076075286 -0.03587239 0.017441338 0.021989584
0.0013087634 -0.054974835 -0.047811467 -0.084405065 -0.09042346 6.6393386e-06 -0.011360244 -0.030180478

edge_model.0.bias f4 [16]
00000000: fd9f 183c 70ea 96bc bffe edbc 19a4 a8bd
00000010: 030b af3d a519 b0bd 5519 b2bd ff0f 743c
00000020: eab6 54bd d8e6 8e3d c7a8 34bc fe76 0dbd
00000030: 5976 513b bd52 49bc fe4b a8bc 3ab2 52bc
0.009315488 -0.018422335 -0.029052136 -0.08234424 0.08547022 -0.08598641 -0.08696238 0.014896392
-0.051932253 0.06977624 -0.011026568 -0.034537308 0.003196141 -0.012287793 -0.020544048 -0.012859875

edge_model.2.weight f4 [16, 16]
00000000: 78df 32be ce70 bcbd ad51 71be 7381 37be
00000010: d129 183d 81d6 c03d 63ba 91bc c856 423e
00000020: 844b 50be e3c3 a23d ca66 6c3d 6459 babd
00000030: da5f a53d 770d 2ebe 2d76 02bb 4e0d 903d
00000040: adf1 cfbd 8239 2cbe c82b 313e 1cdf 3cbe
00000050: f42b 7b3e edd5 a6bc 042e ecbc 28b7 f6bd
00000060: 3522 0b3d d66d 473e f420 cb3d 400c ddbd
00000070: c8a0 83bc 136a 2c3e ed8e 893d 2601 4e3b
00000080: ef8c 80be 797d 353e 4a0d 14be 70a4 d63c
00000090: 709c f43c 7127 6dbe f4f7 4a3e 88e6 a73d
000000a0: e92b b2bd 7ee1 743e ddbd 133e 7a9a e63d
000000b0: 5e63 0fbe 2920 37be bb19 003d 96b7 c63d
000000c0: 5a39 78be af2f 6d3e a635 f93b c8e2 d93d
000000d0: 27dd 1fbe c4aa 35bd 6c2a 32bd 297a bcbd
000000e0: bb10 c53d 861d 763e 1fdf 553d 00b1 bbbc
000000f0: d92e 973d 24a3 e6bd 99bf ed3d f2b8 4fbe
00000100: 44ad 443e 1283 1abe c4dc 20be 7601 64be
00000110: 9184 2ebd 18ae 883e ebe3 5a3d 9284 13be
00000120: 8240 593e 665b 3a3d 9ae4 cbbd 96a1 34be
00000130: 6c73 603e 0ac3 66be a431 8dbd 629d bbbd
00000140: 352f 3cbe cdc2 833e 70ef 43bd d358 fabd
00000150: 2ecb 373e 65e0 b1bd 16ad 103e f63f d3bd
00000160: 0144 e03d 1848 20bb ef71 233e 94c7 2f3e
00000170: 7622 173e 47de c6bd bfd0 5bbe 82d5 fdbd
00000180: 9b32 5cbe 7f43 ff3d fa97 c2ba 81e9 483e
00000190: 5ce7 6a3e f09f 52be 8829 0dbd 5c00 563e
000001a0: dc4f 363e 3b89 893c 904e 80bc b4df 47bd
000001b0: ac4f 84be e8db 99bd efc3 973d d4f8 013e
000001c0: dfec 3f3e 711b 593d df0b 5bbe 6348 10be
000001d0: c0ea 89bc 3d9f 253e 2172 693e c6f8 00bd
000001e0: 7ca9 5ebd 16f8 013d 5bee 81bd 304d 6e3c
000001f0: 6c63 353d f7fc 67be 3330 6a3e 2fa7 29be
00000200: dc6b a5bd a2c2 b23d f37e 2cbd 76a2 373e
00000210: 0dde 11bd bc38 86bd b93f a0bd d2f6 cabd
00000220: c752 823d 2a42 eabd df12 773e da52 8f3c
00000230: da9b 3fbe 57b2 0c3e 6821 63be b130 6bbe
00000240: 6ffc 7b3e c271 023d 6f5f b5bd 912e 5a3c
00000250: 7691 2a3e 1d4a f73d 1eec 263e beb3 91bd
00000260: 24d6 98bd 1a4d 56bd 4772 a33d 0723 25be
00000270: 60ef 5a3e f07b 42be d373 383d 6a52 4e3e
00000280: 0201 9a3d 15d3 063e a7d5 423e 6a08 98bd
00000290: 47de 8dbd 2180 293e dcf3 acbd 5a07 51be
000002a0: 544a 14be 647a 473e 19c9 05be 3342 de3c
000002b0: b30d 1fbe 0b32 733e 8cef 24bd 0988 18bd
000002c0: bd91 1abe 222a 25be 253b 54be e643 0b3e
000002d0: fd27 b7bd 770d 993e 311b 84bc 18a2 823e
000002e0: ef25 b7bc c9fd 4bbe c38b 73be d8d7 ea3d
000002f0: 26fd c43d de92 933d 47c7 853d f0c5 ba3d
00000300: 5da7 1ebe 4025 38be ce36 66be 2ba5 253e
00000310: b484 ebbd aec2 0ebe 301d 29be c7c9 38be
00000320: 9821 62bd 1122 74be 1464 2cbe f0f7 623d
00000330: eda0 493e e6cf 693e 9df2 0d3d a9a1 12bd
00000340: e589 a93d 0611 a13d 6cc2 80be eaa5 de3d
00000350: 292d d7bc 7117 0d3e 1e93 ef3c 553b 04be
00000360: 68d9 23be fa80 703e ef0a 2abe 825d 40be
00000370: 7097 47bd 8c92 753d 5ad8 1abd 94b0 40be
00000380: dc3d 7d3e c4d4 393d 0a1b 6fbc 58de 383e
00000390: de63 3e3d 0214 acbd a55e 75be 5869 43be
000003a0: 03fb bd3a 540a 34bd f125 fdbc c837 93bd
000003b0: 2166 ca3d 55f2 f23d 4a48 943d 1b27 153d
000003c0: c36d 43be 37ae 1abe bc91 c63d 7552 83bd
000003d0: d7c7 7a3c 6e53 7cbe 5838 ebbc 7e8c 293e
000003e0: 1dac 79be 211b 70bc 907e 85bd fa4a 5f3d
000003f0: 2641 333e 5039 5e3e 9863 7dbd 4dc9 04be
-0.17468059 -0.09201203 -0.23566313 -0.17920475 0.037149254 0.094159134 -0.017789071 0.18978417
-0.20341307 0.07947519 0.057715215 -0.09099081 0.08074923 -0.16997324 -0.0019906864 0.07033788
-0.10153518 -0.16818812 0.17301857 -0.18444484 0.24528486 -0.02036568 -0.028830536 -0.12046653
0.03396817 0.19475493 0.09918395 -0.10793352 -0.016067877 0.16837339 0.06716714 0.003143379
-0.25107524 0.17723645 -0.14458194 0.026201457 0.029859751 -0.23159577 0.19821149 0.08198267
-0.086997814 0.23914143 0.14427896 0.11259933 -0.1400275 -0.17883362 0.03127454 0.09702985
-0.24240628 0.23162721 0.0076052723 0.10638958 -0.15611707 -0.044352308 -0.043497488 -0.09202988
0.09622332 0.240347 0.052214738 -0.022911549 0.07381982 -0.11261585 0.1160881 -0.20285395
0.1920672 -0.15089062 -0.15709215 -0.22266182 -0.042606894 0.26695323 0.053440016 -0.1440604
0.21216014 0.04549732 -0.09955712 -0.17639765 0.2191903 -0.22535339 -0.06894234 -0.09160878
-0.18377383 0.2573456 -0.047835767 -0.12223973 0.179486 -0.08685378 0.14128527 -0.10314934
0.10950471 -0.0024457034 0.15961431 0.17165977 0.1475924 -0.09710365 -0.21466349 -0.12394239
-0.2150368 0.12464046 -0.0014846318 0.19620325 0.22939819 -0.20568824 -0.034463435 0.20898575
0.17803901 0.01678907 -0.015662462 -0.048797324 -0.25842035 -0.07512647 0.07410418 0.12692577
0.18742703 0.053004686 -0.21391247 -0.14090113 -0.01683557 0.16174026 0.22797443 -0.03148725
-0.05436085 0.031730734 -0.06344291 0.01454477 0.04428427 -0.22655092 0.22869949 -0.16567682
-0.08077213 0.087285295 -0.042113256 0.17933068 -0.035612155 -0.0655379 -0.07824654 -0.099103585
0.06363445 -0.11438401 0.24128293 0.017495561 -0.18711796 0.13739906 -0.22180712 -0.22967793
0.24608015 0.03184677 -0.08856093 0.013316766 0.16657051 0.12074683 0.16301009 -0.07114361
-0.07462719 -0.052319624 0.07980781 -0.16126643 0.21380377 -0.18992591 0.045032334 0.20148626
0.075197235 0.13166459 0.19026814 -0.0742348 -0.06927162 0.16552784 -0.0844495 -0.2041296
-0.14481479 0.19480282 -0.13064994 0.027131176 -0.1553257 0.23749559 -0.040267512 -0.03723911
-0.15094657 -0.16129354 -0.20725687 0.1360012 -0.08943174 0.29893085 -0.016126247 0.25514293
-0.022356955 -0.1992103 -0.23783784 0.1146695 0.09618597 0.07205747 0.0653215 0.09119785
-0.15493532 -0.1798296 -0.22481844 0.16176288 -0.114999205 -0.13941452 -0.1651504 -0.18045722
-0.05520782 -0.2384112 -0.16835052 0.055412233 0.19690295 0.22833213 0.034655202 -0.035798702
0.082782544 0.07864575 -0.25148332 0.10871489 -0.026266651 0.13778473 0.029244956 -0.12913258
-0.16000903 0.234867 -0.16605733 -0.1878567 -0.048728406 0.05995421 -0.037803985 -0.18817359
0.24730629 0.045368925 -0.014593849 0.18053567 0.04648196 -0.08402254 -0.23961885 -0.19083154
0.0014494363 -0.043955162 -0.030901881 -0.07188374 0.09882761 0.118626274 0.072403505 0.036414247
-0.1908484 -0.1510552 0.096957654 -0.06412212 0.015306435 -0.24641201 -0.02871339 0.165575
-0.24382062 -0.014654906 -0.065182805 0.054514863 0.17505321 0.2170155 -0.061862558 -0.12967415

edge_model.2.bias f4 [16]
00000000: 7cae 0e3e 49bf 1bbe 7f40 0dbe e99f abbd
00000010: f23e 003e f7fe 0dbe 06db 3bbe 62e0 58be
00000020: 3681 edbd 2ab4 923c 7b11 f9bd 080c 42be
00000030: 79aa ee3d 6668 403e 6e5b 4f3d b7e5 c23d
0.13933748 -0.15209688 -0.13794135 -0.0838011 0.12524012 -0.13866793 -0.1834527 -0.21179345
-0.11596911 0.017908175 -0.12161537 -0.18949902 0.11653609 0.18789825 0.050624304 0.09516471

edge_model.3.weight f4 [16]
00000000: 3503 7d3f ad7c 7f3f 996f 853f ef61 803f
00000010: 9134 853f fc83 803f 391a 843f 5bb8 7e3f
00000020: 594c 853f 0c0a 813f e499 813f ff65 7f3f
00000030: b697 803f d08f 823f 151b 823f f6ee 823f
0.9883302 0.99799615 1.0424682 1.0029887 1.0406667 1.0040278 1.0320503 0.99500054
1.0413924 1.0081191 1.0125089 0.9976501 1.0046299 1.0200138 1.0164515 1.0229175

edge_model.3.bias f4 [16]
00000000: cce3 9ebb df55 093d 0639 08bc cd3f 0cbc
00000010: c376 aabb 09e4 6b3c e935 21bc 25e2 353c
00000020: 1982 65bc e06a dd3b dba5 1b3c 4f4f ff3b
00000030: 25ac 173c be0f 873a ea2c 813c cb18 763c
-0.004848933 0.03352916 -0.008314377 -0.008560133 -0.005202146 0.01439763 -0.009839513 0.01110128
-0.0140080685 0.0067571253 0.009499992 0.0077914367 0.009257351 0.0010304374 0.015768487 0.01502056

node_decoder.0.weight f4 [1, 16]
00000000: 6e9f 963e c6fe babe 17aa a13e 0acd 9bbe
00000010: 01f3 eabe eb33 503e c62b debe 43b2 623e
00000020: 3232 583e 8d1d a63d ae11 31be ba7b 143e
00000030: ce5e afbe fad7 523e 65d4 7fbe 8c6e e83d
0.2941851 -0.36522502 0.3157508 -0.3042987 -0.45888522 0.20332305 -0.4339277 0.22138314
0.21112898 0.08111105 -0.172919 0.14500323 -0.34252018 0.20590201 -0.24983366 0.1134921
