tmp/tmp2model200.pt (torch, 23679 bytes, 25 tensors)

node_encoder.0.weight f4 [16, 5]
0	0x3e010833	0.12600784
1	0xbdb3789a	-0.08763237
2	0x3e1733f2	0.1476591
3	0xbcbb20a0	-0.022842705
4	0x3e4b92e4	0.19880253
5	0x3dcdc005	0.100463904
6	0xbd6b2262	-0.057405837
7	0xbeb91dce	-0.36155552
8	0x3dd11c98	0.10210532
9	0xbecab868	-0.39593816
10	0x3d70bf80	0.05877638
11	0x3cf37930	0.029720873
12	0xbdc96748	-0.098341525
13	0x3ebb3b16	0.36568516
14	0x3cf47ed0	0.029845625
15	0x3e3b3825	0.18283136
16	0x3e3fd4c8	0.18733513
17	0xbe84e846	-0.2595846
18	0xbe300cee	-0.17192432
19	0x3ee39a09	0.44453457
20	0xbee04634	-0.4380356
21	0xbcf8d2e0	-0.03037399
22	0xbd112b28	-0.035441548
23	0x3ea269b8	0.31721282
24	0xbd2e25a8	-0.04251638
25	0x3df12bc8	0.11775929
26	0xbcafdd70	-0.021467894
27	0xbe803680	-0.2504158
28	0xbe81c7a5	-0.2534763
29	0xbe5e7c69	-0.21727146
30	0xbed0001c	-0.40625083
31	0xbe949983	-0.2902337
32	0x3dd78df8	0.10525125
33	0x3e96b2aa	0.29433185
34	0x3cb479e0	0.02203077
35	0xbe518e05	-0.20464332
36	0x3e499f93	0.19689779
37	0xbe2a2bf2	-0.16618326
38	0xbdcae340	-0.09906626
39	0xbe7b0cbb	-0.24516575
40	0xbe0fcbe2	-0.14042619
41	0xbed42aaa	-0.414388
42	0x3e4366b8	0.19082153
43	0x3e3210ec	0.17389268
44	0x3db5ed58	0.0888316
45	0x3e607675	0.21920188
46	0x3e43434d	0.19068642
47	0x3c5aa04a	0.01334388
48	0x3d41ff10	0.047362387
49	0x3c19308d	0.009349954
50	0x3e854ba1	0.26034263
51	0x3e9f887e	0.31158823
52	0x3eae181b	0.34002766
53	0x3e84b6d8	0.2592075
54	0xbdc09ec2	-0.09405281
55	0xbd2161f3	-0.039400052
56	0xbd13f0b0	-0.03611821
57	0x3e767182	0.24066737
58	0x3d4b6f50	0.049666703
59	0x3ec9f19b	0.39442143
60	0x3e5422d2	0.20716408
61	0xbeca1d5c	-0.39475524
62	0x3ddddb1e	0.10832809
63	0x3edc03bc	0.429716
64	0x3ec2546e	0.3795504
65	0xbcc6c765	-0.024265
66	0x3e06465d	0.13112779
67	0xbed6c9f0	-0.4195094
68	0xbe11fe6c	-0.1425721
69	0x3e6942ef	0.2277944
70	0xbeca0330	-0.39455557
71	0x3ece0e5e	0.40245336
72	0xbe969414	-0.2940985
73	0x3e10d024	0.141419
74	0xbd1d7639	-0.038442824
75	0x3dd34b9b	0.10317155
76	0x3d8aa2ad	0.06769309
77	0xbee2f1f5	-0.44325224
78	0xbdc4bbe8	-0.09606153
79	0xbe908169	-0.28223732

node_encoder.0.bias f4 [16]
0	0x3ecea781	0.4036217
1	0xbd797312	-0.060900755
2	0xbee3fe29	-0.44529846
3	0x3dd87744	0.10569623
4	0x3e46df64	0.19421154
5	0xbe4d00f6	-0.20019898
6	0xbd2bd610	-0.041952193
7	0x3e4656a3	0.19368987
8	0xbe8e7800	-0.27825928
9	0xbe72756c	-0.23677605
10	0xbcaf8f6b	-0.021430692
11	0xbeaac6ea	-0.33354884
12	0x3e82a93d	0.25519744
13	0x3c9e7103	0.019340998
14	0x3e8f91cc	0.28040922
15	0x3e870e9a	0.26378328

node_encoder.2.weight f4 [16, 16]
0	0xbe3853fe	-0.1800079
1	0xbe196a95	-0.14982064
2	0xbe2f1974	-0.17099553
3	0xbd99090a	-0.07472427
4	0xbdbb18e8	-0.0913561
5	0xbd24ff68	-0.040282637
6	0xbe77a790	-0.24185014
7	0x3dc09b22	0.09404589
8	0x3e113b02	0.14182666
9	0x3db49203	0.08816912
10	0x3e2f3087	0.17108355
11	0x3e461b44	0.19346339
12	0xbe6db0bc	-0.2321195
13	0x3d03ad73	0.032147836
14	0x3e621aba	0.22080508
15	0xbe47a456	-0.19496283
16	0xbdf434d2	-0.11924137
17	0xbbeac131	-0.0071641435
18	0xbe1f40dc	-0.15552086
19	0xbd585130	-0.0528118
20	0xbd175130	-0.03694266
21	0x3e6416ae	0.22274277
22	0xbc80c6a0	-0.015719712
23	0x3e1acb51	0.15116622
24	0x3e3b7668	0.18306887
25	0x3dc4d5b6	0.096110746
26	0xbe6d49fe	-0.23172757
27	0x3e37de89	0.17955984
28	0x3e24c38c	0.1609022
29	0xbe210168	-0.15723193
30	0xbd8cd7ed	-0.06877122
31	0x3e423849	0.18966784
32	0xbe63e731	-0.22256161
33	0xbe5a4bec	-0.21318024
34	0xbe2d8192	-0.16943958
35	0x3dd3bf89	0.10339267
36	0xbdd115ac	-0.10209212
37	0xbe644faa	-0.22296014
38	0x3dc67774	0.096907526
39	0x3e2a5269	0.16633
40	0x3dbfc6a0	0.093640566
41	0xbe4d96e7	-0.20077096
42	0x3e852635	0.26005712
43	0x3bb66ecb	0.005567407
44	0xbe5ddcf8	-0.21666324
45	0xbc126c43	-0.008936944
46	0x3e4eaca4	0.20183045
47	0x3e1ee689	0.1551763
48	0x3b791219	0.0038005172
49	0x3e2e5387	0.1702405
50	0xbe6991b2	-0.22809485
51	0x3e2dbece	0.16967317
52	0x3e7e1e7e	0.2481632
53	0xbe1baa22	-0.1520162
54	0x3d5ba4a0	0.053623796
55	0xbd372462	-0.04471243
56	0xbe581cd4	-0.21104747
57	0xbc55030d	-0.013001216
58	0xbda63193	-0.08114924
59	0xbe4c8ca6	-0.19975528
60	0xbe306ab6	-0.17228207
61	0xbbbbfeb9	-0.0057371524
62	0x3e654984	0.22391325
63	0x3daba8dc	0.08381817
64	0xbe2f79ab	-0.17136256
65	0x3e2a6e45	0.16643627
66	0x3ca81ba0	0.020520985
67	0xbe814e27	-0.25254938
68	0x3c424b80	0.011858821
69	0x3e245648	0.16048539
70	0xbe168782	-0.1470013
71	0xbd0f06a5	-0.034918446
72	0xbdff1648	-0.12455422
73	0xbe4df0de	-0.20111415
74	0xbe153539	-0.14571084
75	0x3c84ff0c	0.016234897
76	0x3e246b06	0.16056451
77	0xbd6d84eb	-0.05798809
78	0xbe7a9fef	-0.24475072
79	0xbcdbd2b0	-0.026833862
80	0xbe712c8c	-0.2355215
81	0x3ca97872	0.020687316
82	0x3e3dcddc	0.1853556
83	0x3db4ec89	0.08834178
84	0xbe1c9432	-0.15290907
85	0xbd61fe78	-0.05517432
86	0x3dcd04a0	0.10010648
87	0x3d7dfbac	0.06200759
88	0xbe7077a4	-0.2348314
89	0xbe20714d	-0.15668221
90	0xbdd30c53	-0.10305085
91	0x3d90108c	0.07034406
92	0x3e50190d	0.20322056
93	0x3dbfc758	0.09364194
94	0x3dae8297	0.08521002
95	0xbe5e6793	-0.21719198
96	0x3e22f669	0.1591431
97	0x3dab11ce	0.08353005
98	0xbda4a3c0	-0.08039045
99	0xbdf7f945	-0.12108091
100	0x3d918eac	0.071072906
101	0xbe0ac38c	-0.13551158
102	0x3dcfd788	0.10148531
103	0x3e47514e	0.19464609
104	0xbe28ea2c	-0.1649558
105	0xbe224e69	-0.15850224
106	0xbddba395	-0.1072456
107	0xbe680ea1	-0.2266183
108	0xbd057663	-0.032583605
109	0x3e23c0ba	0.15991488
110	0x3dc8811a	0.09790249
111	0xbd9bdbd9	-0.07610292
112	0xbca81fcc	-0.020522974
113	0xbdd265fc	-0.10273358
114	0xbe4ea754	-0.20181018
115	0xbd475481	-0.048664574
116	0x3c8d56f0	0.01725337
117	0xbe01d2ea	-0.12678114
118	0xbe3fc9fe	-0.18729398
119	0x3dd0159b	0.10160371
120	0x3d16d628	0.03682533
121	0xbd870e4e	-0.06594525
122	0x3da4bd5c	0.0804393
123	0x3e6f4626	0.23366603
124	0x3c970c66	0.01843853
125	0xbe167f02	-0.14696887
126	0x3e83db18	0.25753093
127	0x3e54c19b	0.2077698
128	0xbd16ed1d	-0.036847223
129	0xbddafeff	-0.10693168
130	0xbdd8096c	-0.10548672
131	0x3e5da03e	0.21643159
132	0x3e05bb3e	0.13059708
133	0xbe03a5bc	-0.12856191
134	0x3c237a00	0.009977818
135	0x3cac464e	0.021029618
136	0x3d8758c0	0.066087246
137	0xbcabdb9b	-0.02097874
138	0xbe12c80b	-0.14334123
139	0x3cea3fc2	0.028594855
140	0xbd9d8784	-0.07691863
141	0xbde1f708	-0.110334456
142	0xbe1c076e	-0.15237209
143	0xbe19216d	-0.14954157
144	0xbdf7ee82	-0.12106039
145	0x3dbd7413	0.09250655
146	0xbe586ed6	-0.2113603
147	0xbe752589	-0.239401
148	0x3e5af5e4	0.21382862
149	0x3db7ce9c	0.089749545
150	0x3e0d97d0	0.13827443
151	0x3dea5c81	0.11443425
152	0xbdc34ab4	-0.09535733
153	0xbe243e9f	-0.16039513
154	0xbe32636d	-0.1742074
155	0xbcae97cc	-0.021312617
156	0x3d6bf738	0.057608813
157	0xbe6c51c7	-0.2307807
158	0xbe3f5a94	-0.18686897
159	0x3e16aa41	0.14713384
160	0x3cf08df9	0.029364573
161	0x3e2f0077	0.17090021
162	0x3e64059c	0.22267765
163	0x3e183cf9	0.14867009
164	0xbd599e78	-0.053129643
165	0xbde3cf34	-0.11123505
166	0x3d90e1cc	0.07074317
167	0x3e3b2ee8	0.18279612
168	0xbe756e7a	-0.23967925
169	0x3d85875c	0.065199584
170	0xbe479025	-0.1948858
171	0xbe477b1c	-0.19480556
172	0x3dba0f84	0.090849906
173	0x3df0b625	0.11753491
174	0x3d8c24b9	0.06842942
175	0x3d533bb8	0.051570624
176	0xbd96257d	-0.07331369
177	0x3c454e50	0.012042597
178	0xbe620e48	-0.2207576
179	0xbe0c486e	-0.13699505
180	0x3ba79c40	0.005115062
181	0xbd6abea0	-0.0573107
182	0xbd1f2fd8	-0.038863987
183	0x3e26d7bd	0.16293235
184	0x3dc03b14	0.09386268
185	0xbd39adfe	-0.045331948
186	0xbdaa61c6	-0.0831943
187	0xbe2540e4	-0.16138035
188	0x3e08412f	0.13306116
189	0xbe136a1f	-0.1439595
190	0x3dd6a1d1	0.10480083
191	0xbca5fd32	-0.020262334
192	0x3e4d719d	0.20062871
193	0xbe297a0e	-0.16550466
194	0xbe274bb8	-0.16337478
195	0x3cc61543	0.02418006
196	0x3bf0b540	0.0073458254
197	0xbddc3bb8	-0.10753578
198	0x3e7fae2c	0.24968785
199	0xbe438b77	-0.1909617
200	0x3e0aba1c	0.13547558
201	0x3e00e6cf	0.12588046
202	0xbd495b80	-0.049159527
203	0x3d85956a	0.06522639
204	0xbd2adf33	-0.041716766
205	0xbe327b79	-0.17429914
206	0x3e3b507c	0.18292421
207	0xbd3dbee8	-0.04632464
208	0xbd2899de	-0.041162364
209	0x3e807e91	0.25096563
210	0x3e77e7ba	0.2420949
211	0xbe458e61	-0.19292594
212	0xbd86204c	-0.06549129
213	0x3e10f738	0.14156806
214	0x3e1eab28	0.15494978
215	0xbe285442	-0.16438392
216	0xbe3a3660	-0.18184805
217	0x3dd971ae	0.10617386
218	0xbe2e4feb	-0.17022674
219	0x3e2fb4d3	0.17158823
220	0xbe4ac7ea	-0.19802824
221	0xbe17dd93	-0.14830618
222	0x3dd86659	0.10566396
223	0x3e1b077b	0.15139572
224	0xbde0c2db	-0.10974666
225	0xbe1a4b24	-0.15067726
226	0x3dc43554	0.09580484
227	0x3d9b76c7	0.07591014
228	0x3d834a90	0.06410706
229	0xbe6c0e2e	-0.23052284
230	0xbd9a5f04	-0.07537654
231	0xbdafe2cb	-0.08588179
232	0x3b296980	0.0025850236
233	0x3e6789f6	0.22611222
234	0xbe49e2a5	-0.19715364
235	0xbc9f4262	-0.019440833
236	0x3d8f2fe0	0.06991553
237	0x3e1f6048	0.15564072
238	0xbe747f92	-0.23876789
239	0x3c825114	0.015907802
240	0x3e547bf7	0.20750414
241	0xbe20e268	-0.15711367
242	0x3e1f3cde	0.15550563
243	0xbcece8be	-0.028919574
244	0x3e66704e	0.22503778
245	0xbe5bfe84	-0.21483809
246	0x3d33a2a8	0.043856293
247	0x3e3752e6	0.17902717
248	0x3e394766	0.18093643
249	0xbdee1252	-0.11624588
250	0xbe462989	-0.19351782
251	0x3cb086b7	0.021548612
252	0xbde05a4c	-0.10954723
253	0x3e1d71aa	0.1537539
254	0xbe09ee16	-0.13469729
255	0x3caf5868	0.02140446

node_encoder.2.bias f4 [16]
0	0xbe564a43	-0.20926766
1	0xbbd9953c	-0.0066401046
2	0x3e759eb9	0.23986329
3	0x3e0c71ce	0.13715288
4	0x3dc8c483	0.09803107
5	0xbe273e70	-0.16332412
6	0x3e597870	0.2123735
7	0xbddef2ff	-0.108861916
8	0x3e58a591	0.21156909
9	0xbe563ba4	-0.20921189
10	0xbe0207e3	-0.12698321
11	0xbd945220	-0.072422266
12	0x3d4dbcaf	0.05022877
13	0x3e0dc483	0.13844495
14	0x3d0be4f1	0.034153882
15	0xbdadce0d	-0.08486567

node_encoder.3.weight f4 [16]
0	0x3f7e1478	0.9924998
1	0x3f8090a5	1.0044142
2	0x3f8282f8	1.0196218
3	0x3f7fe7b4	0.99962926
4	0x3f80a1ac	1.0049338
5	0x3f8123f0	1.0089092
6	0x3f7ff54a	0.99983656
7	0x3f7f712c	0.9978206
8	0x3f7dd4f9	0.99153095
9	0x3f8011e7	1.0005463
10	0x3f7e9750	0.99449635
11	0x3f79dfe5	0.9760726
12	0x3f8087c0	1.0041428
13	0x3f81eb99	1.0150024
14	0x3f7ec02d	0.99511987
15	0x3f7d8e03	0.9904482

node_encoder.3.bias f4 [16]
0	0x3c089111	0.008335368
1	0x3aec29de	0.0018017848
2	0x3c9b8c3b	0.018987766
3	0x3bd3cb97	0.006463479
4	0xbaa5a613	-0.0012637995
5	0xbc25dd78	-0.010123603
6	0x39c2aacd	0.0003712982
7	0x3ca953bb	0.020669809
8	0xbc957662	-0.018244926
9	0xba64cc29	-0.0008727932
10	0xba861c0c	-0.0010231747
11	0x3c30c434	0.010788966
12	0x3c21e36f	0.009880885
13	0x3bc5c2b8	0.006035175
14	0xbc4057ed	-0.011739713
15	0x3c1379a0	0.009001166

edge_encoder.0.weight f4 [16, 4]
0	0xbecbe456	-0.39822644
1	0xbe2a03dd	-0.16603036
2	0xbe67d84b	-0.22641103
3	0xbe8ae14a	-0.27125007
4	0x3e9663c8	0.29373002
5	0x3db7cb7f	0.08974361
6	0xbe89990c	-0.26874578
7	0x3e80d37b	0.25161347
8	0xbeaca7ea	-0.33721858
9	0xbe9688ae	-0.29401153
10	0xbd466460	-0.04843557
11	0x3ea2d616	0.3180396
12	0x3e83d905	0.2575151
13	0xbeb77820	-0.35833836
14	0xbec86758	-0.39141345
15	0x3e1315bf	0.14363764
16	0x3a696ea1	0.00089047296
17	0x3d6beb2c	0.057597324
18	0x3c957936	0.018246274
19	0xbeb74568	-0.3579514
20	0xbdacc450	-0.08435881
21	0xbe239d0c	-0.15977877
22	0xbdb10cf0	-0.08645046
23	0x3ea0f7fc	0.31439197
24	0xbef039d2	-0.46919113
25	0x3d25e962	0.040505774
26	0x3f003391	0.50078684
27	0xbee5093e	-0.44733614
28	0x3eb33088	0.34997964
29	0x3f034bfd	0.51287824
30	0x3ee68904	0.4502641
31	0x3eb229a6	0.347974
32	0xbe4bafdf	-0.19891308
33	0x3e6fcb3a	0.23417369
34	0x3d96ec33	0.0736927
35	0x3ef2cc2c	0.47421396
36	0xbef6b8ec	-0.4818796
37	0x3e7c0c5f	0.24614094
38	0xbe9cbe36	-0.3061387
39	0xbee6a33a	-0.45046407
40	0x3ef9473e	0.48687166
41	0x3dfc5b9f	0.12322163
42	0xbe405878	-0.18783748
43	0xbeea5620	-0.45768833
44	0xbddfd190	-0.10928643
45	0xbd99afaf	-0.07504212
46	0xbb21dabf	-0.0024697033
47	0xbe24aa8b	-0.16080682
48	0x3e0c8db0	0.13725924
49	0x3eabe80c	0.33575475
50	0xbece303e	-0.4027118
51	0xbe421e78	-0.18956935
52	0x3edf6d56	0.43638104
53	0xbef68e57	-0.48155472
54	0x3ed29a1f	0.4113321
55	0xbdb7c6fd	-0.08973501
56	0x3e035dd4	0.12828761
57	0xbe933ae2	-0.28755862
58	0x3e62f377	0.22163187
59	0x3d91b8a6	0.07115297
60	0xbdf18bbe	-0.11794232
61	0x3ef3764f	0.475512
62	0xbedcc9d6	-0.4312274
63	0x3ed034e7	0.4066536

edge_encoder.0.bias f4 [16]
0	0x3eab6f79	0.33483484
1	0xbdad52d5	-0.084630646
2	0xbe29926c	-0.16559762
3	0x3ec627f3	0.38702354
4	0x3e63559b	0.22200625
5	0xbee35a08	-0.44404626
6	0xbec06084	-0.37573636
7	0xbef05e12	-0.4694677
8	0xbe5e8a1a	-0.21732369
9	0xbdc185fe	-0.09449385
10	0x3e517c2e	0.20457527
11	0x3e96e706	0.29473132
12	0xbee448ec	-0.44586885
13	0x3e87405d	0.26416293
14	0x3e2a1f40	0.16613483
15	0x3e25fbf3	0.16209392

edge_encoder.2.weight f4 [16, 16]
0	0xbe6555f1	-0.22396065
1	0xbe2df427	-0.16987668
2	0xbd6d18b8	-0.0578849
3	0x3dfe85cc	0.124278635
4	0xbd364c7b	-0.04450653
5	0xbd9fe900	-0.07808113
6	0x3ced48f8	0.028965458
7	0x3cda091d	0.026615674
8	0xbdc46a88	-0.09590632
9	0x3d04ea11	0.032449786
10	0xbdec36a0	-0.115338564
11	0x3e5f53c9	0.21809305
12	0x3c74aa20	0.014933139
13	0x3e0d5feb	0.13806121
14	0xbe4ad5dd	-0.19808145
15	0xbdabcb52	-0.0838839
16	0x3dcb8cef	0.0993899
17	0xbe25dfa1	-0.16198589
18	0x3cd3b1f7	0.025841696
19	0xbe0acd40	-0.13554859
20	0xbda7dd85	-0.08196548
21	0x3c48fd80	0.01226747
22	0xbe497770	-0.19674468
23	0x3da83945	0.08214048
24	0x3e259e95	0.16173775
25	0xbe521183	-0.20514493
26	0xbcf0c6db	-0.029391697
27	0xbd5f160e	-0.054464392
28	0xbe6832ae	-0.22675583
29	0xbd83117d	-0.0639982
30	0x3e4b3f90	0.19848466
31	0x3d5dd43d	0.054157484
32	0xbc3056a7	-0.010762847
33	0x3e560005	0.20898445
34	0x3dbff50d	0.093729116
35	0x3e336101	0.17517473
36	0xbe5dc0a6	-0.21655521
37	0x3e091036	0.1338509
38	0x3e5ce932	0.21573332
39	0x3d8e5b1f	0.06950974
40	0xbd023e0e	-0.03179746
41	0x3e58c49f	0.21168755
42	0xbe1eb731	-0.1549957
43	0x3da2a8be	0.07942341
44	0xbe7ddc22	-0.24791005
45	0xbe571221	-0.2100301
46	0xbe77b6aa	-0.24190775
47	0xbe46f9bd	-0.19431205
48	0xbdc3fc52	-0.09569611
49	0xbe51677e	-0.20449635
50	0xbe1ff466	-0.15620574
51	0xbde99052	-0.1140448
52	0x3df23ef3	0.11828413
53	0x3e6e19ae	0.23251984
54	0x3de9ad69	0.114100285
55	0xbe27ff17	-0.16405903
56	0xbe0e494f	-0.13895153
57	0x3e094ed8	0.13408983
58	0xbe101e51	-0.14074065
59	0xbe4c86df	-0.19973324
60	0xbdc8c6e8	-0.09803563
61	0x3e753056	0.2394422
62	0x3e581939	0.21103372
63	0xbe525293	-0.20539312
64	0x3e8203c2	0.25393492
65	0xbe081f91	-0.13293292
66	0xbd9af326	-0.07565908
67	0xbe69d2dc	-0.22834343
68	0x3e5ac21c	0.2136311
69	0x3e49eed6	0.19720015
70	0x3e8112cc	0.25209653
71	0x3dd26c22	0.10274531
72	0xbd391600	-0.045186996
73	0x3e14586f	0.1448686
74	0xbd8f860f	-0.070079915
75	0xbe697ec0	-0.22802258
76	0xbe0bc29a	-0.13648453
77	0x3e176bdc	0.14787239
78	0xbe5f932b	-0.21833484
79	0xbe72f145	-0.2372485
80	0x3e5e6d64	0.21721417
81	0xbe47416c	-0.1945855
82	0x3d796c26	0.060894154
83	0x3e7f3324	0.24921852
84	0x3d75645a	0.059910156
85	0xbcfae520	-0.030626833
86	0x3db7ab79	0.08968253
87	0x3e4bba3f	0.19895266
88	0xbe313b38	-0.17307746
89	0x3dce9c66	0.100884244
90	0xbdcbccdc	-0.09951183
91	0xbe23ff0e	-0.16015264
92	0xbc582600	-0.013192654
93	0x3e26dbb4	0.16294748
94	0xbe4c37be	-0.19943139
95	0xbd8592b7	-0.06522124
96	0xbd8a3306	-0.06748013
97	0x3e0d3a73	0.13791828
98	0x3da21e3c	0.07915923
99	0x3df72f02	0.12069513
100	0x3e426cc2	0.189868
101	0x3e0bc280	0.13648415
102	0xbde5c7c1	-0.11219741
103	0x3ca7c919	0.020481633
104	0x3e31057d	0.1728725
105	0x3e220bee	0.15824863
106	0xbe31a23b	-0.17347042
107	0xbbe1b7b1	-0.006888353
108	0x3dd43ddc	0.10363361
109	0x3d9ab109	0.07553298
110	0xbc485e68	-0.012229539
111	0xbccf9697	-0.025340362
112	0x3dc7900f	0.09744274
113	0xbdfad97f	-0.12248515
114	0x3e1c7155	0.15277608
115	0xbe54f571	-0.20796753
116	0xbe67728b	-0.22602288
117	0x3cf183b0	0.029481739
118	0x3d11cb37	0.03559419
119	0x3d36f12f	0.044663604
120	0xbe37e102	-0.17956927
121	0x3d8bc5f6	0.068248674
122	0xbe67e7d1	-0.22647025
123	0x3de32a78	0.11092085
124	0x3e21948e	0.15779325
125	0xbe0c5486	-0.13704118
126	0x3ceac862	0.028660003
127	0x3e1b86f2	0.15188196
128	0xbd22c0d9	-0.039734695
129	0x3dc872c3	0.09787514
130	0xbe2307ad	-0.15920897
131	0x3d80576e	0.06266676
132	0x3d96219d	0.0733063
133	0x3d33fe00	0.043943405
134	0xbe32d584	-0.17464262
135	0xba823e79	-0.0009936831
136	0x3e263974	0.16232854
137	0xbe417aae	-0.18894455
138	0x3d95419f	0.07287907
139	0xbde36026	-0.11102323
140	0xbdf49a04	-0.11943439
141	0xbe2cca54	-0.16874057
142	0x3dee8257	0.11645954
143	0x3e3a16f1	0.18172814
144	0xbe5709c3	-0.20999818
145	0x3e50713f	0.203557
146	0x3df5f163	0.120089315
147	0x3d667aa0	0.056269288
148	0x3e43e96b	0.1913201
149	0x3d5c1f00	0.0537405
150	0x3c538721	0.012910635
151	0x3e999eaa	0.30003864
152	0xbc909b8d	-0.017652297
153	0x3e509dfe	0.20372769
154	0x3aeec7bf	0.0018217488
155	0x3e601c36	0.21885762
156	0x3cb275b0	0.021784633
157	0xbda9edd5	-0.08297316
158	0xbd1d5ace	-0.038416676
159	0xbe5cc903	-0.21561055
160	0xbddfe89a	-0.10933037
161	0x3d0b74e9	0.03404704
162	0xbe5c4482	-0.21510509
163	0xbe52c743	-0.20583825
164	0x3d881c33	0.066460036
165	0x3d97b930	0.074083686
166	0xbd9c4c31	-0.0763172
167	0x3e694899	0.227816
168	0xbda02434	-0.07819405
169	0xbe0ffc15	-0.14061005
170	0x3d2549c1	0.04035354
171	0x3df9fc25	0.12206296
172	0xbe032a88	-0.12809193
173	0x3d81f463	0.06345441
174	0x3d961f22	0.07330157
175	0x3de65436	0.11246531
176	0x3d273a2a	0.040826954
177	0xbe708abe	-0.23490426
178	0xbe8569d5	-0.26057306
179	0x3e58d5d9	0.21175326
180	0x3e17c967	0.14822923
181	0x3e714cb6	0.23564419
182	0x3e03d064	0.12872463
183	0x3de37a65	0.11107329
184	0xbdbea12f	-0.09308087
185	0x3de022c6	0.109441325
186	0x3e0686ad	0.13137312
187	0xbe1d2e23	-0.15349631
188	0xbb565000	-0.0032701492
189	0xbe6f84c6	-0.23390493
190	0x3df3f602	0.11912157
191	0xbd466f10	-0.04844576
192	0xbe34ef3b	-0.17669384
193	0x3e237ae6	0.15964851
194	0xbd879b44	-0.066214114
195	0xbe25c1c6	-0.161872
196	0xbc66cd2c	-0.014087003
197	0xbe182f44	-0.1486178
198	0x3d1a3536	0.037648402
199	0x3e45e030	0.19323802
200	0x3cf8b32f	0.030358879
201	0x3c75ef9c	0.015010741
202	0xbce6235a	-0.028093029
203	0x3e40633c	0.18787855
204	0x3e511436	0.20417866
205	0x3c88c29f	0.016694365
206	0xbe4b2498	-0.19838178
207	0x3e02f1cb	0.12787549
208	0x3dbe5fdc	0.092956275
209	0x3e0831f2	0.13300303
210	0xbda2aee5	-0.07943515
211	0x3df4ea2e	0.11958729
212	0x3e405056	0.18780646
213	0x3e2991c0	0.16559505
214	0xbe41b580	-0.18916893
215	0xbd06230b	-0.032748263
216	0xbe49c1b6	-0.19702801
217	0xbe6d40af	-0.23169206
218	0xbe329859	-0.17440929
219	0x3ddd8b2f	0.10817563
220	0x3e2a8dbe	0.16655633
221	0xbe31a544	-0.173482
222	0xbd215e81	-0.039396767
223	0x3da37a8b	0.079823576
224	0x3de1276a	0.10993846
225	0x3dc8839d	0.09790728
226	0x3e397fd3	0.18115167
227	0x3e06b977	0.13156687
228	0xbe4e9dd2	-0.20177391
229	0x3dcb5e6c	0.09930119
230	0x3d30f731	0.04320449
231	0xbe971054	-0.29504645
232	0x3e243306	0.16035089
233	0x3de489ae	0.11159073
234	0xbe48e06d	-0.19616862
235	0xbce921a9	-0.028458433
236	0x3dfea624	0.124340326
237	0x3d4be704	0.04978086
238	0x3e6b321f	0.22968338
239	0xbe5f2403	-0.21791081
240	0xbd1430be	-0.036179297
241	0xbe79ac68	-0.24382174
242	0x3e688c64	0.22709805
243	0xbe0ac798	-0.13552701
244	0x3dfd840b	0.12378701
245	0x3e1bb2ea	0.15204969
246	0xbdad0952	-0.08449043
247	0xbe06fd96	-0.13182673
248	0x3e3fdc30	0.18736339
249	0x3e74fbc1	0.23924161
250	0xbcc1e890	-0.023670465
251	0xbd0e2f79	-0.034713242
252	0x3e5cd9a4	0.21567398
253	0x3cd0fd44	0.025511391
254	0xbe138827	-0.14407407
255	0x3e051e69	0.12999882

edge_encoder.2.bias f4 [16]
0	0xbe6c409b	-0.2307152
1	0x3d3d3f24	0.046202794
2	0xbe4481f6	-0.19190201
3	0xbb518dfc	-0.0031975498
4	0xbd9f2198	-0.077700794
5	0xbddd5c34	-0.10808602
6	0xbddb9eb8	-0.107236326
7	0x3d5b6548	0.053563386
8	0x3d87ea4d	0.06636486
9	0xbe4c4b84	-0.19950682
10	0x3e7c3741	0.24630453
11	0x3e268a10	0.16263604
12	0xbe3f7609	-0.1869737
13	0x3e79f239	0.24408807
14	0xbd803388	-0.06259829
15	0xbe282460	-0.16420126

edge_encoder.3.weight f4 [16]
0	0x3f7d7b6e	0.99016464
1	0x3f828801	1.0197755
2	0x3f815427	1.0103806
3	0x3f7c8a41	0.9864846
4	0x3f7d3228	0.9890466
5	0x3f80c2dc	1.0059466
6	0x3f7d1a1a	0.9886795
7	0x3f836c6f	1.0267466
8	0x3f80be2a	1.0058033
9	0x3f7e4aac	0.9933269
10	0x3f809a3e	1.0047071
11	0x3f812345	1.0088888
12	0x3f7da643	0.9908182
13	0x3f8131de	1.0093343
14	0x3f839b08	1.0281687
15	0x3f7f3cc7	0.99702114

edge_encoder.3.bias f4 [16]
0	0x3c24392a	0.010023395
1	0x3cb493a5	0.022043059
2	0xbc1b3e53	-0.0094753085
3	0x3becc14c	0.007225191
4	0x3c0b11c0	0.008488119
5	0x3b0e97ac	0.0021757884
6	0xbb9c7e67	-0.0047758105
7	0xbc4de947	-0.012567825
8	0x3b8cc2d6	0.004295687
9	0x3c232f3f	0.009959995
10	0x3bbb811c	0.005722178
11	0x3bd31a07	0.0064423117
12	0x3c3aec40	0.011408865
13	0x3c082da0	0.008311659
14	0xbba92a27	-0.0051624957
15	0xbb859bbd	-0.0040774033

node_model.0.weight f4 [16, 48]
0	0x3d8d781d	0.069076754
1	0x3d141566	0.03615322
2	0xbd879bac	-0.06621489
3	0x3d2358c9	0.039879594
4	0x3d701c1e	0.058620565
5	0x3d896251	0.067082055
6	0xbdc3341e	-0.09531425
7	0xbe162e4d	-0.146661
8	0xbcbfb0f3	-0.023399806
9	0xbe0476d1	-0.1293595
10	0x3cc857e9	0.024455981
11	0xbe0b5168	-0.13605273
12	0xbce0e58f	-0.027453212
13	0x3dd9b3b6	0.1062998
14	0xbdc1c385	-0.094611205
15	0xbd1161d5	-0.03549369
16	0x3d8399da	0.06425829
17	0xbde5d647	-0.11222511
18	0xbe18cda8	-0.14922202
19	0xbd2baa48	-0.04191044
20	0x3d32dd7a	0.043668248
21	0x3d282873	0.0410542
22	0xbda5180f	-0.080612294
23	0xbd04b132	-0.03239555
24	0xbd0b6fdd	-0.034042228
25	0xbe0d7c38	-0.13816917
26	0xbb15eb13	-0.002287571
27	0xbd232a1f	-0.03983509
28	0xbe08e5cf	-0.13368915
29	0xbda4e709	-0.08051879
30	0x3dea04be	0.11426686
31	0x3d66e9a0	0.056375146
32	0xbde4daa4	-0.11174515
33	0x3cfded12	0.030996833
34	0xbe27d1a4	-0.16388565
35	0xbda0bb72	-0.07848252
36	0x3d141e49	0.036161695
37	0xbd896dee	-0.067104205
38	0xbdd65424	-0.10465267
39	0x3c8f4d87	0.017493023
40	0x3d15e181	0.03659201
41	0x3df4166e	0.119183406
42	0xbc9a8fea	-0.018867452
43	0x3e06078a	0.13088813
44	0x3db9a715	0.090650715
45	0xbd21b2d5	-0.03947719
46	0x3df72f10	0.12069523
47	0xbd9cff8b	-0.076659285
48	0x3c80d30b	0.015725633
49	0x3bcdfd9a	0.006286335
50	0x3d1066e9	0.035254393
51	0x3d9e669a	0.077344134
52	0x3d5c5ed3	0.05380137
53	0xbe276937	-0.1634873
54	0x3dd31a3f	0.103077404
55	0x3d4ef5a0	0.050527215
56	0xbd728d6f	-0.059216913
57	0x3dc41927	0.0957511
58	0x3c4866cd	0.012231541
59	0xbde3750f	-0.111063115
60	0x3e13cc0a	0.14433303
61	0x3db2ca60	0.08730006
62	0x3da270d1	0.07931674
63	0x3c32fa38	0.010923915
64	0x3d26bd6f	0.040708
65	0x3d807b73	0.06273546
66	0x3df5b0b2	0.119965926
67	0x3e1a8b33	0.15092163
68	0x3c9f4aad	0.019444788
69	0xbb8f4eab	-0.0043733916
70	0xbdd8cba8	-0.10585719
71	0x3dd530b0	0.10409677
72	0xbd1bffad	-0.03808563
73	0xbb823021	-0.0039730226
74	0x3d8efea3	0.06982162
75	0xbd5305dd	-0.051519264
76	0x3b835182	0.004007519
77	0xbde57135	-0.11203233
78	0xbd39a2ad	-0.045321155
79	0xbe022980	-0.12711143
80	0xbd46ad84	-0.04850532
81	0x3e397fae	0.18115112
82	0xbda08257	-0.0783736
83	0xbda1306f	-0.07870566
84	0xbe2313df	-0.15925549
85	0x3ab8b2fe	0.001409143
86	0x3e0c9cec	0.13731736
87	0x3da4166b	0.080120884
88	0x3e387916	0.1801494
89	0x3cda0b36	0.026616674
90	0x3deb644b	0.11493739
91	0xbd9ecb6e	-0.07753645
92	0xbd9fd644	-0.0780454
93	0xbe28b063	-0.16473536
94	0xbe1eab2c	-0.15494984
95	0x3d260661	0.040533427
96	0xbb947cad	-0.004531464
97	0xbe08a0f2	-0.13342646
98	0xbcb92788	-0.022601858
99	0xbe0e5f94	-0.13903648
100	0x3d9af6be	0.075665936
101	0x3dc5f83f	0.0966649
102	0xbccd52fd	-0.025063986
103	0xbbf5bd49	-0.007499371
104	0x3c80f1dc	0.015740328
105	0x3c814dc2	0.015784148
106	0xbc820110	-0.015869647
107	0xbd75d083	-0.060013305
108	0xbcc944f1	-0.024569007
109	0x3d346aec	0.04404728
110	0xbc0fafbe	-0.008769928
111	0x3d7168e6	0.05893793
112	0xbd1c4dda	-0.038160183
113	0x3df78df7	0.120876245
114	0x3db1fa68	0.08690339
115	0xbd6e078e	-0.058112673
116	0xbe0057dd	-0.12533517
117	0x3d9284d9	0.07154245
118	0xbdf18ded	-0.11794648
119	0x3e0f2275	0.13977988
120	0xbe0ccba0	-0.13749552
121	0x3dae5730	0.085127234
122	0xbc48fada	-0.012266839
123	0x3cb0aa4a	0.021565575
124	0x3de64d61	0.112452276
125	0x3dd98f1b	0.10622998
126	0xbcf4d675	-0.029887417
127	0xbd6d7f30	-0.057982624
128	0x3d94293c	0.07234427
129	0xbd3cfccc	-0.046139523
130	0xbe0eec38	-0.13957298
131	0xbe10a9d7	-0.14127289
132	0xbd210402	-0.039310463
133	0x3d5f9974	0.054589704
134	0xbc77ddd7	-0.015128574
135	0x3d0130aa	0.03154055
136	0xbdc1a8f3	-0.09456053
137	0xbd5d02a4	-0.053957596
138	0x3d1cce41	0.038282637
139	0x3e225c47	0.15855514
140	0xbd760fb1	-0.06007356
141	0xbd4cfc63	-0.050045382
142	0x3d2e8507	0.042607334
143	0xbc799515	-0.015233298
144	0xbd380290	-0.04492432
145	0xbe0aa245	-0.13538463
146	0x3df0e1b8	0.117618024
147	0xbd51d7d5	-0.051231224
148	0x3d972316	0.07379739
149	0xbddd7e98	-0.108151615
150	0xbdf9ff63	-0.12206914
151	0x3d88edbf	0.066859715
152	0xbde74ba6	-0.11293726
153	0x3c2a2040	0.010383666
154	0x3ca4c87f	0.020115135
155	0x3d00fff7	0.031494107
156	0xbde818d6	-0.11332862
157	0x3d7989c5	0.060922403
158	0x3c470638	0.012147479
159	0x3d552598	0.052037805
160	0x3de5581e	0.11198448
161	0xbde7ba25	-0.11314801
162	0xbbfd3044	-0.007726701
163	0x3d2cf933	0.042229842
164	0xbd497235	-0.049181182
165	0x3dbb0eeb	0.09133705
166	0x3dd65f95	0.104674496
167	0xbda4fe1f	-0.08056282
168	0xbd1b940d	-0.03798299
169	0x3d8b674c	0.06806812
170	0xbd919da5	-0.071101464
171	0xbdecd79b	-0.11564561
172	0x3e1478b9	0.14499177
173	0xbc4e69f1	-0.012598501
174	0x3db75baa	0.089530304
175	0x3d902dc8	0.07039982
176	0xbc965aef	-0.018353907
177	0xbdb95f9e	-0.09051441
178	0x3dbaabee	0.09114824
179	0xbd35ac3c	-0.04435371
180	0xbab50ee6	-0.0013813644
181	0xbd9e9753	-0.077437066
182	0x3c5aa294	0.013344426
183	0xbcb50b53	-0.022100126
184	0xbdb975a1	-0.09055639
185	0xbe12f7d9	-0.14352359
186	0xbdb9557e	-0.090495095
187	0xbd55f42e	-0.05223482
188	0x3d233a0f	0.03985029
189	0x3cff69cb	0.031178376
190	0xbdfe211b	-0.12408658
191	0xbd8f39f5	-0.06993476
192	0x3e02add3	0.12761621
193	0xbe061007	-0.13092051
194	0xbd14e04a	-0.03634671
195	0x3d1422cb	0.036165994
196	0xbddf15c3	-0.108928226
197	0xbe0c54f4	-0.13704282
198	0x3d94635e	0.07245515
199	0xbdd48714	-0.103773266
200	0x3e021f7a	0.1270732
201	0x3dcad22b	0.099033676
202	0x3db3334e	0.0875002
203	0xbdbd78c8	-0.09251553
204	0xbd16b938	-0.036797732
205	0x3d866c1c	0.06563589
206	0xbdb8cea3	-0.09023788
207	0xbb893630	-0.004187368
208	0x3d9d0156	0.076662704
209	0x3c3a3349	0.011364766
210	0x3d3115a4	0.04323353
211	0xbd303c31	-0.043026153
212	0x3cb964df	0.022631107
213	0xbdf6b76c	-0.12046704
214	0x3d865257	0.06558674
215	0xbc02ddab	-0.00798742
216	0x3dd7546e	0.105141506
217	0xbc810d39	-0.015753375
218	0xbd8e3bfa	-0.06945033
219	0x3e07a09f	0.13244866
220	0x3e0d34bc	0.13789648
221	0x3dc87876	0.09788601
222	0xbe161cd6	-0.14659438
223	0xbe057790	-0.1303389
224	0x3b682247	0.0035420822
225	0xbe25b0b3	-0.16180687
226	0x3db2d5e2	0.08732201
227	0x3e011ef9	0.12609471
228	0x3dc6fddf	0.09716391
229	0xbb47a72b	-0.003046463
230	0xbd82aaf6	-0.063802645
231	0xbdacca9d	-0.08437083
232	0x3d21aec6	0.039473318
233	0x3dc14a37	0.094379835
234	0xbd9ad095	-0.07559315
235	0x3e0f641e	0.14003035
236	0xbd7b0853	-0.061287235
237	0xbe182107	-0.14856349
238	0xbbcbc10e	-0.0062180823
239	0xbdb9faa5	-0.0908101
240	0xbd8a5273	-0.06754007
241	0x3df22d57	0.11825054
242	0xbdb25eb5	-0.0870947
243	0xbe07c479	-0.13258542
244	0x3e258bb7	0.16166578
245	0xbcc7b996	-0.024380486
246	0xbc2d1efd	-0.01056647
247	0xbda872ce	-0.08225022
248	0xbd8a1185	-0.06741623
249	0xbdbfb41a	-0.093605235
250	0xbcd24ec1	-0.025672318
251	0xbd132e12	-0.035932608
252	0x3e14508b	0.1448385
253	0xbb9d35e7	-0.0047976854
254	0x3c5af3e6	0.013363814
255	0xbdb13b24	-0.08653858

node_model.0.bias f4 [16]
0	0x3db8f7c7	0.09031635
1	0xbdd64d7b	-0.10463997
2	0x3e002cc5	0.12517078
3	0x3e00b6b8	0.12569702
4	0xbdafc333	-0.08582153
5	0x3b928f7b	0.0044726706
6	0xbd83c398	-0.06433791
7	0x3e131540	0.14363575
8	0xbdc8ad82	-0.09798719
9	0x3c44a0e2	0.012001248
10	0xbce802f2	-0.028321717
11	0xbe14b443	-0.1452189
12	0x3dc18e1d	0.09450934
13	0xbdcd791a	-0.10032864
14	0x3d3a8b6d	0.045543123
15	0xbe045ac9	-0.12925257

node_model.2.weight f4 [16, 16]
0	0x3e3d5f42	0.18493369
1	0xbe67ff52	-0.2265599
2	0xbe1b5c85	-0.15172012
3	0xbdbe8792	-0.09303202
4	0xbe4641ef	-0.19361089
5	0xbdd0faf0	-0.102041125
6	0xbdf9b995	-0.121936
7	0xbd34441d	-0.04401027
8	0xbe9594c8	-0.29215074
9	0xbde2121f	-0.110386126
10	0xbcc46e84	-0.02397848
11	0xbe039586	-0.12850007
12	0xbd800b18	-0.06252116
13	0xbd8b0a36	-0.06789057
14	0x3c6dbd4d	0.014510465
15	0x3e250282	0.16114238
16	0xbe010f0e	-0.12603399
17	0x3e5ead15	0.21745713
18	0x3b9fb3e7	0.004873741
19	0x3e6cb894	0.23117286
20	0xbc827c1e	-0.015928324
21	0x3d3d270f	0.046179827
22	0xbda3573c	-0.07975623
23	0x3dd9f9a2	0.10643317
24	0xbe24e489	-0.16102804
25	0x3e86d5cf	0.26334998
26	0xbe28a1f8	-0.16468036
27	0xbe058017	-0.13037144
28	0xbe67a7f8	-0.22622669
29	0xbe252753	-0.16128282
30	0xbca201d2	-0.019776259
31	0x3e71f437	0.23628317
32	0x3e665c20	0.2249608
33	0xbe4f6523	-0.20253424
34	0x3ea668fd	0.32501975
35	0xbdda5cba	-0.106622174
36	0x3d1404e2	0.03613747
37	0xbe6ccb04	-0.2312432
38	0xbe3b73cd	-0.18305893
39	0xbd975b47	-0.07390457
40	0x3e2dbea9	0.16967262
41	0xbca6796f	-0.020321576
42	0xbe07ca03	-0.13260655
43	0xbe4811b5	-0.19538005
44	0x3e67b2e5	0.22626837
45	0x3e6893ee	0.2271268
46	0xbe46bf23	-0.1940885
47	0xbc935fb1	-0.017989965
48	0xbdd3c1e4	-0.10339716
49	0x3d955575	0.0729169
50	0xbe092ab3	-0.13395195
51	0x3dd09576	0.101847574
52	0x3dd11de8	0.10210782
53	0x3e4ad42b	0.19807498
54	0x3e826233	0.25465545
55	0x3df63de8	0.120235264
56	0xbe56b5aa	-0.20967737
57	0xbe7d99de	-0.24765727
58	0xbe24dc26	-0.16099605
59	0x3d904191	0.07043756
60	0xbdd88eca	-0.1057411
61	0x3e17d5c2	0.14827636
62	0xba15706d	-0.00057006517
63	0x3e519f3f	0.20470904
64	0xbd989620	-0.07450509
65	0x3e309261	0.17243339
66	0x3cdabf43	0.026702529
67	0xbdd7e1ed	-0.10541139
68	0xbdb370c2	-0.08761741
69	0xbb0f3456	-0.0021851263
70	0x3df17df9	0.117916055
71	0xbe0eeb42	-0.13956931
72	0xbe1c7da0	-0.15282297
73	0x3e2e9e2c	0.17052525
74	0xbe49f2ff	-0.19721602
75	0x3e4cf5ec	0.20015687
76	0xbde892c2	-0.11356117
77	0x3e8196e5	0.25310436
78	0x3df15260	0.1178329
79	0xbbb6b296	-0.0055754883
80	0x3e85a8c1	0.26105312
81	0x3e0b1699	0.13582839
82	0xbdef8e28	-0.11697036
83	0x3e397638	0.18111503
84	0xbd5261be	-0.051362745
85	0xbe522fb0	-0.20526004
86	0x3df8fb12	0.12157263
87	0x3d1fc86e	0.039009504
88	0x3d2a0f2b	0.04151837
89	0xbe49aa9d	-0.1969399
90	0xbce88fc4	-0.028388865
91	0x3df6e1b2	0.12054767
92	0xbe5f6912	-0.21817425
93	0x3e072727	0.13198529
94	0xbe851ce3	-0.259986
95	0xbdca0d97	-0.09865873
96	0xbe421ff0	-0.18957496
97	0x3c429e5a	0.011878574
98	0xbe5d91fe	-0.21637723
99	0x3e2119ee	0.15732548
100	0x3bd562d3	0.006512025
101	0x3e01617e	0.12634847
102	0x3d69113f	0.056901213
103	0x3e96836f	0.2939715
104	0x3e51ebfc	0.20500177
105	0x3cccdb31	0.025006862
106	0xbcaf6513	-0.0214105
107	0x3e204bc2	0.156539
108	0x3cc868a7	0.024463965
109	0x3d5b57bc	0.053550467
110	0x3b2e9fda	0.0026645572
111	0x3e724427	0.2365881
112	0xbcc078a9	-0.023495035
113	0xbd64b000	-0.05583191
114	0x3e4215dd	0.18953653
115	0x3e722d95	0.236502
116	0x3e4e66d9	0.20156421
117	0x3d85f211	0.06540311
118	0x3e5a6ba3	0.21330123
119	0x3d87bbde	0.0662763
120	0xbd5971cd	-0.053087045
121	0xbe955ba5	-0.29171482
122	0xbdadc0cd	-0.084840395
123	0x3c80cadf	0.015721736
124	0x3cde8dda	0.02716725
125	0xbe7e7f81	-0.24853326
126	0x3e256e9f	0.1615548
127	0x3db59ba4	0.08867577
128	0x3ce109b5	0.027470449
129	0x3d7ce95f	0.061745998
130	0x3e497fd6	0.19677672
131	0x3e3e00c4	0.1855498
132	0xbe05486c	-0.13015908
133	0xbdb8adb5	-0.09017507
134	0x3e62a301	0.22132494
135	0x3e0a6688	0.13515675
136	0xbe0a61f6	-0.13513932
137	0xbe831d2c	-0.25608194
138	0x3c6e152d	0.014531416
139	0x3e39da60	0.1814971
140	0x3e82cbee	0.2554621
141	0x3ddb4155	0.107058205
142	0xbe8448e5	-0.25836864
143	0xbd17239b	-0.03689919
144	0xbe406ee9	-0.18792309
145	0xbc673f79	-0.014114254
146	0xbd4ffde4	-0.05077924
147	0x3d9c4b35	0.07631532
148	0xbe15290b	-0.14566438
149	0xbe264bf8	-0.16239917
150	0x3cd99bbd	0.02656352
151	0xbe52d42d	-0.20588751
152	0xbe1bb8b9	-0.15207185
153	0xbe20e037	-0.15710531
154	0x3e449fd9	0.19201602
155	0xbe76468c	-0.24050349
156	0x3e93ba69	0.28853157
157	0x3e61ccb8	0.2205075
158	0x3d63278b	0.055457633
159	0xbd8cdb32	-0.06877746
160	0xbcaf98c3	-0.021435147
161	0x3e122858	0.14273202
162	0xbdbec7c6	-0.093154475
163	0x39f7b58f	0.00047246783
164	0xbd463320	-0.0483886
165	0x3e859550	0.2609048
166	0x3e1c7715	0.15279801
167	0x3cc67032	0.02422342
168	0xbe8ef715	-0.27922884
169	0xbdd18bef	-0.10231768
170	0x3d6a9c22	0.057277806
171	0x3b57f8a9	0.003295461
172	0xbca31acb	-0.019910237
173	0x3c8b37c9	0.016994374
174	0x3d824d62	0.06362416
175	0xbd3bdd2c	-0.045865223
176	0xbd64c133	-0.05584831
177	0xbd0ae557	-0.03391012
178	0x3daafae4	0.08348635
179	0xbcb9d475	-0.022684315
180	0x3e209b18	0.15684164
181	0x3d942a28	0.07234603
182	0x3dfb05ba	0.12256952
183	0xbe52677b	-0.20547287
184	0x3e4bfba9	0.1992022
185	0xba919e06	-0.0011109717
186	0x3d32caa8	0.0436503
187	0xbe3d67d4	-0.18496639
188	0x3e5df74f	0.21676372
189	0x3aa1061d	0.0012285147
190	0x3bd09bb3	0.006366217
191	0x3e730053	0.23730592
192	0xbe8aecc4	-0.27133763
193	0xbddd23c6	-0.10797839
194	0xbe900985	-0.28132263
195	0x3e2be53e	0.16786668
196	0x3dbfa925	0.09358434
197	0xbe252185	-0.16126068
198	0x3df78517	0.12085932
199	0x3e890699	0.26762846
200	0x3dbb6aac	0.091512054
201	0x3e02d030	0.1277473
202	0x3d21492f	0.039376434
203	0xbe5394d3	-0.2066224
204	0xbe221be0	-0.15830946
205	0xbb81e0b2	-0.0039635533
206	0xbd0b0e2e	-0.03394907
207	0x3d4ae325	0.04953303
208	0xbe31e03a	-0.17370692
209	0xbdd2cfa4	-0.102935106
210	0x3d972b0b	0.07381257
211	0x3dff50b4	0.12466565
212	0xbe74b251	-0.23896147
213	0xbe45cd39	-0.19316567
214	0xbdec3d9c	-0.115351886
215	0xbd275116	-0.040848814
216	0xbdb31b71	-0.087454684
217	0x3c94949f	0.018137274
218	0x3e396437	0.18104635
219	0x3d21225e	0.039339416
220	0xbe3f69e4	-0.18692738
221	0xbcec630e	-0.028855827
222	0xbcc2ec62	-0.023794357
223	0xbe62b700	-0.22140121
224	0xbb2d2468	-0.0026419405
225	0xbdff654a	-0.12470491
226	0xbe45187e	-0.19247624
227	0xbdbfd8d9	-0.09367532
228	0x3d01298e	0.03153377
229	0x3e470f76	0.19439492
230	0xbd43cbbb	-0.047801714
231	0x3e2b9b1b	0.16758387
232	0x3d039da9	0.03213278
233	0x3e10ab4f	0.14127849
234	0xbdaa23de	-0.083076224
235	0xbdc50536	-0.096201345
236	0xbe755a2e	-0.23960182
237	0x3c2da2f2	0.010597931
238	0xbd672113	-0.056428026
239	0x3d1962b6	0.037447654
240	0x3de321ef	0.11090457
241	0xbe8278ae	-0.25482696
242	0x3df0ae5c	0.117520064
243	0xbd6aedd9	-0.057355735
244	0xbd3a3ddd	-0.045469154
245	0x3ad1a707	0.0015995213
246	0xbe51ad3d	-0.20476241
247	0xbe84691b	-0.2586144
248	0xbe405af0	-0.1878469
249	0x3e501da4	0.20323807
250	0xbe1713dc	-0.1475367
251	0x3d8d9116	0.069124386
252	0xbdef4275	-0.116825975
253	0x3e453c3f	0.19261263
254	0xbe290d96	-0.16509089
255	0xbd0ead9a	-0.034833528

node_model.2.bias f4 [16]
0	0x3e53d3fa	0.20686331
1	0xbcf685e8	-0.030093148
2	0xbca3c2a5	-0.019990275
3	0x3d86c4c0	0.06580496
4	0xbe5848b6	-0.21121487
5	0xbd58d8c8	-0.052941114
6	0xbe4e759a	-0.20162049
7	0x3e404ed3	0.18780069
8	0xbdf5c014	-0.119995266
9	0xbe0ef2bb	-0.13959782
10	0xbe8d6acb	-0.2762054
11	0xbd5eb0aa	-0.0543677
12	0xbb09b92c	-0.0021014912
13	0xbdee7e3c	-0.11645171
14	0xbd5ed3c4	-0.054401174
15	0x3dd19260	0.10232997

node_model.3.weight f4 [16]
0	0x3f978b88	1.1839457
1	0x3fa415bc	1.2819133
2	0x3f9670b5	1.1753145
3	0x3f8c5d8b	1.0966047
4	0x3f9c07e2	1.2189906
5	0x3f8f9058	1.1215925
6	0x3f989605	1.1920782
7	0x3f91a0fc	1.1377254
8	0x3f9c19e2	1.2195399
9	0x3f83f709	1.0309764
10	0x3f82671a	1.0187714
11	0x3f92ec66	1.1478393
12	0x3f9c3d8b	1.2206281
13	0x3f816c68	1.0111208
14	0x3f97c03d	1.1855541
15	0x3f92f719	1.1481658

node_model.3.bias f4 [16]
0	0x3e3a4ca6	0.18193302
1	0xbddcbfd4	-0.10778776
2	0x3ddf381b	0.10899373
3	0xbd9bcd50	-0.076075196
4	0xbe05b543	-0.13057427
5	0x3da06464	0.07831648
6	0xbe09b5a5	-0.13448198
7	0x3e0ab9c5	0.13547428
8	0x3dafdd3d	0.0858712
9	0x3d6c0f6b	0.05763189
10	0xbdfa646e	-0.12226187
11	0x3d8a6433	0.06757393
12	0xbe0bbdd7	-0.13646637
13	0x3d89692d	0.06709514
14	0xbdd50197	-0.10400694
15	0x3df57c83	0.11986639

edge_model.0.weight f4 [16, 96]
0	0xbcba8241	-0.022767188
1	0xbd64ff47	-0.055907514
2	0xbcdc2a83	-0.02687574
3	0xbd3d8900	-0.04627323
4	0x3cb931d5	0.02260677
5	0xbd4aed2b	-0.049542587
6	0xbdc7a2c4	-0.09747842
7	0xbb89da4b	-0.0042069308
8	0xbd2e8edc	-0.04261671
9	0xbdb18a70	-0.08668983
10	0xbdedd73c	-0.11613318
11	0xbdb70175	-0.08935825
12	0xbdbc3a5c	-0.09190819
13	0xbcebd73a	-0.028789151
14	0xbd0d19e1	-0.03444851
15	0x3d890045	0.066895045
16	0x3dbd0c0b	0.09230813
17	0xbd1e211a	-0.038605787
18	0x3da240f5	0.07922546
19	0x3c8eb6a6	0.017421078
20	0xbbbfcf52	-0.005853572
21	0xbd68700d	-0.056747485
22	0xbc4a8011	-0.012359635
23	0xbd9259a5	-0.071460046
24	0x3db1348b	0.086526
25	0xbd8be2ec	-0.06830391
26	0x3d599bcd	0.0531271
27	0x3d091e75	0.03347631
28	0x3d93791b	0.072008334
29	0xbd4c3b24	-0.04986109
30	0x3d800a8b	0.06252011
31	0x3bdd04bb	0.0067449487
32	0x3d97dac2	0.074147716
33	0xbda07aba	-0.07835908
34	0xbd1af0c3	-0.037827265
35	0xbd247fb9	-0.04016087
36	0xbd700d42	-0.058606394
37	0xbbd225a7	-0.00641318
38	0xbd604587	-0.054753806
39	0xbd8610d5	-0.06546179
40	0xbc325b52	-0.01088603
41	0xbd43741f	-0.047718164
42	0x3d829b9a	0.06377335
43	0xbd363685	-0.044485588
44	0xbd499187	-0.04921105
45	0xbdf98d1c	-0.121851176
46	0x3dbbddcc	0.09173164
47	0x3d6e09a6	0.05811467
48	0xbd8fc9cf	-0.07020914
49	0xba938d6c	-0.0011257357
50	0x3d70a161	0.058747653
51	0x3d881a3a	0.06645627
52	0x3c8acaf9	0.016942488
53	0x3de9ecf7	0.114221506
54	0x3d917f5e	0.071043715
55	0xbdaf060b	-0.085460745
56	0x3cf7b9e6	0.03024001
57	0x3d1c7ca1	0.038204793
58	0xbd40c723	-0.04706491
59	0x3e00806b	0.12548988
60	0x3d919b82	0.07109739
61	0xbd49e766	-0.049292944
62	0x3d1c6d59	0.03819022
63	0x3b4fe058	0.0031719413
64	0xbd7faba4	-0.06241955
65	0x39eb4e68	0.0004488111
66	0x3d2f10f7	0.04274079
67	0x3d9402f8	0.07227129
68	0x3d5fea1c	0.054666623
69	0x3bb9e1d0	0.005672671
70	0x3cc2e20d	0.02378943
71	0x3dac8f21	0.08425737
72	0x3dd8e586	0.10590653
73	0xbcb7e69b	-0.022448828
74	0x3d6e2dcc	0.058149144
75	0xbd3e441b	-0.04645167
76	0xbd9028fe	-0.07039069
77	0x3da3849d	0.07984278
78	0x3d8eef9f	0.06979298
79	0xbdc6111e	-0.096712336
80	0xbdc01161	-0.09378315
81	0x3d56d41b	0.052448373
82	0x3cfe8c35	0.031072715
83	0x3d54a4bb	0.05191491
84	0xbd9b6378	-0.075873315
85	0x3d6a2623	0.057165276
86	0x3a876d15	0.0010332192
87	0xbd81a139	-0.06329579
88	0x3dcd033c	0.100103825
89	0x3d99cb34	0.07509461
90	0x3db01203	0.085971855
91	0x3d5b8095	0.053589422
92	0xbca692f0	-0.020333737
93	0x3dbc7ea4	0.09203842
94	0x3db08ac4	0.086202174
95	0x3c5834c3	0.013196173
96	0xbc2a7ee4	-0.01040623
97	0xbd4e0407	-0.05029681
98	0xbd0015be	-0.031270735
99	0xbd97a902	-0.074052826
100	0x3d483e65	0.04888763
101	0x3986e28d	0.00025727265
102	0x3ccc6927	0.024952484
103	0xbc3d757f	-0.011563658
104	0x3d9373eb	0.07199844
105	0xbd893931	-0.067003615
106	0x3d9ad5ac	0.07560286
107	0x3d358211	0.044313494
108	0xbc5daf5d	-0.013530579
109	0x3ce57be5	0.02801318
110	0x3dba6821	0.09101892
111	0x3db71e66	0.08941345
112	0xbbdee0e1	-0.00680171
113	0x3d1aea0f	0.037820872
114	0xbda83bb7	-0.08214515
115	0x3d8f9654	0.07011095
116	0x3cd1fcf6	0.025633316
117	0xbd701d75	-0.058621842
118	0xbda287e0	-0.07936072
119	0x3d5db08d	0.05412345
120	0xbdda9c69	-0.10674364
121	0xbc93a747	-0.0180241
122	0x3c7083e0	0.014679879
123	0x3d87e9fe	0.06636427
124	0xbd7f59b3	-0.062341403
125	0xbd1f7ce1	-0.038937453
126	0xbdafd4fa	-0.08585544
127	0x3cbc4e64	0.022986598
128	0x3d029633	0.031881522
129	0x3d878ca6	0.066186234
130	0xbd9d5f3c	-0.0768418
131	0x3da75577	0.08170598
132	0x3c2946ac	0.010331791
133	0x3ddd0352	0.10791649
134	0x3d0d2b9e	0.034465425
135	0x3da7ee43	0.08199742
136	0xbd027853	-0.03185303
137	0x3d531495	0.0515333
138	0xbd38ef5a	-0.04515014
139	0x3bcea591	0.006306358
140	0xbbbefee7	-0.0058287266
141	0xbd4ab23b	-0.04948638
142	0xbd920eef	-0.071317546
143	0xbda07d4e	-0.078364
144	0x3c216afb	0.009852166
145	0x3d9134bb	0.07090136
146	0xbda1f2a6	-0.0790761
147	0xbdbabe6f	-0.091183536
148	0xbdb5a90c	-0.08870134
149	0xbbe6d9a8	-0.0070449896
150	0x3d9f933b	0.07791754
151	0x3d951675	0.07279674
152	0x3d21a577	0.03946444
153	0xbda0afb8	-0.07846016
154	0x3dac105d	0.084015585
155	0x3d935b33	0.07195129
156	0xbb76c065	-0.0037651297
157	0xbd899c96	-0.067193195
158	0xbd9ed72f	-0.07755887
159	0x3dae6092	0.08514513
160	0x3c580c54	0.013186533
161	0xbdb89b08	-0.09013945
162	0x3d51d2c0	0.051226377
163	0x3cdfedf8	0.027335152
164	0xbc755b6a	-0.014975408
165	0x3d386a69	0.045023356
166	0x39c7d1de	0.000381126
167	0x3d838705	0.06422237
168	0xbc750a82	-0.014956119
169	0xbda7f478	-0.082009256
170	0xbd98f9ce	-0.074695215
171	0xbc6ce1b5	-0.01445811
172	0xbd835a6c	-0.06413731
173	0x3b5a1022	0.0033273776
174	0x3d8707c9	0.06593282
175	0xbc77f740	-0.015134633
176	0xbd91903a	-0.07107587
177	0x3dc66af3	0.09688368
178	0x3d0ccee2	0.034376986
179	0x3d135269	0.035967264
180	0xbc8419d8	-0.016125605
181	0xbdd2d54b	-0.10294589
182	0x3d7b64d2	0.061375447
183	0xbc0f38e5	-0.008741592
184	0xbcc97a26	-0.024594378
185	0xbca93f22	-0.020659987
186	0xbdb93580	-0.090434074
187	0xbdb099c4	-0.086230785
188	0xbdad7e3f	-0.08471345
189	0xbda38046	-0.079834506
190	0x3d8dbfe5	0.069213666
191	0xbda21c93	-0.07915606
192	0xbd00ba83	-0.03142787
193	0xbc80544e	-0.0156652
194	0x3c1e7f9a	0.009673977
195	0x3c3e36e2	0.011609765
196	0x3c38d822	0.011281999
197	0xbd40ab70	-0.047038496
198	0x3d843415	0.06455246
199	0x3db22d11	0.08700002
200	0xbd47fbf1	-0.048824254
201	0xbc626f13	-0.0138204275
202	0xbd5dd4e9	-0.054158125
203	0xbda0521b	-0.078281604
204	0xbd84c171	-0.064822085
205	0xbd2f269c	-0.04276143
206	0x3cb00c45	0.021490226
207	0x3d4ddb32	0.05025787
208	0x3d3102cf	0.04321557
209	0x3c47d970	0.012197837
210	0x3be181af	0.0068819146
211	0x3bfae384	0.0076565165
212	0xbc791e9d	-0.015205053
213	0x3daea174	0.085268885
214	0xbda6f21e	-0.08151649
215	0xbc21da90	-0.0098787695
216	0x3d8df00f	0.06930553
217	0xbd2c4107	-0.042054202
218	0xbd6f3420	-0.05839932
219	0xbd09bad6	-0.033625446
220	0xbd59fbd3	-0.053218674
221	0xbdaf6123	-0.08563449
222	0x3dafe03c	0.08587691
223	0x3d57d082	0.052689083
224	0xbd92e1c4	-0.071719676
225	0x3d9cea85	0.076619186
226	0x3d3e7f53	0.046508145
227	0xbb179bb8	-0.0023133587
228	0xbd7607e9	-0.060066137
229	0xbd621582	-0.055196293
230	0xbd55b76d	-0.05217688
231	0xbdabbb45	-0.08385328
232	0x3d5ec44e	0.05438643
233	0x3cba0976	0.02270959
234	0xbd762c21	-0.06010068
235	0xbc0e2e54	-0.008678038
236	0x3d930524	0.07178715
237	0x3d040b13	0.032237124
238	0xbdb1447f	-0.08655643
239	0xbdc3dc60	-0.095635176
240	0x3d8d83cd	0.06909905
241	0xbca7541a	-0.020425845
242	0xbd66b154	-0.056321457
243	0x3deaabaf	0.11458527
244	0xbd9b3506	-0.07578473
245	0xbd0c1c11	-0.034206454
246	0x3c6b627c	0.014366742
247	0x3cb669c6	0.022267234
248	0x3a903435	0.0011001887
249	0xbd62482d	-0.055244613
250	0xbd4506f6	-0.04810234
251	0xbdad244f	-0.08454191
252	0xbdb5c9fe	-0.088764176
253	0x39c259a8	0.00037069363
254	0xbc42a626	-0.011880433
255	0xbcf86229	-0.030320244

edge_model.0.bias f4 [16]
0	0x3c1443be	0.009049354
1	0xbc96ea70	-0.018422335
2	0xbcf061fb	-0.029343596
3	0xbda8a419	-0.08234424
4	0x3daf5ad5	0.08562247
5	0xbdb3c7b9	-0.087783284
6	0xbdb3b5ae	-0.08774887
7	0x3c6e6f26	0.014552867
8	0xbd54b6ea	-0.051932253
9	0x3d8f8e63	0.0700958
10	0xbc332bfd	-0.010935781
11	0xbd100e9c	-0.035170183
12	0x3b74fdeb	0.0037382792
13	0xbc3d48d7	-0.011553011
14	0xbca8b3c8	-0.020593539
15	0xbc52b23a	-0.012859875

edge_model.2.weight f4 [16, 16]
0	0xbe327943	-0.1742907
1	0xbdbc70ce	-0.09201203
2	0xbe722bb8	-0.2364949
3	0xbe378173	-0.17920475
4	0x3d150186	0.036378406
5	0x3dc2b289	0.09506709
6	0xbc7d8dfd	-0.015475747
7	0x3e42e3f9	0.19032277
8	0xbe504b84	-0.20341307
9	0x3da2c570	0.079478145
10	0x3d699c9f	0.05703413
11	0xbdba2b07	-0.09090238
12	0x3da6a745	0.08137373
13	0xbe2d05cd	-0.16896744
14	0xbac58608	-0.0015069852
15	0x3d900d4e	0.07033788
16	0xbdcf62d8	-0.10126275
17	0xbe2c3982	-0.16818812
18	0x3e32beda	0.17455617
19	0xbe3cdf1c	-0.18444484
20	0x3e7af300	0.2450676
21	0xbc9d9e39	-0.019240486
22	0xbce5ba8f	-0.02804306
23	0xbdf2d521	-0.11857057
24	0x3d0b2235	0.03396817
25	0x3e476ee9	0.19475903
26	0x3dcc5a1f	0.09978127
27	0xbddf542e	-0.10904728
28	0xbc851ec3	-0.01625002
29	0x3e2cbffc	0.16870111
30	0x3d872df7	0.06600564
31	0x3b4e0126	0.003143379
32	0xbe80268f	-0.25029418
33	0x3e357d79	0.17723645
34	0xbe14a184	-0.14514738
35	0x3cd6a470	0.026201457
36	0x3cf51c6e	0.029920783
37	0xbe6a8055	-0.22900517
38	0x3e4b094a	0.19827762
39	0x3da4ba37	0.0804333
40	0xbdb22be9	-0.086997814
41	0x3e74e544	0.23915583
42	0x3e1430d1	0.14471747
43	0x3de45519	0.111490436
44	0xbe0feaa8	-0.14054358
45	0xbe383d34	-0.17992097
46	0x3cf23e70	0.029570788
47	0x3dc6b796	0.09702985
48	0xbe78b469	-0.24287571
49	0x3e6d2faf	0.23162721
50	0x3c0ba88c	0.008524071
51	0x3dd9e2c8	0.10638958
52	0xbe1f42da	-0.15552846
53	0xbd28d844	-0.041221872
54	0xbd398ecb	-0.045302194
55	0xbdbceada	-0.09224482
56	0x3dc510bb	0.09622332
57	0x3e761d67	0.24034654
58	0x3d560487	0.05225041
59	0xbcb5d125	-0.022194454
60	0x3d96685e	0.07344125
61	0xbde733b4	-0.112891585
62	0x3deec69d	0.11658976
63	0xbe4fb8f2	-0.20285395
64	0x3e44cbe7	0.19218408
65	0xbe1a8312	-0.15089062
66	0xbe201cb5	-0.15635951
67	0xbe640176	-0.22266182
68	0xbd2d39c7	-0.04229143
69	0x3e875cf1	0.26438096
70	0x3d56f38a	0.05247835
71	0xbe11e8f8	-0.14249027
72	0x3e594082	0.21216014
73	0x3d3a5814	0.045494154
74	0xbdce8ba0	-0.10085225
75	0xbe337dd0	-0.17528462
76	0x3e603cb9	0.21898164
77	0xbe6517db	-0.22372381
78	0xbd8be183	-0.06830122
79	0xbdbb9d62	-0.09160878
80	0xbe3c212a	-0.18372026
81	0x3e83c2cd	0.2573456
82	0xbd482645	-0.04886462
83	0xbdfa58d3	-0.12223973
84	0x3e388b74	0.18021947
85	0xbdb16c6e	-0.086632594
86	0x3e10eb83	0.1415234
87	0xbdd41e49	-0.10357339
88	0x3de04401	0.10950471
89	0xbb2043a3	-0.0024454377
90	0x3e230e15	0.1592334
91	0x3e2ed715	0.17074235
92	0x3e173a50	0.14768338
93	0xbdc85e1d	-0.09783576
94	0xbe5c9c27	-0.21543942
95	0xbdfdd582	-0.12394239
96	0xbe5ba1e9	-0.21448483
97	0x3dff437f	0.12464046
98	0xbb0549c9	-0.0020338169
99	0x3e48e981	0.19620325
100	0x3e6bec60	0.23039389
101	0xbe52298d	-0.20523663
102	0xbd03f370	-0.032214582
103	0x3e5606cb	0.20901029
104	0x3e364fdc	0.17803901
105	0x3c898a17	0.01678948
106	0xbc7b7659	-0.0153480405
107	0xbd4ed3e6	-0.05049505
108	0xbe84c467	-0.25931093
109	0xbd9ab124	-0.07553318
110	0x3d95a9a4	0.07307747
111	0x3e01f8d4	0.12692577
112	0x3e3f2ca0	0.18669367
113	0x3d591b71	0.053004686
114	0xbe5a6efe	-0.21331403
115	0xbe104863	-0.14090113
116	0xbc870bbc	-0.016485088
117	0x3e24f013	0.16107206
118	0x3e69b51b	0.22822993
119	0xbcf5261b	-0.029925397
120	0xbd5ea97c	-0.05436085
121	0x3d01f8c4	0.031731382
122	0xbd7e8a41	-0.062143568
123	0x3c70ecc9	0.0147048915
124	0x3d3533fe	0.044239037
125	0xbe67314b	-0.22577398
126	0x3e6ab9ab	0.22922389
127	0xbe29a72f	-0.16567682
128	0xbda538db	-0.08067485
129	0x3db2c2a2	0.087285295
130	0xbd2db9e6	-0.042413615
131	0x3e37a276	0.17933068
132	0xbd14b685	-0.036306877
133	0xbd846abb	-0.0646567
134	0xbd9d9cc4	-0.07695916
135	0xbdcc3187	-0.09970384
136	0x3d8252c7	0.06363445
137	0xbdea41ef	-0.11438357
138	0x3e76f1fe	0.2411575
139	0x3c82351b	0.015894463
140	0xbe3f920a	-0.18708053
141	0x3e0bad14	0.13640243
142	0xbe637e6d	-0.22216196
143	0xbe6b30b1	-0.22967793
144	0x3e7b492d	0.24539633
145	0x3d0271c2	0.03184677
146	0xbdb58aa1	-0.08864332
147	0x3c5a2e91	0.013316766
148	0x3e28b9de	0.16477153
149	0x3deff565	0.11716727
150	0x3e29775a	0.16549435
151	0xbd92739f	-0.07150959
152	0xbd98d624	-0.07462719
153	0xbd564c45	-0.05231883
154	0x3da1667e	0.07880877
155	0xbe244ca3	-0.1604486
156	0x3e5b42a0	0.21412134
157	0xbe416176	-0.18884835
158	0x3d3c8925	0.04602923
159	0x3e4e526a	0.20148626
160	0x3d9aeb90	0.07564461
161	0x3e06d315	0.13166459
162	0x3e4390a6	0.19098148
163	0xbd98086a	-0.0742348
164	0xbd892016	-0.06695573
165	0x3e2a9cec	0.16661423
166	0xbdab92a3	-0.08377578
167	0xbe5159ab	-0.20444362
168	0xbe144a54	-0.14481479
169	0x3e477a35	0.19480212
170	0xbe04b8ab	-0.1296107
171	0x3ce9c484	0.028536089
172	0xbe1eb463	-0.154985
173	0x3e738af1	0.2378347
174	0xbd1dccab	-0.038525265
175	0xbd188809	-0.03723911
176	0xbe1b3a32	-0.15158918
177	0xbe252a22	-0.16129354
178	0xbe5413de	-0.20710704
179	0x3e0b43e6	0.1360012
180	0xbdba7bed	-0.09105668
181	0x3e97acee	0.29624122
182	0xbc94ecd1	-0.01817933
183	0x3e82b1bf	0.25526235
184	0xbcb725ef	-0.022356955
185	0xbe4bfe0d	-0.19921131
186	0xbe7387b4	-0.23782235
187	0x3dec6333	0.11542358
188	0x3dc878f3	0.09788694
189	0x3d94a48d	0.07257948
190	0x3d88469f	0.06654095
191	0x3dbac5f0	0.09119785
192	0xbe1efb4d	-0.15525551
193	0xbe382540	-0.1798296
194	0xbe659c7b	-0.22422974
195	0x3e25a52b	0.16176288
196	0xbdef6547	-0.11689239
197	0xbe121ce0	-0.14268827
198	0xbe2bf5af	-0.1679294
199	0xbe37b242	-0.17939094
200	0xbd622198	-0.05520782
201	0xbe742278	-0.23841274
202	0xbe2c7527	-0.16841565
203	0x3d663c6f	0.056209978
204	0x3e49c4fc	0.1970405
205	0x3e6b16d2	0.22957924
206	0x3d0d89fb	0.034555417
207	0xbd12a1a9	-0.035798702
208	0x3daa28c0	0.08308554
209	0x3da11106	0.07864575
210	0xbe805144	-0.25062
211	0x3ddea5ea	0.10871489
212	0xbcd65a67	-0.026166154
213	0x3e0e514d	0.13898201
214	0x3cdb421d	0.026764924
215	0xbe04fa11	-0.12986018
216	0xbe23d968	-0.16000903
217	0x3e7080df	0.2348666
218	0xbe293cb8	-0.16527069
219	0xbe406843	-0.18789773
220	0xbd482f4d	-0.048873235
221	0x3d77e73f	0.060523268
222	0xbd1c46a3	-0.038153302
223	0xbe40b094	-0.18817359
224	0x3e7db363	0.24775462
225	0x3d39d4c4	0.045368925
226	0xbc71022b	-0.01470999
227	0x3e38de58	0.18053567
228	0x3d448cd9	0.047985885
229	0xbdb0a458	-0.08625096
230	0xbe758e93	-0.23980169
231	0xbe43042a	-0.19044557
232	0x3abdfb03	0.0014494363
233	0xbd3410ce	-0.04396134
234	0xbd0150c2	-0.031571157
235	0xbd9194cd	-0.071084596
236	0x3dca73dc	0.0988538
237	0x3df4265b	0.11921378
238	0x3d93f947	0.0722528
239	0x3d15271b	0.036414247
240	0xbe43f04a	-0.19134632
241	0xbe1aae37	-0.1510552
242	0x3dc5638c	0.09638128
243	0xbd835275	-0.06412212
244	0x3c89a844	0.016803868
245	0xbe7928c0	-0.24331951
246	0xbce9da3f	-0.02854645
247	0x3e28b894	0.16476661
248	0xbe79ac1d	-0.24382062
249	0xbc700cce	-0.01465149
250	0xbd8526f5	-0.06501571
251	0x3d5b73d5	0.053577263
252	0x3e336ace	0.17521212
253	0x3e5ccced	0.21562548
254	0xbd7cab8d	-0.06168704
255	0xbe04c94d	-0.12967415

edge_model.2.bias f4 [16]
0	0x3e0eb247	0.13935195
1	0xbe1c0362	-0.15235665
2	0xbe0e177c	-0.13876146
3	0xbdab40c7	-0.08361965
4	0x3e018c6f	0.12651227
5	0xbe0e6d14	-0.13908798
6	0xbe3c48ce	-0.18387148
7	0xbe58dfea	-0.21179166
8	0xbdeeac1e	-0.116539225
9	0x3c91ec15	0.017812768
10	0xbdf7438d	-0.12073431
11	0xbe4199ec	-0.18906373
12	0x3df02847	0.11726432
13	0x3e406e33	0.18792038
14	0x3d51c958	0.051217407
15	0x3dc1720f	0.09445583
