tmp/tmp3model200.pt (torch, 23679 bytes, 25 tensors)

node_encoder.0.weight f4 [16, 5]
000000 59 05 e3 be d3 a0 b4 be 3e 25 44 be 26 a1 d8 be
       -0.44340017 -0.3527895 -0.19154832 -0.42310447
000010 60 fc cf bc 0b ae b1 be 74 43 94 3e 61 5d 87 3e
       -0.025388896 -0.34703097 0.28957713 0.2643843
000020 a0 f5 ac 3d 91 61 c9 3e 80 66 33 bd 98 26 89 3e
       0.08445287 0.3933225 -0.043798923 0.26787257
000030 ae 5a a0 be f8 7c b4 bd c8 29 cc be 02 ce a8 bc
       -0.31319183 -0.088128984 -0.39875627 -0.020606045
000040 5b a4 43 be 47 04 d4 3e ae 0d 9f 3e 0d aa b2 3e
       -0.19105665 0.41409513 0.31065124 0.34895363
000050 24 ee 1d 3e 93 8a 84 be a1 93 c2 3e a0 6d df be
       0.15422875 -0.25886974 0.38003257 -0.43638325
000060 03 ae 9c be 83 02 8f be e2 d2 3d be 70 a0 b6 3d
       -0.3060151 -0.27931604 -0.18537477 0.0891732
000070 e5 71 ad be 2b 67 b0 be 12 c1 7c be 79 c2 75 3e
       -0.33875957 -0.3445371 -0.24683025 0.23999967
000080 27 27 a5 be 87 5d cd be 00 74 c6 be 4c 59 61 be
       -0.32256433 -0.40110418 -0.38760376 -0.2200672
000090 38 a6 f0 bd 35 fe e2 be ab 67 56 be 00 f5 0c 3c
       -0.11750454 -0.4433457 -0.20937984 0.008603334
0000a0 d0 fa 96 3d 30 4d 83 bd 90 b2 4f bd d5 f6 94 be
       0.073720574 -0.06411207 -0.0507074 -0.29094568
0000b0 dc 9b 6a 3e fb 42 00 be 8c 8d 9c be 88 39 00 be
       0.22911018 -0.12525551 -0.30576742 -0.12521946
0000c0 28 e9 7f bd 7b bd ca 3e cc ae 27 3e de 43 3b be
       -0.062478215 0.39597687 0.16375273 -0.18287608
0000d0 93 f8 09 be 34 56 ca 3e da 38 5f 3e cd 4a fb 3d
       -0.1347373 0.39518893 0.21799031 0.122701265
0000e0 8b b0 fb bd 1c 4d ba 3e c0 32 44 3e 72 9d 89 be
       -0.12289532 0.36386955 0.19159985 -0.26877934
0000f0 38 7e a2 3e 70 8e 02 3d b8 56 a9 be a4 fa 4a be
       0.31736922 0.03187412 -0.33073974 -0.19822174
000100 b9 7c ab be af 14 d2 be 19 60 ed bc db 16 a4 be
       -0.33493593 -0.41031405 -0.028976487 -0.32048687
000110 34 10 74 3e d1 d7 1e 3e 80 89 cf 3d ff f9 b9 3e
       0.23834306 0.15512015 0.10133648 0.36323544
000120 b0 c5 31 be 40 87 da 3b 3d 88 aa 3e eb 90 35 3e
       -0.17360568 0.006668955 0.33307067 0.17731063
000130 c8 d5 7d 3d 9e b4 c8 3e b0 bc d0 3d 83 ce 9e 3e
       0.061971456 0.392003 0.10192239 0.3101693

node_encoder.0.bias f4 [16]
000000 6e 54 c5 be 9c 8b ad be 89 ab ce be 43 03 28 3d
       -0.38540977 -0.33895576 -0.40365246 0.041018736
000010 84 5b cd 3e 46 d2 c7 be c2 78 14 3e 8f 10 ca be
       0.40108883 -0.39027613 0.1449919 -0.39465758
000020 e0 2a 98 be 00 1a 2e be 5b 99 80 be 25 ba 12 3e
       -0.2972021 -0.17002106 -0.25117 0.14328821
000030 58 ff bf be ec fe cd 3e ea 0a 90 3d 93 ea 36 3e
       -0.374995 0.40233552 0.07033332 0.1786292

node_encoder.2.weight f4 [16, 16]
000000 92 ee 2c be 64 89 41 3e 08 19 6f bd 0f 7b d0 bd
       -0.16887882 0.18900067 -0.05837348 -0.101797216
000010 29 44 06 3c 78 16 d5 3d d0 dd 5f 3c 0c 21 b3 bd
       0.008194962 0.10404676 0.013663724 -0.087465376
000020 08 69 3e 3d 06 65 a0 bd 6b 51 0d bd 84 d0 05 be
       0.046486884 -0.07831769 -0.034501474 -0.13067824
000030 e4 85 18 3e c9 f0 fa bd 3c 79 c3 3d f2 cb df 3d
       0.14894825 -0.122529574 0.09544608 0.10927571
000040 4c 19 2a be 1c 52 32 be a8 7a 2a be 9f 4f 43 be
       -0.16611212 -0.17414135 -0.16648352 -0.19073342
000050 b5 d4 5d 3e 94 a7 61 3e 56 a8 b1 bc e0 0b 70 3e
       0.21663173 0.22036582 -0.021686714 0.2344203
000060 90 07 91 3d 28 1d 6f be 6d 76 5a be f4 7e f1 bd
       0.070815206 -0.23350966 -0.21334238 -0.117917925
000070 1e 5b 7f be 28 d7 05 be e3 d2 89 3d 02 f3 8b bb
       -0.24937102 -0.13070357 0.067296766 -0.004270912
000080 18 37 3f bd 69 75 72 bc 60 0d 6a 3e 5b 97 2a 3d
       -0.0466834 -0.014798501 0.22856665 0.04164825
000090 de 77 10 3e 88 d0 76 bd 04 93 5b be e0 4d 48 3d
       0.14108226 -0.060257465 -0.21442801 0.048902392
0000a0 60 cb eb 3d ed 97 23 3e 34 d9 51 be f8 6a 31 bc
       0.115134 0.15975924 -0.20493013 -0.010828726
0000b0 ec a8 76 be 71 23 6a 3c 5c 9d 99 3c 1b 20 df 3d
       -0.24087876 0.014290676 0.018751793 0.108947955
0000c0 f0 b2 af bd c7 74 77 3d 60 41 7b 3d 62 d2 86 be
       -0.085790515 0.060414102 0.061341643 -0.26332384
0000d0 89 71 07 3e 20 77 77 3e 31 a8 1f be c4 a5 79 3e
       0.13226904 0.24166536 -0.15591504 0.24379641
0000e0 38 75 1b 3d 89 f3 6d 3e a1 4c 25 3e e9 ea 54 be
       0.037953585 0.23237433 0.16142513 -0.20792736
0000f0 5a b9 40 3e 0a 45 41 bd 0b f9 26 3d d4 27 d8 bd
       0.18820706 -0.04718498 0.04076485 -0.105544716
000100 dc 31 4d be 8d 76 eb 3d 08 70 8e 3d 12 8d 08 3e
       -0.20038551 0.11497221 0.06954962 0.13335064
000110 af 4b 6c be d8 b6 77 be b6 04 b5 3d 78 01 4d bd
       -0.23075746 -0.24190843 0.08838789 -0.05005023
000120 00 f5 71 bb 3e 99 56 bd 8a ae cb 3a a0 e2 e3 3c
       -0.0036919713 -0.052392237 0.0015539688 0.027818024
000130 8e 6c 6c be 52 ac b6 3d c4 c0 10 3d c8 e7 f8 3d
       -0.23088285 0.08919586 0.035340086 0.12153584
000140 08 36 04 be d4 1e c5 3d 78 b6 2a 3e d6 5b b2 bd
       -0.12911236 0.096250206 0.16671169 -0.087089226
000150 81 5d 64 3e a8 c9 03 3d b6 93 5d 3e 10 b4 68 3e
       0.22301294 0.032174736 0.21638379 0.22724938
000160 a0 98 20 3d 9c 83 84 3d e6 ab 13 3e be 39 29 3e
       0.039208055 0.06470415 0.14421043 0.16525933
000170 68 c3 69 be 2c 13 9b 3c 75 c7 7a 3e 27 58 24 be
       -0.22828448 0.01893004 0.2449015 -0.16049252
000180 cc 2f 10 be 6c 8a eb 3d f0 20 b9 3d d3 ba fa 3d
       -0.14080733 0.11501011 0.090394855 0.12242665
000190 14 76 33 3c b8 8f 71 3d e3 98 dd bd d2 83 72 3e
       0.010953445 0.05897495 -0.108201765 0.23683098
0001a0 2c b3 28 be 88 b8 1e 3e 5f 63 dc 3d fd 8f 5f 3e
       -0.16474599 0.1550008 0.10761141 0.21832271
0001b0 1a 39 63 3e 55 4a 84 bd 6b ac 66 3e fb 87 1b be
       0.22189751 -0.0645949 0.2252671 -0.15188591
0001c0 b8 86 32 3e 2d d0 53 be 06 01 2e be b4 fc 3d be
       0.17434204 -0.20684882 -0.16992578 -0.1855343
0001d0 33 9b 81 3e f0 47 97 3d 3c 03 22 be d0 0c 40 be
       0.2531372 0.07386768 -0.15821546 -0.18754888
0001e0 40 c9 d3 3c 78 f2 9d bd 66 26 8d 3d 9d 21 26 3e
       0.0258528 -0.07712263 0.068920895 0.1622376
0001f0 de ba 21 be df 1a 3a be 38 1d 0f 3d 73 28 2e 3e
       -0.1579394 -0.18174313 0.034939975 0.17007618
000200 ac d4 1b 3e c2 df 21 3b 10 93 88 bd 9b 80 14 3d
       0.15217847 0.002470002 -0.06668675 0.03625546
000210 53 dc 35 3e 52 84 5c be aa 08 38 3a 42 8f 41 3e
       0.17759828 -0.21534851 0.0007020334 0.18902305
000220 f8 3a 45 3e 29 3c 4e 3e 39 f9 6c 3d 5c 49 7d 3e
       0.19260776 0.20140137 0.057854865 0.24735016
000230 62 8e 77 be 1d ce 40 3d a8 1a 4d 3d 76 17 30 3e
       -0.24175408 0.047071565 0.05007425 0.1719645
000240 48 ef 4b 3d db 76 a7 3d de 9f 60 be fb cb 00 bd
       0.049788743 0.08176967 -0.21935984 -0.03144453
000250 1c fd b8 3d 1a 30 24 3e ed 76 89 3d 88 67 25 3e
       0.09032652 0.16033974 0.067121364 0.16152775
000260 04 f0 9f bd f6 ca a0 bc f2 4b 7c 3e 35 d8 23 3e
       -0.07809451 -0.01962803 0.24638346 0.16000445
000270 1a c0 33 3e 8d 8f 60 be c4 65 1a bc 5b d6 67 be
       0.1755375 -0.2192976 -0.009423677 -0.22640364
000280 78 68 68 3e 9b d1 27 3e 48 fb 0e 3e b6 37 50 be
       0.22696102 0.16388552 0.13963044 -0.20333752
000290 43 08 2c be 90 12 27 be 7f a8 3e 3d 8c d9 51 3e
       -0.16800027 -0.16315675 0.04654741 0.20493144
0002a0 48 95 05 bd 83 12 86 be ab 29 e7 bd e9 9e 4e 3c
       -0.03261307 -0.26185998 -0.112872444 0.012611129
0002b0 e0 2d 6a 3c 75 b2 d0 3d 46 1a f5 3c 0c b4 e0 bd
       0.014293164 0.10190288 0.029919755 -0.10971841
0002c0 ba 1f 35 be f2 28 9b bc 90 9c ef bd 2a 33 32 be
       -0.17687884 -0.018940423 -0.11699784 -0.1740233
0002d0 c4 81 0f be 4e be 6a be ab 91 10 3c d4 2b 87 bd
       -0.14014345 -0.22924158 0.008823792 -0.066001564
0002e0 4e 1b 12 be 18 6f 70 3d 79 22 7a bc 33 cf 24 be
       -0.14268228 0.058699697 -0.015267008 -0.16094665
0002f0 10 4e de 3d 97 55 7d be 2b 6a 1a bd 43 07 45 3e
       0.10854733 -0.24739681 -0.037698906 0.19241051
000300 70 3f 52 3e 98 55 83 3e 98 ca 45 bd c1 3d e9 3c
       0.20532012 0.2565124 -0.04828891 0.02847183
000310 f5 55 40 be c0 e3 00 bc a3 98 60 3e 78 6d d7 bd
       -0.1878279 -0.0078668 0.21933226 -0.105189264
000320 0c 52 6f be 48 4d 41 3e 7d 3b 9d 3d 50 9d 23 3e
       -0.23371142 0.18877137 0.07677362 0.15977979
000330 e4 33 a6 bd 69 0a d5 bd 98 46 d5 bc b3 5f 98 bd
       -0.08115366 -0.10402376 -0.026034638 -0.07440128
000340 58 be 07 3d 1c 5a dd bd 64 ed 91 bd 58 b3 1b be
       0.03314051 -0.108082026 -0.07125357 -0.15205133
000350 9e 1f a8 bd 16 6e 2f be 62 f4 0c 3d d8 8e 16 3e
       -0.082091555 -0.17131838 0.03441275 0.14702928
000360 b0 7a f1 3d 1e f8 53 3d 7b 71 16 be 47 f5 a6 bc
       0.11790979 0.051750295 -0.14691727 -0.02038063
000370 90 13 91 bc 54 ac 4c 3e 6f e2 40 3d ac b0 25 3e
       -0.017709523 0.19987613 0.047090944 0.16180676
000380 2c a2 5d 3e ce 76 0c be b8 9d 4d be f4 ab 58 be
       0.21643895 -0.13717195 -0.20079696 -0.21159345
000390 46 f0 51 3e 30 17 d3 bd b2 65 5e 3d 4c 26 bb 3d
       0.20501813 -0.10307157 0.054296203 0.09138164
0003a0 00 06 fa bb 4b 78 63 be 0b cd 6e bd 5f 72 5b 3d
       -0.00763011 -0.22213857 -0.058301013 0.05357587
0003b0 98 5f e3 bd b6 23 2b bc d1 71 f5 3c 60 f5 a7 3d
       -0.111022174 -0.010445526 0.029961498 0.082010984
0003c0 78 24 de bd 26 43 31 3e ee 96 5c 3e 7d 8e df 3d
       -0.108467996 0.17310771 0.2154195 0.10915849
0003d0 33 87 3b be dc 61 16 be 06 75 ce 3c 72 5c 06 be
       -0.18313293 -0.14685768 0.025202285 -0.13121203
0003e0 00 98 98 b9 c3 2f 0c be 54 35 ea bd 1e d2 57 3c
       -0.00029104948 -0.13690095 -0.11435953 0.013172654
0003f0 0c ab 4d be ef 1e 6a 3d 0a ef 1b bc ec 9d e4 bd
       -0.2008478 0.057158407 -0.009517441 -0.11162934

node_encoder.2.bias f4 [16]
000000 46 e4 16 be a5 1a 12 be 50 7d 50 3e 4b a2 f2 3b
       -0.14735517 -0.14267977 0.20360303 0.0074046007
000010 bb 4e 94 bd 28 8d fc bc 2e 2d 3d be e4 a5 56 be
       -0.07241579 -0.030829027 -0.18474266 -0.2096172
000020 85 44 39 be 67 c4 75 bd 0e aa 23 be 88 ce a5 3d
       -0.18092544 -0.060001757 -0.1598284 0.08096033
000030 af 8c 2a 3e e4 dc 1b be f9 59 28 3e 7e e5 9a bd
       0.16655229 -0.15220982 0.16440572 -0.075633034

node_encoder.3.weight f4 [16]
000000 4e 6a 82 3f b6 13 7b 3f a1 2c 7e 3f a4 4c 7f 3f
       1.0188692 0.9807695 0.9928685 0.9972632
000010 89 9b 86 3f d6 60 7d 3f 5c ee 77 3f ee da 78 3f
       1.0516216 0.98975885 0.9684808 0.9720906
000020 6f 56 77 3f c5 11 7e 3f 05 e2 81 3f 9c 4d 7a 3f
       0.9661626 0.99245864 1.0147101 0.9777467
000030 95 43 80 3f b4 84 7d 3f a5 ae 7c 3f 02 81 7e 3f
       1.0020624 0.99030614 0.98703986 0.994156

node_encoder.3.bias f4 [16]
000000 ee 24 8b bc 4e aa 4a 3c 4d e0 bd bb 22 07 18 3c
       -0.016985383 0.012369705 -0.005794561 0.009279044
000010 ce ee 86 bc d7 26 f2 3b 37 98 cb 3c 8a 37 19 3c
       -0.016471293 0.007389884 0.024852855 0.00935162
000020 7b a3 4d bb d9 22 1c 3a a2 3d ad bc e1 3a a8 bb
       -0.003137796 0.00059561204 -0.021147553 -0.005133972
000030 01 59 c0 ba 7c d9 07 3c ee bf 8f bc aa de 20 b9
       -0.0014674963 0.008291598 -0.017547574 -0.00015341738

edge_encoder.0.weight f4 [16, 4]
000000 28 0a 2d be b7 cf ec 3e 02 fa a1 be 52 7b 15 be
       -0.16898406 0.46252224 -0.31636053 -0.14597824
000010 df 9d 26 3e a4 84 12 3e 88 f3 82 be 4f cf ca 3e
       0.1627116 0.14308411 -0.25576425 0.3961129
000020 c6 6f 03 bf 48 07 63 be c7 ad e9 3e 72 72 b5 bd
       -0.5134243 -0.22170746 0.45640394 -0.08859719
000030 2c 14 50 be 38 16 e8 be 06 5f fe be 8c 99 cf be
       -0.20320195 -0.45329452 -0.49681872 -0.40546834
000040 88 a4 13 be d6 64 a9 be b0 2b 51 3e 00 1c 2d be
       -0.14418232 -0.33084744 0.20426822 -0.16905212
000050 6e 47 be be da b9 b8 be 07 69 01 3f 80 48 c4 3c
       -0.37163872 -0.36079293 0.50550884 0.023960352
000060 76 6a 0e 3e 27 43 01 3e ee 3b 0d 3f 0f 32 c9 bd
       0.13907799 0.12623273 0.5516957 -0.09824001
000070 3c 6a 09 be 64 c0 37 be ae c4 be be e8 90 06 be
       -0.13419431 -0.17944485 -0.3725943 -0.13141215
000080 b0 cd 47 3d 68 f9 fe 3d 00 15 aa 3d 00 04 79 3a
       0.048780143 0.12449914 0.08304787 0.0009499192
000090 3d d4 d0 3e d9 f5 fd 3d 1e c1 36 be 8e 1c 8b be
       0.40786925 0.12400407 -0.17847106 -0.27170223
0000a0 ec 2e e9 be c9 23 0d bf 9a 3e 65 3e 3f e7 e8 3e
       -0.4554361 -0.5513273 0.22387162 0.45488927
0000b0 52 a6 10 3d 44 59 ca 3e ab 15 5a be 70 8e 81 3e
       0.035314865 0.3952123 -0.21297328 0.25303984
0000c0 07 df c1 3e 44 4c c5 be 7a 6e fb bc bd 84 82 be
       0.3786547 -0.3853475 -0.030692328 -0.25491896
0000d0 5b f5 83 bd 55 4c c9 3e f4 41 7b be 56 5a d2 3e
       -0.06443282 0.3931605 -0.24536878 0.41084546
0000e0 e4 3d 30 3d a2 0b dd be f8 d3 b3 bc 90 27 5b bd
       0.043027773 -0.43172938 -0.02195166 -0.053504527
0000f0 c5 ff 87 be d5 86 d2 3e b8 d6 b1 be b3 55 d9 3e
       -0.26562324 0.41118494 -0.3473413 0.42448196

edge_encoder.0.bias f4 [16]
000000 29 0b a3 be 01 08 73 bd 25 da 80 3e 78 39 70 be
       -0.31844452 -0.059333805 0.2516643 -0.23459423
000010 7e 48 9e be c5 5b 10 be ba 05 7d 3e 8a 66 bd be
       -0.30914682 -0.14097507 0.24709216 -0.36992294
000020 dc f5 af be 32 e0 b0 3e 9a 24 c0 3d 05 d6 22 bd
       -0.34367263 0.34546047 0.09381981 -0.039754886
000030 7c c4 da 3e f8 66 82 be a4 26 9d 3d a6 a8 83 bd
       0.4272803 -0.25469184 0.07673386 -0.064286515

edge_encoder.2.weight f4 [16, 16]
000000 f9 9d 8f be 4a 65 00 be d3 10 55 3e 94 78 57 3e
       -0.2805021 -0.12538639 0.20807199 0.2104209
000010 ce 59 54 be 93 04 8c 3b 9b 38 31 3e d8 01 ec bd
       -0.20737383 0.004273006 0.1730675 -0.11523789
000020 80 87 84 bb 56 94 9a bd 49 c3 fc bd e8 dc 16 3b
       -0.004044473 -0.07547824 -0.12341935 0.0023019854
000030 e8 60 29 3e 53 b1 42 3e 05 a7 91 bd 70 59 53 be
       0.16540873 0.19012956 -0.071119346 -0.20639586
000040 70 10 0d be e7 05 99 bd e1 6f a2 3d 10 83 e5 3d
       -0.13775802 -0.07471829 0.079314955 0.11206639
000050 c4 59 ab 3d 13 f8 56 bd db 08 64 be 88 6c db 3d
       0.08366731 -0.052482676 -0.22269003 0.1071406
000060 60 fb 5e 3d 71 5b 5b be 54 f2 55 3d 76 87 81 be
       0.05443895 -0.21421601 0.052233055 -0.2529866
000070 89 a2 22 be 57 3a ac 3d 62 80 d2 3d e7 93 4b 3e
       -0.15882315 0.08409565 0.10278393 0.19880639
000080 2e 18 3c be 51 7e cd bd 31 23 e5 3c 8a b2 39 3e
       -0.18368599 -0.100338586 0.027970882 0.18134513
000090 6e 11 05 3e ec 51 99 3a a0 00 03 3e 40 ad e3 bb
       0.1299493 0.0011697388 0.12793207 -0.0069481432
0000a0 02 ca 50 be 8b c3 ad 3d fd fe 5f be f2 d6 30 bd
       -0.2038956 0.084845625 -0.21874614 -0.043173738
0000b0 d8 97 b7 3d 3e 71 8f be 0b f4 a8 3d 2a 4f 9a be
       0.08964509 -0.28016084 0.082496725 -0.30138522
0000c0 7e 3e 8c bd cf 97 10 3e bb e8 51 3e 78 c1 d7 3d
       -0.06847857 0.1412041 0.20498936 0.10534948
0000d0 f8 14 88 3d f4 83 20 3e 22 5d ac bd d8 6b 4d 3d
       0.066446245 0.15675336 -0.08416201 0.050151676
0000e0 84 64 a6 bd 75 cd 3d be 1f 21 77 3e 56 04 86 be
       -0.081246406 -0.18535407 0.24133728 -0.26175183
0000f0 0e fd 0f be c5 09 eb 3c 6f b9 29 bd 3b 0f 97 3c
       -0.14061376 0.028691182 -0.04143661 0.01843988
000100 f8 4b 18 be 14 7d 54 be 77 3e 5a be d2 6f 7c be
       -0.1487273 -0.20750839 -0.21312891 -0.24652031
000110 da 22 0a 3e 0f fe 0c be 0a 67 66 3e 24 0b 38 3e
       0.13489857 -0.1376879 0.22500244 0.17973
000120 6c c6 63 be db 42 48 be 7f a1 51 be 3e f4 2a be
       -0.2224366 -0.19556753 -0.20471762 -0.16694734
000130 66 75 56 3e 0c b2 ce bc 97 84 31 3e 98 0e 9e bb
       0.20943221 -0.025231384 0.17335735 -0.004823517
000140 9e cf b3 3d 44 f5 02 be f3 f1 5e be 30 e2 6f 3e
       0.08779834 -0.12788874 -0.21771984 0.23426127
000150 06 ca 52 be 2c c4 a4 3e a5 97 3f be 34 1f 57 3e
       -0.20584878 0.32180917 -0.18710192 0.21007997
000160 c0 0f d7 bc a5 60 53 3c aa ee ee 3c b5 5c 73 3e
       -0.026252627 0.01290146 0.029166538 0.23765834
000170 cb 70 d3 3b ca 65 15 3e b3 23 04 bd 92 40 68 3e
       0.006452655 0.1458961 -0.032260608 0.22680882
000180 63 e9 5e 3b b8 a7 48 3e 56 c7 19 3d 70 a9 83 3d
       0.003401362 0.1959523 0.037543617 0.06428802
000190 ee 5f 7a be fc 58 b1 3c ea 74 43 be b0 fe e6 bd
       -0.24450657 0.021648876 -0.19087568 -0.112790465
0001a0 b4 96 03 be 02 68 87 3e 9e 00 3c be a0 a9 ed 3d
       -0.12850457 0.2644654 -0.1835961 0.11604619
0001b0 25 c4 2d be c8 74 bc 3c 48 41 51 3e 25 0b 44 be
       -0.16969354 0.023004904 0.20435059 -0.19144876
0001c0 6b 76 96 bd e2 ce 19 3d 53 f6 23 3d b8 2c 93 3d
       -0.07346805 0.037550814 0.040029835 0.07186264
0001d0 a4 ac 14 be 2a 43 f8 bd 05 db 5f 3e e0 19 1e bc
       -0.14518982 -0.121221855 0.21860893 -0.009649724
0001e0 e0 41 c3 bd 87 31 03 be f9 12 83 be df 0d 66 be
       -0.09534049 -0.12811862 -0.25600412 -0.22466229
0001f0 ab 3f 7e bc 87 e3 ed 3c ea 30 24 3e e3 94 5b be
       -0.015518109 0.029039158 0.16034284 -0.21443515
000200 e0 55 df 3c f1 cd b7 bb 2c a3 7e bd d8 e0 15 be
       0.027262628 -0.005609267 -0.06216733 -0.14636552
000210 e8 68 1e bd 68 5e 78 3e fb e2 4d be 80 7e b1 3d
       -0.038674265 0.24254763 -0.20106117 0.08666706
000220 a0 1a 9e bd bc 59 97 3d fb fc 9a 3d 17 f5 90 bd
       -0.07719922 0.07390162 0.075677834 -0.07077997
000230 96 f4 8d bd d2 0e 20 3d cd 08 9f 3d 86 32 77 be
       -0.06931417 0.039076634 0.077653505 -0.24140367
000240 88 1d 40 3e ac 41 41 3d 7a 11 ec 3d be 91 39 be
       0.18761265 0.04718177 0.11526771 -0.18122002
000250 1e b0 00 3e 07 a6 2b 3e 51 44 dc bc 38 99 77 3e
       0.12567183 0.16762553 -0.026888045 0.24179542
000260 90 42 0b 3d 28 f7 04 3e 32 aa 3f 3d c5 10 13 3d
       0.033999026 0.12984908 0.04679317 0.035904665
000270 7c 94 28 3d 2a 6d 57 3e 5f 07 c9 3d 5b ba 09 be
       0.04115723 0.21037737 0.09815859 -0.13449995
000280 e5 15 83 3d 86 d5 a4 3d c2 78 89 be fc f4 d1 bd
       0.064006604 0.08048539 -0.26849943 -0.10251805
000290 4c 84 be 3d 21 17 e0 bd 62 ff bd bd d8 f1 18 be
       0.093025774 -0.109419115 -0.09277226 -0.14936006
0002a0 70 22 dc 3d e2 58 38 3e 9f f7 2f 3e c1 20 68 be
       0.10748756 0.18002656 0.17184304 -0.22668745
0002b0 76 db 2d 3e d6 05 3e be 57 0d 35 3e e1 2b 49 3c
       0.16978249 -0.18556914 0.1768087 0.012278528
0002c0 87 2e 60 3d f0 82 11 bc 69 a6 1f be be cd 26 3e
       0.054731872 -0.008881316 -0.15590824 0.16289422
0002d0 a4 f6 e1 bd c8 65 75 3e 2d f5 1b 3d 70 8e 0c 3e
       -0.11033371 0.23964608 0.038075615 0.1372621
0002e0 f0 48 bd 3d 08 81 41 3d aa d8 ff ba 85 97 2b be
       0.09242427 0.047242194 -0.0019519527 -0.16757019
0002f0 23 bf 32 be dd 4c 31 be ec b7 69 3e 82 9a 2a 3e
       -0.17455725 -0.17314477 0.22824067 0.16660503
000300 13 ad 5e 3e 0f b7 74 bd cf f4 11 3c f8 bb f7 3d
       0.2174571 -0.05974489 0.008908465 0.12096399
000310 70 43 13 be 29 a8 0c 3e 93 ab 51 be 24 5d 3d be
       -0.14381194 0.13736023 -0.20475607 -0.18492562
000320 58 d8 76 3d 63 c3 94 3d 8a ea 6b bd 01 a7 a1 3d
       0.060264915 0.072638296 -0.05759672 0.078931816
000330 46 3f a4 3d e4 d5 4f bb 2f 65 23 be a9 fe 8b 3d
       0.08019881 -0.0031713182 -0.15956567 0.06835682
000340 71 0b 59 be ca b6 7b 3e bb b0 75 be f0 47 57 bd
       -0.21195771 0.24581447 -0.23993199 -0.05255884
000350 e8 22 e9 bd 36 f3 c7 3c 90 c4 58 3d 00 23 ef bd
       -0.11383611 0.024407964 0.05292183 -0.116765976
000360 fc b3 57 3e 5a 05 74 bd 5a 94 36 3d bf f8 0d be
       0.21064752 -0.059575416 0.044575073 -0.1386442
000370 29 98 f6 3c 67 82 2d 3c c5 31 c8 3d a0 fb 0b be
       0.030101852 0.010590172 0.09775118 -0.13670206
000380 38 d7 2f be 14 db 43 be ce 29 20 be 30 fe e8 bc
       -0.17171943 -0.1912654 -0.15640947 -0.028441519
000390 5c 79 17 3e a5 33 46 3e 86 59 b0 bd 64 f0 c5 3d
       0.14792389 0.19355638 -0.08610825 0.096649915
0003a0 04 45 79 be 07 fe 4f 3e d8 71 6f bc 9d ba 4b bc
       -0.24342734 0.20311747 -0.014614545 -0.012434629
0003b0 2b 77 a4 3d 13 66 5f 3e 93 77 6a be 59 d3 29 3e
       0.08030542 0.21816282 -0.22897176 0.16584529
0003c0 11 90 76 3e dd 7a 54 3e 78 2d c9 3d 2a df 1b 3e
       0.24078394 0.20749994 0.098231256 0.15221849
0003d0 a0 a7 8a bd 12 6a 3c be 32 94 f2 3d 42 de 45 3e
       -0.06770253 -0.18399838 0.11844672 0.19323066
0003e0 8e 5b 59 be 8f 75 3f be c4 e1 85 bc b1 bb 16 be
       -0.21226332 -0.18697189 -0.016343005 -0.14720036
0003f0 cb 7e d1 3d 62 1e 62 be 5b 4d 63 3e 7d 34 46 be
       0.10229262 -0.22081903 0.22197478 -0.1935596

edge_encoder.2.bias f4 [16]
000000 1f 26 b1 bd 70 1b 57 be 47 e8 1c 3e 29 a7 e2 3d
       -0.08649849 -0.2100656 0.15322982 0.110670395
000010 a4 bb ff bd 21 b9 49 3d 2c b2 6a 3e 7c 4c 72 be
       -0.124869615 0.04924882 0.2291953 -0.23661989
000020 08 8a 54 3e ac 72 53 3d 6d 7e a0 3d 9a 25 20 be
       0.2075578 0.05162303 0.07836614 -0.15639344
000030 40 78 36 bd 54 b4 10 be 20 67 e1 3d aa 62 a0 bb
       -0.044548273 -0.1413129 0.11005998 -0.004894574

edge_encoder.3.weight f4 [16]
000000 1b c7 83 3f 3a 8f 82 3f 6c 59 78 3f 46 05 80 3f
       1.0295137 1.0199959 0.97011447 1.0001609
000010 80 ef 81 3f 55 e3 80 3f a0 30 81 3f d3 a9 81 3f
       1.0151215 1.0069376 1.0092964 1.0129951
000020 c2 bf 7d 3f 9a 48 7e 3f d5 ca 77 3f a3 1a 7f 3f
       0.99120724 0.9932953 0.9679387 0.9965002
000030 36 fe 7a 3f 64 45 7e 3f e3 ca 7e 3f 5e 21 80 3f
       0.98044145 0.9932463 0.9952833 1.0010183

edge_encoder.3.bias f4 [16]
000000 00 bc 54 bc a3 c2 79 bc 36 c8 19 bd f4 df 4f bc
       -0.012984276 -0.015244159 -0.03754445 -0.012687672
000010 fb 5d 9f bb f5 11 88 3b 6b a9 79 3b 50 6d 05 bc
       -0.0048634983 0.0041525313 0.0038095366 -0.008143738
000020 42 c1 e3 bb c5 e8 94 bb b7 5c ae bc b6 77 a6 3b
       -0.0069505284 -0.00454435 -0.021284444 0.0050801886
000030 9e 6c a3 bc 20 e2 ba 3b 6d 23 fe bb cc fe eb 3b
       -0.019949254 0.0057032257 -0.007755688 0.007202005

node_model.0.weight f4 [16, 48]
000000 48 17 30 3e 85 5b 24 3c 27 16 0b 3d 61 08 6b bd
       0.17196381 0.010031586 0.033956673 -0.057381038
000010 d6 05 b6 bc c4 1a 2a bc 9c ed 0a 3d 90 6e 9c 3d
       -0.02221958 -0.010382358 0.03391801 0.076382756
000020 64 ae 99 3a a8 2e 9b bd c0 84 02 3d 1f af 58 bd
       0.0011724946 -0.07577258 0.03186488 -0.052901383
000030 fd 81 0b 3e 4d 60 a6 bd 75 ae 09 3e f6 02 b1 3c
       0.13623805 -0.08123837 0.13445456 0.021607857
000040 fd a8 56 bd 69 b1 85 3d bb 7c 1c be 45 97 0f bd
       -0.052407254 0.06527979 -0.15281956 -0.03505637
000050 86 1d d3 3d 32 ec b0 3d 37 d7 1f be cd e0 9a 3d
       0.103083655 0.08638801 -0.15609442 0.075624086
000060 fb ff ed bc 9b 5a 0b 3d 7f f8 96 bd 47 8b f1 3d
       -0.029052725 0.034021955 -0.073716156 0.11794143
000070 f9 e5 09 3c 04 60 95 3d 86 e1 0e 3d c0 8a 7b bd
       0.008416646 0.07293704 0.034883045 -0.06141162
000080 b6 f2 01 bc bb 0b e7 bd 92 96 01 3e 78 15 6b 3d
       -0.007931402 -0.11281534 0.12655094 0.05739352
000090 10 85 0d bd fb b2 a0 bc 9b 4d f0 bc b5 29 a6 3c
       -0.034550726 -0.019616595 -0.02933388 0.02028356
0000a0 43 83 f7 bd 3a 6b 02 bd 7d 69 b6 ba 98 69 a8 bc
       -0.12085583 -0.03184054 -0.0013916936 -0.020558164
0000b0 cf 63 07 bd 2f df 18 be 1e 5b 26 3e ba 76 f4 3b
       -0.03305417 -0.14928888 0.16245696 0.0074604424
0000c0 b6 38 e8 3d 15 63 f6 3d 84 5d 9a 3d 6e eb 2b 3b
       0.11338942 0.12030617 0.07537368 0.0026232856
0000d0 c0 6c 54 3d d8 6b c0 bd 01 a2 b3 3d 73 85 80 3b
       0.051861525 -0.093955696 0.08771134 0.0039221584
0000e0 df 6a 32 bd b4 4c da 3d 01 22 91 3c 41 38 99 bd
       -0.04355895 0.10659161 0.01771641 -0.07481433
0000f0 62 d4 cd 3d c3 fd 00 3e af 26 bb bd ea a0 d1 bd
       0.100502744 0.12596802 -0.09138238 -0.1023577
000100 a1 c5 e9 bd aa 0c 50 3c 68 c1 18 3b 74 7d 02 be
       -0.11414648 0.012698332 0.0023308638 -0.12743169
000110 c0 e0 f9 bd e3 7c 1e 3d 06 af df 3b 96 60 9d 3c
       -0.12201071 0.03869332 0.0068262843 0.019211095
000120 ec 5d df 3b 53 07 a4 3c d5 64 2a 3d 66 d4 b8 3d
       0.0068166163 0.020023024 0.041600067 0.09024887
000130 e4 a3 f7 3c e5 70 01 be 1c bf 40 bc 15 4f 95 bd
       0.030229516 -0.12640722 -0.011764314 -0.07290474
000140 ac ea 12 be c6 d3 13 3d 41 45 b5 b9 14 40 d1 3d
       -0.14347333 0.036090635 -0.00034574608 0.102173
000150 42 e1 99 3d 74 c5 34 bd 44 4c db 3d 25 58 59 3c
       0.07513668 -0.04413362 0.10707906 0.013265644
000160 b9 c4 a0 3c 6d e6 5d 3d 7b 50 ce 3c e9 3f 1f be
       0.019625055 0.05417483 0.02518486 -0.15551724
000170 71 45 5e 3d 25 d3 13 be 57 6f 20 3e 1d 80 98 3d
       0.054265443 -0.14436014 0.15667473 0.07446311
000180 e3 0c d8 3d 14 9f eb 3c 32 91 80 3b c7 66 03 be
       0.10549333 0.028762378 0.0039235586 -0.12832175
000190 61 f0 06 3e 88 c2 d9 3d 4e b2 b2 3c e7 3b 56 bd
       0.13177635 0.10632807 0.021813538 -0.05230322
0001a0 95 97 e2 bd 63 d0 09 be 04 7f 7f bd ca 73 14 3e
       -0.11064068 -0.134584 -0.06237699 0.14497295
0001b0 ad 7f 8c bd c1 ab c5 bd 25 da fc 3d ba 10 88 3d
       -0.0686029 -0.096519 0.12346295 0.06643815
0001c0 18 2b 66 bd 8b 61 de 3d 10 db db 3c b4 ea cf bd
       -0.05619344 0.108584486 0.026837856 -0.10152188
0001d0 d3 27 22 3e 10 97 39 3e 85 d8 4b 3c 11 f0 90 bd
       0.15835504 0.18124032 0.012441759 -0.07077039
0001e0 13 63 28 be 73 c4 69 3d 38 25 ba bc 89 86 eb 3c
       -0.16444044 0.057072114 -0.022722825 0.028750675
0001f0 d0 0a ad 3c 9d 81 9e 3d ff ad b9 bd 23 06 e1 bc
       0.02112332 0.077395655 -0.0906639 -0.027468747
000200 b0 11 f1 bd c9 bc 52 bd d4 65 db 3d 4d 8c 30 3d
       -0.11770952 -0.05144957 0.107127815 0.04310255
000210 ab 35 6a 3c 15 64 71 ba 5f 84 ab 3c 3e 1a 77 bd
       0.014295022 -0.0009208334 0.020937143 -0.06032776
000220 92 31 ad 3c 14 47 f0 bd 80 42 f5 bc 43 40 91 3d
       0.021141801 -0.11732307 -0.029938936 0.07092335
000230 0b 4f a6 bd af 96 95 bd 78 36 37 3e 2e c1 4c 3d
       -0.08120545 -0.07304131 0.17891872 0.049988918
000240 df a8 6f 3b 40 4e 46 3d 32 8a 12 bc 25 6c 5e 3d
       0.003656916 0.04841447 -0.008944081 0.054302353
000250 23 fd eb bd 26 d6 ee bc eb ec be 3d 21 d6 1c be
       -0.11522891 -0.029154848 0.09322532 -0.15316059
000260 44 45 9c 3c 2b d9 04 3e be b6 03 bc 60 26 04 be
       0.019075997 0.12973468 -0.008039175 -0.12905264
000270 c8 26 ba bd ad a4 ad 3d a8 fa c0 bd 43 b9 04 bd
       -0.09089428 0.08478675 -0.09422809 -0.03240324
000280 5b c8 42 3d 6c 97 6c bd 7c cf 7f bd 2e 5c c9 3d
       0.047554355 -0.057761595 -0.062453732 0.09832035
000290 d9 80 be 3c dd 41 08 3d 58 45 b5 bd 10 64 5b bd
       0.023254799 0.033265937 -0.08851117 -0.053562224
0002a0 19 b9 df bd 0c 77 de bd 4c 6d e6 3d da 94 97 3d
       -0.109239765 -0.1086255 0.112513155 0.07401438
0002b0 ba 48 b3 3d f6 1b ab 3d e7 1d 8e bd 72 7e e9 3d
       0.08754106 0.083549425 -0.06939297 0.11401071
0002c0 85 20 e7 3c 96 7f 37 3d 5c de cb 3d 53 87 ed 3c
       0.028213749 0.04479941 0.09954521 0.028995192
0002d0 b3 65 ce 3d ec 97 f5 3d 47 ed 48 bc 22 1c e8 3d
       0.10077991 0.119918674 -0.012263603 0.11333491
0002e0 dc 4b 30 3d 0c 9c b4 3d 67 9a 6c 3d a6 ef b7 3d
       0.043041095 0.08818826 0.057764437 0.08981256
0002f0 3f 10 c8 3d 57 a8 e8 3d 93 7d 3d 3d d6 1b fc bd
       0.09768724 0.11360233 0.046262335 -0.12309997
000300 27 7b 95 3d ef cd ef 3c 0f f4 c3 3d fd e0 85 bc
       0.0729888 0.029273001 0.09568035 -0.016342634
000310 cd 50 ee bd 1f 36 6b 3d 8c c1 b7 bd a7 41 de 3d
       -0.11636505 0.05742466 -0.08972463 0.10852366
000320 8d 1d 0a 3c cb de ba 3d e4 c2 33 be cb a7 ee bc
       0.008429897 0.09124526 -0.17554814 -0.029132744
000330 ed 1a f4 bc 03 b6 7a 3d d4 d3 f8 3d 6c 3f 08 be
       -0.029797995 0.061208736 0.12149778 -0.13305444
000340 03 ec 31 3e aa de 97 bc 90 52 ab bd be a0 16 be
       0.17375188 -0.018538792 -0.08365357 -0.14709756
000350 07 de 1b bd 60 51 25 be 7d ee 68 3d 90 03 d6 bd
       -0.03805354 -0.16144323 0.056868065 -0.10449898
000360 7f bb 86 3d 9c fd b4 3d 2d 73 cb 3d 1e 06 4d be
       0.06578731 0.08837435 0.099340774 -0.20021865
000370 d6 c8 9e bd 7e df 93 3c 6b 64 d7 3d e2 83 b7 3d
       -0.0775315 0.018050905 0.105172 0.089607015
000380 cd b8 15 3e f8 f0 ba bd c8 0b 31 bd 92 d8 8e 3b
       0.14621277 -0.091279924 -0.043224126 0.0043593133
000390 33 d2 fd 3d 46 d4 7f 3e 0b 7e 9e 3d e0 bc 28 be
       0.12393608 0.2498332 0.077388845 -0.164783
0003a0 a6 4e 47 3d ca bd 91 bd 0b c4 40 3e 6c 4f 51 3e
       0.04865899 -0.071162775 0.18824784 0.20440453
0003b0 09 c4 3e be 99 51 a1 3b 76 9c 84 3d 45 e6 27 be
       -0.18629469 0.0049230573 0.06475155 -0.16396435
0003c0 50 ff 81 3d 01 a1 d7 bd ef 9c d0 3c 0c e1 ed 3d
       0.06347525 -0.10528756 0.025465457 0.1161519
0003d0 e8 82 e2 bc 9e 4b 06 be f0 2b ba bc 52 30 8e bd
       -0.027650312 -0.13114783 -0.02272603 -0.0694281
0003e0 3e b0 11 3d 3b dc d9 bc f8 9c 0a 3e 7d 0e 5e 3d
       0.03556847 -0.026594272 0.13536441 0.054213036
0003f0 b2 cb 1f bb b5 f2 29 3d 7f 5a 00 be f0 8a 02 3e
       -0.0024382886 0.04149123 -0.12534522 0.12748313

node_model.0.bias f4 [16]
000000 f6 6d b4 bc 98 5d 20 bb c1 9d 18 3e b5 82 4c 3b
       -0.02202509 -0.0024469849 0.14903928 0.0031205837
000010 ca b5 fa 3d 9e 9d 16 be 7b b9 d6 bd 80 7b 41 3d
       0.12241705 -0.14708564 -0.10484596 0.04723692
000020 24 f0 24 be 3a e7 39 bd 6c 45 5e bd 08 1c 97 3d
       -0.16107231 -0.04538653 -0.054265425 0.073783934
000030 a9 5a 25 3e 2c f0 8a 3d a1 af 8d bd c9 9a 9a bd
       0.16147865 0.067840904 -0.06918264 -0.07549054

node_model.2.weight f4 [16, 16]
000000 a2 0a a3 bc 26 38 a0 bd d0 a1 a4 3e 2f df 41 3e
       -0.019902531 -0.078232095 0.32154703 0.18932794
000010 eb 07 02 be 96 1e a3 3c 87 55 6a be 59 9c 3c be
       -0.12698333 0.019912045 -0.22884189 -0.18419017
000020 ca f6 7b bd d2 6b 75 bd 71 bc 19 3e 61 ed 25 3e
       -0.061514653 -0.05991728 0.15013291 0.16203834
000030 2c ea 44 bd 32 94 de 3c 63 ea 67 3e b0 61 45 be
       -0.048074886 0.027170274 0.22648005 -0.19275546
000040 04 26 23 3e 87 5b 53 be 40 a9 07 bd d0 ed a4 bd
       0.1593247 -0.20640384 -0.033120394 -0.08053172
000050 27 c1 33 bd 47 7a 5e 3c 65 4c 6d be eb e9 7b 3e
       -0.043885376 0.013578958 -0.23173673 0.24600951
000060 60 62 a7 bd 2d 81 07 be ed 70 20 3e 30 fd 9f 3d
       -0.081730604 -0.1323287 0.15668078 0.078119636
000070 31 51 0d 3e 3c 46 dc bc 77 37 11 be d0 a1 2d be
       0.13800503 -0.02688896 -0.14181314 -0.16956258
000080 f9 6f 31 3e b3 57 2d be ef 26 85 be b2 ce ee bd
       0.1732787 -0.16927986 -0.26006266 -0.11660518
000090 4e dd 3f bd 48 4f f6 3d 31 73 53 3e 90 7b e8 bd
       -0.046841912 0.120268404 0.20649411 -0.11351693
0000a0 ac 94 18 3c 94 04 fa 3d 20 33 0e 3e 71 36 0b 3e
       0.00931279 0.122079045 0.1388669 0.13594986
0000b0 59 b9 e2 3d 8c 26 73 3e 66 4d 7d be b2 3f 1e be
       0.110705085 0.23745173 -0.24736556 -0.15453985
0000c0 83 8e 4b 3e e0 cf 16 3e b4 ae d4 bd 86 db 14 3e
       0.19878583 0.14727736 -0.103848845 0.14536867
0000d0 17 45 33 be db ee 17 be 3e 16 1f 3e b8 7b 27 3e
       -0.17506824 -0.1483721 0.15535828 0.16355789
0000e0 3e 3a 7f be 32 c1 fd 3d c3 9b 67 3d 06 a1 50 be
       -0.24924561 0.12390365 0.05654503 -0.20373926
0000f0 12 45 61 be 5f a8 34 3e 1b ff d2 bd 08 de 11 3e
       -0.21999004 0.17642353 -0.10302564 0.14244854
000100 dc 30 af bd bc 0e 18 3e 09 c9 f9 bd 5d fa 25 3e
       -0.08554241 0.1484937 -0.121965475 0.16208787
000110 27 18 99 bd 69 33 76 3e e6 76 32 3c 1d 88 1d be
       -0.0747531 0.24043049 0.010892605 -0.15383954
000120 91 b4 3f 3c 38 53 3a be 6a 33 82 3e 20 ee 3a be
       0.011700765 -0.18195808 0.2542985 -0.182549
000130 3f b0 a2 3e 85 5f 0d 3e 1c f8 06 bd 42 5f 26 be
       0.3177509 0.13805969 -0.03295146 -0.16247275
000140 21 db 51 3d 2e ff 7f bd 2a a9 0f 3e a7 35 26 3e
       0.05123437 -0.062499218 0.14029375 0.16231404
000150 b8 64 4d be a1 21 fc bc 2d de c8 bc a9 6d 37 3e
       -0.20057952 -0.030777754 -0.024520004 0.17912926
000160 2c 9c 70 bd f8 3b 7b bd 7a 08 b6 3d e5 86 c5 bd
       -0.058742687 -0.061336488 0.088883355 -0.0964487
000170 6c b6 86 be b9 b0 a0 3c 32 86 fa 3d 70 96 b1 bc
       -0.26311052 0.019615518 0.12232627 -0.02167818
000180 16 c6 1c 3d 7c 6e b0 3d 66 ee ab 3d 92 c7 5a 3e
       0.038274847 0.08614823 0.0839508 0.21365193
000190 9c b0 a1 bb 7d ed 0e be a6 37 98 bd 4d f4 b2 bd
       -0.0049343836 -0.13957782 -0.07432489 -0.08738003
0001a0 5b 01 6e be 3b 61 3c bc a7 be 07 3d 9d e5 89 3c
       -0.23242705 -0.011497791 0.033140805 0.016833121
0001b0 dd 82 7d 3e 4f 46 4b be 36 c4 57 be b0 55 9c 3d
       0.24756952 -0.1985104 -0.21070942 0.07633531
0001c0 ad 9a c6 bd c4 ef 03 be ac da 21 bb 46 a3 87 bd
       -0.09697471 -0.12884432 -0.002469699 -0.06622939
0001d0 c7 1a b6 3c 9d f0 12 3e 31 48 75 3e 9d 91 2d 3e
       0.022229565 0.14349599 0.2395332 0.16950078
0001e0 b6 4f 11 3e 20 2f 55 3e 37 51 2e 3d 9d 3e 91 3c
       0.14190564 0.20818758 0.04255792 0.017730052
0001f0 d4 4e 46 be 1e f8 c2 3d 87 b5 59 3d 44 95 8f bd
       -0.19366008 0.09519981 0.053151634 -0.07010892
000200 ea 47 86 be 47 a2 f9 3d 72 de 7b 3c 97 43 ea bd
       -0.2622674 0.12189155 0.015372859 -0.11438673
000210 d6 0d 96 3e c7 6e ca bc ee bf 28 bd 23 22 06 bd
       0.2930743 -0.024711026 -0.041198663 -0.0327474
000220 ca 49 73 be 4a a7 0e be b1 aa 4b bd dc 34 8f 3d
       -0.23758617 -0.13931003 -0.04972333 0.06992504
000230 a2 eb 04 be 29 0b 72 be 60 d4 8e 3c ce b2 2b 3e
       -0.12980512 -0.2363707 0.017435253 0.16767427
000240 38 17 91 3d e7 3f 16 3e 52 ec 87 3d 9b 4f 86 bc
       0.07084507 0.14672814 0.066368714 -0.01639538
000250 8e 07 88 bd ae ce 2b 3e 32 4f 02 be 48 00 82 3e
       -0.06642066 0.16778061 -0.12725523 0.2539084
000260 58 7d 6b be 64 18 74 be 5a b8 92 3d 9b 7b 1e be
       -0.22997034 -0.2383743 0.071640685 -0.15476839
000270 6c a0 8c 3e 83 60 71 3e 79 62 5a 3e ba a3 14 be
       0.27466142 0.23571973 0.21326627 -0.14515582
000280 f9 48 28 3e a2 ed 2e 3d 43 81 08 bd dd 56 47 be
       0.16434087 0.042707093 -0.0333264 -0.1946673
000290 66 30 9b 3e 1b 91 c6 bd f3 13 39 3e 59 99 28 be
       0.30310363 -0.096956454 0.18074016 -0.16464747
0002a0 f6 4c 6c be df 1f 11 bd a6 da 6b be 19 60 55 be
       -0.23076233 -0.035430785 -0.23032627 -0.2083744
0002b0 41 7e 56 3c a5 92 ea bd 25 68 ce bd dc f3 0f be
       0.013091625 -0.114537515 -0.10078458 -0.14057869
0002c0 ac 8f a6 bd 15 8d f0 3d 56 3a 1c be 0d f4 89 bd
       -0.08132872 0.11745659 -0.15256628 -0.06736002
0002d0 d3 29 e3 bd 4e b0 c2 bd 70 ed 0e 3e fc ea 4a bd
       -0.11091962 -0.09506284 0.13957763 -0.049540505
0002e0 6d c5 31 bc b2 c2 5b 3e ac c1 c1 3d c2 0b 7f 3e
       -0.010850293 0.21460989 0.09460768 0.24906829
0002f0 b0 50 93 be 4e 65 81 be 2e 11 81 3d e4 f7 48 3e
       -0.28772497 -0.25272602 0.06302105 0.19625813
000300 8e 72 f8 bd 8a 9a 53 be 3f 1f 68 3d 2b c2 03 3d
       -0.121312246 -0.2066442 0.056670424 0.032167595
000310 12 94 bb 3d 1e 16 12 3e ce a0 20 3e 50 b5 8d 3c
       0.091591015 0.1426625 0.15686342 0.01729837
000320 88 b2 3d 3e 48 18 42 3e 1b 3b 60 3d d4 3c 68 be
       0.18525136 0.18954575 0.054743867 -0.22679454
000330 52 3e 25 3c e1 fe 00 3e 19 6e 20 3e 44 75 05 3e
       0.010085659 0.12597229 0.15666999 0.13033015
000340 84 d3 9a 3d 6d a1 34 be f8 bf 76 be cb 48 44 3e
       0.07559875 -0.17639704 -0.24096668 0.19168393
000350 83 7a 57 3e d6 6f 17 3e be b6 45 3d ce c6 90 bd
       0.21042828 0.14788756 0.04826998 -0.07069169
000360 06 2f 81 bd ef b8 31 3e dd d3 2b 3e eb d0 c2 bd
       -0.06307797 0.17355703 0.16780038 -0.09512504
000370 9a 3e 0f 3e 04 09 d3 3d ba 91 c5 bd f4 de 34 3e
       0.13988724 0.10304454 -0.09646936 0.17663175
000380 eb 60 d6 bd a6 b4 0c be 5d 28 1d be 30 af 07 3e
       -0.104677044 -0.13740787 -0.15347429 0.13250422
000390 5b 01 14 3e 7d 74 b3 3c 60 0f 16 3e 61 12 82 3e
       0.14453642 0.021906132 0.14654303 0.25404647
0003a0 60 8f 1c be ed 99 0a be 73 73 77 3c 9a 1d cf bd
       -0.15289068 -0.1353528 0.015103209 -0.10113068
0003b0 c7 6c c7 bd 56 49 a1 bd 7e f5 44 3e 0c 3d 93 bd
       -0.097375445 -0.07875316 0.19234273 -0.07189378
0003c0 aa 51 20 3e 9d 12 1a be 9e 7c 62 3d 67 bd 01 3e
       0.15656152 -0.15046163 0.055294625 0.12669908
0003d0 17 5d c0 3c fc 27 8c 3c c9 90 d1 3c 3c 4d c5 3c
       0.023481889 0.01710891 0.025581734 0.02408468
0003e0 67 b5 b2 ba b2 ff 47 be 81 f3 3a 3e 46 12 55 3e
       -0.0013634384 -0.19531134 0.18256952 0.20807752
0003f0 a0 e0 c4 3d 61 a7 ab bd 7e 37 f1 3c 78 ae fe 3d
       0.09613156 -0.08381534 0.029445406 0.12435621

node_model.2.bias f4 [16]
000000 a3 19 da bd 5c 64 67 3c 01 28 4d 3d 83 0c 10 be
       -0.10649421 0.014123049 0.05008698 -0.14067273
000010 6f 53 35 3e 7b 8b 48 bd c2 01 da 3d 8b 6b 41 be
       0.17707609 -0.048961144 0.106448665 -0.1888868
000020 dc 83 3a bd 58 50 3b 3d 57 f5 59 be ce 8d 1a be
       -0.045535907 0.04573092 -0.21284996 -0.15093157
000030 4f 22 0a bd 6a 14 3f be ac f2 32 3d 60 75 32 be
       -0.033724125 -0.18660131 0.04368846 -0.17427588

node_model.3.weight f4 [16]
000000 9f 46 ab 3f d6 47 7e 3f 39 65 7e 3f ba 8b 83 3f
       1.3380927 0.9932836 0.99373204 1.0277016
000010 99 a5 91 3f e0 2b 91 3f ab 19 9c 3f 1a e4 8b 3f
       1.1378661 1.1341515 1.2195333 1.0928986
000020 50 47 97 3f 62 6e 9e 3f 5d 2e 92 3f 53 ea 86 3f
       1.1818638 1.2377436 1.1420399 1.054026
000030 5f c4 9a 3f 66 ab a4 3f b2 2a 9f 3f 7f 4f 8b 3f
       1.2091178 1.2864807 1.2434905 1.0883635

node_model.3.bias f4 [16]
000000 27 e5 0d 3e 2a 17 08 bc 28 ae fe 3b 5f d1 a5 3d
       0.13856946 -0.008306304 0.007772226 0.08096575
000010 05 a1 0e 3d ec cb 93 3c b5 60 04 3e 9d b7 b7 bd
       0.03482153 0.018041573 0.12927516 -0.08970568
000020 18 56 ba bd 4d 6f 02 3e fe d4 d2 bd 68 2b c5 bc
       -0.09098452 0.1273777 -0.10294531 -0.02406855
000030 b3 c1 0a be 12 ab 09 be 27 a4 e3 bd 7e 09 5b 3d
       -0.13550453 -0.13444164 -0.11115294 0.05347585

edge_model.0.weight f4 [16, 96]
000000 1c 6c 77 bc 2f 2c 31 bc 9c 67 83 bc a7 54 ef 3d
       -0.015101459 -0.010813757 -0.016040616 0.11686068
000010 fa 79 13 bd 9f 44 fe bc 7c 01 59 bd 74 6d e8 bd
       -0.036004998 -0.03103858 -0.05297993 -0.113490015
000020 ec 40 9e bd 18 f9 88 3c 6a 68 85 3c 5e f8 b1 3c
       -0.077272266 0.01672034 0.01628514 0.021724876
000030 bd 8f b4 bd e9 7d cd 3d 58 2a 4d 3c 21 54 d6 bc
       -0.088164784 0.10033781 0.012522303 -0.026163163
000040 33 55 02 bd 1f a7 86 3d b4 a6 84 3c d8 23 f1 3c
       -0.031819534 0.065748446 0.016192771 0.029436037
000050 52 29 fc bc 23 7b 19 3d 22 a3 26 3a 97 93 4e bd
       -0.030781422 0.037470948 0.0006356706 -0.05043372
000060 f2 08 18 3d c7 02 19 bb b5 cd 7a bd 1b 62 be bc
       0.037117906 -0.0023347603 -0.061231334 -0.02324014
000070 13 e3 16 3c f7 2b 84 bd e3 18 62 bd 5d dc 0f b9
       0.009209412 -0.06453698 -0.055199515 -0.00013719634
000080 24 76 22 bd 07 0a ca 3c a1 cc 16 3d 31 b3 bf bd
       -0.03966345 0.024662985 0.036816243 -0.0936035
000090 2b 35 3e bd 74 e6 65 bc 58 27 09 bd fa 3b db 3d
       -0.046437424 -0.014031995 -0.033484787 0.10704799
0000a0 97 a1 7b 3d d7 48 0c bd 7e df 78 bc b7 ac eb 3c
       0.0614334 -0.034249153 -0.015190003 0.02876888
0000b0 22 33 d4 bd da 4f 63 bb 04 e0 9d bb 8c 4d ba 3d
       -0.10361315 -0.0034685046 -0.0048179645 0.09096822
0000c0 b8 c9 a9 3c 8a fd 80 bd 8e 87 95 3d 14 be 92 3d
       0.02072607 -0.06298359 0.07301246 0.07165161
0000d0 6b 13 a8 3d 44 4f b1 3d 4d 2b b1 bd 36 53 0b bc
       0.08206829 0.08657697 -0.08650837 -0.008503726
0000e0 bb 94 8a bc 27 ba 64 bd d0 f3 a8 3d 2a 4a a1 3d
       -0.016916623 -0.05584159 0.082496285 0.07875474
0000f0 21 23 f3 bc da af 2a 3c 14 d4 b7 bd 0d 69 e4 bd
       -0.029679837 0.010417903 -0.089759976 -0.11152849
000100 6a c6 d9 bd 07 89 07 bd d5 d9 b7 3d f6 cd a0 bd
       -0.106335476 -0.033089664 0.08977095 -0.07851784
000110 2d 51 9c 3d d1 62 7e 3d 1c 8c 31 bd 8b e8 b4 bd
       0.076326706 0.062105957 -0.04334651 -0.088334166
000120 91 f7 98 3d 14 82 17 3d 99 9d a4 3d b6 4c bf 3d
       0.074690945 0.036989287 0.08037872 0.09340803
000130 7f 78 ae 3d ee d2 54 3d 32 b7 e5 3b c0 59 4b bd
       0.085190766 0.05195897 0.007010364 -0.04964614
000140 b0 18 f6 bc 4b 23 a4 bd 94 e3 e5 bc ec e9 5e 3d
       -0.030041069 -0.08014544 -0.02806262 0.054422304
000150 55 c1 18 bc 76 01 f6 3d 5d 35 9c 3d b4 e6 9a bb
       -0.009323438 0.120119974 0.07627366 -0.004727209
000160 07 70 6a bd 34 e1 3b 3d 1f a1 8c 3d 89 42 2e bc
       -0.057235744 0.045869067 0.06866669 -0.01063598
000170 39 71 6b 3d a2 dc 2b 3d 28 3e 87 bd f2 ad 8c bd
       0.057481024 0.04195846 -0.06603652 -0.06869115
000180 bd a0 b5 3c 2b be a9 bd 1f 21 e4 bb ab 1e 2e 3d
       0.022171373 -0.08288225 -0.006961956 0.042509716
000190 0e 42 0d bb bb 29 79 bd 9b a2 ba bd e9 a5 bf bd
       -0.0021554264 -0.060830813 -0.09113046 -0.09357817
0001a0 b3 17 8a bd 06 f9 af bd 75 24 87 ba 30 94 9e bd
       -0.067428015 -0.08592419 -0.0010310548 -0.07743108
0001b0 ce 27 5c bc 5a 00 92 bd e8 1a 51 3d 1b a6 9a 3d
       -0.013437225 -0.07128973 0.05105105 0.07551213
0001c0 fe f4 b8 3d 70 2c 43 bd 04 9f 56 3c ba 44 8c bd
       0.090311036 -0.0476498 0.013099436 -0.06849046
0001d0 ef d2 d4 bc e0 ae 83 bc cd 7a 4d bd af e4 4c 3d
       -0.025979487 -0.016074598 -0.05016594 0.050022777
0001e0 e1 54 c0 bd 72 c1 37 bb 79 41 6a bd e4 45 ab bd
       -0.09391189 -0.0028038886 -0.057191346 -0.0836294
0001f0 c9 e9 d7 3c 65 48 f6 ba 7e 73 27 bd 34 bb c4 bd
       0.026356595 -0.0018789886 -0.040881626 -0.09606019
000200 0a da 1c 3d 63 ef a2 3b 92 c3 60 bd 27 31 55 bd
       0.038293876 0.004972385 -0.05487401 -0.05204883
000210 2e 6b 5c bd 45 98 ad 3d 51 57 c5 3d ee 5a 10 3c
       -0.053813152 0.08476309 0.09635795 0.008810742
000220 25 e7 c9 3c 38 49 d1 bd 22 55 dd 3c 2b e8 54 3c
       0.024646351 -0.102190435 0.027018134 0.012994806
000230 5c a8 63 bd 2b 4f 08 3d cb 33 59 bd 97 00 ab 3d
       -0.055580482 0.033278625 -0.05302791 0.08349722
000240 8d 66 98 bd b2 99 47 3d 81 5a 9f 39 b0 db 88 bd
       -0.07441435 0.04873056 0.00030394274 -0.06682527
000250 be b9 ae 3d 20 77 4c 3d 83 24 34 3c 28 a5 e6 bc
       0.08531521 0.049918294 0.010995033 -0.028154925
000260 c4 d3 83 bb 57 f3 84 3d 5e 2d ae bc 2f 69 cc 3b
       -0.004023047 0.06491726 -0.021261867 0.006238125
000270 7c 27 f5 bc 37 63 51 3d 28 36 30 bd 9a f6 1e bd
       -0.029926054 0.05112001 -0.043020397 -0.038809396
000280 2b 32 f5 bd e9 48 bd bd c8 8d 7f 3c a1 55 dc 3c
       -0.119724594 -0.09242422 0.015597768 0.0268963
000290 56 7b a5 3c 55 8f aa 3c 76 00 04 3d 37 b7 12 bd
       0.020200413 0.0208203 0.032227002 -0.03581926
0002a0 0b ce 2f 3d 41 7c d1 3d 48 a2 64 3c dc 93 bd bd
       0.042921107 0.10228778 0.0139547065 -0.092567176
0002b0 35 d2 21 bd b5 cf b8 bd 61 86 63 3c f5 33 b4 bd
       -0.03950711 -0.09023992 0.013887019 -0.087989725
0002c0 38 2a 77 3d 34 18 32 3c 61 76 0b 3d 92 38 d9 3d
       0.060342997 0.010870028 0.03404844 0.10606493
0002d0 6e 67 e5 bd d8 20 c4 3d 9a a5 42 bd f1 6a c8 bd
       -0.11201368 0.09576577 -0.04752121 -0.097860225
0002e0 2a bd 21 bd 3d de 5c 3d 2b 3c bc 3d 74 5d 57 3d
       -0.03948704 0.05392288 0.09191164 0.05257936
0002f0 a4 fa 05 3d 82 ee 46 3d 42 89 b1 bd 17 fe 38 3d
       0.032709733 0.048567303 -0.08668758 0.045164194
000300 b3 3a 0c 3b 96 5c 4b 3c ef fe 67 3d c9 8a d2 bd
       0.0021397292 0.012412211 0.056639608 -0.102803774
000310 67 28 47 3d bd 51 85 3c 6a 92 58 3d 9b 61 11 3c
       0.048622515 0.016274327 0.052874006 0.008873369
000320 4b 0a 8a 3d 02 77 a6 3c 0f d5 a5 3d 51 47 6a 3d
       0.067402445 0.02032042 0.08097278 0.05719692
000330 5a 48 4d 3c ff 7d 0a 3d cb 06 01 bd 4d 75 63 bb
       0.012529457 0.033811565 -0.03150062 -0.0034707368
000340 e2 c3 4e 3d 2c de 1d 3d 66 31 bf 3d 42 1c 3f bd
       0.050479777 0.038541958 0.09335594 -0.046657808
000350 84 90 3e bc 2c 03 a6 bd 84 55 08 3c 2d 46 54 3d
       -0.011631135 -0.08106074 0.00832117 0.051824737
000360 fb a4 bc bc 2e b4 2f 3d fc bb 43 3d 60 79 21 bd
       -0.023027888 0.042896442 0.047786698 -0.039422393
000370 3d 86 01 be db 32 ed bc be 09 54 3d a0 90 74 bd
       -0.12648864 -0.028954914 0.051767103 -0.059708238
000380 bd 7d e1 3d f9 c4 d5 bd 31 bb a2 3d 6b d4 88 bd
       0.11010311 -0.1043796 0.0794586 -0.066811405
000390 5a 83 10 bc 3c 6b b5 3d b7 75 62 3d f7 41 ba 3d
       -0.008820379 0.08858344 0.055288043 0.09094613
0003a0 ba cd 8c 3d c5 29 4d 3c 7b 82 49 bd 05 f8 41 3d
       0.06875177 0.012522166 -0.0491967 0.04735567
0003b0 58 da 59 bd 41 cb 03 3d 59 da 97 bd 54 3c 5f bd
       -0.053186744 0.03217626 -0.074146934 -0.054500893
0003c0 ed f6 42 bd 55 db 32 3d 9c 3a 53 bc 5b 93 4e bd
       -0.047598768 0.043666203 -0.0128923915 -0.050433498
0003d0 6f 2b dc bd d1 51 19 bd 20 cf fd 3c 6a c3 4b bc
       -0.10750472 -0.03743154 0.030982554 -0.012436727
0003e0 20 f7 b1 3c cf 91 aa 3d c1 38 ca bd 46 13 e2 bc
       0.021724284 0.08328592 -0.09874106 -0.02759708
0003f0 e9 cd 10 bd 7f 09 e2 3c 9a ab 16 be c5 c0 5b 3d
       -0.03535262 0.027592419 -0.14713898 0.053650636

edge_model.0.bias f4 [16]
000000 fc e9 99 3d cd e7 14 3d 04 78 f8 bc 00 f3 a7 bd
       0.07515332 0.036353875 -0.030330665 -0.082006454
000010 16 88 ac bd 6c cd 7d bd 01 2d ac bd 49 29 aa 3c
       -0.08424394 -0.061963484 -0.08407021 0.02077164
000020 1a f8 79 3d cf 78 a2 bc fb 44 8e 3d 99 c5 1d 3d
       0.061027624 -0.019832997 0.06946751 0.038518522
000030 aa 90 b2 bd c4 51 d2 bd d9 80 82 bd af ce 7e bd
       -0.08718999 -0.10269502 -0.06372232 -0.062208828
