tmp/tmp3model600.pt (torch, 23679 bytes, 25 tensors)

node_encoder.0.weight f4 [16, 5]
0	0xbee30559	-0.44340017
1	0xbeb4a0d3	-0.3527895
2	0xbe44253e	-0.19154832
3	0xbed8a126	-0.42310447
4	0xbccffc60	-0.025388896
5	0xbeac7fcb	-0.33691248
6	0x3e9923c9	0.29910114
7	0x3e8de5fc	0.27714527
8	0x3dacf5a0	0.08445287
9	0x3ece8fd1	0.40344098
10	0xbd336680	-0.043798923
11	0x3e892698	0.26787257
12	0xbea05aae	-0.31319183
13	0xbdb47cf8	-0.088128984
14	0xbecc29c8	-0.39875627
15	0xbccae81f	-0.024768887
16	0xbe3d363a	-0.18477717
17	0x3ed280ab	0.4111379
18	0x3e9f0dae	0.31065124
19	0x3ebd70a4	0.37
20	0x3e1e1709	0.15438475
21	0xbe848df8	-0.25889564
22	0x3ec306b4	0.38091052
23	0xbedf6da0	-0.43638325
24	0xbeb0e58d	-0.34550133
25	0xbe8f0283	-0.27931604
26	0xbe3dd2e2	-0.18537477
27	0x3db6a070	0.0891732
28	0xbead71e5	-0.33875957
29	0xbeb0672b	-0.3445371
30	0xbe7c92d8	-0.24665391
31	0x3e75f0b3	0.240176
32	0xbea52727	-0.32256433
33	0xbecd5d87	-0.40110418
34	0xbec67400	-0.38760376
35	0xbe61594c	-0.2200672
36	0xbdf0a638	-0.11750454
37	0xbee2fe35	-0.4433457
38	0xbe5667ab	-0.20937984
39	0x3c0cf500	0.008603334
40	0x3d96fad0	0.073720574
41	0xbd834d30	-0.06411207
42	0xbd4fb290	-0.0507074
43	0xbe94f6d5	-0.29094568
44	0x3e6a9bdc	0.22911018
45	0xbe0042fb	-0.12525551
46	0xbe9c8d8c	-0.30576742
47	0xbe003988	-0.12521946
48	0xbd7fe928	-0.062478215
49	0x3ecabd7b	0.39597687
50	0x3e27aecc	0.16375273
51	0xbe3b43de	-0.18287608
52	0xbe09f893	-0.1347373
53	0x3eca5634	0.39518893
54	0x3e5f38da	0.21799031
55	0x3df6688a	0.12031658
56	0xbdfc10d3	-0.123078965
57	0x3eb98b3e	0.36239046
58	0x3e4432c0	0.19159985
59	0xbea7fa32	-0.3280807
60	0x3ea27e38	0.31736922
61	0x3d028e70	0.03187412
62	0xbea956b8	-0.33073974
63	0xbe4afaa4	-0.19822174
64	0xbeab7cb9	-0.33493593
65	0xbed8207e	-0.4221229
66	0xbd270eeb	-0.04078571
67	0xbea416db	-0.32048687
68	0x3e741034	0.23834306
69	0x3e037171	0.12836243
70	0x3dccb322	0.09995104
71	0x3eb98574	0.3623463
72	0xbe2daf26	-0.16961345
73	0x3bda8740	0.006668955
74	0x3eb402e5	0.35158458
75	0x3e348a7c	0.17630953
76	0x3d76078a	0.060065784
77	0x3ec95460	0.39322186
78	0x3dd0bcb0	0.10192239
79	0x3ea6530f	0.32485244

node_encoder.0.bias f4 [16]
0	0xbec5546e	-0.38540977
1	0xbea85d5c	-0.32883728
2	0xbeceab89	-0.40365246
3	0x3d16f62e	0.03685587
4	0x3ecd6feb	0.4012445
5	0xbec7d246	-0.39027613
6	0x3e14a6fb	0.14516823
7	0xbeca108f	-0.39465758
8	0xbe982ae0	-0.2972021
9	0xbe2e1a00	-0.17002106
10	0xbe80995b	-0.25117
11	0x3e104915	0.14090379
12	0xbebfff58	-0.374995
13	0x3ec7f31d	0.39052668
14	0x3d8d3487	0.068947844
15	0x3e35e426	0.17762813

node_encoder.2.weight f4 [16, 16]
0	0xbe2cee92	-0.16887882
1	0x3e5122cf	0.20423435
2	0xbd6f1908	-0.05837348
3	0xbdcab84f	-0.09898435
4	0x3bf6e33f	0.007534414
5	0x3dd51678	0.10404676
6	0x3c2e3e89	0.010635027
7	0xbdb3210c	-0.087465376
8	0x3d3e6908	0.046486884
9	0xbda06506	-0.07831769
10	0xbd0d516b	-0.034501474
11	0xbe05f463	-0.13081507
12	0x3e1885e4	0.14894825
13	0xbdee0a7f	-0.11623096
14	0x3dc3a32a	0.095526055
15	0x3de14eee	0.11001383
16	0xbe2a194c	-0.16611212
17	0xbe39492b	-0.18094318
18	0xbe2a7aa8	-0.16648352
19	0xbe469de3	-0.19396167
20	0x3e6015a9	0.21883263
21	0x3e61a794	0.22036582
22	0xbc91a78b	-0.017780086
23	0x3e700be0	0.2344203
24	0x3d910790	0.070815206
25	0xbe6f1d28	-0.23350966
26	0xbe5a766d	-0.21334238
27	0xbded1ad9	-0.115773864
28	0xbe7f5b1e	-0.24937102
29	0xbe085a12	-0.13315609
30	0x3d8ec65e	0.06971429
31	0xbb44e426	-0.0030043214
32	0xbd3f3718	-0.0466834
33	0xbdd64ad0	-0.10463488
34	0x3e6a0d60	0.22856665
35	0x3d3c4ce5	0.04597177
36	0x3e0adcaf	0.13560747
37	0xbd76d088	-0.060257465
38	0xbe522e1e	-0.20525405
39	0x3d484de0	0.048902392
40	0x3debcb60	0.115134
41	0x3e2397ed	0.15975924
42	0xbe51d934	-0.20493013
43	0xbc9aa90d	-0.018879438
44	0xbe76a8ec	-0.24087876
45	0x3c744b6c	0.01491056
46	0x3cf9bfc5	0.03048695
47	0x3deaaed7	0.11459129
48	0xbdafb2f0	-0.085790515
49	0x3dc0a516	0.09406488
50	0x3d7b4160	0.061341643
51	0xbe847e7a	-0.25877744
52	0x3e091a8b	0.13389032
53	0x3e777720	0.24166536
54	0xbe287d9f	-0.1645417
55	0x3e79a5c4	0.24379641
56	0x3d1b7538	0.037953585
57	0x3e6df389	0.23237433
58	0x3e254ca1	0.16142513
59	0xbe521284	-0.20514876
60	0x3e40b95a	0.18820706
61	0xbd3ca70d	-0.04605775
62	0x3d02fdcd	0.031980325
63	0xbdda104e	-0.10647641
64	0xbe4d31dc	-0.20038551
65	0x3dfc7d73	0.12328615
66	0x3d8e7008	0.06954962
67	0x3e08ba76	0.13352379
68	0xbe6b78c1	-0.22995283
69	0xbe77b6d8	-0.24190843
70	0x3db4d202	0.08829118
71	0xbd4d0178	-0.05005023
72	0xbb71f500	-0.0036919713
73	0xbd56993e	-0.052392237
74	0x3acbae8a	0.0015539688
75	0x3cec7af4	0.028867222
76	0xbe6c6c8e	-0.23088285
77	0x3dabccf1	0.08388699
78	0x3d10254b	0.035191815
79	0x3df90280	0.1215868
80	0xbe043608	-0.12911236
81	0x3ce470bc	0.027885787
82	0x3e2ab678	0.16671169
83	0xbdb4ffae	-0.088378295
84	0x3e63ffa9	0.22265495
85	0x3d03c9a8	0.032174736
86	0x3e5ecd3a	0.21757975
87	0x3e68b410	0.22724938
88	0x3d2098a0	0.039208055
89	0x3d84839c	0.06470415
90	0x3e13abe6	0.14421043
91	0x3e28ca84	0.16483504
92	0xbe69c368	-0.22828448
93	0x3c56ac21	0.013102562
94	0x3e7a6f7d	0.24456592
95	0xbe25b895	-0.16183694
96	0xbe102fcc	-0.14080733
97	0x3e03cd54	0.12871295
98	0x3db920f0	0.090394855
99	0x3e027043	0.12738137
100	0x3c03a316	0.008034488
101	0x3d718fb8	0.05897495
102	0xbddb43de	-0.10706304
103	0x3e7283d2	0.23683098
104	0xbe28b32c	-0.16474599
105	0x3e1eb888	0.1550008
106	0x3ddc635f	0.10761141
107	0x3e5b337e	0.21406361
108	0x3e63391a	0.22189751
109	0xbd8b847d	-0.068123795
110	0x3e6b23a8	0.2296282
111	0xbe197b85	-0.14988525
112	0x3e3286b8	0.17434204
113	0xbe1c4ba6	-0.15263233
114	0xbe2e0106	-0.16992578
115	0xbe3da31b	-0.18519251
116	0x3e8193a6	0.2530796
117	0x3d9747f0	0.07386768
118	0xbe24df67	-0.16100846
119	0xbe400cd0	-0.18754888
120	0x3cd3c940	0.0258528
121	0xbd9df278	-0.07712263
122	0x3d8d2666	0.068920895
123	0x3e26b604	0.16280371
124	0xbe21bade	-0.1579394
125	0xbe33bebe	-0.17553231
126	0x3d01d89d	0.03170072
127	0x3e2bf81a	0.16793862
128	0x3e1bd4ac	0.15217847
129	0x3d98921f	0.074497454
130	0xbd889310	-0.06668675
131	0x3d0f4d84	0.034986034
132	0x3e356b4f	0.17716716
133	0xbe5c8452	-0.21534851
134	0x390c388e	0.00013372509
135	0x3e418f42	0.18902305
136	0x3e453af8	0.19260776
137	0x3e4e3c29	0.20140137
138	0x3d6cf939	0.057854865
139	0x3e7d6a54	0.24747592
140	0xbe778e62	-0.24175408
141	0x3d4f50b6	0.05061408
142	0x3d4b196e	0.0495848
143	0x3e2e7ffd	0.17041011
144	0x3d4bef48	0.049788743
145	0x3d6a2810	0.057167113
146	0xbe609fde	-0.21935984
147	0xbd050691	-0.032476965
148	0x3db7deaa	0.08978017
149	0x3e24301a	0.16033974
150	0x3d877d1d	0.0661566
151	0x3e256788	0.16152775
152	0xbd9ff004	-0.07809451
153	0xbca0caf6	-0.01962803
154	0x3e7c4bf2	0.24638346
155	0x3e2383ed	0.15968294
156	0x3e33c01a	0.1755375
157	0xbe60c77e	-0.219511
158	0xbc3310b0	-0.010929272
159	0xbe693d56	-0.22777304
160	0x3e686878	0.22696102
161	0x3e386ebe	0.18010995
162	0x3e0efb48	0.13963044
163	0xbe544a50	-0.20731473
164	0xbe2eafd4	-0.1705926
165	0xbe271290	-0.16315675
166	0x3d50a356	0.05093702
167	0x3e51d98c	0.20493144
168	0xbd059548	-0.03261307
169	0xbe861283	-0.26185998
170	0xbde729ab	-0.112872444
171	0x3c1e818a	0.009674439
172	0x3c6a2de0	0.014293164
173	0x3dd2f829	0.10301239
174	0x3d10ac1d	0.03532039
175	0xbde330a0	-0.11093259
176	0xbe351fba	-0.17687884
177	0xbdb7a370	-0.0896672
178	0xbdef9c90	-0.11699784
179	0xbe31973d	-0.17342849
180	0xbe128fca	-0.14312664
181	0xbe6abe4e	-0.22924158
182	0x3c0d561a	0.008626485
183	0xbd872bd4	-0.066001564
184	0xbe121b4e	-0.14268228
185	0x3d706f18	0.058699697
186	0xbc7a2279	-0.015267008
187	0xbe284302	-0.16431811
188	0x3dde4e10	0.10854733
189	0xbe7bcc38	-0.24589622
190	0xbd17e0fc	-0.037079796
191	0x3e442cec	0.19157761
192	0x3e523f70	0.20532012
193	0x3e954260	0.29152203
194	0xbd45ca98	-0.04828891
195	0x3cbe19c5	0.023205647
196	0xbe405604	-0.18782812
197	0xbc00e3c0	-0.0078668
198	0x3e5ddc54	0.2166608
199	0xbdd76d78	-0.105189264
200	0xbe6f520c	-0.23371142
201	0x3e414d48	0.18877137
202	0x3d9d3b7d	0.07677362
203	0x3e252368	0.16126788
204	0xbda633e4	-0.08115366
205	0xbdd6c88d	-0.10487471
206	0xbcf636d0	-0.030055434
207	0xbda29cc3	-0.07940056
208	0x3d07be58	0.03314051
209	0xbe22a892	-0.15884617
210	0xbd91ed64	-0.07125357
211	0xbe16b50a	-0.14717498
212	0xbda6eeff	-0.08151054
213	0xbe2f6e16	-0.17131838
214	0x3cf95245	0.030434737
215	0x3e168ed8	0.14702928
216	0x3df17ab0	0.11790979
217	0x3d53f81e	0.051750295
218	0xbe16717b	-0.14691727
219	0xbc9f81b5	-0.019471029
220	0xbc911390	-0.017709523
221	0x3e48bba1	0.19602825
222	0x3d2a1fef	0.04153436
223	0x3e2496dc	0.16073173
224	0x3e5da22c	0.21643895
225	0xbdf85930	-0.12126386
226	0xbe4d9db8	-0.20079696
227	0xbe610e51	-0.21978118
228	0x3e55cb26	0.20878276
229	0xbdd31730	-0.10307157
230	0x3d8bb04f	0.068207376
231	0x3dbb264c	0.09138164
232	0xbbfa0600	-0.00763011
233	0xbe63784b	-0.22213857
234	0xbd6ecd0b	-0.058301013
235	0x3d694dfd	0.05695914
236	0xbde35f98	-0.111022174
237	0xbbfb686c	-0.00767236
238	0x3d2dfb23	0.04247583
239	0x3db05678	0.086102426
240	0xbdde2478	-0.108467996
241	0x3e25d557	0.16194664
242	0x3e5c96ee	0.2154195
243	0x3ddd5783	0.10807707
244	0xbe39a491	-0.18129183
245	0xbe1661dc	-0.14685768
246	0x3ce4a787	0.027911915
247	0xbe065c72	-0.13121203
248	0xb9989800	-0.00029104948
249	0xbe0c2fc3	-0.13690095
250	0xbdea3554	-0.11435953
251	0x3c648a1a	0.013948942
252	0xbe4dab0c	-0.2008478
253	0x3d5f2d56	0.054486595
254	0xbbc383d3	-0.0059666424
255	0xbddd0fbd	-0.107940175

node_encoder.2.bias f4 [16]
0	0xbe17788e	-0.14792082
1	0xbe0f8358	-0.14014947
2	0x3e55da98	0.20884168
3	0x3b937ed5	0.0045012035
4	0xbd93d6ab	-0.07218679
5	0xbcfe74d4	-0.031061567
6	0xbe3ca341	-0.18421651
7	0xbe594a1e	-0.2121968
8	0xbe3aeaf5	-0.18253691
9	0xbd7a0c8b	-0.06104712
10	0xbe238e6f	-0.15972303
11	0x3da38476	0.07984249
12	0x3e2750aa	0.16339365
13	0xbe1e2f83	-0.15447812
14	0x3e307319	0.17231406
15	0xbd94accb	-0.0725952

node_encoder.3.weight f4 [16]
0	0x3f8244fd	1.0177304
1	0x3f7a778b	0.9783866
2	0x3f7d877d	0.99034864
3	0x3f7e2228	0.9927087
4	0x3f865733	1.0495361
5	0x3f7ca37c	0.9868696
6	0x3f77dc62	0.9682065
7	0x3f7912b1	0.97294146
8	0x3f76f4ed	0.9646748
9	0x3f7eb305	0.9949191
10	0x3f81d0b3	1.0141815
11	0x3f7a8422	0.9785787
12	0x3f7f9823	0.9984152
13	0x3f7d55ce	0.9895905
14	0x3f7d2544	0.9888499
15	0x3f7deec7	0.9919247

node_encoder.3.bias f4 [16]
0	0xbc884766	-0.016635608
1	0x3c779431	0.015111015
2	0xbc0b478f	-0.008500948
3	0x3c14129c	0.00903764
4	0xbc85c65a	-0.016329933
5	0x3bb71ed3	0.0055883913
6	0x3cca48be	0.02469289
7	0x3be5282f	0.0069933156
8	0xbbdf6210	-0.00681711
9	0xba9ed229	-0.0012117076
10	0xbca9f383	-0.020745998
11	0xbbea0d93	-0.0071427315
12	0xbbbed2e6	-0.005823481
13	0x3bdec862	0.00679879
14	0xbc87adfa	-0.01656245
15	0x3b03b695	0.002009784

edge_encoder.0.weight f4 [16, 4]
0	0xbe2d0a28	-0.16898406
1	0x3eee0a95	0.46492448
2	0xbea1fa02	-0.31636053
3	0xbe19d2ff	-0.15021895
4	0x3e27ce08	0.16387188
5	0x3e138aff	0.14408492
6	0xbe82f388	-0.25576425
7	0x3ebbbd68	0.36667943
8	0xbf07d458	-0.53058386
9	0xbe648a9e	-0.22318503
10	0x3ee3b67e	0.44475168
11	0xbdab240f	-0.08356487
12	0xbe50142c	-0.20320195
13	0xbee81638	-0.45329452
14	0xbefe5f06	-0.49681872
15	0xbecf998c	-0.40546834
16	0xbe13a488	-0.14418232
17	0xbea964d6	-0.33084744
18	0x3e512bb0	0.20426822
19	0xbe2d1c00	-0.16905212
20	0xbee72bf1	-0.45150712
21	0xbbc65a5c	-0.006053252
22	0x3f0c62df	0.54838365
23	0x3cc44880	0.023960352
24	0x3e100b0e	0.14066717
25	0x3dff16b4	0.12455502
26	0x3f1b1f46	0.60594594
27	0xbd245959	-0.04012427
28	0xbe096a3c	-0.13419431
29	0xbe37c064	-0.17944485
30	0xbebec4ae	-0.3725943
31	0xbe0690e8	-0.13141215
32	0x3d47cdb0	0.048780143
33	0x3dfef968	0.12449914
34	0x3daa1500	0.08304787
35	0x3a790400	0.0009499192
36	0x3ecc1449	0.39859226
37	0x3dfdd014	0.123932034
38	0xbe5dd56c	-0.21663445
39	0xbe8f3555	-0.27970377
40	0xbec9c393	-0.39407024
41	0xbf11fe72	-0.5702888
42	0x3e82d176	0.2555043
43	0x3eeb4e73	0.4595829
44	0x3d2e1a9b	0.04250584
45	0x3ed34482	0.41263205
46	0xbe752a97	-0.23942028
47	0x3e890754	0.26763403
48	0x3ec2db6a	0.38058025
49	0xbec66815	-0.38751283
50	0xbcb3757b	-0.021906605
51	0xbe856177	-0.26050922
52	0xbc8614cb	-0.016367337
53	0x3eca2c83	0.39487085
54	0xbe7b41f4	-0.24536878
55	0x3edca4c5	0.4309446
56	0x3d3f91a3	0.04676975
57	0xbedd0ba2	-0.43172938
58	0xb9c747dd	-0.0003800978
59	0xbd36cbdc	-0.04462801
60	0xbe28ea3f	-0.16495608
61	0x3ed3c87e	0.413639
62	0xbea69241	-0.32533458
63	0x3ed4484f	0.41461417

edge_encoder.0.bias f4 [16]
0	0xbea1d04b	-0.31604227
1	0xbd6db0cb	-0.05802993
2	0x3e7fcbc7	0.24980079
3	0xbe703978	-0.23459423
4	0xbe9e487e	-0.30914682
5	0xbdc8e8d6	-0.09810035
6	0x3e7c4707	0.2463647
7	0xbebd668a	-0.36992294
8	0xbeaff5dc	-0.34367263
9	0x3eae7701	0.34075168
10	0x3de2b640	0.11069918
11	0xbd092891	-0.033485953
12	0x3ed9ec00	0.42562866
13	0xbe819471	-0.25308564
14	0x3daa1659	0.08305044
15	0xbd7c0c15	-0.06153496

edge_encoder.2.weight f4 [16, 16]
0	0xbe911acc	-0.28340757
1	0xbdf370cf	-0.11886751
2	0x3e46afe5	0.19403036
3	0x3e577894	0.2104209
4	0xbe5459ce	-0.20737383
5	0xbd497561	-0.049184207
6	0x3e3081f5	0.17237075
7	0xbdec01d8	-0.11523789
8	0xbb848780	-0.004044473
9	0xbd9f5ace	-0.077809915
10	0xbe122a00	-0.14273834
11	0x3b8dfb61	0.004332945
12	0x3e26ebd3	0.16300897
13	0x3e4c124a	0.19928852
14	0xbd971837	-0.073776655
15	0xbe4fcbb7	-0.20292555
16	0xbe0d95f0	-0.13826728
17	0xbd9edb9c	-0.07756731
18	0x3dc9a6ae	0.09846245
19	0x3de58310	0.11206639
20	0x3dab59c4	0.08366731
21	0xbce0fe4f	-0.027465014
22	0xbe5bd877	-0.21469294
23	0x3ddb6c88	0.1071406
24	0x3d5efb60	0.05443895
25	0xbe59b98a	-0.21262184
26	0x3d817ec7	0.06323009
27	0xbe81c63e	-0.2534656
28	0xbe2119c5	-0.15732487
29	0x3daa3cf7	0.08312409
30	0x3dd4beca	0.103879526
31	0x3e4b20cb	0.19836728
32	0xbe3d57bb	-0.18490498
33	0xbdd14808	-0.10218817
34	0x3c6862b3	0.014183688
35	0x3e39b28a	0.18134513
36	0x3e05116e	0.1299493
37	0xbd1ef70c	-0.03880982
38	0x3e008221	0.1254964
39	0xbbe3ad40	-0.0069481432
40	0xbe50ca02	-0.2038956
41	0x3dac66ef	0.084180705
42	0xbe658997	-0.22415768
43	0xbd396675	-0.045263726
44	0x3db835ff	0.08994674
45	0xbe90cf44	-0.2828313
46	0x3da96fa3	0.08273246
47	0xbe9b64d0	-0.3035035
48	0xbd864a32	-0.065571204
49	0x3e118c73	0.14213733
50	0x3e4cec99	0.2001213
51	0x3dd7c178	0.10534948
52	0x3d8814f8	0.066446245
53	0x3e2e103b	0.16998379
54	0xbdae8fd1	-0.085235246
55	0x3d4d6bd8	0.050151676
56	0xbda66484	-0.081246406
57	0xbe3bee1f	-0.18352555
58	0x3e7ea2e4	0.24866825
59	0xbe85858e	-0.26078457
60	0xbe0efa9a	-0.13962784
61	0x3cd64735	0.026157001
62	0xbd246718	-0.04013738
63	0x3c9897c5	0.018627057
64	0xbe1bda44	-0.1521998
65	0xbe52741b	-0.20552103
66	0xbe5ad460	-0.21370077
67	0xbe7c6fd2	-0.24652031
68	0x3e0a22da	0.13489857
69	0xbe1e5057	-0.15460335
70	0x3e698694	0.22805244
71	0x3e380b24	0.17973
72	0xbe63c66c	-0.2224366
73	0xbe46f6c3	-0.1943007
74	0xbe58edc7	-0.21184455
75	0xbe2c88fb	-0.16849129
76	0x3e5a3a4d	0.21311302
77	0xbcc26970	-0.023731917
78	0x3e356941	0.17715932
79	0xbbbeb91e	-0.0058204075
80	0x3dbd7fb8	0.09252876
81	0xbe00a674	-0.12563497
82	0xbe543f81	-0.2072735
83	0x3e6fe230	0.23426127
84	0xbe52ca06	-0.20584878
85	0x3ec74634	0.38920748
86	0xbe415698	-0.18880689
87	0x3e571f34	0.21007997
88	0xbcd70fc0	-0.026252627
89	0x3c56ea0a	0.013117323
90	0x3d3a7cb1	0.04552907
91	0x3e78a03c	0.24279875
92	0x3ba3f3ca	0.005003427
93	0x3e1a434f	0.15064739
94	0xbd08e529	-0.03342167
95	0x3e6d47f8	0.23171985
96	0xb8f34aa3	-0.00011601045
97	0x3e4d8205	0.2006913
98	0x3cf7a017	0.030227704
99	0x3d83a970	0.06428802
100	0xbe7a5fee	-0.24450657
101	0x3c45b59e	0.012067227
102	0xbe44f1fc	-0.19232935
103	0xbde6feb0	-0.112790465
104	0xbe0396b4	-0.12850457
105	0x3e86e0d6	0.2634341
106	0xbe447776	-0.19186196
107	0x3df1016e	0.11767851
108	0xbe2e409c	-0.17016834
109	0x3d00d65b	0.031454425
110	0x3e50984f	0.20370601
111	0xbe41961c	-0.18904918
112	0xbda02d5f	-0.07821154
113	0x3d271bce	0.040798
114	0x3d1f26aa	0.038855232
115	0x3d932cb8	0.07186264
116	0xbe14aca4	-0.14518982
117	0xbe1985d5	-0.14992459
118	0x3e63928c	0.22223872
119	0xbc1e19e0	-0.009649724
120	0xbdc341e0	-0.09534049
121	0xbe026848	-0.12735093
122	0xbe862df2	-0.26206928
123	0xbe66c4d8	-0.22536027
124	0xbc4b341a	-0.012402559
125	0x3d09b445	0.033619184
126	0x3e276360	0.16346502
127	0xbe5b39db	-0.21408789
128	0x3ccc42de	0.024934229
129	0xbc6cc390	-0.014450923
130	0xbd6768f3	-0.05649657
131	0xbe15e0d8	-0.14636552
132	0xbd1e68e8	-0.038674265
133	0x3e86023e	0.26173586
134	0xbe4e1b40	-0.20127583
135	0x3db17e80	0.08666706
136	0xbd9e1aa0	-0.07719922
137	0x3d958613	0.07300963
138	0x3d99fc8c	0.075188726
139	0xbd9a9bef	-0.07549273
140	0xbd8a021d	-0.06738684
141	0x3cff6d00	0.031179905
142	0x3da36054	0.079773575
143	0xbe7cbd63	-0.2468162
144	0x3e427f10	0.18993783
145	0x3d34837c	0.044070706
146	0x3df75ff7	0.12078851
147	0xbe3991be	-0.18122002
148	0x3e00b01e	0.12567183
149	0x3e504527	0.2033888
150	0xbceeb4a0	-0.029138863
151	0x3e779938	0.24179542
152	0x3d0b4290	0.033999026
153	0x3e044f66	0.12920913
154	0x3d6e9d21	0.05825532
155	0x3d111860	0.035423636
156	0x3d1ed2e3	0.038775336
157	0x3e52e9c1	0.20596983
158	0x3dc4196d	0.09575162
159	0xbe0ad31c	-0.13557094
160	0x3d817714	0.063215405
161	0x3da850c5	0.082185306
162	0xbe905be4	-0.28195107
163	0xbdd1f4fc	-0.10251805
164	0x3dbe844c	0.093025774
165	0xbe1031a0	-0.1408143
166	0xbdc11c20	-0.094291925
167	0xbe18f1d8	-0.14936006
168	0x3ddc2270	0.10748756
169	0x3e39c1cb	0.18140332
170	0x3e298fc8	0.16558754
171	0xbe6901b5	-0.22754557
172	0x3e33ec49	0.17570604
173	0xbe3e73ad	-0.18598814
174	0x3e3bbc58	0.18333566
175	0x3c3ca1ba	0.011513168
176	0x3d71f8b9	0.05907509
177	0xbcdd698b	-0.027027866
178	0xbe1a6abb	-0.15079777
179	0x3e26cdbe	0.16289422
180	0xbde1f6a4	-0.11033371
181	0x3e761b38	0.2403382
182	0x3d369539	0.044575904
183	0x3e0c8e70	0.1372621
184	0x3dbd48f0	0.09242427
185	0x3d47c7aa	0.0487744
186	0x3aac25f1	0.0013133866
187	0xbe2c81f8	-0.16846454
188	0xbe337618	-0.17525518
189	0xbe39b9a9	-0.1813723
190	0x3e680a09	0.22660078
191	0x3e284946	0.16434202
192	0x3e5e1767	0.21688615
193	0xbd6d1072	-0.05787701
194	0xbaad85a6	-0.0013238683
195	0x3df7bbf8	0.12096399
196	0xbe134370	-0.14381194
197	0x3de62b46	0.112387225
198	0xbe4f7d38	-0.20262611
199	0xbe3d5d24	-0.18492562
200	0x3d76d858	0.060264915
201	0x3d9c4899	0.076310344
202	0xbd870998	-0.06593627
203	0x3d9f82a3	0.07788589
204	0x3db2c768	0.0872944
205	0xbb93d192	-0.0045110667
206	0xbe1b8161	-0.15186073
207	0x3d896730	0.067091346
208	0xbe4cda61	-0.2000518
209	0x3e7ab319	0.24482383
210	0xbe68eb64	-0.22746044
211	0xbd5747f0	-0.05255884
212	0xbde922e8	-0.11383611
213	0x3d770bb4	0.060313895
214	0x3d584095	0.052795965
215	0xbdef2300	-0.116765976
216	0x3e57b3fc	0.21064752
217	0xbd733663	-0.05937804
218	0x3d5ffbed	0.054683615
219	0xbe0514af	-0.12996171
220	0x3ce21f2f	0.02760276
221	0x3c5b7c55	0.013396342
222	0x3dc2fe63	0.09521177
223	0xbe04e3ea	-0.12977567
224	0xbe340185	-0.17578705
225	0xbe4325cb	-0.19057386
226	0xbe1de2bf	-0.15418528
227	0xbce8fe30	-0.028441519
228	0x3e17795c	0.14792389
229	0x3e3adf7e	0.18249318
230	0xbdaea7c2	-0.08528091
231	0x3dc5f064	0.096649915
232	0xbe794504	-0.24342734
233	0x3e4d6ea9	0.20061745
234	0xbcbcb9dc	-0.023037843
235	0xbc2435e9	-0.010022619
236	0x3da04023	0.07824733
237	0x3e6b2364	0.22962719
238	0xbe6d0513	-0.23146467
239	0x3e2da9ae	0.16959259
240	0x3e76a5f3	0.24086742
241	0x3e4a9d07	0.19786464
242	0x3ddc4e3a	0.10757108
243	0x3e1bdf2a	0.15221849
244	0xbd8aa7a0	-0.06770253
245	0xbe33c1ea	-0.17554441
246	0x3df35cfd	0.118829705
247	0x3e45de42	0.19323066
248	0xbe595b8e	-0.21226332
249	0xbe41ba0a	-0.18918625
250	0xbc1c341e	-0.00953391
251	0xbe18c408	-0.1491853
252	0x3dcda57f	0.100413315
253	0xbe6766cd	-0.22597809
254	0x3e60e2eb	0.21961562
255	0xbe48c0f8	-0.19604862

edge_encoder.2.bias f4 [16]
0	0xbdb403c5	-0.087897815
1	0xbe54e423	-0.20790152
2	0x3e1b5462	0.15168908
3	0x3de5a19d	0.11212466
4	0xbdfe0258	-0.12402791
5	0x3d4d5de9	0.050138388
6	0x3e69536d	0.2278573
7	0xbe71828e	-0.23584959
8	0x3e527a5f	0.20554493
9	0x3d514df0	0.051099718
10	0x3da03fa9	0.07824642
11	0xbe1efe5c	-0.15526718
12	0xbd2e63a3	-0.04257549
13	0xbe0f53b6	-0.13996777
14	0x3ddda650	0.10822737
15	0xbbd2cda3	-0.006433205

edge_encoder.3.weight f4 [16]
0	0x3f83fa68	1.0310793
1	0x3f830f67	1.0239075
2	0x3f78ada9	0.97139984
3	0x3f800042	1.0000079
4	0x3f824c0c	1.0179458
5	0x3f81d769	1.0143863
6	0x3f80fd88	1.0077372
7	0x3f81abaa	1.0130513
8	0x3f7d31f2	0.98904335
9	0x3f7e27f2	0.992797
10	0x3f792ec3	0.9733698
11	0x3f7f9bcf	0.9984712
12	0x3f79e44f	0.97613996
13	0x3f7cc102	0.98732007
14	0x3f7e53bc	0.9934652
15	0x3f809488	1.0045328

edge_encoder.3.bias f4 [16]
0	0xbc5bafd7	-0.013408623
1	0xbc9300a3	-0.01794464
2	0xbd16a4e9	-0.036778364
3	0xbc3abbfa	-0.011397356
4	0xbb5b0bb6	-0.0033423728
5	0x3b7c4bf9	0.0038497432
6	0x3b59914c	0.0033198176
7	0xbbe9b17c	-0.0071317535
8	0xbc00e4f4	-0.007867087
9	0xbbadc571	-0.005303078
10	0xbc9eaf4b	-0.019370696
11	0x3b74563e	0.003728285
12	0xbc95af14	-0.01827196
13	0x3beaab4b	0.007161533
14	0xbc134ce5	-0.008990501
15	0x3bee99f5	0.0072815367

node_model.0.weight f4 [16, 48]
0	0x3e2c79dd	0.16843362
1	0x3c39f295	0.01134934
2	0x3d0e8d3a	0.034802653
3	0xbd69242c	-0.05691926
4	0xbcf63754	-0.03005568
5	0xbbd47ce6	-0.0064846156
6	0x3d02b9d8	0.031915516
7	0x3da392ac	0.0798696
8	0x3b1a8e45	0.0023583334
9	0xbd8da60b	-0.06916436
10	0x3cfc5378	0.03080152
11	0xbd81e75d	-0.06342957
12	0x3e0c4bad	0.13700743
13	0xbdabb900	-0.08384895
14	0x3e0bc0b7	0.13647734
15	0x3c9efa0c	0.019406341
16	0xbd4faccc	-0.0507019
17	0x3d886a5e	0.06660913
18	0xbe1c8a23	-0.1528707
19	0xbd09010a	-0.033448257
20	0x3dd30ef5	0.10305587
21	0x3dc5480f	0.09632885
22	0xbe1f5b8f	-0.1556227
23	0x3d9426f5	0.07233993
24	0xbcf0e4ec	-0.029406033
25	0x3d121c78	0.03567168
26	0xbd9742d7	-0.073857956
27	0x3dec9c4c	0.11553249
28	0x3b7dad0a	0.0038707876
29	0x3d920bd4	0.07131162
30	0x3d0ea19b	0.034822088
31	0xbd6682f0	-0.056277215
32	0xbc859cbe	-0.016310092
33	0xbdeb0379	-0.11475272
34	0x3e0756fd	0.13216777
35	0x3d89dcd0	0.0673157
36	0xbcf6ab15	-0.030110875
37	0xbd19a96f	-0.0375151
38	0xbd0a0b3c	-0.03370212
39	0x3cb4779b	0.022029689
40	0xbdf71b90	-0.12065804
41	0xbd0fa302	-0.035067566
42	0xbb14d908	-0.0022712369
43	0xbcd083db	-0.025453499
44	0xbccb03b6	-0.024782043
45	0xbe183afb	-0.1486625
46	0x3e2629d7	0.16226898
47	0x3c35dcfc	0.01110005
48	0x3de5d6c5	0.11222605
49	0x3dfc3131	0.1231407
50	0x3d982131	0.07428206
51	0x3aa2e499	0.0012427747
52	0x3d4c29b8	0.049844474
53	0xbdc2e7a8	-0.09516841
54	0x3dba3713	0.09092536
55	0x3c1128c6	0.008859819
56	0xbd270900	-0.040780067
57	0x3defe93a	0.11714406
58	0x3c913ca4	0.017729111
59	0xbdb0d5a8	-0.08634502
60	0x3dc4f9bd	0.09617946
61	0x3e008725	0.12551554
62	0xbdbe3e45	-0.09289221
63	0xbdcf9fbd	-0.101378895
64	0xbdd99da4	-0.10625771
65	0x3c7d3301	0.015454055
66	0x3a1325a8	0.0005613216
67	0xbe0abe2c	-0.13549107
68	0xbe07aeae	-0.13250229
69	0x3d369225	0.044572968
70	0x3a30ac12	0.00067395077
71	0x3cf74d6e	0.030188289
72	0x3c52565f	0.012837975
73	0x3ca470f8	0.020073399
74	0x3d150a3d	0.036386717
75	0x3da846b0	0.082166076
76	0x3d0ea497	0.034824934
77	0xbe075eb3	-0.13219719
78	0xbc1eacee	-0.009684784
79	0xbd9009a5	-0.070330895
80	0xbe0d767a	-0.13814726
81	0x3d1bd711	0.0380469
82	0xba563d7f	-0.0008172616
83	0x3dc8cc26	0.09804563
84	0x3d954be7	0.07289868
85	0xbd3200cb	-0.043457787
86	0x3ddd502f	0.108063094
87	0x3c777d15	0.0151055055
88	0x3c93d31b	0.018044999
89	0x3d4a9982	0.049462803
90	0x3ce9108d	0.028450275
91	0xbe1fe099	-0.15613021
92	0x3d6122ac	0.054964706
93	0xbe15d375	-0.14631446
94	0x3e27256e	0.16322872
95	0x3d8cc74b	0.068739496
96	0x3dd77b8c	0.105216116
97	0x3ca62b40	0.020284295
98	0x3c19cefb	0.009387727
99	0xbe027af6	-0.12742218
100	0x3e0640bb	0.1311063
101	0x3de5c397	0.112189464
102	0x3c59f4ea	0.013303021
103	0xbd62103b	-0.05519126
104	0xbde5f258	-0.11227864
105	0xbe12ac88	-0.14323628
106	0xbd85f209	-0.06540305
107	0x3e199eba	0.15001956
108	0xbd77b43b	-0.060474616
109	0xbdc9149d	-0.09818385
110	0x3e05d2d7	0.1306871
111	0x3d77e599	0.060521696
112	0xbd5290bc	-0.05140756
113	0x3df07768	0.11741525
114	0x3cc75e79	0.02433704
115	0xbdd7cf09	-0.10537536
116	0x3e25cb18	0.16190755
117	0x3e3d3e9a	0.18480912
118	0x3d00c813	0.031440806
119	0xbd991dcd	-0.07476387
120	0xbe2ba24f	-0.16761135
121	0x3d914329	0.07092888
122	0xbcde8f63	-0.027167981
123	0x3c732901	0.014841319
124	0x3c9ae9f4	0.018910386
125	0x3d8b6301	0.06805993
126	0xbdc88796	-0.09791486
127	0xbcbe4f42	-0.023231152
128	0xbdf7a9b1	-0.12092913
129	0xbd4a72bc	-0.049425825
130	0x3ddd5162	0.10806538
131	0x3d2a538e	0.04158359
132	0x3c8e2c33	0.01735506
133	0x39bab469	0.000356111
134	0x3cad82f1	0.021180602
135	0xbd80af6f	-0.06283461
136	0x3c936a00	0.01799488
137	0xbde4f9a9	-0.111804314
138	0xbd09ac55	-0.033611614
139	0x3d988e14	0.07448974
140	0xbdad3246	-0.084568545
141	0xbd942103	-0.07232859
142	0x3e3452f2	0.17609766
143	0x3d1efcaf	0.038815197
144	0x3b8746f1	0.00412833
145	0x3d483192	0.0488754
146	0xbc1a562b	-0.009419958
147	0x3d605a3d	0.054773558
148	0xbdeb0870	-0.11476219
149	0xbcf2b081	-0.02962518
150	0x3dbfde4c	0.09368572
151	0xbe1d51dc	-0.15363258
152	0x3c9862c8	0.01860179
153	0x3e054d20	0.13017702
154	0xbbf7d390	-0.007563062
155	0xbe03ae4a	-0.12859455
156	0xbdbb18e4	-0.09135607
157	0x3dae9b41	0.08525706
158	0xbdc1f3d8	-0.09470338
159	0xbd02c889	-0.031929526
160	0x3d4374dd	0.04771887
161	0xbd6abef4	-0.057311013
162	0xbd80dd81	-0.062922485
163	0x3dc863e2	0.09784676
164	0x3cbac634	0.022799589
165	0x3d05a014	0.032623366
166	0xbdb643e5	-0.088996686
167	0xbd597bb2	-0.05309648
168	0xbddebabf	-0.10875463
169	0xbddf6f4e	-0.109099016
170	0x3de76aa4	0.11299637
171	0x3d96a837	0.07356303
172	0x3db42dc3	0.08797791
173	0x3dac2d00	0.084070206
174	0xbd8d216b	-0.068911396
175	0x3dea7795	0.1144859
176	0x3ceb1ad2	0.028699312
177	0x3d359d22	0.044339307
178	0x3dcadb41	0.099051006
179	0x3ce9662d	0.028491104
180	0x3dcf522b	0.10123094
181	0x3df68243	0.12036564
182	0xbc506c55	-0.012721141
183	0x3de737a4	0.112899095
184	0x3d31d199	0.04341278
185	0x3db5cd07	0.088769965
186	0x3d7078c6	0.05870893
187	0x3db8ed23	0.09029605
188	0x3dc70f6e	0.0971974
189	0x3de997fa	0.1140594
190	0x3d3bca80	0.045847416
191	0xbdfd6172	-0.12372102
192	0x3d94641d	0.072456576
193	0x3cead7bd	0.028667325
194	0x3dc409ff	0.09572219
195	0xbc8bb2c4	-0.017053016
196	0xbdedb148	-0.11606079
197	0x3d6a6c74	0.057232335
198	0xbdb5c8f2	-0.08876218
199	0x3de14b53	0.11000695
200	0x3c2c1d17	0.010504982
201	0x3dbb26d0	0.09138262
202	0xbe33ef8b	-0.17571847
203	0xbcf626fe	-0.03004789
204	0xbcf93340	-0.030419946
205	0x3d74dc2d	0.05978029
206	0x3df8c2db	0.12146541
207	0xbe07fb28	-0.13279402
208	0x3e303962	0.1720939
209	0xbcbd4965	-0.023106286
210	0xbda912f6	-0.0825557
211	0xbe093e5e	-0.13402697
212	0xbd555ad7	-0.052088585
213	0xbe239fb3	-0.15978889
214	0x3d5ef3ea	0.054431833
215	0xbd905e16	-0.070491955
216	0x3d8ad2f7	0.067785196
217	0x3db0d14d	0.08633671
218	0x3dc48387	0.09595399
219	0xbe42ae13	-0.19011717
220	0xbd93ba22	-0.072132364
221	0x3c986e96	0.018607419
222	0x3ddb4f7e	0.10708521
223	0x3dabe52c	0.083933204
224	0x3e20eaf0	0.15714622
225	0xbdb7f199	-0.08981628
226	0xbd4543d3	-0.048160385
227	0xbb9ab330	-0.004721068
228	0x3df76501	0.12079812
229	0x3e85e8a5	0.26154056
230	0x3da071ad	0.07834182
231	0xbe25e158	-0.16199243
232	0x3d429916	0.047509275
233	0xbd9dff3c	-0.07714698
234	0x3e490a25	0.19632776
235	0x3e5714ec	0.21004075
236	0xbe456751	-0.19277693
237	0x3b8c3f2a	0.0042799907
238	0x3d8da5a6	0.069163606
239	0xbe2f6b21	-0.1713071
240	0x3d81ff50	0.06347525
241	0xbdd7a101	-0.10528756
242	0x3cd09cef	0.025465457
243	0x3dede10c	0.1161519
244	0xbce282e8	-0.027650312
245	0xbe064b9e	-0.13114783
246	0xbcba2bf0	-0.02272603
247	0xbd8e3052	-0.0694281
248	0x3d11b03e	0.03556847
249	0xbcd9dc3b	-0.026594272
250	0x3e0a9cf8	0.13536441
251	0x3d5e0e7d	0.054213036
252	0xbb1fcbb2	-0.0024382886
253	0x3d29f2b5	0.04149123
254	0xbe005a7f	-0.12534522
255	0x3e028af0	0.12748313

node_model.0.bias f4 [16]
0	0xbca8a942	-0.02058852
1	0xbb50bca0	-0.003185071
2	0x3e1d877d	0.15383716
3	0x3b2d7e35	0.002647293
4	0x3dfb0e0a	0.12258537
5	0xbe169d9e	-0.14708564
6	0xbdd0c5e5	-0.101939954
7	0x3d39b93b	0.045342665
8	0xbe2c1b4e	-0.16807291
9	0xbd3b3864	-0.045708075
10	0xbd686e60	-0.056745887
11	0x3d98b3fe	0.07456206
12	0x3e247fcc	0.16064376
13	0x3d83adda	0.06429644
14	0xbd8b9cf5	-0.068170466
15	0xbd9a9ac9	-0.07549054

node_model.2.weight f4 [16, 16]
0	0xbc9a9205	-0.018868456
1	0xbd9163db	-0.07099124
2	0x3ea907bb	0.3301371
3	0x3e413a5d	0.1886992
4	0xbe057a3a	-0.13034907
5	0x3ca31e96	0.019912045
6	0xbe812d5f	-0.25229928
7	0xbe3c8985	-0.18411835
8	0xbdc3936a	-0.095496014
9	0xbd704683	-0.058660995
10	0x3e25d2b1	0.16193654
11	0x3e27a612	0.16371945
12	0xbd334e2e	-0.04377573
13	0x3ceb266c	0.028704844
14	0x3e67be23	0.22631125
15	0xbe4561b0	-0.19275546
16	0x3e1d1bde	0.15342662
17	0xbe5ca51a	-0.21547356
18	0xbcfbf96d	-0.030758584
19	0xbda63536	-0.08115618
20	0x3bc655bf	0.006052702
21	0x3c5e7a47	0.013578958
22	0xbcbe97c2	-0.023265723
23	0x3e765793	0.24056844
24	0xbd832c74	-0.06404963
25	0xbe0a12e3	-0.13483767
26	0x3e1d19c5	0.15341862
27	0x3d9d61cd	0.0768467
28	0x3e1c1b82	0.15244868
29	0xbcd6c293	-0.026215827
30	0xbe1618ed	-0.14657946
31	0xbe2da1d0	-0.16956258
32	0x3e351145	0.17682369
33	0xbe2174e3	-0.15767245
34	0xbe86c838	-0.2632463
35	0xbdf00c5e	-0.11721109
36	0xbd8a470d	-0.06751833
37	0x3df64f48	0.120268404
38	0x3d2b8b01	0.04188061
39	0xbdf1a8c0	-0.11799765
40	0x3cde60be	0.02714574
41	0x3de23bac	0.11046538
42	0x3e28260e	0.16420767
43	0x3df6b912	0.12047018
44	0x3df71dc8	0.12066227
45	0x3e73397f	0.23752402
46	0xbe874842	-0.26422316
47	0xbe1e3fb2	-0.15453985
48	0x3e4c728a	0.19965568
49	0x3e18e0b1	0.14929463
50	0xbde6d415	-0.1127092
51	0x3e15823c	0.14600462
52	0xbe284779	-0.16433515
53	0xbe17eedb	-0.1483721
54	0x3e5aa973	0.21353702
55	0x3e20f59f	0.15718697
56	0xbe6d01ec	-0.23145264
57	0x3e0cd7b0	0.13754153
58	0x3d65b090	0.056076586
59	0xbe5a3f5b	-0.2131323
60	0xbe601d21	-0.21886112
61	0x3e3482cd	0.17628022
62	0xbdd51d5c	-0.104059905
63	0x3e11de08	0.14244854
64	0xbda01e49	-0.078182764
65	0x3e1e1c93	0.15440588
66	0xbdf803bb	-0.121100865
67	0x3e25602e	0.16149971
68	0xbdae733f	-0.08518075
69	0x3e763369	0.24043049
70	0x3d82d122	0.06387545
71	0xbe200911	-0.15628459
72	0x3b64badc	0.0034901416
73	0xbe3a900e	-0.18219015
74	0x3e86d612	0.26335198
75	0xbe39c455	-0.18141301
76	0x3eacfa4e	0.33784717
77	0x3e0e1fce	0.1387932
78	0xbd14a73d	-0.036292303
79	0xbe265f42	-0.16247275
80	0x3d5135c9	0.051076684
81	0xbd805457	-0.062660865
82	0x3e108fea	0.14117399
83	0x3e26bf51	0.16283919
84	0xbe2ef23b	-0.17084591
85	0xbcfc21a1	-0.030777754
86	0x3e89a8d6	0.26886624
87	0x3e35ed3e	0.17766282
88	0xbd5f0420	-0.054447293
89	0xbd5d6d11	-0.054059092
90	0x3d952e43	0.07284214
91	0xbdcd16d8	-0.10014123
92	0xbe8520af	-0.26001498
93	0x3ca49aab	0.020093283
94	0x3de0031d	0.10938094
95	0xbcb19670	-0.02167818
96	0x3d07895f	0.03308999
97	0x3db9de37	0.09075587
98	0x3d92aa07	0.071613364
99	0x3e5a1f49	0.21300997
100	0xbcacd446	-0.021097314
101	0xbe0eed7d	-0.13957782
102	0xbe5daeed	-0.2164876
103	0xbdae317f	-0.085055344
104	0xbe772bb9	-0.24137773
105	0xbd3e61fb	-0.04648016
106	0x3d16f86e	0.036858015
107	0x3c8d75c7	0.017268075
108	0x3e818e69	0.25303963
109	0xbe4a324f	-0.19745754
110	0xbe59b963	-0.21262126
111	0x3d9c55b0	0.07633531
112	0xbdcf55dc	-0.10123798
113	0xbe097804	-0.13424689
114	0xbc0acef1	-0.00847219
115	0xbd865ac9	-0.06560285
116	0x3ceb16a6	0.028697323
117	0x3e12f09d	0.14349599
118	0x3e8d2863	0.27569875
119	0x3e2c057d	0.16798969
120	0x3e198ff2	0.14996317
121	0x3e564ce7	0.20927773
122	0x3d29d264	0.04146041
123	0x3c781b51	0.0151432315
124	0xbe4bde95	-0.19909127
125	0x3dc05445	0.09391073
126	0x3d67fe74	0.05663915
127	0xbd8f9544	-0.07010892
128	0xbe8871e9	-0.26649407
129	0x3ddf1ed6	0.10894553
130	0x3c588ab2	0.013216661
131	0xbdeb7d31	-0.11498488
132	0x3e973a9c	0.29536903
133	0xbcca6ec7	-0.024711026
134	0xbde5d364	-0.1122196
135	0xbd08a70d	-0.033362437
136	0xbe865b07	-0.26241323
137	0xbe1525b0	-0.14565158
138	0xbd844edd	-0.064603545
139	0x3d91b123	0.07113864
140	0xbe130187	-0.14356051
141	0xbe72b96c	-0.23703545
142	0x3cef483c	0.029209249
143	0x3e2bb2ce	0.16767427
144	0x3d85e947	0.06538635
145	0x3e18efa3	0.14935164
146	0x3d885a01	0.06657792
147	0xbc8abb19	-0.016934918
148	0xbd832d32	-0.06405105
149	0x3e2bceae	0.16778061
150	0xbd81b6cb	-0.06333693
151	0x3e8f4dad	0.2798895
152	0xbe607073	-0.21917896
153	0xbe703f55	-0.23461659
154	0x3d94dcff	0.07268714
155	0xbe1ca705	-0.15298088
156	0x3e925e66	0.28587645
157	0x3e726c55	0.23674138
158	0x3e552c23	0.20817618
159	0xbe14a3ba	-0.14515582
160	0x3e2975e1	0.16548873
161	0x3d0f902d	0.035049606
162	0xbcfc8973	-0.03082726
163	0xbe4802e1	-0.19532348
164	0x3e992696	0.2991225
165	0xbdc6911b	-0.096956454
166	0x3d9fc736	0.07801668
167	0xbe2bb2c7	-0.16767417
168	0xbe7a3578	-0.24434459
169	0xbd37ee61	-0.04490507
170	0xbe686b45	-0.2269717
171	0xbe51d226	-0.20490322
172	0x3bc6851f	0.0060583497
173	0xbdebede6	-0.11519985
174	0xbdcbb218	-0.09946078
175	0xbe0ff3dc	-0.14057869
176	0xbda96749	-0.08271653
177	0x3dee73fc	0.11643216
178	0xbe1a6eb2	-0.1508129
179	0xbd889d2c	-0.06670603
180	0xbdfa8e44	-0.12234166
181	0xbdc2b04e	-0.09506284
182	0x3e577648	0.21041214
183	0xbd4c5d01	-0.049893383
184	0x3ca460fc	0.020065777
185	0x3e5a290a	0.21304718
186	0x3dcd8257	0.10034626
187	0x3e7a35c2	0.2443457
188	0xbe914efe	-0.2838058
189	0xbe81a3bd	-0.25320235
190	0x3d734f1f	0.059401628
191	0x3e48f7e4	0.19625813
192	0xbdea4eb2	-0.11440791
193	0xbe4f812a	-0.20264116
194	0x3d68d5b7	0.05684444
195	0x3d064354	0.032779053
196	0x3da42b36	0.08016054
197	0x3e12161e	0.1426625
198	0x3db65322	0.08902575
199	0x3c42050c	0.011842024
200	0x3e19ff6e	0.15038845
201	0x3e32fec4	0.17479998
202	0x3d529b8b	0.05141787
203	0xbe6265f7	-0.22109209
204	0x3b6fb661	0.0036577212
205	0x3e004b1b	0.1252865
206	0x3e2333d7	0.15937744
207	0x3e057544	0.13033015
208	0x3da08f17	0.07839792
209	0xbe38496e	-0.17996761
210	0xbe860af8	-0.26180243
211	0x3e44ffab	0.19238155
212	0x3e504415	0.20338471
213	0x3e176fd6	0.14788756
214	0x3e0214c6	0.12703237
215	0xbd5b2df5	-0.053510625
216	0xbce06795	-0.027393142
217	0x3e30df4b	0.1727268
218	0x3e196b10	0.14982247
219	0xbdbb8326	-0.09155874
220	0x3e0e4b82	0.13895991
221	0x3dcf2587	0.1011458
222	0xbdc11fb4	-0.09429875
223	0x3e34def4	0.17663175
224	0xbdd021c2	-0.10162689
225	0xbe115b19	-0.14194907
226	0xbe1bbf8f	-0.15209793
227	0x3e070024	0.13183647
228	0x3e20184e	0.15634272
229	0x3cb3747d	0.021906132
230	0x3e6c13f5	0.23054488
231	0x3e8159b3	0.25263748
232	0xbe31c8c1	-0.17361738
233	0xbdf2307b	-0.11825653
234	0x3c8f666a	0.01750489
235	0xbdcccc7e	-0.09999941
236	0xbddd806e	-0.10815512
237	0xbda33c9f	-0.07970547
238	0x3e494836	0.19656453
239	0xbd933d0c	-0.07189378
240	0x3e1fe0a2	0.15613034
241	0xbe188381	-0.14893915
242	0x3d62c7d3	0.05536635
243	0x3e024825	0.12722833
244	0x3d0149ff	0.03156471
245	0x3c8c27fc	0.01710891
246	0x3d294797	0.04132804
247	0x3cfa0ec5	0.03052462
248	0x3c4f9dbd	0.012671885
249	0xbe4356f5	-0.1907614
250	0x3e2a85cd	0.16652603
251	0x3e60f3a6	0.21967945
252	0x3de99486	0.11405282
253	0xbda856e3	-0.08219697
254	0x3cf72b9f	0.030172167
255	0x3dfeae78	0.12435621

node_model.2.bias f4 [16]
0	0xbdd9653e	-0.106150135
1	0x3ce4e291	0.027940067
2	0x3d3a5fb9	0.045501444
3	0xbe0b8b08	-0.13627255
4	0x3e3762e4	0.17908818
5	0xbd1e78e6	-0.038689516
6	0x3dbe8ac2	0.0930381
7	0xbe434557	-0.1906942
8	0xbd49f148	-0.04930237
9	0x3d3c3a58	0.04595408
10	0xbe59e8c1	-0.21280195
11	0xbe1a1966	-0.15048751
12	0xbd22c412	-0.03973777
13	0xbe497d53	-0.19676714
14	0x3d488938	0.048958987
15	0xbe31a649	-0.17348589

node_model.3.weight f4 [16]
0	0x3fc20e13	1.5160545
1	0x3f843963	1.0330013
2	0x3f7f098b	0.99623936
3	0x3f8665b8	1.0499792
4	0x3f94b971	1.1619092
5	0x3f939e5f	1.1532706
6	0x3fa4e801	1.2883302
7	0x3f93c373	1.1544021
8	0x3f9b85c0	1.2150192
9	0x3fa646fd	1.2990414
10	0x3f978ebf	1.1840438
11	0x3f870627	1.0548753
12	0x3fa77038	1.3081121
13	0x3fbc3304	1.4703069
14	0x3fa98da0	1.3246346
15	0x3f8f4508	1.1192942

node_model.3.bias f4 [16]
0	0x3e48ed35	0.19621737
1	0x3cbc313b	0.022972694
2	0x3bcca481	0.0062451963
3	0x3dbfd586	0.09366898
4	0x3d31ede2	0.043439753
5	0x3d0154fb	0.031575184
6	0x3e2b6143	0.16736321
7	0xbdf83172	-0.12118806
8	0xbdd7418a	-0.105105475
9	0x3e417597	0.18892513
10	0xbdf6b1a7	-0.12045603
11	0xbca949cd	-0.020665074
12	0xbe310940	-0.17288685
13	0xbe499638	-0.1968621
14	0xbe03ee55	-0.12883885
15	0x3d8a3433	0.067482375

edge_model.0.weight f4 [16, 96]
0	0xbc796aa5	-0.01522318
1	0xbc3a92b6	-0.011387518
2	0xbc7919ca	-0.0152039025
3	0x3dec38ab	0.11534246
4	0xbd0f68d8	-0.035012096
5	0xbcf75688	-0.030192629
6	0xbd5d337c	-0.054004177
7	0xbdebdd73	-0.115168475
8	0xbd9f0b4e	-0.07765828
9	0x3c71675f	0.014734118
10	0x3c7e19b1	0.015509055
11	0x3cbc1946	0.02296127
12	0xbdb2081d	-0.08692954
13	0x3dcdb9c6	0.10045199
14	0x3c581e19	0.01319077
15	0xbcd9b3a9	-0.026574926
16	0xbcc26080	-0.023727655
17	0x3d694cb3	0.05695791
18	0x3c8ae068	0.016952708
19	0x3d0aa505	0.03384878
20	0xbd110cce	-0.035412602
21	0x3d2d0776	0.042243443
22	0xba7ae2d2	-0.0009570542
23	0xbd464a0f	-0.04841047
24	0x3d06b8d4	0.03289111
25	0xbba1ec89	-0.0049415273
26	0xbd831569	-0.06400568
27	0xbc860a7a	-0.016362417
28	0x3c1c8b3d	0.009554681
29	0xbd84cf57	-0.064848594
30	0xbd6b8ed9	-0.057509277
31	0xb7ab8afc	-2.0449508e-05
32	0xbd2a7f27	-0.04162517
33	0x3cd43f35	0.025909046
34	0x3d181bb2	0.037135787
35	0xbdc4b562	-0.096049085
36	0xbd4abd50	-0.04949695
37	0xbc546606	-0.012963777
38	0xbd0816b5	-0.03322478
39	0x3de96739	0.11396641
40	0x3d84c6d6	0.064832374
41	0xbcfdcdd9	-0.030981945
42	0xbc848ebc	-0.016181342
43	0x3cb4ccf4	0.022070386
44	0xbdd5ad8c	-0.10433492
45	0xbb9bb38b	-0.004751628
46	0xbb8c67f3	-0.0042848527
47	0x3db8e71e	0.09028457
48	0x3c893c88	0.016752496
49	0xbd871f6e	-0.065977916
50	0x3d9aa938	0.07551807
51	0x3d9f42aa	0.07776387
52	0x3da428e5	0.080156125
53	0x3db00d92	0.08596338
54	0xbdb4d380	-0.08829403
55	0xbbff3631	-0.0077884425
56	0xbc97b60b	-0.018519422
57	0xbd66421a	-0.056215383
58	0x3da33d1d	0.07970641
59	0x3dca22b2	0.09869899
60	0xbd39147f	-0.045185562
61	0x3c60a9d7	0.013712368
62	0xbdbcf21f	-0.092258684
63	0xbde6017c	-0.11230752
64	0xbde39ab3	-0.11113491
65	0xbd0b707e	-0.034042828
66	0x3dbba494	0.0916225
67	0xbd9e8324	-0.07739857
68	0x3d938cc3	0.072045825
69	0x3d7d34f9	0.061818097
70	0xbd2af402	-0.04173661
71	0xbdb7baa3	-0.08971145
72	0x3da0164c	0.07816753
73	0x3d1cf6a1	0.03832114
74	0x3da4f062	0.08053662
75	0x3dbffeec	0.09374794
76	0x3db8a129	0.09015114
77	0x3d45962e	0.048238926
78	0x3bf8342f	0.00757458
79	0xbd44518a	-0.047929324
80	0xbd1eed56	-0.03880056
81	0xbda85340	-0.08219004
82	0xbced3b3e	-0.028958913
83	0x3d497ae8	0.04918948
84	0xbc4d6b07	-0.012537724
85	0x3e031ec6	0.12804708
86	0x3da0ed18	0.07857722
87	0xbc481893	-0.01221289
88	0xbd570243	-0.05249239
89	0x3d4a2089	0.049347434
90	0x3d8f027c	0.06982896
91	0xbc2351c4	-0.009968225
92	0x3d604e75	0.054762322
93	0x3d284e33	0.0410902
94	0xbd83cea7	-0.064359
95	0xbd919207	-0.07107931
96	0x3ca6e01c	0.020370536
97	0xbda7b085	-0.08187965
98	0xbbd17a3a	-0.0063927444
99	0x3d2390d0	0.039933026
100	0xbba1b113	-0.004934439
101	0xbd7745ba	-0.06036923
102	0xbdba3482	-0.09092046
103	0xbdb29d8a	-0.087214544
104	0xbd82c8ff	-0.06385993
105	0xbda8556e	-0.082194194
106	0xbb0b23ae	-0.0021230984
107	0xbdb8da17	-0.09025972
108	0xbc6a518f	-0.014301672
109	0xbd940b09	-0.07228667
110	0x3d52feab	0.0515124
111	0x3d98e72b	0.07465967
112	0x3db7a82b	0.08967622
113	0xbd4df554	-0.05028279
114	0x3c767255	0.015041907
115	0xbd8487a6	-0.064711854
116	0xbcdab72f	-0.026698677
117	0xbc6b6f9a	-0.01436987
118	0xbd570148	-0.052491456
119	0x3d4a55a6	0.049398087
120	0xbdc00ec0	-0.09377813
121	0xbb7add66	-0.0038278936
122	0xbd6fb15d	-0.058518756
123	0xbda7954e	-0.081827745
124	0x3cbe016a	0.023194034
125	0xba9e73c1	-0.0012088941
126	0xbd1cff55	-0.03832944
127	0xbdc8c107	-0.09802442
128	0x3d199057	0.03749117
129	0x3ba7afe3	0.005117403
130	0xbd5e311e	-0.05424606
131	0xbd535bbf	-0.051601168
132	0xbd63c019	-0.05560312
133	0x3db196ae	0.08671318
134	0x3dc17477	0.09446042
135	0x3bbb25ad	0.0057112784
136	0x3cbbfad5	0.022946754
137	0xbdd2dea0	-0.102963686
138	0x3cd93dda	0.026518751
139	0x3c84b861	0.0162012
140	0xbd5d2b8c	-0.053996608
141	0x3d06e1ee	0.032930307
142	0xbd5470d9	-0.051865432
143	0x3da8f1d8	0.08249253
144	0xbda73e9b	-0.08166238
145	0x3d459d8f	0.048245963
146	0x3b80d1d2	0.0039312625
147	0xbd67516d	-0.056474138
148	0x3daccdcd	0.08437691
149	0x3d5c4aa4	0.05378212
150	0x3bf5a509	0.0074964804
151	0xbcdef406	-0.027215969
152	0xbc6e6e18	-0.014552616
153	0x3d846305	0.06464199
154	0xbccfb376	-0.025354128
155	0x3c613ae8	0.0137469545
156	0xbd13a4a4	-0.036045685
157	0x3d504af4	0.05085273
158	0xbd3270e7	-0.043564703
159	0xbd1ff6e4	-0.039053813
160	0xbe00beed	-0.12572832
161	0xbdbfc506	-0.09363751
162	0x3c925896	0.017864507
163	0x3cce7f0b	0.025207063
164	0x3c91485b	0.017734697
165	0x3c8f6981	0.017506363
166	0x3d08c237	0.033388343
167	0xbd18ef55	-0.03733762
168	0x3d3fd4d5	0.04683383
169	0x3dd27524	0.10276249
170	0x3c9178cf	0.017757801
171	0xbdc119fa	-0.09428783
172	0xbd0fbbbb	-0.035091143
173	0xbdba1bfa	-0.09087367
174	0x3c6b637d	0.014366982
175	0xbdb31412	-0.087440625
176	0x3d7b2a54	0.061319664
177	0x3c18d7a8	0.00932876
178	0x3cfd2f95	0.030906478
179	0x3dcc7bf8	0.09984583
180	0xbdfa815e	-0.12231706
181	0x3dcfcde4	0.101466924
182	0xbd30547c	-0.04304932
183	0xbdd16ed6	-0.102262184
184	0xbd1789d5	-0.03699668
185	0x3d5b8362	0.053592093
186	0x3dca6a69	0.098835774
187	0x3d5c8c27	0.053844597
188	0x3d01428d	0.03155761
189	0x3d4774ba	0.048695303
190	0xbda65960	-0.08122516
191	0x3d158a0e	0.036508612
192	0x3c15d9cd	0.009146166
193	0x3c764c93	0.015032905
194	0x3d567e50	0.052366555
195	0xbdc76e7f	-0.09737872
196	0x3d6158c4	0.055016294
197	0x3c550351	0.013001279
198	0x3d6050e7	0.054764654
199	0x3b829dd9	0.003986102
200	0x3d7c9afc	0.061671242
201	0x3ca9e8c5	0.020740876
202	0x3dafb4e4	0.08579424
203	0x3d70ef64	0.05882205
204	0x3c3af0af	0.0114099225
205	0x3d25080d	0.04029088
206	0xbd1163b0	-0.03549546
207	0x399b83e2	0.00029662164
208	0x3d5a0aba	0.053232886
209	0x3d21463a	0.039373614
210	0x3dba56f3	0.090986155
211	0xbd645ef0	-0.055754602
212	0xbc02fa3e	-0.007994233
213	0xbda08d96	-0.078395054
214	0x3bbf857a	0.005844769
215	0x3d5f5325	0.054522652
216	0xbc88b21f	-0.016686497
217	0x3d2e4653	0.042547535
218	0x3d2819e9	0.041040335
219	0xbd2014a0	-0.03908217
220	0xbdfd8d04	-0.12380412
221	0xbcf707e0	-0.030155122
222	0x3d5793c3	0.05263115
223	0xbd5af3e4	-0.05345525
224	0x3de7aa39	0.11311764
225	0xbdcb78ec	-0.099351734
226	0x3d995634	0.07487145
227	0xbd834f41	-0.06411601
228	0xbbc631c4	-0.006048413
229	0x3dac04cb	0.08399352
230	0x3d765b49	0.06014565
231	0x3db9bf93	0.09069743
232	0x3d891fe4	0.06695536
233	0x3c9c2dd6	0.019064825
234	0xbd390997	-0.04517516
235	0x3d373814	0.044731215
236	0xbd6da365	-0.058017153
237	0x3d155d41	0.036465887
238	0xbda1f97f	-0.07908916
239	0xbd4e4feb	-0.050369184
240	0xbd5fa46c	-0.054600164
241	0x3d2e3584	0.042531505
242	0xbc517ebd	-0.012786564
243	0xbd3e9d54	-0.04653676
244	0xbded63cb	-0.115912996
245	0xbd21f9b9	-0.039544795
246	0x3cc72c78	0.024313197
247	0xbbda2718	-0.0066574924
248	0x3ca0df00	0.019637585
249	0x3da17a23	0.07884624
250	0xbdcd3c41	-0.10021258
251	0xbcafa2cb	-0.02143993
252	0xbd2d73df	-0.04234683
253	0x3d16dd6e	0.036832266
254	0xbe17e7fd	-0.1483459
255	0x3d87e37c	0.06635186

edge_model.0.bias f4 [16]
0	0x3d9b4798	0.07582015
1	0x3d17e10f	0.037079867
2	0xbd0e32e8	-0.034716517
3	0xbda72c51	-0.081627496
4	0xbdac8816	-0.08424394
5	0xbd812f54	-0.06307855
6	0xbdac2d01	-0.08407021
7	0x3cac70f5	0.021049956
8	0x3d7a026f	0.061037477
9	0xbca278cf	-0.019832997
10	0x3d8dfa22	0.06932475
11	0x3d1dc599	0.038518522
12	0xbdb6414a	-0.08899172
13	0xbdd251c4	-0.10269502
14	0xbd8263a8	-0.06366664
15	0xbd805dd2	-0.06267895

edge_model.2.weight f4 [16, 16]
0	0x3de3c223	0.11121013
1	0xbd6d5ca7	-0.05794969
2	0xbe2f2e10	-0.17107415
3	0xbe2864d8	-0.16444719
4	0x3dba4f3b	0.09097143
5	0x3cd1451e	0.025545653
6	0xbdc01920	-0.09379792
7	0x3e6b4113	0.22974043
8	0x3dcd9c1a	0.1003954
9	0xbddee1aa	-0.10882886
10	0x3e4309c4	0.19046694
11	0x3dcccb44	0.09999707
12	0x3caea241	0.021317603
13	0x3dfc2937	0.123125486
14	0x3df02b40	0.11726999
15	0xbe222296	-0.15833506
16	0x3d4642cb	0.048403542
17	0x3dba8987	0.091082625
18	0x3e27245f	0.16322468
19	0x3d58c141	0.052918676
20	0xbe4d7558	-0.20064294
21	0x3dd93460	0.10605693
22	0x3e34353f	0.17598437
23	0x3e61e45e	0.22059771
24	0x3e092e3c	0.13396543
25	0xbdfb14b5	-0.12259809
26	0xbe03815c	-0.12842315
27	0x3c8fcb30	0.017552942
28	0x3e4f367c	0.20235628
29	0x3e347314	0.17622024
30	0x3e226399	0.15858306
31	0x3e177ea0	0.14794397
32	0x3e2a52fd	0.1663322
33	0x3e6afaee	0.22947285
34	0x3df41b7a	0.11919303
35	0x3d973508	0.07383162
36	0x3e01ce11	0.12676264
37	0x3d1b935f	0.03798234
38	0xbd596914	-0.053078726
39	0x3cf1a5e0	0.02949804
40	0xbd9e9289	-0.07742793
41	0x3d86782c	0.0656589
42	0xbbbd14ea	-0.0057703154
43	0x3e323585	0.17403229
44	0xbe3baddb	-0.1832804
45	0xbdca69fa	-0.09883495
46	0xbe0217bd	-0.12704368
47	0x3e3dee33	0.18547897
48	0x3e478f63	0.19488291
49	0x3c344c7f	0.011004566
50	0x3d33b83b	0.043876868
51	0xbe38f6de	-0.18062922
52	0x3e2a9740	0.1665926
53	0x3e4ba73e	0.19888017
54	0x3e6baebe	0.23015878
55	0xbe0a2b80	-0.13493156
56	0xbdaf64cb	-0.085641466
57	0x3da0461b	0.078258716
58	0x3dfae8da	0.12251444
59	0xbe0b1322	-0.13581517
60	0x3e274dff	0.16338347
61	0x3d65575f	0.055991527
62	0xbe24f5e7	-0.1610943
63	0x3ddf8af7	0.10915177
64	0x3cb87a89	0.022519367
65	0xbd17059d	-0.036870588
66	0xbdc0756e	-0.09397398
67	0xbd33a111	-0.043854777
68	0xbde5276a	-0.11189158
69	0x3de1b5b1	0.11020983
70	0xbe73bd03	-0.23802571
71	0xbe021dc9	-0.12706675
72	0xbc18f7e3	-0.009336445
73	0x3bc61bee	0.00604581
74	0xbd7dd8ad	-0.061974216
75	0xbe502162	-0.20325235
76	0xbd811956	-0.063036606
77	0x3e69f543	0.22847466
78	0xbe2e1867	-0.17001496
79	0x3dece883	0.115677856
80	0xbd4aff86	-0.049560092
81	0xbe229ed6	-0.15880904
82	0xbdc816f7	-0.09770005
83	0x3cd72b4c	0.026265763
84	0x3de6a959	0.11262769
85	0x3cc7664c	0.024340771
86	0xbd113274	-0.035448506
87	0x3d82aa44	0.06380132
88	0xbe2577f1	-0.16159035
89	0x3e68fbb6	0.2275227
90	0xbd56925b	-0.05238567
91	0xbe4a039a	-0.19727936
92	0xbe4f3754	-0.2023595
93	0x3e3ccc9f	0.18437432
94	0x3e87724f	0.26454398
95	0xbe4729e9	-0.19449581
96	0x3e15c2f5	0.14625151
97	0x3dd1d215	0.10245148
98	0xbd9af4ac	-0.07566199
99	0x3dfbcbc1	0.12294722
100	0xbdbc4226	-0.09192304
101	0xbbacd1a3	-0.005274014
102	0x3e7514aa	0.23933664
103	0xbc0f05a3	-0.008729371
104	0xbd50c1d3	-0.050966095
105	0xbe0b8a72	-0.13627031
106	0xbe080338	-0.13282478
107	0x3e6c199d	0.23056646
108	0xbe571347	-0.21003447
109	0xbe47c3c4	-0.19508272
110	0x3e3d86ba	0.18508425
111	0xbe38026d	-0.17969675
112	0x3e3d2278	0.1847018
113	0x3badcc9b	0.005303932
114	0xbcddc126	-0.02706964
115	0xbc254ff4	-0.010089863
116	0x3d88f125	0.0668662
117	0x3d9b9838	0.07597393
118	0x3e76e3f6	0.24110398
119	0x3dd200eb	0.10254081
120	0x3dc637bb	0.096785985
121	0xbe73a6a9	-0.23794045
122	0x3d7f54d1	0.062336747
123	0x3d2b655b	0.041844707
124	0xbe1f8ae4	-0.15580326
125	0xbd8a621a	-0.06756993
126	0xbd4e69ab	-0.05039374
127	0xbe5c42e2	-0.21509889
128	0xbdd714c8	-0.105020106
129	0x3e04f9d5	0.12985928
130	0x3e6f54c3	0.23372178
131	0xbe4505d1	-0.192405
132	0x3e5a7896	0.21335062
133	0x3e0c6666	0.13710937
134	0x3d93d59f	0.07218479
135	0xbe40fcdf	-0.18846463
136	0xbe24925d	-0.16071458
137	0x3d166660	0.036718726
138	0x3e54d136	0.20782933
139	0xbe2d435b	-0.16920225
140	0xbe3eb699	-0.18624343
141	0x3da296a9	0.079388924
142	0xbe493da5	-0.19652422
143	0xbe6cc7eb	-0.23123138
144	0xbd7865a6	-0.060643815
145	0x3c3940ac	0.011306923
146	0xbceac97c	-0.028660528
147	0x3e5d8a94	0.21634895
148	0x3b5c71b0	0.00336371
149	0xbe015598	-0.12630308
150	0xbe5df33a	-0.21674815
151	0xbe6c2853	-0.23062257
152	0x3e21e604	0.158104
153	0x3d717e23	0.058958184
154	0xbc15f956	-0.009153685
155	0xbe611693	-0.21981268
156	0x3d972bd3	0.07381406
157	0x3e1e7751	0.15475203
158	0x3d6c9e86	0.057768367
159	0x3dc5058b	0.09620198
160	0x3e25c53d	0.16188522
161	0xbe4601b6	-0.1933659
162	0xbe523534	-0.20528108
163	0xbda8c2b6	-0.08240263
164	0xbd7e8290	-0.062136233
165	0xbd67328d	-0.056444693
166	0x3e5b721c	0.21430248
167	0x3d24efc3	0.040267717
168	0xbe3a9502	-0.18220904
169	0x3e03d8c0	0.12875652
170	0x3d1698e3	0.036766898
171	0xbd9a0cc5	-0.07521967
172	0x3d322d2f	0.04350012
173	0xbe54bf19	-0.20776023
174	0x3da9a600	0.08283615
175	0xbe680bb0	-0.22660708
176	0xbdb9f450	-0.09079802
177	0xbe41e99c	-0.18936771
178	0xbe132d4e	-0.14372751
179	0x3e4293e4	0.19001728
180	0x3d838745	0.06422285
181	0xbc82e99b	-0.015980532
182	0x3d9ea81f	0.0774691
183	0x3db92b21	0.09041429
184	0x3e573d2c	0.21019429
185	0xbe520bea	-0.20512357
186	0xbe40215e	-0.18762729
187	0x3e6194c9	0.22029413
188	0xbbb7c75a	-0.0056084814
189	0xbe52b91a	-0.20578423
190	0x3e6b3a4c	0.22971457
191	0x3db093fa	0.08621974
192	0x3e7e902e	0.24859688
193	0xbdda71cc	-0.10666236
194	0xbced5c0b	-0.028974554
195	0xbe6f482b	-0.23367374
196	0xbdce4728	-0.10072166
197	0xbdcaeca7	-0.09908419
198	0x3dd77419	0.10520191
199	0xbd09da07	-0.033655193
200	0xbe1ad0f0	-0.15118766
201	0xbd8a6d0d	-0.06759081
202	0xbdc911be	-0.09817837
203	0x3d059012	0.0326081
204	0x3e3764b0	0.17909503
205	0xbe02d139	-0.12775125
206	0xbc902822	-0.017597262
207	0x3ce4ad39	0.02791463
208	0x392d4118	0.00016522815
209	0xbe2ba471	-0.16761948
210	0xbe3e5f25	-0.18590982
211	0xbd580956	-0.05274328
212	0xbd4de8f6	-0.050270997
213	0x3e352925	0.17691477
214	0x3e61c9fe	0.2204971
215	0xbe8b1d0a	-0.27170593
216	0x3bcc8d5a	0.0062424364
217	0x3e359e25	0.17736109
218	0xbe4dbef2	-0.20092371
219	0x3d899e3f	0.06719636
220	0xbd9516cf	-0.07279741
221	0x3e1beb88	0.15226567
222	0xbdd82ab9	-0.10555024
223	0xbe5ce01c	-0.21569866
224	0xbe10dff2	-0.14147928
225	0xbccfdbf6	-0.02537344
226	0x3e616fa8	0.2201525
227	0xbe6203ac	-0.22071713
228	0xbe636b21	-0.22208835
229	0x3e7c6528	0.24647963
230	0xbe4f9136	-0.20270237
231	0x3e865d2f	0.26242968
232	0xbe151f12	-0.14562634
233	0x3dd500fe	0.1040058
234	0xbe0a133d	-0.13483901
235	0x3e4cb989	0.19992651
236	0x3e092795	0.13394006
237	0x3e15787a	0.1459674
238	0xbe15b3ac	-0.1461932
239	0x3e04d468	0.12971652
240	0x3e119b38	0.14219368
241	0xbda17741	-0.07884074
242	0x3e62d32b	0.22150867
243	0xbd81b397	-0.06333082
244	0x3c125176	0.008930555
245	0xbdc6a49b	-0.09699365
246	0x3cf2e860	0.02965182
247	0xbe952b8c	-0.29134786
248	0xbdb1413f	-0.08655023
249	0x3de0f7c1	0.10984755
250	0xbe58860d	-0.21144886
251	0xbe069262	-0.13141778
252	0xbcc94e11	-0.024573358
253	0xbdf5aae3	-0.11995485
254	0xbc424c2f	-0.011858984
255	0xbd88bbf4	-0.06676474

edge_model.2.bias f4 [16]
0	0xbd96fb11	-0.07372106
1	0x3c8724d8	0.01649706
2	0x3defc0da	0.117067054
3	0x3df88f46	0.12136702
4	0xbd4bf63c	-0.049795374
5	0xbe06e5ab	-0.13173549
6	0x3e4d18ff	0.20029067
7	0x3e4ca28d	0.19983883
8	0xbdd297d4	-0.10282865
9	0x3e2603a2	0.16212323
10	0x3df9bdc2	0.121943966
11	0xbe071dc5	-0.1319495
12	0x3d75e245	0.06003024
13	0xbd9b0af5	-0.07570449
14	0x3deac357	0.11463039
15	0x3de6d9a2	0.11271979
