tmp/tmp3model100.pt (torch, 23679 bytes, 25 tensors)

node_encoder.0.weight f4 [16, 5]
000000 59 05 e3 be d3 a0 b4 be 3e 25 44 be 26 a1 d8 be
       -0.44340017 -0.3527895 -0.19154832 -0.42310447
000010 60 fc cf bc 2c 0d b3 be 53 e4 92 3e 40 fe 85 3e
       -0.025388896 -0.34970987 0.28689823 0.2617054
000020 a0 f5 ac 3d 70 02 c8 3e 80 66 33 bd 98 26 89 3e
       0.08445287 0.3906436 -0.043798923 0.26787257
000030 ae 5a a0 be f8 7c b4 bd c8 29 cc be 84 90 b9 bc
       -0.31319183 -0.088128984 -0.39875627 -0.022651918
000040 bc bc 54 be 2d b6 d2 3e ae 0d 9f 3e e4 ce b4 3e
       -0.20775121 0.41154614 0.31065124 0.35314095
000050 b4 20 1e 3e 24 d9 83 be ae 63 c2 3e a0 6d df be
       0.15442163 -0.25751603 0.37966675 -0.43638325
000060 12 af 9a be 83 02 8f be e2 d2 3d be 70 a0 b6 3d
       -0.30211693 -0.27931604 -0.18537477 0.0891732
000070 e5 71 ad be 2b 67 b0 be 62 1d 80 be c8 48 72 3e
       -0.33875957 -0.3445371 -0.25022417 0.23660576
000080 27 27 a5 be 87 5d cd be 00 74 c6 be 4c 59 61 be
       -0.32256433 -0.40110418 -0.38760376 -0.2200672
000090 38 a6 f0 bd 35 fe e2 be ab 67 56 be 00 f5 0c 3c
       -0.11750454 -0.4433457 -0.20937984 0.008603334
0000a0 d0 fa 96 3d 30 4d 83 bd 90 b2 4f bd d5 f6 94 be
       0.073720574 -0.06411207 -0.0507074 -0.29094568
0000b0 dc 9b 6a 3e fb 42 00 be 8c 8d 9c be 88 39 00 be
       0.22911018 -0.12525551 -0.30576742 -0.12521946
0000c0 28 e9 7f bd 7b bd ca 3e 03 1e 30 3e ba 43 3b be
       -0.062478215 0.39597687 0.17198949 -0.18287554
0000d0 8a 2c 00 be 34 56 ca 3e 11 a8 67 3e 14 b8 ff 3d
       -0.1251699 0.39518893 0.22622706 0.12486282
0000e0 1c e1 fa bd 40 09 b9 3e c0 32 44 3e df e3 79 be
       -0.122499675 0.3613987 0.19159985 -0.24403332
0000f0 38 7e a2 3e 70 8e 02 3d b8 56 a9 be a4 fa 4a be
       0.31736922 0.03187412 -0.33073974 -0.19822174
000100 b9 7c ab be a1 b7 ce be 58 8f b7 bc db 16 a4 be
       -0.33493593 -0.40374473 -0.022407219 -0.32048687
000110 34 10 74 3e 0d 20 2e 3e 21 c1 c5 3d 1a 59 b8 3e
       0.23834306 0.17004414 0.09655977 0.3600548
000120 87 44 4c be 40 87 da 3b c6 10 ab 3e d0 e2 35 3e
       -0.19948016 0.006668955 0.33411235 0.17762303
000130 86 83 81 3d b0 7a c8 3e b0 bc d0 3d 0e dd 9a 3e
       0.06323914 0.39156103 0.10192239 0.30246776

node_encoder.0.bias f4 [16]
000000 6e 54 c5 be bd ea ae be 89 ab ce be fd a1 1f 3d
       -0.38540977 -0.34163466 -0.40365246 0.038972843
000010 d1 74 cd 3e 46 d2 c7 be 11 ff 10 3e 8f 10 ca be
       0.40128186 -0.39027613 0.141598 -0.39465758
000020 e0 2a 98 be 00 1a 2e be 7b c3 78 be c6 f0 14 3e
       -0.2972021 -0.17002106 -0.2429332 0.14544973
000030 58 ff bf be fa 5b d1 3e 8a 42 86 3d 78 3c 37 3e
       -0.374995 0.40890485 0.0655566 0.17894161

node_encoder.2.weight f4 [16, 16]
000000 92 ee 2c be c6 a6 3b 3e 08 19 6f bd f2 4b d2 bd
       -0.16887882 0.18325338 -0.05837348 -0.10268392
000010 0f 43 88 3b 78 16 d5 3d aa 29 cf 3b 0c 21 b3 bd
       0.0041583846 0.10404676 0.0063221054 -0.087465376
000020 08 69 3e 3d 06 65 a0 bd 34 7c 0c bd 05 34 09 be
       0.046486884 -0.07831769 -0.034298137 -0.1339875
000030 e4 85 18 3e 36 af 00 be b5 7a b3 3d f7 45 d5 3d
       0.14894825 -0.12566838 0.08763639 0.10413735
000040 4c 19 2a be 0d d0 2e be a8 7a 2a be c8 4a 43 be
       -0.16611212 -0.17071553 -0.16648352 -0.19071496
000050 e6 ff 5d 3e 94 a7 61 3e 3a e8 b0 bc e0 0b 70 3e
       0.21679649 0.22036582 -0.02159511 0.2344203
000060 90 07 91 3d 28 1d 6f be 12 40 5b be 27 f4 f0 bd
       0.070815206 -0.23350966 -0.2141116 -0.11765318
000070 1e 5b 7f be 31 87 02 be b8 36 8b 3d 89 f8 7a bb
       -0.24937102 -0.12746884 0.06797546 -0.003829511
000080 18 37 3f bd 39 77 a7 3c 60 0d 6a 3e 90 b7 0a 3d
       -0.0466834 0.020442592 0.22856665 0.033866465
000090 b6 eb 13 3e 88 d0 76 bd 07 81 53 be e0 4d 48 3d
       0.14445385 -0.060257465 -0.20654689 0.048902392
0000a0 60 cb eb 3d ed 97 23 3e a7 a4 52 be 5f 4b 12 bc
       0.115134 0.15975924 -0.20570622 -0.008929103
0000b0 ec a8 76 be b3 5c 4d 3c 08 f5 ad 3c dc c5 dc 3d
       -0.24087876 0.012534308 0.021235004 0.10779926
0000c0 f0 b2 af bd ad 19 3f 3d 60 41 7b 3d dc 4a 87 be
       -0.085790515 0.046655346 0.061341643 -0.264243
0000d0 8c 8c 05 3e 20 77 77 3e f7 6c 1e be c4 a5 79 3e
       0.13041896 0.24166536 -0.15471254 0.24379641
0000e0 38 75 1b 3d 89 f3 6d 3e 7a e6 25 3e d6 d4 56 be
       0.037953585 0.23237433 0.16201201 -0.20979628
0000f0 5a b9 40 3e 4d 89 47 bd 40 3d 3d 3d 13 10 d6 bd
       0.18820706 -0.048714925 0.04620099 -0.10452285
000100 dc 31 4d be b7 af db 3d 08 70 8e 3d 3a 83 0a 3e
       -0.20038551 0.10726874 0.06954962 0.13526621
000110 69 36 6c be d8 b6 77 be 86 76 b6 3d 78 01 4d bd
       -0.23067631 -0.24190843 0.08909325 -0.05005023
000120 00 f5 71 bb 3e 99 56 bd 6f 4d 6e 3b 3c 18 e2 3c
       -0.0036919713 -0.052392237 0.0036362072 0.027599446
000130 8e 6c 6c be 21 ae bc 3d 8a 01 15 3d cc 97 fa 3d
       -0.23088285 0.092129 0.03637842 0.12235984
000140 08 36 04 be 1c ec 04 3e 78 b6 2a 3e 8d 0e aa bd
       -0.12911236 0.12980694 0.16671169 -0.083035566
000150 99 94 67 3e a8 c9 03 3d 87 1c 57 3e 10 b4 68 3e
       0.2261528 0.032174736 0.21006976 0.22724938
000160 a0 98 20 3d 9c 83 84 3d f3 29 13 3e 11 25 2d 3e
       0.039208055 0.06470415 0.14371471 0.16908671
000170 68 c3 69 be 90 4a e2 3c 05 7d 77 3e 5b a6 21 be
       -0.22828448 0.027623445 0.24168785 -0.15786116
000180 cc 2f 10 be d6 46 d7 3d f0 20 b9 3d cd 5d f0 3d
       -0.14080733 0.10511558 0.090394855 0.11736641
000190 7f 6b 19 3c b8 8f 71 3d 94 09 d9 bd d2 83 72 3e
       0.009364008 0.05897495 -0.1059753 0.23683098
0001a0 2c b3 28 be 88 b8 1e 3e 6b 66 dc 3d 30 0a 5d 3e
       -0.16474599 0.1550008 0.10761722 0.21585917
0001b0 1a 39 63 3e 40 51 7e bd e2 f8 63 3e 75 2f 20 be
       0.22189751 -0.062089205 0.2226291 -0.15643103
0001c0 b8 86 32 3e ac 28 6a be 06 01 2e be 16 d3 3e be
       0.17434204 -0.22867078 -0.16992578 -0.1863521
0001d0 39 6d 81 3e f0 47 97 3d 21 ad 1d be d0 0c 40 be
       0.25278643 0.07386768 -0.15398075 -0.18754888
0001e0 40 c9 d3 3c 78 f2 9d bd 79 2b 8f 3d 56 7d 25 3e
       0.0258528 -0.07712263 0.069907136 0.16161093
0001f0 de ba 21 be 03 97 40 be 6c d1 22 3d 55 4f 2f 3e
       -0.1579394 -0.18807606 0.0397505 0.17120107
000200 ac d4 1b 3e 8f c4 f0 bc 10 93 88 bd 43 d6 0f 3d
       0.15217847 -0.029390601 -0.06668675 0.035116445
000210 e5 cf 31 3e 52 84 5c be 50 39 43 3b 42 8f 41 3e
       0.17364462 -0.21534851 0.00297888 0.18902305
000220 f8 3a 45 3e 29 3c 4e 3e bb 2d 6e 3d 00 bf 78 3e
       0.19260776 0.20140137 0.05814908 0.2429161
000230 62 8e 77 be 4b 2b 32 3d 8b 4d 51 3d cd 71 2d 3e
       -0.24175408 0.04349832 0.05109934 0.16937943
000240 48 ef 4b 3d 58 81 c8 3d de 9f 60 be ba dc 06 bd
       0.049788743 0.09790295 -0.21935984 -0.032925345
000250 0e e5 b9 3d 1a 30 24 3e 74 a3 8a 3d 88 67 25 3e
       0.09076892 0.16033974 0.067694575 0.16152775
000260 04 f0 9f bd f6 ca a0 bc c4 d2 7a 3e 3a 6f 24 3e
       -0.07809451 -0.01962803 0.24494463 0.16058055
000270 1a c0 33 3e 55 8c 61 be 08 bb 14 bc e5 b3 67 be
       0.1755375 -0.22026189 -0.009077795 -0.22627218
000280 78 68 68 3e 56 1f 23 3e 48 fb 0e 3e 3d 6b 4c be
       0.22696102 0.15929922 0.13963044 -0.19962783
000290 1b 9c 2c be 90 12 27 be 34 59 41 3d 8c d9 51 3e
       -0.16856425 -0.16315675 0.04720421 0.20493144
0002a0 48 95 05 bd 83 12 86 be 96 1d e5 bd 41 01 38 3c
       -0.03261307 -0.26185998 -0.11187284 0.011230768
0002b0 e0 2d 6a 3c 01 0e d0 3d 6d b7 f1 3c 86 30 e1 bd
       0.014293164 0.10158921 0.02950641 -0.10995583
0002c0 ba 1f 35 be 77 c0 dd 3b 90 9c ef bd 0c 58 35 be
       -0.17687884 0.0067673284 -0.11699784 -0.17709368
0002d0 b4 eb 0e be 4e be 6a be 06 0c 05 3c d4 2b 87 bd
       -0.13957101 -0.22924158 0.008120542 -0.066001564
0002e0 4e 1b 12 be 18 6f 70 3d 6d 96 7a bc 59 af 23 be
       -0.14268228 0.058699697 -0.015294653 -0.15984859
0002f0 10 4e de 3d 0f a3 7e be 56 81 1d bd fc 7b 44 3e
       0.10854733 -0.2486689 -0.038453422 0.19187921
000300 70 3f 52 3e f2 da 73 3e 98 ca 45 bd af ed 18 3d
       0.20532012 0.2381399 -0.04828891 0.037336048
000310 78 0f 3d be c0 e3 00 bc c3 5b 62 3e 78 6d d7 bd
       -0.18462932 -0.0078668 0.22105317 -0.105189264
000320 0c 52 6f be 48 4d 41 3e 28 8b 9e 3d 75 2b 27 3e
       -0.23371142 0.18877137 0.07741386 0.16325171
000330 e4 33 a6 bd d6 51 d1 bd ca b5 bc bc 8b 95 8e bd
       -0.08115366 -0.10220687 -0.023035903 -0.06962117
000340 58 be 07 3d 0a c6 bb bd 64 ed 91 bd 3a 91 1d be
       0.03314051 -0.09168632 -0.07125357 -0.15387431
000350 61 86 a3 bd 16 6e 2f be 1a be 13 3d d8 8e 16 3e
       -0.07984615 -0.17131838 0.036069967 0.14702928
000360 b0 7a f1 3d 1e f8 53 3d 63 e5 17 be 17 91 91 bc
       0.11790979 0.051750295 -0.14833598 -0.01776938
000370 90 13 91 bc 20 0a 50 3e e8 74 4a 3d ea 38 27 3e
       -0.017709523 0.20316362 0.049427897 0.16330305
000380 2c a2 5d 3e 58 b8 09 be b8 9d 4d be f9 cf 54 be
       0.21643895 -0.13449228 -0.20079696 -0.2078246
000390 c4 bb 50 3e 30 17 d3 bd f9 06 43 3d 4c 26 bb 3d
       0.20384127 -0.10307157 0.04761407 0.09138164
0003a0 00 06 fa bb 4b 78 63 be df ef 6f bd 65 85 57 3d
       -0.00763011 -0.22213857 -0.05857837 0.05261745
0003b0 98 5f e3 bd 30 25 62 bc 64 8c b1 3c 1d 28 a2 3d
       -0.111022174 -0.0138028115 0.021673389 0.07917807
0003c0 78 24 de bd 2c 31 37 3e ee 96 5c 3e c6 4c e8 3d
       -0.108467996 0.17889851 0.2154195 0.11342768
0003d0 c8 24 3f be dc 61 16 be 5e 43 ad 3c 72 5c 06 be
       -0.18666375 -0.14685768 0.021150287 -0.13121203
0003e0 00 98 98 b9 c3 2f 0c be a1 ec e9 bd ad 60 10 3c
       -0.00029104948 -0.13690095 -0.114220865 0.008812112
0003f0 0c ab 4d be 72 e6 6e 3d d6 34 7a bc 09 af ef bd
       -0.2008478 0.05832524 -0.015271386 -0.11703307

node_encoder.2.bias f4 [16]
000000 1c dd 1d be 51 c4 11 be d3 87 55 3e 40 88 fc 3b
       -0.15416378 -0.14235045 0.20852594 0.007706672
000010 ef 0d 93 bd 37 2c f8 bc dc 8b 3e be 3e 2b 55 be
       -0.07180392 -0.03029452 -0.1860804 -0.20817277
000020 6c a7 3b be d1 3f 74 bd b3 29 24 be ff 69 a5 3d
       -0.18325585 -0.059631173 -0.16031532 0.08076858
000030 4f 7a 2d 3e c3 76 19 be d0 34 24 3e 30 3f a4 bd
       0.16941188 -0.1498671 0.16035771 -0.080198646

node_encoder.3.weight f4 [16]
000000 d8 35 83 3f dd fd 7a 3f 4c 60 7e 3f f5 99 7f 3f
       1.0250807 0.98043615 0.9936569 0.99844295
000010 56 c8 86 3f 14 55 7d 3f 83 f4 77 3f d6 33 78 3f
       1.0529888 0.98957944 0.9685747 0.96954095
000020 ca 70 76 3f 34 11 7e 3f fa f2 81 3f e5 04 7a 3f
       0.9626585 0.99245 1.0152276 0.9766372
000030 91 88 80 3f 29 c8 7c 3f 33 0e 7c 3f 00 12 7f 3f
       1.0041677 0.9874292 0.98459166 0.9963684

node_encoder.3.bias f4 [16]
000000 55 a0 b8 bc 61 d2 4f 3c 34 5e 9c bb 2b 04 0c 3c
       -0.02253739 0.012684436 -0.004771972 0.008545916
000010 f2 59 84 bc 80 28 10 3c dc de c3 3c ff ec 23 3c
       -0.01615617 0.008798718 0.023909979 0.010005235
000020 46 bd b5 bb 27 fd 87 3a 75 00 b1 bc 7b 6f b4 bb
       -0.005546245 0.0010375128 -0.021606663 -0.0055064536
000030 61 b4 c2 3a 1e 23 47 3c 0e d9 9f bc 0e 01 0b bb
       0.0014854782 0.012154369 -0.01951268 -0.0021210345

edge_encoder.0.weight f4 [16, 4]
000000 28 0a 2d be 8c be ec 3e 02 fa a1 be 60 7b bd bc
       -0.16898406 0.46239126 -0.31636053 -0.023130119
000010 63 1a 25 3e 30 bf 12 3e 88 f3 82 be 1e ba d7 3e
       0.16123347 0.14330745 -0.25576425 0.42134184
000020 51 4d 03 bf 96 00 62 be 23 48 e7 3e 56 ae ad bd
       -0.5128985 -0.22070536 0.45172223 -0.084805176
000030 2c 14 50 be 38 16 e8 be 06 5f fe be 8c 99 cf be
       -0.20320195 -0.45329452 -0.49681872 -0.40546834
000040 88 a4 13 be d6 64 a9 be b0 2b 51 3e 00 1c 2d be
       -0.14418232 -0.33084744 0.20426822 -0.16905212
000050 4d e6 b0 be 3a 69 ae be de 98 fc 3e 80 48 c4 3c
       -0.34550706 -0.34064656 0.49335378 0.023960352
000060 5a 16 0d 3e cf 80 03 3e 55 04 f7 3e 04 87 f5 bd
       0.13778058 0.12842105 0.48245493 -0.11988643
000070 3c 6a 09 be 64 c0 37 be ae c4 be be e8 90 06 be
       -0.13419431 -0.17944485 -0.3725943 -0.13141215
000080 b0 cd 47 3d 68 f9 fe 3d 00 15 aa 3d 00 04 79 3a
       0.048780143 0.12449914 0.08304787 0.0009499192
000090 de ab d4 3e f0 db f8 3d 78 36 0c be 74 49 93 be
       0.41537374 0.12151325 -0.13692653 -0.28766978
0000a0 22 7b f3 be c4 e1 ef be 68 99 53 3e 9f ed f6 3e
       -0.4755488 -0.46851933 0.20663989 0.48228166
0000b0 db 54 95 3c b5 b0 be 3e 87 65 3f be c8 2d 64 3e
       0.018228939 0.37244192 -0.18691073 0.22283089
0000c0 6a e1 c1 3e a0 f1 c3 be 7a a4 31 bd 88 54 82 be
       0.3786729 -0.38270283 -0.043369748 -0.25455117
0000d0 a0 c6 b6 bd a7 8c c8 3e f4 41 7b be 2f 59 d2 3e
       -0.089246035 0.3916981 -0.24536878 0.41083667
0000e0 a1 06 32 3d a2 0b dd be 9b 85 23 bd a2 cf 75 bd
       0.043463353 -0.43172938 -0.039922338 -0.060012467
0000f0 e6 22 93 be c9 92 d0 3e 71 d4 ad be a9 7c dd 3e
       -0.28737563 0.40736988 -0.33951142 0.4325917

edge_encoder.0.bias f4 [16]
000000 54 1c a3 be 52 da 75 bd d5 6d 81 3e 78 39 70 be
       -0.3185755 -0.06002266 0.25279108 -0.23459423
000010 7e 48 9e be 02 ce 1c be 42 17 7e 3e 8a 66 bd be
       -0.30914682 -0.1531296 0.2481356 -0.36992294
000020 dc f5 af be d5 44 b1 3e 9c f2 d2 3d a2 98 81 bd
       -0.34367263 0.34622827 0.1030018 -0.063279405
000030 0a ed db 3e 11 15 83 be b9 85 97 3d a2 63 8c bd
       0.42954284 -0.2560201 0.073985524 -0.06854941

edge_encoder.2.weight f4 [16, 16]
000000 97 69 8e be 73 53 06 be 7e b9 57 3e 94 78 57 3e
       -0.27814934 -0.13117771 0.21066853 0.2104209
000010 ce 59 54 be a4 00 af 3c f8 b8 2f 3e d8 01 ec bd
       -0.20737383 0.02136261 0.17160404 -0.11523789
000020 80 87 84 bb e9 ed 97 bd 2f 79 e5 bd 03 53 35 3a
       -0.004044473 -0.07418425 -0.112047546 0.0006916972
000030 11 54 29 3e 0c 2e 38 3e 77 06 90 bd 19 a5 56 be
       0.16535975 0.17986315 -0.07032483 -0.20961417
000040 54 f5 0c be d3 b1 58 bd 6a 77 73 3d 10 83 e5 3d
       -0.1376546 -0.05290396 0.059440054 0.11206639
000050 c4 59 ab 3d ab c2 93 bd 6c 8b 73 be 88 6c db 3d
       0.08366731 -0.07214864 -0.23783654 0.1071406
000060 60 fb 5e 3d 58 a4 64 be 6b f6 4b 3d 90 0c 80 be
       0.05443895 -0.22328317 0.04979555 -0.25009584
000070 26 a1 28 be 85 be bd 3d 5a 1c cc 3d c8 ad 4f 3e
       -0.16467723 0.09264854 0.09966345 0.20281136
000080 e7 af 38 be c2 73 ce bd 6e 16 17 3d 8a b2 39 3e
       -0.18035851 -0.10080673 0.036886625 0.18134513
000090 6e 11 05 3e 31 d6 8a 3c d6 b1 06 3e 40 ad e3 bb
       0.1299493 0.016947838 0.13153777 -0.0069481432
0000a0 02 ca 50 be 1d d4 b4 3d 30 63 5d be a9 87 26 bd
       -0.2038956 0.0882952 -0.21619868 -0.04065672
0000b0 7e 4e be 3d fc 7e 8f be aa 87 af 3d 23 70 99 be
       0.09292315 -0.2802657 0.08570798 -0.29968366
0000c0 4f 0b 8c bd a5 c4 12 3e 0d f2 56 3e 78 c1 d7 3d
       -0.068380944 0.14332826 0.20990773 0.10534948
0000d0 f8 14 88 3d 5d e3 12 3e 60 0d a8 bd d8 6b 4d 3d
       0.066446245 0.14344545 -0.08205676 0.050151676
0000e0 84 64 a6 bd b0 16 3e be 5e fb 77 3e 85 e2 84 be
       -0.081246406 -0.18563342 0.24216983 -0.2595407
0000f0 13 fa 0f be 9d e7 0c 3d 31 b7 2c bd 8c 3d af 3c
       -0.1406024 0.03440057 -0.042166892 0.021391653
000100 5e cf 17 be c5 58 55 be 5b 57 5c be d2 6f 7c be
       -0.14825198 -0.20834644 -0.21517698 -0.24652031
000110 da 22 0a 3e 13 6b 00 be 1c 43 64 3e 24 0b 38 3e
       0.13489857 -0.12540846 0.22291225 0.17973
000120 6c c6 63 be a6 7f 48 be f0 8f 51 be 1d 5e 2b be
       -0.2224366 -0.19579944 -0.20465064 -0.1673512
000130 a3 7f 55 3e bc b1 de bc 5d 39 31 3e 9b 44 ba bb
       0.20849471 -0.02718436 0.17307039 -0.005684448
000140 3f f4 b0 3d 10 64 06 be 59 07 52 be 30 e2 6f 3e
       0.08640336 -0.13124108 -0.20510615 0.23426127
000150 06 ca 52 be 11 7d 99 3e 4c 47 3c be 34 1f 57 3e
       -0.20584878 0.2997823 -0.18386573 0.21007997
000160 c0 0f d7 bc 54 53 46 3c d6 6a ad 3c 15 e2 71 3e
       -0.026252627 0.012104828 0.021169107 0.236214
000170 6c eb d1 3b d6 da 14 3e c4 db 08 bd 6e f8 66 3e
       0.0064062383 0.14536604 -0.03341271 0.22555706
000180 94 88 06 3b e2 c3 40 3e 95 00 28 3d 70 a9 83 3d
       0.0020528184 0.18824723 0.04101618 0.06428802
000190 ee 5f 7a be 57 65 ee 3c 78 eb 43 be b0 fe e6 bd
       -0.24450657 0.029101057 -0.19132793 -0.112790465
0001a0 b4 96 03 be 45 89 87 3e b6 2a 3a be 8f ae e0 3d
       -0.12850457 0.26471916 -0.18180355 0.109707944
0001b0 c4 a6 2c be 99 40 0f 3c cb 98 52 3e 08 5f 4b be
       -0.16860491 0.008743429 0.20566098 -0.1986047
0001c0 1d c6 92 bd 3d 98 1c 3d dc 83 05 3d b8 2c 93 3d
       -0.07166693 0.038231123 0.032596454 0.07186264
0001d0 a4 ac 14 be 50 8f e8 bd 5e fa 5b 3e e0 19 1e bc
       -0.14518982 -0.1135546 0.21482226 -0.009649724
0001e0 e0 41 c3 bd 26 2f 03 be e7 df 81 be 0a 72 65 be
       -0.09534049 -0.12810954 -0.25366136 -0.22406784
0001f0 2f fb 88 bc d8 14 de 3c 7a 00 24 3e 5b 91 5b be
       -0.016721336 0.027109548 0.16015807 -0.21442167
000200 57 bf dd 3c 73 cb 96 3a 3f de 82 bd d8 e0 15 be
       0.027068777 0.0011504724 -0.06390046 -0.14636552
000210 e8 68 1e bd f8 4b 76 3e fc ed 4e be 80 7e b1 3d
       -0.038674265 0.24052417 -0.20207971 0.08666706
000220 a0 1a 9e bd bd 79 93 3d 12 a2 98 3d 56 5f 88 bd
       -0.07719922 0.07200954 0.074527875 -0.06658809
000230 8b 87 91 bd 42 21 4e 3d a3 e8 9b 3d 01 1a 72 be
       -0.07105931 0.050324686 0.07612731 -0.23642732
000240 77 67 3f 3e 7b 1c 4c 3d 2f a2 f0 3d be 91 39 be
       0.18691812 0.04983185 0.11749684 -0.18122002
000250 1e b0 00 3e 0e 64 19 3e 22 c4 cb bc 38 99 77 3e
       0.12567183 0.14979574 -0.024873797 0.24179542
000260 90 42 0b 3d f8 8f 04 3e 69 fb 32 3d ba f8 19 3d
       0.033999026 0.12945545 0.043696795 0.03759072
000270 ae 76 29 3d 41 de 5d 3e 7e f1 c7 3d 1c 19 07 be
       0.041372947 0.21666814 0.09762858 -0.13193172
000280 0d a2 85 3d 15 09 9a 3d d2 bd 83 be fc f4 d1 bd
       0.06525049 0.075212635 -0.2573076 -0.10251805
000290 4c 84 be 3d 83 9b bf bd fa 8e b6 bd d8 f1 18 be
       0.093025774 -0.093558334 -0.08913989 -0.14936006
0002a0 70 22 dc 3d 33 a6 3a 3e 97 5d 31 3e bc 7f 68 be
       0.10748756 0.18227462 0.17320858 -0.22704977
0002b0 ce d8 32 3e 30 1e 42 be f7 20 39 3e e1 32 35 3c
       0.17465517 -0.18956828 0.18078981 0.011059494
0002c0 35 f4 43 3d 63 24 36 3b 9b 82 21 be be cd 26 3e
       0.047840316 0.0027792684 -0.15772478 0.16289422
0002d0 a4 f6 e1 bd a2 34 77 3e 83 03 05 3d 70 8e 0c 3e
       -0.11033371 0.24141172 0.032474052 0.1372621
0002e0 f0 48 bd 3d b6 22 35 3d c0 7c b8 ba f8 58 2d be
       0.09242427 0.044222556 -0.0014075264 -0.1692847
0002f0 00 2e 31 be a2 0f 29 be 86 17 6d 3e 5e 64 2b 3e
       -0.17302704 -0.1650987 0.23153505 0.16737506
000300 76 4e 5e 3e d5 17 82 bd 97 cd 86 3c f8 bb f7 3d
       0.21709618 -0.06352202 0.016455455 0.12096399
000310 70 43 13 be 88 59 1f 3e 47 37 51 be 24 5d 3d be
       -0.14381194 0.15561497 -0.20431243 -0.18492562
000320 58 d8 76 3d 75 13 96 3d 5a d8 62 bd a9 13 9d 3d
       0.060264915 0.0732793 -0.05538211 0.076697655
000330 63 f9 a6 3d 74 07 11 bc e3 ec 21 be d9 4a 86 3d
       0.081530355 -0.008851875 -0.15813021 0.06557245
000340 49 00 5d be 56 cd 7b 3e fc 6d 76 be f0 47 57 bd
       -0.2158214 0.24590048 -0.24065393 -0.05255884
000350 e8 22 e9 bd 1d 38 1c 3c ad d3 5b 3d 00 23 ef bd
       -0.11383611 0.009534863 0.053668667 -0.116765976
000360 fc b3 57 3e 96 c5 77 bd 02 ae 27 3d 38 c7 0f be
       0.21064752 -0.060491167 0.04093743 -0.1404084
000370 15 fc f5 3c 80 6a 62 3c c6 0c c7 3d 10 7f 0c be
       0.030027429 0.013819337 0.09719233 -0.13720345
000380 9a 95 31 be 44 7b 48 be 72 ae 26 be 30 fe e8 bc
       -0.17342225 -0.19578272 -0.16277483 -0.028441519
000390 5c 79 17 3e 6b e9 4b 3e aa 6a b7 bd 64 f0 c5 3d
       0.14792389 0.1991326 -0.089558914 0.096649915
0003a0 04 45 79 be 94 0d 50 3e 87 f4 64 bc 05 2b a1 bc
       -0.24342734 0.2031768 -0.0139743155 -0.019673834
0003b0 2f a8 a4 3d 2d 34 4f 3e bd 84 69 be 88 53 21 3e
       0.08039891 0.20234747 -0.22804542 0.15754521
0003c0 97 60 77 3e 85 3e 61 3e b2 7b ad 3d 2a df 1b 3e
       0.2415794 0.21996506 0.08470859 0.15221849
0003d0 a0 a7 8a bd 53 e5 45 be 05 d7 ee 3d 42 de 45 3e
       -0.06770253 -0.19325761 0.116621055 0.19323066
0003e0 8e 5b 59 be a7 ce 3d be d5 5f 95 bc 5b 11 13 be
       -0.21226332 -0.18535863 -0.018234173 -0.1436209
0003f0 48 19 d4 3d 0a 3a 59 be 2b df 65 3e 8d b1 41 be
       0.103563845 -0.21213546 0.22448413 -0.18915386

edge_encoder.2.bias f4 [16]
000000 6f 98 af bd c5 89 5b be 95 5a 20 3e 8f 6e e3 3d
       -0.08573996 -0.21439274 0.15659554 0.11105072
000010 2e 55 00 be 54 16 47 3d 09 15 6a 3e 5d 95 72 be
       -0.12532493 0.048605278 0.22859587 -0.2368979
000020 57 ed 53 3e c1 d4 53 3d 17 47 a4 3d ab 24 22 be
       0.20696007 0.05171657 0.08021372 -0.158343
000030 da 55 35 bd 7c ad 11 be dd 1d df 3d cd 7c 5f bb
       -0.044271328 -0.14226335 0.10894368 -0.0034101487

edge_encoder.3.weight f4 [16]
000000 27 28 83 3f c9 db 82 3f 11 33 79 3f 51 14 80 3f
       1.0246629 1.0223323 0.97343546 1.00062
000010 68 d4 81 3f 2f a2 80 3f 37 2e 81 3f 52 a1 81 3f
       1.0142946 1.0049495 1.0092229 1.0127356
000020 30 83 7d 3f 4e 68 7e 3f 78 07 78 3f ad da 7e 3f
       0.990283 0.99377906 0.96886396 0.9955242
000030 d8 39 7a 3f d7 c0 7e 3f 48 af 7e 3f 2e 3a 7e 3f
       0.9774451 0.99513 0.9948621 0.99307525

edge_encoder.3.bias f4 [16]
000000 04 8b 55 bc ab 5a 89 bc 5b a3 16 bd fa 96 42 bc
       -0.013033632 -0.016766867 -0.03677688 -0.011876816
000010 5e f5 b6 bb a3 eb 92 3b f7 bb 6d 3b 36 af 10 bc
       -0.0055834493 0.0044836565 0.0036275366 -0.008830836
000020 c7 a0 f1 bb f6 c3 87 bb 84 75 a7 bc da c2 9e 3b
       -0.0073739025 -0.0041432334 -0.020441778 0.0048450055
000030 2b 2c a0 bc 67 00 99 3b 2b db 09 bc b4 e2 11 3c
       -0.01955231 0.0046692374 -0.00841407 0.008904148

node_model.0.weight f4 [16, 48]
000000 b4 36 31 3e 89 c8 fc 3b 39 18 0d 3d e4 01 80 bd
       0.17306024 0.0077143353 0.03444693 -0.062503606
000010 dd fb 77 bc 88 ce 5d bc 41 12 16 3d fa a6 a1 3d
       -0.0151357325 -0.01353801 0.036638502 0.078931764
000020 0a c0 96 3b f6 ad a2 bd 21 0b fe 3c 14 35 5f bd
       0.0046005296 -0.07943337 0.031011166 -0.05449398
000030 46 ca 09 3e 81 0a a4 bd f0 76 08 3e 19 7c b9 3c
       0.13456067 -0.08009816 0.13326621 0.022642182
000040 c6 24 67 bd c4 2c 74 3d 5f c9 17 be af fc 1e bd
       -0.056431554 0.059613004 -0.1482291 -0.038815197
000050 7c 4b c9 3d b7 f4 a8 3d 12 2d 22 be fc 19 a5 3d
       0.098288506 0.08249801 -0.15837505 0.08061597
000060 b3 ea b8 bc 5d ce f9 3c ae 93 a0 bd 65 ae f9 3d
       -0.02257285 0.03049391 -0.07840668 0.12191466
000070 23 68 37 3c 28 49 9c 3d b4 21 1b 3d 3a 8d 89 bd
       0.011194262 0.07631141 0.03787394 -0.0671639
000080 e4 91 11 bb 97 1b e6 bd 02 4e f8 3d 99 c6 56 3d
       -0.0022212202 -0.11235731 0.12124254 0.05243549
000090 88 b0 1f bd 2c c8 4a bc ad 9a ce bc ca 27 c8 3c
       -0.038986713 -0.012376826 -0.02522024 0.024433035
0000a0 f5 b1 f8 bd 46 97 1c bd b0 06 07 3c 17 da 9d bc
       -0.121433176 -0.038230203 0.0082413405 -0.019269032
0000b0 92 da 10 bd a3 88 19 be 25 6b 26 3e c4 e5 cb 3b
       -0.035364695 -0.14993529 0.1625181 0.0062224586
0000c0 87 f3 ea 3d 9a d6 f4 3d 88 35 9a 3d a5 cc c4 3b
       0.114722304 0.119549945 0.075297415 0.006005841
0000d0 91 ac 5d 3d 92 6f bf bd 29 0c b0 3d d9 91 46 bb
       0.05411965 -0.09347452 0.08596069 -0.0030299334
0000e0 ea 8f 44 bd f1 f1 ce 3d a2 8f 97 3c 8f f2 73 bd
       -0.04798881 0.101047404 0.018501107 -0.059557494
0000f0 e5 f2 d1 3d f6 63 02 3e c8 91 ba bd ee 3b d1 bd
       0.102514066 0.12733445 -0.09109837 -0.10216509
000100 21 ed ed bd d7 41 0e 3c 27 c0 82 3b d5 14 03 be
       -0.116174944 0.00868269 0.0039901915 -0.12800916
000110 1e 8a f2 bd 86 c1 12 3d fb a7 d1 3b 1d 7a 51 3c
       -0.1184275 0.03582909 0.0063981987 0.012785462
000120 bc 98 e1 3b 5c 47 6e 3c d8 4a 34 3d e0 f1 b9 3d
       0.0068846624 0.014543381 0.04401669 0.09079337
000130 b1 78 fc 3c 82 e6 f5 bd 56 27 2f bc bc 78 96 bd
       0.030819269 -0.120068565 -0.010690531 -0.07347247
000140 cd 1c 13 be 9e c3 0d 3d 87 fb ba ba 46 53 cf 3d
       -0.14366455 0.034610383 -0.0014265635 0.10123305
000150 ea 1d 9e 3d f4 6d 2c bd 77 0b d9 3d 74 97 39 3c
       0.077205494 -0.042097047 0.1059789 0.011327613
000160 b8 a4 aa 3c 0d 4a 60 3d 24 97 c3 3c 2a f6 1c be
       0.020830497 0.05475812 0.02387578 -0.15328279
000170 fe 40 5c 3d a4 de 11 be b8 c4 1b 3e 4d 1c 99 3d
       0.05377292 -0.14245087 0.15211761 0.07476101
000180 84 2e da 3d b7 24 11 3d 6f 11 da b9 a9 e8 02 be
       0.106534034 0.035435405 -0.0004159319 -0.12784065
000190 a4 44 05 3e a6 ff cd 3d 5d b7 f3 3c 63 a6 49 bd
       0.13014466 0.10058527 0.02975052 -0.049230944
0001a0 2d 0f e0 bd 0d ba f6 bd 84 65 72 bd ae cc 0b 3e
       -0.109403946 -0.12047205 -0.059178844 0.13652298
0001b0 63 fa 9e bd ce 72 c2 bd 96 c9 f2 3d d1 09 90 3d
       -0.07762601 -0.094945535 0.11854856 0.07033122
0001c0 7a cd 7d bd 48 d2 ea 3d d1 9c ed 3c 02 47 c8 bd
       -0.061963536 0.11465889 0.02900544 -0.09779169
0001d0 16 11 19 3e fc a4 3c 3e c0 bd 6d 3a 90 7b 85 bd
       0.14947924 0.18422312 0.00090691075 -0.06517708
0001e0 e9 48 28 be 7e 92 5a 3d 26 f2 c7 bc 7d a2 0d 3d
       -0.16434063 0.053362362 -0.024407458 0.03457879
0001f0 f8 df 8f 3c e0 7a aa 3d f9 fe a9 bd 69 43 ec bc
       0.017562851 0.08324218 -0.08300585 -0.028840737
000200 45 eb e8 bd de 3c 5f bd 75 e0 d4 3d 32 f5 32 3d
       -0.11372999 -0.054501407 0.10394374 0.043690868
000210 b3 16 5a 3c 92 e3 16 ba 7e 54 a2 3c 7f d8 74 bd
       0.013311076 -0.00057559565 0.01981568 -0.05977678
000220 11 ad c7 3c 64 a2 f9 bd 7c 24 d8 bc 73 86 8d 3d
       0.024374517 -0.12189177 -0.026384585 0.0691041
000230 7f ac a0 bd db 4b 92 bd b9 b7 36 3e 2f a8 70 3d
       -0.07845401 -0.071433745 0.17843522 0.058754142
000240 e0 d1 fc bb 80 e0 17 3d 40 cc 1d 3b 3c d8 2f 3d
       -0.0077154487 0.037079334 0.0024078041 0.042930827
000250 ed a1 01 be 00 9f 91 bc 5e ad a7 3d be 32 11 be
       -0.12659426 -0.017776012 0.08187364 -0.14179513
000260 30 4b f9 3c ac dc f2 3d 04 dd 9e bc be bd 0f be
       0.03043136 0.11858496 -0.019392498 -0.14037225
000270 2a e8 a2 bd 68 60 96 3d f4 b8 a9 bd c0 45 33 bd
       -0.07954438 0.07342607 -0.0828723 -0.04376769
000280 08 e0 32 3d c3 c4 8c bd a0 ad 51 bd b8 76 e0 3d
       0.043670684 -0.06873467 -0.051190972 0.10960144
000290 4c 18 0c 3d 30 87 50 3d 3d 7f 9d bd 1e b8 84 bd
       0.03420286 0.050910175 -0.076902844 -0.0648043
0002a0 29 74 f7 bd 54 13 c7 bd b4 5b ce 3d 44 b6 ad 3d
       -0.12082703 -0.097204834 0.10076085 0.0848203
0002b0 dc d7 9d 3d 70 08 90 3d 97 9e a5 bd 8c 10 d2 3d
       0.077071875 0.07032859 -0.08086889 0.10257062
0002c0 e8 9d 85 3c d8 4a 64 3d 6c 19 e4 3d 3c a7 29 3d
       0.016310647 0.05573544 0.11137661 0.041419253
0002d0 10 75 b8 3d 24 cb df 3d 00 e7 b0 ba 08 4a fd 3d
       0.09006703 0.10927418 -0.0013496578 0.12367636
0002e0 20 7e 0c 3d 88 1e 96 3d a0 ec 01 3d ec 3e a0 3d
       0.03429997 0.07330042 0.031719804 0.078245014
0002f0 e4 eb e1 3d fe 79 d2 3d c0 8c 65 3d 40 d2 da bd
       0.11031321 0.102771744 0.056042433 -0.10684633
000300 45 39 96 3d 73 6f f7 3c 4f 0e c3 3d bb f5 7d bc
       0.07335142 0.03020451 0.095242135 -0.015500481
000310 0d e9 ef bd 11 b8 6b 3d ba 3b b8 bd 03 fe dd 3d
       -0.11714373 0.057548586 -0.08995767 0.108394645
000320 88 c5 fc 3b ae 9f bb 3d c7 4f 33 be 90 e6 ed bc
       0.0077139772 0.09161316 -0.17510901 -0.029040605
000330 bd d9 f5 bc 81 f4 7d 3d 63 96 f8 3d 76 53 08 be
       -0.030011052 0.062000755 0.12138059 -0.13313088
000340 de fb 32 3e 5d 05 a4 bc 03 f5 ae bd 16 d0 20 be
       0.17478892 -0.020022089 -0.08542826 -0.15704378
000350 eb e2 eb bc 49 fc 2a be 98 80 6c 3d 90 19 e0 bd
       -0.028794726 -0.16697802 0.057739824 -0.10942376
000360 4c 5f 82 3d da 23 b6 3d 48 c3 d1 3d 7e 8a 50 be
       0.06365833 0.08893557 0.10242325 -0.2036533
000370 87 1a 9b bd 14 4e a8 3c 67 3f c8 3d e9 f0 be 3d
       -0.07573419 0.020545043 0.09777718 0.09323294
000380 9d 60 13 3e b9 b1 bd bd aa 63 2f bd 00 1e f4 3b
       0.14392324 -0.092624135 -0.042819656 0.0074498653
000390 18 f1 00 3e c2 43 7c 3e 1c e0 9c 3d 1a c0 29 be
       0.1259197 0.24635223 0.07659933 -0.16577187
0003a0 9d d2 48 3d b8 30 82 bd 45 b6 40 3e 11 11 50 3e
       0.04902898 -0.063569486 0.1881953 0.2031901
0003b0 75 e2 3c be 4f 0e c7 3b 35 00 80 3d 84 4c 27 be
       -0.18445762 0.0060747038 0.062500395 -0.16337782
0003c0 50 ff 81 3d 01 a1 d7 bd ef 9c d0 3c 0c e1 ed 3d
       0.06347525 -0.10528756 0.025465457 0.1161519
0003d0 e8 82 e2 bc 9e 4b 06 be f0 2b ba bc 52 30 8e bd
       -0.027650312 -0.13114783 -0.02272603 -0.0694281
0003e0 3e b0 11 3d 3b dc d9 bc f8 9c 0a 3e 7d 0e 5e 3d
       0.03556847 -0.026594272 0.13536441 0.054213036
0003f0 b2 cb 1f bb b5 f2 29 3d 7f 5a 00 be f0 8a 02 3e
       -0.0024382886 0.04149123 -0.12534522 0.12748313

node_model.0.bias f4 [16]
000000 fd 2e b4 bc 59 e7 31 bb 62 b7 14 3e 00 51 6d 3c
       -0.021995062 -0.002714595 0.1452308 0.014484644
000010 aa fc f9 3d 9e 9d 16 be 39 d9 d6 bd 04 ed 3c 3d
       0.12206395 -0.14708564 -0.10490651 0.046124473
000020 e4 e3 27 be af a2 3c bd 99 3e 52 bd 70 62 94 3d
       -0.16395527 -0.046053585 -0.05132923 0.07245338
000030 94 9e 1e 3e 72 34 92 3d 41 a6 8c bd c9 9a 9a bd
       0.1549018 0.071389094 -0.06867648 -0.07549054

node_model.2.weight f4 [16, 16]
000000 e0 c0 cd bc 2d 91 a8 bd ca b3 9c 3e ee 13 53 3e
       -0.025116384 -0.08230815 0.30605918 0.20613071
000010 f2 32 8f bd 96 1e a3 3c d0 53 6a be 89 48 40 be
       -0.06992139 0.019912045 -0.22883534 -0.1877767
000020 cd 00 72 bd 67 2b 2c bd 54 e2 14 3e 06 7e 22 3e
       -0.059082795 -0.04203358 0.14539462 0.15868387
000030 3a b7 87 bd 90 5f d6 3c 40 8d 67 3e b0 61 45 be
       -0.066267446 0.026168615 0.22612476 -0.19275546
000040 a4 5f 27 3e 9f c2 54 be cf 4f fb bc 60 9b 82 bd
       0.16345078 -0.20777367 -0.030677704 -0.06377292
000050 48 a1 b3 bd 47 7a 5e 3c ea 4f 6d be 98 e4 7b 3e
       -0.08770996 0.013578958 -0.23175016 0.2459892
000060 b3 c5 c3 bd b4 cc 2a be 0b 14 28 3e 56 c6 ab 3d
       -0.095591925 -0.1667965 0.16413896 0.08387439
000070 23 d8 ca 3d bb 86 dd bc 98 ab 07 be d0 a1 2d be
       0.09904506 -0.027041784 -0.13249052 -0.16956258
000080 13 29 2c 3e cc 68 34 be 6a b0 88 be 38 86 cd bd
       0.16812544 -0.17618102 -0.26697093 -0.10035366
000090 6b 0c ed bb 48 4f f6 3d cb 7f 53 3e e4 39 cc bd
       -0.0072341464 0.120268404 0.20654218 -0.09971979
0000a0 50 7a 86 3c 78 c9 15 3e 81 b9 00 3e e5 07 08 3e
       0.016415745 0.14627635 0.12570764 0.13284262
0000b0 b0 72 93 3d 13 8b 72 3e 37 c4 76 be b2 3f 1e be
       0.07199609 0.23685865 -0.24098288 -0.15453985
0000c0 3a e9 4c 3e 7d 10 19 3e 9a 82 d1 bd aa 5d 03 3e
       0.20010844 0.14947696 -0.102299884 0.12828699
0000d0 c3 cc 60 be db ee 17 be 44 15 1f 3e 93 0b 30 3e
       -0.2195311 -0.1483721 0.15535456 0.17191915
0000e0 a7 19 81 be 44 f5 e9 3d e8 01 6a 3d 62 3c 50 be
       -0.25214884 0.11423734 0.057130724 -0.20335534
0000f0 1f 32 64 be a8 5b 35 3e dd 04 d7 bd 08 de 11 3e
       -0.22284745 0.17710745 -0.104989745 0.14244854
000100 2c 98 c1 bd 26 a3 10 3e 25 50 04 be 02 27 36 3e
       -0.094528526 0.14124736 -0.12921198 0.17788318
000110 b3 55 7c bd 69 33 76 3e 70 a1 32 3c 7e 18 18 be
       -0.061605167 0.24043049 0.0109027475 -0.14853093
000120 f5 3b cc 3c 6b 5e 3d be 42 16 74 3e 25 65 42 be
       0.024930933 -0.18493049 0.23836616 -0.18983896
000130 34 56 82 3e a3 e9 0c 3e 9b 58 12 bd 42 5f 26 be
       0.25456393 0.13761 -0.035729032 -0.16247275
000140 62 7b 7a 3d d4 a5 76 bd 79 fd 0d 3e 06 c2 17 3e
       0.061152823 -0.06021674 0.13866223 0.14820108
000150 dd 3e 8f be a1 21 fc bc 0d 5d c9 bc a7 24 3a 3e
       -0.27977648 -0.030777754 -0.024580503 0.18178044
000160 8b d4 7f bd bc 45 a9 bd 94 53 c3 3d c9 9c bf bd
       -0.062458556 -0.08265254 0.09537426 -0.09356076
000170 40 18 86 be 73 b4 a3 3c 4a 98 01 3e 70 96 b1 bc
       -0.26190376 0.019983506 0.1265575 -0.02167818
000180 8a 36 1c 3d d4 b1 ac 3d e1 0b ac 3d 68 73 6c 3e
       0.03813795 0.084323555 0.08400703 0.23090899
000190 46 c0 3e 3d 7d ed 0e be e3 2e 98 bd a7 87 b2 bd
       0.046570085 -0.13957782 -0.07430818 -0.0871728
0001a0 71 f1 56 be f6 74 26 3d 88 d6 fd 3c 62 d4 72 3c
       -0.2099054 0.040638886 0.030986086 0.014821144
0001b0 24 df 64 3e aa 79 4c be 49 5d 56 be b0 55 9c 3d
       0.22350746 -0.19968286 -0.20934023 0.07633531
0001c0 32 a5 bc bd 3c 4e fb bd 11 0d 16 3c 64 12 aa bd
       -0.09211196 -0.122707814 0.009158389 -0.08304289
0001d0 9e 99 c0 bc 9d f0 12 3e 11 45 75 3e 7f 06 2b 3e
       -0.02351075 0.14349599 0.23952128 0.16701697
0001e0 21 21 ff 3d ef 31 46 3e 60 36 45 3d 36 ff a6 3c
       0.12457491 0.19354986 0.04814756 0.020385366
0001f0 c0 f1 35 be 16 57 c5 3d 09 cf 52 3d 44 95 8f bd
       -0.17768002 0.09635751 0.051466975 -0.07010892
000200 d5 81 84 be 44 27 04 3e f8 ac b3 3c f8 5d c9 bd
       -0.25880304 0.12905604 0.021933064 -0.09832376
000210 2e ea a0 3e c7 6e ca bc 79 be 28 bd 34 3b 15 bd
       0.31428665 -0.024711026 -0.041197274 -0.036433414
000220 62 e8 70 be 24 10 02 be b6 50 26 bd c5 99 95 3d
       -0.23526147 -0.1270147 -0.040604316 0.0730472
000230 f4 a9 c7 bd 73 45 72 be 50 1f 63 3c ce b2 2b 3e
       -0.09749213 -0.23659305 0.013862446 0.16767427
000240 11 9f 96 3d e4 21 0f 3e b2 69 88 3d 00 ba f2 ba
       0.07354558 0.13977772 0.06660785 -0.0018518567
000250 39 e5 47 bd ae ce 2b 3e cd 4d 02 be 2d 25 6d 3e
       -0.048802588 0.16778061 -0.12724991 0.23158713
000260 21 65 67 be e9 9d 69 be db 61 85 3d cf 39 21 be
       -0.22597171 -0.22814144 0.06512805 -0.15744708
000270 10 b4 72 3e c1 87 70 3e f1 49 5d 3e ba a3 14 be
       0.23701501 0.23489286 0.21610238 -0.14515582
000280 19 40 23 3e ee 94 2f 3d a0 76 06 bd ea 4a 35 be
       0.1594242 0.04286664 -0.032827973 -0.17704359
000290 2c e2 97 3e 1b 91 c6 bd f3 13 39 3e 60 cb 2c be
       0.29664743 -0.096956454 0.18074016 -0.16874456
0002a0 e5 cf 6f be 4c 73 2e bd 98 3b 6c be 6c a3 54 be
       -0.23419149 -0.042590424 -0.23069608 -0.20765465
0002b0 ed 4d 1a 3d af 9e e9 bd 15 72 cf bd dc f3 0f be
       0.037671972 -0.114072196 -0.10129181 -0.14057869
0002c0 17 32 a5 bd 31 25 f0 3d 0e a1 1f be 58 13 ae bd
       -0.080661945 0.11725844 -0.15588781 -0.08499783
0002d0 12 65 02 be 4e b0 c2 bd d6 cd 0e 3e eb e7 40 bd
       -0.12733868 -0.09506284 0.13945708 -0.047096174
0002e0 82 17 c3 bc 26 dc 58 3e ee 10 bc 3d 45 b8 7d 3e
       -0.02381492 0.2117773 0.091829166 0.24777324
0002f0 e1 19 95 be 1b d7 80 be dc 26 85 3d e4 f7 48 3e
       -0.29121307 -0.25164112 0.065015525 0.19625813
000300 2d a4 f5 bd db b1 51 be 60 19 77 3d b0 24 81 3c
       -0.11994205 -0.20478003 0.060326934 0.015764564
000310 e9 a0 c3 3d 1e 16 12 3e f7 a0 20 3e 64 94 c9 3c
       0.095521756 0.1426625 0.15686403 0.024606891
000320 8c 29 44 3e 0d c5 44 3e 3d ce 47 3d 4b 93 66 be
       0.19156474 0.19215794 0.04878067 -0.22517125
000330 11 d7 33 3d 00 33 01 3e 4c 1b 20 3e 44 75 05 3e
       0.043906275 0.12617111 0.15635413 0.13033015
000340 a1 2e a8 3d 4d dd 2e be a1 ac 61 be 6a 1b 31 3e
       0.08212019 -0.17076607 -0.22038509 0.17295614
000350 3e 80 3b 3e d6 6f 17 3e 24 b2 45 3d c7 fa 86 bd
       0.1831064 0.14788756 0.04826559 -0.06590801
000360 28 00 53 bd 03 ca 28 3e 6d 8f 35 3e a9 f5 ba bd
       -0.05151382 0.16483311 0.17730494 -0.09128887
000370 ed 61 18 3e d0 d6 d4 3d 63 06 c3 bd f4 de 34 3e
       0.14881106 0.10392535 -0.095227025 0.17663175
000380 b1 3d e2 bd 5e 0c 10 be 83 7b 1d be ac 0f 1a 3e
       -0.11046923 -0.14067218 -0.15379147 0.15045041
000390 16 97 e9 3d 7d 74 b3 3c 30 0c 16 3e ed e2 7d 3e
       0.114057705 0.021906132 0.14653087 0.24793597
0003a0 4e d1 28 be 42 51 28 be 94 21 38 3c 07 4a ce bd
       -0.16486093 -0.16437247 0.011238474 -0.10072713
0003b0 0c a3 83 bd 57 b8 9f bd 77 4b 43 3e 0c 3d 93 bd
       -0.06427583 -0.07798832 0.19071756 -0.07189378
0003c0 ef f9 23 3e b1 3d 18 be 73 21 6e 3d 7c 5c e6 3d
       0.16013311 -0.14867283 0.05813737 0.11248109
0003d0 60 1c ea 3c fc 27 8c 3c f6 91 d1 3c e4 46 a4 3c
       0.028577983 0.01710891 0.025582295 0.020053335
0003e0 ce e9 df 3b 26 e8 44 be d2 f2 40 3e df 67 53 3e
       0.0068332916 -0.19229183 0.18842629 0.20645092
0003f0 ed 41 66 3d 73 96 ad bd e1 c0 f9 3c 78 ae fe 3d
       0.056215215 -0.084759615 0.03048748 0.12435621

node_model.2.bias f4 [16]
000000 9f 2b cc bd 6a 3c c0 3b a4 d8 66 3d 43 f7 16 be
       -0.099692576 0.005866577 0.05635895 -0.1474276
000010 75 df 30 3e fe 53 6d bd cc 4a 09 3e 8c 4d 4c be
       0.17272742 -0.05794143 0.13407439 -0.19951457
000020 12 f5 1d bd 44 43 71 3d ef ea 5d be bc af 1c be
       -0.038563795 0.05890204 -0.21671651 -0.15301412
000030 c0 e2 c7 bc 56 34 41 be d2 2e 09 3d e9 f1 2e be
       -0.024400115 -0.18867621 0.033491917 -0.17084469

node_model.3.weight f4 [16]
000000 2d a3 99 3f ba 42 76 3f 70 aa 7d 3f 6f b2 7f 3f
       1.2002922 0.96195567 0.9908819 0.99881643
000010 57 f4 88 3f 9a f1 8b 3f e7 18 95 3f 2a 5a 85 3f
       1.0699567 1.0933106 1.1648225 1.0418141
000020 07 4e 8f 3f 67 8b 94 3f 95 9e 8d 3f 93 22 86 3f
       1.1195687 1.1605042 1.106402 1.0479301
000030 a1 58 90 3f 13 6e 94 3f 59 0c 97 3f 57 4d 87 3f
       1.1277047 1.1596092 1.1800643 1.0570477

node_model.3.bias f4 [16]
000000 17 f4 de 3d 5f 5a f0 bc 22 29 fb 39 3d 37 95 3d
       0.108864 -0.029339967 0.00047905097 0.072859265
000010 10 24 c0 3c ff f0 fa 3b 1d 1f d4 3d 32 4e 93 bd
       0.023454696 0.0076581235 0.10357497 -0.07192649
000020 98 78 9a bd b6 48 c3 3d 1f 53 b2 bd 4c 81 d1 bc
       -0.07542533 0.09535353 -0.0870726 -0.025574349
000030 9d fe e2 bd 29 52 d6 bd 45 97 bf bd 1c b0 38 3d
       -0.1108372 -0.104648896 -0.09355024 0.045089826

edge_model.0.weight f4 [16, 96]
000000 65 bc 5f bc e7 36 44 bc b4 19 87 bc 1a 53 ee 3d
       -0.013655757 -0.01197598 -0.016491748 0.11636944
000010 32 9f 01 bd e7 65 06 bd 1b 5c 53 bd d1 1e ec bd
       -0.03164596 -0.032812025 -0.05160151 -0.11529315
000020 a0 46 9f bd 7c da 65 3c d4 84 89 3c 5c f4 fd 3c
       -0.077771425 0.0140291415 0.01678697 0.031000309
000030 44 4a b5 bd 1f e7 cf 3d 3f 6c 3a 3c 31 3e cc bc
       -0.08852056 0.10151505 0.011378347 -0.024931999
000040 c0 6f 06 bd 37 2f 77 3d 20 bf 84 3c f9 e7 b2 3c
       -0.032821417 0.060347762 0.016204417 0.021839129
000050 3d 8a 70 bc 12 fb 0c 3d e3 f2 c8 b9 52 08 57 bd
       -0.014681396 0.034419127 -0.00038327937 -0.05249817
000060 4b 70 2b 3d 89 54 a1 bb 4c 57 7a bd 37 8b a7 bc
       0.041855138 -0.0049234075 -0.06111841 -0.020452125
000070 3e 25 92 3c 76 26 81 bd 37 b1 55 bd ab 02 17 3a
       0.017840024 -0.06306164 -0.05217096 0.00057605904
000080 dd 46 1d bd 9e fd c8 3c c0 87 14 3d d2 1f bb bd
       -0.03839766 0.024534997 0.036262274 -0.091369286
000090 46 41 35 bd f5 49 70 bc 8b 6f 08 bd e9 bf cb 3d
       -0.044251703 -0.01466607 -0.0333095 0.09948713
0000a0 ad c0 6e 3d 82 62 11 bd 02 c0 6b bc 78 54 03 3d
       0.05828922 -0.035494335 -0.01438904 0.032062978
0000b0 c5 28 d4 bd ce ea 21 bb b8 cb b1 bb 90 d1 bb 3d
       -0.10359339 -0.0024706605 -0.0054258965 0.0917083
0000c0 fc d5 c3 3c 0d 18 84 bd bc c0 93 3d ed a3 90 3d
       0.023905747 -0.064499 0.072144955 0.07062516
0000d0 16 5a a1 3d 1b a8 b4 3d 10 09 b5 bd 0a 8b cd bb
       0.07878511 0.08821126 -0.08839619 -0.0062726783
0000e0 04 68 89 bc 70 4c 74 bd 5b 54 a6 3d 36 2f ac 3d
       -0.016773231 -0.05964321 0.08121558 0.08407442
0000f0 d0 f7 c5 bc 25 bb 26 3c ff b9 b7 bd a9 9d e3 bd
       -0.024166018 0.010176455 -0.08971023 -0.11114056
000100 ad 0f af bd 18 91 04 bd 4c f2 b5 3d 16 f2 9f bd
       -0.08547912 -0.032364935 0.08884105 -0.07809846
000110 db 25 a8 3d a6 8f 70 3d f4 65 3a bd 6e 37 b0 bd
       0.08210345 0.058730744 -0.045507386 -0.086043224
000120 c4 69 90 3d cc c6 14 3d 21 72 a0 3d 2e 1d c0 3d
       0.07051423 0.0363224 0.07834268 0.093805656
000130 59 a6 99 3d 1f db 5c 3d 27 23 c2 3b 16 dd 24 bd
       0.075024314 0.053919908 0.0059246006 -0.040249906
000140 00 c5 a4 bc 94 2a a6 bd 71 75 e7 bc 4b 2b 67 3d
       -0.020113468 -0.0811359 -0.028254243 0.05643777
000150 25 28 c3 bb c3 70 ef 3d 11 e3 97 3d 18 0a aa 38
       -0.0059557133 0.116914295 0.07416356 8.108112e-05
000160 e0 37 71 bd f5 73 39 3d 2a 18 89 3d a7 26 2b bc
       -0.058891177 0.0452766 0.06694062 -0.010446227
000170 7e 15 26 3d 28 cb 30 3d f0 dd 88 bd e0 5f 76 bd
       0.04054784 0.043162495 -0.06682956 -0.060150027
000180 55 0c b9 3c 4d 5c ae bd f2 fd c8 bb a3 8f 29 3d
       0.022588888 -0.08513699 -0.0061337883 0.04139675
000190 2d 48 70 3a 1c c1 79 bd 18 8d bb bd 8e 1b c4 bd
       0.00091660285 -0.06097518 -0.09157771 -0.09575568
0001a0 5c a3 8a bd 7c 49 b9 bd 8b a8 dd ba 89 dc 82 bd
       -0.067694396 -0.09047219 -0.0016911192 -0.0638972
0001b0 a7 e9 48 bc da c0 91 bd 4a 6d 52 3d b3 74 9a 3d
       -0.012262738 -0.07116862 0.051373757 0.0754179
0001c0 ce 43 a8 3d 20 13 5f bd a4 dc 88 3c 4e 74 8f bd
       0.08216058 -0.0544616 0.016706772 -0.07004605
0001d0 91 68 cd bc 15 7e 88 bc 3c c7 57 bd 88 8d 55 3d
       -0.025074275 -0.016661683 -0.05268024 0.052136928
0001e0 8a 44 bc bd 9b 90 e2 bb 98 43 71 bd 2e 44 a1 bd
       -0.0919276 -0.006914211 -0.058902353 -0.07874332
0001f0 fd 73 ef 3c 23 80 89 b9 e4 d0 13 bd 5e 0b c8 bd
       0.029230112 -0.00026226146 -0.036087885 -0.09767793
000200 e5 da 1c 3d 94 2c 5a 3b 8c c4 5d bd ff c1 59 bd
       0.03829469 0.003329073 -0.05414252 -0.053163525
000210 a2 ae 54 bd 23 88 ad 3d 4e da c4 3d b1 f6 ea 3b
       -0.051924355 0.08473232 0.09611951 0.007170521
000220 92 59 cc 3c 08 32 d6 bd a7 67 d8 3c 7b a6 83 3c
       0.024945054 -0.104587615 0.026416613 0.016070595
000230 d2 32 61 bd 95 b5 07 3d 87 db 57 bd 75 ab aa 3d
       -0.054980107 0.033132154 -0.052699592 0.08333484
000240 53 56 96 bd 76 f3 43 3d d1 18 0b 3b d0 ff 93 bd
       -0.07340684 0.047839604 0.0021224509 -0.07226527
000250 2d bd 9e 3d 76 1a 64 3d c7 c7 f7 3b 14 6b d0 bc
       0.07750926 0.055689298 0.007561657 -0.025441684
000260 9a a0 48 bb 70 94 75 3d 08 ea cf bc ec dc ae 3b
       -0.0030613304 0.059956014 -0.02538015 0.0053363945
000270 c8 fc c8 bc cc 80 47 3d 6f ea 20 bd 40 b6 25 bd
       -0.024534598 0.048706815 -0.039286073 -0.04045701
000280 72 24 e1 bd 74 b3 bd bd d8 eb 76 3c 6a f0 e2 3c
       -0.109932795 -0.092627436 0.015070878 0.027702529
000290 29 e0 b9 3c 10 e3 b8 3c ca 3b 01 3d ed 45 10 bd
       0.022689896 0.02256921 0.03155116 -0.035222936
0002a0 3c 48 24 3d fb ea d2 3d ba 8e 4c 3c 42 30 be bd
       0.04010795 0.10298725 0.012485201 -0.09286548
0002b0 d6 22 4a bd 54 7d b8 bd 9c 58 68 3c c7 c2 ab bd
       -0.04934963 -0.090082794 0.014181282 -0.0838676
0002c0 fe 02 82 3d 02 32 b1 3b 67 bb 14 3d ad 4c d8 3d
       0.06348227 0.0054075727 0.036311533 0.105615
0002d0 89 7d db bd 0c a8 bd 3d 94 4a 47 bd 87 69 cf bd
       -0.10717303 0.09260568 -0.048655108 -0.101275496
0002e0 f4 81 07 bd 9a a5 67 3d 10 8b ba 3d 9f 6d 4e 3d
       -0.033082917 0.056554414 0.09108555 0.05039751
0002f0 22 4e b6 3c 6b a4 49 3d 33 d5 ad bd c6 f0 67 3d
       0.022254054 0.049229067 -0.0848793 0.056626104
000300 f8 8f e0 3a b7 3d 4e 3c 75 44 68 3d 35 9d ce bd
       0.001713275 0.012587956 0.05670591 -0.100885786
000310 0a bc 41 3d 46 e1 89 3c 05 a9 56 3d 13 79 09 3c
       0.04729847 0.016831052 0.052407283 0.008390683
000320 3e 5b 87 3d 3a 8c a6 3c 1f fd a5 3d 73 48 6c 3d
       0.066092 0.020330537 0.0810492 0.05768628
000330 43 40 50 3c 75 78 08 3d 2e 1a ff bc ca 65 75 bb
       0.012710634 0.033318 -0.031140413 -0.0037444704
000340 65 9c 39 3d f9 90 11 3d 90 31 c6 3d 6f 18 3f bd
       0.045315165 0.035538647 0.09677422 -0.04665416
000350 af e6 ae bc 77 dd ad bd 48 f4 fb 3b fe b7 4e 3d
       -0.021350233 -0.08489507 0.0076890327 0.050468437
000360 09 87 a0 bc 00 a7 2b 3d 57 40 52 3d 38 b7 25 bd
       -0.01959564 0.04190731 0.05133089 -0.040457934
000370 95 12 02 be 69 60 d8 bc 85 fd 61 3d ec 61 83 bd
       -0.12702401 -0.02641316 0.055173416 -0.064151615
000380 8c ac e2 3d fa c3 d8 bd 7f 77 a3 3d 76 63 8c bd
       0.11068067 -0.105842546 0.079817764 -0.06854908
000390 c3 d2 b5 bb 64 ce b2 3d c6 c0 66 3d f9 dd b9 3d
       -0.0055488064 0.08730772 0.056336187 0.09075541
0003a0 7b 75 8e 3d 1b 55 29 3c 9d 52 4b bd 86 49 4a 3d
       0.06956001 0.010335232 -0.049639333 0.049386524
0003b0 1b d1 59 bd 19 67 04 3d eb d2 98 bd 23 33 5d bd
       -0.053177934 0.032324884 -0.074621044 -0.054003846
0003c0 6d 26 2c bd 49 2e 50 3d 07 7d 42 bc 0b d0 50 bd
       -0.042028833 0.05082539 -0.011870629 -0.050979655
0003d0 ca 27 e8 bd fc 4b c1 bc 99 fa 03 3d 45 d0 34 bc
       -0.11335714 -0.023595802 0.03222141 -0.011035983
0003e0 97 17 73 3c 89 f6 b0 3d cf 06 d4 bd 21 d8 fc bc
       0.014837167 0.08640773 -0.10352861 -0.030864777
0003f0 30 27 c2 bc 66 69 9e 3c 60 32 15 be b3 78 39 3d
       -0.023700327 0.019337367 -0.14569998 0.045281123

edge_model.0.bias f4 [16]
000000 69 81 98 3d b6 2c 17 3d 68 94 f7 bc d4 ac a8 bd
       0.07446558 0.036907874 -0.030222133 -0.08236089
000010 16 88 ac bd 6c cd 7d bd 01 2d ac bd 81 e5 aa 3c
       -0.08424394 -0.061963484 -0.08407021 0.02086139
000020 1a f8 79 3d ce 78 a2 bc 0f 17 8f 3d 99 c5 1d 3d
       0.061027624 -0.019832995 0.0698682 0.038518522
000030 33 1b af bd c4 51 d2 bd 19 4e 82 bd 31 61 80 bd
       -0.0855011 -0.10269502 -0.06362552 -0.06268538
