tmp/tmp4model900.pt (torch, 23679 bytes, 25 tensors)

node_encoder.0.weight f4 [16, 5]
0.061881512 0.061392933 -0.36541212 -0.25938103 -0.44077855 -0.4234068 0.4465824 0.35538253
0.106060326 0.41053796 -0.17456861 -0.21938382 0.3686598 -0.023686916 0.08689632 0.23694162
0.20823352 -0.25607204 -0.172954 -0.4127303 0.037262138 -0.18390298 0.11563279 0.020806074
0.38531777 0.019568413 0.22235571 0.10528502 0.3967808 -0.20238237 0.3705694 0.3170376
-0.1742238 0.27413106 0.4061323 -0.24688748 -0.12183546 0.31191733 0.36059678 0.109537035
0.15766329 0.31934705 0.41646686 -0.2828423 -0.1840287 0.41865718 0.29178572 -0.19972521
-0.15174165 0.43971944 -0.26147154 0.26478842 0.30290288 -0.42889917 -0.47268903 0.11587862
0.18148734 0.3677797 0.055121183 0.3353129 -0.3660708 0.21870384 -0.43082255 0.29133022
0.1318896 0.28972003 0.21561122 -0.31019762 0.0046441555 0.05129413 0.055164307 -0.40921482
-0.23719124 -0.21066253 -0.24527526 0.36259016 0.22608316 0.19485115 -0.13406661 -0.39452916
00000000: 7877 7d3d 2877 7b3d 4c17 bbbe 97cd 84be
00000010: baad e1be c7c8 d8be 73a6 e43e b3f4 b53e
00000020: 2836 d93d 0832 d23e 1dc2 32be 27a6 60be
00000030: fac0 bc3e 100b c2bc b3f6 b13d d3a0 723e
00000040: 2b3b 553e e01b 83be da1a 31be 6351 d3be
00000050: 2fa0 183d 1051 3cbe e2d0 ec3d 8071 aa3c
00000060: 5f48 c53e f04d a03c 37b1 633e ac9f d73d
00000070: da26 cb3e 533d 4fbe 46bb bd3e c152 a23e
00000080: b967 32be e85a 8c3e 93f0 cf3e 12d0 7cbe
00000090: df84 f9bd a1b3 9f3e 24a0 b83e f454 e03d
000000a0: 7c72 213e 7581 a33e 253b d53e b5d0 90be
000000b0: 0572 3cbe 3c5a d63e f064 953e c484 4cbe
000000c0: 2a62 1bbe e822 e13e 99df 85be 5992 873e
000000d0: 1616 9b3e ac98 dbbe 4c04 f2be c551 ed3d
000000e0: d1d7 393e 9f4d bc3e c0c6 613d 22ae ab3e
000000f0: a26d bbbe e6f3 5f3e c694 dcbe 3c29 953e
00000100: 110e 073e 2f56 943e 30c9 5c3e 39d2 9ebe
00000110: 002e 983b cb19 523d f8f3 613d 9b84 d1be
00000120: 43e2 72be ebb7 57be 7029 7bbe 6ba5 b93e
00000130: 5882 673e 0f87 473e c248 09be baff c9be

node_encoder.0.bias f4 [16]
0.103706874 0.40216422 0.18643428 -0.3884921 -0.022089642 -0.00078436447 0.2809756 0.1949018
-0.29504615 -0.3796317 0.15141803 0.18573807 0.20825268 0.32132858 0.386202 -0.2048907
00000000: 4564 d43d 78e8 cd3e a1e8 3e3e 70e8 c6be
00000010: 56f5 b4bc cf9d 4dba 09dc 8f3e 5694 473e
00000020: 4a10 97be 165f c2be 540d 1b3e 1f32 3e3e
00000030: 3140 553e 2e85 a43e 45bc c53e dece 51be

node_encoder.2.weight f4 [16, 16]
-0.26249507 0.13162857 0.2288818 -0.19275494 -0.118874796 0.21199873 0.19420382 -0.03429464
-0.13327755 0.053593807 -0.23528871 -0.09741574 -0.040463876 -0.064527236 0.071210615 -0.00039418973
-0.2009159 -0.013922806 0.050032135 0.153385 0.005477601 -0.06447663 0.10754137 0.13962764
0.07538209 -0.1479881 0.09236572 0.053115107 0.14538527 -0.058459293 0.019466653 0.15661205
-0.018231483 0.14201024 -0.0421669 0.23207988 0.0067885946 -0.04580816 0.10038254 -0.015655326
0.20165107 -0.011955753 0.1758843 -0.056039393 0.036507342 0.09611086 -0.23903349 0.053806953
0.18548773 0.06581897 -0.058206145 0.015598271 0.08232066 0.051391233 -0.1328657 0.035173826
-0.2822605 0.030954719 -0.13194266 -0.15453799 -0.18136574 0.1959921 -0.03376544 -0.020590268
-0.09754052 -0.09805024 -0.16754572 -0.005803024 -0.16169266 -0.12947433 0.10977521 0.23754102
-0.07066923 -0.26514283 0.23250411 0.13868417 0.13686658 -0.0728923 -0.06027141 0.0030488363
-0.015826995 -0.024620907 -0.124553405 0.14958142 0.089631446 -0.04974196 -0.25574115 -0.12003835
-0.09493008 -0.112632334 0.05280065 -0.066155314 0.014537791 -0.2120231 -0.053502195 0.089843296
0.2532322 -0.22356053 0.038144697 0.13402036 -0.032303236 0.057120815 0.15074895 -0.23688963
0.13985127 -0.23679249 0.037565146 0.14701955 -0.11117618 -0.00034754735 -0.1995781 -0.01180168
0.104485825 0.10220542 0.060088146 -0.050545096 -0.09950647 0.17207938 0.044816818 0.08129982
0.09509277 -0.10087778 -0.044267267 0.2139856 0.19366084 -0.2793067 -0.21617077 -0.10049133
0.09262122 -0.14473097 0.09516576 -0.19812231 -0.067404285 0.15809005 -0.062636755 -0.090525165
0.039772943 0.21545821 0.04794504 -0.008834316 0.02249159 -0.20183103 -0.10344302 0.2440362
-0.099182054 0.14396398 -0.070200704 0.14499918 0.12848769 0.20707536 -0.11381437 -0.01269423
-0.15360391 0.109328285 -0.106716916 0.050005917 -0.1449163 -0.009390366 -0.18220104 -0.18035164
0.10734228 0.039626583 -0.05662477 -0.086395055 0.2509669 0.05918619 0.09372659 0.2831254
0.27916247 -0.041762803 0.15331931 0.032721378 -0.17992973 0.18325916 -0.0006448936 0.010221997
0.04680297 0.1823477 -0.07067776 -0.03810526 0.06554238 0.03061072 0.10307025 0.20748085
-0.089654945 0.17082185 -0.2189741 0.017565701 0.06860412 -0.24425396 -0.27472088 -0.08383571
-0.035782576 0.17290711 -0.056841817 0.19831754 -0.09419933 0.09866437 0.18942903 0.17607811
-0.051743697 0.094031624 0.11349619 -0.1767156 0.17680399 0.24694225 0.06956028 0.28740138
-0.025970237 -0.009186421 -0.035217036 0.053254295 0.09316726 -0.18832639 -0.08687381 -0.18994977
-0.036548857 0.061439335 -0.15002112 0.04161025 -0.24269667 0.09629982 0.13926679 -0.075433314
0.18093768 -0.07394858 -0.22413707 -0.18922839 -0.26118597 0.0460832 0.012720771 -0.23811251
-0.079809114 0.0099645695 -0.03516592 0.090650745 0.24222243 0.13470404 0.060989395 0.11371485
-0.12091982 -0.05726302 -0.08140887 0.04156517 0.11500457 0.07096526 -0.11809946 -0.2111649
-0.05421826 0.165204 -0.21393819 0.13868837 0.12137037 -0.10587514 0.20306437 -0.1245857
00000000: c165 86be a4c9 063e fe5f 6a3e 8d61 45be
00000010: a174 f3bd 3216 593e 5edd 463e 8978 0cbd
00000020: e979 08be 2e85 5b3d 86ef 70be e781 c7bd
00000030: 73bd 25bd db26 84bd dfd6 913d 40ab ceb9
00000040: e6bc 4dbe 7b1c 64bc 7fee 4c3d f510 1d3e
00000050: 737d b33b 530c 84bd a63e dc3d 8cfa 0e3e
00000060: ed61 9a3d 318a 17be 3d2a bd3d 3a8f 593d
00000070: e0df 143e 0373 6fbd 8878 9f3c e95e 203e
00000080: 315a 95bc 226b 113e 33b7 2cbd 59a6 6d3e
00000090: dc72 de3b 56a1 3bbd 5c95 cd3d 993f 80bc
000000a0: 9e7d 4e3e 10e2 43bc 041b 343e 9089 65bd
000000b0: b988 153d c5d5 c43d 32c5 74be ae64 5c3d
000000c0: 7ff0 3d3e 19cc 863d 9169 6ebd e48f 7f3c
000000d0: bc97 a83d 9d7f 523d f20d 08be 6e12 103d
000000e0: 7384 90be c094 fd3c fa1b 07be 353f 1ebe
000000f0: f1b7 39be 27b2 483e a14d 0abd ecac a8bc
00000100: 53c3 c7bd 90ce c8bd 1b91 2bbe 4b27 bebb
00000110: c392 25be eb94 04be d3d1 e03d f43d 733e
00000120: 07bb 90bd cdc0 87be 8f15 6e3e 3903 0e3e
00000130: c126 0c3e 8f48 95bd 27df 76bd fcce 473b
00000140: 9da7 81bc c9b1 c9bc db15 ffbd df2b 193e
00000150: b190 b73d 3abe 4bbd 81f0 82be abd6 f5bd
00000160: b46a c2bd c8ab e6bd 7f45 583d 707c 87bd
00000170: ea2f 6e3c 951c 59be 1e25 5bbd c3ff b73d
00000180: a7a7 813e 0ded 64be 9d3d 1c3d a23c 093e
00000190: 6650 04bd 84f7 693d ef5d 1a3e 3293 72be
000001a0: 2c35 0f3e bb79 72be e9dd 193d 4b8c 163e
000001b0: 56b0 e3bd 0437 b6b9 345e 4cbe d55b 41bc
000001c0: aafc d53d 1351 d13d fd1e 763d 6008 4fbd
000001d0: 0cca cbbd 9435 303e d791 373d 8580 a63d
000001e0: 00c0 c23d 0299 cebd 9851 35bd 0b1f 5b3e
000001f0: 074f 463e 4a01 8fbe df5b 5dbe 66ce cdbd
00000200: 32b0 bd3d 5b34 14be 44e6 c23d 93e0 4abe
00000210: 420b 8abd 5ce2 213e b347 80bd 4265 b9bd
00000220: f4e8 223d 14a1 5c3e 0562 443d cfbd 10bc
00000230: 4840 b83c cbac 4ebe efd9 d3bd a0e4 793e
00000240: f61f cbbd 4b6b 133e 63c5 8fbd aa7a 143e
00000250: 4792 033e 900b 543e 8217 e9bd 76fb 4fbc
00000260: 584a 1dbe 82e7 df3d 668e dabd 01d3 4c3d
00000270: f064 14be 0dda 19bc e992 3abe 1aae 38be
00000280: 45d6 db3d 7c4f 223d 60ef 67bd e4ef b0bd
00000290: bc7e 803e 386d 723d baf3 bf3d d0f5 903e
000002a0: 62ee 8e3e 790f 2bbd bdff 1c3e da06 063d
000002b0: 803f 38be 4aa8 3b3e 140e 29ba 2a7a 273c
000002c0: 79b4 3f3d 5bb9 3a3e 80bf 90bd 4314 1cbd
000002d0: 153b 863d 55c3 fa3c 7f16 d33d dc75 543e
000002e0: 039d b7bd eceb 2e3e bf3a 60be f2e5 8f3c
000002f0: 5180 8c3d b61d 7abe 37a8 8cbe 0fb2 abbd
00000300: c090 12bd 900e 313e f7d2 68bd c113 4b3e
00000310: 94eb c0bd 8c10 ca3d aff9 413e d24d 343e
00000320: 33f1 53bd a793 c03d b170 e83d eff4 34be
00000330: 1b0c 353e 6ede 7c3e 9f75 8e3d 4626 933e
00000340: 89bf d4bc a482 16bc bd3f 10bd 2d21 5a3d
00000350: 7ace be3d a2d8 40be e5ea b1bd 3182 42be
00000360: 41b4 15bd d0a7 7b3d 239f 19be 826f 2a3d
00000370: 7a85 78be d738 c53d f49b 0e3e c87c 9abd
00000380: ba47 393e 5a72 97bd 3084 65be 16c5 41be
00000390: 2bba 85be bdc1 3c3d c86a 503c c4d3 73be
000003a0: f672 a3bd 6f42 233c 240a 10bd 19a7 b93d
000003b0: 2809 783e dbef 093e 04d0 793d 55e3 e83d
000003c0: d0a4 f7bd a18c 6abd b2b9 a6bd 3d40 2a3d
000003d0: 8487 eb3d 3c56 913d 21de f1bd 9d3b 58be
000003e0: f713 5ebd 3d2b 293e 9d12 5bbe 5304 0e3e
000003f0: 0791 f83d 11d5 d8bd 1bf0 4f3e ca26 ffbd

node_encoder.2.bias f4 [16]
0.10545278 0.0041069053 -0.18170774 -0.13220775 0.10782912 -0.22634342 0.2148854 -0.117139764
-0.09407025 -0.1760431 -0.17378256 -0.2474997 0.09257711 0.20183635 0.044907518 0.23179157
00000000: a1f7 d73d 3893 863b 9811 3abe 7861 07be
00000010: 83d5 dc3d 92c6 67be eb0a 5c3e f9e6 efbd
00000020: e7a7 c0bd a444 34be 0ef4 31be 9070 7dbe
00000030: 1199 bd3d 30ae 4e3e f2f0 373d c55a 6d3e

node_encoder.3.weight f4 [16]
0.967954 1.0147085 1.0003723 1.0179993 0.9579428 1.0170264 0.9906386 0.9740418
0.98683536 0.9500344 0.9686642 1.0102085 0.99029547 0.9666068 0.97724205 0.97123206
00000000: d5cb 773f f8e1 813f 330c 803f cd4d 823f
00000010: bd3b 753f ec2d 823f 7e9a 7d3f ce5a 793f
00000020: 3ea1 7c3f 7435 733f 61fa 773f 834e 813f
00000030: 0184 7d3f 8b73 773f 892c 7a3f aaa2 783f

node_encoder.3.bias f4 [16]
-0.023198351 0.006888805 0.0049880017 -0.015166102 -0.036050193 -0.02048434 -0.00857571 -0.02816688
-0.012895696 0.051596213 0.015041787 -0.020181354 -0.005023942 -0.008986222 -0.035335302 0.027637452
00000000: 780a bebc 7cbb e13b 6472 a33b 3e7b 78bc
00000010: 5ea9 13bd c6ce a7bc 2281 0cbc 3bbe e6bc
00000020: 7848 53bc 8d56 533d d471 763c 5e53 a5bc
00000030: e19f a4bb f23a 13bc c0bb 10bd f067 e23c

edge_encoder.0.weight f4 [16, 4]
-0.5871535 -0.25827247 0.47849837 0.15713228 0.3724504 0.06262652 0.36022323 -0.23297715
0.47040147 -0.2751347 -0.5504979 0.18050924 -0.34584337 0.15498261 0.46687868 -0.20439857
-0.18904984 -0.021502078 -0.086435914 0.032675803 -0.060704254 0.46985662 0.22338142 -0.13703461
-0.17941946 0.02892142 0.2595278 -0.23419972 -0.18750164 0.37571067 -0.20320056 0.2654236
-0.42903858 -0.26383728 -0.029392729 -0.47738403 0.35261744 -0.24043435 0.3280799 -0.022542598
0.23688884 0.25958768 -0.28643668 -0.25442767 0.22019543 -0.27857718 0.5722321 -0.48313665
-0.41243547 -0.061576433 -0.3327731 -0.31060302 0.3680116 -0.011292676 0.3256905 0.39216337
0.28544524 0.39421603 -0.080743246 -0.46839142 -0.25231773 -0.51692736 0.06773657 0.22928928
00000000: b14f 16bf 4a3c 84be bdfd f43e 49e7 203e
00000010: d2b1 be3e 5542 803d 2e6f b83e 9091 6ebe
00000020: 76d8 f03e 75de 8cbe 6eed 0cbf 6ad7 383e
00000030: 6212 b1be c3b3 1e3e b90a ef3e dc4d 51be
00000040: 4896 41be 2025 b0bc 5005 b1bd 10d7 053d
00000050: 06a5 78bd 0c91 f03e 19be 643e cd52 0cbe
00000060: bcb9 37be 9dec ec3c d4e0 843e 0dd2 6fbe
00000070: 6e00 40be 265d c03e cf13 50be 9ae5 873e
00000080: f2aa dbbe ae15 87be 05c9 f0bc ae6b f4be
00000090: 468a b43e 6c34 76be 17fa a73e 41ab b8bc
000000a0: fd92 723e ade8 843e d4a7 92be 5844 82be
000000b0: e97a 613e aba1 8ebe ce7d 123f b05d f7be
000000c0: be2a d3be 9237 7cbd 3c61 aabe 5c07 9fbe
000000d0: 046c bc3e eb04 39bc e8c0 a63e a3c9 c83e
000000e0: e125 923e afd6 c93e b75c a5bd 00d1 efbe
000000f0: ca2f 81be 5a55 04bf 79b9 8a3d cfca 6a3e

edge_encoder.0.bias f4 [16]
0.077436864 -0.36293313 0.07217334 -0.46688202 -0.2911505 -0.2312684 0.33574647 0.46592033
0.29430458 0.3506579 -0.025819454 -0.18418385 0.29098615 0.4159505 0.053398944 0.2679465
00000000: 3897 9e3d 5fd2 b9be 9ecf 933d 290b efbe
00000010: ae11 95be a0d1 6cbe f6e6 ab3e 1c8d ee3e
00000020: 17af 963e 6f89 b33e 5283 d3bc b19a 3cbe
00000030: 23fc 943e 77f7 d43e dab8 5a3d 4930 893e

edge_encoder.2.weight f4 [16, 16]
-0.1587688 -0.0918626 -0.0762244 0.10887469 -0.0838038 0.28770515 0.25078118 0.049498953
-0.17654386 0.07417151 0.22686735 0.19267806 0.1527073 0.12510154 0.16951945 -0.042598903
0.040864173 0.028907819 -0.05430444 -0.03327203 -0.0725342 0.1024445 0.222638 -0.25245708
0.14264648 -0.18690167 -0.17765594 -0.22281104 0.23256469 -0.004142444 0.077259704 0.270181
-0.17576447 0.41778207 -0.13740332 -0.1692745 0.17515382 -0.09954727 -0.2520714 -0.028910128
-0.22657695 0.20112278 -0.19730708 0.016671449 -0.014477094 0.076939255 0.14554621 -0.3142816
-0.116061956 -0.2251973 -0.26656613 -0.14374949 0.037283182 0.18761037 0.004670573 0.24804765
0.03692545 -0.07804312 -0.100485295 0.10802482 0.22235683 0.17649268 -0.115683116 -0.06359522
-0.11708733 -0.4474108 0.058231752 0.116327986 0.093491435 -0.13024086 -0.159358 0.036462095
0.105931416 -0.19549094 -0.25302827 -0.0049283565 0.0033499487 0.21318711 -0.053156782 0.13208303
0.02107566 -0.38495776 -0.24707213 -0.081510894 0.033251673 0.16649133 0.24452616 0.18263803
0.19471806 0.07032488 0.20227718 -0.19485469 0.041724466 0.16807804 0.24578665 0.21488287
0.12888506 0.08197301 0.13207857 0.15082414 -0.16090289 0.13292569 0.13377678 0.05007977
0.16646379 -0.14695676 -0.04103096 0.15561448 -0.21218984 0.089259304 -0.019476335 0.108012415
-0.2862792 0.32307222 0.07191817 -0.070705526 0.0244779 0.24060367 0.03976306 -0.11280015
-0.063543744 0.04707895 0.08919578 0.09581955 0.051267255 0.15817694 0.21269493 -0.2591623
0.08325248 -0.5791877 -0.078856654 0.14934716 -0.08538127 -0.039026152 0.15545982 -0.14264484
0.22671475 -0.18961287 0.04910316 -0.3180508 0.087151654 0.0805079 -0.053497806 0.2802021
0.19818956 -0.21422681 0.08979617 -0.19292092 0.02404651 0.22653222 0.1247585 0.109844536
-0.118668236 0.123244874 0.06087218 -0.17882007 -0.220592 0.24920596 0.08114594 0.11187908
-0.21273544 0.073023014 0.2197123 0.028698694 -0.015222549 0.19956963 -0.14734413 -0.10096782
-0.0011255268 -0.20120485 0.18438989 0.13365172 0.17354673 0.01618652 0.07598372 0.02638757
-0.13568914 -0.20718935 0.204618 -0.16043006 0.2188515 0.084081985 -0.18610361 -0.14625151
0.12379217 0.15847346 0.22457056 0.17072818 -0.06140228 0.012256503 -0.23083332 0.11836005
0.010746384 0.20684795 -0.047403235 -0.14051749 -0.124748886 -0.050044004 -0.05345079 0.12625425
-0.19165917 0.15326436 -0.133859 0.017492266 -0.1659642 -0.21493556 0.02366179 0.22333434
0.052543458 -0.1875042 0.03146435 -0.12842603 0.055972874 -0.038469084 -0.25453714 0.19162054
0.12247152 0.16826291 -0.016374689 -0.028063994 -0.037944287 -0.17521138 -0.051203683 0.050574016
0.00579543 0.038081586 0.1937468 0.1641226 0.009134203 0.17789322 0.19479263 -0.18157712
0.18143444 -0.16942546 0.019246837 0.13853689 -0.21107617 0.1415057 -0.033093646 0.16910985
0.089516215 0.17958096 0.2014078 0.14827482 0.2124033 -0.14308198 -0.19502175 -0.046073426
0.2239501 0.28561753 0.15380152 -0.082813434 -0.15360574 -0.069404274 -0.14046547 -0.040236324
00000000: 4a94 22be 7522 bcbd 8a1b 9cbd b2f9 de3d
00000010: 54a1 abbd 174e 933e 6466 803e 6abf 4a3d
00000020: eac7 34be 3ce7 973d ea4f 683e 664d 453e
00000030: 4d5f 1c3e 9e1a 003e 8296 2d3e 307c 2ebd
00000040: 3161 273d 17d0 ec3c 556e 5ebd 4148 08bd
00000050: d08c 94bd 6cce d13d 37fb 633e 0e42 81be
00000060: eb11 123e 2763 3fbe 70eb 35be 9428 64be
00000070: 7025 6e3e 57bd 87bb 563a 9e3d 2a55 8a3e
00000080: 9afb 33be 88e7 d53e 75b3 0cbe 4b56 2dbe
00000090: 865b 333e 70df cbbd 810f 81be efd4 ecbc
000000a0: ca03 68be 21f3 4d3e de0a 4abe 9092 883c
000000b0: 5531 6dbc 5492 9d3d 110a 153e 85e9 a0be
000000c0: e4b1 edbd 1f9a 66be 5b7b 88be 1133 13be
000000d0: 40b6 183d ef1c 403e 9b0b 993b 3400 7e3e
000000e0: 243f 173d 12d5 9fbd 3ccb cdbd 1e3c dd3d
000000f0: 82b1 633e 7fba 343e 45eb ecbd 363e 82bd
00000100: 7bcb efbd 0713 e5be 6b84 6e3d 5e3d ee3d
00000110: 7078 bf3d dc5d 05be be2e 23be 4759 153d
00000120: 92f2 d83d c72e 48be ec8c 81be 0d7e a1bb
00000130: d08a 5b3b b94d 5a3e edba 59bd c640 073e
00000140: dda6 ac3c 2f19 c5be 7a00 7dbe 2fef a6bd
00000150: e832 083d b47c 2a3e 1165 7a3e 7705 3b3e
00000160: 2c64 473e 7e06 903d c021 4f3e fd87 47be
00000170: 46e7 2a3d a61c 2c3e 7faf 7b3e 410a 5c3e
00000180: 72fa 033e 77e1 a73d 9b3f 073e a571 1a3e
00000190: bac3 24be ac1d 083e c8fc 083e 7220 4d3d
000001a0: 7c75 2a3e d57b 16be 1410 28bd 6759 1f3e
000001b0: 4b48 59be 95cd b63d d68c 9fbc 9d35 dd3d
000001c0: 3093 92be b969 a53e d549 933d 0fce 90bd
000001d0: e085 c83c cf60 763e 97de 223d c403 e7bd
000001e0: 3923 82bd dbd5 403d 47ac b63d 0a3d c43d
000001f0: 9dfd 513d 23f9 213e b3cc 593e ecb0 84be
00000200: 4780 aa3d a545 14bf 997f a1bd 76ee 183e
00000210: 60dc aebd e3d9 1fbd dc30 1f3e 7d11 12be
00000220: e927 683e e029 42be 6520 493d 8ed7 a2be
00000230: 917c b23d 53e1 a43d 8420 5bbd a676 8f3e
00000240: 34f2 4a3e 465e 5bbe 0ee7 b73d 108d 45be
00000250: 30fd c43c 10f8 673e 6281 ff3d 2cf6 e03d
00000260: 5508 f3bd cf67 fc3d 1b55 793d 9c1c 37be
00000270: dfe2 61be d92f 7f3e d82f a63d dc20 e53d
00000280: 52d7 59be 178d 953d 43fc 603e 8619 eb3c
00000290: 0068 79bc fb5b 4c3e 61e1 16be 37c8 cebd
000002a0: 6a86 93ba a508 4ebe b4d0 3c3e ffdb 083e
000002b0: 3cb6 313e 9899 843c 5a9d 9b3d bf2a d83c
000002c0: 18f2 0abe 7229 54be 6287 513e c747 24be
000002d0: 9c1a 603e 2d33 ac3d f291 3ebe f5c2 15be
000002e0: c086 fd3d de46 223e d3f5 653e 5ed3 2e3e
000002f0: f580 7bbd 80cf 483c 925f 6cbe c166 f23d
00000300: 9a11 303c f3cf 533e e529 42bd d1e3 0fbe
00000310: 587c ffbd f1fa 4cbd 37ef 5abd cb48 013e
00000320: 4d42 44be 55f1 1c3e 5512 09be f14b 8f3c
00000330: 85f2 29be 1118 5cbe 5fd6 c13c c2b1 643e
00000340: cf37 573d 1a01 40be c3e0 003d 1d82 03be
00000350: d043 653d c291 1dbd b152 82be 2d38 443e
00000360: 59d2 fa3d 1d4d 2c3e 3624 86bc 76e6 e5bc
00000370: 786b 1bbd 9d6a 33be f4ba 51bd b326 4f3d
00000380: 97e7 bd3b 70fb 1b3d 9065 463e c10f 283e
00000390: a0a7 153c a429 363e b877 473e 5aef 39be
000003a0: f3c9 393e de7d 2dbe 8bab 9d3c 9ddc 0d3e
000003b0: 5a24 58be dfe6 103e 348d 07bd 222b 2d3e
000003c0: 4754 b73d 12e4 373e d93d 4e3e 5bd5 173e
000003d0: 4080 593e 1584 12be c8b3 47be 7db7 3cbd
000003e0: 2d53 653e 763c 923e 257e 1d3e 179a a9bd
000003f0: d34a 1dbe d423 8ebd 2ed6 0fbe d8ce 24bd

edge_encoder.2.bias f4 [16]
-0.035293754 0.20553711 0.21159008 -0.21516895 0.1418189 0.067047715 -0.17330365 -0.13225056
0.031224156 -0.1396799 -0.015149405 0.17722209 -0.0980889 -0.034983147 0.07461523 -0.15292487
00000000: 2f90 10bd 5278 523e 12ab 583e 4055 5cbe
00000010: f938 113e 5050 893d 8376 31be b16c 07be
00000020: cdc9 ff3c 3f08 0fbe 3635 78bc b579 353e
00000030: d5e2 c8bd 7d4a 0fbd dfcf 983d 5698 1cbe

edge_encoder.3.weight f4 [16]
1.0260365 0.99101174 1.002568 1.006879 1.0086831 1.0165888 1.0001043 1.1189882
0.98880523 1.0006366 1.0216393 1.0052274 0.9877414 0.98172355 1.0000468 0.9454209
00000000: 2a55 833f f2b2 7d3f 2654 803f 69e1 803f
00000010: 871c 813f 951f 823f 6b03 803f 013b 8f3f
00000020: 5722 7d3f dc14 803f 14c5 823f 4bab 803f
00000030: 9fdc 7c3f 3c52 7b3f 8901 803f 1b07 723f

edge_encoder.3.bias f4 [16]
0.017093403 -0.016844274 -0.006793157 0.00691808 -0.011006101 0.010247736 -0.0175658 -0.015470678
0.020807851 -0.0011939316 -0.0151387155 0.028998503 0.010488946 -0.026594173 0.018333942 0.057545595
00000000: 7707 8c3c 01fd 89bc 2299 debb 10b1 e23b
00000010: ef52 34bc 1fe6 273c 27e6 8fbc ba78 7dbc
00000020: 3a75 aa3c b27d 9cba 6008 78bc 458e ed3c
00000030: d4d9 2b3c 06dc d9bc 1031 963c eeb4 6b3d

node_model.0.weight f4 [16, 48]
-0.13855232 0.05887772 -0.024527855 0.03083965 -0.004779477 0.08777018 0.015873928 -0.099100135
0.04851051 0.061173473 0.11058915 0.102766864 -0.10408966 -0.024382059 0.020418935 -0.020410221
-0.025771426 0.033481885 0.022927446 -0.029817881 0.018309047 0.04799444 0.054027714 0.07187089
0.1284838 0.104327984 0.11117001 -0.065788895 -0.02771365 -0.046599843 0.11668446 0.058731858
0.10430791 0.009659579 0.007245711 0.10473583 -0.010366525 -0.15654774 -0.0851906 0.09672094
-0.051814258 0.0752156 -0.061253488 0.0035537137 0.015320433 0.0043952945 -0.047077734 -0.11224876
0.104577474 -0.13745798 0.16490076 -0.030042965 0.045027044 0.15605563 -0.035205804 -0.009323073
0.056668058 -0.047024876 0.023774689 0.14240362 -0.0714371 -0.13921165 0.116773285 -0.001889201
-0.10122245 0.12073849 -0.021902245 0.043310378 0.0025336284 0.15151644 -0.0073582716 0.12662661
-0.058179814 0.007943735 -0.08189712 0.06933705 0.13149256 0.042000238 -0.10236436 -0.045786668
-0.15298975 0.11059707 -0.14167054 0.044417128 -0.04166695 -0.01763273 -0.05734847 -0.09979785
0.0395416 0.09025151 -0.11460606 -0.1336591 0.06066854 0.10079222 0.016197484 0.11392666
0.05663518 0.007965362 0.0738733 0.008749271 -0.081882134 -0.04532507 -0.019981321 0.14448427
-0.021480575 -0.08013357 -0.11531282 -0.028435672 -0.09449453 0.036308948 0.120298594 0.033044785
-0.10931419 0.09092918 -0.07386997 -0.083675206 -0.005653775 -0.13802433 0.1023227 0.13529997
0.15532213 0.029691685 0.030778464 0.064178094 0.032588884 -0.10450276 -0.012717582 0.06973999
-0.1035844 -0.050633375 0.11015188 -0.18249534 -0.07139663 0.09390964 0.0037798015 0.022986867
0.06218056 0.07732295 0.093617395 -0.052998304 -0.012206341 0.10410332 -0.026010722 0.11727042
0.04298429 0.13656086 0.19623761 -0.009915718 -0.009837555 0.121056736 0.10512371 -0.048465405
-0.013999532 -0.041758846 0.13871433 0.015532443 -0.06604814 -0.293616 -0.07379001 0.11873298
-0.085711405 0.12778442 0.06621408 0.020580068 -0.1583705 0.1135224 0.04784325 -0.018720264
0.058701493 -0.06902201 -0.04751478 0.2282491 0.10106252 0.067362346 0.12590522 0.06298658
0.14980629 -0.09942043 0.10315736 0.0053896247 0.16348487 -0.02680199 -0.10456571 0.16956173
-0.046684634 0.042470776 0.08396861 -0.0047395052 -0.08570966 -0.22229742 -0.06488047 0.08584146
0.01968124 -0.0933228 0.109209746 -0.061844222 -0.040337842 -0.058391325 0.13884634 -0.0027283551
-0.10358491 -0.115448505 -0.12056431 -0.0042798594 -0.10420254 0.012757797 0.12596856 0.122699685
-0.0116016455 0.03236117 0.094431505 -0.05072013 0.1582153 0.033196174 -0.080153346 -0.040714275
-0.11154162 -0.14734057 0.091777414 -0.15889853 0.08504562 0.12971991 -0.017381862 0.039583165
-0.02234382 -0.02412446 0.043756463 -0.12198671 -0.014839789 0.01051176 -0.046435736 -0.037463285
-0.0839424 0.024816882 0.01847662 0.047131624 -0.1092548 0.03153979 -0.028378109 0.10882429
0.022385575 -0.018559065 -0.0020607067 0.018656092 -0.026371187 0.09878346 -0.15925205 0.0560348
0.098717324 0.026940962 -0.12371067 -0.016523873 -0.11434834 -0.10401424 0.08486493 -0.13750988
00000000: a9e0 0dbe c429 713d a4ee c8bc 6fa3 fc3c
00000010: 299d 9cbb dac0 b33d 0a0a 823c 03f5 cabd
00000020: f5b2 463d 0991 7a3d 907c e23d 6f77 d23d
00000030: f62c d5bd e2bc c7bc 9c45 a73c 5633 a7bc
00000040: 991e d3bc 4d24 093d 57d2 bb3c a144 f4bc
00000050: dbfc 953c d195 443d 2a4c 5d3d 0c31 933d
00000060: 4291 033e e9a9 d53d 1aad e33d 54bc 86bd
00000070: bd07 e3bc 7adf 3ebd 43f8 ee3d d190 703d
00000080: 639f d53d 3643 1e3c 6e6d ed3b bd7f d63d
00000090: 5bd8 29bc 0d4e 20be 6978 aebd a115 c63d
000000a0: 303b 54bd a30a 9a3d f0e4 7abd 6ce5 683b
000000b0: 8e02 7b3c 6706 903b 95d4 40bd aee2 e5bd
000000c0: b72c d63d c9c1 0cbe bfdb 283e aa1c f6bc
000000d0: 476e 383d 0ccd 1f3e f633 10bd cdbf 18bc
000000e0: c41c 683d 289d 40bd 23c3 c23c 41d2 113e
000000f0: 9d4d 92bd 808d 0ebe d526 ef3d 119f f7ba
00000100: b74d cfbd be45 f73d 566c b3bc 3966 313d
00000110: 3b0b 263b 2027 1b3e a81d f1bb 68aa 013e
00000120: f54d 6ebd 7126 023c adb9 a7bd 9500 8e3d
00000130: fca5 063e 7108 2c3d 68a4 d1bd cd8a 3bbd
00000140: 58a9 1cbe b780 e23d 1512 11be bcee 353d
00000150: f7aa 2abd 8472 90bc 3be6 6abd d162 ccbd
00000160: 5ff6 213d c9d5 b83d 95b6 eabd eedd 08be
00000170: 937f 783d 276c ce3d 96b0 843c 6152 e93d
00000180: 4afa 673d 2681 023c e24a 973d 1a59 0f3c
00000190: d2b1 a7bd c8a6 39bd deaf a3bc aff3 133e
000001a0: 08f8 afbc 121d a4bd 2129 ecbd edf1 e8bc
000001b0: 5986 c1bd b1b8 143d 1c5f f63d f859 073d
000001c0: 1ee0 dfbd 1439 ba3d 2449 97bd e85d abbd
000001d0: 4d43 b9bb 4056 0dbe 908e d13d 138c 0a3e
000001e0: c40c 1f3e fa3b f33c 1e23 fc3c ce6f 833d
000001f0: ec7b 053d 8b05 d6bd 685d 50bc d7d3 8e3d
00000200: 0f24 d4bd f164 4fbd 4f97 e13d 0fe0 3abe
00000210: 6538 92bd b353 c03d 8cb6 773b f44e bc3c
00000220: 0bb1 7e3d 7f5b 9e3d 7aba bf3d c014 59bd
00000230: 1bfd 47bc 1f34 d53d 7014 d5bc 792b f03d
00000240: 4b10 303d 9cd6 0b3e 83f2 483e 8975 22bc
00000250: b22d 21bc 98ec f73d 1a4b d73d a983 46bd
00000260: 4b5e 65bc 530b 2bbd 210b 0e3e ca7b 7e3c
00000270: 3f44 87bd d654 96be 371f 97bd 472a f33d
00000280: 7689 afbd ebd9 023e 3f9b 873d 8897 a83c
00000290: e02b 22be 6f7e e83d 49f7 433d 3d5b 99bc
000002a0: fa70 703d 695b 8dbd dc9e 42bd 22ba 693e
000002b0: def9 ce3d 45f5 893d 4ced 003e 1cff 803d
000002c0: d266 193e f09c cbbd 2a44 d33d 739b b03b
000002d0: 9468 273e d98f dbbc 8c26 d6bd 97a1 2d3e
000002e0: 6338 3fbd d6f5 2d3d bcf7 ab3d da4d 9bbb
000002f0: 8c88 afbd efa1 63be 0de0 84bd a6cd af3d
00000300: 8d3a a13c 0620 bfbd 5ca9 df3d 5e50 7dbd
00000310: 4b39 25bd be2b 6fbd bc2d 0e3e 34ce 32bb
00000320: 5324 d4bd 4470 ecbd 6cea f6bd 103e 8cbb
00000330: 2468 d5bd 1406 513c e7fd 003e f949 fb3d
00000340: d414 3ebc 258d 043d 4e65 c13d e9bf 4fbd
00000350: 3103 223e b6f8 073d 7027 a4bd 03c4 26bd
00000360: ef6f e4bd 72e0 16be ccf5 bb3d 4cb6 22be
00000370: 662c ae3d 4cd5 043e 6864 8ebc f521 223d
00000380: 630a b7bc a9a0 c5bc fa39 333d 2bd4 f9bd
00000390: 9622 73bc 8439 2c3c 6633 3ebd 1a73 19bd
000003a0: fee9 abbd c64c cb3c 485c 973c 170d 413d
000003b0: fbc0 dfbd de2f 013d 3579 e8bc 45df de3d
000003c0: f461 b73c 2e09 98bc ec0c 07bb a9d4 983c
000003d0: 6308 d8bc fc4e ca3d f812 23be bf84 653d
000003e0: 4f2c ca3d 4bb3 dc3c 055c fdbd 135d 87bc
000003f0: 762f eabd 6b05 d5bd aacd ad3d 64cf 0cbe

node_model.0.bias f4 [16]
-0.042929903 -0.07136832 0.12639654 0.07756942 0.02454855 -0.099573396 -0.11892171 -0.13388745
0.16912258 0.14205356 0.04144111 0.09602139 0.024250878 0.12769292 0.004004713 -0.11478533
00000000: 44d7 2fbd 8e29 92bd 186e 013e b7dc 9e3d
00000010: 0a1a c93c 23ed cbbd 3a8d f3bd cb19 09be
00000020: 782e 2d3e 7d76 113e 27be 293d dda6 c43d
00000030: c7a9 c63c efc1 023e f839 833b 9214 ebbd

node_model.2.weight f4 [16, 16]
-0.21235204 0.12346051 0.17135489 0.11252989 0.24590628 -0.021737741 0.054685444 0.18189159
0.10839293 -0.100308195 -0.21519119 -0.18252489 0.045200963 0.0010425806 -0.04701795 0.18237467
-0.09945466 -0.054991387 -0.13044173 -0.10175279 -0.15611787 -0.2825885 -0.0048882086 -0.14565645
0.35416004 -0.213607 0.0031236259 0.056892905 0.051530536 0.28354058 0.1528988 -0.11775073
-0.21837297 0.07239144 0.14258163 -0.077980526 -0.1267676 0.2530783 -0.12567812 0.1649645
-0.0804895 -0.021980163 0.07255003 0.010168002 0.25694746 0.050510168 -0.28070655 0.018338852
-0.13717192 -0.064253956 -0.029978788 0.04605103 0.21660112 -0.06254727 0.19957279 -0.15759227
0.3290076 -0.16503248 0.16339916 0.15785763 -0.24093932 0.0835931 0.2548701 -0.06532288
0.040291496 0.046995852 0.1756249 -0.062460043 0.04899803 -0.18019381 -0.19247358 0.12055209
0.12707916 0.17028771 0.024255875 0.01983484 -0.05774536 -0.26251557 0.13766728 0.09862764
-0.027690144 -0.15921082 -0.013848209 -0.11598829 0.1555198 -0.19395821 -0.027071446 -0.01925487
0.13226804 0.05525576 -0.13213904 -0.06726156 0.022250446 0.13097504 -0.18678005 -0.116415486
-0.21182759 0.24906765 0.1552148 0.12234231 -0.21714371 0.18228175 0.12427865 -0.17025624
0.238135 0.05578452 0.037979405 -0.18342389 -0.19784783 0.11639734 0.054255098 0.17474322
-0.14762448 0.25315344 -0.048368014 -0.25027868 -0.19189425 -0.19543587 0.081381336 0.22938319
0.12038955 0.03447135 -0.178876 0.30994207 -0.096164495 -0.024139168 -0.19327784 -0.034475267
-0.11145454 -0.051668607 -0.11815839 0.0041444423 -0.030405166 0.05887984 0.2645801 -0.11950243
-0.09823843 0.23122497 -0.12545116 -0.15365243 -0.005506443 0.16961353 0.32499376 0.2454327
0.03312711 0.1125762 -0.01753776 0.12564705 0.01970819 0.09805527 0.18003285 -0.2040827
0.11077344 -0.1434354 -0.019906703 -0.30630162 0.01585215 0.12067453 -0.2360725 -0.1372099
-0.084015675 0.2330583 0.060472444 0.023858182 0.018050801 0.12893578 -0.07619063 -0.0875859
-0.21233091 -0.030136056 0.07799074 0.16231252 0.19771607 -0.041488044 -0.045718726 -0.12974228
0.016139306 0.0016451384 -0.041315783 0.35366398 0.018969167 -0.072969034 0.062221106 0.18267849
0.04090145 -0.03605802 -0.18292117 -0.19899206 0.21295714 0.20300633 0.25454172 0.14341874
0.016462523 -0.18719675 -0.13809721 0.2974752 -0.16774614 0.19112703 -0.09767613 0.24640061
0.116659164 0.19550616 0.063290454 -0.16696374 0.31235734 0.2964467 -0.19043662 0.15279554
0.06382929 0.25553203 0.11405786 0.1021459 -0.22272782 -0.03595824 -0.079945855 0.07297875
0.13078469 -0.20744146 0.052008 0.17386624 -0.0828927 0.2698581 -0.07318566 0.14895311
-0.11201516 0.0639359 -0.1974313 0.14280011 -0.10656513 0.23451418 0.14926918 -0.07277154
0.12161689 0.10918141 -0.07327825 -0.37589383 0.07188428 0.12671839 0.15976168 0.07386336
0.090260394 -0.27677697 -0.08732394 -0.11729497 0.132171 -0.11345782 0.07278028 -0.13653003
0.2723304 0.04263437 0.23629674 0.26503822 -0.2753734 0.20980191 0.19388202 -0.013056394
00000000: d072 59be ddd8 fc3d a877 2f3e 1276 e63d
00000010: dbce 7b3e 5913 b2bc d8fd 5f3d ca41 3a3e
00000020: 1dfd dd3d 626e cdbd 145b 5cbe cee7 3abe
00000030: a524 393d 33a7 883a e595 40bd 6dc0 3a3e
00000040: e3ae cbbd a63e 61bd 8492 05be c463 d0bd
00000050: 5ddd 1fbe 71af 90be 442d a0bb f726 15be
00000060: 7754 b53e cbbb 5abe bfb5 4c3b 8908 693d
00000070: af11 533d 3b2c 913e 8191 1c3e 4b27 f1bd
00000080: 2a9d 5fbe f741 943d eb00 123e 41b4 9fbd
00000090: 5ecf 01be 7b93 813e c4b1 00be 74ec 283e
000000a0: aed7 a4bd be0f b4bc 1c95 943d b197 263c
000000b0: 9e8e 833e c0e3 4e3d c5b8 8fbe 5c3b 963c
000000c0: cc76 0cbe 9497 83bd 1396 f5bc 01a0 3c3d
000000d0: afcc 5d3e c818 80bd cf5c 4c3e de5f 21be
000000e0: af73 a83e 46fe 28be 1c52 273e 6ea5 213e
000000f0: ccb8 76be dc32 ab3d 557e 823e 01c8 85bd
00000100: b208 253d b97e 403d 04d7 333e 1ad6 7fbd
00000110: 29b2 483d ba84 38be cb17 45be 04e4 f63d
00000120: 0a21 023e e75f 2e3e 42b4 c63c ad7c a23c
00000130: 6686 6cbd 7168 86be a7f8 0c3e 4afd c93d
00000140: 71d6 e2bc 2908 23be 99e3 62bc 458b edbd
00000150: 9540 1f3e fb9c 46be f0c4 ddbc 64bc 9dbc
00000160: 4671 073e dd53 623d 754f 07be 6ec0 89bd
00000170: 9146 b63c 521e 063e 4543 3fbe 3e6b eebd
00000180: 55e9 58be 970b 7f3e a1f0 1e3e 9b8e fa3d
00000190: ec5a 5ebe 11a8 3a3e ce85 fe3d a757 2ebe
000001a0: a9d9 733e 4f7e 643d 4b90 1b3d 79d3 3bbe
000001b0: 9f98 4abe bb61 ee3d 983a 5e3d e3ef 323e
000001c0: df2a 17be 549d 813e 8a1d 46bd 8724 80be
000001d0: ed7f 44be 5720 48be 42ab a63d 6de3 6a3e
000001e0: cc8e f63d d531 0d3d 452b 37be bab0 9e3e
000001f0: e4f1 c4bd 81bf c5bc a0ea 45be f035 0dbd
00000200: 4742 e4bd 76a2 53bd 07fd f1bd 1ace 873b
00000210: 4114 f9bc fd2b 713d 0b77 873e b1bd f4bd
00000220: 3b31 c9bd 3dc6 6c3e 4576 00be 1057 1dbe
00000230: 646f b4bb 2baf 2d3e 9565 a63e b652 7b3e
00000240: 4bb0 073d 5a8e e63d 59ab 8fbc 9fa9 003e
00000250: 1273 a13c 34d1 c83d 885a 383e 0efb 50be
00000260: 2fdd e23d bbe0 12be 6213 a3bc 91d3 9cbe
00000270: 5edc 813c 3524 f73d fdbc 71be c180 0cbe
00000280: 6910 acbd d6a6 6e3e f4b1 773d 3c72 c33c
00000290: 46df 933c be07 043e d509 9cbd 3d60 b3bd
000002a0: 466d 59be e4df f6bc 9cb9 9f3d 4135 263e
000002b0: 1576 4a3e 5eef 29bd 8f43 3bbd 29db 04be
000002c0: 9436 843c afa1 d73a bd3a 29bd 7213 b53e
000002d0: 3a65 9b3c ca70 95bd 8fdb 7e3d 1210 3b3e
000002e0: 4788 273d 93b1 13bd b04f 3bbe 93c4 4bbe
000002f0: 7011 5a3e e4e0 4f3e 4b53 823e 5ddc 123e
00000300: 6adc 863c 81b0 3fbe 5b69 0dbe ab4e 983e
00000310: a5c5 2bbe ceb6 433e 6c0a c8bd 7150 7c3e
00000320: 00eb ee3d c432 483e 6d9e 813d 8bf8 2abe
00000330: 4ded 9f3e ddc7 973e d101 43be 6f76 1c3e
00000340: eeb8 823d 18d5 823e 2b97 e93d df31 d13d
00000350: c312 64be f348 13bd a7ba a3bd e275 953d
00000360: 6cec 053e 896b 54be 5706 553d fe09 323e
00000370: a6c3 a9bd d72a 8a3e 5de2 95bd 2a87 183e
00000380: 3468 e5bd d3f0 823d 6e2b 4abe 313a 123e
00000390: d23e dabd 7c24 703e 05da 183e 3f09 95bd
000003a0: 4712 f93d 819a df3d e812 96bd 2875 c0be
000003b0: 1138 933d 77c2 013e 9198 233e ac45 973d
000003c0: 71da b83d b6b5 8dbe e5d6 b2bd 5838 f0bd
000003d0: d657 073e 935c e8bd d40d 953d 87ce 0bbe
000003e0: e46e 8b3e 61a1 2e3d c6f7 713e 17b3 873e
000003f0: befd 8cbe 50d6 563e 0289 463e 7cea 55bc

node_model.2.bias f4 [16]
-0.09073812 -0.00030134452 0.03351317 -0.19745785 0.15891704 -0.06780433 0.13181728 0.0335071
-0.12480255 0.079180695 -0.0340609 -0.067293346 -0.021099258 0.116272144 0.133996 -0.013976835
00000000: e8d4 b9bd c7fd 9db9 1b45 093d 6432 4abe
00000010: 26bb 223e ffdc 8abd 1cfb 063e be3e 093d
00000020: 7b98 ffbd 7d29 a23d 7183 0bbd 18d1 89bd
00000030: 5ad8 acbc 1720 ee3d 3f36 093e 18ff 64bc

node_model.3.weight f4 [16]
1.2079177 1.4177529 1.4420179 1.1975555 1.276116 1.0604438 1.2053506 1.2716821
1.0675917 0.93504953 1.27247 1.2077461 1.0727912 1.1367456 0.9851232 1.2860178
00000000: 0c9d 9a3f ed78 b53f 0b94 b83f 8049 993f
00000010: c557 a33f 9fbc 873f ee48 9a3f 7bc6 a23f
00000020: d8a6 883f 685f 6f3f 4ce0 a23f 6d97 9a3f
00000030: 3951 893f e180 913f 0931 7c3f 3b9c a43f

node_model.3.bias f4 [16]
0.17527623 -0.23668514 0.15271519 -0.13966954 0.16612685 0.1223764 -0.12009674 -0.18882199
-0.0945612 0.09044033 0.18213044 0.14937605 0.14128217 -0.11126125 -0.040292125 -0.1703294
00000000: 9d7b 333e 975d 72be 5f61 1c3e 8805 0fbe
00000010: 281d 2a3e 7aa0 fa3d 48f5 f5bd 8d5a 41be
00000020: 4da9 c1bd c838 b93d 6780 3a3e 09f6 183e
00000030: 46ac 103e f0dc e3bd 5b09 25bd d56a 2ebe

edge_model.0.weight f4 [16, 96]
-0.036644097 -0.08327077 0.010377337 -0.06161755 0.03458175 -0.08278913 0.08836859 -0.033246875
-0.011087331 -0.08172692 0.062405236 0.0029164779 -0.060864467 0.07442723 0.023320148 0.0734027
0.04681419 -0.09903145 -0.073166035 0.076991335 -0.08425268 -0.030121658 0.064804964 0.05343814
0.06194305 -0.02000637 -0.0066603804 0.031751256 0.04016765 0.056332387 0.0212017 -0.0074087894
0.09943441 0.100636646 -0.0042741173 -0.00054530974 -0.03695046 -0.04823976 0.043036703 0.006661683
-0.016110724 -0.057458054 -0.005315134 0.099089764 0.04545108 -0.059295077 0.058317475 -0.075104
-0.07527715 -0.13570216 -0.08898931 0.025524247 -0.041343536 0.07448386 0.06366632 0.041392393
0.047749054 0.009435341 -0.06095217 -0.028838513 -0.06602953 -0.02153521 0.017137093 -0.047186084
-0.01057154 0.08448853 0.043404296 0.09214965 0.112093106 -0.019632744 0.0026453321 -0.10826992
0.0802504 0.107097365 -0.07749626 -0.016941685 0.065800056 -0.041593548 -0.09307922 0.03421861
-0.10933405 -0.003624872 -0.002363713 0.06681203 0.0992574 0.008151402 0.03965233 -0.032431517
0.02031488 -0.020632228 0.03995804 -0.04913118 0.059099954 0.011758168 0.051560644 0.059047066
-0.007861013 -0.008831095 -0.048784833 0.05155861 -0.0016842952 -0.070157595 -0.08467965 0.105659634
-0.08864856 0.004821914 0.027662197 0.013091626 -0.07477204 0.038174372 -0.041027345 -0.107246645
-0.018809745 0.074200265 0.060433596 -0.0180973 0.070677675 -0.107772365 0.034597714 -0.009562825
-0.10738506 0.019407677 -0.015511051 -0.015272598 0.11707382 -0.070581354 0.10444813 0.03623661
0.1147404 0.039600182 -0.036190063 -0.0518672 -0.03988045 -0.101515874 0.01654597 0.031881265
0.061354365 0.019555077 -0.04871424 0.025337882 0.058214284 -0.07662166 -0.059277657 -0.017101357
-0.0016347211 -0.01558392 0.03917057 -0.042488758 0.02010126 0.046596438 -0.04888779 0.08700558
-0.097365245 -0.059350986 -0.04123933 -0.13454558 -0.07061024 0.07462241 -0.023577716 0.14985918
0.08912798 -0.0434073 -0.012320659 0.0072293435 0.09310899 0.08988881 0.03483768 0.055803217
0.0926465 -0.064453356 -0.036413446 -0.09692704 0.059602212 0.059627425 -0.027702587 -0.08159634
0.0047499263 -0.059129573 0.039650965 0.10077399 0.0071363756 0.038470335 -0.0808478 -0.06043
0.06384094 0.066913895 0.068174474 0.05765349 0.019179478 -0.0685077 0.032074578 -0.024216564
-0.035609346 0.087314405 -0.09994886 0.020691933 0.10801895 0.040253498 -0.095821954 -0.03202049
-0.018691123 -0.014694117 -0.03372569 -0.019825544 0.06533408 0.08619214 -0.058253802 -0.026199346
0.06548245 0.075657286 -0.083474055 0.072082214 0.08897792 0.06843928 -0.0369543 -0.020011885
-0.082817145 -0.043787733 -0.013815332 0.030747624 -0.07817831 -0.0015582021 -0.039701205 0.16167286
0.044209402 0.08525486 -0.026531138 0.032944083 -0.08677471 0.0030313306 0.046234675 0.00055068935
0.018113881 -0.07466129 -0.0818313 0.022485677 -0.040108517 0.07161787 0.0709416 -0.09768583
0.028557288 0.12076568 -0.063579634 0.045954682 0.008106625 -0.015629938 -0.060323972 -0.08221156
-0.08385657 -0.06219138 -0.13682698 0.0799833 0.110946395 -0.11702003 0.031819183 -0.043045837
00000000: 1f18 16bd de89 aabd b505 2a3c af62 7cbd
00000010: 98a5 0d3d 598d a9bd 97fa b43d e02d 08bd
00000020: a3a7 35bc 7260 a7bd a29c 7f3d 6122 3f3b
00000030: 054d 79bd 4e6d 983d e509 bf3c 2854 963d
00000040: 3cc0 3f3d 00d1 cabd 13d8 95bd a2ad 9d3d
00000050: ab8c acbd b2c1 f6bc 77b8 843d f3e1 5a3d
00000060: ffb7 7d3d 66e4 a3bc 523f dabb 9b0d 023d
00000070: d586 243d cabc 663d 30af ad3c 6ec5 f2bb
00000080: 45a4 cb3d 961a ce3d e50d 8cbb 1ef3 0eba
00000090: 5e59 17bd 0e97 45bd 4147 303d 3f4a da3b
000000a0: a3fa 83bc 2359 6bbd 932a aebb 93ef ca3d
000000b0: e92a 3a3d 65df 72bd 4ede 6e3d 20d0 99bd
000000c0: e82a 9abd 82f5 0abe 0740 b6bd 3a18 d13c
000000d0: d757 29bd fe8a 983d 7d63 823d 128b 293d
000000e0: 8394 433d b096 1a3c fca8 79bd bf3e ecbc
000000f0: 7d3a 87bd 9c6a b0bc 1763 8c3c 3246 41bd
00000100: 4134 2dbc 5308 ad3d b4c8 313d f5b8 bc3d
00000110: 1291 e53d d9d4 a0bc 4f5d 2d3b 9fbc ddbd
00000120: 525a a43d dd55 db3d 5cb6 9ebd 4ac9 8abc
00000130: 2ec2 863d ff5d 2abd 51a0 bebd d028 0c3d
00000140: 88ea dfbd 438f 6dbb 86e8 1abb bfd4 883d
00000150: 7747 cb3d 758d 053c 7b6a 223d e9d6 04bd
00000160: 646b a63c eb04 a9bc 0bab 233d c73d 49bd
00000170: cb12 723d 55a5 403c 4131 533d 56db 713d
00000180: 7acb 00bc 4cb0 10bc 9bd2 47bd 1f2f 533d
00000190: 92c3 dcba c9ae 8fbd 866c adbd 1464 d83d
000001a0: 608d b5bd 2501 9e3b d59b e23c 427e 563c
000001b0: 1522 99bd bb5c 1c3d 4a0c 28bd 21a4 dbbd
000001c0: e516 9abc 4ff6 973d 3889 773d ca40 94bc
000001d0: 75bf 903d c2b7 dcbd 55b6 0d3d 65ad 1cbc
000001e0: b3ec dbbd d9fc 9e3c 1022 7ebc eb39 7abc
000001f0: 66c4 ef3d f58c 90bd e7e8 d53d d76c 143d
00000200: 04fd ea3d cd33 223d 083c 14bd b372 54bd
00000210: af59 23bd 8ee7 cfbd 6a8b 873c ee95 023d
00000220: b74e 7b3d f831 a03c 9588 47bd 6491 cf3c
00000230: 1a72 6e3d d1eb 9cbd 21cd 72bd 2518 8cbc
00000240: 2344 d6ba b353 7fbc 5271 203d b108 2ebd
00000250: 66ab a43c e8db 3e3d 903e 48bd fb2f b23d
00000260: 6e67 c7bd 051a 73bd 92ea 28bd 51c6 09be
00000270: 1a9c 90bd a2d3 983d 0e26 c1bc af74 193e
00000280: bb88 b63d dacb 31bd 97dc 49bc 21e4 ec3b
00000290: edaf be3d a017 b83d f5b1 0e3d ea91 643d
000002a0: 73bd bd3d 1f00 84bd 4426 15bd af81 c6bd
000002b0: 7321 743d e33b 743d 89f0 e2bc fb1b a7bd
000002c0: 45a5 9b3b da31 72bd 0d69 223d 9862 ce3d
000002d0: 42d8 e93b 1293 1d3d 8893 a5bd 7385 77bd
000002e0: 0abf 823d 270a 893d 0f9f 8b3d 1126 6c3d
000002f0: 481e 9d3c c44d 8cbd a260 033d d161 c6bc
00000300: 1bdb 11bd e5d1 b23d fdb1 ccbd 2182 a93c
00000310: 0a39 dd3d dae0 243d 4d3e c4bd eb27 03bd
00000320: 201e 99bc 98bf 70bc f323 0abd 2e69 a2bc
00000330: e0cd 853d 8185 b03d 8a9b 6ebd 03a0 d6bc
00000340: aa1b 863d 35f2 9a3d 72f4 aabd d79f 933d
00000350: 0e3a b63d e529 8c3d 645d 17bd f7ef a3bc
00000360: 099c a9bd c45a 33bd b459 62bc 71e2 fb3c
00000370: f31b a0bd 963c ccba bb9d 22bd 928d 253e
00000380: eb14 353d 1a9a ae3d d457 d9bc 60f0 063d
00000390: f0b6 b1bd 4aa9 463b 9260 3d3d 235c 103a
000003a0: 9063 943c 05e8 98bd 2b97 a7bd e233 b83c
000003b0: d448 24bd 64ac 923d d449 913d 820f c8bd
000003c0: f9f0 e93c ff53 f73d 0a36 82bd fa3a 3c3d
000003d0: a6d1 043c 5b0a 80bc 4516 77bd 895e a8bd
000003e0: febc abbd 63bc 7ebd 5f1c 0cbe 49ce a33d
000003f0: dd37 e33d 33a8 efbd d554 023d d550 30bd

edge_model.0.bias f4 [16]
-0.038687907 -0.037402082 -0.046369832 0.10400588 -0.0036204676 0.08619409 0.06563716 -0.09347237
0.049708515 0.049706742 -0.06858671 0.08000641 -0.0128282355 -0.05751462 -0.07330045 0.01420518
00000000: 3677 1ebd ed32 19bd 4bee 3dbd 0901 d53d
00000010: 5e45 6dbb 8786 b03d c66c 863d 716e bfbd
00000020: 289b 4b3d 4c99 4b3d 3077 8cbd 67da a33d
00000030: 852d 52bc 7394 6bbd 8c1e 96bd d8bc 683c

edge_model.2.weight f4 [16, 16]
-0.16941993 -0.21975015 -0.03944831 -0.059570294 -0.036988795 -0.16500458 0.07701287 -0.1308281
0.24308522 0.007693348 -0.003742205 -0.10176401 0.08623646 -0.17483418 -0.07114339 -0.12914792
0.060778316 -0.10961092 0.06935264 0.15658838 0.1078874 -0.23136438 0.14206742 -0.18741159
-0.0047435025 -0.12099968 0.18471955 -0.11428338 0.034030322 -0.13953243 0.15058807 0.0983531
0.06162838 0.08157939 0.06557356 -0.24177755 -0.1953833 0.23576392 0.04574462 -0.0035641307
-0.043783933 -0.12873419 0.07958684 0.027786622 -0.17593838 0.017582592 -0.017945893 0.1899156
0.034714293 -0.0036313508 0.29299897 0.11845602 -0.01861285 0.05117896 -0.22705896 -0.21392976
-0.14405963 -0.27524203 0.016587475 -0.028812379 -0.028804993 -0.25582126 0.1499104 0.00013763712
0.24481894 -0.16698079 -0.2191793 0.16342889 -0.11006369 0.12949036 0.26474258 0.23347457
-0.2505642 0.19398153 -0.09034665 0.16263327 0.025439262 -0.22284411 -0.17935358 0.2020571
0.04486887 0.14520028 0.055915635 0.17213377 -0.23989496 -0.20715584 -0.24377447 0.051683847
0.2555354 0.055609174 -0.24919978 0.13630794 0.18607691 0.23556371 -0.21469188 -0.016368022
0.12035656 -0.07103689 0.08028468 0.19253552 -0.040505618 0.008083748 0.16525698 -0.03598923
-0.2024399 0.14200538 0.25209868 0.19241898 -0.24472465 -0.17117429 -0.12291182 -0.15467896
-0.23565376 0.008011441 -0.07251913 -0.016652279 0.024816135 -0.23228545 -0.21678795 -0.23857422
-0.14868225 0.1688757 0.1317463 -0.060754765 -0.13957529 -0.17254871 -0.22266917 0.10950755
0.12724815 0.0059889364 -0.14707994 0.22988106 0.19315717 -0.24254028 0.11929517 0.081364654
5.0442428e-05 0.14780605 -0.08866625 -0.0847026 0.14205456 -0.042076606 -0.10206077 0.08532052
0.028402356 -0.18177427 0.08815546 -0.12303329 0.18468188 0.20503376 0.06871456 0.22842836
-0.18685435 -0.015603985 0.22519787 -0.067285635 0.21930638 -0.18368544 0.18911256 -0.1301649
-0.084422976 -0.07031247 0.20494862 0.03626105 0.15868865 -0.24259937 -0.07406824 -0.21769272
0.04930202 0.012640747 -0.1706081 0.07691461 -0.14486104 -0.17840093 -0.10580955 -0.03574703
0.1926516 -0.09717668 0.17052302 0.12180576 -0.16869244 -0.21046376 0.025605798 -0.074650235
0.0873894 -0.13189527 -0.058160026 -0.116129555 0.2846144 -0.21496916 -0.06973567 0.13209896
0.18448846 -0.037551407 -0.08490778 0.2578153 -0.051596712 0.115265384 -0.21850471 -0.061065864
-0.19072273 -0.06676592 0.09264112 0.24461025 0.14521165 -0.21001072 0.004120309 -0.1243515
0.1813998 -0.09465394 0.07066733 0.084978044 -0.0011717768 -0.056660563 -0.26444826 0.25357282
0.16778329 -0.10474427 0.015298848 0.013264057 -0.234901 0.09138736 0.0029064873 -0.0389636
0.17650029 0.19793311 -0.25465456 -0.048935726 0.019851534 0.137757 -0.11216301 0.13692681
-0.10507488 0.09706429 0.23332064 -0.05161557 0.10733998 -0.16486885 -0.22064611 -0.19139399
-0.102381855 0.21826035 0.051314857 -0.23188302 0.24306923 0.096621744 0.14589484 0.076944225
-0.07427936 -0.11341225 0.043761905 0.104790404 -0.06915083 -0.21377492 0.039996363 -0.055811886
00000000: 6b7c 2dbe 2f06 61be 8d94 21bd fbff 73bd
00000010: 9081 17bd f6f6 28be ecb8 9d3d cdf7 05be
00000020: 55eb 783e 7b18 fc3b c83f 75bb a669 d0bd
00000030: be9c b03d bb07 33be a0b3 91bd 5a3f 04be
00000040: aff2 783d b17b e0bd c208 8e3d b458 203e
00000050: 12f4 dc3d c9ea 6cbe 1f7a 113e d3e8 3fbe
00000060: 626f 9bbb aece f7bd 1f27 3d3e 680d eabd
00000070: 6163 0b3d 97e1 0ebe c233 1a3e 5a6d c93d
00000080: 0a6e 7c3d 1813 a73d 6e4b 863d 8994 77be
00000090: 8f12 48be 196c 713e b65e 3b3d 3194 69bb
000000a0: c856 33bd e5d2 03be 6dfe a23d c5a0 e33c
000000b0: 3129 34be 5e09 903c 4403 93bc 3c79 423e
000000c0: 9330 0e3d f5fb 6dbb f603 963e 1299 f23d
000000d0: fa79 98bc 07a1 513d 2582 68be 6710 5bbe
000000e0: 5e84 13be 86ec 8cbe 75e2 873c f007 ecbc
000000f0: 73f8 ebbc 01fb 82be 1d82 193e af52 1039
00000100: d1b1 7a3e 03fd 2abe 8a70 60be e759 273e
00000110: 1269 e1bd 1f99 043e 578c 873e f513 6f3e
00000120: f349 80be 18a3 463e aa07 b9bd 5689 263e
00000130: 0066 d03c 3f31 64be 77a8 37be 0ee8 4e3e
00000140: 6cc8 373d 62af 143e cb07 653d d643 303e
00000150: 06a7 75be a920 54be 04a0 79be 71b2 533d
00000160: 89d5 823e 72c6 633d 3a2e 7fbe 4f94 0b3e
00000170: f28a 3e3e 9d37 713e 30d8 5bbe 3b16 86bc
00000180: 807d f63d ca7b 91bd 4b6c a43d 0828 453e
00000190: 38e9 25bd b271 043c 2039 293e 7169 13bd
000001a0: 684c 4fbe dc69 113e 1413 813e 7b09 453e
000001b0: 1999 7abe 5048 2fbe 31b9 fbbd 2964 1ebe
000001c0: 384f 71be 6b42 033c e984 94bd 5c6a 88bc
000001d0: 354b cb3c 3ddc 6dbe a9fd 5dbe cd4c 74be
000001e0: 2940 18be c0ed 2c3e 81e8 063e fdd9 78bd
000001f0: d3ec 0ebe 9cb0 30be 6303 64be 7f45 e03d
00000200: 574d 023e d73e c43b 209c 16be f165 6b3e
00000210: feca 453e 7b5c 78be 0751 f43d 83a2 a63d
00000220: 2592 5338 785a 173e a796 b5bd 8f78 adbd
00000230: c076 113e 8558 2cbd 3d05 d1bd 86bc ae3d
00000240: 0fac e83c 0923 3abe da8a b43d e1f8 fbbd
00000250: 3f1d 3d3e 5ff4 513e 38ba 8c3d 20e9 693e
00000260: bf56 3fbe dba7 7fbc 459a 663e 0dcd 89bd
00000270: da91 603e 0918 3cbe b9a6 413e f349 05be
00000280: f4e5 acbd fcff 8fbd 0dde 513e 7786 143d
00000290: 477f 223e f86b 78be 17b1 97bd d7ea 5ebe
000002a0: eaf0 493d 231b 4f3c e4b3 2ebe 6885 9d3d
000002b0: 7456 14be bcae 36be adb2 d8bd 7a6b 12bd
000002c0: 7646 453e 9104 c7bd 969d 2e3e 4c75 f93d
000002d0: b6bd 2cbe d083 57be 40c3 d13c 39e2 98bd
000002e0: 37f9 b23d 8e0f 07be 3539 6ebd 55d5 edbd
000002f0: fbb8 913e e020 5cbe 93d1 8ebd f344 073e
00000300: 8bea 3c3e 81cf 19bd 21e4 adbd 5e00 843e
00000310: 1357 53bd 4210 ec3d b3bf 5fbe 3320 7abd
00000320: d24c 43be 92bc 88bd a1ba bd3d 1c7b 7a3e
00000330: 5db2 143e 0d0d 57be a803 873b 00ac febd
00000340: dfc0 393e edd9 c1bd 08ba 903d f808 ae3d
00000350: 4e96 99ba e814 68bd c365 87be 4cd4 813e
00000360: 62cf 2b3e 2a84 d6bd 05a8 7a3c 7d51 593c
00000370: e389 70be 4c29 bb3d c47a 3e3b 4c98 1fbd
00000380: 7ebc 343e faae 4a3e 1562 82be d470 48bd
00000390: af9f a23c 2c10 0d3e b8b5 e5bd 8b36 0c3e
000003a0: 8031 d7bd a4c9 c63d 9beb 6e3e d96a 53bd
000003b0: 10d5 db3d 61d3 28be 0ef1 61be c9fc 43be
000003c0: 94ad d1bd a47f 5f3e 872f 523d be72 6dbe
000003d0: 24e7 783e 9fe1 c53d 7565 153e ef94 9d3d
000003e0: c71f 98bd af44 e8bd af3f 333d 5a9c d63d
000003f0: f39e 8dbd d0e7 5abe 3ad3 233d 019b 64bd

edge_model.2.bias f4 [16]
-0.06012094 -0.03658819 -0.053895034 0.18232873 0.148108 0.13810506 -0.15049712 -0.06072953
-0.0655861 0.16000183 -0.044820648 -0.21427096 0.15415445 -0.07941636 0.11587744 0.04074594
00000000: 6041 76bd 7fdd 15bd 0ac1 5cbd 62b4 3a3e
00000010: a0a9 173e 6a6b 0d3e eb1b 1abe 87bf 78bd
00000020: 0152 86bd 85d7 233e db95 37bd d969 5bbe
00000030: aada 1d3e 0ba5 a2bd 2751 ed3d 37e5 263d

edge_model.3.weight f4 [16]
1.0161725 1.0090417 1.0461861 1.0877603 0.99422586 1.0299808 0.99052644 0.9954236
1.0372052 0.98950505 1.0292032 1.0127711 1.0110172 0.99957913 0.98953956 1.002364
00000000: f111 823f 4728 813f 6de9 853f bb3b 8b3f
00000010: 9685 7e3f 69d6 833f 2493 7d3f 15d4 7e3f
00000020: 24c3 843f 3450 7d3f eebc 833f 7ca2 813f
00000030: 0369 813f 6be4 7f3f 7752 7d3f 774d 803f

edge_model.3.bias f4 [16]
0.026912645 0.014668627 -0.007690893 -0.029589335 -0.002083734 0.02653255 0.005022918 0.0020350912
0.010329871 0.002601356 -0.020511966 0.010111494 0.013081641 0.024511723 0.0007244893 -0.005818423
00000000: e877 dc3c ae54 703c e303 fcbb 5565 f2bc
00000010: 418f 08bb ca5a d93c 4a97 a43b 2a5f 053b
00000020: 9f3e 293c 837b 2a3b b608 a8bc aeaa 253c
00000030: 6154 563c cfcc c83c a7eb 3d3a 78a8 bebb

node_decoder.0.weight f4 [1, 16]
0.502306 -0.4710217 0.5574863 -0.42638808 0.41481227 0.16324878 -0.2553241 -0.31518653
-0.098173626 0.09172007 0.3925878 0.25856864 0.19670239 -0.38725153 0.01095087 -0.4810771
00000000: 2097 003f c229 f1be 6cb7 0e3f 8a4f dabe
00000010: 4662 d43e b02a 273e d7b9 82be 2160 a1be
00000020: 410f c9bd bbd7 bb3d 4501 c93e 1c63 843e
00000030: 5a6c 493e d545 c6be 476b 333c bd4f f6be
