tmp/tmp4model1000.pt (torch, 23679 bytes, 25 tensors)

node_encoder.0.weight f4 [16, 5]
00000000: 5788 803d 5e10 7f3d 4c17 bbbe 97cd 84be
00000010: baad e1be 90c4 d8be edb8 e43e 43e8 b53e
00000020: 2836 d93d a22b d23e a3cb 32be c5cb 60be
00000030: 2fbc bc3e 100b c2bc 9dbd af3d 33ee 713e
00000040: 8b88 543e e01b 83be da1a 31be 6351 d3be
00000050: 8ffc 173d 045f 3fbe 2c85 ec3d 8071 aa3c
00000060: fa22 c83e e986 a43c c42b 643e ee38 d83d
00000070: da26 cb3e 467c 52be 53cb bd3e 3c82 a23e
00000080: 7679 32be e85a 8c3e ed68 cf3e 3df2 7cbe
00000090: 814e f8bd 93a2 9f3e 24a0 b83e eeb9 e03d
000000a0: dada 203e 4d61 a33e 1dfa d43e b5d0 90be
000000b0: e847 37be 3f73 d63e aa7c 953e e8e2 4cbe
000000c0: 2a62 1bbe bd21 e13e 26d7 85be f2de 873e
000000d0: a7fc 9a3e ac98 dbbe 4c04 f2be 1116 ec3d
000000e0: 40dd 383e ea4f bc3e c0c6 613d d60d ad3e
000000f0: cab0 bbbe 9f6d 5f3e c694 dcbe 3c29 953e
00000100: 6af2 063e b365 943e fa10 5d3e 50dc 9ebe
00000110: 002e 983b b217 543d cd1d 603d e9f6 d1be
00000120: 65f8 72be ebb7 57be 7029 7bbe 9147 ba3e
00000130: 2e0f 693e 35c0 483e c248 09be c9c8 c8be
0.06276005 0.06227147 -0.36541212 -0.25938103 -0.44077855 -0.42337465 0.44672337 0.35528764
0.106060326 0.41048914 -0.17460494 -0.21952732 0.36862323 -0.023686916 0.08581088 0.23626022
0.20755212 -0.25607204 -0.172954 -0.4127303 0.037106093 -0.1868859 0.11548838 0.020806074
0.39089185 0.020083861 0.2228232 0.105577335 0.3967808 -0.20555219 0.37069187 0.31739986
-0.17429146 0.27413106 0.4050974 -0.24701782 -0.121243484 0.31178722 0.36059678 0.10972963
0.15708485 0.31910172 0.4159707 -0.2828423 -0.17898524 0.418848 0.29196674 -0.20008433
-0.15174165 0.43971053 -0.26140708 0.2653728 0.30270883 -0.42889917 -0.47268903 0.11527646
0.1805315 0.3677972 0.055121183 0.33799618 -0.36658317 0.21819161 -0.43082255 0.29133022
0.13178411 0.2898384 0.21588507 -0.3102746 0.0046441555 0.05178041 0.05471592 -0.4100869
-0.23727567 -0.21066253 -0.24527526 0.36382726 0.22759697 0.19604571 -0.13406661 -0.39215687

node_encoder.0.bias f4 [16]
00000000: e030 d63d b0ec cd3e 1bdf 3e3e bf41 c7be
00000010: 883c b6bc 9efd 8cb9 16ec 8f3e 2b72 473e
00000020: 1c5c 97be 1346 c2be 371e 1b3e 4494 3d3e
00000030: eab9 543e b094 a43e 8581 c53e 918a 50be
0.10458541 0.4021964 0.18639795 -0.38917348 -0.02224566 -0.0002689184 0.28109807 0.19477145
-0.2956246 -0.37944087 0.15148245 0.1851359 0.20774046 0.3214469 0.38575378 -0.20365359

node_encoder.2.weight f4 [16, 16]
00000000: 6b57 86be 5ccf 063e a238 6a3e 292d 45be
00000010: cb8b f5bd bb52 593e b5e7 463e de2b 0dbd
00000020: 002c 08be 5f8d 5b3d 1b91 70be 1281 c7bd
00000030: a331 25bd 69ef 83bd 02f7 913d b86d 48b9
00000040: 0f93 4dbe ce08 63bc 9632 4c3d bd25 1d3e
00000050: 1ee0 9a3b ed76 83bd 2752 dc3d ccc2 0e3e
00000060: 0af4 9a3d 6d7d 17be 3ed5 bd3d 4874 593d
00000070: 81e9 143e ba06 6fbd 0803 9f3c 4092 203e
00000080: 58df 97bc 561f 113e 48ce 2dbd 3275 6d3e
00000090: b7b0 d83b 4c1a 3dbd 71f9 cc3d d5b1 82bc
000000a0: 92ef 4d3e 9ba3 48bc 029f 333e 2ca2 66bd
000000b0: 05f3 143d 332c c43d 4d3a 75be a6d0 5a3d
000000c0: 76eb 3e3e 685a 883d 2559 6cbd 8532 873c
000000d0: 391f ac3d a51b 543d f60c 07be 0f72 123d
000000e0: 4696 90be c0cf 023d 6afc 06be 0b6b 1dbe
000000f0: df17 39be 3c9d 493e 87d5 09bd b4f3 a5bc
00000100: cb06 c9bd 910c cabd 6938 2cbe 68c4 d2bb
00000110: 6f8a 27be 8c10 05be 3255 df3d 5e97 723e
00000120: 260a 91bd 2302 88be 7e7d 6d3e 1420 0d3e
00000130: 15cc 0b3e 089c 96bd 037e 78bd 9255 233b
00000140: 19b1 85bc ce31 cabc 014a ffbd 08b8 183e
00000150: ff8f b63d 5470 4bbd 8f0b 83be 0a08 f6bd
00000160: 0c74 c1bd 8388 e7bd 9dee 593d aba5 87bd
00000170: 75d6 683c c457 59be 5d01 5bbd 7332 b83d
00000180: 2daa 813e feed 64be b971 1d3d 432c 093e
00000190: cc99 03bd 510e 6a3d 2269 1a3e 7647 72be
000001a0: 154a 0f3e ab9d 72be 4956 1a3d 68a5 163e
000001b0: 42c3 e3bd 0240 9db9 ebe3 4bbe 9b45 3fbc
000001c0: 0a84 d53d 083b d13d ff64 763d 34b1 4fbd
000001d0: 1433 cbbd 4310 303e f545 373d 68af a63d
000001e0: 5a89 c23d 49e3 cebd 13c9 35bd 511c 5b3e
000001f0: 562d 463e df10 8fbe 2a63 5dbe 9f06 cebd
00000200: 1742 c03d a202 13be d752 c33d ecf6 49be
00000210: 0347 89bd 1219 233e 3b4c 7bbd 71f0 b8bd
00000220: f35a 273d c2f1 5d3e d90c 493d 46e8 ffbb
00000230: 824d be3c 8257 4dbe 84bc d2bd ef1b 7b3e
00000240: c5ca c9bd 72bb 133e a7fb 8ebd a907 153e
00000250: e296 043e f345 543e 6d2c e8bd a770 49bc
00000260: 732e 1dbe 3b10 e13d 6124 dabd 5e38 4e3d
00000270: 5c05 14be 8c29 12bc 933c 3abe e86c 38be
00000280: f3dc dc3d 872c 263d 4a28 68bd 4fe6 afbd
00000290: f1e1 813e 4a2f 723d 9257 c13d 71fe 903e
000002a0: 0da9 8e3e e4cb 25bd c345 1c3e 88c9 073d
000002b0: 90e6 37be 7e19 3c3e 287e deba b564 203c
000002c0: 86b5 403d eaa5 3a3e 1bf6 90bd 6220 1bbd
000002d0: 07ec 853d cc08 fb3c 8d25 d33d 2750 543e
000002e0: eee8 b7bd 91ff 2e3e 8d3f 60be dc77 8f3c
000002f0: 6ef7 8c3d 1107 7abe fca7 8cbe 47a8 abbd
00000300: 2ab4 0fbd 16a5 313e dee5 66bd 3da8 4b3e
00000310: 24ed c4bd bcd5 cc3d 2ba5 423e edaf 343e
00000320: b1e1 4bbd df09 c13d ba47 ec3d db4b 34be
00000330: 976f 353e b8c3 7d3e b3df 913d c0ec 933e
00000340: 9758 d6bc b19b 1cbc 7a28 12bd 3a98 593d
00000350: 7602 be3d 5347 41be f29b b2bd 0b08 43be
00000360: e9b0 18bd 4cf0 7a3d 9d5e 1abe a2e1 283d
00000370: 7d94 78be df85 c43d 0313 0e3e 0575 9bbd
00000380: ef6b 393e 57ea 96bd 1b65 65be e77d 41be
00000390: 1885 85be cbbc 3c3d 8d81 543c 5aac 73be
000003a0: f784 a3bd ba2d 2b3c 300e 11bd 0609 ba3d
000003b0: 7137 783e 6722 0a3e 962a 793d 94b9 e83d
000003c0: 5c12 fabd 1462 6dbd 7c25 a6bd 1dee 243d
000003d0: 02b8 eb3d a598 8f3d 51b3 f3bd 62e8 57be
000003e0: 16f3 5fbd 79f0 273e 6cb6 5bbe b987 0d3e
000003f0: dc04 f63d 2fd9 dabd 8319 503e 813d 00be
-0.2623857 0.13165039 0.22873166 -0.19255508 -0.11989554 0.21222965 0.19424327 -0.034465663
-0.13298035 0.05360162 -0.23492853 -0.09741415 -0.04033054 -0.06442148 0.07127191 -0.0001911436
-0.2007563 -0.01385708 0.04985293 0.15346427 0.004726424 -0.06419168 0.10757857 0.13941497
0.07566078 -0.1479394 0.09269188 0.05308941 0.145422 -0.058356024 0.019410625 0.1568079
-0.018539116 0.1417211 -0.042433053 0.23189238 0.006612863 -0.046167657 0.10008515 -0.015953938
0.2011092 -0.012246038 0.17541125 -0.056307003 0.036364574 0.09578743 -0.23948021 0.05342164
0.18644509 0.066578686 -0.057702202 0.016503582 0.08404393 0.051784176 -0.13188538 0.035753306
-0.2823965 0.031936407 -0.13182226 -0.15372865 -0.18075512 0.19688886 -0.0336509 -0.020257808
-0.09815749 -0.09865678 -0.16818394 -0.006432105 -0.16361402 -0.12994593 0.109049216 0.23690554
-0.07082014 -0.2656413 0.23192403 0.13781768 0.1365207 -0.07353979 -0.06066705 0.002492283
-0.016319798 -0.024681952 -0.12465287 0.14913952 0.08914184 -0.04966767 -0.25594756 -0.12013252
-0.09445962 -0.113053344 0.053206075 -0.066233955 0.014211287 -0.21224886 -0.053468097 0.089939974
0.25325146 -0.22356412 0.038438533 0.13395791 -0.032129094 0.05714256 0.15079167 -0.23660073
0.13993104 -0.23692958 0.037679944 0.14711535 -0.11121227 -0.00029993063 -0.19911163 -0.01167431
0.10425575 0.102163374 0.06015491 -0.050706103 -0.09921852 0.17193703 0.04474445 0.08138925
0.09498854 -0.10101945 -0.044381212 0.2139752 0.19353232 -0.2794256 -0.2161986 -0.100598566
0.09387606 -0.14356473 0.09537285 -0.197231 -0.067029975 0.15927532 -0.061351996 -0.090302356
0.04085822 0.21674255 0.049084518 -0.0078096716 0.023230318 -0.20052913 -0.10289863 0.24522375
-0.09853128 0.14426973 -0.069815926 0.14553703 0.12948182 0.20729809 -0.113365985 -0.012294925
-0.1534975 0.10989424 -0.1065147 0.050346725 -0.1445517 -0.008921038 -0.1818717 -0.18010294
0.1078433 0.04056981 -0.056679048 -0.0858885 0.25367692 0.05912713 0.09440531 0.28319123
0.2786335 -0.04047765 0.15260987 0.03315118 -0.17959046 0.183691 -0.0016974853 0.009789635
0.047048114 0.18227354 -0.07078191 -0.03787268 0.06539159 0.030643843 0.103098966 0.207337
-0.08979975 0.17089678 -0.21899243 0.017513208 0.06883131 -0.24416758 -0.27471912 -0.08381706
-0.035083927 0.17348132 -0.056371562 0.19888397 -0.096155435 0.10001704 0.19008319 0.17645235
-0.049775783 0.09425711 0.11537118 -0.17607062 0.1771835 0.24781692 0.07122745 0.28891563
-0.02616529 -0.009558604 -0.035683133 0.05312369 0.09277813 -0.18874864 -0.087211505 -0.19046037
-0.03727809 0.06126432 -0.15075155 0.041230805 -0.24275394 0.095958464 0.1387444 -0.07590679
0.1810758 -0.073689155 -0.2240185 -0.18895684 -0.26078105 0.046078485 0.01297034 -0.23796216
-0.079843454 0.010447914 -0.03541392 0.09083752 0.24239899 0.13489686 0.06083163 0.11363521
-0.12210533 -0.057954863 -0.08112618 0.040266145 0.11509706 0.070115365 -0.11899436 -0.21084741
-0.054675184 0.16400327 -0.21456307 0.13821305 0.120126456 -0.10685956 0.20322232 -0.12523462

node_encoder.2.bias f4 [16]
00000000: bb0e d83d c5c4 863b f368 3abe d26a 06be
00000010: bcc6 da3d aaec 67be c532 5c3e 9900 f0bd
00000020: 7aea bdbd 0cd4 33be eec7 31be 096d 7dbe
00000030: 278a bf3d 8c3e 4e3e 298c 383d 07b1 6c3e
0.105496846 0.004112812 -0.18204097 -0.13126686 0.10682437 -0.22648874 0.21503742 -0.11718864
-0.092732385 -0.17561358 -0.17361423 -0.24748625 0.09352522 0.20141047 0.045055542 0.23114406

node_encoder.3.weight f4 [16]
00000000: bec3 773f 10e0 813f 4f0b 803f b03b 823f
00000010: bffa 743f ac27 823f 5499 7d3f 1063 793f
00000020: 6749 7c3f 9e0e 733f 2e27 783f c449 813f
00000030: e27e 7d3f 7360 773f 8819 7a3f 897b 783f
0.96783054 1.0146503 1.0003451 1.0174465 0.9569511 1.0168357 0.99062085 0.9741678
0.98549503 0.9494418 0.96934783 1.0100636 0.9902173 0.96631545 0.9769521 0.970635

node_encoder.3.bias f4 [16]
00000000: efa7 bdbc 432f e33b c49a 983b 6f87 68bc
00000010: 646f 17bd e41f a6bc 12f8 0cbc 1598 e6bc
00000020: e735 42bc 6b47 573d 7bcf 793c d642 a4bc
00000030: 2e8b a5bb 9338 1abc 0f38 11bd 1ad6 dc3c
-0.023151366 0.0069331243 0.0046571214 -0.014192446 -0.036971465 -0.020278879 -0.008604066 -0.02814869
-0.011853672 0.052558344 0.015247221 -0.020051401 -0.005051992 -0.009412902 -0.035453852 0.02695756

edge_encoder.0.weight f4 [16, 4]
00000000: b14f 16bf 63ca 82be 15e3 f43e a6c9 203e
00000010: 77c4 bf3e e7c4 793d db67 b83e 9091 6ebe
00000020: c5d4 f03e 75de 8cbe 6eed 0cbf 5fa8 383e
00000030: 6212 b1be d19b 223e c00a ef3e dc4d 51be
00000040: 4896 41be 2025 b0bc 5005 b1bd 10d7 053d
00000050: 06a5 78bd b675 f03e 51bd 643e bfc1 24be
00000060: 45cc 37be 6d25 ee3c 4a23 853e 8de0 70be
00000070: 4753 40be 4dbd c03e f0a2 4fbe d6f3 873e
00000080: f2aa dbbe 63f7 86be d3b3 f3bc ae6b f4be
00000090: 8fcf b43e 1181 76be 5815 a83e 6b05 b5bc
000000a0: 0e14 733e a0b9 843e d4a7 92be 5844 82be
000000b0: 1c98 613e 7536 8fbe 5a79 123f b05d f7be
000000c0: be2a d3be 5b4f 7cbd 3c61 aabe 5c07 9fbe
000000d0: e227 bc3e 849c 44bc 382a a73e d2ef c83e
000000e0: c574 923e f2cd c93e d75c a5bd 00d1 efbe
000000f0: 6958 81be 5a55 04bf 0b93 8a3d d8b7 6a3e
-0.5871535 -0.25545034 0.478295 0.15701923 0.37454578 0.060978796 0.36016735 -0.23297715
0.4703733 -0.2751347 -0.5504979 0.18032978 -0.34584337 0.15879752 0.4668789 -0.20439857
-0.18904984 -0.021502078 -0.086435914 0.032675803 -0.060704254 0.46964806 0.22337843 -0.16089533
-0.17949016 0.02907058 0.26003486 -0.2352316 -0.18781768 0.37644425 -0.20277 0.2655322
-0.42903858 -0.26360616 -0.029748833 -0.47738403 0.35314605 -0.24072672 0.32828784 -0.02209731
0.23738119 0.2592287 -0.28643668 -0.25442767 0.22030681 -0.27971235 0.5721642 -0.48313665
-0.41243547 -0.061599117 -0.3327731 -0.31060302 0.36749178 -0.012000207 0.32649398 0.39245468
0.28604713 0.39414936 -0.080743484 -0.46839142 -0.25262764 -0.51692736 0.067663275 0.22921693

edge_encoder.0.bias f4 [16]
00000000: 504f 9e3d 8b80 b9be dca2 933d 220b efbe
00000010: ae11 95be 0bf5 6cbe 70f0 ab3e 57ac ee3e
00000020: 4bc3 963e 1289 b33e 0d4f d3bc ef82 3cbe
00000030: f4f9 943e 9bbd d43e 7a71 5b3d b511 893e
0.077299714 -0.36230883 0.07208797 -0.4668818 -0.2911505 -0.23140351 0.33581877 0.4661586
0.29445872 0.35065514 -0.02579453 -0.18409322 0.2909695 0.41550907 0.053575017 0.26771322

edge_encoder.2.weight f4 [16, 16]
00000000: 2e33 21be 5721 adbd 4026 9cbd d1ae de3d
00000010: 54a1 abbd 9ec0 933e d7ed 803e 89d0 493d
00000020: e821 33be 9096 983d 0860 693e a639 473e
00000030: dddf 1d3e cad8 ff3d 489b 2e3e 37e8 2abd
00000040: 4f4d 253d 3a97 003d e500 5fbd 2665 08bd
00000050: d08c 94bd ec18 d23d 1a0e 643e c843 81be
00000060: d112 123e ba71 3fbe fdde 35be a4ae 63be
00000070: e64d 6e3e b8a3 89bb 955c 9e3d a030 8a3e
00000080: e3c8 33be 9bc0 d53e 5475 0cbe 5314 2dbe
00000090: 865b 333e bebd ccbd df20 81be eb20 eebc
000000a0: bcdb 67be 021b 4e3e 7f46 4abe 7543 8a3c
000000b0: c95b 74bc 40ad 9d3d 52ce 143e 24d9 a0be
000000c0: 4d74 edbd c939 66be b696 88be 1f9d 13be
000000d0: 40b6 183d 9938 403e ed68 9d3b ecfd 7d3e
000000e0: 3e6b 183d d4e5 9fbd d7c2 cdbd d5b2 dd3d
000000f0: 0cd8 633e 16b0 343e 9bd1 ecbd a328 82bd
00000100: 9701 f0bd 6cf1 e4be 2e0a 6c3d 8371 ef3d
00000110: 7078 bf3d 8645 05be 6b46 23be 050b 163d
00000120: 47af d83d 8685 48be 78c5 81be 03b8 a3bb
00000130: aa45 583b f738 5a3e dff0 5abd 5a1f 073e
00000140: 48a8 be3c 007b c4be 9af2 7cbe b0c7 a6bd
00000150: e832 083d d6f8 293e 7155 7a3e 9efe 393e
00000160: fed4 473e 4638 903d 3c02 4f3e a5ea 46be
00000170: b914 2a3d c1df 2b3e 309a 7b3e a523 5d3e
00000180: b51a 043e 8049 a43d f3c6 063e fc57 1b3e
00000190: bac3 24be 9146 093e 8f07 0a3e 5575 503d
000001a0: cab8 2b3e 1fb8 16be 7ca4 23bd 9eea 1e3e
000001b0: b5e9 57be 40c7 b63d 945a 97bc f829 dd3d
000001c0: d18a 92be 11f9 a43e 8d3d 943d 588c 93bd
000001d0: e085 c83c 873a 763e 54dc 223d 95d9 e6bd
000001e0: 1c1f 82bd 55f0 413d bee4 b63d c330 c43d
000001f0: c024 513d f82f 223e e8d5 593e 47a9 84be
00000200: d4ac aa3d 8879 14bf 5462 a1bd f630 193e
00000210: 60dc aebd 2de7 1ebd c656 1f3e b22c 12be
00000220: 445f 683e 1b24 42be 2ec3 4a3d f0e1 a2be
00000230: 3365 b33d 6eb3 a43d 3ade 59bd 627d 8f3e
00000240: 857a 4a3e e2ac 5abe 599b b63d f495 44be
00000250: 30fd c43c 88f6 673e b02d ff3d 666c e13d
00000260: b607 f4bd 8980 fb3d 87c1 773d 298f 37be
00000270: 7c13 62be a833 7f3e 6791 a53d 426c e43d
00000280: 48d5 59be ab4e 933d ce1d 613e 6daa ec3c
00000290: 0068 79bc 360a 4c3e 3d0e 17be 222d cfbd
000002a0: 6e39 a6ba 5105 4ebe 92b6 3c3e 5aa3 083e
000002b0: 546f 313e e519 843c a861 9b3d ef66 d83c
000002c0: 3e25 0bbe b35e 56be 0d77 513e 0dcf 23be
000002d0: 9c1a 603e 68f5 aa3d be37 3fbe 831d 16be
000002e0: 98da fb3d 48f8 213e bd2e 653e 1fdf 2d3e
000002f0: 8d7d 7ebd 694d 453c 6e0d 6dbe 0b41 f23d
00000300: 7d89 2e3c 9103 543e 7b50 42bd 7c1f 10be
00000310: 587c ffbd 1f1f 4bbd f22f 5abd d472 013e
00000320: 473d 44be 3ef4 1c3e 3882 08be 3e29 8f3c
00000330: f97f 29be 000e 5cbe 8ec7 c53c 2d9a 643e
00000340: eda5 543d 3745 3ebe 5818 013d c32e 04be
00000350: d043 653d 1e47 18bd ec0c 82be 0ec5 453e
00000360: 1466 fa3d 407b 2c3e dd62 7dbc 07a6 e5bc
00000370: 3cc5 16bd adcd 32be 4c71 4ebd e0a6 4b3d
00000380: 59ad 953b a19f 1d3d d6ff 453e cd2c 283e
00000390: a0a7 153c f15f 363e ba4b 473e 53c8 39be
000003a0: 92c4 373e ebf4 2dbe 3a41 9d3c ee22 0b3e
000003b0: 7f02 58be b3c1 103e f495 07bd f4ab 2c3e
000003c0: c501 b73d ae3d 383e dddf 4d3e 218f 183e
000003d0: 4080 593e a85d 13be 2573 48be 70ec 40bd
000003e0: 5dee 643e b708 923e 937a 1c3e cfb3 a9bd
000003f0: d107 1ebe 8960 8fbd 1c9e 10be f369 25bd
-0.1574218 -0.08453625 -0.07624483 0.10873187 -0.0838038 0.28857893 0.25181457 0.04927114
-0.17493403 0.074505925 0.2279054 0.19455585 0.15417428 0.12492521 0.17051423 -0.041725364
0.04035693 0.03139422 -0.054444212 -0.033299588 -0.0725342 0.1025866 0.22271004 -0.25247025
0.1426499 -0.18695727 -0.17760845 -0.22234589 0.23271903 -0.004200425 0.07732502 0.26990223
-0.17557101 0.4174851 -0.13716632 -0.16902284 0.17515382 -0.09997128 -0.2522039 -0.02906843
-0.22642416 0.2012749 -0.19753455 0.01687787 -0.014914461 0.076990604 0.1453183 -0.31415665
-0.11594448 -0.22482981 -0.26677483 -0.14415406 0.037283182 0.1877159 0.004803768 0.24803895
0.03721165 -0.07807508 -0.100469284 0.10825125 0.22250384 0.17645296 -0.115634166 -0.06355407
-0.11719053 -0.4471544 0.057626896 0.116915725 0.093491435 -0.13014802 -0.15944831 0.036631603
0.105803065 -0.19582185 -0.2534597 -0.004996301 0.0033000507 0.21310793 -0.05345237 0.13195553
0.023273602 -0.38375092 -0.2470192 -0.08143556 0.033251673 0.1659883 0.24446656 0.18163535
0.19514844 0.07041983 0.20215696 -0.19425447 0.04152367 0.16784574 0.24570537 0.21595629
0.12900813 0.080218315 0.1316183 0.15170282 -0.16090289 0.13405825 0.13479446 0.050893147
0.1676971 -0.14718674 -0.039951786 0.15519187 -0.21085246 0.08924723 -0.018475808 0.107990205
-0.28621534 0.32221273 0.072383024 -0.07204503 0.0244779 0.24045764 0.039760903 -0.11271969
-0.0635359 0.04734834 0.08930348 0.09579613 0.05106044 0.15838611 0.21273005 -0.25910398
0.083337456 -0.5799794 -0.07880083 0.14960083 -0.08538127 -0.038794685 0.15560445 -0.14274862
0.22692591 -0.18959086 0.049502544 -0.31813002 0.087595366 0.08042036 -0.053190447 0.28025347
0.197733 -0.21355012 0.08916349 -0.19197828 0.02404651 0.22652638 0.12459886 0.110070035
-0.11915533 0.122803755 0.060487296 -0.17925705 -0.22077745 0.24922049 0.08084374 0.11153461
-0.21272767 0.07192739 0.21984026 0.02888986 -0.015222549 0.1992577 -0.14751525 -0.1011603
-0.001268191 -0.20119216 0.1842902 0.13343564 0.17327625 0.016125629 0.07586986 0.02641627
-0.13588426 -0.20934562 0.2045557 -0.15996952 0.2188515 0.08347589 -0.18673608 -0.14659695
0.12297553 0.15817368 0.2238111 0.16979645 -0.062131453 0.012042382 -0.23149654 0.11828812
0.010652897 0.20704485 -0.047440033 -0.1407451 -0.124748886 -0.049590226 -0.05326838 0.1264146
-0.19164 0.15327546 -0.13330925 0.01747572 -0.16552724 -0.21489716 0.024143007 0.22324438
0.05191605 -0.18581091 0.031517357 -0.12908463 0.055972874 -0.037177198 -0.25400484 0.19313452
0.12226501 0.16843891 -0.015465465 -0.02803327 -0.03680919 -0.17461272 -0.050401017 0.04971969
0.004567784 0.038482312 0.19335875 0.1642334 0.009134203 0.17810036 0.19462481 -0.18142824
0.1794608 -0.1698796 0.019196142 0.13587543 -0.21094702 0.1413639 -0.03310199 0.1686247
0.089358844 0.17992279 0.20104928 0.1489835 0.2124033 -0.14391196 -0.19575174 -0.047100484
0.22356553 0.28522274 0.15281133 -0.08286249 -0.15432669 -0.070008345 -0.14122814 -0.040384244

edge_encoder.2.bias f4 [16]
00000000: fe81 0fbd 7071 523e 50a0 583e a856 5cbe
00000010: db20 113e c5c8 883d a4dd 30be 4946 07be
00000020: 5cc3 ff3c f816 0fbe 3fca 79bc c713 353e
00000030: 5ea9 c8bd f842 0cbd c5a2 983d 1067 1dbe
-0.03503608 0.20551085 0.21154904 -0.21517432 0.1417269 0.06678919 -0.17272049 -0.13210405
0.031221084 -0.13973606 -0.015245973 0.17683326 -0.09797929 -0.034243554 0.07452921 -0.15371346

edge_encoder.3.weight f4 [16]
00000000: 516f 833f 28ac 7d3f 2050 803f cadd 803f
00000010: dc19 813f b017 823f a4b8 7f3f 7f31 8f3f
00000020: 4420 7d3f fd0f 803f 7ac4 823f eaab 803f
00000030: 42cf 7c3f c1f0 7a3f 9979 7f3f 821f 723f
1.0268346 0.99090815 1.0024452 1.0067685 1.0086017 1.0163479 0.99891114 1.118698
0.9887736 1.0004879 1.021621 1.0052464 0.9875375 0.9802361 0.9979492 0.9457933

edge_encoder.3.bias f4 [16]
00000000: e5a1 8e3c e1cd 88bc 3126 e2bb f52d e33b
00000010: cbaa 36bc 72b5 233c 3ade 87bc 4322 7bbc
00000020: 852d ab3c daf0 a8ba 99a7 78bc 6969 ea3c
00000030: 89aa 2f3c 0c21 d2bc 80fb 953c 79a5 693d
0.017411182 -0.016699733 -0.0069015254 0.0069329687 -0.011149119 0.00999199 -0.016585458 -0.015327993
0.020895729 -0.0012889162 -0.015176677 0.028614717 0.010721811 -0.025650524 0.018308401 0.057042573

node_model.0.weight f4 [16, 48]
00000000: a9e0 0dbe c429 713d a4ee c8bc 6fa3 fc3c
00000010: 299d 9cbb dac0 b33d 0a0a 823c 03f5 cabd
00000020: f5b2 463d 0991 7a3d 907c e23d 6f77 d23d
00000030: f62c d5bd e2bc c7bc 9c45 a73c 5633 a7bc
00000040: 991e d3bc 4d24 093d 57d2 bb3c a144 f4bc
00000050: dbfc 953c d195 443d 2a4c 5d3d 0c31 933d
00000060: 4291 033e e9a9 d53d 1aad e33d 54bc 86bd
00000070: bd07 e3bc 7adf 3ebd 43f8 ee3d d190 703d
00000080: 639f d53d 3643 1e3c 6e6d ed3b bd7f d63d
00000090: 5bd8 29bc 0d4e 20be 6978 aebd a115 c63d
000000a0: 303b 54bd a30a 9a3d f0e4 7abd 6ce5 683b
000000b0: 8e02 7b3c 6706 903b 95d4 40bd aee2 e5bd
000000c0: b148 d63d b396 0cbe 5514 293e 081f f8bc
000000d0: 3ec4 383d eba7 1f3e df96 0fbd 6891 1cbc
000000e0: 3fe7 673d cf15 41bd c89a c63c 7f9a 113e
000000f0: e1e8 91bd 0a8e 0ebe 427a ef3d f44d 00bb
00000100: bdfd cebd c41c f83d 1b0c bebc bb3f 323d
00000110: 5f96 1b3b f90d 1b3e 2ca6 e7bb 83ea 013e
00000120: 089f 6ebd cbf6 ff3b 9f11 aabd e867 8d3d
00000130: 02bc 063e aec3 2c3d 5744 d1bd 9ba3 36bd
00000140: f1c8 1cbe 31ce e23d 50bd 11be 8dfd 363d
00000150: 1fbf 2bbd 302c 91bc fed0 6abd c13e ccbd
00000160: e169 233d 16e8 b83d 0f82 eabd cefa 08be
00000170: ee55 793d 7dd9 cd3d f560 853c 688f e93d
00000180: e60f 683d a095 033c 7730 993d 5978 093c
00000190: 8ed8 a7bd eb90 3abd 21cd a2bc 23da 133e
000001a0: c0d8 b0bc cd35 a4bd c0d5 eabd 6b77 e9bc
000001b0: 0d01 c1bd 1adf 133d f89e f63d ec75 053d
000001c0: 2fb5 dfbd 62cd b93d ea80 98bd 6e4f aabd
000001d0: a126 bcbb d7a9 0dbe 90af d23d 3df9 0a3e
000001e0: 3466 1e3e 264a f23c ecaf fa3c 551d 823d
000001f0: caab 053d 3ceb d4bd 4b93 53bc 38e0 903d
00000200: c597 d3bd 6e50 4ebd 9590 e13d 82bb 3abe
00000210: c797 93bd d786 c03d fefb 623b 3c2c be3c
00000220: 41aa 7f3d 7c88 9d3d 2d43 c03d c6dc 57bd
00000230: 21a6 49bc a82b d43d 718a d4bc b538 f03d
00000240: d824 2b3d e490 0d3e c8be 4c3e da0b 36bc
00000250: 209f 15bc 12c5 f93d c8aa d63d e923 3cbd
00000260: fc13 46bc 9053 2bbd e7fa 0e3e b4d8 783c
00000270: 0636 88bd aa1b 9cbe b4c3 97bd afea ef3d
00000280: 16ec b2bd 3853 fd3d 50af 7a3d 3855 b63c
00000290: e571 21be 0dd8 e53d a8c6 453d 1e46 9dbc
000002a0: a872 7d3d 987a 8fbd 3f26 3dbd 4d2a 6c3e
000002b0: 9228 cd3d 5559 863d 36cd 013e 24a2 803d
000002c0: aa19 1c3e 712f cfbd 6f9a d73d 2a87 9e3b
000002d0: cefe 263e 04cd f3bc 8cb3 d6bd 1ce7 2f3e
000002e0: b67a 4bbd 9956 2c3d d7d1 ae3d 0c2c 9ebb
000002f0: 27c4 bcbd beed 62be 258d 85bd 4358 b33d
00000300: 537c 973c d724 c1bd 4e58 dc3d e769 76bd
00000310: cbc9 26bd cb9f 68bd 27e9 0c3e bce6 acba
00000320: 85b4 d0bd 48e2 eabd dd9c fcbd 9ce0 48bb
00000330: 427e d8bd 2420 433c 094f 003e c8b9 f93d
00000340: eddd 36bc bac4 f23c a916 c93d 995e 4ebd
00000350: 03ad 233e b0f7 0c3d 47dd a6bd ea47 24bd
00000360: d12d e3bd 2a24 16be b7ec bd3d 62b2 22be
00000370: 0458 ab3d dde1 023e 3c0a 9abc 6d06 213d
00000380: f61d abbc 88ff c7bc d4ed 393d 86e9 fcbd
00000390: 353f 78bc d799 2a3c dd58 42bd 1b6a 15bd
000003a0: 7b8e abbd c8da c73c ad2d 9d3c 3974 443d
000003b0: 5aa9 e3bd 07f8 013d 7f85 f0bc b181 de3d
000003c0: f461 b73c 2e09 98bc ec0c 07bb a9d4 983c
000003d0: 6308 d8bc fc4e ca3d f812 23be bf84 653d
000003e0: 4f2c ca3d 4bb3 dc3c 055c fdbd 135d 87bc
000003f0: 762f eabd 6b05 d5bd aacd ad3d 64cf 0cbe
-0.13855232 0.05887772 -0.024527855 0.03083965 -0.004779477 0.08777018 0.015873928 -0.099100135
0.04851051 0.061173473 0.11058915 0.102766864 -0.10408966 -0.024382059 0.020418935 -0.020410221
-0.025771426 0.033481885 0.022927446 -0.029817881 0.018309047 0.04799444 0.054027714 0.07187089
0.1284838 0.104327984 0.11117001 -0.065788895 -0.02771365 -0.046599843 0.11668446 0.058731858
0.10430791 0.009659579 0.007245711 0.10473583 -0.010366525 -0.15654774 -0.0851906 0.09672094
-0.051814258 0.0752156 -0.061253488 0.0035537137 0.015320433 0.0043952945 -0.047077734 -0.11224876
0.104630835 -0.13729362 0.16511662 -0.030288234 0.045109026 0.155914 -0.03505599 -0.009556152
0.056617018 -0.04713994 0.024243727 0.14219092 -0.07124496 -0.13921371 0.11693241 -0.0019577714
-0.101069905 0.121148616 -0.023199132 0.04351781 0.0023740751 0.15142049 -0.00706937 0.12687115
-0.058257133 0.0078114024 -0.08304142 0.06904584 0.13157657 0.042178802 -0.10218113 -0.04458962
-0.15311028 0.11074484 -0.14232373 0.0446754 -0.041930314 -0.017721266 -0.057328217 -0.09972907
0.039895896 0.09028642 -0.11450588 -0.13376924 0.060872965 0.10051248 0.016281584 0.11404306
0.056655787 0.008031279 0.07479947 0.0083905095 -0.081956014 -0.04554836 -0.019873204 0.14438681
-0.02158773 -0.08018074 -0.11466551 -0.028499326 -0.094240285 0.036101438 0.1204204 0.032583162
-0.1092323 0.09072377 -0.074464634 -0.08315931 -0.0057419096 -0.1383432 0.10287392 0.1357164
0.15468675 0.029576372 0.030601464 0.06353251 0.032634534 -0.1039643 -0.012913535 0.07074016
-0.10331682 -0.050369672 0.11013905 -0.18235591 -0.072066836 0.09400719 0.0034635062 0.023214452
0.062418226 0.07692048 0.09387813 -0.05270078 -0.012307675 0.10359889 -0.02594492 0.11729566
0.041783184 0.13824803 0.19994652 -0.011111224 -0.009132177 0.12195791 0.10481793 -0.045932684
-0.012089726 -0.04182774 0.13962899 0.015188385 -0.06650929 -0.30489856 -0.07410374 0.11714684
-0.08736436 0.12369388 0.061202347 0.022257432 -0.15766104 0.11222849 0.048285156 -0.019198474
0.061876923 -0.07005805 -0.046179052 0.23063011 0.10017504 0.065600075 0.12675938 0.06280926
0.15244165 -0.101164706 0.10527503 0.00483789 0.16308138 -0.029760845 -0.104834646 0.17178005
-0.049677573 0.042074773 0.085361175 -0.004827028 -0.092171006 -0.22161004 -0.06521062 0.08757069
0.0184919 -0.09430855 0.1075903 -0.06015959 -0.04071979 -0.056793015 0.13760816 -0.0013191323
-0.10190681 -0.11468941 -0.12334607 -0.0030651456 -0.10570957 0.011909518 0.1253015 0.12193638
-0.01116131 0.029634822 0.09818775 -0.050383184 0.15983967 0.0344159 -0.08147674 -0.040107645
-0.11092723 -0.14662233 0.092736654 -0.1588836 0.08366397 0.12781473 -0.018803708 0.03931277
-0.02088831 -0.024413839 0.045392826 -0.123492286 -0.0151517885 0.010412655 -0.047448028 -0.036478143
-0.08376785 0.024396315 0.019186819 0.0479624 -0.111162856 0.031730678 -0.02936053 0.108645804
0.022385575 -0.018559065 -0.0020607067 0.018656092 -0.026371187 0.09878346 -0.15925205 0.0560348
0.098717324 0.026940962 -0.12371067 -0.016523873 -0.11434834 -0.10401424 0.08486493 -0.13750988

node_model.0.bias f4 [16]
00000000: 44d7 2fbd 2edf 91bd dc9d 013e 6c00 9e3d
00000010: 17c9 bd3c 23ed cbbd 3a8d f3bd cb19 09be
00000020: f13f 2d3e 7dac 113e 7fa7 293d 0199 c43d
00000030: c9d3 c83c 4635 033e 52e6 7c3b 51e6 eabd
-0.042929903 -0.07122646 0.12657875 0.07714924 0.023167176 -0.099573396 -0.11892171 -0.13388745
0.16918923 0.14225955 0.041419502 0.09599496 0.02451505 0.12813291 0.003858943 -0.114697106

node_model.2.weight f4 [16, 16]
00000000: d072 59be 1cf2 f43d a003 2e3e d8ae e93d
00000010: 9616 7b3e 5913 b2bc d8fd 5f3d ca41 3a3e
00000020: 1e7f d63d 8f93 ccbd 11cf 5bbe 1aea 3abe
00000030: bdda 393d caec 4bbb b15f 43bd 8dbd 3a3e
00000040: e3ae cbbd b7af 61bd 6089 05be 2f69 dabd
00000050: 145d 20be 71af 90be 442d a0bb f726 15be
00000060: ee64 b53e 5ed4 5cbe 397f 203b 203e 5b3d
00000070: 383c 523d ec36 913e 8375 1a3e e833 f1bd
00000080: 2a9d 5fbe 90fe 933d 75fa 133e 0fa7 94bd
00000090: 5f1f ffbd 7b93 813e c4b1 00be 74ec 283e
000000a0: 0772 a6bd 9443 83bc c352 953d 4b0b 4b3c
000000b0: 8b28 843e cbae 4e3d 4551 90be 8f7b 973c
000000c0: cc76 0cbe 872f 80bd 7bc5 e3bc 767f 2e3d
000000d0: 4382 5e3e c818 80bd cf5c 4c3e de5f 21be
000000e0: 08b9 a93e 7a1f 28be f99b 263e 335e 1e3e
000000f0: 8b50 76be 3acb ae3d 279b 833e cbcc 85bd
00000100: b208 253d d3c3 343d effa 323e 645a 73bd
00000110: b09b 483d ba84 38be cb17 45be 04e4 f63d
00000120: b225 fe3d 9783 2d3e 68ee c23c 39d5 b03c
00000130: d504 70bd 7ca9 87be 46e1 0a3e 82f0 c93d
00000140: 71d6 e2bc cee9 23be 1757 78bc 723a f5bd
00000150: 378f 1e3e fb9c 46be f0c4 ddbc 64bc 9dbc
00000160: 2b80 073e efab 613d fb33 07be e110 8bbd
00000170: dbab aa3c 01bf 053e ee3f 3ebe 018d eebd
00000180: 55e9 58be c64a 7e3e 5972 1d3e 49dc f03d
00000190: 39a5 5fbe 11a8 3a3e ce85 fe3d a757 2ebe
000001a0: 38e8 713e f5d7 603d a179 1c3d 3f91 3cbe
000001b0: 36cc 4abe 36cc eb3d b031 5a3d 04fc 323e
000001c0: df2a 17be 14de 833e 46ec 40bd 6e25 81be
000001d0: 248e 43be 5720 48be 42ab a63d 6de3 6a3e
000001e0: 806c 003e f4fc 0f3d 5324 38be a42d 9e3e
000001f0: 5889 c6bd ca96 adbc a428 44be 2acd 0cbd
00000200: 4742 e4bd 225a 4cbd 0952 f2bd d293 3c3b
00000210: b1a2 f8bc fd2b 713d 0b77 873e b1bd f4bd
00000220: 0308 c2bd e847 6e3e ea5e 01be 042d 1fbe
00000230: 5786 c6bb 48f3 2f3e 3365 a83e e750 7b3e
00000240: 4bb0 073d 35fc e73d 542e 93bc c452 f63d
00000250: b88c a03c 34d1 c83d 885a 383e 0efb 50be
00000260: 6700 e33d 1278 12be 0b91 a0bc df54 9dbe
00000270: 169f 883c fce3 f63d 7fd2 70be e179 0cbe
00000280: 6910 acbd 3f6b 703e 6343 723d e95f e43c
00000290: a001 8f3c be07 043e d509 9cbd 3d60 b3bd
000002a0: cc01 57be ef1d 05bd a980 a03d 1997 273e
000002b0: 96b5 493e 823d 22bd 36e4 2ebd f8d5 04be
000002c0: 9436 843c 215d edb9 565b 29bd 44b9 b73e
000002d0: 9e80 993c ca70 95bd 8fdb 7e3d 1210 3b3e
000002e0: 7c57 1c3d ebc9 14bd b6ad 3bbe f0c7 48be
000002f0: 6867 5a3e e689 4e3e 5355 803e 49da 123e
00000300: 6adc 863c 7c68 40be 314e 0ebe cb25 9a3e
00000310: 9395 2cbe ceb6 433e 6c0a c8bd 7150 7c3e
00000320: 5763 eb3d 1fe7 443e ded4 833d 6f4b 28be
00000330: d030 a03e d985 973e 5ff7 45be 3b69 1c3e
00000340: eeb8 823d d02b 833e 8fa4 ea3d 224c cb3d
00000350: 204f 64be f348 13bd a7ba a3bd e275 953d
00000360: 2e77 073e d767 55be c51a 543d 199f 313e
00000370: 566b aabd 55f4 8a3e b301 96bd 328d 183e
00000380: 3468 e5bd 7f23 803d 0e02 4abe 4ca9 0d3e
00000390: c1e9 d9bd 7c24 703e 05da 183e 3f09 95bd
000003a0: ad87 f33d 5c8d e03d f8ae 94bd b089 c0be
000003b0: 7ac4 943d a2cf ff3d 8fe4 223e eb3d 973d
000003c0: 71da b83d 934a 8dbe eb05 b2bd 4df2 f7bd
000003d0: 666b 073e 935c e8bd d40d 953d 87ce 0bbe
000003e0: d817 8c3e 22ff 2c3d e61b 723e 5e9e 873e
000003f0: 1726 8dbe 7338 593e 9e1b 473e a592 57bc
-0.21235204 0.11960241 0.1699357 0.11410302 0.24520335 -0.021737741 0.054685444 0.18189159
0.104734644 -0.09989082 -0.21465708 -0.18253365 0.04537462 -0.003111648 -0.04769868 0.1823637
-0.09945466 -0.055099215 -0.13040686 -0.106645934 -0.15660506 -0.2825885 -0.0048882086 -0.14565645
0.35428566 -0.21565387 0.0024489893 0.053526044 0.05132696 0.28362215 0.1508389 -0.117774785
-0.21837297 0.07226288 0.1445101 -0.072584264 -0.124571554 0.2530783 -0.12567812 0.1649645
-0.08127218 -0.016023435 0.07291176 0.012392829 0.25812182 0.050459664 -0.28187004 0.018491535
-0.13717192 -0.06259065 -0.027804127 0.042602025 0.21729378 -0.06254727 0.19957279 -0.15759227
0.3314898 -0.16418257 0.16270436 0.15465622 -0.24054162 0.08534856 0.2570431 -0.06533202
0.040291496 0.044132065 0.17478536 -0.059412375 0.0489766 -0.18019381 -0.19247358 0.12055209
0.124095336 0.16944729 0.023795322 0.021586047 -0.05859836 -0.26496494 0.13562497 0.09860326
-0.027690144 -0.16007158 -0.015157483 -0.11974038 0.1548432 -0.19395821 -0.027071446 -0.01925487
0.13232486 0.05509561 -0.13203423 -0.06790329 0.0208339 0.13061143 -0.18579075 -0.11647988
-0.21182759 0.24833211 0.15375651 0.11760766 -0.21840371 0.18228175 0.12427865 -0.17025624
0.2362374 0.054893453 0.038201932 -0.18414782 -0.19804463 0.115135595 0.053270042 0.17478949
-0.14762448 0.2575537 -0.047100328 -0.2522387 -0.19097191 -0.19543587 0.081381336 0.22938319
0.1254139 0.035153344 -0.17982607 0.30894196 -0.09694165 -0.021190066 -0.19156128 -0.034375347
-0.11145454 -0.049890645 -0.11832053 0.0028774631 -0.030351015 0.05887984 0.2645801 -0.11950243
-0.09474184 0.23269618 -0.12633863 -0.15544516 -0.006058495 0.17182648 0.3288971 0.2454258
0.03312711 0.113274015 -0.017966427 0.12027505 0.01959835 0.09805527 0.18003285 -0.2040827
0.11084061 -0.14303616 -0.019600412 -0.30728814 0.01667742 0.12055203 -0.23517798 -0.13718368
-0.084015675 0.23478411 0.059146296 0.027877765 0.01745683 0.12893578 -0.07619063 -0.0875859
-0.20996779 -0.03249925 0.0783704 0.16366233 0.19698176 -0.03960944 -0.042698108 -0.12972248
0.016139306 -0.0004527355 -0.04134687 0.35883534 0.018738087 -0.072969034 0.062221106 0.18267849
0.03816937 -0.036325376 -0.18327984 -0.1960752 0.21328509 0.20169792 0.25065097 0.14341082
0.016462523 -0.18789858 -0.13897015 0.3010696 -0.16853933 0.19112703 -0.09767613 0.24640061
0.11493557 0.1922879 0.064370856 -0.16435026 0.3128724 0.29594305 -0.19332646 0.15274517
0.06382929 0.25619364 0.11457168 0.099266306 -0.22295809 -0.03595824 -0.079945855 0.07297875
0.13229057 -0.20840393 0.051783342 0.17345847 -0.08321254 0.27139536 -0.07324543 0.14897612
-0.11201516 0.0625677 -0.19727346 0.13834113 -0.10640288 0.23451418 0.14926918 -0.07277154
0.118911125 0.10964462 -0.07259935 -0.37605047 0.072640374 0.12490775 0.159075 0.07384857
0.090260394 -0.27595958 -0.08692535 -0.12106762 0.13224563 -0.11345782 0.07278028 -0.13653003
0.2736194 0.0422355 0.23643455 0.26488012 -0.27568123 0.2121294 0.19444129 -0.013157521

node_model.2.bias f4 [16]
00000000: 5a93 c2bd 247f 0cba 577c 0a3d 71da 47be
00000010: 9cab 1f3e 08be 8bbd 66ae 053e 5215 143d
00000020: 7b91 fbbd 80de a13d 204a 06bd 5f12 8dbd
00000030: cd8f b5bc b520 f03d 2ed8 073e 4b9d 4ebc
-0.09500761 -0.00053595216 0.033809986 -0.19516923 0.15592808 -0.06823355 0.13054809 0.036153145
-0.122836076 0.07903767 -0.032785535 -0.0688827 -0.022163296 0.11724988 0.1326606 -0.012610744

node_model.3.weight f4 [16]
00000000: 4710 9b3f da6c b73f 286b ba3f 73d0 993f
00000010: ee0e a43f 30e6 873f 984d 9b3f cfec a23f
00000020: d2b4 883f e239 6f3f 4dbd a33f d6af 9a3f
00000030: 6e85 893f 8539 923f a63c 7c3f 691f a53f
1.2114342 1.4330094 1.4563951 1.2016739 1.2817056 1.0617123 1.2133055 1.2728518
1.0680182 0.934477 1.2792145 1.2084911 1.0743845 1.1423804 0.9853004 1.2900211

node_model.3.bias f4 [16]
00000000: 5e89 313e 5ced 71be a019 1c3e e12e 0ebe
00000010: b062 293e 0e13 f93d a31c f5bd 25cb 40be
00000020: 002c c3bd 9563 b93d 69cf 393e 0eba 183e
00000030: a565 103e b5b1 e0bd ec5d 25bd 337c 2dbe
0.17337558 -0.23625702 0.1524415 -0.1388507 0.16541553 0.121618375 -0.11968353 -0.18827493
-0.09529877 0.09052197 0.18145527 0.14914724 0.14101274 -0.10971395 -0.040372774 -0.1694191

edge_model.0.weight f4 [16, 96]
00000000: 0c02 16bd 2928 abbd b571 293c 7f2f 7bbd
00000010: 4800 0d3d f362 a9bd aeb7 b43d bdc0 07bd
00000020: dfec 36bc fa35 a7bd 231a 7e3d 36d9 4a3b
00000030: d0be 79bd dd7e 983d 27dd be3c 850e 963d
00000040: 0160 3e3d c894 cabd ceed 95bd af1e 9e3d
00000050: 151a acbd 0b99 febc b81d 843d 9a67 5a3d
00000060: 2b09 803d c4d6 a5bc 8c78 c4bb 4384 033d
00000070: 2be8 243d b7f8 653d 5ec4 af3c d152 f0bb
00000080: 7b8e cb3d bb19 ce3d 7098 8dbb d9df fdb9
00000090: b8fb 16bd 5afc 44bd 471b 303d 3765 e13b
000000a0: fefc 81bc d867 6bbd d43a bdbb 1fd8 ca3d
000000b0: dbad 393d 122b 73bd b0f4 6e3d ca63 9abd
000000c0: ab8f 9abd 1cf9 0abe 52e9 b6bd 016d d23c
000000d0: 54aa 24bd 0a73 973d b809 833d e48d 2b3d
000000e0: 2afc 453d 7d60 173c 57fd 79bd 4dcd eebc
000000f0: ae2c 88bd 7c4e b2bc 3055 8d3c 7b05 41bd
00000100: eb89 2dbc f79a ad3d c8d2 303d 2005 bd3d
00000110: 8fc0 e43d 5944 a1bc 2307 433b caf7 ddbd
00000120: 42c6 a43d 0f06 db3d 03ac 9ebd f1e9 8dbc
00000130: d4e7 863d b978 2abd 55cb bdbd 9252 0c3d
00000140: 4ffc dfbd 64c0 77bb 844b c2ba fb30 883d
00000150: 88ee ca3d 13bf 0d3c 0179 223d 1b41 04bd
00000160: 827b a53c 0ecc abbc 0aa4 223d b5c2 49bd
00000170: e454 713d ce95 463c a0a5 533d 992b 713d
00000180: df20 00bc 313e 0ebc 3b6d 47bd d410 523d
00000190: 3621 d6ba eafe 8fbd 7832 adbd 524f d83d
000001a0: 29b5 b5bd 868d 9c3b 260d e63c 7f34 553c
000001b0: 60d3 98bd c962 1c3d 4c27 28bd 00cc dabd
000001c0: 0b86 9bbc 8dcb 983d 9fef 773d 5784 95bc
000001d0: 9a6b 8f3d 5123 dcbd bd79 0e3d 39d2 1abc
000001e0: 6434 ddbd 038f a13c e375 85bc 3df8 76bc
000001f0: 3cb1 ef3d 8a68 8fbd ae82 d53d 33e1 123d
00000200: 1bc9 ea3d b0f7 233d c991 14bd fdca 55bd
00000210: cfe8 21bd cbf3 cfbd 17e0 893c 3b83 ff3c
00000220: a740 7d3d 48be 9d3c cba9 46bd 9e6b ca3c
00000230: 4b5b 6f3d b109 9dbd 7762 71bd 1aaa 8cbc
00000240: dc74 07bb a2e8 77bc 074e 1e3d ac96 2cbd
00000250: 4056 9f3c 6683 403d 97d5 47bd ac58 b03d
00000260: 96ff c7bd 7d6a 72bd d00b 2cbd 859c 09be
00000270: f2b4 90bd f449 993d b6b3 bfbc 324a 1a3e
00000280: 2e6d b73d f086 2cbd e5b6 4dbc 9d41 e43b
00000290: 3eeb bb3d 5b94 b83d f74d 0d3d 85f2 663d
000002a0: dd13 be3d db11 84bd dc30 14bd 4dcc c6bd
000002b0: 92cf 733d b5fa 713d d526 e2bc 4e76 a7bd
000002c0: d8cc 863b a9ce 71bd bf40 1f3d 477d ce3d
000002d0: 360d f13b 7a75 1d3d dbc5 a4bd 7039 7abd
000002e0: aeeb 833d 6d77 883d 8eef 8b3d da29 6c3d
000002f0: add4 a13c fcc2 8bbd b10f 033d d9bc c5bc
00000300: 4814 12bd e0a7 b23d 9898 ccbd 3439 aa3c
00000310: 5c27 dd3d 2018 253d 774d c4bd ebe4 03bd
00000320: ae3f 98bc a695 70bc 6ccd 0abd 9969 a2bc
00000330: 3fc5 853d e268 b03d 6c59 6ebd c803 dabc
00000340: 4457 863d bd59 9a3d f822 aabd de47 933d
00000350: e6c9 b63d fd2b 8c3d 38f5 17bd 197a a4bc
00000360: 1074 a9bd 868b 33bd 1e68 5cbc 4a72 fc3c
00000370: 96f1 9fbd 170b feba c3b9 22bd 6e3b 253e
00000380: ef21 353d d177 ae3d 3494 d9bc cc26 073d
00000390: 91d6 b1bd 80be 473b 070c 3d3d c4f1 5c3a
000003a0: c8bc 933c 8ebe 98bd 8278 a7bd 5ab5 b93c
000003b0: bd9f 24bd 27ab 923d cff2 903d bce1 c7bd
000003c0: 600f ea3c e071 f83d 05e0 82bd 93d1 3c3d
000003d0: e48f f43b 9909 7fbc a924 77bd 2e62 a8bd
000003e0: 2cb9 abbd 96ba 7ebd be91 0cbe bd16 a43d
000003f0: 8099 e33d 3cdf efbd 819b 023d f1fe 2ebd
-0.036623046 -0.08357269 0.010342051 -0.061324593 0.034424096 -0.08270826 0.088240966 -0.033142794
-0.011164873 -0.08164592 0.062036645 0.0030952222 -0.06097299 0.07446072 0.023298813 0.07326988
0.046478275 -0.09891659 -0.07320748 0.07720696 -0.08403412 -0.031078836 0.06450981 0.05332146
0.06251749 -0.02024401 -0.0059958156 0.032108556 0.040260475 0.056145396 0.02145594 -0.0073340912
0.09939285 0.100635014 -0.0043211505 -0.000484227 -0.03686115 -0.048092224 0.042994764 0.006878521
-0.015867706 -0.05747208 -0.005774835 0.09904503 0.045331817 -0.059367247 0.05833882 -0.075385645
-0.07546934 -0.1357159 -0.08931221 0.025686743 -0.0402015 0.07394989 0.06398338 0.041883364
0.048336186 0.009239313 -0.06103262 -0.02915063 -0.06649147 -0.02176594 0.017252535 -0.047124367
-0.010591964 0.08476823 0.043169767 0.09229493 0.1116954 -0.019685911 0.0029758892 -0.10838278
0.08045627 0.10694515 -0.077476524 -0.017323466 0.065871865 -0.041619036 -0.09267298 0.034258433
-0.10936796 -0.0037803883 -0.0014823531 0.06649967 0.099087775 0.008651513 0.03966618 -0.032288652
0.020200495 -0.020971324 0.03970722 -0.049257953 0.05891885 0.012120677 0.051671624 0.05887947
-0.007820337 -0.00868182 -0.048688155 0.05128558 -0.0016336802 -0.07031043 -0.08456892 0.10562004
-0.08872444 0.004777613 0.028082442 0.013013004 -0.074621916 0.038180146 -0.0410531 -0.10683441
-0.018984815 0.07460699 0.060531255 -0.018251581 0.07002945 -0.107489236 0.034784067 -0.009449535
-0.10801008 0.019721514 -0.016291564 -0.015073833 0.11703727 -0.07002361 0.10425316 0.035859298
0.11464139 0.040031135 -0.036271844 -0.052195538 -0.039528664 -0.10153922 0.016830487 0.031190505
0.061829235 0.019255772 -0.04850177 0.024709519 0.058436673 -0.07667864 -0.058931794 -0.017170954
-0.002066902 -0.015131148 0.03864863 -0.04213588 0.019450307 0.04700031 -0.04878768 0.08610663
-0.09765546 -0.059183586 -0.042003453 -0.13438614 -0.070657626 0.074848086 -0.023401123 0.15067366
0.08956371 -0.042120874 -0.0125558125 0.0069658295 0.09175728 0.090126716 0.03449818 0.05638363
0.09281132 -0.06448718 -0.03617941 -0.09706936 0.059524126 0.059076983 -0.027606407 -0.08176862
0.0041137747 -0.059034977 0.038880106 0.100824885 0.007356311 0.038442113 -0.080455504 -0.061089933
0.06441437 0.06663404 0.06832801 0.0576571 0.019754732 -0.068243 0.031997386 -0.024137901
-0.035663873 0.08723426 -0.099900424 0.02077923 0.10798523 0.04030621 -0.09585088 -0.032200735
-0.018585052 -0.0146841165 -0.03388731 -0.019825744 0.06531762 0.08613755 -0.058190748 -0.026613131
0.06559613 0.075366475 -0.08307451 0.07191442 0.08925228 0.068443276 -0.037099093 -0.020077752
-0.0827409 -0.04383423 -0.013452558 0.030816216 -0.07809751 -0.0019381967 -0.039727937 0.16135952
0.044221815 0.08518947 -0.026559927 0.032995984 -0.086835034 0.0030478537 0.04615405 0.000842836
0.018034354 -0.074582204 -0.08177282 0.022669483 -0.0401914 0.07161551 0.07077562 -0.09759852
0.028571784 0.12131095 -0.063903846 0.046098303 0.007463442 -0.015566253 -0.060337696 -0.08221851
-0.08384928 -0.06218966 -0.13727471 0.080121495 0.11113262 -0.117125005 0.03188658 -0.0427236

edge_model.0.bias f4 [16]
00000000: 18d8 1ebd 67a9 18bd 3218 3ebd 9b95 d53d
00000010: bc4e 88bb 8786 b03d 72a0 863d 125d bdbd
00000020: b94f 4d3d 4c99 4b3d ed82 8cbd 66d8 a43d
00000030: ae62 4fbc b477 6bbd 8c1e 96bd d8bc 683c
-0.0387803 -0.03727093 -0.046409793 0.104289256 -0.0041597765 0.08619409 0.06573571 -0.092462674
0.050124858 0.049706742 -0.068609096 0.08049087 -0.012657804 -0.057487205 -0.07330045 0.01420518

edge_model.2.weight f4 [16, 16]
00000000: 88ff 2dbe db0c 61be d747 1fbd 8623 73bd
00000010: 44ec 16bd f6f6 28be b101 9e3d 6889 0ebe
00000020: 0e5b 793e 7b18 fc3b d4d8 76bb c057 d1bd
00000030: 5210 b63d 11aa 33be a0b3 91bd 5a3f 04be
00000040: 4146 743d 033e e1bd d6ec 8c3d c367 1f3e
00000050: 83f1 db3d c9ea 6cbe 3c80 113e 02dd 40be
00000060: d9c3 9bbb aece f7bd 59b3 3c3e fe37 ebbd
00000070: 10af 103d c392 0fbe c233 1a3e 5a6d c93d
00000080: c71e 803d f7a2 a73d d4f6 853d 613c 77be
00000090: 2037 48be 196c 713e 2d4d 3b3d fd00 12bc
000000a0: 4d45 30bd e5d2 03be c33b a33d e32b e83c
000000b0: 65a2 33be 22c1 923c 4403 93bc 3c79 423e
000000c0: 4c75 0e3d 2222 63bb 2425 963e 3ff7 f23d
000000d0: 2af0 92bc 07a1 513d e895 68be 2204 4cbe
000000e0: 84f3 13be 86ec 8cbe 8b5b 8a3c be6c eabc
000000f0: ffdc 02bd d6d7 82be 1d82 193e af52 1039
00000100: 171b 7a3e dbb1 2abe 3c68 5fbe 117b 273e
00000110: ecbd dfbd 1f99 043e 3292 873e a4b0 783e
00000120: d753 80be 18a3 463e f18b b8bd 8d48 263e
00000130: a46c d93c 4d1e 64be 77a8 37be 0ee8 4e3e
00000140: c8d0 393d c787 143e 2729 623d 2fdf 2f3e
00000150: 2279 76be a920 54be 4da9 79be 7b62 3b3d
00000160: 48e1 823e 72c6 633d 9a69 7fbe 11ac 0b3e
00000170: 1352 3e3e b1f8 703e 30d8 5bbe 3b16 86bc
00000180: 9deb f63d d1c3 90bd 4ae3 a43d 3679 453e
00000190: c122 25bd b271 043c 9528 293e 6cbf fbbc
000001a0: f07b 4fbe dc69 113e 6950 813e 48d1 453e
000001b0: 5686 7dbe 858c 2ebe 31b9 fbbd 2964 1ebe
000001c0: 7a97 70be 597c 063c 6411 94bd 47c7 83bc
000001d0: f761 ce3c 3ddc 6dbe 4b02 5ebe b663 7fbe
000001e0: 520f 18be c0ed 2c3e f11b 073e c813 76bd
000001f0: b667 0fbe a323 30be 6303 64be 7f45 e03d
00000200: 564e 023e d573 cc3b 9da9 16be 8731 6b3e
00000210: f7c1 453e 7b5c 78be 7c8f f43d fc03 a83d
00000220: 6792 e3b8 785a 173e 8b94 b5bd ebba adbd
00000230: 44c5 143e 065b 2cbd 3d05 d1bd 86bc ae3d
00000240: 5dea e13c 7abb 3abe 32a1 b33d 3396 fdbd
00000250: 89d1 3c3e 5ff4 513e a4e7 8c3d 20fb 683e
00000260: fe77 3fbe dba7 7fbc d8ba 653e f0ad 8cbd
00000270: a079 623e 1c3e 3dbe b9a6 413e f349 05be
00000280: 285e aebd 49ab 90bd 7549 523e 84bf 143d
00000290: e10b 233e f86b 78be 52b3 97bd 3141 58be
000002a0: ea23 4a3d 231b 4f3c 4acf 2ebe ed2d 9c3d
000002b0: 0445 15be 2325 37be adb2 d8bd 7a6b 12bd
000002c0: f551 443e 29ce c7bd e0be 2f3e c50a f93d
000002d0: 2c7c 2cbe d083 57be 7d0d d23c 9cea 87bd
000002e0: a406 b33d 8e0f 07be be18 6fbd f83e efbd
000002f0: de41 923e dd89 5cbe 93d1 8ebd f344 073e
00000300: 5303 3d3e dc44 17bd 28cd adbd cc0e 843e
00000310: 9110 51bd 4210 ec3d 11d5 5fbe bbe1 2bbd
00000320: 4097 44be 92bc 88bd 2630 bf3d 2fe7 7a3e
00000330: b4b4 103e 323e 56be a803 873b 00ac febd
00000340: 2e64 3a3e 7942 c1bd 9d2d 8f3d 379e af3d
00000350: 67ac bfba e814 68bd f268 87be bdff 723e
00000360: b70d 2c3e 2a84 d6bd 6f14 7c3c 2c0b 5f3c
00000370: c687 70be 4b5a bc3d c47a 3e3b 4c98 1fbd
00000380: 4382 353e ee76 4a3e da7c 82be 51e2 47bd
00000390: 25b2 9d3c 2c10 0d3e 84b4 e5bd 331e 013e
000003a0: a854 d7bd a4c9 c63d eacb 6e3e add3 51bd
000003b0: 91cc db3d 69ea 28be 0ef1 61be c9fc 43be
000003c0: b425 d1bd 2f02 5f3e 48f6 503d 3d9d 6dbe
000003d0: 3316 783e 9fe1 c53d 7a4c 153e 7dcc 863d
000003e0: 36f9 97bd af44 e8bd 98a6 313d 7ede d63d
000003f0: 20dd 92bd c240 5bbe 3ad3 233d 019b 64bd
-0.16992009 -0.2197756 -0.03888687 -0.05936005 -0.036846414 -0.16500458 0.07715166 -0.13919604
0.24351141 0.007693348 -0.003766586 -0.10221815 0.088898316 -0.17545344 -0.07114339 -0.12914792
0.05963731 -0.10998156 0.0688111 0.15566926 0.10739424 -0.23136438 0.14209074 -0.18834308
-0.0047535715 -0.12099968 0.1842779 -0.11485289 0.035323203 -0.14020829 0.15058807 0.0983531
0.0625587 0.0818538 0.06541219 -0.24144126 -0.19552279 0.23576392 0.045727897 -0.008911368
-0.04303484 -0.12873419 0.07970383 0.02834124 -0.17542417 0.017914359 -0.017945893 0.1899156
0.03477983 -0.0034657796 0.2932521 0.11863565 -0.017936785 0.05117896 -0.22713435 -0.19923452
-0.14448363 -0.27524203 0.016889354 -0.028616305 -0.03194904 -0.25555295 0.1499104 0.00013763712
0.24424396 -0.16669409 -0.21817106 0.1635554 -0.109248966 0.12949036 0.26478726 0.24286133
-0.25063965 0.19398153 -0.09011067 0.16238613 0.026541062 -0.22277184 -0.17935358 0.2020571
0.045365125 0.1450492 0.055215027 0.17174982 -0.24069646 -0.20715584 -0.2438099 0.045748215
0.255625 0.055609174 -0.24942628 0.13639857 0.18585996 0.23532368 -0.21469188 -0.016368022
0.120566584 -0.07068599 0.080511644 0.1928452 -0.040316347 0.008083748 0.16519387 -0.030730926
-0.20262122 0.14200538 0.2525666 0.19318116 -0.24758276 -0.17045791 -0.12291182 -0.15467896
-0.23495284 0.008208358 -0.072298795 -0.016086234 0.025193198 -0.23228545 -0.21680562 -0.2494038
-0.14849594 0.1688757 0.13194253 -0.06007746 -0.14004406 -0.17201094 -0.22266917 0.10950755
0.12725195 0.006239394 -0.1471314 0.22968112 0.19312273 -0.24254028 0.1194143 0.08203885
-0.00010851473 0.14780605 -0.08866223 -0.084829174 0.14528376 -0.042078994 -0.10206077 0.08532052
0.027577573 -0.18235579 0.0877098 -0.12382164 0.18439306 0.20503376 0.068801194 0.22752047
-0.18698117 -0.015603985 0.22434556 -0.068691134 0.22116709 -0.18480724 0.18911256 -0.1301649
-0.08514053 -0.0706392 0.20535834 0.036315456 0.159225 -0.24259937 -0.074072495 -0.21118619
0.049350657 0.012640747 -0.17071262 0.07625947 -0.14577109 -0.1788526 -0.10580955 -0.03574703
0.19171889 -0.09756119 0.17162657 0.12160257 -0.16844243 -0.21046376 0.025641197 -0.06636545
0.08741501 -0.13189527 -0.058373205 -0.11681932 0.28565878 -0.21536966 -0.06973567 0.13209896
0.184583 -0.036930904 -0.08486396 0.2579254 -0.05104119 0.115265384 -0.21858622 -0.04196332
-0.19198322 -0.06676592 0.093353555 0.24502252 0.14131433 -0.20922163 0.004120309 -0.1243515
0.18202278 -0.09436507 0.06991122 0.08575099 -0.0014623523 -0.056660563 -0.26447254 0.23730369
0.16802107 -0.10474427 0.015385731 0.013613503 -0.23489293 0.091969095 0.0029064873 -0.0389636
0.17725472 0.1977193 -0.2548588 -0.048799817 0.019249985 0.137757 -0.11216071 0.12609176
-0.10514194 0.09706429 0.23319975 -0.05122726 0.10732377 -0.1649567 -0.22064611 -0.19139399
-0.102122694 0.21778177 0.051016122 -0.23204513 0.24227218 0.096621744 0.14579955 0.06581972
-0.0742058 -0.11341225 0.043371767 0.10491656 -0.071710825 -0.21411422 0.039996363 -0.055811886

edge_model.2.bias f4 [16]
00000000: ce5d 75bd d6d8 17bd fafe 5bbd 63de 3a3e
00000010: 9a0a 183e cd17 0d3e 46cb 19be f584 77bd
00000020: 1e62 86bd 9c2f 233e 3095 37bd 2d74 5bbe
00000030: b424 1e3e 097d a2bd 1e40 ed3d 9150 253d
-0.059903912 -0.037072025 -0.05370996 0.18248896 0.14847794 0.1377861 -0.15018949 -0.060429532
-0.06561683 0.1593613 -0.04482001 -0.21431036 0.15443689 -0.07934005 0.11584495 0.040360037

edge_model.3.weight f4 [16]
00000000: 6111 823f 5627 813f 1212 863f c15a 8b3f
00000010: 3286 7e3f 7fed 833f fcd5 7d3f c6cf 7e3f
00000020: d1d3 843f 2d71 7d3f 0ec4 833f 85a9 813f
00000030: 6486 813f fbdd 7f3f 4f61 7d3f 7546 803f
1.0161554 1.0090129 1.0474265 1.0887071 0.99423516 1.0306853 0.9915464 0.9953579
1.0377141 0.9900082 1.0294206 1.0129858 1.0119138 0.9994809 0.98976606 1.0021502

edge_model.3.bias f4 [16]
00000000: 2567 dc3c bc42 6f3c 3762 fcbb ab7e ecbc
00000010: 213c edba d6b2 d83c 20a1 b83b bead 133b
00000020: 57fe 2b3c 1590 173b 6207 a8bc 2659 253c
00000030: 36b0 5f3c 5559 c93c ea4b 4b3a 218e c4bb
0.026904652 0.014603313 -0.007702138 -0.028868994 -0.0018099585 0.026452463 0.005634442 0.0022533978
0.010497651 0.002312665 -0.020511333 0.010092055 0.013652852 0.02457873 0.00077551475 -0.0059983884

node_decoder.0.weight f4 [1, 16]
00000000: b8f9 023f 924b f5be bd9a 143f 6e04 ddbe
00000010: bcd4 d63e df0c 2a3e 1061 87be 1403 a2be
00000020: 9bd5 c6bd ae84 bc3d 6cd3 cc3e c51d 853e
00000030: 5241 4b3e 3f13 cabe 8c89 113c 63ce fabe
0.5116229 -0.47909218 0.5804861 -0.43167442 0.41959178 0.16606472 -0.2644124 -0.31642973
-0.09708711 0.09204994 0.40005052 0.25999275 0.19849136 -0.3946781 0.008882891 -0.48985586
