tmp/tmp4model800.pt (torch, 23679 bytes, 25 tensors)

node_encoder.0.weight f4 [16, 5]
00000000: 0e9d 793d be9c 773d 4c17 bbbe 97cd 84be
00000010: baad e1be e9b1 d8be bcc0 e43e 080d b63e
00000020: 2836 d93d 7420 d23e b693 32be 8c07 61be
00000030: 31d8 bc3e 100b c2bc c0aa b43d 82d8 723e
00000040: da72 553e e01b 83be da1a 31be 6351 d3be
00000050: f14d 183d e5ee 38be 1da0 ec3d 8071 aa3c
00000060: 4d15 c03e 2d1c 9e3c 41b0 633e 0447 d73d
00000070: da26 cb3e 35e2 4cbe 95ba bd3e 922b a23e
00000080: ee31 32be e85a 8c3e 6081 d03e 54c1 7cbe
00000090: 2f01 fbbd ffba 9f3e 24a0 b83e b58c df3d
000000a0: 029c 213e ff6f a33e a35e d53e b5d0 90be
000000b0: 84d3 42be a8a7 d63e 3f24 963e 1209 4cbe
000000c0: 2a62 1bbe e51e e13e 78d3 85be f877 873e
000000d0: c50b 9b3e ac98 dbbe 4c04 f2be 9b08 ed3d
000000e0: a7f6 393e b642 bc3e c0c6 613d 63a3 aa3e
000000f0: 0768 bbbe 25ff 5f3e c694 dcbe 3c29 953e
00000100: 5f0a 073e 9a6a 943e 830d 5d3e fec2 9ebe
00000110: 002e 983b 9487 4e3d 1bd7 623d 2421 d1be
00000120: aa0c 73be ebb7 57be 7029 7bbe 6d2a b93e
00000130: c27d 663e 2ed5 453e c248 09be 1367 cbbe
0.060940795 0.060452215 -0.36541212 -0.25938103 -0.44077855 -0.42323235 0.44678295 0.35556817
0.106060326 0.41040385 -0.1743916 -0.21975535 0.3688369 -0.023686916 0.088216305 0.23715404
0.20844594 -0.25607204 -0.172954 -0.4127303 0.037183706 -0.18059881 0.11553977 0.020806074
0.3751625 0.019300545 0.22235204 0.10511592 0.3967808 -0.20008166 0.37056413 0.31673867
-0.17401859 0.27413106 0.40723705 -0.24683124 -0.12256085 0.31197354 0.36059678 0.109155096
0.15782169 0.31921384 0.41673765 -0.2828423 -0.19026 0.41924787 0.2932453 -0.19925335
-0.15174165 0.43968883 -0.261379 0.26458716 0.30282417 -0.42889917 -0.47268903 0.11573907
0.18160497 0.36769646 0.055121183 0.3332778 -0.36602804 0.21874674 -0.43082255 0.29133022
0.1318755 0.2898758 0.21587186 -0.31008142 0.0046441555 0.050422266 0.05538092 -0.40845597
-0.237353 -0.21066253 -0.24527526 0.3616518 0.2250891 0.19319603 -0.13406661 -0.39727077

node_encoder.0.bias f4 [16]
00000000: 1577 d23d 56ff cd3e 0817 3f3e 96cc c6be
00000010: c599 b5bc 00eb 89ba 58db 8f3e 14a3 473e
00000020: 88fb 96be aa11 c2be 8f25 1b3e 820d 3e3e
00000030: 704b 553e 9999 a43e a9d8 c53e e5c4 52be
0.10276619 0.40233868 0.1866113 -0.38827962 -0.02216805 -0.0010522306 0.28097034 0.19495803
-0.29488778 -0.37904102 0.15151046 0.1855984 0.20829558 0.32148436 0.3864186 -0.20582922

node_encoder.2.weight f4 [16, 16]
00000000: ad5e 86be 0ebc 063e 227f 6a3e d05e 45be
00000010: 5e76 f1bd d7df 583e 52df 463e c5f2 0bbd
00000020: 65e2 08be 08e4 5b3d 0b5b 71be 968d c7bd
00000030: 86c3 25bd 8f36 84bd acbc 913d ef91 17ba
00000040: c053 4ebe 1f78 6bbc 81ac 4d3d 2593 1c3e
00000050: eb8d cd3b c564 85bd cf7e db3d ba2b 0f3e
00000060: 7ff7 983d 825a 18be edbe bb3d 76d3 583d
00000070: 4190 143e df58 71bd 9f14 a03c a6e6 1f3e
00000080: 04fe 92bc 02d6 113e 2b51 2bbd cfe4 6d3e
00000090: d818 e73b 5fd8 39bd a65b ce3d e024 7abc
000000a0: c938 4f3e 90be 3cbc c1a6 343e 5215 64bd
000000b0: ad2e 163d f8a1 c53d e735 74be e542 5e3d
000000c0: 4e56 3d3e ec65 863d 1304 6fbd 4bf5 763c
000000d0: 83dc a43d 7e08 543d bb7d 08be 4127 0f3d
000000e0: a7eb 8fbe a799 f73c 03f8 05be 4f70 1ebe
000000f0: fc12 3abe c15e 483e 4697 08bd b6bb a4bc
00000100: db70 c6bd dd62 c7bd 32d5 2abe e932 aabb
00000110: f2d3 20be a58f 04be b058 e23d 9020 743e
00000120: ab77 92bd 2657 87be de9a 6d3e abde 0e3e
00000130: 257e 0c3e cd1f 94bd 6160 78bd b442 423b
00000140: 87bb 7dbc 7460 cbbc cf37 ffbd 1b7e 193e
00000150: 1493 b83d 6191 4dbd 27f2 82be 2a00 f6bd
00000160: b5a8 c4bd 5f4b e6bd bd83 543d c2c3 87bd
00000170: f5f0 713c 671e 59be 1d6b 5cbd 9716 b73d
00000180: 7b5f 813e 6c0f 65be b1ab 1b3d ecb9 083e
00000190: 725b 04bd 74d2 683d a513 1a3e 1bb2 72be
000001a0: ee04 0f3e b7d6 72be ab1f 193d f462 163e
000001b0: 7a65 e4bd df1f 3dba 1edc 4cbe bc81 46bc
000001c0: 5efb d43d 421f d13d 1f66 763d 04e5 50bd
000001d0: 44e6 cbbd d615 303e 60da 363d bca4 a63d
000001e0: 79c6 c23d 8a84 cfbd 4868 35bd 8912 5b3e
000001f0: 1401 463e e31e 8fbe 284a 5dbe 05f0 cdbd
00000200: 2bdb bc3d 5320 14be a88a c23d 042c 4bbe
00000210: e5dd 88bd 627f 213e aac1 80bd 0896 b9bd
00000220: a4d1 213d 42ae 5c3e 12cd 413d 0e08 13bc
00000230: bf77 b63c 1d0b 4fbe 4837 d5bd 6f5e 793e
00000240: b00f cbbd f06e 133e 6093 90bd 1380 143e
00000250: 99ec 013e dc63 543e fc2f e9bd 573d 57bc
00000260: efd5 1cbe 21e3 df3d 9ba0 d9bd c753 4c3d
00000270: e95d 14be d201 19bc f6b1 3abe f571 38be
00000280: 2dc5 dc3d 8500 1e3d d3e2 6abd 9125 b0bd
00000290: 776a 7a3e 25d3 753d 8541 bf3d 9c6d 903e
000002a0: ef62 8f3e 6f2d 2ebd 755c 1e3e b84b 033d
000002b0: f9e8 37be 29e0 3b3e ca3c 053a 645e 383c
000002c0: ac7b 3f3d 5afa 3a3e 4f9f 90bd 8b4b 1cbd
000002d0: e148 863d 3a58 fc3c 8c56 d33d b091 543e
000002e0: 22b6 b6bd 9028 2f3e 9607 60be c51a 913c
000002f0: 704e 8c3d 4c06 7abe 7ba3 8cbe 6962 abbd
00000300: b27e 12bd 4624 313e a293 67bd 0915 4b3e
00000310: 430f babd a259 c83d 2e11 423e e3c3 343e
00000320: b63c 5abd c095 c13d 75e0 e53d 86eb 34be
00000330: 9c12 353e a9b3 7c3e 870b 8c3d bfa8 923e
00000340: f990 d4bc dc82 0ebc 04cf 0dbd fd26 5a3d
00000350: 70ef bf3d 2463 40be 8f23 b1bd 6bd3 41be
00000360: dff3 11bd dd85 7c3d 8ecb 18be be60 2c3d
00000370: 0b8f 78be 07ed c53d 683f 0f3e 7a6e 99bd
00000380: ca1d 393e 5e35 98bd 84d3 65be 61f6 41be
00000390: 8210 86be acc2 3c3d 2391 4a3c 4234 74be
000003a0: 8697 a3bd 821d 1a3c fe6d 0fbd 3102 b93d
000003b0: d8e2 773e 01a9 093e 2edf 793d 4eef e83d
000003c0: 2b44 f6bd d8c5 69bd bfc1 a7bd 623e 2d3d
000003d0: 6e87 eb3d 1dca 913d a62d f1bd f1c1 58be
000003e0: 0dc1 5ebd 5fe1 293e 7307 5bbe 9707 0e3e
000003f0: 5219 fa3d 4605 d8bd 0237 4f3e 5328 ffbd
-0.26244107 0.13157675 0.2290006 -0.1927445 -0.11790155 0.21179138 0.19421127 -0.03416707
-0.13367613 0.053684264 -0.23569886 -0.09743802 -0.04046967 -0.06455719 0.071160644 -0.00057819387
-0.20149136 -0.014371901 0.05021334 0.15290506 0.0062730215 -0.06513361 0.10717546 0.13981524
0.07469081 -0.14878276 0.091672756 0.05293604 0.14508153 -0.058922645 0.019541083 0.15615329
-0.01794339 0.14241794 -0.041825455 0.23231815 0.007052522 -0.045372363 0.10076074 -0.015267581
0.20236506 -0.011520043 0.17641737 -0.055684395 0.036665607 0.09650034 -0.23848687 0.054263014
0.18489954 0.06562409 -0.058353495 0.015073131 0.08049872 0.05176591 -0.13329212 0.034949545
-0.28109476 0.030224634 -0.1308289 -0.1547253 -0.18171304 0.19567396 -0.03334739 -0.020109039
-0.09689494 -0.097356535 -0.1668289 -0.0051940572 -0.1570585 -0.12945421 0.11052072 0.23840547
-0.07151731 -0.26433676 0.23203608 0.13952129 0.13719995 -0.07232628 -0.06063879 0.002964181
-0.0154866045 -0.024826266 -0.124618165 0.14989512 0.09012428 -0.050187472 -0.25575373 -0.1201175
-0.09602491 -0.11244845 0.051883448 -0.06629135 0.014766921 -0.21203004 -0.05381309 0.089398555
0.25268158 -0.22369164 0.038005535 0.13352174 -0.03231377 0.05684133 0.15046556 -0.23700754
0.13966724 -0.2371472 0.037383717 0.14686185 -0.111521676 -0.0007214527 -0.20005843 -0.012115892
0.10399507 0.1021104 0.060155984 -0.050999656 -0.09956029 0.1719583 0.044641852 0.08136889
0.09510512 -0.10132702 -0.044288903 0.2139379 0.19336349 -0.27953252 -0.2161032 -0.10055546
0.092214905 -0.14465456 0.09499103 -0.1984101 -0.06682948 0.15771249 -0.062869385 -0.09061819
0.03950657 0.21550849 0.04731471 -0.008974088 0.022273896 -0.20219083 -0.10410935 0.2435243
-0.099151015 0.14397788 -0.070593596 0.14501981 0.12687911 0.20741218 -0.113861054 -0.013137183
-0.15315984 0.10931993 -0.10626336 0.049884584 -0.14488949 -0.009338813 -0.18231949 -0.18012221
0.10779796 0.038574714 -0.057345223 -0.08600915 0.24454676 0.060015816 0.09338669 0.28208625
0.28005168 -0.042523798 0.15464957 0.032054633 -0.17959966 0.18347229 0.00050826056 0.011252973
0.046748802 0.18259564 -0.07061636 -0.03815798 0.06556869 0.030803788 0.10319242 0.207587
-0.08921458 0.17105317 -0.21877894 0.01771296 0.06850898 -0.24416465 -0.27468476 -0.083683796
-0.035765357 0.17298993 -0.056537278 0.19832243 -0.09084942 0.09782721 0.18951866 0.1765285
-0.053280555 0.09452391 0.112244524 -0.1766797 0.1768288 0.2467791 0.06838136 0.28644368
-0.025948035 -0.0086981915 -0.034621254 0.05325984 0.09371841 -0.18787819 -0.086493604 -0.18928306
-0.035632964 0.0616511 -0.149214 0.042084448 -0.24273317 0.0966435 0.13989031 -0.07491775
0.1807777 -0.07432054 -0.22443968 -0.18941642 -0.2618447 0.04608409 0.012363705 -0.2384806
-0.07987885 0.009406449 -0.035017006 0.09033621 0.24207628 0.13443376 0.061003856 0.11373769
-0.12024721 -0.057073444 -0.08191251 0.04229582 0.115004405 0.07118628 -0.11776285 -0.21167733
-0.054383326 0.16589878 -0.2138956 0.13870083 0.12211861 -0.10547881 0.20235828 -0.12458863

node_encoder.2.bias f4 [16]
00000000: 5df0 d73d 5651 7f3b 09a7 39be 1b91 07be
00000010: 096d de3d 7ade 67be 98bb 5b3e 6416 f0bd
00000020: ba91 c1bd 225c 34be b5f1 31be ea58 7dbe
00000030: e13e bd3d 342d 4f3e d8c5 363d bf6b 6d3e
0.105438925 0.0038958392 -0.18130125 -0.13238947 0.108606406 -0.22643462 0.2145828 -0.11723021
-0.09451623 -0.17613271 -0.1737736 -0.2474095 0.09240509 0.20232087 0.044622272 0.23185633

node_encoder.3.weight f4 [16]
00000000: 0bd5 773f 99df 813f b00d 803f d646 823f
00000010: 3b53 753f ca36 823f 9590 7d3f f4bb 793f
00000020: a3b3 7c3f 8f37 733f 1c9c 773f 484f 813f
00000030: 1194 7d3f cb89 773f 6a43 7a3f b7ba 783f
0.9680945 1.0146362 1.0004177 1.0177867 0.95830125 1.017297 0.9904874 0.9755242
0.98711604 0.9500665 0.9672258 1.010232 0.99054056 0.9669463 0.97759116 0.97159904

node_encoder.3.bias f4 [16]
00000000: 7261 bebc ff2d d73b 10ba b03b 2a95 7cbc
00000010: 4b93 10bd ab2b aabc 1f1b 0fbc 7011 e8bc
00000020: 65aa 58bc 3454 523d 9d8d 773c 035a a5bc
00000030: 5c4c 9dbb 688d 0bbc 5fdd 10bd 554b e33c
-0.023239825 0.0065667625 0.005393274 -0.015416423 -0.03529672 -0.020772776 -0.0087344935 -0.028328627
-0.013224219 0.051349834 0.015109447 -0.020184522 -0.0048003625 -0.008517601 -0.035367366 0.027745882

edge_encoder.0.weight f4 [16, 4]
00000000: b14f 16bf 6491 85be 6857 f53e ea0a 213e
00000010: 76db be3e cb5b 833d a392 b83e 9091 6ebe
00000020: fae4 f03e 75de 8cbe 6eed 0cbf 5408 393e
00000030: 6212 b1be 9125 1b3e cf0a ef3e dc4d 51be
00000040: 4896 41be 2025 b0bc 5005 b1bd 10d7 053d
00000050: 06a5 78bd 09c0 f03e e1be 643e 4026 dabd
00000060: cc1d 38be febe ee3c 151e 843e f96d 6ebe
00000070: 7811 40be 8318 c03e 47ca 50be 91e2 873e
00000080: f2aa dbbe fb24 87be 14c7 eabc ae6b f4be
00000090: df8b b43e 7415 76be 74e8 a73e 7e99 bdbc
000000a0: ea5f 723e 8004 853e d4a7 92be 5844 82be
000000b0: 3f8b 613e 48ff 8dbe 7885 123f b05d f7be
000000c0: be2a d3be 14c1 7bbd 3c61 aabe 5c07 9fbe
000000d0: 4577 bc3e 7c57 34bc da00 a53e 9793 c83e
000000e0: 55fc 913e 4ad2 c93e 2a89 a5bd 00d1 efbe
000000f0: 7337 81be 5a55 04bf 69de 8a3d 51e1 6a3e
-0.5871535 -0.26087487 0.47918248 0.1572682 0.3727681 0.064139925 0.36049375 -0.23297715
0.47049695 -0.2751347 -0.5504979 0.18069583 -0.34584337 0.15151049 0.46687934 -0.20439857
-0.18904984 -0.021502078 -0.086435914 0.032675803 -0.060704254 0.4702151 0.2233844 -0.10651827
-0.17980117 0.029143807 0.258042 -0.23284139 -0.18756664 0.375187 -0.20389663 0.26540044
-0.42903858 -0.263954 -0.028659381 -0.47738403 0.35262963 -0.24031621 0.32794535 -0.02314448
0.23669401 0.25979996 -0.28643668 -0.25442767 0.22025774 -0.27733827 0.5723491 -0.48313665
-0.41243547 -0.06146343 -0.3327731 -0.31060302 0.36809745 -0.011007186 0.32227212 0.39175102
0.28512827 0.3941825 -0.080828026 -0.46839142 -0.25237617 -0.51692736 0.067807026 0.22937514

edge_encoder.0.bias f4 [16]
00000000: 652a 9f3d 01c9 b9be 6d18 943d 130b efbe
00000010: ae11 95be df94 6cbe 7ed1 ab3e bf69 ee3e
00000020: 8eb1 963e 108c b33e 3f25 d3bc e694 3cbe
00000030: d606 953e adbd d43e 522d 5a3d 053a 893e
0.07771758 -0.36286166 0.07231221 -0.46688136 -0.2911505 -0.23103665 0.33558267 0.46565053
0.29432338 0.35067797 -0.025774596 -0.18416175 0.29106778 0.4155096 0.053265877 0.26802078

edge_encoder.2.weight f4 [16, 16]
00000000: 6973 25be 35c6 e0bd 36bd 9cbd 4d4e df3d
00000010: 54a1 abbd 4e25 933e ff30 7f3e 395c 4e3d
00000020: c809 38be a9a6 953d 430e 673e 3ad4 3f3e
00000030: 37dc 1a3e 28df ff3d b651 2c3e fcb6 34bd
00000040: 7084 2e3d a74f c23c 105a 5fbd 9f36 08bd
00000050: d08c 94bd 4e12 d23d 921b 643e 9333 81be
00000060: 4cca 133e f696 3fbe 9f07 36be 8798 64be
00000070: 794d 6e3e 7771 8abb 8103 9e3d cc97 8a3e
00000080: b756 34be f757 d63e 30b7 0cbe 76b1 2dbe
00000090: 865b 333e 0562 cbbd 800f 81be 219b ecbc
000000a0: ce87 68be 20e3 4d3e 2ec7 49be 4726 863c
000000b0: f87a 68bc 7178 9d3d 1748 153e 5d00 a1be
000000c0: 78b9 edbd 48fd 67be 1a76 88be 77e5 12be
000000d0: 40b6 183d 844f 403e 8b33 9b3b 3631 7e3e
000000e0: c95d 173d 5def 9fbd 2550 cdbd d39a dc3d
000000f0: 6dd7 633e c9c7 343e 4fa1 ecbd 6b45 82bd
00000100: 456a efbd 0278 e5be 8b3e 703d 7f02 ed3d
00000110: 7078 bf3d bf98 05be 9027 23be a613 143d
00000120: 3d66 d93d 2ef8 47be e26a 81be 3603 a0bb
00000130: 9243 5b3b 173f 5a3e 6217 59bd f367 073e
00000140: b048 8b3c f8b9 c7be 0e23 7dbe 0c0d a7bd
00000150: e832 083d e138 2b3e 200e 7a3e 674b 3c3e
00000160: 0027 463e 890b 8f3d ea26 4f3e 84e6 49be
00000170: 8d53 2b3d 7e1f 2c3e df99 7b3e d94d 5a3e
00000180: 2297 043e 25a5 a53d 5c69 073e f19c 193e
00000190: bac3 24be 83f3 063e 06ed 073e 13de 493d
000001a0: 43e2 293e e07a 16be d1ab 2dbd 2feb 1f3e
000001b0: 81c3 5abe 5196 b63d bdab a9bc dbbf dd3d
000001c0: 95a5 92be 30a4 a63e 77f1 923d ec49 8ebd
000001d0: e085 c83c c96c 763e e304 233d dd44 e7bd
000001e0: 8d72 82bd 7fc6 403d 3bb8 b63d ffee c43d
000001f0: 3592 523d e6e2 213e 8be2 593e 51b9 84be
00000200: 3f2c aa3d fa30 14bf 0f88 a1bd 8d9e 183e
00000210: 60dc aebd 907e 20bd 2dfc 1e3e 6ee2 11be
00000220: 0fc7 673e c634 42be bb73 473d e7e7 a2be
00000230: a06e b13d da1c a53d 3a7e 5cbd 2e6b 8f3e
00000240: cbb8 4b3e e48b 5dbe fb85 b83d 8279 46be
00000250: 30fd c43c bfd7 673e 05ac ff3d f808 e03d
00000260: 7933 f1bd e1c2 fc3d 7763 7a3d d0ce 36be
00000270: 66b1 61be ece3 7e3e 9096 a63d 10ff e53d
00000280: 1b02 5abe 0b64 9a3d ca06 613e 7ccb e93c
00000290: 0068 79bc 349d 4c3e c8bb 16be 5059 cebd
000002a0: 8994 abba a2e7 4dbe eafc 3c3e 7c34 093e
000002b0: 25dd 313e 75eb 853c 22fc 9b3d 0394 d73c
000002c0: 164a 0bbe 6b0a 50be c37e 513e 26b3 24be
000002d0: 9c1a 603e de2a ad3d e61b 3ebe 12a2 15be
000002e0: 66a7 fd3d 9979 223e 569e 663e bec2 2f3e
000002f0: 0ebd 78bd 24b6 493c 7fc1 6bbe 3532 f23d
00000300: 915f 353c 66e1 533e 3b8e 41bd 43ac 0fbe
00000310: 587c ffbd a8dd 4ebd 49be 5abd 0131 013e
00000320: 38d8 43be 4c23 1d3e df84 09be d885 923c
00000330: 1d64 2abe 3901 5cbe a7ac be3c 55e5 643e
00000340: 41ef 5b3d 97e3 41be a886 003d c1cc 02be
00000350: d043 653d 452b 22bd 2169 82be 32df 423e
00000360: e47c fc3d 8842 2c3e 0b9c 8bbc b33b e3bc
00000370: eb6f 1ebd d5e6 33be a22d 54bd f0b8 543d
00000380: b1c7 013c 1e49 1b3d 5a42 463e 10fe 273e
00000390: a0a7 153c 1905 363e 28db 473e df12 3abe
000003a0: 5d22 3e3e ea38 2dbe 418e 9c3c a0c5 123e
000003b0: 6925 58be 36ef 103e 44f5 07bd 0fe8 2d3e
000003c0: 8ef5 b73d 29c1 3a3e 4e9c 4e3e bb25 173e
000003d0: 4080 593e 2a62 11be 7a7f 46be 4610 37bd
000003e0: 23fe 653e 719a 923e 799f 1e3e 8c7c a7bd
000003f0: 6073 1cbe cf2d 8cbd b2da 0ebe e6c2 23bd
-0.16157307 -0.10975305 -0.076532766 0.109036066 -0.0838038 0.287394 0.24921034 0.05038092
-0.17972481 0.073071785 0.22564034 0.18733302 0.15123068 0.124937356 0.16828045 -0.04411982
0.04260677 0.023719622 -0.05452925 -0.033255216 -0.0725342 0.102573976 0.22276142 -0.2523466
0.14432639 -0.18709931 -0.17776345 -0.2232381 0.23271741 -0.004224952 0.07715512 0.27068937
-0.17611204 0.41863987 -0.13741755 -0.16962227 0.17515382 -0.09930805 -0.25207138 -0.028882565
-0.22708055 0.20106173 -0.19704887 0.016375674 -0.014189474 0.07688988 0.14578281 -0.3144559
-0.11607641 -0.22655213 -0.26652604 -0.14345346 0.037283182 0.18780333 0.004736369 0.2482346
0.036954675 -0.07809327 -0.10025052 0.10771718 0.22250147 0.17654337 -0.11554205 -0.06360897
-0.11690191 -0.4481812 0.058653396 0.11572742 0.093491435 -0.1304655 -0.1593306 0.03615155
0.106152035 -0.19528267 -0.25276858 -0.0048831953 0.0033457023 0.2131313 -0.053000815 0.13223247
0.017002434 -0.3900907 -0.24720404 -0.08156785 0.033251673 0.16720916 0.24419451 0.18388139
0.19350815 0.06984622 0.20229688 -0.19716841 0.041827727 0.16808888 0.24570416 0.21318759
0.12948278 0.080881394 0.13223785 0.15001275 -0.16090289 0.1317883 0.13274011 0.049284052
0.16590218 -0.1469531 -0.042400185 0.15617059 -0.21363641 0.08915389 -0.020711774 0.10827609
-0.28641954 0.3254714 0.07174962 -0.06947693 0.0244779 0.24064936 0.039799582 -0.112924315
-0.06369505 0.0470643 0.08921858 0.096158974 0.051408965 0.15809211 0.21277826 -0.25922635
0.083092205 -0.5788723 -0.07887279 0.14904232 -0.08538127 -0.0391832 0.15525885 -0.14246532
0.22634529 -0.18965444 0.048694354 -0.31817552 0.08663678 0.080621436 -0.053831317 0.2801146
0.19894712 -0.21635395 0.0900993 -0.19382289 0.02404651 0.22640894 0.12483982 0.10939211
-0.11777396 0.12341858 0.061130013 -0.1785233 -0.22040328 0.24891633 0.08134186 0.1123029
-0.21289866 0.07538613 0.21975246 0.028539412 -0.015222549 0.19981843 -0.1472007 -0.10075629
-0.0013090532 -0.20107892 0.18455854 0.13398927 0.17369516 0.016347626 0.0761645 0.026315695
-0.1360248 -0.20316474 0.20458512 -0.16083965 0.2188515 0.08455442 -0.1856533 -0.14612606
0.12385444 0.15866698 0.22521338 0.17164132 -0.06072717 0.012311492 -0.23023032 0.118259825
0.011070148 0.20691451 -0.047254782 -0.14030556 -0.124748886 -0.050504357 -0.053404126 0.1261635
-0.1912545 0.15345496 -0.13429593 0.017886087 -0.16639753 -0.21484841 0.023275686 0.22353108
0.053694967 -0.18934475 0.03137842 -0.1277342 0.055972874 -0.039592046 -0.25470832 0.19030455
0.123285085 0.16822255 -0.01704218 -0.027738428 -0.038680952 -0.17568524 -0.05180133 0.051934183
0.007921145 0.037911527 0.19361249 0.16405511 0.009134203 0.17775382 0.19517195 -0.18171261
0.18567796 -0.16916242 0.0191108 0.143332 -0.21108021 0.14153752 -0.033192888 0.16983055
0.08982383 0.18237747 0.20176813 0.14760487 0.2124033 -0.14197603 -0.19384566 -0.044693254
0.22460227 0.28633454 0.15490521 -0.08178052 -0.15278387 -0.06844675 -0.13950613 -0.03998079

edge_encoder.2.bias f4 [16]
00000000: 655f 12bd cf75 523e 4bab 583e 353b 5cbe
00000010: 5b2f 113e 737c 893d a528 32be 137e 07be
00000020: 1bfc ff3c 7130 0fbe 379a 75bc 4ab0 353e
00000030: a9d6 c8bd 587d 11bd 68e4 983d dd70 1bbe
-0.035735507 0.20552753 0.21159093 -0.2150696 0.14178221 0.0671319 -0.17398317 -0.13231687
0.031248143 -0.13983323 -0.014990381 0.1774303 -0.09806568 -0.035519928 0.0746544 -0.15179773

edge_encoder.3.weight f4 [16]
00000000: 7d36 833f f4fd 7d3f 9a5e 803f ebeb 803f
00000010: 0620 813f a428 823f c036 803f 6852 8f3f
00000020: ef28 7d3f c015 803f 1dc4 823f 1eab 803f
00000030: 58e2 7c3f d595 7b3f dd52 803f fbdc 713f
1.0251004 0.99215627 1.002887 1.0071996 1.0087898 1.0168653 1.0016708 1.1197023
0.98890585 1.0006638 1.0216099 1.0052221 0.98782873 0.982755 1.0025288 0.94477814

edge_encoder.3.bias f4 [16]
00000000: 611b 893c db54 8bbc 3df7 d9bb 7697 e73b
00000010: d2a2 32bc a94c 2b3c 04b1 97bc 314f 7ebc
00000020: 52ba a93c 020b 9eba e753 76bc ba40 f03c
00000030: 4984 2a3c ff2a dfbc 3719 973c 328f 6f3d
0.016736688 -0.017008236 -0.0066517876 0.007067616 -0.010903077 0.010455289 -0.018517025 -0.01552181
0.020718727 -0.0012057724 -0.015034652 0.029327739 0.010407516 -0.027242182 0.01844464 0.05848617

node_model.0.weight f4 [16, 48]
00000000: a9e0 0dbe c429 713d a4ee c8bc 6fa3 fc3c
00000010: 299d 9cbb dac0 b33d 0a0a 823c 03f5 cabd
00000020: f5b2 463d 0991 7a3d 907c e23d 6f77 d23d
00000030: f62c d5bd e2bc c7bc 9c45 a73c 5633 a7bc
00000040: 991e d3bc 4d24 093d 57d2 bb3c a144 f4bc
00000050: dbfc 953c d195 443d 2a4c 5d3d 0c31 933d
00000060: 4291 033e e9a9 d53d 1aad e33d 54bc 86bd
00000070: bd07 e3bc 7adf 3ebd 43f8 ee3d d190 703d
00000080: 639f d53d 3643 1e3c 6e6d ed3b bd7f d63d
00000090: 5bd8 29bc 0d4e 20be 6978 aebd a115 c63d
000000a0: 303b 54bd a30a 9a3d f0e4 7abd 6ce5 683b
000000b0: 8e02 7b3c 6706 903b 95d4 40bd aee2 e5bd
000000c0: 9a0f d63d d001 0dbe 8bce 283e 67d5 f3bc
000000d0: c9da 373d 69e4 1f3e d7a7 10bd 0dde 1abc
000000e0: 0526 683d 3032 40bd 7448 bf3c 1802 123e
000000f0: a881 92bd b890 0ebe eb1b ef3d 7bc6 13bb
00000100: c6c7 cebd 4c5c f63d fbfe 9fbc 1647 2e3d
00000110: 373e 263b 2755 1b3e cb3c 00bc 5fe6 003e
00000120: 099f 6fbd c134 063c d892 a4bd 3f15 8f3d
00000130: 53c3 063e 32ea 2a3d d545 d2bd b1fd 48bd
00000140: 27a5 1cbe 8b65 e23d 90ad 10be 4092 353d
00000150: 916f 29bd d4ae 8fbc b16f 6abd 4e2f ccbd
00000160: 8df7 203d 8d79 b83d a80e ebbd b0c7 08be
00000170: 8c19 793d ab6d ce3d ed69 843c 33c2 e83d
00000180: da27 683d 3533 073c cb19 933d c1df 133c
00000190: 8e15 a7bd 0c51 38bd 82e1 a4bc c28b 143e
000001a0: 220c aebc cd04 a4bd 7cff edbd f08e e8bc
000001b0: 6b65 c2bd 4954 163d 5b8e f53d 504a 0d3d
000001c0: 45a1 e0bd 215a bb3d 5659 98bd 789e abbd
000001d0: d338 c0bb bb97 0cbe fec7 d03d 034d 0a3e
000001e0: daa4 1f3e c7b2 f53c db97 f53c c253 853d
000001f0: fecc 033d 4ba3 d6bd dd87 4dbc 49b3 8d3d
00000200: dcc0 d4bd bf08 4ebd 6f38 df3d 8aaf 38be
00000210: 5f4d 91bd 7f1b c03d db21 8d3b 6a4f ba3c
00000220: 5b3c 7c3d f27c 9e3d 1ccf c03d cc5a 59bd
00000230: c80d 41bc f47f d53d 93c2 ddbc 8ddb ee3d
00000240: 2012 363d 8bf7 083e 99cf 403e 3cf2 fabb
00000250: 92db 33bc 1090 f63d 4d1e d73d 17cf 51bd
00000260: c10b 86bc f153 29bd 2a4e 0b3e 6572 8a3c
00000270: d861 87bd 4115 8ebe 0532 97bd 5720 f83d
00000280: 210f acbd 1682 073e c8b7 973d 6c8a 9a3c
00000290: aa76 22be d6cc eb3d ba01 423d d642 86bc
000002a0: 03ef 603d db6f 8bbd 1eb2 45bd f4ea 633e
000002b0: fb7c cc3d ba8f 8e3d d3da fe3d a0d9 823d
000002c0: 5987 153e 36be c7bd 399f ce3d 0dc9 e83b
000002d0: 275b 273e 62ba bdbc b1dc d4bd 52f6 2a3e
000002e0: 6d7d 34bd 93e3 2e3d 1a11 a93d 6148 a8bb
000002f0: 247e a0bd 4e53 61be 9e4f 84bd 8d46 ac3d
00000300: 0a4e a73c c779 bdbd d260 e13d 0e24 81bd
00000310: d563 24bd 00d8 72bd fbb6 0e3e 6dea 2dbb
00000320: 0d74 d6bd fdfe ecbd 39a6 f2bd afa1 96bb
00000330: f209 d4bd 0864 583c 58f5 003e b5e9 fc3d
00000340: 15dd 45bc eebb 0d3d f591 b63d 70d1 4cbd
00000350: 2987 203e 1160 043d 3cb4 a1bd a9ca 25bd
00000360: 7f28 e5bd 8c5c 17be 964e b93d 141a 23be
00000370: 601f af3d 7dc3 063e 90f7 88bc 05d7 2b3d
00000380: 0b07 bdbc 5096 c4bc 58f8 303d a9fa f6bd
00000390: 7051 72bc 6403 2b3c e025 3cbd c817 1dbd
000003a0: a920 adbd 43fb ce3c 867f 963c def0 3f3d
000003b0: 3ac2 ddbd 1403 003d 1121 e8bc 443c df3d
000003c0: f461 b73c 2e09 98bc ec0c 07bb a9d4 983c
000003d0: 6308 d8bc fc4e ca3d f812 23be bf84 653d
000003e0: 4f2c ca3d 4bb3 dc3c 055c fdbd 135d 87bc
000003f0: 762f eabd 6b05 d5bd aacd ad3d 64cf 0cbe
-0.13855232 0.05887772 -0.024527855 0.03083965 -0.004779477 0.08777018 0.015873928 -0.099100135
0.04851051 0.061173473 0.11058915 0.102766864 -0.10408966 -0.024382059 0.020418935 -0.020410221
-0.025771426 0.033481885 0.022927446 -0.029817881 0.018309047 0.04799444 0.054027714 0.07187089
0.1284838 0.104327984 0.11117001 -0.065788895 -0.02771365 -0.046599843 0.11668446 0.058731858
0.10430791 0.009659579 0.007245711 0.10473583 -0.010366525 -0.15654774 -0.0851906 0.09672094
-0.051814258 0.0752156 -0.061253488 0.0035537137 0.015320433 0.0043952945 -0.047077734 -0.11224876
0.104521945 -0.13770223 0.1648504 -0.029764844 0.044886384 0.15614475 -0.035316315 -0.009452355
0.056676883 -0.046922863 0.023349978 0.14258611 -0.07153636 -0.13922393 0.11675247 -0.0022548724
-0.100966975 0.12029323 -0.019530764 0.04254826 0.0025366673 0.15169202 -0.007826994 0.1258788
-0.058501277 0.008191288 -0.08035821 0.06986474 0.13160448 0.041727252 -0.10267226 -0.049070064
-0.15297376 0.11054524 -0.14128709 0.044328928 -0.041366164 -0.01753942 -0.057235423 -0.0996996
0.039298583 0.09007559 -0.11477405 -0.13357425 0.06081538 0.10079511 0.01616379 0.113651656
0.05667863 0.008251955 0.07182654 0.009025515 -0.08158408 -0.044999167 -0.020127062 0.14506438
-0.02124602 -0.08008728 -0.116209954 -0.02838847 -0.09492 0.036701474 0.11990043 0.034494698
-0.1096826 0.0914805 -0.074389145 -0.08379835 -0.005866149 -0.13729756 0.101943955 0.1350594
0.1559023 0.029992474 0.029979637 0.06510116 0.032177918 -0.104803644 -0.012544599 0.069189616
-0.103883475 -0.05030131 0.10899436 -0.18035713 -0.070948355 0.093802445 0.0043070144 0.022742946
0.061580997 0.07738675 0.09414503 -0.053065106 -0.011783071 0.10424796 -0.02707032 0.1166297
0.04445088 0.1337568 0.18829192 -0.007658271 -0.010977643 0.120391965 0.10503826 -0.051222887
-0.016363027 -0.04133982 0.13604036 0.01690025 -0.06610459 -0.2775059 -0.07382587 0.12115543
-0.08401323 0.13233218 0.074081 0.018864833 -0.15865579 0.11513679 0.047364928 -0.016389292
0.05491544 -0.06808444 -0.04826557 0.22257596 0.09984776 0.069610074 0.12444081 0.06389165
0.14602412 -0.09753077 0.10088963 0.0071040452 0.16343366 -0.023160163 -0.10393656 0.16695526
-0.044064928 0.0426975 0.08255215 -0.0051355814 -0.078365594 -0.22004434 -0.06460498 0.08411894
0.020422954 -0.09251743 0.11004795 -0.06305705 -0.04013427 -0.059288025 0.13936989 -0.0026537434
-0.10471354 -0.11572073 -0.11848111 -0.004596911 -0.103534594 0.013207443 0.12593591 0.123492636
-0.012076636 0.03460305 0.08914558 -0.050004423 0.1567656 0.03231818 -0.07895705 -0.040476475
-0.11189365 -0.14781398 0.09048192 -0.15927917 0.08550906 0.1316051 -0.01671961 0.041953105
-0.023074647 -0.023997456 0.04320559 -0.120595284 -0.014789924 0.01043782 -0.045934558 -0.038352758
-0.08453495 0.025266295 0.018371355 0.04686057 -0.108280614 0.031252936 -0.02833608 0.10900167
0.022385575 -0.018559065 -0.0020607067 0.018656092 -0.026371187 0.09878346 -0.15925205 0.0560348
0.098717324 0.026940962 -0.12371067 -0.016523873 -0.11434834 -0.10401424 0.08486493 -0.13750988

node_model.0.bias f4 [16]
00000000: 44d7 2fbd 425e 92bd 8b2d 013e 7d0a 9f3d
00000010: 3214 cf3c 23ed cbbd 3a8d f3bd cb19 09be
00000020: 973b 2d3e f06a 113e 18e5 2a3d 931b c63d
00000030: 4d08 c53c 1962 023e b3a0 723b ec49 ebbd
-0.042929903 -0.071468845 0.1261503 0.07765672 0.025278185 -0.099573396 -0.11892171 -0.13388745
0.16917263 0.1420095 0.041722387 0.09673228 0.02405181 0.12732734 0.0037022054 -0.11488709

node_model.2.weight f4 [16, 16]
00000000: d072 59be 6b03 033e d030 303e 6939 e13d
00000010: 9026 7c3e 5913 b2bc d8fd 5f3d ca41 3a3e
00000020: b0fd e63d 8e35 cebd 21cd 5cbe abad 3abe
00000030: 3629 363d 1f05 be3b 3d1e 3abd bdc5 3a3e
00000040: e3ae cbbd 0117 61bd 4a1e 05be d293 bebd
00000050: f73b 1fbe 71af 90be 442d a0bb f726 15be
00000060: 8938 b53e ffa6 58be 468e 783b 8932 773d
00000070: 0e2b 553d 2423 913e eae9 1d3e 8112 f1bd
00000080: 2a9d 5fbe 693d 953d 85a1 0f3e fcc5 b3bd
00000090: 522f 04be 7b93 813e c4b1 00be 74ec 283e
000000a0: 8f61 a2bd b493 eabc 9b64 943d 97a7 0c3c
000000b0: 06e3 823e 2f1c 503d 52eb 8ebe e3fa 933c
000000c0: cc76 0cbe 6d7e 87bd 9b9c 03bd c472 553d
000000d0: c3c0 5c3e c818 80bd cf5c 4c3e de5f 21be
000000e0: e472 a63e c6ce 29be 4b21 283e c5d2 243e
000000f0: d92f 77be 240c a53d 75f1 803e 94bd 85bd
00000100: b208 253d dc41 513d 9b8a 343e 8ea2 8abd
00000110: 277e 493d ba84 38be cb17 45be 04e4 f63d
00000120: 28e9 063e cda3 2f3e 345b c63c 5244 973c
00000130: daae 69bd cd87 84be 86e2 0f3e c214 ca3d
00000140: 71d6 e2bc dba7 22be 1ce1 4ebc 8899 e0bd
00000150: d1f6 1f3e fb9c 46be f0c4 ddbc 64bc 9dbc
00000160: 3329 073e e8da 633d 8aca 07be 5568 88bd
00000170: 83ca bc3c e831 063e 5cc4 40be f52e eebd
00000180: 55e9 58be 64ea 7f3e 2aab 203e 3280 053e
00000190: c02a 5dbe 11a8 3a3e ce85 fe3d a757 2ebe
000001a0: bb57 763e 512d 683d 1c01 1b3d 446c 3bbe
000001b0: 4d3a 4abe ea55 f13d 0f29 693d 71db 323e
000001c0: df2a 17be 0274 7e3e 02de 4abd 3add 7cbe
000001d0: 8698 45be 5720 48be 42ab a63d 6de3 6a3e
000001e0: 87e1 e73d af3b 0a3d edf4 35be c52f 9f3e
000001f0: 1597 c1bd 974a e4bc 1ab7 48be 86e8 0dbd
00000200: 4742 e4bd 8aeb 5bbd b1bf f1bd db47 cc3b
00000210: 2544 fabc fd2b 713d 0b77 873e b1bd f4bd
00000220: c57f d2bd ce64 6b3e 9fac fdbd 84ba 1bbe
00000230: c2e6 a0bb 68c5 2a3e 03f6 a23e 5c57 7b3e
00000240: 4bb0 073d f82c e43d 5b61 90bc c19d 0a3e
00000250: 76ac 9f3c 34d1 c83d 885a 383e 0efb 50be
00000260: 524a e23d 8a65 13be 0c81 a4bc d654 9cbe
00000270: 7600 713c 16f7 f63d 917a 72be ab8d 0cbe
00000280: 6910 acbd e16a 6c3e 9499 7a3d 2604 893c
00000290: 890d 973c be07 043e d509 9cbd 3d60 b3bd
000002a0: 47f1 5cbe 8a67 e6bc 4e5c 9d3d ca91 253e
000002b0: eda2 4a3e c4de 34bd f3f7 54bd cde6 04be
000002c0: 9436 843c ed56 8d3b b64c 28bd 6d43 b03e
000002d0: 6c93 a03c ca70 95bd 8fdb 7e3d 1210 3b3e
000002e0: 547c 393d 7d06 13bd f736 3abe 6665 4fbe
000002f0: 981a 5a3e a749 523e 6413 853e cddb 123e
00000300: 6adc 863c c5ce 3ebe da33 0cbe 091d 953e
00000310: 9c96 2abe ceb6 433e 6c0a c8bd 7150 7c3e
00000320: 9693 f43d 6d73 4b3e 3e05 7e3d 0656 2ebe
00000330: 81db 9f3e 5650 983e b9fb 3ebe d08a 1c3e
00000340: eeb8 823d ab69 823e 6eb1 e93d 2804 db3d
00000350: 5188 63be f348 13bd a7ba a3bd e275 953d
00000360: 8985 033e 4d8d 53be c238 553d de0c 323e
00000370: e778 a8bd 19c6 883e 0aa9 98bd 577c 183e
00000380: 3468 e5bd 7c27 873d 2e89 4abe 47e5 193e
00000390: fc83 dabd 7c24 703e 05da 183e 3f09 95bd
000003a0: d52c 013e 415e de3d 6ae4 96bd df6e c0be
000003b0: 057f 913d 729a 043e 2779 253e f156 973d
000003c0: 71da b83d 851f 8ebe f3fc b2bd 4dda e2bd
000003d0: d85a 073e 935c e8bd d40d 953d 87ce 0bbe
000003e0: fa9f 8a3e 450f 313d a14c 713e 5abd 873e
000003f0: 3ee3 8cbe 90d5 533e 80af 443e 59cd 52bc
-0.21235204 0.12794273 0.1720612 0.10997278 0.24624085 -0.021737741 0.054685444 0.18189159
0.11278856 -0.100688085 -0.21562625 -0.18230312 0.044472896 0.0057989503 -0.045438994 0.18239494
-0.09945466 -0.05495358 -0.12999836 -0.09305538 -0.15550219 -0.2825885 -0.0048882086 -0.14565645
0.35394695 -0.21157454 0.0037926598 0.06035093 0.052043013 0.28347123 0.15421262 -0.117711075
-0.21837297 0.07287104 0.14026459 -0.08777997 -0.12908676 0.2530783 -0.12567812 0.1649645
-0.07928764 -0.028634883 0.072457515 0.008584878 0.2556383 0.050808128 -0.2791391 0.018063968
-0.13717192 -0.06615911 -0.032131772 0.052111402 0.21557908 -0.06254727 0.19957279 -0.15759227
0.3250953 -0.16582784 0.1641895 0.16096027 -0.24139346 0.08058956 0.25184217 -0.065303
0.040291496 0.0510882 0.17630999 -0.06769286 0.049192574 -0.18019381 -0.19247358 0.12055209
0.1317488 0.17152329 0.02421341 0.018465195 -0.057051517 -0.25884858 0.14051256 0.098672405
-0.027690144 -0.15884344 -0.012626912 -0.10966784 0.15621497 -0.19395821 -0.027071446 -0.01925487
0.1319931 0.055628687 -0.13260856 -0.06660525 0.023045784 0.13104975 -0.18824905 -0.1163005
-0.21182759 0.24991757 0.15690294 0.13037184 -0.21598339 0.18228175 0.12427865 -0.17025624
0.24056904 0.056683842 0.037842855 -0.18303019 -0.19748802 0.11783965 0.056923922 0.17466523
-0.14762448 0.24848941 -0.04952813 -0.24693766 -0.19296464 -0.19543587 0.081381336 0.22938319
0.11322313 0.033748325 -0.17769213 0.31091133 -0.09452645 -0.027867598 -0.19601098 -0.03464558
-0.11145454 -0.053691424 -0.1180414 0.006234152 -0.030550072 0.05887984 0.2645801 -0.11950243
-0.10278276 0.22987673 -0.123864405 -0.15207869 -0.004910321 0.16676867 0.31828317 0.24545044
0.03312711 0.111413896 -0.017624548 0.13536741 0.019491415 0.09805527 0.18003285 -0.2040827
0.11049332 -0.14394203 -0.020081066 -0.30533475 0.014709583 0.12058847 -0.23679568 -0.13725917
-0.084015675 0.23087646 0.06118162 0.016725611 0.018439071 0.12893578 -0.07619063 -0.0875859
-0.21576415 -0.028125543 0.07683621 0.16168895 0.19788714 -0.04415776 -0.051994275 -0.12978669
0.016139306 0.004313341 -0.041088782 0.34426442 0.019601546 -0.072969034 0.062221106 0.18267849
0.045284584 -0.03589486 -0.1818503 -0.20253524 0.21299207 0.20535909 0.25991356 0.1434166
0.016462523 -0.18633564 -0.13691655 0.29123715 -0.16659015 0.19112703 -0.09767613 0.24640061
0.11942212 0.1986825 0.062016718 -0.17025003 0.31222156 0.2974879 -0.18650712 0.15287328
0.06382929 0.25471243 0.11410795 0.10694152 -0.2221997 -0.03595824 -0.079945855 0.07297875
0.12843908 -0.2065937 0.05205608 0.17387721 -0.08226185 0.26713637 -0.07454117 0.14891182
-0.11201516 0.06599328 -0.19778892 0.15028869 -0.10669705 0.23451418 0.14926918 -0.07277154
0.12614758 0.10857821 -0.07367785 -0.37584588 0.07104305 0.12949541 0.16159497 0.0738963
0.090260394 -0.27758422 -0.087396525 -0.11076794 0.13218248 -0.11345782 0.07278028 -0.13653003
0.27075177 0.043227453 0.23564388 0.2651165 -0.27517122 0.20686936 0.19207573 -0.0128663415

node_model.2.bias f4 [16]
00000000: dee2 afbd 2a9b 7f38 5c67 083d f76c 4dbe
00000010: 62f1 263e 6a4c 8abd 0289 083e 84d0 f73c
00000020: 4257 02be a4e2 a13d 8ee2 13bd 7de2 84bd
00000030: 3dfc a0bc ea48 eb3d 9a34 0b3e 072e 7dbc
-0.08588193 6.0941245e-05 0.033301696 -0.20061098 0.16303018 -0.06752856 0.13333514 0.030250795
-0.12728599 0.079045564 -0.03610473 -0.06488512 -0.019651527 0.11488517 0.13594285 -0.015452868

node_model.3.weight f4 [16]
00000000: c00e 9a3f 7a0a b33f a96c b63f d0a7 983f
00000010: d374 a23f 6291 873f a117 993f 179b a23f
00000020: a29d 883f ea78 6f3f 1dbf a13f 917f 9a3f
00000030: 4e21 893f 5fa8 903f 3c38 7c3f c7fd a33f
1.2035751 1.3987572 1.425191 1.1926212 1.2691902 1.0591242 1.1960336 1.270358
1.0673106 0.93543875 1.2636448 1.207018 1.0713289 1.1301383 0.98523307 1.2811822

node_model.3.bias f4 [16]
00000000: 716a 363e b07b 73be f92a 1d3e 1ce6 10be
00000010: 958d 2b3e a857 fc3d c691 f7bd 5822 42be
00000020: d35f bfbd b782 b93d 58d2 3b3e 1dea 193e
00000030: 741f 113e 4ed7 e9bd 1cd1 23bd 80fb 2fbe
0.17814042 -0.23777652 0.15348424 -0.1415028 0.16753228 0.123214066 -0.12088351 -0.18958414
-0.09344449 0.09058135 0.18341959 0.15030713 0.14172155 -0.11418019 -0.039994344 -0.17185783

edge_model.0.weight f4 [16, 96]
00000000: 75a8 15bd 4bee a9bd 9ccb 303c df77 7ebd
00000010: 9615 0e3d 642d aabd 4382 b53d fbdf 09bd
00000020: 78c9 38bc bab3 a7bd 76cd 813d abdf 2c3b
00000030: def9 77bd 3380 983d ec49 c03c 0cec 963d
00000040: 2796 403d d534 cabd b6a9 96bd d660 9d3d
00000050: 9a68 adbd ea7e f7bc d696 853d 7179 5a3d
00000060: 837c 7c3d c968 a3bc e7c0 ebbb 88e3 013d
00000070: dd17 263d 1f22 673d 9bc1 ad3c 8fee f0bb
00000080: fdf5 cb3d 12bb ce3d 368e 8abb 8e65 82ba
00000090: c5d0 16bd d9df 46bd 7c34 313d 189e d83b
000000a0: 4070 87bc 3bde 6bbd 2aa3 87bb ab87 ca3d
000000b0: dc58 3b3d 0d44 72bd 4ac2 6e3d e4e6 97bd
000000c0: 53e4 99bd b497 0abe 3869 b6bd 464b d03c
000000d0: 4e3c 2cbd 1297 973d 46b4 823d f0eb 273d
000000e0: c52f 423d d62f 1b3c b236 7abd 816b ebbc
000000f0: 3a3a 86bd ac36 afbc 23dd 8c3c 6b48 40bd
00000100: 7d80 28bc 9f72 ad3d ea72 323d 8e7d bc3d
00000110: 6448 e63d 2169 9ebc 1386 0a3b 25ed debd
00000120: a509 a43d c6d7 db3d c891 9fbd 27d4 89bc
00000130: 9655 863d ad6e 2cbd 4cc5 bebd 0c48 0b3d
00000140: a713 e0bd 21c0 6fbb bbff 39bb dff3 883d
00000150: f113 cd3d 8816 073c 4392 223d 98ba 07bd
00000160: 82ec a63c 63d1 a7bc b57b 233d 3d92 48bd
00000170: f6e2 723d 195c 3d3c 882e 533d 3ba0 713d
00000180: 98d1 02bc 3a0f 15bc 04e8 47bd f0f4 543d
00000190: 011b e7ba 574a 8fbd f186 adbd 0889 d73d
000001a0: fa09 b5bd 91ea 9d3b 827e dc3c ad8d 543c
000001b0: cd40 99bd 4a21 1c3d d7a7 26bd a1ec ddbd
000001c0: 73cc 98bc 1e2b 973d 6278 783d c10b 94bc
000001d0: e7b1 913d 1816 ddbd c2d9 0c3d c8c8 20bc
000001e0: d8d5 dabd 51ed 9c3c a64b 73bc 5f66 7bbc
000001f0: 5614 f03d 17a3 91bd f5a5 d63d dafb 133d
00000200: b674 eb3d cc7d 203d ddd1 14bd ad0d 53bd
00000210: 16ee 24bd e4ee cfbd 8e80 843c f57d 073d
00000220: 148f 783d a067 a33c e0fb 47bd 4fa6 d63c
00000230: 8f2e 6d3d be98 9cbd 3771 75bd c9ed 89bc
00000240: 3f2a adba 3860 80bc da61 213d df43 2fbd
00000250: fa82 a63c 7041 3d3d 0735 48bd 0707 b43d
00000260: 4810 c7bd 108b 73bd 0ded 26bd fa98 09be
00000270: 9f91 90bd 6dae 983d 2312 c1bc 6d7d 183e
00000280: ed69 b53d d8dc 38bd ee12 47bc d3c8 fe3b
00000290: f8cd c23d bdbb b73d 4f13 103d 07bc 5f3d
000002a0: 65a1 bd3d ebd5 83bd 5ee6 15bd 43ce c6bd
000002b0: 215d 743d a14b 793d 54ae e7bc 4504 a7bd
000002c0: 3ef8 ab3b acac 72bd 38ae 243d 2a71 ce3d
000002d0: 2786 e53b 22b3 1d3d 2618 a6bd c553 74bd
000002e0: 9e3a 823d 2d2c 893d bb34 8b3d 0525 6b3d
000002f0: f874 993c b581 8cbd 64ec 033d f84d c7bc
00000300: 6170 11bd 915d b33d 1944 cdbd a8ba a73c
00000310: fa7e dd3d 70bb 243d eb3e c4bd 589e febc
00000320: c93b 9abc a3ae 70bc 96bf 08bd 7bfc a1bc
00000330: 92a4 853d 7fba b03d f8c2 6fbd 7273 cebc
00000340: 9b26 863d 72dc 9a3d 4506 acbd fdfc 933d
00000350: 458b b63d ec43 8c3d b17b 16bd 3c93 a1bc
00000360: d8fb a9bd bd8a 32bd c93d 69bc 1eb1 f63c
00000370: 0ecc a0bd d5f8 95ba 121d 23bd 483b 263e
00000380: ebc0 343d 2955 ae3d 8088 d7bc d35d 073d
00000390: 29d5 b1bd 7507 463b d3b5 3d3d 46ad 36b9
000003a0: 7b6a 953c b90b 99bd 6b24 a8bd 75a5 b63c
000003b0: 84af 23bd 5d8e 923d 8f0d 923d d682 c9bd
000003c0: 5e6e ea3c 6d40 f53d 4a72 80bd b0b3 393d
000003d0: c694 0e3c 3dbd 80bc 1cd0 77bd 9b99 a8bd
000003e0: 24ee abbd 9d73 7ebd 0530 0bbe d855 a33d
000003f0: bfa0 e33d deb2 efbd c0d4 013d d186 33bd
-0.036537606 -0.08297404 0.010790732 -0.062126037 0.034688555 -0.08309439 0.08862736 -0.03366087
-0.011278503 -0.08188577 0.06338017 0.0026378434 -0.060541026 0.07446327 0.023472749 0.07369241
0.047018196 -0.09873358 -0.073565885 0.076844856 -0.08467217 -0.030211885 0.0652291 0.05333847
0.06164218 -0.019947426 -0.0071946266 0.03171113 0.0405501 0.056429025 0.021210482 -0.007352657
0.09959028 0.100942746 -0.0042283786 -0.0009948479 -0.036820192 -0.04855332 0.043262944 0.006610643
-0.016533017 -0.057584982 -0.0041393237 0.09889158 0.04573904 -0.05914693 0.058290757 -0.07417086
-0.075142525 -0.13534433 -0.08906788 0.025426518 -0.0420497 0.07401861 0.06382041 0.040996492
0.047408838 0.009471854 -0.061087318 -0.028737785 -0.065540746 -0.021388374 0.01719529 -0.046944063
-0.01028454 0.08469128 0.04356662 0.09203635 0.11244276 -0.019337239 0.0021137043 -0.108850755
0.08009652 0.10734515 -0.077914774 -0.016824795 0.06559293 -0.042097736 -0.09314975 0.034004256
-0.109412484 -0.0036583024 -0.0028381187 0.0668714 0.10013569 0.008245118 0.039690267 -0.033136934
0.020376448 -0.020485586 0.039912898 -0.04896759 0.059298478 0.011557602 0.051558048 0.0589907
-0.007984541 -0.009097869 -0.04880525 0.051991403 -0.0017631949 -0.06996601 -0.08473004 0.105241835
-0.088397935 0.0048192223 0.026915792 0.012973231 -0.07483063 0.038117684 -0.04068741 -0.10836149
-0.018652176 0.07381271 0.06066168 -0.018072011 0.0711401 -0.1079523 0.034387358 -0.009813495
-0.10685319 0.01915613 -0.014849579 -0.015344231 0.11722629 -0.07111185 0.104808725 0.036128856
0.1149687 0.03918247 -0.036332954 -0.051526714 -0.04026612 -0.10152987 0.01617458 0.033079106
0.060683325 0.019946873 -0.04882419 0.026202349 0.05790573 -0.07646321 -0.059922423 -0.016837018
-0.0013211443 -0.01567088 0.03939996 -0.042789336 0.020326126 0.046204984 -0.048878696 0.08790403
-0.09719902 -0.059458792 -0.040753413 -0.13437262 -0.07059025 0.07455144 -0.023568219 0.14891596
0.08858094 -0.045132488 -0.012150509 0.007775405 0.09511942 0.08971355 0.035174664 0.054622676
0.09259299 -0.06437286 -0.03659665 -0.0970731 0.059659127 0.06086314 -0.028281368 -0.08155111
0.0052480986 -0.059246704 0.04020521 0.10080178 0.0070045176 0.038500912 -0.08110075 -0.0596502
0.063588366 0.06697879 0.06797167 0.05740835 0.018732533 -0.06860677 0.03220786 -0.02432917
-0.035507564 0.08758081 -0.10022754 0.020474747 0.108152345 0.040217817 -0.09582313 -0.031081364
-0.018827336 -0.014690074 -0.033385836 -0.019773712 0.0652553 0.08629321 -0.058535546 -0.025201533
0.06550332 0.07561578 -0.08399633 0.07225988 0.08913282 0.068488926 -0.036739055 -0.019723527
-0.082999885 -0.043589342 -0.014235922 0.030113753 -0.0785142 -0.0011441956 -0.039822645 0.16233552
0.044129293 0.08512337 -0.026310205 0.033048462 -0.08683235 0.0030216847 0.04631598 -0.00017421422
0.01823925 -0.07472939 -0.08210071 0.022295693 -0.039962307 0.0715606 0.07131492 -0.09839408
0.02861708 0.11975179 -0.06271799 0.04533738 0.008702463 -0.015715236 -0.060501203 -0.08232423
-0.08395031 -0.062121976 -0.13592537 0.07975358 0.11114644 -0.11704038 0.031697035 -0.043829743

edge_model.0.bias f4 [16]
00000000: bb5f 1dbd 18c7 19bd 2cd2 3dbd f151 d43d
00000010: 388e 56bb 8786 b03d 9239 863d 3999 c2bd
00000020: 1937 493d 4c99 4b3d 9077 8cbd 2262 a23d
00000030: 8464 4cbc 3f15 6cbd 8c1e 96bd d8bc 683c
-0.038421374 -0.037543386 -0.046343014 0.103671916 -0.0032738578 0.08619409 0.065539494 -0.09501881
0.04912481 0.049706742 -0.06858742 0.079288736 -0.012475137 -0.05763745 -0.07330045 0.01420518

edge_model.2.weight f4 [16, 16]
00000000: f1f7 2cbe 3d79 60be e513 26bd 4fd7 74bd
00000010: 1228 16bd f6f6 28be 7377 9d3d 32bd 03be
00000020: 1fe9 783e 7b18 fc3b 5615 61bb d241 cfbd
00000030: c606 ac3d cb58 31be a0b3 91bd 5a3f 04be
00000040: 70a3 7e3d a7ca dfbd b251 8f3d c880 213e
00000050: 9fe5 dd3d c9ea 6cbe 3f7d 113e 908a 40be
00000060: 0bf2 9abb aece f7bd 048d 3d3e f3f5 e8bd
00000070: 33e6 0a3d 331f 0ebe c233 1a3e 5a6d c93d
00000080: 291f 783d b023 a63d 2fde 863d 16c6 77be
00000090: cefe 47be 196c 713e 1979 3b3d e8e2 58bb
000000a0: 1ae1 35bd e5d2 03be d0b4 a23d 869e de3c
000000b0: f3dd 34be 46f4 8c3c 4403 93bc 3c79 423e
000000c0: 2875 0c3d ba62 7abb 9ad7 953e 89d9 f13d
000000d0: 04b9 9fbc 07a1 513d f671 68be 9b7e 5bbe
000000e0: 0e23 13be 86ec 8cbe 0a57 853c 3610 efbc
000000f0: c0ae d5bc 3642 83be 1d82 193e af52 1039
00000100: d342 7b3e 8036 2bbe 35b0 61be bd15 273e
00000110: bce2 e2bd 1f99 043e 5286 873e 6227 6e3e
00000120: 6c36 80be 18a3 463e 9077 b9bd f1ce 263e
00000130: f2d6 c83c ba2e 64be 77a8 37be 0ee8 4e3e
00000140: 21c6 363d cbde 143e 189a 683d e3d6 303e
00000150: 87a0 74be a920 54be 0699 79be dfe9 583d
00000160: fdbf 823e 72c6 633d 6eed 7ebe 1e9f 0b3e
00000170: 9463 3e3e 6395 713e 30d8 5bbe 3b16 86bc
00000180: a9dc f53d a330 92bd b3ae a33d 2fa0 443e
00000190: 54d8 27bd b271 043c b747 293e a511 16bd
000001a0: 5c5f 4fbe dc69 113e 25c8 803e f617 443e
000001b0: 04cc 77be 4852 30be 31b9 fbbd 2964 1ebe
000001c0: e936 72be a820 f03b 0338 95bd cc37 8fbc
000001d0: 18b8 c13c 3ddc 6dbe b1fa 5dbe 3a0f 74be
000001e0: 8d6b 18be c0ed 2c3e f66d 063e a0d2 7cbd
000001f0: b1af 0ebe 1f84 31be 6303 64be 7f45 e03d
00000200: 23f0 023e bb8f cf3b 64a8 16be baec 6b3e
00000210: c344 463e 7b5c 78be 7414 f43d 6cbc aa3d
00000220: 2c49 2539 785a 173e 9222 b5bd 765c acbd
00000230: 7970 0e3e 7cba 29bd 3d05 d1bd 86bc ae3d
00000240: 4360 f03c a286 39be 2cb5 b63d 5898 f9bd
00000250: d1d0 3d3e 5ff4 513e 6caf 8c3d be4f 693e
00000260: 2703 3fbe dba7 7fbc 8bad 673e 25b4 86bd
00000270: 0415 5f3e 4887 3abe b9a6 413e f349 05be
00000280: 7be0 acbd b99d 90bd 26c1 513e 18c9 123d
00000290: 1a9d 213e f86b 78be 4bbb 97bd 02ee 5fbe
000002a0: 1238 4a3d 231b 4f3c eedf 2ebe 63f4 9d3d
000002b0: e9d5 14be 69f4 36be adb2 d8bd 7a6b 12bd
000002c0: 4118 463e e720 c6bd 6d77 2d3e 9001 f93d
000002d0: e586 2cbe d083 57be 7a3e d13c ed8c 9abd
000002e0: 084e b33d 8e0f 07be 5ed1 6cbd 0c9b ecbd
000002f0: 569e 913e 86b3 5bbe 93d1 8ebd f344 073e
00000300: 7cf0 3c3e 0ed4 1abd 3c6b aebd 01e8 833e
00000310: 512b 54bd 4210 ec3d 8cb3 5fbe 5340 7ebd
00000320: c08a 42be 92bc 88bd 1aab bc3d 0823 7a3e
00000330: 6de3 183e aed7 57be a803 873b 00ac febd
00000340: c064 393e 64c9 c2bd 4f6a 923d 4da7 ac3d
00000350: 568a 91ba e814 68bd 4661 87be af7e 823e
00000360: 966b 2b3e 2a84 d6bd e508 773c 4fc7 543c
00000370: d19b 70be e8ca b93d c47a 3e3b 4c98 1fbd
00000380: 2820 343e 312a 4b3e 8969 82be c5a6 48bd
00000390: b497 a73c 2c10 0d3e bbb2 e5bd c9c5 0e3e
000003a0: 5865 d7bd a4c9 c63d 2715 6f3e e843 54bd
000003b0: 59e7 da3d d1a6 28be 0ef1 61be c9fc 43be
000003c0: d5d7 d1bd 9afc 5f3e db0a 543d abff 6cbe
000003d0: 5c50 793e 9fe1 c53d cf80 153e b82e 9d3d
000003e0: b153 98bd af44 e8bd 3ca2 343d e059 d63d
000003f0: 7c58 88bd cb72 5abe 3ad3 233d 019b 64bd
-0.16891457 -0.21921249 -0.040546317 -0.059775647 -0.036659308 -0.16500458 0.07688799 -0.12865141
0.24307679 0.007693348 -0.0034344993 -0.10119976 0.083997294 -0.17319028 -0.07114339 -0.12914792
0.062167585 -0.10927325 0.06998004 0.15771782 0.108348124 -0.23136438 0.14207934 -0.18802857
-0.004728561 -0.12099968 0.18510824 -0.11375036 0.03391094 -0.13879089 0.15058807 0.0983531
0.06057659 0.081122756 0.06585347 -0.24196658 -0.19530794 0.23576392 0.045769785 -0.003309423
-0.044404127 -0.12873419 0.079446435 0.0271752 -0.17662792 0.017206322 -0.017945893 0.1899156
0.034291416 -0.0038205818 0.29266053 0.1180907 -0.019497402 0.05117896 -0.22699723 -0.21435015
-0.14368841 -0.27524203 0.016276855 -0.029182535 -0.026084304 -0.25636452 0.1499104 0.00013763712
0.2453721 -0.16720009 -0.22039874 0.16316886 -0.110784024 0.12949036 0.26469666 0.23257211
-0.2504152 0.19398153 -0.09056008 0.1628988 0.024516556 -0.2228345 -0.17935358 0.2020571
0.044622544 0.14538114 0.05678758 0.17269473 -0.23889361 -0.20715584 -0.2437478 0.05295741
0.255371 0.055609174 -0.2489526 0.13634917 0.18592674 0.23592143 -0.21469188 -0.016368022
0.12004978 -0.07138183 0.079923056 0.1920173 -0.04097779 0.008083748 0.16531263 -0.03663792
-0.2025122 0.14200538 0.25152698 0.19149765 -0.2419892 -0.17218888 -0.12291182 -0.15467896
-0.23653759 0.0073281117 -0.07286074 -0.01748266 0.023647353 -0.23228545 -0.21677662 -0.23833933
-0.14884777 0.1688757 0.13127884 -0.061724305 -0.13934208 -0.17335556 -0.22266917 0.10950755
0.12786917 0.0063342727 -0.14712673 0.23039523 0.19362168 -0.24254028 0.119179636 0.0833672
0.00015762885 0.14780605 -0.088444844 -0.08416073 0.13910092 -0.04143761 -0.10206077 0.08532052
0.029342776 -0.18117765 0.089212745 -0.121872604 0.18536688 0.20503376 0.068693966 0.22784325
-0.18653546 -0.015603985 0.22624795 -0.065773286 0.2178536 -0.18215668 0.18911256 -0.1301649
-0.08441254 -0.07061333 0.20483837 0.03583631 0.15782586 -0.24259937 -0.0740877 -0.21868137
0.04936988 0.012640747 -0.1707761 0.07712629 -0.14534725 -0.17866673 -0.10580955 -0.03574703
0.1934519 -0.096742444 0.16940089 0.12158501 -0.16848333 -0.21046376 0.025542486 -0.07546411
0.08755118 -0.13189527 -0.057816856 -0.1155301 0.28441113 -0.21455202 -0.06973567 0.13209896
0.18451113 -0.037799887 -0.08516547 0.25762942 -0.051799122 0.115265384 -0.21845835 -0.062073063
-0.18998241 -0.06676592 0.092123225 0.24427426 0.14930506 -0.21078369 0.004120309 -0.1243515
0.1810484 -0.095110685 0.07149183 0.084303476 -0.0011103849 -0.056660563 -0.264414 0.25487277
0.1674026 -0.10474427 0.015077804 0.012986972 -0.23496939 0.090719044 0.0029064873 -0.0389636
0.17590392 0.19840313 -0.25471142 -0.04898717 0.02045808 0.137757 -0.11215731 0.13942637
-0.10517377 0.09706429 0.23347913 -0.051822573 0.10688657 -0.16469885 -0.22064611 -0.19139399
-0.10246245 0.21873704 0.051768165 -0.23144405 0.24347061 0.096621744 0.14599918 0.076749265
-0.07437838 -0.11341225 0.04410003 0.10466361 -0.06657502 -0.21332853 0.039996363 -0.055811886

edge_model.2.bias f4 [16]
00000000: 8a82 76bd bdc4 13bd bc54 5dbd ac70 3a3e
00000010: 9c3b 173e 6ad9 0d3e 4793 1abe b3a5 7abd
00000020: 0ae1 85bd e5c8 243e 8a5d 38bd f465 5bbe
00000030: 9b92 1d3e 25ea a2bd ff60 ed3d d0b8 283d
-0.060183086 -0.036076296 -0.054035887 0.18207043 0.14768833 0.13852468 -0.15095244 -0.06119318
-0.065370634 0.1609226 -0.04501108 -0.21425611 0.15387957 -0.07954816 0.11590766 0.041191876

edge_model.3.weight f4 [16]
00000000: db05 823f 532b 813f 31b3 853f fdf6 8a3f
00000010: 9aa3 7e3f b9c4 833f 6c52 7d3f e4e2 7e3f
00000020: 22cb 843f a530 7d3f 07bc 833f fa90 813f
00000030: 6d5c 813f 1bd2 7f3f 153e 7d3f f44c 803f
1.0158037 1.0091347 1.044531 1.0856625 0.99468386 1.029441 0.9895389 0.9956496
1.0374491 0.9890235 1.0291756 1.0122368 1.0106331 0.9992997 0.98922855 1.0023484

edge_model.3.bias f4 [16]
00000000: 2ff1 e03c 91ae 723c 44b6 f9bb e11d f9bc
00000010: cf24 00bb 0779 db3c 53fb 903b d8f7 e13a
00000020: 55dd 2b3c 0b1b 433b 14d6 a9bc 6b47 2b3c
00000030: dabf 513c a10f c73c cede 3d3a 691d bcbb
0.027458755 0.014812128 -0.0076206047 -0.030409755 -0.001955319 0.026791109 0.0044244914 0.0017240001
0.010489781 0.0029770758 -0.020731963 0.010454039 0.012802089 0.024299445 0.00072429783 -0.0057408107

node_decoder.0.weight f4 [1, 16]
00000000: c78c fb3e 496a ebbe d38d 073f f012 d7be
00000010: b674 d13e abd0 233e 725d 7abe 1eca a0be
00000020: 28c4 ccbd 31fa ba3d a836 c43e 6f97 833e
00000030: 556a 473e 4883 c1be ffd6 5f3c 02a5 f0be
0.49130842 -0.45979527 0.5295078 -0.42006636 0.40909356 0.1599757 -0.24449709 -0.31404203
-0.09998351 0.091297515 0.3832295 0.25701472 0.19474156 -0.37795472 0.013662099 -0.4700089
