tmp/tmp4model200.pt (torch, 23679 bytes, 25 tensors)

node_encoder.0.weight f4 [16, 5]
000000 81 70 6c 3d 31 70 6a 3d 4c 17 bb be 97 cd 84 be
       0.05772448 0.0572359 -0.36541212 -0.25938103
000010 ba ad e1 be 3f 2a d8 be 54 9a e0 3e 55 c2 b7 3e
       -0.44077855 -0.4221973 0.43867743 0.3589045
000020 28 36 d9 3d e1 db d8 3e 95 30 26 be 52 a0 7f be
       0.106060326 0.42355254 -0.1622947 -0.24963501
000030 cf 09 c3 3e 10 0b c2 bc 06 be a3 3d 04 73 76 3e
       0.3809342 -0.023686916 0.079952285 0.24067312
000040 5c 0d 59 3e e0 1b 83 be da 1a 31 be 63 51 d3 be
       0.21196502 -0.25607204 -0.172954 -0.4127303
000050 cb ec 82 3c b1 bd 2c be e0 2a c1 3d 80 71 aa 3c
       0.015982052 -0.16869237 0.09432006 0.020806074
000060 ca 2e bf 3e 24 ca d0 3c cb b4 5a 3e 1c 26 f5 3d
       0.37340385 0.025487013 0.2135803 0.119701594
000070 da 26 cb 3e 6c e9 39 be d6 49 bd 3e 99 f8 9f 3e
       0.3967808 -0.1815545 0.36970395 0.31244352
000080 4b 8f 32 be e8 5a 8c 3e eb dc d2 3e b9 d8 7d be
       -0.17437474 0.27413106 0.41184172 -0.24789704
000090 63 3a 2f be 54 2f 9f 3e 24 a0 b8 3e c4 f1 ed 3d
       -0.17112117 0.31090796 0.36059678 0.11618379
0000a0 35 8c 0b 3e d2 57 a3 3e 43 14 c8 3e b5 d0 90 be
       0.13627703 0.3190294 0.39077958 -0.2828423
0000b0 fb 04 4c be 02 53 ca 3e eb 49 88 3e ac 17 4d be
       -0.19923775 0.39516455 0.26618895 -0.20028561
0000c0 2a 62 1b be a1 a9 df 3e 4e 01 8f be 98 48 8b 3e
       -0.15174165 0.43684104 -0.27930683 0.27203822
0000d0 36 a6 89 3e ac 98 db be 20 92 e4 be 53 82 14 3e
       0.2688462 -0.42889917 -0.44642735 0.1450284
0000e0 d9 a9 56 3e d2 5e ca 3e c0 c6 61 3d 9b 19 99 3e
       0.20963229 0.39525467 0.055121183 0.29902348
0000f0 4b 64 b5 be b4 06 6c 3e c6 94 dc be 3c 29 95 3e
       -0.3542808 0.23049432 -0.43082255 0.29133022
000100 b5 3f 9c 3d 8a 2d 8e 3e 00 22 52 3e 9a 36 a3 be
       0.07629339 0.2776912 0.20520782 -0.31877595
000110 00 2e 98 3b 13 06 67 3d 0b ea 7d 3d 70 ea c6 be
       0.0046441555 0.056402277 0.06199078 -0.38850737
000120 6b 63 76 be eb b7 57 be 70 29 7b be 21 fa be 3e
       -0.24061362 -0.21066253 -0.24527526 0.37300208
000130 65 68 73 3e 0d 76 4a 3e c2 48 09 be f3 29 c4 be
       0.23770292 0.19771595 -0.13406661 -0.38313255

node_encoder.0.bias f4 [16]
000000 ca e0 cb 3d 01 87 ce 3e 29 7a 4b 3e 5b ff c4 be
       0.099549845 0.40337375 0.19870819 -0.3847607
000010 79 a4 31 bd 18 3d a8 3b 9a 6a 8f 3e b6 8b 46 3e
       -0.043369744 0.005134236 0.28011018 0.19389233
000020 7a 03 a2 be 50 66 ce be 0c ca 08 3e 87 0b 5c 3e
       -0.31643277 -0.40312433 0.13358325 0.21488772
000030 ff 52 61 3e 89 5c 9e 3e fd 3a c9 3e 9b 25 47 be
       0.22004317 0.30929974 0.39302817 -0.19447939

node_encoder.2.weight f4 [16, 16]
000000 f8 6d 81 be f8 fa 07 3e ff 05 72 3e af be 3e be
       -0.25279212 0.1327933 0.236351 -0.18627428
000010 65 05 f0 bd ce 43 5d 3e 30 b8 4b 3e 63 6d d6 bc
       -0.11719779 0.21607897 0.1989448 -0.026175207
000020 93 b8 07 be 31 eb 64 3d 2a e5 70 be 74 c1 c0 bd
       -0.13254003 0.05588836 -0.23524919 -0.09411898
000030 f4 5c 05 bd 8f c0 73 bd 1b d5 a5 3d 00 e7 82 3b
       -0.03255935 -0.05950981 0.08097287 0.0039948225
000040 29 21 51 be b4 cd 98 bc 61 84 1b 3d 67 5c 1b 3e
       -0.20422806 -0.018652774 0.037968043 0.15171967
000050 e1 04 89 3c 88 80 a0 bd f5 69 d1 3d be 59 03 3e
       0.01672596 -0.078370154 0.10225288 0.12827203
000060 94 60 72 3d 54 4d 12 be 39 7c a4 3d 5a fa 37 3d
       0.059174135 -0.14287311 0.08031506 0.04491649
000070 12 3e 11 3e d0 9c 83 bd bc 9e 8c b7 bc e6 10 3e
       0.14183834 -0.06426394 -1.6763217e-05 0.14150518
000080 c1 b2 18 bd 2d 18 02 3e db 30 46 bd 41 10 5b 3e
       -0.037279848 0.12704535 -0.048386436 0.21392919
000090 f3 27 90 bb 6a f7 71 bd 59 8e ab 3d 3f e8 af bc
       -0.0043992936 -0.059073843 0.0837676 -0.021473048
0000a0 a8 20 45 3e 1d aa 00 bd d5 83 24 3e d0 9f 8e bd
       0.19250739 -0.031412233 0.16065915 -0.069640756
0000b0 66 c7 98 3c d8 a2 a0 3d 89 84 79 be 85 b5 28 3d
       0.018649768 0.0784356 -0.24366964 0.041188736
0000c0 00 66 1b 3e df 36 a3 3d 61 16 c1 bb 8c 38 7f bc
       0.15175629 0.0796945 -0.0058925604 -0.015577447
0000d0 15 0e 99 3d c2 f2 85 3d d8 99 08 be a4 87 b3 3d
       0.07473389 0.06540443 -0.13339937 0.08766106
0000e0 79 b4 6f be ce 75 0c 3c 58 8c d1 bd 47 c8 fa bd
       -0.23408689 0.008573009 -0.102318466 -0.12245231
0000f0 4f 35 4e be f7 3e 42 3e f6 21 82 3c 71 97 b9 3b
       -0.20137523 0.18969332 0.015885334 0.005663805
000100 45 f6 9d bd 9d d9 c5 bd 06 73 36 be 6e 09 72 3c
       -0.07712988 -0.09660647 -0.17817315 0.014772756
000110 89 a6 31 be fa 5e f5 bd bf bd f8 3d e9 26 68 3e
       -0.17348684 -0.11981006 0.12145566 0.22671093
000120 1d c2 a0 bd d1 7c 81 be 9c cc 6e 3e d7 64 11 3e
       -0.07849524 -0.2529054 0.2332024 0.14198624
000130 3f d5 1b 3e ef b8 71 bd fa 8b 6a bd 1a 56 50 3c
       0.15218066 -0.059014257 -0.0572624 0.012715841
000140 c7 49 81 3c 08 ae dc bb 80 d1 e9 bd 8f d6 3a 3e
       0.01578225 -0.0067346133 -0.11416912 0.1824591
000150 b0 e7 df 3d 60 7a 02 bd b2 9c 6f be ab cd e0 bd
       0.10932863 -0.031854987 -0.23399618 -0.10976728
000160 e6 ab b2 bd ae ac b2 bd fb 9a 89 3d 61 5d 49 bd
       -0.08724193 -0.08724342 0.06719013 -0.04916132
000170 9a 38 39 3d f0 b1 40 be db 9d 3d bd 1f b3 d9 3d
       0.045219995 -0.18817878 -0.04629312 0.10629868
000180 bd 78 7d 3e 6c 47 5f be 1e db ee 3c 60 38 06 3e
       0.24753089 -0.21804589 0.029157218 0.13107443
000190 63 b1 ed bc 37 a2 5a 3d 19 5f 1c 3e ee 64 7c be
       -0.029015249 0.053377356 0.15270652 -0.24647877
0001a0 64 5c 0c 3e 43 72 68 be f4 3e 0f 3d 7a 1d 17 3e
       0.13707119 -0.22699837 0.034972146 0.14757338
0001b0 e0 1c e9 bd 3a b5 eb 39 9d 36 62 be 84 e4 96 bc
       -0.113824606 0.00044957717 -0.22091146 -0.018419512
0001c0 10 0f f2 3d 9c 9d da 3d 2d 86 93 3d 05 75 1f bd
       0.11819279 0.10674593 0.072033264 -0.038929958
0001d0 41 a1 e1 bd 04 4e 40 3e 1c c0 58 3d b2 ff bd 3d
       -0.11017085 0.1877976 0.052917585 0.09277286
0001e0 eb 9e e1 3d e1 11 cc bd 05 83 fa bc cd c8 63 3e
       0.11016639 -0.09964348 -0.030580053 0.22244568
0001f0 2e b0 52 3e 55 f3 89 be e7 bc 46 be 1e 78 ab bd
       0.2057502 -0.2694346 -0.19407998 -0.0837252
000200 49 49 a6 3d 90 d2 07 be f3 6e f6 3d d5 b1 55 be
       0.08119447 -0.13263917 0.12032881 -0.20868619
000210 28 21 d8 bc 62 45 21 3e 79 a3 7b bd 33 4c 85 bd
       -0.026382998 0.15749124 -0.061435197 -0.065086745
000220 26 31 4b 3d 0e 02 59 3e a6 79 4d 3d 7c 58 b5 3b
       0.04960742 0.2119219 0.05016484 0.00553423
000230 7c a8 37 3c ef f7 52 be 7b a8 c6 bd fb 1d 7b 3e
       0.011209603 -0.20602392 -0.09700104 0.24523155
000240 f6 d3 fd bd f5 bb fb 3d 7b 94 d7 bd a2 4d fc 3d
       -0.12393944 0.12291709 -0.10526367 0.12319495
000250 b1 cc e7 3d 89 21 35 3e db 65 11 be 4d 7b 40 bd
       0.11318339 0.17688574 -0.14199011 -0.04699259
000260 31 a5 3b be bb d1 b6 3d 22 c8 09 be 85 67 bc 3c
       -0.18324734 0.08926722 -0.13455251 0.02299858
000270 d2 e5 2b be 8d 90 1c bd c7 bc 63 be 44 3d 5c be
       -0.16786888 -0.038223792 -0.22239982 -0.21507746
000280 24 28 df 3d 41 0b 7b 3c a1 06 c2 bd ac e2 b7 bd
       0.10896328 0.015322507 -0.094739206 -0.08978781
000290 b9 aa 5c 3e 83 0e 18 3d bd 54 9e 3d c8 4e 7b 3e
       0.215495 0.037123214 0.07731006 0.24541771
0002a0 27 44 7e 3e 46 09 3f bd 82 ef 05 3e ea 4d 35 3b
       0.24830686 -0.046639703 0.13079646 0.0027664849
0002b0 11 46 38 be 75 a9 30 3e 92 40 f7 bc a0 71 77 bc
       -0.17995478 0.17252143 -0.030182157 -0.015102774
0002c0 c5 c4 31 3d af 33 3f 3e 5d 17 51 bd 3b 19 31 bd
       0.043400545 0.1867206 -0.05104767 -0.043236952
0002d0 49 3b b6 3d 56 fa 17 3d b0 2e d9 3d 6a a4 69 3e
       0.088980265 0.037103973 0.10604608 0.22816625
0002e0 6d 2c a2 bd d2 30 2c 3e af 5a 59 be 63 00 ce 3c
       -0.0791863 0.16815498 -0.21226 0.025146669
0002f0 7e 31 87 3d bf fa 78 be 68 81 81 be de f9 98 bd
       0.06601237 -0.24314402 -0.25294042 -0.074695334
000300 49 53 1b bd a9 f5 27 3e 84 40 b2 bd 9f 90 4f 3e
       -0.037921224 0.16402306 -0.08703712 0.20270012
000310 cc 3b b0 bd 21 3b a5 3d 59 9e 39 3e 6f 21 15 3e
       -0.08605155 0.080679186 0.18126811 0.14563535
000320 5a de ad bd d8 8e ce 3d 5b b9 b1 3d 89 a3 46 be
       -0.08489676 0.10085839 0.08677932 -0.19398321
000330 4d 3a 33 3e 51 5c 74 3e 4b cc c9 3c 67 98 86 3e
       0.17502709 0.23863341 0.024633547 0.2628815
000340 b9 f2 50 bc ba 2c b5 3a f5 56 07 bd 89 5a 87 3d
       -0.012753182 0.0013822534 -0.033041913 0.06609065
000350 f5 b3 e7 3d 60 01 3e be a5 17 9d bd 7f c7 3e be
       0.11313621 -0.18555212 -0.076705255 -0.18630789
000360 af 5d 11 bd db a2 9d 3d e9 04 14 be 54 fc 48 3d
       -0.035489734 0.07697078 -0.14454998 0.049068764
000370 98 04 6e be 6c 4d da 3d 80 dc 07 3e b4 7e 97 bd
       -0.2324394 0.10659298 0.13267708 -0.073972136
000380 ba 68 3a 3e 92 01 56 bd b6 5d 4b be ae a3 47 be
       0.18204013 -0.05224759 -0.19859967 -0.19496033
000390 02 4e 7a be 3c c1 87 3d af 17 0a 3d bc 41 5a be
       -0.2444382 0.066286534 0.033713993 -0.21314138
0003a0 1b b6 56 bd 11 bf bd 3c c1 94 df bb d4 cd eb 3d
       -0.052419763 0.023162397 -0.006823153 0.11513868
0003b0 71 4e 82 3e 2f 15 1e 3e f1 2c bd 3d 7e 05 0e 3e
       0.2545047 0.15437768 0.092370875 0.13869283
0003c0 5b d5 03 be 10 a4 b5 bd c6 09 d8 bd c5 dd 1d 3d
       -0.12874357 -0.08869183 -0.10548739 0.038541574
0003d0 40 3d 81 3d cc 88 8b 3d c5 41 17 be 5c 97 74 be
       0.06310511 0.06813201 -0.14771183 -0.23885864
0003e0 0e 81 70 bd c1 0f 03 3e e0 f0 5d be 40 bd e6 3d
       -0.058716826 0.12798978 -0.21673918 0.11266565
0003f0 dd 23 cf 3d af 14 05 be 98 06 49 3e ae 66 03 be
       0.10114262 -0.12996171 0.19631422 -0.12832138

node_encoder.2.bias f4 [16]
000000 7e cc e3 3d 94 01 b8 bb aa 74 48 be 42 04 dd bd
       0.11122988 -0.0056154225 -0.19575754 -0.10791828
000010 3f 8f f5 3d f7 a6 54 be 11 96 58 3e ba 49 d7 bd
       0.11990213 -0.20766817 0.21150996 -0.10512109
000020 9f 8e b6 bd 65 94 53 be 1a 13 4c be b1 47 75 be
       -0.089139216 -0.20662077 -0.19929162 -0.2395313
000030 aa 56 96 3d 5b 10 55 3e 5c b9 8e 3d 07 d8 55 3e
       0.073407486 0.2080702 0.06968948 0.20883189

node_encoder.3.weight f4 [16]
000000 8d 2c 7c 3f 0d 4c 81 3f d5 c7 80 3f 45 2e 7f 3f
       0.9850548 1.0101334 1.0060984 0.99679977
000010 8a 1c 7d 3f 3b 08 80 3f 37 47 7e 3f 7e 03 7d 3f
       0.9887167 1.0002512 0.99327415 0.98833454
000020 08 2b 7f 3f 00 a2 7d 3f 49 75 7c 3f b1 72 80 3f
       0.99675035 0.9907532 0.9861646 1.0035001
000030 f4 ec 7d 3f 45 46 7b 3f 42 48 7f 3f 9a 0f 7a 3f
       0.99189687 0.981541 0.9971963 0.97680056

node_encoder.3.bias f4 [16]
000000 ce cb 3c bc d8 c3 9d 3b b0 97 9a bb e4 2a 12 3a
       -0.0115232 0.004814606 -0.0047177896 0.0005575849
000010 7a 44 18 bc c3 a3 b2 ba 12 6e c7 bb 35 2b 7e bc
       -0.00929367 -0.0013629127 -0.0060861195 -0.015513231
000020 4b e6 22 bc 56 39 40 3c db e2 2e 3b 7a 47 50 bc
       -0.009942601 0.01173242 0.002668551 -0.012712354
000030 38 3a a3 bb 55 49 0b 3b 2e e3 3f bc 55 50 50 3c
       -0.0049813055 0.0021253426 -0.011711879 0.012714465

edge_encoder.0.weight f4 [16, 4]
000000 be 83 d7 be 23 b9 d1 be dc 59 de 3e 95 b9 e0 3d
       -0.420927 -0.4096156 0.43427932 0.10972897
000010 79 8b 9a 3e 63 0d 67 3e 3d 13 e3 3d 90 91 6e be
       0.30184534 0.225637 0.11087654 -0.23297715
000020 9c 22 f0 3e e5 96 3d be ea 75 f1 be 75 b5 37 3e
       0.46901405 -0.18514593 -0.47160274 0.17940314
000030 62 12 b1 be 20 f4 cf 3d 54 1c ee 3e dc 4d 51 be
       -0.34584337 0.10153985 0.46505988 -0.20439857
000040 48 96 41 be 20 25 b0 bc 50 05 b1 bd 10 d7 05 3d
       -0.18904984 -0.021502078 -0.086435914 0.032675803
000050 3d 96 78 bd c0 c5 f4 3e 9b 2a 86 3e e7 b4 66 bb
       -0.060690153 0.4780712 0.2620438 -0.003520304
000060 ef 52 22 be 6b 42 01 3d e3 11 ac 3e 3e 4b 51 be
       -0.15851949 0.03155748 0.33607396 -0.20438859
000070 14 7e 3e be a1 3a c1 3e e1 13 63 be 53 88 80 3e
       -0.18602782 0.37740043 -0.22175552 0.25104007
000080 f2 aa db be ea e0 8b be 8e ec a6 bd ae 6b f4 be
       -0.42903858 -0.27320033 -0.08150588 -0.47738403
000090 af 81 b0 3e dc ca 7e be 9c ad b6 3e 89 d7 25 bc
       0.3447394 -0.24882072 0.35679328 -0.010122188
0000a0 46 c6 3e 3e 87 30 81 3e d4 a7 92 be 82 98 ea bd
       0.18630323 0.25232336 -0.28643668 -0.1145487
0000b0 89 2a df bd 8d 6a ef bd 8a 0e f7 3e b0 5d f7 be
       -0.10896785 -0.11690245 0.4825328 -0.48313665
0000c0 be 2a d3 be 07 d6 92 bd 3c 61 aa be 50 f8 83 be
       -0.41243547 -0.07169729 -0.3327731 -0.25775385
0000d0 22 6c bd 3e ed 25 a5 3b 10 32 d1 3e a7 8e cf 3e
       0.3699656 0.0050399215 0.40858507 0.40538523
0000e0 34 e0 8e 3e 0c 5f cb 3e 5e a4 8b be 00 d1 ef be
       0.27905428 0.39720953 -0.2727384 -0.46839142
0000f0 ce ee 74 be 66 a4 a5 be 71 55 2c 3e e4 ae 3b 3e
       -0.23919222 -0.3235199 0.16829468 0.18328434

edge_encoder.0.bias f4 [16]
000000 36 ff ed 3c 3f ff a5 be 71 6b 80 3d 8e f9 ef be
       0.029052358 -0.324213 0.06270493 -0.46870083
000010 ae 11 95 be f3 62 56 be 4d 7b af 3e 7f 7b ef 3e
       -0.2911505 -0.20936184 0.3427376 0.46773908
000020 31 76 8d 3e ca 2d b8 3e 28 e6 7d bd 82 da 95 be
       0.27629235 0.35972434 -0.061987072 -0.2926827
000030 c1 5b 9d 3e 3c 18 f3 3e 7e d5 7b 3d 61 83 81 3e
       0.30734065 0.47479427 0.0614829 0.25295547

edge_encoder.2.weight f4 [16, 16]
000000 07 ea fe bd b1 20 05 bd 52 7b c2 bd e8 9f de 3d
       -0.12446981 -0.03250188 -0.09496178 0.108703434
000010 54 a1 ab bd 30 61 85 3e c3 23 65 3e e8 9d 61 3d
       -0.0838038 0.2605071 0.22376923 0.05508223
000020 4f 98 58 be 77 3c 7d 3d 7c 4a 3f 3e 96 3f 50 3e
       -0.21151851 0.061825242 0.18680757 0.20336756
000030 fb 04 00 3e 70 12 00 3e c6 6d 06 3e 8a e9 12 3c
       0.125019 0.12507033 0.13127813 0.008966813
000040 ad 58 15 3c 6c 56 91 3e 99 1c 0c bd 5a b2 0f bd
       0.00911538 0.28386247 -0.03420696 -0.0350822
000050 d0 8c 94 bd 30 42 d7 3d 35 80 73 3e 83 17 80 be
       -0.0725342 0.10510671 0.23779376 -0.25017938
000060 d7 33 25 3e 3d 21 28 be e5 c2 26 be 47 43 30 be
       0.16133057 -0.1641893 -0.16285284 -0.17213164
000070 3f 58 6b 3e 7b 87 1b 3c 9d 9a c1 3d 98 79 71 3e
       0.22982882 0.00949275 0.09453318 0.2358154
000080 a8 11 eb bd 37 f1 10 3e f7 14 ff bd 68 32 1a be
       -0.11477977 0.14154516 -0.124551706 -0.15058291
000090 86 5b 33 3e 8d 0f c5 bd 98 ca 75 be 88 d3 98 bc
       0.17515382 -0.09622107 -0.24003065 -0.018655553
0000a0 eb 46 39 be ff 20 5c 3e 54 73 49 be 36 ec 04 3d
       -0.1809346 0.21496962 -0.196729 0.03245183
0000b0 31 c5 94 bb d1 f7 b0 3d 3c fa 13 3e 5d 0d 8b be
       -0.0045401086 0.08641017 0.14450926 -0.27158633
0000c0 0f 48 07 be 0c fa 0d be 52 c8 8a be ea 1e 0f be
       -0.13211082 -0.13864917 -0.27105957 -0.13976637
0000d0 40 b6 18 3d 32 6a 36 3e 79 b0 19 bc 7c 75 6c 3e
       0.037283182 0.17813948 -0.009380453 0.23091692
0000e0 75 88 23 3c 67 4e 9e bd 10 3e d1 bd 35 be 0d 3e
       0.009981264 -0.07729798 -0.102169156 0.1384209
0000f0 76 fc 5c 3e 53 fa 25 3e 75 84 ee bd c4 77 90 bd
       0.21580681 0.16208772 -0.11646358 -0.070540935
000100 f1 19 24 be e2 1c 6d be 1d 63 7a 3d e6 09 d7 3d
       -0.16025521 -0.23155549 0.061129678 0.10499935
000110 70 78 bf 3d 06 12 04 be 20 27 2a be 0d 3b 05 3d
       0.093491435 -0.128975 -0.16616488 0.03252702
000120 35 14 88 3d fc 18 4c be 08 0c 78 be 8a 0c 33 3c
       0.06644479 -0.19931406 -0.2422334 0.0109282825
000130 b1 09 f5 3b 26 99 53 3e e9 4d 2c bd 6a b2 e8 3d
       0.007477962 0.2066389 -0.04206649 0.11362155
000140 9c 3e 85 3b 22 ca a1 3b 83 8f 7f be ab 2f b7 bd
       0.0040663015 0.004937426 -0.24957089 -0.08944639
000150 e8 32 08 3d ee ba 0c 3e bc 89 72 3e 3e 25 42 3e
       0.033251673 0.13743183 0.23685354 0.1895952
000160 a2 e8 22 3e da c7 a4 3d d0 74 3d 3e 49 e1 0c be
       0.15909055 0.08045931 0.18501592 -0.13757814
000170 1e d9 aa 3b 56 d3 3c 3e 1d 7a 6f 3e d2 78 82 3e
       0.0052138707 0.18439993 0.23386426 0.25482804
000180 dc f0 57 3d 6b 1d 31 3e b9 ad 03 3e 57 19 0e 3e
       0.052719936 0.17296378 0.12859239 0.13876854
000190 ba c3 24 be 25 45 28 3e 24 c8 19 3e 7c 85 91 3d
       -0.16090289 0.16432627 0.15017754 0.07105538
0001a0 6a fe 15 3e ea de 1c be 35 d8 86 bc 1f 4e ac 3d
       0.14647833 -0.1531941 -0.016460517 0.08413338
0001b0 5a 31 3b be a2 67 ba 3d 67 26 93 3b e2 e9 51 3d
       -0.18280545 0.09101798 0.004490662 0.05124844
0001c0 59 07 68 be 19 d0 a8 bc f0 4e ac 3d 3e 3f ec bc
       -0.22659053 -0.020607041 0.08413494 -0.02883875
0001d0 e0 85 c8 3c 3d 24 75 3e c1 7d 44 3d c0 6e db bd
       0.0244779 0.23939605 0.04797149 -0.10714483
0001e0 0c 39 ae bc fe 95 68 3d 11 c2 b9 3d 74 00 e4 3c
       -0.021267436 0.05678367 0.09070218 0.027832247
0001f0 1b 9d 5c 3d 81 24 28 3e f6 dc 58 3e 3f 13 60 be
       0.053860765 0.16420175 0.2117804 -0.21882342
000200 aa f7 20 3d c0 6e 80 be f8 fc bd bd d2 f7 06 3e
       0.03929869 -0.25084496 -0.092767656 0.13180473
000210 60 dc ae bd 2c 6a 5c bd f8 9b 0c 3e e3 34 22 be
       -0.08538127 -0.05381219 0.13731372 -0.15840487
000220 b2 ee 41 3e e0 d5 4c be e1 6d 22 3d 0b 13 76 be
       0.18938711 -0.20003462 0.03965557 -0.24030702
000230 5f 5d 87 3d 30 14 8e 3d d3 0b 7d bd 60 d1 78 3e
       0.06609606 0.06937444 -0.061778855 0.2429862
000240 35 9c 16 3e ba fe 00 3e 58 d9 b3 3d 55 45 73 be
       0.14708026 0.1259717 0.087816894 -0.23756917
000250 30 fd c4 3c 59 51 76 3e 5a 05 0b 3e 9a fa e9 3d
       0.02404651 0.24054469 0.1357626 0.114247516
000260 1e dd 03 be a5 b6 ff 3d 9d f4 97 3d 95 41 1a be
       -0.12877318 0.124860086 0.07419703 -0.1506408
000270 60 0f 54 be 38 69 80 3e 88 ab c3 3d 3d 04 8b 3d
       -0.2070899 0.25080276 0.09554201 0.06787918
000280 38 05 3b be 23 00 40 3c 62 cd 5c 3e 81 b6 ec 3c
       -0.1826371 0.011718783 0.21562722 0.028895618
000290 00 68 79 bc 93 f2 56 3e 5a 15 11 be ee 64 b7 bd
       -0.015222549 0.20990972 -0.14168301 -0.08954798
0002a0 aa 1e c9 3c 68 c4 52 be e9 1f 38 3e d9 8f a9 3d
       0.024550755 -0.20582736 0.17980923 0.0827939
0002b0 bd 5c 3d 3e 53 bd 8f 3c 17 b7 8c 3d 3e c4 5d 3d
       0.18492408 0.017546332 0.06870859 0.05414223
0002c0 30 03 50 be 6b fa 25 bc d4 a9 36 3e 70 1f 37 be
       -0.20313716 -0.010130505 0.17838222 -0.17883086
0002d0 9c 1a 60 3e 7c bb 9e 3d 98 a3 4d be e6 28 22 be
       0.2188515 0.077506036 -0.20081937 -0.15835914
0002e0 d5 57 b1 3d 5d e4 0a 3e 15 08 59 3e 7e 62 22 3e
       0.08659331 0.13563676 0.2119449 0.15857884
0002f0 ec a3 98 bd 9a 5d 42 bb 26 f6 76 be 7b 7d 69 3d
       -0.074531406 -0.0029657842 -0.24117336 0.057004433
000300 fd 00 41 bc bc ff ff bc 99 9b 1f bd 91 c6 03 be
       -0.011780021 -0.031249873 -0.03896675 -0.12868716
000310 58 7c ff bd d3 63 88 bd 56 13 93 bd 8e 3c dd 3d
       -0.124748886 -0.06659665 -0.071814224 0.108025655
000320 7c 35 5f be ea 80 11 3e 21 38 02 be bd ad 40 b9
       -0.21797746 0.14209333 -0.12716724 -0.0001837527
000330 57 89 37 be 25 5a 6d be 45 42 ee 3c 95 06 4b 3e
       -0.17923485 -0.23178919 0.029084334 0.1982673
000340 85 4b b2 3d 6f 62 fb bd 54 cd 4d 3d 2f 89 f0 bd
       0.087058105 -0.12274634 0.050244644 -0.11744916
000350 d0 43 65 3d 28 dd f0 bc 1d af 71 be f0 0b 5a 3e
       0.055972874 -0.02940233 -0.23601957 0.21293616
000360 27 46 18 3e 5c 4e 40 3e c6 1d 14 bc 2b cc 1b bd
       0.14870511 0.18779892 -0.009040302 -0.038036507
000370 d5 44 00 bd 7f 7f 19 be 7a 42 2e bd a2 07 b9 3d
       -0.031315643 -0.14990042 -0.042543866 0.09034659
000380 67 d1 24 bd 95 76 26 3e 91 3b 3c 3e bb 9e 25 3e
       -0.040238764 0.16256173 0.18382098 0.16173832
000390 a0 a7 15 3c eb 5a 3e 3e ce 49 4f 3e 3c b2 3c be
       0.009134203 0.1858937 0.20242998 -0.18427366
0003a0 7d 26 50 3e f3 5c 2e be 43 25 bb 3c bc 69 5c 3e
       0.20327182 -0.17027645 0.022844916 0.2152471
0003b0 7b 73 5b be 4e 4c 0e 3e 29 88 d4 bc dd c2 eb 3d
       -0.21430771 0.13896295 -0.025943832 0.115117766
0003c0 55 c9 12 3d 70 03 43 3d db 47 3d 3e 27 c3 0a 3e
       0.035836536 0.0476107 0.18484442 0.13551007
0003d0 40 80 59 3e 38 a4 15 be b3 d5 70 be f7 55 a9 bd
       0.2124033 -0.14613426 -0.2351902 -0.082683496
0003e0 ed cf 38 3e d3 c8 7f 3e 09 95 0c 3e c3 04 0a be
       0.18048067 0.24978952 0.13728727 -0.13478379
0003f0 ea 88 29 be c0 56 e3 bd 50 16 1e be 6f 1d bd bd
       -0.16556135 -0.111005306 -0.15438199 -0.0923413

edge_encoder.2.bias f4 [16]
000000 1c 51 3a bd 62 5c 5e 3e ac 75 64 3e 07 2a 6a be
       -0.04548751 0.21714929 0.22310513 -0.22867595
000010 e5 16 0d 3e 56 d8 94 3d a5 81 26 be db 02 fe bd
       0.13778265 0.07267825 -0.16260393 -0.124028884
000020 9a 0f 83 3c a3 8e 0a be 70 7d 32 bc 4e c6 24 3e
       0.01599865 -0.13530974 -0.010894164 0.16091272
000030 6a 8d e5 bd 1c 79 56 bc d2 07 95 3d ce df 45 be
       -0.11208613 -0.013090398 0.07276882 -0.19323656

edge_encoder.3.weight f4 [16]
000000 f8 76 80 3f c0 2a 7d 3f a7 1b 80 3f db 65 80 3f
       1.0036306 0.98893356 1.0008439 1.0031084
000010 7a 2d 7f 3f 60 f5 80 3f 6d 73 7c 3f 18 e5 88 3f
       0.99678767 1.0074883 0.98613626 1.0694914
000020 6a 24 7e 3f bf 0e 80 3f e8 4b 82 3f 80 3a 80 3f
       0.99274313 1.00045 1.0179415 1.0017853
000030 80 f4 7f 3f 7e bf 7b 3f 68 43 7e 3f d8 01 7a 3f
       0.9998245 0.9833907 0.99321604 0.97659063

edge_encoder.3.bias f4 [16]
000000 d8 eb 46 3b 5e ef f9 bb 8a 39 2a 3b 93 35 16 ba
       0.0030352976 -0.0076274117 0.0025974237 -0.0005730029
000010 02 68 63 bc 32 29 c4 3b 4d 14 82 3b a8 07 17 bc
       -0.013879778 0.005986356 0.003969705 -0.009218134
000020 f9 80 fa 3b 8e 2e 26 3b dd 98 2d bc c6 a9 59 3c
       0.0076447693 0.0025357339 -0.0105955275 0.013285106
000030 c2 32 59 ba 61 1a 0e bb 3e de 54 3c d2 34 db 3c
       -0.00082854566 -0.0021683204 0.01299244 0.026758585

node_model.0.weight f4 [16, 48]
000000 fd 1d 09 be 38 ad 75 3d a8 29 cf bc 08 75 e0 3c
       -0.13390346 0.059979647 -0.025288418 0.027399555
000010 00 47 87 ba 76 f0 9c 3d e0 06 bf 3c e4 e8 d0 bd
       -0.0010320842 0.07663052 0.023318708 -0.1020067
000020 7c 0a 36 3d b8 1e 54 3d 2c 13 e6 3d 72 af c3 3d
       0.044443592 0.05178711 0.112341255 0.09554948
000030 5c e9 bf bd a0 04 a8 bc 20 5e ef 3c 34 11 b8 bc
       -0.09370682 -0.020510018 0.029219687 -0.02246914
000040 68 91 80 bc 90 65 b8 3c b4 f5 0a 3d b4 c3 1a bd
       -0.015694335 0.022509366 0.033925727 -0.037784293
000050 38 df 91 3c 28 d7 2c 3d e8 8a 66 3d 8a 28 84 3d
       0.017806634 0.042197376 0.056284815 0.06453045
000060 28 37 00 3e d4 a3 e4 3d 50 0b f8 3d 86 17 76 bd
       0.1252104 0.1116406 0.12111533 -0.060081027
000070 6c b9 cf bc 28 5e 58 bd 1c 54 fd 3d 48 1f 3c 3d
       -0.02535697 -0.05282417 0.12369558 0.04592827
000080 f0 c0 e2 3d 88 6e d8 3c b0 f4 17 3c e4 1e d5 3d
       0.11071956 0.026419893 0.009274647 0.104062825
000090 50 e0 84 bc 3c c5 0f be 18 8c c4 bd 34 a6 aa 3d
       -0.016220242 -0.14040083 -0.09597033 0.08332482
0000a0 f0 a7 48 bd 1a 5a 9e 3d 28 cf 9f bd 40 5a 57 3c
       -0.048988283 0.07732029 -0.07803184 0.013144076
0000b0 e8 3b 91 3c 60 08 1e 3c e8 32 3f bd c7 11 00 be
       0.01772876 0.009645551 -0.046679407 -0.12506782
0000c0 24 23 e4 3d f6 42 04 be ea 63 1c 3e 8e 39 16 bd
       0.11139515 -0.12916169 0.15272489 -0.036675982
0000d0 ad f7 68 3d 57 c2 1d 3e 46 e8 f3 bc 9b 65 b4 bb
       0.056876827 0.15406166 -0.029773843 -0.0055052764
0000e0 40 15 87 3d 25 fd 66 bd 0a 9f 8f ba 3d 64 05 3e
       0.0659585 -0.05639376 -0.0010957432 0.13026519
0000f0 20 57 8d bd 8f 4e 0e be 6d 09 00 3e 0a 7e d5 3c
       -0.069013834 -0.13897155 0.12503596 0.026061077
000100 fd 00 cb bd b6 e4 e7 3d 6f a2 73 bc 33 3e 06 3d
       -0.09912298 0.1132292 -0.01487027 0.03277416
000110 1f 2a a9 3c c0 bf 19 3e 55 48 92 bb 7c e5 f5 3d
       0.020649968 0.15014553 -0.004464189 0.12006661
000120 39 f4 4a bd 3c 92 1c 3a f7 ce 7a bd 61 e4 66 3d
       -0.049549315 0.00059727184 -0.061232533 0.056370143
000130 db 72 0a 3e 14 34 3e 3d db 1a c9 bd 9f 59 0e bd
       0.13520376 0.046436384 -0.098195754 -0.034753438
000140 e7 13 0f be 2c 9e bf 3d a1 40 23 be 80 80 19 3d
       -0.13972436 0.09356341 -0.15942623 0.037476063
000150 24 50 c7 bc af b6 ef bc 49 0e 8b bd cc 47 b7 bd
       -0.024330206 -0.029261915 -0.06789834 -0.08949241
000160 b7 30 4f 3d f3 69 a2 3d 53 56 c8 bd 77 37 f0 bd
       0.050583567 0.079303645 -0.0978209 -0.11729329
000170 f0 81 50 3d 25 23 cc 3d c5 55 52 bb 88 1a d4 3d
       0.050905168 0.09967641 -0.003209458 0.10356623
000180 aa 7e 87 3d 37 3c f0 3b 68 7b 19 3d 61 20 02 3c
       0.06615956 0.007331397 0.037471205 0.00794229
000190 12 b7 8f bd 1c cb 4b bd af c5 67 bc 40 af 02 3e
       -0.0701734 -0.049754247 -0.014146253 0.12762165
0001a0 c6 57 dc bc c7 37 b6 bd 4c cc 00 be 66 5f 0e bd
       -0.026897322 -0.088973574 -0.12577933 -0.034758948
0001b0 56 88 b9 bd c3 67 4b 3d 51 a9 04 3e 7e 34 4b 3d
       -0.09059207 0.0496595 0.12955214 0.049610607
0001c0 87 f2 d4 bd db 8e 9a 3d f5 45 a5 bd 00 77 a1 bd
       -0.10397821 0.07546779 -0.08069984 -0.078840256
0001d0 8e 29 dc 3a eb 7c 0f be 1a d6 d4 3d a7 05 e8 3d
       0.0016797052 -0.14012496 0.10392399 0.11329203
0001e0 75 ab 22 3e 14 8e 01 3d d6 87 05 3d 0d 1b 71 3d
       0.15885718 0.031629637 0.032600246 0.05886369
0001f0 56 6e 04 3d 28 94 ee bd e9 bc a5 3a fb 5f 9a 3d
       0.032331787 -0.11649352 0.0012644801 0.07537838
000200 20 c9 d4 bd ba 80 52 bd 28 fb d4 3d ee 9d 0f be
       -0.10389924 -0.051392294 0.10399467 -0.14025089
000210 76 f7 8d bd b0 75 df 3d ca da 7c bb c6 5e bf 3a
       -0.06931965 0.10911119 -0.0038582557 0.0014600388
000220 08 31 56 3d b5 01 a1 3d 2a 60 d7 3d fb 2d 2e bd
       0.052292854 0.07861654 0.10516389 -0.04252432
000230 3c 03 42 bc 7c da dc 3d bc 1a 52 bd 35 bf dd 3d
       -0.011841591 0.1078386 -0.051295027 0.108274855
000240 5e b6 45 3d e8 95 de 3d 94 7e 9e 3d 3a 65 84 3c
       0.048269622 0.10868436 0.077389866 0.01616155
000250 5b a4 8f bc 7f 5e fd 3d df 17 d5 3d b2 80 ad bd
       -0.017534425 0.12371539 0.10404944 -0.08471812
000260 53 65 a0 bc 8a 2c 23 bd 78 60 9f 3d 67 fe 9c 3c
       -0.019579565 -0.039837398 0.07782072 0.019164277
000270 8c c5 8b bd a1 3d 27 be b6 4e 8d bd 4b b2 0c 3e
       -0.068247885 -0.16332103 -0.068997785 0.13739888
000280 96 42 d4 bd 4b 58 08 3e 90 07 19 3e 16 7e 94 3c
       -0.10364263 0.13314931 0.14944291 0.018126529
000290 3b 74 1d be 81 ad f0 3d 51 95 38 3d 8c 85 9f 3c
       -0.1537637 0.11751843 0.045064274 0.01947286
0002a0 6a c5 23 3d 53 12 95 bd e1 a5 03 bd 5d 6f 16 3e
       0.03998319 -0.07278886 -0.032140616 0.14690919
0002b0 e1 66 98 3d 89 ad bb 3d e7 dc e2 3d f7 b6 b0 3d
       0.074414976 0.091639586 0.1107729 0.08628648
0002c0 5e b0 02 3e 2a 4e be bd d1 c8 d1 3d af 45 0c 3b
       0.12762591 -0.09292252 0.10243381 0.002140384
0002d0 7d 9e 08 3e 09 1b d2 3b fc 99 e2 bd 94 38 1e 3e
       0.13341708 0.0064119142 -0.110645264 0.1545127
0002e0 10 ef fc bc c6 a4 20 3d 72 b9 9c 3d 7b ca 9f bc
       -0.030875713 0.03921964 0.076525584 -0.01950573
0002f0 76 a3 96 bd f5 8e 19 be 08 81 68 bd 23 9a c3 3d
       -0.073553964 -0.1499594 -0.05676368 0.095508836
000300 e8 13 8d 3c c4 bc c1 bd fc 8c e7 3d d9 f4 80 bd
       0.017221406 -0.09459832 0.113061875 -0.06296701
000310 9f 49 38 bd 3f 8e 66 bd a3 92 0b 3e b5 0c 36 3c
       -0.044992086 -0.056288 0.13630156 0.011111428
000320 18 2a db bd 59 f7 e4 bd 5b 6e df bd ba 82 2a 3b
       -0.10701388 -0.1117999 -0.109097205 0.002601786
000330 27 e2 db bd 7b eb 37 3c 13 01 f8 3d f4 81 e5 3d
       -0.107364945 0.0112255765 0.1210958 0.11206427
000340 79 b3 17 bd 55 62 58 3d a9 51 82 3d b6 fc 15 bd
       -0.037036393 0.05282815 0.06363232 -0.036617957
000350 5e 58 09 3e 78 00 12 3d 8e cc 9c bd 86 c4 0d bd
       0.13412616 0.03564498 -0.07656203 -0.034611247
000360 03 52 ee bd e3 fd 11 be 99 63 81 3d 7d e5 28 be
       -0.11636736 -0.14257006 0.06317825 -0.16493793
000370 b7 fd a8 3d d0 1b 1b 3e 15 55 af bc 3b 7e d5 3d
       0.08251517 0.15147328 -0.021402875 0.10424467
000380 06 12 09 bd 46 29 af bc 80 8b 67 3d 3f 84 f2 bd
       -0.033464454 -0.021381985 0.056529522 -0.1184163
000390 35 4c eb 3c e6 ef bc bb 9a 1e 08 bd 37 68 53 bd
       0.028722862 -0.005765903 -0.03323231 -0.05161306
0003a0 86 dc ca bd 87 f1 22 3d 56 0a 82 3c ba 80 0c 3d
       -0.09905343 0.03978112 0.01587407 0.03430245
0003b0 8f 49 d2 bd ea 7b 8d 3c 0a 9e 13 bd 45 b9 01 3e
       -0.102679364 0.017271 -0.03603939 0.12668331
0003c0 8b 4f 18 3d 2c 29 3a bb 4f 3a 51 bc ef d9 35 3b
       0.037185233 -0.0028405888 -0.0127702495 0.0027748307
0003d0 bd 92 28 bc f6 49 b0 3d e8 ee 15 be 18 ed 5a 3d
       -0.010288891 0.08607857 -0.14641917 0.053448766
0003e0 69 81 bc 3d a4 f7 4b 3c 1c 57 fb bd 25 9a 08 bd
       0.092043705 0.012449179 -0.12272474 -0.03335013
0003f0 21 16 cd bd 32 61 c6 bd b2 d2 cc 3d 4f 69 06 be
       -0.100139864 -0.09686507 0.100011244 -0.1312611

node_model.0.bias f4 [16]
000000 56 74 13 bd cf 60 89 bd 0b 5c 07 3e 1d 29 98 3d
       -0.03599962 -0.06707918 0.13218705 0.07429717
000010 28 d9 b5 3c 99 b2 b0 bd ef 73 a4 bd f5 08 c9 bd
       0.022198275 -0.08627815 -0.08029925 -0.098161615
000020 a6 84 1e 3e 8d 24 1d 3e 18 8e 13 3d d5 c4 d3 3d
       0.15480289 0.15345974 0.036024183 0.10340277
000030 c9 ee a7 3c fc 04 ef 3d 47 c3 bc bc ad be c8 bd
       0.020499604 0.116708726 -0.023042334 -0.098019935

node_model.2.weight f4 [16, 16]
000000 fc 99 59 be 75 e3 25 3e 56 8a 39 3e 7f 5e 4a 3d
       -0.21250147 0.16200049 0.18119177 0.049406525
000010 43 4b 76 3e 62 5a 37 bc ec 77 56 3d 83 c4 45 3e
       0.24052148 -0.011190983 0.05236046 0.19313245
000020 17 40 13 3e d6 28 d8 bd 29 96 65 be dd e2 0c be
       0.14379917 -0.10554664 -0.22420563 -0.13758416
000030 44 61 18 3d f3 85 cc 3c 98 3f eb bb 63 59 44 3e
       0.037202135 0.024966216 -0.007179212 0.19174723
000040 48 09 cc bd 32 81 f4 bc 44 a2 06 be 87 fe 99 bb
       -0.09962708 -0.029846761 -0.13147837 -0.0046995315
000050 be 6b 20 be c8 4d 8f be b4 b5 4d bc c3 0b 25 be
       -0.156661 -0.2798903 -0.012555528 -0.16117768
000060 69 c5 ab 3e e2 a0 41 be cd a5 81 3c bf a0 8b 3d
       0.3354905 -0.18909028 0.01582613 0.06817769
000070 5a 5d 7a 3d f4 b1 87 3e 8a 0c 0e 3e 79 a2 ac bd
       0.061124183 0.26502955 0.13871971 -0.08429427
000080 ae b8 5f be fc 8a 47 3d 45 ff 06 3e 6d c6 42 be
       -0.21847793 0.04871653 0.13183315 -0.19021006
000090 b7 0b 0e be 36 d0 67 3e 56 c0 ea bd 0c 39 26 3e
       -0.13871656 0.2263802 -0.114624664 0.16232699
0000a0 c0 e2 87 bd bb 04 8e bd 3a 99 96 3d 97 ca 31 3c
       -0.06635046 -0.06934496 0.073534444 0.010851524
0000b0 86 c4 76 3e 8b a6 62 3d 09 c7 70 be 0b 92 7b bc
       0.24098405 0.05533461 -0.23513426 -0.015354644
0000c0 b4 86 0c be 4e dd 82 bd 6a 7b 4a bd f8 ae 04 3e
       -0.1372326 -0.06389867 -0.049434103 0.1295737
0000d0 29 a6 5d 3e a5 58 f6 bc 22 4e 5d 3e 25 f4 26 be
       0.21645416 -0.030071566 0.21611837 -0.16304071
0000e0 f1 7a 9f 3e 9e 6a 34 be 60 a3 22 3e 37 f1 00 3e
       0.31148484 -0.17618796 0.15882635 0.12592016
0000f0 22 db 7f be f1 7f 78 3d 5a b3 59 3e b2 70 9c bd
       -0.24985936 0.06066889 0.21259823 -0.076386824
000100 50 5e 25 3d 6a 46 c6 3d 97 49 37 3e 64 d0 03 be
       0.040373147 0.09681399 0.17899166 -0.12872463
000110 04 f4 69 3d 93 cc 21 be e9 8b 54 be a1 e8 0b 3e
       0.057117477 -0.15800695 -0.20756496 0.1366296
000120 54 3c 26 3e 70 72 44 3e a3 5d 2c 3d c1 98 cf 3b
       0.16233951 0.1918428 0.042081486 0.0063353484
000130 99 18 67 bd 84 b7 81 be a0 0c 34 3e 1d 06 d8 3d
       -0.056419943 -0.25335324 0.17582941 0.10548041
000140 e0 93 e2 bc 0b c9 0c be 35 01 e4 bc 01 a3 a7 bd
       -0.027658403 -0.13748567 -0.027832607 -0.081853874
000150 a8 9c 0a 3e 9b 14 4f be ad ca 67 bd 1e a3 c3 bc
       0.13536322 -0.20222704 -0.05658977 -0.023881491
000160 79 f4 f4 3d ac 24 66 3d 62 21 09 be 5c 1f 17 be
       0.11960692 0.056187317 -0.13391641 -0.14758056
000170 83 de bf 3c e3 19 db 3d fe 13 3e be 09 78 c1 bd
       0.023421532 0.10698297 -0.18562314 -0.09446723
000180 78 aa 58 be 7f 98 6c 3e 7b c9 2a 3e 03 88 43 3e
       -0.21158779 0.23105048 0.16678421 0.19094853
000190 f1 45 63 be ec 1d 2c 3e 14 d4 d8 3d e7 94 26 be
       -0.2219465 0.1680829 0.10587326 -0.16267739
0001a0 27 ef 76 3e 32 a4 84 3d 91 ce 27 3d e9 a7 46 be
       0.24114667 0.0647663 0.04096848 -0.1939999
0001b0 24 e6 44 be 1a 7e 01 3e 06 55 5a 3d 4d c0 35 3e
       -0.19228417 0.1264576 0.05330374 0.17749138
0001c0 30 1c 17 be 9d b0 55 3e 57 0b c4 bc d1 bc 22 be
       -0.14756846 0.20868154 -0.023931189 -0.1589234
0001d0 a3 a5 1d be 97 eb 3a be 31 96 f4 3d 61 12 6a 3e
       -0.15395217 -0.18253933 0.11942709 0.22858573
0001e0 11 16 d8 3d 00 1a 92 3c 33 65 39 be 19 15 84 3e
       0.10551084 0.017834663 -0.1810501 0.25797346
0001f0 f4 37 8c bd 51 ed e4 bc 57 4f 79 be 44 ce 96 bd
       -0.0684661 -0.027945193 -0.24346672 -0.07363561
000200 30 37 e4 bd c5 4a a0 bd a5 80 e4 bd 0a e7 92 3d
       -0.11143339 -0.07826761 -0.111573495 0.071729735
000210 f5 1b 02 bd cd 8c 52 3d 2e 83 81 3e 76 d4 dd bd
       -0.031764943 0.05140381 0.25295395 -0.10831539
000220 cf 17 f0 bd 0c d2 62 3e cf f2 e9 bd 3b c8 3b be
       -0.11723291 0.22150439 -0.11423265 -0.183381
000230 2a aa 14 bc 4a 50 34 3e ec a8 58 3e ba 86 74 3e
       -0.009073773 0.17608753 0.21158189 0.23879519
000240 a8 ca 07 3d 2f 85 ce 3d bd 73 75 3b cb cd 30 3e
       0.033152252 0.100839965 0.0037453019 0.17266004
000250 52 13 f4 3c eb ff c3 3d 95 2b 4f 3e 6e 78 4a be
       0.029794369 0.09570297 0.20231469 -0.19772503
000260 34 c5 02 3e 10 cd 14 be b3 c6 c5 bc c8 4a 71 be
       0.1277054 -0.1453135 -0.024142599 -0.23563683
000270 b9 72 bb 3c de dd 07 3e 47 3c 74 be 0b a0 16 be
       0.022881852 0.1326823 -0.23851119 -0.14709489
000280 bc 07 ac bd 4d dd 54 3e ad aa a5 3d 8a f1 11 bd
       -0.08399913 0.20787545 0.080891944 -0.03563074
000290 be 96 2f 3d 15 93 01 3e 6e b2 c0 bd 53 d2 c2 bd
       0.04286837 0.12653764 -0.09409033 -0.095127724
0002a0 7c 26 5e be d5 b9 33 bd a2 78 2f 3d a2 86 c8 3d
       -0.21694368 -0.043878395 0.042839654 0.09791304
0002b0 73 29 57 3e d2 1a 6a bd 5e ea b3 bd 9e 1b 10 be
       0.21011905 -0.057154484 -0.08784936 -0.14073035
0002c0 40 76 84 3c cc a2 55 bc 0e b1 da bc 8a 6c 6a 3e
       0.016169667 -0.013039302 -0.026695754 0.22892967
0002d0 3e 39 0e 3d 5a cb c1 bd 38 ef 97 3d b5 a7 41 3e
       0.03472256 -0.09462614 0.07418674 0.18911631
0002e0 cf c0 95 3d 15 1e a9 bc 60 ab 2e be f6 48 f4 bd
       0.07312166 -0.020644227 -0.17057562 -0.11927979
0002f0 2c ef 43 3e 1a d8 56 3e 6c d6 86 3e d5 1e f4 3d
       0.19134206 0.20980874 0.26335466 0.11919943
000300 40 bf 86 3c 05 db 3d be 87 6b 1c be 49 65 4e 3e
       0.016448617 -0.1854058 -0.15275393 0.20155825
000310 61 87 45 be 1d fb 0c 3e e6 0b 0f be c4 64 7d 3e
       -0.19289924 0.13767667 -0.13969383 0.2474547
000320 f3 53 c4 3d a0 4d 62 3e 11 2e 8e 3d d5 6c 1c be
       0.095863245 0.22099924 0.0694238 -0.15275891
000330 06 61 94 3e 37 50 92 3e 59 84 b7 bd e8 ee 35 3e
       0.28980273 0.28576824 -0.0896079 0.17766917
000340 bc e3 82 3d f7 7a 6a 3e c6 33 cb 3d e6 b2 27 3e
       0.06391093 0.2289847 0.099219844 0.16376838
000350 a9 3f 79 be 3b 06 90 bd 8b 86 c5 bd b8 3a 96 3d
       -0.2434069 -0.07032438 -0.09644803 0.073354185
000360 7b 60 b0 3d e6 6f 4b be f2 51 92 3d cb 9e 54 3e
       0.08612152 -0.19866905 0.07144536 0.207637
000370 b5 96 ac bd ad a8 84 3e d2 d7 0f be 1c af 1b 3e
       -0.084271826 0.2590994 -0.14047173 0.15203518
000380 f8 50 e5 bd 4b ac 8d 3d 22 77 35 be f9 15 14 3e
       -0.11197084 0.06917628 -0.17721227 0.14461507
000390 4b 57 b0 bd fa 38 55 3e d3 6d 18 3e 40 51 95 bd
       -0.086104 0.20822516 0.14885645 -0.07290888
0003a0 7f c1 21 3e 55 2f f7 3d 76 2d 86 bd 5c 2f b1 be
       0.15796469 0.12069575 -0.0655164 -0.34606445
0003b0 00 50 a9 3d c9 01 20 3e 1f 42 38 3e 70 26 b3 3d
       0.08267212 0.15625681 0.17993973 0.08747566
0003c0 e0 97 b8 3d 71 20 83 be 3d 08 d4 bd 76 5e 1d bd
       0.09013343 -0.25610688 -0.10353134 -0.038420163
0003d0 f9 07 04 3e 60 75 c8 bd 47 dd ce 3d c4 a9 15 be
       0.12893666 -0.097880125 0.10100799 -0.14615542
0003e0 3d 7f 88 3e 5e 4c 13 3d b1 b9 66 3e 7a 88 87 3e
       0.26659575 0.0359615 0.22531773 0.2647131
0003f0 e5 9a 8a be ab 83 38 3e f0 4a 52 3e 92 35 6a bb
       -0.270713 0.18018977 0.20536399 -0.0035737497

node_model.2.bias f4 [16]
000000 a5 f8 5b bd 5b 90 71 bb a2 bb 11 3d ca 62 60 be
       -0.053703923 -0.0036859724 0.03557933 -0.21912685
000010 97 0e 3d 3e 3c 93 b4 bd 56 6a 10 3e 6a f6 f9 3c
       0.18462597 -0.08817145 0.14103064 0.030513007
000020 a0 21 04 be 29 6d cc 3d a7 2d 2f bd 10 c4 39 bd
       -0.12903452 0.09981758 -0.042768147 -0.045352995
000030 d3 8f e6 bc 6f 65 c7 3d 0c e3 22 3e a8 88 12 bd
       -0.028144753 0.09736144 0.15906924 -0.035774857

node_model.3.weight f4 [16]
000000 8c a6 93 3f 81 8c 9a 3f ee ba 9c 3f cd d8 92 3f
       1.1535201 1.2074128 1.2244546 1.1472412
000010 bb 04 96 3f 30 b5 80 3f 72 a3 8e 3f b9 d1 96 3f
       1.1720194 1.0055294 1.114363 1.1782752
000020 35 d0 84 3f 76 3a 71 3f 7b c8 96 3f ac 37 92 3f
       1.037604 0.9422983 1.1779932 1.142324
000030 4c d0 87 3f e0 eb 89 3f fb 89 7d 3f 7a e7 95 3f
       1.0610442 1.0775108 0.99038666 1.1711266

node_model.3.bias f4 [16]
000000 69 2e 11 3e 34 43 22 be df 51 e6 3d 56 bd d9 bd
       0.1417786 -0.15845948 0.112460844 -0.10631816
000010 42 f9 07 3e 80 fb d6 3d 1d a6 ce bd 15 85 e8 bd
       0.13278678 0.104971886 -0.10090277 -0.113535084
000020 e7 6e 7f bd 3b 4e c0 3d 69 29 0b 3e d2 fa f9 3d
       -0.062361624 0.09389921 0.13590015 0.12206043
000030 74 8b c1 3d 4a 41 d2 bd 78 da 51 bc a1 da 07 be
       0.09450427 -0.10266359 -0.012808435 -0.13266994

edge_model.0.weight f4 [16, 96]
000000 47 94 2a bd d7 61 a8 bd 41 c2 4b 3c 88 bf 6c bd
       -0.041645315 -0.082217865 0.01243645 -0.057799846
000010 92 1a ee 3c 24 8e 93 bd c3 07 9c 3d fb c1 a8 3b
       0.029065404 -0.072048455 0.07618668 0.0051500774
000020 7a 23 93 3b bc f6 93 bd f1 c3 3c 3d f8 c2 6f 3c
       0.004490313 -0.07224795 0.0460853 0.0146338865
000030 e9 30 9a bd e1 b2 7c 3d 9b 50 e9 3b 39 d8 c9 3d
       -0.0752886 0.06169403 0.0071202046 0.09855694
000040 7c db 25 3d b6 d6 be bd fe bd 97 bd f5 49 a1 3d
       0.04049252 -0.093182966 -0.07409285 0.07875434
000050 0f 65 90 bd bb 7d 88 3b 6d d7 4d 3d de 2e 6c 3d
       -0.070505254 0.004165379 0.050254274 0.057661884
000060 d2 12 85 3d 12 a7 ec bc 16 76 8c bc a7 ce f2 3c
       0.0649773 -0.02888826 -0.017146152 0.029639555
000070 7e 96 14 3d 51 24 8c 3d 4a 28 7a 3b 72 8f 9c 3c
       0.036276333 0.06842864 0.0038170987 0.019111369
000080 cd 7a ae 3d 95 7d a6 3d 5b 90 9d 3c b7 ff 5b 3c
       0.08519516 0.081294216 0.019233873 0.013427666
000090 ff 79 4f bd 13 ec 17 bd 02 ee 02 3d 6d 4c d4 bc
       -0.050653454 -0.037090372 0.031965263 -0.025915349
0000a0 05 36 96 bb 46 f3 3c bd c8 5a b7 bc 54 7a df 3d
       -0.0045840763 -0.04613044 -0.022382155 0.10912004
0000b0 8a 7c 21 3d 6f be 9d bd 1e 74 6f 3d 66 fb d6 bd
       0.03942541 -0.07702338 0.058460347 -0.10497169
0000c0 bc 84 b3 bd bb d4 f2 bd 7b 6f 8f bd f5 25 46 3c
       -0.087655514 -0.11856981 -0.07003685 0.012094011
0000d0 6e 8d 81 bd 65 15 c3 3d c0 1c 34 3d a2 30 27 3d
       -0.06325804 0.09525565 0.04397273 0.040817864
0000e0 b6 a0 68 3d b9 dd 0e ba 96 ce 36 bd 92 58 0e bd
       0.05679389 -0.00054499094 -0.04463061 -0.034752436
0000f0 62 4c 57 bd 6d 5d cb bb 44 e1 08 3a 97 50 59 bd
       -0.05256308 -0.0062062056 0.00052215555 -0.053055372
000100 a9 6d b4 bc 36 b2 93 3d ab 01 1e 3d a9 95 a6 3d
       -0.022024946 0.072117254 0.03857581 0.08134014
000110 71 a9 b1 3d 47 82 09 bd fa 6d 87 3b 56 bd 95 bd
       0.086748965 -0.033571508 0.0041329833 -0.073115036
000120 1a fa ae 3d ba 8c c9 3d 7b b5 91 bd 62 15 83 3c
       0.08543797 0.098412946 -0.07114693 0.016001407
000130 4f 61 9b 3d 33 f9 48 bd 5e aa 3a bd fa 92 4f 3d
       0.075869195 -0.04906578 -0.04557263 0.050677277
000140 b9 1a ca bd 30 da 15 bc 02 bc 21 bd c2 f4 5a 3d
       -0.09868378 -0.009146258 -0.03948594 0.053456075
000150 8a d2 c6 3d 8c ec 0c 3c cc 7b f3 3c fb af 09 bd
       0.09708126 0.008601319 0.029722117 -0.033615094
000160 c6 77 37 3d ed 86 d6 bc d0 93 5e 3d db e8 12 bd
       0.04479196 -0.026187385 0.054340184 -0.0358666
000170 20 bc 5f 3d 27 b5 87 3c b9 ef 20 3d ea 78 56 3d
       0.05462277 0.016565872 0.039291117 0.052361406
000180 46 be 87 bc 52 d4 8d bc 88 2a 03 bd 8e fa 6b 3d
       -0.016570222 -0.017313156 -0.032022983 0.057611994
000190 eb de 0f bc 38 b7 78 bd 89 19 c2 bd d6 8a c5 3d
       -0.008781175 -0.060721606 -0.09477527 0.096456215
0001a0 86 57 9f bd ff 69 71 3c 84 70 cf 3c 4e 27 98 3c
       -0.07780366 0.014734744 0.025322206 0.01857343
0001b0 c6 00 ab bd d9 b7 cf 3c 9f ba 50 bd 58 8d bf bd
       -0.08349757 0.02535622 -0.050959226 -0.09353131
0001c0 c8 6e f2 bc c7 53 83 3d bc a1 62 3d b7 84 d1 bb
       -0.02959384 0.06412464 0.055330023 -0.0063939947
0001d0 62 7e 81 3d eb fc d4 bd f9 b2 d5 3c 95 3f ca bc
       0.06322934 -0.10399803 0.026086317 -0.024688521
0001e0 47 b1 a1 bd 6d 3a c4 3c 89 4f c0 3b 80 4f 67 bc
       -0.07895141 0.02395364 0.0058688563 -0.014118075
0001f0 a9 9c de 3d b6 44 ad bd db e1 cf 3d 40 a6 49 3d
       0.10869724 -0.08460371 0.101505004 0.049230814
000200 70 2a da 3d 49 56 b5 3c 8b 74 57 bc d0 66 20 bd
       0.106526256 0.02213587 -0.013150345 -0.03916055
000210 a4 4e 64 bd 02 ca c2 bd b6 67 9f 3b 03 03 c7 3c
       -0.05573906 -0.09511186 0.004864658 0.024293428
000220 da b7 74 3d f7 1c 0a 3d e8 40 56 bd 94 99 2c 3d
       0.059745647 0.03371903 -0.052307993 0.04213865
000230 87 8d 51 3d 9a 6a b7 bd f0 ef 93 bd 06 49 45 bc
       0.05116036 -0.089558795 -0.07223499 -0.012041336
000240 56 78 80 bb c6 75 65 bc 02 12 5c 3d 86 51 27 bd
       -0.003920595 -0.01400513 0.05372811 -0.04084923
000250 54 70 47 3b e8 0b 58 3d ec f4 7f bd 37 af 8a 3d
       0.0030431943 0.05274573 -0.062489435 0.06771701
000260 ee 15 b5 bd 6e 50 5e bd a8 e1 1d bd 94 b2 ed bd
       -0.088420734 -0.054275922 -0.03854528 -0.11606327
000270 29 2d 93 bd 58 ab 80 3d 39 f1 b6 bc 6f 17 fa 3d
       -0.07186348 0.06282681 -0.02233182 0.12211501
000280 60 c8 a3 3d 4b d6 9b bd e7 5c 41 bc fd 82 b0 3c
       0.07997203 -0.076092325 -0.011801935 0.021546835
000290 f5 69 c7 3d 57 15 a0 3d 29 1f ef 3c da 2d 97 3d
       0.097370066 0.0781657 0.029189663 0.07381792
0002a0 6e 9a c5 3d dc f4 94 bd 54 e3 15 bd bc cb ba bd
       0.09648596 -0.07273266 -0.03659375 -0.091208905
0002b0 62 70 92 3d a5 db 21 3d 48 0f 0e bd 25 95 89 bd
       0.071503416 0.03951611 -0.034682542 -0.067179
0002c0 4d 69 47 ba 6e a0 74 bd 49 90 5b 3d 59 56 dc 3d
       -0.00076069386 -0.05972331 0.053604398 0.10758657
0002d0 68 ae 20 ba f2 10 db 3c 00 6b 98 bd ac 59 29 bd
       -0.0006129504 0.026741479 -0.07442284 -0.041345283
0002e0 a9 1f 60 3d b2 fc 82 3d 2c 37 72 3d 45 f9 55 3d
       0.054717693 0.06395854 0.059134647 0.052239675
0002f0 0e 5b f9 3c 91 f0 9e bd 99 c6 2b 3d 60 95 81 bc
       0.030438926 -0.07760728 0.041937444 -0.015818298
000300 ff b9 2d bd ef f4 a7 3d 3f 85 b9 bd 78 9f ce 3c
       -0.042413708 0.08201014 -0.09058618 0.025222525
000310 a2 06 ce 3d 90 ee 2d 3d 90 b9 c4 bd 99 8b a7 bd
       0.10059859 0.04246384 -0.09605706 -0.08180923
000320 97 b0 b6 bc 0b fd 34 bc c2 68 c2 bc a5 2b a6 bc
       -0.022301001 -0.011046658 -0.023731593 -0.020284483
000330 a8 6a 88 3d 33 b2 af 3d 9a d3 64 bd d1 83 22 bd
       0.06660968 0.08578911 -0.05586586 -0.03967649
000340 0a 78 76 3d 97 35 80 3d 51 1b 96 bd c7 00 ac 3d
       0.060173072 0.062602215 -0.07329429 0.08398586
000350 cb 0e 84 3d 13 b9 82 3d 90 0c 02 bd f7 f2 3e bc
       0.06448134 0.06382956 -0.03175026 -0.011654607
000360 5d f6 9c bd 88 10 4a bd 88 50 c3 3b 98 d7 1b 3c
       -0.076641776 -0.04933217 0.005960528 0.009511851
000370 f9 56 95 bd ee f2 7d 3a c3 fc 0d bd ce 8e 0c 3e
       -0.07291979 0.00096873834 -0.03466488 0.1372635
000380 da 0b 38 3d 3f 2d c8 3d c2 cb 21 bd 38 9c ec 3c
       0.044933178 0.09774255 -0.03950096 0.028883085
000390 c8 fe ad bd 93 49 ba 3b 62 d0 3a 3d 75 6d ba 3c
       -0.08495861 0.0056850403 0.045608886 0.022757271
0003a0 82 03 b9 3c f2 cf 97 bd 8e f3 9c bd f5 e5 a1 3c
       0.02258468 -0.07412709 -0.07663642 0.019762972
0003b0 61 ab 3e bd 1f 6f 97 3d 61 5a 73 3d 31 60 58 bd
       -0.04655016 0.073942415 0.059412364 -0.05282611
0003c0 5e 30 a9 3c 27 fa 01 3e 40 61 9d bd 8f aa 88 3d
       0.020652946 0.12693082 -0.076845646 0.066731565
0003d0 97 db 48 3c 45 2e 9b bc 19 a9 5a bd e7 fa 88 bd
       0.012259386 -0.018942961 -0.05338392 -0.06688481
0003e0 a8 3d 98 bd b8 61 9e bd 71 11 02 be 39 7e 2b 3d
       -0.07433635 -0.07733482 -0.12701966 0.041868422
0003f0 50 39 bc 3d 5e c4 e5 bd 2a 32 d9 3c da 4d c9 bc
       0.09190619 -0.11219095 0.026513178 -0.024573255

edge_model.0.bias f4 [16]
000000 fc e1 4b bd 30 27 40 bd 4d c7 45 bd e4 6e c1 3d
       -0.049776062 -0.046912372 -0.04828577 0.09444979
000010 c7 44 4d bc ce 25 b6 3d 6c e8 aa 3d 85 e7 ca bd
       -0.012528605 0.088939294 0.08345112 -0.0990744
000020 c5 5f 56 3d 5b 41 88 3d 73 cf 97 bd 89 4c a7 3d
       0.052337427 0.066530906 -0.07412615 0.08168895
000030 b6 3d e6 bc 84 09 71 bd db 4b 39 bd 5e 15 04 3d
       -0.028105598 -0.058846965 -0.045238357 0.03224694
