tmp/tmp4model0.pt (torch, 23679 bytes, 25 tensors)

node_encoder.0.weight f4 [16, 5]
000000 6a 76 52 3d 1a 76 50 3d 4c 17 bb be 97 cd 84 be
       0.05138246 0.05089388 -0.36541212 -0.25938103
000010 ba ad e1 be 68 9a d3 be 01 0d e1 3e 85 a3 bc 3e
       -0.44077855 -0.4132874 0.43955234 0.36843506
000020 28 36 d9 3d bc 27 da 3e 22 d3 23 be 9f 94 81 be
       0.106060326 0.4260844 -0.1599851 -0.253087
000030 84 38 c4 3e 10 0b c2 bc 1a fb b1 3d 0b 6c 86 3e
       0.38324368 -0.023686916 0.08690472 0.26254305
000040 61 72 6f 3e e0 1b 83 be da 1a 31 be 63 51 d3 be
       0.23383476 -0.25607204 -0.172954 -0.4127303
000050 88 fc b0 3c ce 2b 22 be 3b 92 c8 3d 80 71 aa 3c
       0.021604791 -0.15837023 0.09793516 0.020806074
000060 0e 22 c4 3e d5 75 1a 3d 0d 2a 64 3e 7a 8d 12 3e
       0.38307232 0.03771003 0.22281666 0.14311782
000070 da 26 cb 3e bd 60 3c be db 44 be 3e 4b 5a a3 3e
       0.3967808 -0.18396278 0.37161908 0.31904826
000080 53 98 38 be e8 5a 8c 3e a0 b4 d2 3e ca 71 80 be
       -0.18026857 0.27413106 0.4115343 -0.25086814
000090 ab b2 30 be e2 a9 9d 3e 24 a0 b8 3e b7 55 f5 3d
       -0.17255656 0.30793673 0.36059678 0.119792394
0000a0 24 a4 0a 3e 6a 95 a8 3e e5 ae c7 3e b5 d0 90 be
       0.13539177 0.32926494 0.3900062 -0.2828423
0000b0 bf 4c 3e be 69 cf c1 3e c0 5b 79 3e e5 d2 54 be
       -0.18583964 0.37853554 0.24351406 -0.20783575
0000c0 2a 62 1b be 90 3a df 3e d6 6d 90 be 21 48 92 3e
       -0.15174165 0.43599367 -0.28208798 0.28570655
0000d0 ea d7 83 3e ac 98 db be 20 92 e4 be 88 6b 18 3e
       0.25750667 -0.42889917 -0.44642735 0.1488477
0000e0 78 cb 5e 3e 5d 40 cb 3e c0 c6 61 3d eb 7a 9b 3e
       0.21757305 0.39697543 0.055121183 0.30367216
0000f0 bb a5 a3 be f0 c1 87 3e c6 94 dc be 3c 29 95 3e
       -0.3196238 0.2651515 -0.43082255 0.29133022
000100 15 a9 3e 3d 46 b5 8c 3e f8 c4 33 3e 3e 36 9f be
       0.046547968 0.2748205 0.17555606 -0.3109607
000110 00 2e 98 3b 92 89 62 3d a3 9d 87 3d d6 7e c7 be
       0.0046441555 0.05530698 0.06621864 -0.38963956
000120 d1 52 65 be eb b7 57 be 0c eb 78 be d3 02 c2 3e
       -0.22394873 -0.21066253 -0.24308413 0.3789278
000130 03 41 82 3e 87 57 3b 3e c2 48 09 be 2c be ba be
       0.25440225 0.18295108 -0.13406661 -0.36473215

node_encoder.0.bias f4 [16]
000000 cd e3 be 3d d8 16 d3 3e 9e d7 4d 3e c9 cc b9 be
       0.09320793 0.41228366 0.20101783 -0.3628905
000010 9c 9c 1a bd ca 30 8e 3c 9f 65 90 3e da 80 43 3e
       -0.03774701 0.017357249 0.2820253 0.19092122
000020 90 77 a2 be e9 e9 d6 be 0a f1 05 3e bc f4 5f 3e
       -0.31731844 -0.41975334 0.1308023 0.21870703
000030 16 68 82 3e 44 e4 9c 3e 38 65 cb 3e 43 14 41 be
       0.25470036 0.30642903 0.3972566 -0.18855385

node_encoder.2.weight f4 [16, 16]
000000 85 f8 76 be 0f ce fe 3d c4 f6 78 3e d3 6e 38 be
       -0.2411824 0.12441646 0.24312884 -0.18011026
000010 5c d5 fd bd fa 3c 5d 3e ec fb 49 3e c8 c8 b3 bc
       -0.12394211 0.21605292 0.19725007 -0.021946326
000020 53 12 10 be 76 da 43 3d 4b b2 78 be 36 28 c6 bd
       -0.1406949 0.047815762 -0.24286763 -0.096756384
000030 a1 a7 f8 bc 27 e1 6b bd 96 06 d7 3d bc e4 ee 3b
       -0.03035337 -0.05758777 0.10499303 0.007290451
000040 23 c7 47 be 17 d9 b8 bc d8 97 ce 3c f3 df 21 3e
       -0.19509558 -0.022564454 0.02521889 0.15808086
000050 e6 a1 83 3c 97 8f ae bd 15 69 cb 3d fe 01 f0 3d
       0.01606841 -0.08523481 0.09932152 0.1171913
000060 eb 52 4a 3d da 71 07 be 19 71 8e 3d ad 72 1a 3d
       0.049395483 -0.13227025 0.069551654 0.03770702
000070 da ad 11 3e 1f e9 87 bd 72 4d 69 bc 66 92 07 3e
       0.14226475 -0.06636261 -0.014239656 0.1323944
000080 29 c3 0f bd 34 9f 03 3e 17 66 2c bd 53 e9 5e 3e
       -0.03509823 0.128537 -0.042089548 0.21768694
000090 2b d9 7b bb 94 e2 5f bd 8e 97 ad 3d 71 c7 6e bc
       -0.0038429003 -0.05465944 0.084761724 -0.014573918
0000a0 c0 f3 4a 3e 7d 9e 17 bd ba 22 2a 3e d3 57 88 bd
       0.19819546 -0.03701638 0.1661481 -0.06657376
0000b0 da 33 a4 3c 67 1c a2 3d 32 3c 72 be 59 38 3d 3d
       0.020044256 0.079155736 -0.23655775 0.046196315
0000c0 61 58 09 3e 29 09 cc 3d 36 1c 02 3c 73 78 e2 bc
       0.1341262 0.09962685 0.007941296 -0.027645325
0000d0 f1 f7 a4 3d 25 0c 97 3d 20 bc fa bd ae 97 cb 3d
       0.080551036 0.07375363 -0.12242913 0.0994104
0000e0 ce 3d 5d be e0 18 41 3c 9b fa b3 bd e5 77 d3 bd
       -0.21605608 0.011785716 -0.087880336 -0.103256024
0000f0 cb 5f 51 be dd 4f 47 3e fb 42 ac 3c 5c 09 7a 3c
       -0.20446698 0.19464059 0.021028033 0.0152610205
000100 3a 82 21 bd e9 6a d3 bd 17 66 45 be ad ae 3b 3d
       -0.039430834 -0.10323126 -0.19277225 0.04582088
000110 c7 f3 46 be 7e c4 de bd a0 1a 01 3e 13 c6 56 3e
       -0.19428931 -0.10877322 0.12607813 0.20973997
000120 d2 4c a7 bd 70 aa 7b be c0 6f 78 3e dc 04 0b 3e
       -0.08168949 -0.24576735 0.24261379 0.13576072
000130 e6 f3 36 3e 9c 62 39 bd 04 bf 51 bd a7 9f b9 3c
       0.17866477 -0.045260057 -0.051207557 0.022659136
000140 8d 7b 72 3d 02 a7 93 3b 1a 7f 04 be 09 a3 62 3e
       0.05919986 0.004505993 -0.1293911 0.22132505
000150 c6 58 eb 3d 54 0b c9 bc 48 14 5c be 6e 71 fb bd
       0.114915416 -0.024541534 -0.21492112 -0.12277494
000160 47 92 b6 bd d4 f6 32 bd e5 bb 89 3d b3 ef 32 bd
       -0.08914619 -0.043692425 0.06725291 -0.043685626
000170 64 13 ad 3d ff 4a 28 be 2b 1a 5e bd 19 74 e3 3d
       0.08450964 -0.16434859 -0.054224174 0.11106128
000180 3b 77 79 3e e1 3b 5a be 54 e4 c4 3c 26 3e 05 3e
       0.24361889 -0.21311904 0.024034657 0.13011989
000190 56 84 ec bc 3b 9a 66 3d 18 db 1d 3e 74 2e 80 be
       -0.028871696 0.05629943 0.15415609 -0.2503544
0001a0 e9 99 15 3e 53 d0 66 be 2a 33 36 3d ec f8 18 3e
       0.14609493 -0.22540407 0.044482388 0.14938706
0001b0 68 b6 ec bd bc c9 a8 39 21 cf 77 be 48 24 8e bc
       -0.11558229 0.0003219376 -0.24200107 -0.017351285
0001c0 70 3f 0e 3e ea 24 fb 3d f4 bb 8a 3d cc 2a b8 bc
       0.13891387 0.122629 0.067741305 -0.022481345
0001d0 64 73 cf bd 12 0d 4e 3e e4 1d 93 3d de 1b b8 3d
       -0.10129431 0.20122173 0.071834356 0.0898969
0001e0 b3 54 f5 3d 80 6c 94 bd 53 53 ac bc ff 9f 6f 3e
       0.11979046 -0.07247257 -0.021035826 0.23400877
0001f0 3c 3e 63 3e 6b 0f 80 be 26 0b 5a be 2c 31 97 bd
       0.2219171 -0.25011763 -0.21293315 -0.07382426
000200 f3 aa 7a 3d 7e ee 03 be 38 bc 00 3e c4 b8 67 be
       0.061198186 -0.12883946 0.125718 -0.22629076
000210 2e 1d e9 bc e5 05 27 3e 37 36 7d bd be d5 7e bd
       -0.028456297 0.16310842 -0.06181928 -0.06221556
000220 c4 1c 66 3d 02 28 46 3e c3 aa 6d 3d e0 45 06 3c
       0.056179777 0.193512 0.05802418 0.00819537
000230 e2 89 04 bc ad e6 56 be 8c 5e cc bd a3 80 80 3e
       -0.008089514 -0.20986433 -0.09978971 0.25098142
000240 e7 3e 2c be 37 5a ef 3d c7 6f b4 bd 21 77 ab 3d
       -0.1682087 0.11687129 -0.08810382 0.083723314
000250 ac 05 e1 3d b7 cd 33 3e 16 f1 1f be 77 19 07 bd
       0.1098741 0.17558943 -0.1561931 -0.03298327
000260 35 cc 2f be 69 be 4e 3d 9a 5f f5 bd 7f f4 c0 3c
       -0.17167743 0.050474558 -0.11981125 0.023554085
000270 b6 5c 53 be a2 77 6b bd 79 07 57 be 1a e4 59 be
       -0.20640835 -0.057487138 -0.20998944 -0.2127842
000280 86 cb b4 3d 68 ea 47 3c e9 7d b8 bd 1e 96 dd bd
       0.088278815 0.012201883 -0.090083905 -0.10819648
000290 ea cb 60 3e 39 f0 e9 3c 28 5c 92 3d 28 a3 80 3e
       0.21952787 0.02855693 0.07146484 0.25124478
0002a0 42 75 79 3e 7f 7d 51 bd 34 6b 03 3e 4e f6 11 ba
       0.24361137 -0.051145073 0.12833863 -0.00055680133
0002b0 55 fb 42 be 44 d5 27 3e 63 4f f2 bc 9e 43 bd bc
       -0.19041188 0.16389948 -0.02957887 -0.023103531
0002c0 7f 6f 76 3d bd e7 4b 3e 8b c4 1b bd 23 97 e7 bc
       0.060164925 0.1991262 -0.038029235 -0.02827031
0002d0 94 59 d6 3d 78 33 38 3d 62 d4 f3 3d cc e9 78 3e
       0.104663044 0.04497096 0.11905743 0.24307936
0002e0 2a 48 97 bd 40 e2 39 3e 75 e5 59 be 54 56 19 3d
       -0.07386811 0.18152714 -0.21278937 0.037435845
0002f0 ae 15 a6 3d 17 5a 6c be 09 73 7e be 8c c4 8d bd
       0.08109604 -0.23081242 -0.2484857 -0.06922254
000300 60 76 f8 bc 02 b5 22 3e 35 97 d6 bd 15 87 54 3e
       -0.030329883 0.15889362 -0.10478059 0.20754655
000310 9b 56 b4 bd ed 15 84 3d b0 b6 34 3e b4 be 06 3e
       -0.08805581 0.064494945 0.17647815 0.13158685
000320 4d ef d0 bd 00 9a e6 3d 9b 4c 92 3d b1 c0 51 be
       -0.10201893 0.11259842 0.071435176 -0.20483662
000330 48 55 35 3e a8 eb 6d 3e f3 d6 31 bb ea 8b 78 3e
       0.17708313 0.23234427 -0.0027136176 0.24272123
000340 d7 89 b6 bc 4c 08 d4 bb 17 8f da bc fc c6 6c 3d
       -0.022282524 -0.0064707156 -0.026679559 0.057806954
000350 a3 bd e5 3d 2c 1d 47 be c4 19 a9 bd 9f be 3a be
       0.11217811 -0.19444722 -0.082568675 -0.18236779
000360 64 ca 3d bd f2 06 94 3d e2 6f 1f be 5e c4 36 3d
       -0.046335593 0.07227887 -0.15570024 0.044620864
000370 4f 20 73 be 00 7b cf 3d 8d ba 1c 3e d7 79 a4 bd
       -0.23742794 0.10130882 0.15305538 -0.080310516
000380 6f 15 11 3e e0 f4 1e bd cf 77 30 be c9 83 6c be
       0.14168333 -0.03880775 -0.17233203 -0.23097147
000390 71 21 68 be ae 91 96 3d 5b 41 23 3d 9e af 41 be
       -0.22669007 0.07352005 0.03985725 -0.18914649
0003a0 42 de 0d bd d8 8b 89 3c 5e d4 d3 3b 94 54 08 3e
       -0.03463579 0.016790316 0.006464525 0.13313514
0003b0 69 d7 76 3e f8 a2 1f 3e 41 0f ea 3d c9 ba 1a 3e
       0.2410561 0.15589511 0.11428691 0.15110315
0003c0 60 fe fb bd fd 02 cb bd 93 f9 e4 bd 92 59 35 3d
       -0.123043776 -0.09912679 -0.11180415 0.044274874
0003d0 2a 6d 6d 3d 7c 7d 72 3d c1 9f 20 be ae 84 7a be
       0.057965435 0.059201702 -0.15685941 -0.24464676
0003e0 9e 3c 91 bd 54 c0 f2 3d 79 22 6d be 47 b0 d4 3d
       -0.0709164 0.1185309 -0.23157682 0.10385185
0003f0 2f c5 c1 3d 4a c3 0d be d9 bb 45 3e 98 9b 0c be
       0.09461438 -0.13844028 0.1930994 -0.1373123

node_encoder.2.bias f4 [16]
000000 9f 32 ea 3d a8 29 56 bc b2 29 45 be e5 a3 c1 bd
       0.114354365 -0.013071455 -0.19254187 -0.094550885
000010 08 a5 f8 3d 6e 0d 4c be c8 58 57 3e a4 d4 c0 bd
       0.12140852 -0.19926998 0.21029961 -0.09415558
000020 75 20 b2 bd ef dd 55 be 31 5e 51 be 48 13 69 be
       -0.08697597 -0.20885442 -0.20446087 -0.22761261
000030 e5 55 75 3d fa 1e 52 3e fe 60 ac 3d c8 f1 4d 3e
       0.05989637 0.20519629 0.08416937 0.20111763

node_encoder.3.weight f4 [16]
000000 90 41 80 3f ec 40 80 3f d1 3f 80 3f a7 3f 80 3f
       1.0020008 1.0019813 1.0019475 1.0019425
000010 9d 7f 7f 3f 7d 41 80 3f a9 80 7f 3f ea 7d 7f 3f
       0.998041 1.0019985 0.99805695 0.99801505
000020 12 38 80 3f f5 2a 80 3f 66 7d 7f 3f 91 41 80 3f
       1.0017111 1.001311 0.9980072 1.0020009
000030 d3 8f 7f 3f f4 c1 7f 3f e5 7c 7f 3f 6d 97 7f 3f
       0.99828833 0.99905324 0.9979995 0.9984043

node_encoder.3.bias f4 [16]
000000 36 ef 02 3b ba 82 00 3b 2c ef fb ba bb 72 fc ba
       0.0019979007 0.001960917 -0.0019221059 -0.0019260267
000010 d9 27 ff ba 84 e1 02 bb 33 b0 fe ba ec c1 02 bb
       -0.0019466832 -0.0019970844 -0.0019431174 -0.0019952012
000020 6a 91 f2 b9 06 89 ae ba 48 72 01 3b 76 f2 02 bb
       -0.0004626618 -0.0013315983 0.0019751955 -0.0019980944
000030 dc 7a db ba 38 f5 cc b9 7a 18 03 bb 92 14 c8 3a
       -0.0016744989 -0.00039092614 -0.0020003603 0.001526492

edge_encoder.0.weight f4 [16, 4]
000000 99 3f bd be 07 43 cd be d2 cb e6 3e 54 54 6e 3d
       -0.36962584 -0.400902 0.45077378 0.05818589
000010 ab 28 90 3e ba 0a 69 3e 1e 41 fa 3d 90 91 6e be
       0.28156027 0.22757998 0.12219451 -0.23297715
000020 f3 1c e4 3e b1 01 bd bd f4 43 ec be e1 cc 3e 3e
       0.44553337 -0.09228838 -0.46145594 0.18632843
000030 62 12 b1 be be 92 df 3d f7 a7 f4 3e dc 4d 51 be
       -0.34584337 0.10916661 0.47784397 -0.20439857
000040 48 96 41 be 20 25 b0 bc 50 05 b1 bd 10 d7 05 3d
       -0.18904984 -0.021502078 -0.086435914 0.032675803
000050 f2 be 60 bd 60 63 f4 3e 86 48 92 3e 65 f0 9b bb
       -0.0548696 0.47732067 0.28570956 -0.004758882
000060 73 d7 08 be 72 dc 2b 3d cb 78 b2 3e 37 35 77 be
       -0.13363437 0.04195828 0.34857783 -0.24141394
000070 eb 18 31 be a0 b1 c0 3e e5 3f 69 be d9 67 82 3e
       -0.17294662 0.37635517 -0.2277828 0.25469854
000080 f2 aa db be 10 f5 83 be 93 0a a1 bd ae 6b f4 be
       -0.42903858 -0.25772905 -0.07863345 -0.47738403
000090 c9 32 ab 3e a1 be 84 be 19 e9 af 3e 39 0a 0c bc
       0.33437183 -0.25926688 0.34357527 -0.008547359
0000a0 22 4d 31 3e 6e bc 7e 3e d4 a7 92 be 16 3b 5e bd
       0.1731458 0.24876568 -0.28643668 -0.054255567
0000b0 85 f8 36 3d 26 d9 ec bd bb 12 f4 3e b0 5d f7 be
       0.0446706 -0.11564855 0.4767054 -0.48313665
0000c0 be 2a d3 be 54 38 8a bd 3c 61 aa be 45 18 5e be
       -0.41243547 -0.06749025 -0.3327731 -0.21688946
0000d0 ac d5 d1 3e 25 7e 93 3b 8c 3d d5 3e 4b 4d d1 3e
       0.4098333 0.0045011216 0.4164852 0.40879282
0000e0 0f 5b 8a 3e 84 84 c3 3e 9a 26 9f be 00 d1 ef be
       0.27022597 0.3818704 -0.31084138 -0.46839142
0000f0 6c e9 62 be 97 e9 8d be 7c 6f 12 3e 74 36 13 3e
       -0.22159356 -0.27717277 0.1430034 0.14376241

edge_encoder.0.bias f4 [16]
000000 b2 bc cc bb 7d c8 9e be 25 4c 3d 3d eb 6d e9 be
       -0.00624808 -0.31012335 0.046215195 -0.45591673
000010 ae 11 95 be ed fa 4a be 15 69 b2 3e ac ad f1 3e
       -0.2911505 -0.19822283 0.34845796 0.47202814
000020 ba 82 94 3e 03 26 b3 3e d2 80 8e bd 51 d6 98 be
       0.29005986 0.34989938 -0.06958164 -0.2985101
000030 41 d6 a8 3e 3b 85 f8 3e f0 ff 2f 3d ea a4 74 3e
       0.32975963 0.48539147 0.04296869 0.23891035

edge_encoder.2.weight f4 [16, 16]
000000 ce 19 11 be 5a 14 a3 3d 78 86 8e bd 5a 35 d1 3d
       -0.1417 0.07962866 -0.06959242 0.10215254
000010 54 a1 ab bd bf ab 7f 3e 81 99 5f 3e 5a 4c 4e 3d
       -0.0838038 0.2496786 0.21835901 0.050365783
000020 cf cf 68 be ca 2c 93 3d 22 6e 43 3e cc a3 3f 3e
       -0.22735523 0.07186277 0.19084981 0.18714827
000030 34 21 ed 3d a0 17 03 3e 76 da 0c 3e 0e 1a d9 ba
       0.115785986 0.12801981 0.13755211 -0.0016563551
000040 77 f1 93 3c 8b 25 78 3e b2 27 0f bd 68 ae fb bc
       0.018059475 0.24233072 -0.034949966 -0.030722812
000050 d0 8c 94 bd 43 40 f0 3d 4a fc 7c 3e 08 44 79 be
       -0.0725342 0.11731007 0.24705616 -0.24342358
000060 2d 07 30 3e d5 bb 24 be f2 6b 1d be 4a be 25 be
       0.17190237 -0.16087277 -0.15373209 -0.16185871
000070 fd cb 74 3e 23 7b 5e 3c 73 ec d2 3d 95 48 74 3e
       0.2390594 0.013579163 0.10299005 0.23855813
000080 bb cf 80 bd 9a 16 13 3d af 88 ff bd 65 4d 12 be
       -0.062896214 0.035910226 -0.12477242 -0.14287336
000090 86 5b 33 3e 67 09 dc bd c7 25 7a be 8b 84 a8 bc
       0.17515382 -0.10743981 -0.24428473 -0.020571014
0000a0 36 51 25 be a9 28 5f 3e 85 11 59 be 8e 83 7e 3d
       -0.16144261 0.21792854 -0.2119809 0.06213718
0000b0 e8 0d 3a bc 62 05 b6 3d 9e f8 04 3e a2 1d 77 be
       -0.011355855 0.088877454 0.12985465 -0.24132398
0000c0 d7 9e 17 be ff 44 02 be f7 9f 79 be b6 14 11 be
       -0.14806686 -0.12721632 -0.24377428 -0.14168057
0000d0 40 b6 18 3d c0 85 3d 3e 6a 9d 74 bb c8 24 70 3e
       0.037283182 0.18508053 -0.0037325271 0.23451531
0000e0 6e ec c0 3b 46 98 73 bd 6a 10 9e bd 46 73 07 3e
       0.0058875596 -0.05947139 -0.077179745 0.13227567
0000f0 a8 ab 62 3e 64 8d 2d 3e ac 59 b6 bd 3b 5c bc bd
       0.22135794 0.16948467 -0.08903822 -0.09197279
000100 0b 98 4a be 07 00 6a be df 94 a2 3d 58 ee cb 3d
       -0.19784562 -0.22851573 0.07938551 0.0995757
000110 70 78 bf 3d 45 07 ee bd f9 2c 22 be 5d 69 29 3d
       0.093491435 -0.1162248 -0.15837468 0.041360248
000120 0b 6f 17 3d 98 bf 3f be e4 f1 62 be 8f 6b 85 bc
       0.036971133 -0.18725431 -0.22162586 -0.01628664
000130 9b 35 93 3c 3d bc 5c 3e e4 9b b1 bc f5 be cd 3d
       0.017969897 0.21556182 -0.02168078 0.10046188
000140 6c 99 cd bb 29 3a ba 3d c5 75 7a be c8 e8 c2 bd
       -0.006274393 0.090931244 -0.24458988 -0.09517056
000150 e8 32 08 3d 4b 96 06 3e 75 a6 6c 3e 2a 48 3d 3e
       0.033251673 0.1314327 0.23110373 0.1848456
000160 a9 3d 18 3e 22 c4 a3 3d 44 a0 3e 3e f4 d4 16 be
       0.14867271 0.07996394 0.18615824 -0.14729673
000170 94 ea 98 ba b5 77 3a 3e 0b b1 70 3e 3d 9a 7d 3e
       -0.0011666589 0.18209727 0.23505037 0.24765868
000180 eb 8e 7a 3d 35 95 78 3e ac 17 f8 3d c9 b4 11 3e
       0.061171453 0.24275668 0.1211389 0.1422912
000190 ba c3 24 be 27 de 24 3e ee ee 1b 3e 42 c5 8c 3d
       -0.16090289 0.1610037 0.15227863 0.068735614
0001a0 a3 cd 20 3e e5 ac 1e be c3 ee a3 bc ac 8c cd 3d
       0.15703444 -0.15495642 -0.020011311 0.10036597
0001b0 61 39 3e be 49 d0 b6 3d 1e 2f 85 3a 02 4d 4e 3d
       -0.18576576 0.08926446 0.0010161137 0.05036641
0001c0 be d3 41 be 6b 5a dd bd 3f 57 ad 3d 74 dc a6 bc
       -0.1892843 -0.108082615 0.084639065 -0.020368792
0001d0 e0 85 c8 3c 9c 1a 75 3e 6b 7a 54 3d d6 b8 c6 bd
       0.0244779 0.23935932 0.05187456 -0.097032234
0001e0 d7 9e 0d bc 6f 9a 78 3d 5a 48 a9 3d 5c 32 3a 3d
       -0.008643827 0.060694154 0.08265753 0.045458183
0001f0 c0 0e 78 3d 13 5e 31 3e c5 ea 50 3e 5c 63 35 be
       0.06056094 0.17321043 0.20402057 -0.17713684
000200 6a b2 c1 3c ea 43 78 be 4a 2f be bd 00 f3 08 3e
       0.023644645 -0.24244657 -0.092863634 0.13373947
000210 60 dc ae bd 63 39 51 bd 94 85 0d 3e 58 f4 26 be
       -0.08538127 -0.05108012 0.13820487 -0.16304147
000220 fb 60 43 3e 47 2c 4d be 24 00 41 3d cd 08 74 be
       0.19079964 -0.20036422 0.047119275 -0.23831482
000230 96 92 82 3d 14 11 86 3d 1b df 5f bd a2 81 67 3e
       0.06375615 0.06546226 -0.05465613 0.22608045
000240 e3 bd 11 3e ac 46 67 3d c7 7e af 3d b2 91 6e be
       0.14232592 0.056463882 0.08569103 -0.23297766
000250 30 fd c4 3c 94 9f 7d 3e cc 08 10 3e 40 2b de 3d
       0.02404651 0.24767905 0.14065856 0.10848093
000260 e1 1d e3 bd 82 b5 ff 3d 19 bb a9 3d 57 01 07 be
       -0.11089683 0.12485792 0.08287639 -0.13184105
000270 6b 04 58 be 9c 84 7c 3e 62 83 d3 3d b5 89 45 3d
       -0.21095435 0.24659961 0.10327794 0.04822703
000280 69 8b 1b be 88 49 fa 3c 11 1a 55 3e 24 1a 29 3d
       -0.151899 0.03055264 0.20810725 0.041284695
000290 00 68 79 bc 00 35 55 3e 5c 98 08 be c6 c4 9d bd
       -0.015222549 0.20820999 -0.1333937 -0.07703547
0002a0 74 97 2b 3d 41 c5 4e be b9 6b 27 3e 27 cf d0 3d
       0.041892484 -0.20192434 0.16349687 0.10195761
0002b0 f4 89 42 3e dc 00 e8 3c 40 83 56 3d c6 ed d3 3d
       0.18997937 0.028320722 0.052371264 0.10348086
0002c0 35 63 68 be fe 08 a3 3d 33 50 23 3e 48 05 40 be
       -0.22694094 0.079606995 0.15948562 -0.18752015
0002d0 9c 1a 60 3e 7f f7 a8 3d 64 f3 59 be 11 ec 32 be
       0.2188515 0.08250331 -0.21284252 -0.17472865
0002e0 7a 4b 8f 3d 9a 31 ef 3d ed ca 62 3e e0 22 11 3e
       0.06996818 0.116793826 0.22147723 0.1417346
0002f0 6a 6a a4 bd df d4 bf bc 1d 50 6f be 3b de db 3c
       -0.08028109 -0.023416935 -0.23370405 0.026839366
000300 8e b1 05 bd 27 2a 14 be 03 76 60 bc e6 69 0f be
       -0.032640032 -0.14469205 -0.013700011 -0.14005241
000310 58 7c ff bd 2f b8 9e bd e0 a4 a4 bd a8 18 e0 3d
       -0.124748886 -0.07749974 -0.0803926 0.10942203
000320 9f 29 6d be c5 52 17 3e 9d c8 f1 bd fa 53 68 bc
       -0.23160408 0.14777668 -0.11805842 -0.014180178
000330 24 09 37 be 22 dd 69 be 24 f0 28 3d 9e cb 30 3e
       -0.1787458 -0.22838262 0.04124464 0.17265174
000340 e9 1f d8 3d 98 aa 87 3c 8a be 18 3d 14 52 ed bd
       0.105529614 0.016560838 0.037291087 -0.11587921
000350 d0 43 65 3d 2d 19 c2 bc 1d ef 6e be 27 ef 60 3e
       0.055972874 -0.023693645 -0.23333402 0.2196623
000360 5e 2e 22 3e a4 34 39 3e bd d8 7a bc 59 d0 d0 bc
       0.15838 0.18086487 -0.0153104635 -0.025489973
000370 0e 3a bb bc 87 94 18 be f9 4f 4b bd ca 4c e2 3d
       -0.022854831 -0.14900409 -0.049636815 0.110498026
000380 c3 98 64 bd 0a c5 59 3e 5c a8 2d 3e f9 97 29 3e
       -0.055809747 0.2126657 0.16958755 0.16561879
000390 a0 a7 15 3c 0d c1 3c 3e 9f d1 48 3e de 77 50 be
       0.009134203 0.18433018 0.19611214 -0.20358226
0003a0 7c 6f 4f 3e 68 a9 3a be d3 b5 b6 3c a1 ca 5c 3e
       0.20257372 -0.18228686 0.022303497 0.21561672
0003b0 a1 74 6a be 6d d7 f8 3d 18 eb da bc 52 1f a0 3d
       -0.22896053 0.12150464 -0.02672343 0.07818474
0003c0 30 73 cb 39 62 13 8a 3d 9e f7 2e 3e f7 c6 03 3e
       0.00038805 0.06741978 0.17086646 0.12868868
0003d0 40 80 59 3e 88 bc 17 be 15 65 7d be 1d f7 c8 bd
       0.2124033 -0.14818013 -0.24745591 -0.09812758
0003e0 c7 d0 24 3e a9 2f 6f 3e 30 c9 0f 3e 2f 30 24 be
       0.16095267 0.23358025 0.1404159 -0.16034006
0003f0 58 45 33 be c6 05 04 be 24 74 1b be 3c 9b 03 be
       -0.17506921 -0.12892827 -0.15181023 -0.12852186

edge_encoder.2.bias f4 [16]
000000 10 04 37 bd 09 2a 64 3e c8 07 63 3e 38 d9 61 be
       -0.04468161 0.2228166 0.22170937 -0.22055519
000010 df 99 17 3e 1b 70 8e 3d 36 ee 27 be a4 37 f0 bd
       0.14804791 0.06954976 -0.16399464 -0.117293626
000020 20 f6 5a 3c 6a 27 0d be 8e d5 34 bb 3a ed 12 3e
       0.013364345 -0.13784567 -0.0027593109 0.14348307
000030 07 d0 dc bd 9c 6d 40 bc 37 6f 6a 3d e0 20 55 be
       -0.107818656 -0.011744883 0.05723497 -0.20813322

edge_encoder.3.weight f4 [16]
000000 a3 3c 80 3f df 7c 7f 3f 66 40 80 3f e7 3d 80 3f
       1.0018505 0.99799913 1.0019653 1.0018891
000010 52 82 7f 3f 02 41 80 3f 94 1b 80 3f 2d c0 7f 3f
       0.9980823 1.0019839 1.0008416 0.9990261
000020 48 87 7f 3f e9 3e 80 3f fd 3b 80 3f 11 39 80 3f
       0.998158 1.0019199 1.0018307 1.0017415
000030 2b 3b 80 3f 9e 3b 80 3f d8 7c 7f 3f 2e 11 80 3f
       1.0018057 1.0018194 0.9979987 1.0005243

edge_encoder.3.bias f4 [16]
000000 0b ee f6 3a 3f 14 03 bb 4f 96 fc 3a 94 67 bf 3a
       0.0018839253 -0.0020001081 0.001927087 0.0014603012
000010 6d 74 ff ba 84 50 02 3b be fe 42 ba ae aa 02 bb
       -0.0019489654 0.0019884417 -0.0007438472 -0.0019938159
000020 de cb e2 3a c9 bc f8 3a 89 eb b4 ba 20 1f 4a 3a
       0.0017303189 0.0018977161 -0.0013803105 0.00077103265
000030 1c 12 ee ba ca a4 f6 ba 92 b6 8f 3a f2 02 41 ba
       -0.0018163356 -0.0018817422 0.0010964444 -0.00073628046

node_model.0.weight f4 [16, 48]
000000 fd 1d 09 be 38 ad 75 3d a8 29 cf bc 08 75 e0 3c
       -0.13390346 0.059979647 -0.025288418 0.027399555
000010 00 47 87 ba 76 f0 9c 3d e0 06 bf 3c e4 e8 d0 bd
       -0.0010320842 0.07663052 0.023318708 -0.1020067
000020 7c 0a 36 3d b8 1e 54 3d 2c 13 e6 3d 72 af c3 3d
       0.044443592 0.05178711 0.112341255 0.09554948
000030 5c e9 bf bd a0 04 a8 bc 20 5e ef 3c 34 11 b8 bc
       -0.09370682 -0.020510018 0.029219687 -0.02246914
000040 68 91 80 bc 90 65 b8 3c b4 f5 0a 3d b4 c3 1a bd
       -0.015694335 0.022509366 0.033925727 -0.037784293
000050 38 df 91 3c 28 d7 2c 3d e8 8a 66 3d 8a 28 84 3d
       0.017806634 0.042197376 0.056284815 0.06453045
000060 28 37 00 3e d4 a3 e4 3d 50 0b f8 3d 86 17 76 bd
       0.1252104 0.1116406 0.12111533 -0.060081027
000070 6c b9 cf bc 28 5e 58 bd 1c 54 fd 3d 48 1f 3c 3d
       -0.02535697 -0.05282417 0.12369558 0.04592827
000080 f0 c0 e2 3d 88 6e d8 3c b0 f4 17 3c e4 1e d5 3d
       0.11071956 0.026419893 0.009274647 0.104062825
000090 50 e0 84 bc 3c c5 0f be 18 8c c4 bd 34 a6 aa 3d
       -0.016220242 -0.14040083 -0.09597033 0.08332482
0000a0 f0 a7 48 bd 1a 5a 9e 3d 28 cf 9f bd 40 5a 57 3c
       -0.048988283 0.07732029 -0.07803184 0.013144076
0000b0 e8 3b 91 3c 60 08 1e 3c e8 32 3f bd c7 11 00 be
       0.01772876 0.009645551 -0.046679407 -0.12506782
0000c0 35 c7 04 3e b1 dd de bd f8 aa fb 3d d8 39 58 bd
       0.12966616 -0.10882128 0.12288469 -0.05278954
0000d0 d0 d6 97 3d b1 ed 0c 3e d9 5e 52 bc bf 45 25 3b
       0.07414019 0.13762547 -0.012839996 0.0025218574
0000e0 08 2e 54 3d d8 7e 97 bd 49 b3 57 3a 70 ac d9 3d
       0.05180171 -0.073972404 0.00082283147 0.10628593
0000f0 3b d9 54 bd 83 e7 eb bd 92 cf 10 3e 34 17 ab 3c
       -0.05196498 -0.11518767 0.14141682 0.020885088
000100 3a a9 ec bd cc 78 e4 3d 7e 9f d8 3b e3 a1 de 3c
       -0.11555715 0.11155853 0.00661081 0.027176803
000110 17 a0 1a 3d 07 ba 0a 3e bb f7 0b 39 bd 76 00 3e
       0.03775033 0.13547526 0.0001334836 0.12545295
000120 8f 68 96 bd 2c 9a 92 3b 45 5a 34 bd de ff 7c 3d
       -0.07344162 0.004473945 -0.0440314 0.06176745
000130 70 da fc 3d 38 4a 87 3d 7c 50 c8 bd 92 8d ca bb
       0.12346351 0.06605953 -0.09780976 -0.0061814273
000140 bf 23 06 be 31 fc b1 3d 4e 67 06 be c4 4b 01 3d
       -0.13099574 0.0869068 -0.13125345 0.031566396
000150 a5 4d 20 bd 5f 65 2c 3a e5 1b b4 bd df f7 d7 bd
       -0.039136548 0.0006576385 -0.08794383 -0.105453245
000160 14 b6 c4 3c 61 ce 89 3d 8e 21 d8 bd 7b c6 f1 bd
       0.024012603 0.06728817 -0.10553275 -0.11805435
000170 40 86 13 3d 58 86 f6 3d 90 e8 46 3b ca ca e1 3d
       0.036016703 0.12037343 0.003035102 0.11025007
000180 df 8a ab 3d b9 46 04 3d 92 e9 05 3c 3a 06 3c 3b
       0.08376097 0.03229401 0.008173363 0.0028690235
000190 29 5b 71 bd 9b 12 6b bd 88 df 8e bb 39 4c 04 3e
       -0.058924828 -0.05739079 -0.004360143 0.12919702
0001a0 0f 8d ea bc df c0 cd bd 8c 9a 04 be 70 a9 61 bd
       -0.028631715 -0.10046553 -0.1294958 -0.05509323
0001b0 8d 0e b1 bd 3e 59 98 3d 2b 3e 09 3e 7e 8b 8f 3d
       -0.086453535 0.074388966 0.13402621 0.07009028
0001c0 27 7d 8c bd e3 86 b2 3d 1f 6d d2 bd d6 f1 ee bd
       -0.068598084 0.08717134 -0.102747194 -0.1166722
0001d0 2d 24 5a 3b b4 e5 11 be 60 33 06 3e e0 04 a2 3d
       0.0033285723 -0.14247781 0.13105536 0.07911086
0001e0 60 65 0e 3e b0 98 3d 3d a6 79 1a ba cf 45 c0 3d
       0.13905859 0.046288192 -0.0005892761 0.09388315
0001f0 30 46 83 3c 8a 62 06 be 51 70 c9 3c 91 f3 c9 3c
       0.016024679 -0.13123527 0.02458969 0.024652274
000200 6a a7 da bd a5 fe cf bc 82 db aa 3d ee 4d 0f be
       -0.10676463 -0.025389979 0.08342649 -0.13994572
000210 5a 17 3d bd 35 b1 96 3d e8 91 01 3d b4 8f f9 ba
       -0.046164848 0.07358018 0.031633288 -0.0019040019
000220 e7 a4 97 3d 40 e8 b2 3d 18 20 e3 3d 59 88 b9 bc
       0.074044995 0.087357044 0.11090106 -0.022648023
000230 74 02 29 bc b1 a0 b9 3d d4 ee ab bd 84 28 aa 3d
       -0.010315526 0.090638526 -0.08395162 0.08308509
000240 bb 11 7c 3d 53 23 f8 3d b7 da b3 3d 00 4e 2a 3b
       0.061540347 0.121161126 0.08781951 0.0025986433
000250 66 4a b2 bb 86 08 df 3d eb 83 f1 3d 07 71 aa bd
       -0.005440998 0.108902976 0.117927395 -0.083223395
000260 d6 2e 17 bd 36 70 59 bd eb bf 9d 3d 68 6b b1 3b
       -0.0369099 -0.05308553 0.07702621 0.005414415
000270 f4 5d 54 bd 66 b1 07 be 5b c4 65 bd 6a 0b 04 3e
       -0.051847413 -0.13251266 -0.056095462 0.12894979
000280 07 06 09 be 7e 2e 0e 3e 47 d7 0b 3e 56 b2 97 3c
       -0.13381205 0.13884923 0.1365634 0.018517654
000290 a2 ee 0f be ae b0 d8 3d 94 bc 54 3d d1 36 8d 3c
       -0.14055875 0.10580574 0.051937655 0.017238053
0002a0 f6 1f d1 3c 1e 27 ac bd 4e ce eb bc b5 78 eb 3d
       0.025527935 -0.084058985 -0.028784897 0.114976324
0002b0 8b a7 a0 3d c8 d5 df 3d 8b 51 ef 3d 3f d3 ef 3d
       0.07844456 0.109294474 0.11685475 0.11710214
0002c0 fc 88 e9 3d af aa b0 bd 8b a2 ff 3d 50 67 b5 3b
       0.11403081 -0.08626305 0.124821745 0.0055359975
0002d0 82 25 ea 3d b3 d0 13 3d 20 40 00 be 5e b5 0b 3e
       0.11432935 0.036087703 -0.12524462 0.13643405
0002e0 f9 df 41 bd 5a 41 47 3d 5d ff 6b 3d 61 16 2d bd
       -0.047332738 0.04864631 0.05761658 -0.04225767
0002f0 f6 05 b3 bd 4e 44 eb bd e2 b6 1f bd 1d 5d e7 3d
       -0.08741371 -0.114876375 -0.03899277 0.11297057
000300 0f 05 b7 3a c1 73 ee bd e7 b7 fe 3d 26 ff 33 bd
       0.00139633 -0.11643172 0.1243742 -0.0439445
000310 ca a3 6c bd 22 90 21 bd 13 27 f7 3d d0 4d 62 3c
       -0.05777339 -0.039444096 0.12068 0.013812497
000320 f7 83 c7 bd fe b7 c5 bd dd d0 07 be a2 5a a6 3c
       -0.09741967 -0.09654234 -0.13263269 0.020306889
000330 d8 86 00 be 54 2c 0a bc 7c de d7 3d 80 83 04 3e
       -0.12551439 -0.00843342 0.105404824 0.12940788
000340 96 75 b0 bc cf a2 75 3d f8 83 f8 3c 4d ee c5 bc
       -0.021540444 0.05996972 0.030336365 -0.024161482
000350 b2 c2 e5 3d b1 9e 6d 3d 9f ae a9 bd 27 23 66 bd
       0.11218776 0.058012668 -0.082852595 -0.056185868
000360 ad cb d9 bd bd 7a f8 bd f1 c4 de 3c f8 87 15 be
       -0.10634551 -0.121327855 0.027193518 -0.14602649
000370 28 5a 9d 3d 78 8b 0a 3e 03 f3 b3 bc c4 ed b6 3d
       0.076832116 0.13529766 -0.021966463 0.08932069
000380 65 f4 04 bd 68 70 d9 bc 4a fb a3 3c 4e cf de bd
       -0.032459635 -0.026542857 0.020017285 -0.10879384
000390 1a 13 a0 3d c7 bd 1d bd 72 d3 b3 bc 94 e8 27 bd
       0.07816143 -0.038511064 -0.02195141 -0.04099329
0003a0 cd 12 77 bd fa 4c 44 3d cf a2 27 3d d3 d4 85 3d
       -0.060320664 0.047924973 0.04092675 0.065347336
0003b0 64 57 b5 bd 74 99 81 bb ed 15 87 bd 15 68 e6 3d
       -0.08854559 -0.0039550606 -0.06595979 0.11250321
0003c0 8a f0 58 3d e0 56 66 3c 3d c0 e4 bc a0 9a 56 bc
       0.05296377 0.014058799 -0.027923698 -0.013098389
0003d0 24 0f cd 3b 2b a6 95 3d 0a dc 08 be 66 60 98 3d
       0.0062579084 0.07307085 -0.13365188 0.074402615
0003e0 70 ac a8 3d 10 a3 dd ba 3d 86 0f be 60 73 3d bd
       0.08236015 -0.0016909558 -0.14016052 -0.04625261
0003f0 a4 b6 b9 bd 60 15 ab bd b6 d9 dd 3d 66 37 04 be
       -0.09068039 -0.08353686 0.10832541 -0.12911758

node_model.0.bias f4 [16]
000000 56 74 13 bd 86 2c 4e bd 0c 01 10 3e 36 6b b5 3d
       -0.03599962 -0.05033543 0.140629 0.088583395
000010 c7 34 bb 3b 2a 2f 96 bd 20 a8 b8 bd bc e0 cc bd
       0.0057130787 -0.073332146 -0.09016442 -0.10003802
000020 4c 9d 01 3e a6 df 14 3e a5 22 48 3d c5 46 df 3d
       0.1265766 0.1453844 0.048861165 0.1090217
000030 c8 0e 47 3c eb ac df 3d fd ac 5a bc 9d a8 b3 bd
       0.01214952 0.10921653 -0.013346908 -0.08772395

node_model.2.weight f4 [16, 16]
000000 fc 99 59 be a6 47 18 3e f2 34 11 3e f9 2b f8 3c
       -0.21250147 0.14871082 0.14180353 0.030294405
000010 f2 f0 45 3e 2d 94 44 bc cf 69 fe 3d 12 0d 37 3e
       0.19330195 -0.0119982185 0.12422525 0.1787608
000020 40 91 6e 3e b9 2f 0f be 41 f0 6a be 77 b9 a1 bd
       0.23297596 -0.13983048 -0.22943212 -0.07896703
000030 1c e9 7c bc 9e 72 a8 3d 51 9a d5 bb 40 6c 39 3e
       -0.015436437 0.082249865 -0.00651864 0.181077
000040 48 09 cc bd de 96 a4 3b fd 04 7c bd 2c 2f b2 3c
       -0.09962708 0.0050228676 -0.061528195 0.021751009
000050 68 b1 ac bd c1 e5 5e be 44 cb 09 bd 84 dc 1a be
       -0.08432275 -0.21767332 -0.033641115 -0.15123183
000060 c6 20 7f 3e 37 b9 0f be d6 2b 15 3c 07 f0 1f 3d
       0.24914846 -0.14035498 0.00910469 0.039047267
000070 94 6a 10 3e cd 8b 56 3e 5b 0d 1f 3e a4 88 96 bd
       0.14103156 0.20951767 0.15532438 -0.07350281
000080 ae b8 5f be b6 dd f4 3c 04 2e b0 3d e6 1d 59 be
       -0.21847793 0.029890876 0.08602527 -0.21202812
000090 0c 91 4f be b5 b9 47 3e 91 e6 e2 bd d8 8c 2b 3e
       -0.20270175 0.19504435 -0.11079133 0.16752946
0000a0 00 18 6a 3c a5 4b 10 be cc 6f 92 3d 9d d7 1c 3c
       0.014287949 -0.14091356 0.0715023 0.009572891
0000b0 9b 5a 23 3e 43 10 9e 3d 72 6c 7b be 5a a5 d1 bc
       0.15952532 0.077179454 -0.24553087 -0.025591541
0000c0 b4 86 0c be d0 a8 50 bd 58 cd 1a bd 3f 56 17 3e
       -0.1372326 -0.050942242 -0.037793487 0.14778994
0000d0 90 ef 6f 3e eb 33 58 bc b1 aa 99 3d dd 65 39 be
       0.2343123 -0.013195972 0.0750326 -0.18105264
0000e0 26 2f 40 3e ee 40 11 be 77 34 2d 3e ad 67 b1 3d
       0.18767986 -0.14184925 0.16914545 0.08662353
0000f0 ff f4 57 be e2 17 f1 3b fe be 64 3e 8e 57 88 bd
       -0.21089552 0.0073575834 0.22338483 -0.06657325
000100 50 5e 25 3d 73 d6 b3 3d e7 73 27 3e 66 5d 12 be
       0.040373147 0.08781137 0.16352807 -0.14293441
000110 e6 06 0e 3d 04 b1 0e be d8 21 f3 bd 60 54 04 3e
       0.034674548 -0.13934714 -0.118716896 0.12922812
000120 c6 bb 7c 3e 23 90 28 3e c9 dc 21 3d f9 54 72 3c
       0.24681005 0.16461234 0.039517198 0.014790767
000130 a8 d9 c8 bd d3 b3 63 be 75 0e 27 3e c5 5e c4 3d
       -0.0980714 -0.22236566 0.16314109 0.09588388
000140 e0 93 e2 bc 88 1a 27 be af 0d e6 bd 39 97 b9 bd
       -0.027658403 -0.16318715 -0.11233079 -0.090620466
000150 6b 22 33 3d 4b de 5d be f9 a4 c1 bd 50 c2 5a bd
       0.043733995 -0.2166683 -0.09455294 -0.053407967
000160 2e d8 0c 3e bd fd 8b bc 4b 7f 0b be 04 83 65 be
       0.13754341 -0.017088765 -0.13622777 -0.2241326
000170 66 ca 83 bd 30 6e 9e 3d d8 11 31 be 9f 42 d8 bd
       -0.06435089 0.0773586 -0.17291963 -0.10559582
000180 78 aa 58 be 59 46 77 3e 2a 1b 41 3e 49 d8 43 3e
       -0.21158779 0.24147929 0.18858019 0.19125475
000190 9d 2e 56 be e5 c6 23 3e 65 15 9e 3d fe eb 13 be
       -0.20916219 0.15993841 0.077189244 -0.14445493
0001a0 0e 96 2b 3e bb d1 af 3d cf 31 39 3d dc a8 52 be
       0.1675646 0.08584925 0.045213517 -0.20572227
0001b0 68 d5 2b be 2c 6e de 3d 00 ea 72 3d e0 eb 40 3e
       -0.16780627 0.10860857 0.05930519 0.18839979
0001c0 30 1c 17 be ae c6 62 3e c6 ec 5d bc c8 b5 f0 bd
       -0.14756846 0.22146103 -0.013545221 -0.11753422
0001d0 c6 f2 30 be 9d f9 42 be 7d 2c a5 3d 9e 49 69 3e
       -0.1728011 -0.19040532 0.08065126 0.22781989
0001e0 1c 20 8d 3d ec 59 21 3d 33 1b 2b be 89 67 6e 3e
       0.0689089 0.039392397 -0.16709594 0.23281683
0001f0 d9 5b 56 bd 30 de e1 3b 30 50 78 be db 75 81 bd
       -0.052333687 0.006892942 -0.24249339 -0.06321307
000200 30 37 e4 bd 96 6c 9d bd f8 7d 13 be d0 c5 a7 3d
       -0.11143339 -0.07686727 -0.14403522 0.081920266
000210 cf 0a 6b bd 31 1f 4e bc e4 f0 2e 3e de 9b d7 bd
       -0.057383355 -0.012580679 0.1708408 -0.10527776
000220 b8 f7 2f be e2 40 54 3e 63 1c e4 bd d5 c5 79 be
       -0.17184341 0.20727876 -0.11138227 -0.24391873
000230 69 9e 79 bd 3a 1d 0f 3e f1 9e 5a 3e fc f9 7b 3e
       -0.060942087 0.13975993 0.21349694 0.2460708
000240 a8 ca 07 3d 0d a4 81 3d 63 f3 9f bd 52 cb 22 3e
       0.033152252 0.06330118 -0.07810094 0.15897873
000250 04 2d 67 bd 7b 9c 68 3d d7 4c 77 3e 4a 7a 65 be
       -0.056439415 0.056789856 0.24150406 -0.22409931
000260 94 3a 5d 3e 2f 1b 63 be ba f2 99 bc 76 6e ed bd
       0.21604377 -0.22178338 -0.018792499 -0.115933344
000270 78 16 86 bd 73 dd 42 3e db 9a 72 be e5 f6 21 be
       -0.06547254 0.19029789 -0.23691885 -0.15816839
000280 bc 07 ac bd df 71 4b 3e 4c c6 01 3e 18 4c 27 bd
       -0.08399913 0.19867657 0.126733 -0.040844053
000290 6f 9d 9f 3d 0d f1 05 3e 2c a1 04 bd 88 4d 93 bd
       0.077937 0.13080235 -0.032380268 -0.07192522
0002a0 ee b4 11 be 99 5e 13 bd 3c a8 f1 3c 94 7f a5 3d
       -0.14229175 -0.035978887 0.029499166 0.08080974
0002b0 fc a0 75 3e bb 2d 2e bd 8e 5b c9 bd 26 ea 19 be
       0.23987192 -0.04252408 -0.09831916 -0.15030727
0002c0 40 76 84 3c 19 a2 c3 bc d2 79 d3 ba 8f 19 4d 3e
       0.016169667 -0.023881005 -0.0016134328 0.20029281
0002d0 a2 b0 96 3d 39 9e e3 bd 39 4d 23 3e e8 a2 47 3e
       0.07357909 -0.11114163 0.15947427 0.19495738
0002e0 c2 83 39 3e 80 a0 52 ba ff 86 3d be be 47 da bc
       0.18116668 -0.00080347806 -0.18508528 -0.026645537
0002f0 36 3f 69 3e e3 cf 74 3e 43 2b 5e 3e 97 4b de 3d
       0.2277802 0.23907427 0.2169619 0.10854261
000300 40 bf 86 3c 99 73 43 be 86 ec 45 be b7 e4 39 3e
       0.016448617 -0.19087066 -0.19328508 0.18153654
000310 16 1b 75 be 73 df 39 3e 17 50 eb bd 19 bd 7d 3e
       -0.23936114 0.18151645 -0.11489885 0.24779166
000320 48 52 04 3e 27 98 38 3e 4f 38 6a 3d a4 ce 2f be
       0.12922013 0.18026792 0.057182606 -0.17168671
000330 e8 5b 5d 3e 17 ee 7f 3e a2 86 d3 bd 23 6c 2b 3e
       0.2161709 0.24993168 -0.103284135 0.1674047
000340 bc e3 82 3d 7e 8d 76 3e 2b c7 11 3e b5 88 35 3e
       0.06391093 0.24077412 0.14236133 0.17727931
000350 25 c1 43 be 31 54 d9 bd 36 a4 48 be ca ab a9 3d
       -0.19116648 -0.10611761 -0.19593892 0.08284719
000360 80 6d e0 bb c3 b7 11 be 2a 3a a9 3d f5 0c 39 3e
       -0.006848991 -0.14230256 0.08263047 0.18071349
000370 be 2d a9 bc 89 6b 67 3e 82 bd 09 be ec 8e 26 3e
       -0.020651694 0.22599615 -0.13451198 0.16265458
000380 f8 50 e5 bd d4 78 c9 3d d1 da be bd 1e 1f 1a 3e
       -0.11197084 0.09837499 -0.0931908 0.15050933
000390 37 a7 ab 3c 13 a0 68 3e b1 50 39 3e 84 b6 ac bd
       0.020953758 0.22717313 0.18097188 -0.084332496
0003a0 06 e8 04 3e 72 57 49 3e 41 8e 61 bd 4d a9 75 be
       0.12979135 0.19662264 -0.055067305 -0.23990364
0003b0 f1 ac 34 3e 9f a8 04 3e fc 65 4f 3e 61 a5 ca 3d
       0.17644097 0.12954949 0.20253748 0.09894825
0003c0 e0 97 b8 3d be 98 65 be af 1d 05 bd 8d c8 c9 bc
       0.09013343 -0.22421548 -0.03249901 -0.024631763
0003d0 f9 fd 44 3e 8a b9 35 bd 30 42 c3 3d 70 ef 13 be
       0.19237508 -0.044366397 0.09534109 -0.14446807
0003e0 ce 25 53 3e 77 b2 c4 3d 5e c6 5f 3e 98 5d 7c 3e
       0.2061989 0.09604352 0.21853015 0.24645078
0003f0 1f b6 48 be 37 28 40 3e 72 d1 55 3e c5 58 ee 3b
       -0.19600724 0.18765341 0.20880678 0.0072737657

node_model.2.bias f4 [16]
000000 20 e8 97 bd d8 58 60 3d d7 2e 0c 3c b1 57 61 be
       -0.07417321 0.054772228 0.008556089 -0.22006108
000010 71 42 35 3e 38 3a 2e be 2c 49 26 3e ab d9 2b 3d
       0.17701127 -0.17014396 0.1623885 0.04195563
000020 57 39 23 be ef 4b 33 3d b5 59 da bc 5e 8b b4 bc
       -0.15939842 0.043773588 -0.026654104 -0.022039112
000030 0a b9 81 bd 28 43 02 3e 8e 5a 6e 3e b3 41 f0 3c
       -0.063341215 0.1272093 0.23276731 0.029328203

node_model.3.weight f4 [16]
000000 1f d4 7f 3f 33 87 7f 3f 89 40 80 3f ff 3d 80 3f
       0.99933046 0.9981567 1.0019695 1.001892
000010 6d 41 80 3f 62 84 7f 3f 00 7f 7f 3f 49 7d 7f 3f
       1.0019966 0.99811375 0.9980316 0.99800545
000020 44 41 80 3f 74 81 7f 3f 74 41 80 3f f4 b7 7f 3f
       1.0019917 0.99806905 1.0019975 0.99890065
000030 f1 7c 7f 3f a5 7f 7f 3f b1 7e 7f 3f c4 b2 7f 3f
       0.9980002 0.99804145 0.9980269 0.9988215

node_model.3.bias f4 [16]
000000 0c d4 02 3b 5c 71 86 ba 08 eb 02 3b e8 36 02 bb
       0.0019962816 -0.0010257172 0.0019976515 -0.0019869152
000010 9a cf 02 3b 9c 36 fa 3a 16 99 fc ba c6 fd 02 bb
       0.0019960166 0.0019089761 -0.0019271697 -0.0019987687
000020 7c a2 02 bb 5d 3b f6 3a 89 9d 00 3b 3a 17 01 3b
       -0.0019933274 0.0018786002 0.0019625148 0.0019697682
000030 a4 fd 02 3b af 5e 01 bb 5a ea f9 ba 20 44 f7 ba
       0.0019987607 -0.0019740274 -0.0019067035 -0.0018864907

edge_model.0.weight f4 [16, 96]
000000 11 69 24 bd 5f ca a0 bd 1e cc 24 3c e6 71 7b bd
       -0.04013926 -0.07851099 0.010058431 -0.06138792
000010 c0 7d f3 3c db 3e 97 bd 3a 29 a2 3d 44 85 56 3b
       0.029723048 -0.073850356 0.079180196 0.003273324
000020 08 83 8c 3b ab b7 99 bd f9 11 5c 3d 47 8e 0f 3c
       0.004288081 -0.07505735 0.053728078 0.008761949
000030 93 a6 91 bd ea 6c 80 3d 37 d4 2f 3c e3 07 c5 3d
       -0.0711185 0.06270774 0.010731748 0.09620645
000040 07 16 55 3d 5d 78 8d bd 15 b2 b5 bd 43 0d a1 3d
       0.05202296 -0.06907723 -0.08871857 0.078638576
000050 4e 02 85 bd 27 a6 3c 3b 02 de 50 3d 92 cc 23 3d
       -0.0649458 0.0028785558 0.050992973 0.039990015
000060 c9 38 6c 3d 9b ce a7 bc 0c d7 bd bc 8b 49 2b 3d
       0.057671342 -0.02048426 -0.023173831 0.041818183
000070 63 ad fc 3c bd 3e 86 3d fa 58 fb 3b 76 2b 25 3d
       0.030844396 0.06554935 0.007670519 0.04032465
000080 78 29 b3 3d 8b 83 ba 3d 18 8d 04 3b 45 b7 3a 3c
       0.08748144 0.09107121 0.00202257 0.011396234
000090 93 ba 3b bd 8f 14 1b bd f6 86 18 3d f6 83 ed bc
       -0.045832228 -0.037861403 0.037238084 -0.028993588
0000a0 cf e5 9e ba 9d b0 4e bd 6e d5 1d bd 25 7b bf 3d
       -0.0012122932 -0.0504614 -0.03853362 0.0934966
0000b0 a0 b2 28 3d 90 ea 93 bd d2 48 7b 3d 3b 8b cc bd
       0.041185975 -0.072224736 0.061348744 -0.099874936
0000c0 b6 1c 9d bd dc c1 9d bd 3c 05 c7 bd 2c 6a 81 3c
       -0.07671492 -0.07702991 -0.09717795 0.015797697
0000d0 d1 d5 5e bd f9 99 c6 3d 09 78 2a 3d ae 04 a6 3b
       -0.05440313 0.09697337 0.04161838 0.005066476
0000e0 cc 81 40 3d 8c d5 5d 3b 46 62 6a bd 6f 8a b9 bc
       0.046998784 0.0033849208 -0.057222627 -0.022649018
0000f0 2e c1 64 bd db 90 42 bc 90 fe 18 3b 9a ad 9e bc
       -0.055848293 -0.011875357 0.002334509 -0.019369889
000100 cd 80 5a bc 0f 40 97 3d 9a 4f 28 3d b0 04 a3 3d
       -0.013336373 0.07385265 0.04109154 0.079598784
000110 43 25 a7 3d a2 87 ff bc 67 e1 0b 3b e1 ed 65 bd
       0.08161404 -0.031192604 0.0021344067 -0.056135062
000120 5f 5b a1 3d ef 77 cc 3d e8 42 8d bd 99 87 02 3c
       0.07878756 0.09983813 -0.06897527 0.007966899
000130 17 13 96 3d 51 86 8b bd 6b 98 3f bd 0a ba 46 3d
       0.0732786 -0.06812728 -0.046776216 0.048517264
000140 e5 ca d0 bd ce ce b7 bb 02 5f fa bc bb 5c 46 3d
       -0.10194949 -0.00560937 -0.030562881 0.04842828
000150 0c ed ce 3d 9c 3f 0f 3c 1b 04 14 3d 1e 93 13 bd
       0.10103807 0.008743193 0.036136728 -0.036028974
000160 0e ee 2b 3d 8a 3e c0 bc 88 04 57 3d d8 eb 19 bd
       0.041975074 -0.023467321 0.052494556 -0.037578434
000170 b2 4b 72 3d fe 85 9e 3c 54 85 13 3d b3 d5 62 3d
       0.05915422 0.019351002 0.036015823 0.05537958
000180 b8 21 b3 bc c6 27 78 bc 2b 1c 0b bd 1a 80 7b 3d
       -0.021866664 -0.0151462015 -0.03396241 0.061401464
000190 b2 87 4c bc 7d 49 5e bd 14 b1 cc bd 24 34 c2 3d
       -0.012483524 -0.054269303 -0.099947125 0.09482601
0001a0 b6 34 8b bd 0a 3d a0 3c 1d b7 18 3d 22 17 82 3c
       -0.06797163 0.019560356 0.037284005 0.015880171
0001b0 4d 27 b9 bd ca 20 93 3c a7 de 69 bd 7b 76 b4 bd
       -0.09040699 0.017959971 -0.057097103 -0.08811661
0001c0 4c 03 bf bc 9a e2 a7 3d 6d cd 18 3d df 50 8f bb
       -0.023317002 0.08197518 0.037305284 -0.0043736543
0001d0 ba b3 6a 3d 7e 8a c9 bd 7a 9e e1 3c 9c 35 da bc
       0.057300307 -0.098408684 0.027541388 -0.026636891
0001e0 5e b2 94 bd 7f 36 04 3d a7 3d 3a bc 6a 88 3a bc
       -0.07260583 0.032278534 -0.011367238 -0.011385063
0001f0 57 a6 d2 3d 6e 21 bb bd f6 df c9 3d 56 06 24 3d
       0.10285633 -0.091372356 0.0985717 0.040045105
000200 64 ee ca 3d 09 ac 89 3c 0d a6 e9 bb 24 20 00 bd
       0.09908751 0.016805666 -0.0071303905 -0.03128065
000210 8a 6f 7e bd 60 5b b5 bd 8a 16 4c 3a ac 20 84 3c
       -0.06211809 -0.08855319 0.0007785341 0.01612886
000220 f3 1f 86 3d b8 32 21 3d 5b 8b 20 bd a4 81 2e 3d
       0.065490626 0.03935501 -0.0391954 0.042604104
000230 94 8d 3e 3d fa ca c6 bd b1 4c 9d bd f5 b6 57 bc
       0.04652174 -0.097066835 -0.07680643 -0.013166179
000240 3b 05 be bb 80 44 15 3b 69 b1 74 3d 72 dc 6b bd
       -0.0057989634 0.0022776425 0.059739504 -0.05758328
000250 29 28 0d bc 1e 73 70 3d 20 75 6b bd 18 05 f2 3c
       -0.008615532 0.058703534 -0.057484746 0.029543445
000260 9e 99 a7 bd cc a0 21 bd c1 33 49 bd af d2 c1 bd
       -0.08183597 -0.03945999 -0.049121622 -0.09464013
000270 81 2e 5e bd 70 37 56 3d 7f a5 0e bc f1 6d a6 3d
       -0.05424357 0.052298963 -0.0087064495 0.081264384
000280 25 7b 97 3d f2 6b b1 bd dd dc 16 bc 3b 4a 68 3c
       0.07396535 -0.08663167 -0.009207931 0.014177854
000290 b3 3d bf 3d 4d 4a 91 3d 3b bd ee 3c 36 98 c2 3d
       0.0933794 0.0709425 0.029142966 0.09501688
0002a0 9c 4a c3 3d 21 c5 9c bd 9c 60 fc bc 4c 01 9e bd
       0.09535715 -0.07654787 -0.030807786 -0.07715091
0002b0 df a0 9d 3d 24 61 1f 3d 01 52 14 bd d0 0c 73 bd
       0.07696699 0.038911 -0.036211018 -0.05933839
0002c0 50 80 d1 b8 37 6d 4d bd 50 07 81 3d 4e 67 bf 3d
       -9.989797e-05 -0.050152984 0.06300223 0.09345876
0002d0 8b d5 19 bc 0b e4 a6 3c c3 4d 85 bd 9c 9e 0d bd
       -0.0093892915 0.020372411 -0.065089725 -0.03457509
0002e0 d6 20 f5 3c 44 83 6b 3d 04 63 85 3d 3a 7e 76 3d
       0.029922884 0.05749823 0.06513026 0.060178973
0002f0 74 dc f7 3c 32 28 a8 bd ce a6 06 3d 25 ec ed bb
       0.030256487 -0.08210792 0.03287392 -0.0072608166
000300 e3 08 20 bd 07 c2 b4 3d d6 57 c4 bd ac b3 ac 3c
       -0.039070975 0.0882607 -0.09587066 0.021081768
000310 29 13 ce 3d 0d 90 26 3d 92 4f c2 bd 31 9c aa bd
       0.10062248 0.04066472 -0.09487833 -0.083305724
000320 d8 6c b6 bc d6 d3 4b bc fb 0c 89 bc c2 fb ba bc
       -0.022268698 -0.012440642 -0.016729822 -0.022825126
000330 91 70 8a 3d c2 73 ba 3d af 35 66 bd 69 44 0a bd
       0.067597516 0.0910411 -0.05620354 -0.033756647
000340 b4 62 8a 3d bf 62 51 3d 3e e4 90 bd 92 16 84 3d
       0.067571074 0.051119562 -0.07074784 0.064496174
000350 b0 6d 78 3d 8c 84 82 3d 38 51 d1 bc ec 17 8c bc
       0.06065148 0.063729376 -0.025551423 -0.01710125
000360 a4 f3 a2 bd 34 b2 1d bd c9 e1 9e 3b 1d db ee 3c
       -0.07956627 -0.038500026 0.004848693 0.029157216
000370 b6 ea ac bd df e1 3b 3b 7e 82 ec bc d9 5b c6 3d
       -0.08443205 0.0028668565 -0.028870817 0.09685487
000380 3e ef 4c 3d 02 01 c7 3d d8 2d 14 bd 30 50 c5 3c
       0.050032847 0.09716989 -0.036176533 0.024086088
000390 09 ce bd bd 46 9c 31 3a c4 26 2b 3d 73 a4 c8 3c
       -0.09267814 0.0006775301 0.041785017 0.024492478
0003a0 14 1b 4f 3c 31 b8 90 bd 8c 2c db bc c9 74 35 3d
       0.012640733 -0.07066382 -0.02675464 0.044300828
0003b0 11 d2 35 bd e3 8d a8 3d 93 33 61 3d 2b 7c 76 bd
       -0.044389788 0.08230188 0.054980826 -0.06017701
0003c0 68 11 8e 3c cf 12 86 3d 3c dc f5 bc e5 03 2a 3d
       0.017342284 0.06546556 -0.030012242 0.04150762
0003d0 bc be c1 3b 0c 45 d0 bc ee 93 4f bd 49 fd 1f bd
       0.00591263 -0.02542355 -0.050678186 -0.03905991
0003e0 c1 65 8a bd 34 16 8e bd 1d 18 85 bd 4e 80 6e 3d
       -0.06757689 -0.06937829 -0.0649874 0.05822783
0003f0 b1 51 a1 3d a8 22 bc bd 3d 86 bb 3c 93 13 d4 bd
       0.078769095 -0.09186298 0.022891158 -0.10355296

edge_model.0.bias f4 [16]
000000 cd 59 42 bd f5 98 58 bd e7 28 3f bd 63 4d bc 3d
       -0.047448922 -0.052880246 -0.046669867 0.09194448
000010 97 36 25 bc db b8 c5 3d 20 80 ad 3d 6a b6 bd bd
       -0.010083816 0.09654399 0.084717035 -0.09263308
000020 e3 1d 40 3d 6e a5 91 3d d5 e1 a3 bd f9 fd a0 3d
       0.046903502 0.07111631 -0.080020584 0.078609414
000030 09 38 a9 bc 6c b5 81 bd 87 3b 1f bd 74 8e ef 3c
       -0.020656602 -0.063334316 -0.03887513 0.029242732
