tmp/tmp4model600.pt (torch, 23679 bytes, 25 tensors)

node_encoder.0.weight f4 [16, 5]
00000000: 8477 713d 3477 6f3d 4c17 bbbe 97cd 84be
00000010: baad e1be d7a9 d8be 33de e43e 13ff b53e
00000020: 2836 d93d d840 d23e 2938 31be 85ff 64be
00000030: f285 bd3e 100b c2bc fcd7 cc3d 452a 713e
00000040: 9dc4 533e e01b 83be da1a 31be 6351 d3be
00000050: b4df 183d 90eb 2fbe a2e3 ec3d 8071 aa3c
00000060: d6e3 ae3e 7064 993c a134 643e dd55 d73d
00000070: da26 cb3e 776f 40be 2974 bd3e 1d17 a23e
00000080: cfb0 33be e85a 8c3e a1a9 d03e 71f1 7cbe
00000090: 3de9 03be f4a2 9f3e 24a0 b83e 4762 e03d
000000a0: 65ac 1e3e ef94 a23e ca8b d43e b5d0 90be
000000b0: 4b44 5dbe 1345 d83e 1f79 983e 4e13 47be
000000c0: 2a62 1bbe 6673 e23e 76a0 85be 524f 873e
000000d0: 4937 9a3e ac98 dbbe cd5e f1be bcf9 ed3d
000000e0: 7b0c 3a3e 9ef2 be3e c0c6 613d 378e aa3e
000000f0: d246 bbbe 9041 603e c694 dcbe 3c29 953e
00000100: 25a6 063e 641b 943e bc6a 5d3e 4a4a 9fbe
00000110: 002e 983b e24c 343d 99b5 693d 9240 d0be
00000120: e7a3 71be ebb7 57be 7029 7bbe 837a b83e
00000130: cfe4 653e 7fc5 3d3e c248 09be 4f34 d0be
0.05895187 0.05846329 -0.36541212 -0.25938103 -0.44077855 -0.42317078 0.44700775 0.3554617
0.106060326 0.41065097 -0.1730658 -0.22363098 0.37016255 -0.023686916 0.10002133 0.23551281
0.20680471 -0.25607204 -0.172954 -0.4127303 0.037322715 -0.17179704 0.11566855 0.020806074
0.341582 0.01872465 0.22285701 0.10514424 0.3967808 -0.1879252 0.37002686 0.3165826
-0.17547916 0.27413106 0.40754417 -0.24701478 -0.12881942 0.3117901 0.36059678 0.10956245
0.15495451 0.31754252 0.415129 -0.2828423 -0.21608083 0.422402 0.29779908 -0.19440958
-0.15174165 0.44228667 -0.26098984 0.26427704 0.30120304 -0.42889917 -0.4714264 0.11619899
0.18168823 0.37294477 0.055121183 0.33311626 -0.3657747 0.2190001 -0.43082255 0.29133022
0.13149317 0.28927147 0.21622747 -0.31111366 0.0046441555 0.044018634 0.05705795 -0.40674263
-0.2359768 -0.21066253 -0.24527526 0.3603097 0.22450565 0.1853237 -0.13406661 -0.40664908

node_encoder.0.bias f4 [16]
00000000: 4d64 ce3d 6907 ce3e 9572 403e b3a3 c7be
00000010: 4576 b4bc a666 d5ba ec94 8f3e f772 473e
00000020: 6273 98be 3f74 c0be b18b 1b3e 1486 3e3e
00000030: dc8d 553e 634a a43e 6db4 c63e b224 54be
0.100777246 0.40240029 0.1879371 -0.3899208 -0.022029052 -0.0016281202 0.28043306 0.1947745
-0.2977553 -0.3758869 0.15190007 0.18605834 0.20854896 0.32088003 0.3880953 -0.20717123

node_encoder.2.weight f4 [16, 16]
00000000: e0d4 85be 20bf 053e ef80 6a3e 9e8e 44be
00000010: 70b3 edbd aad3 573e f4b7 463e 9362 0cbd
00000020: be2b 0bbe dc6e 5d3d 5ab8 73be b99a c8bd
00000030: 1704 23bd 7f4c 84bd 3072 923d 0c25 b2ba
00000040: 33cd 4dbe f1ae 57bc ecd9 5b3d 6f28 1d3e
00000050: df33 663c 274b 86bd 429f de3d e706 133e
00000060: 14c3 983d ee7d 17be bf52 bc3d 36bf 603d
00000070: 306e 153e 54c4 6cbd 7904 b43c e84f 203e
00000080: f366 a0bc e073 103e 6184 32bd 5b45 6c3e
00000090: 3aa7 9c3b 146e 3fbd f22c cb3d 7185 8cbc
000000a0: a997 4d3e 97e0 53bc 4b37 323e 2c01 6abd
000000b0: d55c 113d 4258 c23d 76b3 75be 7955 583d
000000c0: 262e 3c3e 6a0d 8d3d 7bb8 68bd 35d5 653c
000000d0: d398 a43d 3864 5d3d c847 07be 8208 173d
000000e0: 5221 8dbe a27f fc3c b659 01be fee1 1bbe
000000f0: 4dd4 3abe 6e0c 493e 1a5b 04bd 08dc 92bc
00000100: 0c99 bfbd b1d3 c6bd 6ede 2abe 1fa6 0abb
00000110: e2b5 17be 739f 04be 4679 e63d 3c16 743e
00000120: 7ea5 9dbd bcf1 85be 6907 6a3e 9078 0f3e
00000130: 2715 0e3e 6eec 8fbd 826d 7cbd 9f7d 253b
00000140: 7008 66bc 8e2f d6bc 6e55 ffbd fde9 1a3e
00000150: 7bd6 b93d aa41 53bd 8814 83be f7a1 f6bd
00000160: 8140 ccbd afff e6bd 303c 493d bf1c 89bd
00000170: bccb 813c 2d1d 59be 6d07 59bd e517 b53d
00000180: 300b 803e f2c4 65be c1f6 163d 327e 063e
00000190: 70a6 0cbd f5f4 673d d1bd 183e 67f6 73be
000001a0: 8fb5 0f3e 174d 75be a0bc 1d3d 4b8e 153e
000001b0: 1116 e7bd 51b5 0cbb f66c 4ebe d394 4cbc
000001c0: 7e4b d23d db17 d33d 62b8 7a3d 2965 55bd
000001d0: 4cf3 c5bd 55dd 2f3e 3b3e 383d 6055 a93d
000001e0: 1573 c33d f97e cebd 7a87 35bd 8fd4 5b3e
000001f0: 4f2b 453e 6135 8fbe 698e 5dbe da5a cebd
00000200: 4d89 c13d 41b1 0cbe b350 c83d eb71 49be
00000210: efd5 38bd 1faa 223e 6c76 6dbd 2d14 b1bd
00000220: 3257 243d 86f3 643e 96b8 3b3d ea76 71bb
00000230: e028 c13c 64b1 4bbe d856 dcbd 6954 793e
00000240: c8d5 cebd 6de2 133e 3f26 91bd b5d2 123e
00000250: 7210 fa3d 7cd7 553e cb15 eabd 676d 5cbc
00000260: df61 19be 2af4 db3d 37fb d2bd 25d1 4c3d
00000270: 7290 15be a43d 1ebc 81fa 39be 0914 37be
00000280: 3edd df3d 195b 093d a162 78bd be2f aebd
00000290: 1508 5d3e eaef 7f3d 30e3 ba3d ec13 8e3e
000002a0: ebea 903e 9fe4 3ebd 8c2c 223e 695b eb3c
000002b0: 7216 37be 7914 3c3e 7abd ba3b 1de9 6d3c
000002c0: 0f01 433d 7f51 3c3e faad 90bd b34b 19bd
000002d0: 3e7e 883d 5699 003d 4a4d d53d 26ca 543e
000002e0: b788 b5bd 8db7 313e 195d 60be 8785 963c
000002f0: 3a09 8d3d 7137 79be 482e 8dbe ce2e abbd
00000300: ac23 04bd 7f6d 2f3e f3a6 74bd bb3b 4e3e
00000310: 1f24 b3bd 13fa c33d a349 423e a452 313e
00000320: 80cf 7abd 428d c73d 8a05 db3d 0d09 37be
00000330: 9a33 373e 0338 7d3e fc6f 7f3d c00a 913e
00000340: d24f ccbc 2e82 e7bb 1f58 06bd b89b 5d3d
00000350: 7baf c33d b5b4 3ebe 2f0e aebd f1c2 3fbe
00000360: a87f 06bd 3ac6 803d f500 16be 82e1 323d
00000370: 7611 78be 4d0d c93d 2548 113e 7bc6 95bd
00000380: 768c 383e 3936 9cbd b13a 67be 58d7 42be
00000390: 18c6 87be d112 3d3d 5e34 2f3c 0401 76be
000003a0: 79c5 a3bd b363 d83b c84c 0dbd 23fa b53d
000003b0: 02c9 773e 768a 083e 29cd 7f3d c1e4 e93d
000003c0: ad80 ffbd 2f3e 6dbd 730a aabd eb1d 1f3d
000003d0: c1f9 e93d 94fa 8f3d 01a8 f5bd bfd9 59be
000003e0: 2180 5ebd 2872 263e cf7f 59be cae9 0c3e
000003f0: 22dd f43d 86b4 ddbd f3f7 4b3e 66f7 00be
-0.26138973 0.1306119 0.22900747 -0.19195029 -0.116064906 0.21076837 0.1940611 -0.034273695
-0.13590905 0.054060802 -0.23800793 -0.09795136 -0.039798822 -0.06459903 0.07150686 -0.0013591363
-0.20097809 -0.013164268 0.053674623 0.15347455 0.014050453 -0.06557303 0.1087022 0.14358102
0.07459083 -0.14794132 0.0919547 0.054869853 0.14592814 -0.05780442 0.021974789 0.15655482
-0.01958034 0.14106703 -0.043583278 0.23073332 0.004780677 -0.046735838 0.09920682 -0.017153474
0.20077385 -0.012931964 0.17403905 -0.057130024 0.035488922 0.0948949 -0.2399424 0.052815888
0.18376979 0.06887324 -0.05681656 0.014027883 0.080369614 0.054050654 -0.13210976 0.036873348
-0.27564484 0.030822579 -0.12631878 -0.15222928 -0.18245049 0.19633648 -0.032313444 -0.017927185
-0.09355363 -0.09708346 -0.16686413 -0.0021156145 -0.14815477 -0.1295145 0.112536 0.23836607
-0.07697581 -0.2616099 0.22854389 0.14010835 0.13875256 -0.07027517 -0.061627872 0.0025251878
-0.014040098 -0.026145723 -0.12467466 0.15128322 0.09074112 -0.051576294 -0.25601602 -0.12042611
-0.09973241 -0.112792365 0.049129665 -0.06694936 0.015844218 -0.21202536 -0.052985597 0.08842448
0.25008535 -0.2243841 0.036856417 0.13134077 -0.034338415 0.056630094 0.14916159 -0.23824464
0.14034103 -0.23955189 0.038509965 0.14605062 -0.11283506 -0.0021470378 -0.20158753 -0.012486654
0.10268305 0.103072844 0.061210997 -0.052098427 -0.09665546 0.17174275 0.044981223 0.08268237
0.095434345 -0.10082812 -0.044318654 0.21467803 0.19254802 -0.27970412 -0.21636356 -0.10075922
0.09450016 -0.13739492 0.09781017 -0.19672363 -0.045125898 0.15885209 -0.057974264 -0.08646426
0.04012222 0.22358522 0.04583033 -0.003684456 0.023579061 -0.19891888 -0.10758752 0.24348606
-0.10099369 0.14441843 -0.07087373 0.14338191 0.12210168 0.20882982 -0.11429938 -0.013453818
-0.14978741 0.1073993 -0.10301822 0.050004143 -0.14605883 -0.009658251 -0.18161966 -0.17878737
0.109308705 0.033534143 -0.060640935 -0.085052 0.21585114 0.06248466 0.09125364 0.27749574
0.28304228 -0.04660475 0.15837306 0.028730111 -0.17879656 0.18367185 0.005698857 0.014520911
0.04760843 0.18390463 -0.070644334 -0.037425708 0.06664704 0.031396233 0.10415132 0.20780239
-0.08863967 0.17355175 -0.21910514 0.018374218 0.068865255 -0.24337555 -0.27574372 -0.08358537
-0.03226058 0.17131613 -0.059729528 0.20139973 -0.08747124 0.09569182 0.18973403 0.17316681
-0.061233044 0.0974374 0.10694416 -0.17874546 0.17890778 0.24728398 0.062362656 0.28328514
-0.024940405 -0.007065079 -0.032798883 0.054103583 0.095549546 -0.18623622 -0.08498799 -0.18726708
-0.032836586 0.06287809 -0.14648803 0.043672092 -0.24225411 0.0981699 0.14187677 -0.07313248
0.18022332 -0.0762753 -0.22580983 -0.1902746 -0.2651832 0.046160523 0.010693638 -0.24023825
-0.07996649 0.006603682 -0.034497052 0.088856004 0.24197772 0.13334069 0.062451515 0.114205845
-0.12475715 -0.05792063 -0.08302774 0.03884689 0.1142459 0.07030216 -0.11994935 -0.2127447
-0.054321412 0.16254485 -0.21240161 0.13761058 0.1195624 -0.10825448 0.19918804 -0.12594375

node_encoder.2.bias f4 [16]
00000000: 4498 d73d 3389 c03b 8368 3bbe 73ed 05be
00000010: c6f6 e13d a707 68be 1280 5a3e 7a83 efbd
00000020: ac74 babd 655e 34be ca94 32be c3ef 7cbe
00000030: 302b ba3d 8df7 503e 9c10 323d d644 6b3e
0.10527089 0.0058757304 -0.18301587 -0.13078861 0.110333964 -0.22659169 0.21337917 -0.11694999
-0.09104285 -0.17614134 -0.17439571 -0.24700837 0.090902686 0.20406933 0.04347287 0.22975478

node_encoder.3.weight f4 [16]
00000000: a0f0 773f 8d2b 823f 7612 803f ec43 823f
00000010: 37d2 743f d162 823f 406d 7d3f 466f 7b3f
00000020: 687d 7b3f be18 733f ac8f 763f 8d59 813f
00000030: 92c8 7d3f 98eb 773f 7cde 7a3f 25c9 773f
0.9685154 1.0169541 1.0005634 1.0176978 0.9563326 1.0186406 0.9899483 0.98216665
0.9823823 0.9495963 0.96312976 1.0105454 0.9913417 0.9684386 0.97995734 0.967913

node_encoder.3.bias f4 [16]
00000000: 3ea0 c0bc 0949 093c 9c82 873b e369 7cbc
00000010: 21ad 09bd e288 b3bc a4e6 1abc 057d e6bc
00000020: dd80 3abc 26e7 503d b427 753c c77a a3bc
00000030: 18d3 90bb 0eaa e1bb eae0 14bd 50f5 d13c
-0.02351391 0.008379229 0.004135443 -0.015406105 -0.033612374 -0.021915857 -0.009454403 -0.028135786
-0.011383262 0.05100169 0.014963079 -0.019956006 -0.0044196956 -0.006886727 -0.036347307 0.02562967

edge_encoder.0.weight f4 [16, 4]
00000000: 26aa 15bf 2c91 8dbe 04a6 f63e e54c 213e
00000010: 6817 cb3e b290 993d cdc3 b83e 9091 6ebe
00000020: 9834 f13e ef22 89be 6eed 0cbf a844 3a3e
00000030: 6212 b1be f592 0b3e aec3 ee3e dc4d 51be
00000040: 4896 41be 2025 b0bc 5005 b1bd 10d7 053d
00000050: 06a5 78bd e623 f23e 8310 653e 66e3 1dbe
00000060: 0eff 39be 53aa f13c 09f0 813e bfd1 6abe
00000070: ed49 41be 2cdf bd3e 1ce4 53be 8ada 863e
00000080: f2aa dbbe 0726 89be c5f8 d1bc ae6b f4be
00000090: 7f42 b53e 9921 74be 6538 a83e b978 cabc
000000a0: 6266 723e 08c4 853e d4a7 92be ebc6 81be
000000b0: da12 623e 6717 89be 646c 123f b05d f7be
000000c0: be2a d3be bbc1 73bd 3c61 aabe 43cf 9ebe
000000d0: d2fc bc3e f778 5dbc a7ef 9e3e c749 c73e
000000e0: 18f1 913e 9e53 cb3e d4ab a7bd 00d1 efbe
000000f0: f7b6 81be 791a 04bf 4bfd 8d3d 0501 6b3e
-0.5846275 -0.2764982 0.48173535 0.15751989 0.39666295 0.074983016 0.36086884 -0.23297715
0.47110438 -0.26784465 -0.5504979 0.18190253 -0.34584337 0.13630278 0.46633667 -0.20439857
-0.18904984 -0.021502078 -0.086435914 0.032675803 -0.060704254 0.47293013 0.2236958 -0.15418777
-0.18163702 0.029500162 0.25378445 -0.22931574 -0.18875857 0.3708433 -0.20692486 0.26338607
-0.42903858 -0.26786825 -0.025631318 -0.47738403 0.35402295 -0.23840941 0.32855526 -0.024715768
0.23671868 0.26126122 -0.28643668 -0.25347075 0.22077504 -0.26775667 0.5719664 -0.48313665
-0.41243547 -0.059510928 -0.3327731 -0.31017503 0.36911637 -0.01351761 0.31042215 0.38923475
0.28504252 0.39712232 -0.081870705 -0.46839142 -0.25334904 -0.51602894 0.069330774 0.22949608

edge_encoder.0.bias f4 [16]
00000000: 75ec a03d 2537 b8be 5be4 953d 3452 efbe
00000010: ae11 95be 32aa 6abe b042 ab3e b3f2 ec3e
00000020: 1030 953e b936 b43e 06b7 c9bc a324 3cbe
00000030: a3da 953e a0f4 d23e cd21 613d 3117 893e
0.078576006 -0.35979572 0.07318946 -0.46742404 -0.2911505 -0.22916487 0.33449316 0.46278915
0.2913823 0.35198 -0.024623405 -0.18373351 0.2926837 0.4120226 0.054963876 0.26775506

edge_encoder.2.weight f4 [16, 16]
00000000: 448d 31be eff6 3dbe 6e01 a1bd 08bf e13d
00000010: 54a1 abbd 188f 943e 32e3 793e b39d 663d
00000020: 4c30 45be e7b1 8b3d 5ae9 623e e297 293e
00000030: f727 173e 8cae fe3d b23c 283e 6a6a 4cbd
00000040: d71a 4e3d bd0c 923c b356 67bd d4b6 07bd
00000050: d08c 94bd ee9e cf3d 29f4 633e 86f6 81be
00000060: a1d4 1b3e 21c8 40be c906 38be 6880 5fbe
00000070: ffd3 6d3e fe6a b7bb d144 9b3d 318a 8b3e
00000080: dfb3 35be 0f7d d73e f4f6 0bbe 50c6 2fbe
00000090: 865b 333e 8ee5 c8bd 4ee2 80be 2221 ebbc
000000a0: b262 6abe 951d 4e3e 6c8c 47be 6152 753c
000000b0: b01b 4abc f373 9d3d dd0d 173e ba50 a1be
000000c0: 00c5 eebd a43f 70be 1789 88be 7a65 10be
000000d0: 40b6 183d f6dc 3e3e 16d5 5d3b 5249 7c3e
000000e0: c951 143d 3d18 a2bd 5872 cebd 9730 d83d
000000f0: 245a 633e b03e 333e c72e eebd ce28 83bd
00000100: b205 efbd f690 e4be 641d 743d db1c e63d
00000110: 7078 bf3d e662 08be 9a41 24be 8106 0a3d
00000120: 60fc d83d 1d9e 47be eafa 81be 1da0 8fbb
00000130: 0e52 c03a ae70 593e e7f1 5cbd 67a6 073e
00000140: a59a 3dba 349e cabe 2e0f 7ebe a120 a8bd
00000150: e832 083d 6e95 2c3e fbcb 773e 145f 3f3e
00000160: 3084 3f3e 29b1 8b3d 8363 4d3e fc91 4fbe
00000170: dff9 1e3d b222 2c3e c122 7a3e 88cb 533e
00000180: 067c 043e ba78 633d 2dde 073e 5d30 153e
00000190: bac3 24be 29aa 033e 697c 033e a220 4c3d
000001a0: 33b8 253e bdfe 16be 67e2 47bd 8ad2 1c3e
000001b0: d693 61be fc4c ba3d 783f d8bc aa05 dc3d
000001c0: 28ab 92be f92c a63e caec 943d e64b 80bd
000001d0: e085 c83c f00f 783e d2f5 283d 8332 e7bd
000001e0: e5ca 80bd 8d6a 433d ee68 bd3d 1a2a c43d
000001f0: 05c7 5f3d 85b9 213e e994 5c3e 92ae 84be
00000200: 451c a83d bf30 14bf 7922 a2bd 6595 153e
00000210: 60dc aebd 8c62 23bd 3bc6 1d3e 8db3 11be
00000220: cad7 653e 67b6 42be b39a 3f3d a770 a3be
00000230: dbcb ac3d 0d2d a53d f7c6 62bd a716 8f3e
00000240: 2969 4e3e 086f 4ebe afd3 b63d ee5c 4cbe
00000250: 30fd c43c 5213 663e afbe fe3d 8a90 da3d
00000260: 4743 ecbd 6a90 fc3d f257 773d 7485 2fbe
00000270: 3a13 62be fe1a 7d3e 8db6 a53d c502 e93d
00000280: 3f5d 5abe 55fc a13d 36e7 613e 36eb e13c
00000290: 0068 79bc 4233 4e3e 5bef 15be c3a0 cbbd
000002a0: 123f e2ba 861f 4dbe 138d 3e3e be61 093e
000002b0: 1cd6 323e aab4 8d3c 1b54 9e3d fe23 d73c
000002c0: 09da 0bbe 63b8 31be 34bb 503e dacf 27be
000002d0: 9c1a 603e db05 af3d 9b1c 3dbe dad2 13be
000002e0: f605 fc3d 2e85 233e 5c00 663e eafe 373e
000002f0: 0862 79bd 7759 663c 12c1 6bbe 525d f23d
00000300: 468c 453c f8e3 4e3e 4e9b 3abd bf03 0ebe
00000310: 587c ffbd 17d6 54bd 43d0 58bd d221 003e
00000320: 931f 42be 3900 1e3e a239 07be d1a7 943c
00000330: cd1d 2abe 6537 5cbe e3c2 c93c e762 653e
00000340: 4660 703d 4158 4bbe a42e e93c ae18 ffbd
00000350: d043 653d da44 2ebd f98c 82be bf07 3f3e
00000360: 4b0f 023e 949f 2a3e 3640 abbc 5c4c d9bc
00000370: caa1 22bd 6d5b 36be ba52 60bd cffa 6d3d
00000380: 263f 923c c4f2 553d 0219 433e 8b24 283e
00000390: a0a7 153c 3c2c 363e 3b8d 493e c199 37be
000003a0: cfc2 513e fbc7 2cbe f242 773c 82fe 313e
000003b0: ef20 5abe e230 133e a345 13bd f693 313e
000003c0: e476 ba3d c328 553e 1ea2 503e e520 143e
000003d0: 4080 593e f6db 0cbe 4b2f 42be 79ef 12bd
000003e0: c2d7 673e 78ba 943e fda4 1f3e c519 99bd
000003f0: 6925 1fbe c6c9 7dbd 4cb4 0dbe a858 20bd
-0.17339045 -0.18551229 -0.07861601 0.110227644 -0.0838038 0.29015422 0.24403074 0.056302737
-0.19256705 0.068210416 0.22159329 0.16561845 0.14761339 0.12435636 0.16429403 -0.04990617
0.050318565 0.01782834 -0.056479167 -0.033133343 -0.0725342 0.10137735 0.22261108 -0.25383395
0.1521783 -0.18826343 -0.17971338 -0.21826327 0.23225401 -0.0055974713 0.07581485 0.2725387
-0.17744397 0.420876 -0.13668424 -0.17165494 0.17515382 -0.09809409 -0.25172657 -0.028702322
-0.22889212 0.20128472 -0.1948716 0.014973254 -0.012335703 0.07688131 0.14751382 -0.31506902
-0.116586685 -0.23461777 -0.2666709 -0.1410121 0.037283182 0.18638977 0.0033848933 0.24637344
0.03621081 -0.07914779 -0.10080403 0.10556143 0.22202355 0.17504382 -0.11630016 -0.06404267
-0.11671008 -0.44641846 0.05959834 0.112359725 0.093491435 -0.13318977 -0.1604065 0.03369761
0.10595012 -0.19493909 -0.25386745 -0.0043831007 0.0014672892 0.2123439 -0.053941634 0.13247071
-0.00072328217 -0.39573824 -0.24810478 -0.082093485 0.033251673 0.16853878 0.24198906 0.18688613
0.1870277 0.068209 0.20057492 -0.20270532 0.038812514 0.1681011 0.2442732 0.2068311
0.12937936 0.055535056 0.13268347 0.1456923 -0.16090289 0.1285788 0.12840427 0.04983581
0.16183548 -0.14745612 -0.0487999 0.1531469 -0.22029051 0.09096715 -0.026397452 0.10743268
-0.28646207 0.32456186 0.072717264 -0.062644765 0.0244779 0.2422483 0.041250058 -0.11288931
-0.06288699 0.047709037 0.092485294 0.09578343 0.05463316 0.15793426 0.2154118 -0.25914437
0.08208517 -0.5788688 -0.079167314 0.1460777 -0.08538127 -0.039888903 0.1540765 -0.1422865
0.22445598 -0.19014893 0.046778392 -0.31921884 0.0843732 0.080652334 -0.05536553 0.2794697
0.20157303 -0.20159543 0.08927094 -0.19957325 0.02404651 0.22468308 0.12438714 0.106721
-0.1153627 0.12332232 0.060386606 -0.17140752 -0.22077647 0.24717328 0.080914594 0.11377481
-0.21324633 0.07909457 0.22060856 0.027577978 -0.015222549 0.20136741 -0.14642088 -0.09942772
-0.0017261228 -0.20031556 0.18608503 0.13416192 0.17464489 0.017298061 0.077308856 0.02626228
-0.13657393 -0.17355494 0.20383912 -0.16387883 0.2188515 0.08546039 -0.18467943 -0.14435902
0.123058245 0.15968773 0.22461075 0.17968336 -0.060884506 0.014059416 -0.23022869 0.11834206
0.01205737 0.2020415 -0.045558266 -0.13868617 -0.124748886 -0.051961984 -0.05293299 0.12512901
-0.18957357 0.15429772 -0.13205579 0.018146427 -0.1661293 -0.21505506 0.024629062 0.2240101
0.058685564 -0.19857885 0.028464623 -0.12455879 0.055972874 -0.04254613 -0.2549818 0.18655299
0.12701146 0.16662437 -0.020904642 -0.026525669 -0.039705075 -0.17808314 -0.054766394 0.058100518
0.017852377 0.052233472 0.19052508 0.1642019 0.009134203 0.17790312 0.19682781 -0.17929746
0.2048447 -0.16873161 0.015091645 0.17382243 -0.21301626 0.14374116 -0.035955083 0.17341599
0.09104708 0.2081633 0.20374343 0.14465673 0.2124033 -0.13755783 -0.18963353 -0.03587291
0.22640899 0.29048514 0.15590282 -0.07475618 -0.15541615 -0.061960004 -0.13838309 -0.03914705

edge_encoder.2.bias f4 [16]
00000000: 9ab4 16bd 8422 513e 0cfa 583e 90bf 5dbe
00000010: 0c02 103e d795 883d 8b2d 33be 04e1 06be
00000020: 0954 fd3c 9ec6 10be 4286 64bc f3fa 363e
00000030: 60ee c8bd 86fd 1abd ef92 9b3d 2329 15be
-0.03679333 0.20423323 0.21189135 -0.21655107 0.14063281 0.06669205 -0.17497842 -0.13171774
0.03092386 -0.14138266 -0.013948025 0.17869167 -0.098110914 -0.037839435 0.07596385 -0.14566474

edge_encoder.3.weight f4 [16]
00000000: ccee 823f 7bcc 7f3f 5697 803f 241a 813f
00000010: 9038 813f 065b 823f 0a2c 813f f7d9 8f3f
00000020: 6561 7d3f 4d09 803f 9ec6 823f 0bf1 803f
00000030: 531f 7d3f 2909 7d3f c5a5 813f 2bd5 713f
1.0229125 0.9992139 1.0046184 1.0086102 1.0095387 1.0184028 1.0091565 1.1238393
0.9897674 1.0002838 1.0216863 1.007356 0.9887592 0.988421 1.0128714 0.94465894

edge_encoder.3.bias f4 [16]
00000000: 9bf9 853c ec8d 9cbc bfae b8bb c7ec c23b
00000010: d026 35bc 84a0 443c 2a60 b6bc 5ee2 76bc
00000020: aa68 a13c 4f1f deba aa95 6dbc 171b fd3c
00000030: c580 173c c84e f9bc 8ef3 9e3c f189 7b3d
0.016354373 -0.019110642 -0.0056360657 0.005948636 -0.011056617 0.0120011605 -0.022262651 -0.015068619
0.019703228 -0.0016946587 -0.014501015 0.030896707 0.00924701 -0.030433074 0.019403245 0.061410848

node_model.0.weight f4 [16, 48]
00000000: fdda 0dbe 1e2f 713d 0af6 c8bc d581 fc3c
00000010: 9a0a 9cbb 5ca5 b33d 3053 823c 19fc cabd
00000020: 109f 463d ce62 7a3d d280 e23d be65 d23d
00000030: 5d13 d5bd 0797 c7bc 439c a73c 6847 a7bc
00000040: 3bbb d2bc 23ee 083d f73e bc3c f292 f4bc
00000050: faf7 953c 6a79 443d 2957 5d3d 071f 933d
00000060: 478d 033e dabb d53d 9dc5 e33d 5aae 86bd
00000070: c2f0 e2bc 00fe 3ebd 7b09 ef3d 7451 703d
00000080: 18af d53d ea90 1f3c 95bc ed3b 1a7e d63d
00000090: 274b 2abc fc39 20be 0193 aebd 79f4 c53d
000000a0: 652d 54bd c10f 9a3d 7338 7bbd a7d9 6b3b
000000b0: 8e31 7b3c 29d4 903b a9d2 40bd 6602 e6bd
000000c0: 94b7 d33d a37a 0fbe 6de1 283e 214a dcbc
000000d0: c2a9 323d bd75 213e 1b7b 15bd 53a9 41bc
000000e0: 9c7e 6f3d 0e23 3dbd 4231 8a3c 0635 133e
000000f0: 0ce3 94bd 089f 0fbe 06cf f03d 9264 3abc
00000100: 4d43 cdbd fa31 eb3d 826e 2cbc f94a 273d
00000110: 58f1 723b 81e8 1b3e aecc 17bc 0832 ff3d
00000120: de90 65bd 0c5c 0b3c bfeb 8abd 6ed1 8f3d
00000130: 699d 063e 7767 213d 9f51 d2bd 642d 88bd
00000140: 020f 1cbe 918b e03d aece 0cbe 945e 2c3d
00000150: 52a8 1bbd 49d4 a5bc 78cb 68bd c20a c6bd
00000160: 426b 1e3d f035 b63d ce2e ecbd d83b 08be
00000170: 1aae 783d 3548 cb3d 29e4 863c 0e5c e73d
00000180: 0a93 693d 0871 f83b 0091 6c3d 0998 463c
00000190: 1fb0 a6bd 6474 30bd b17a b2bc 9ed9 183e
000001a0: c880 abbc 09c0 a1bd 2c04 fdbd 276b d6bc
000001b0: eb5b c8bd 5e10 213d 8df9 ef3d 5a96 3c3d
000001c0: a0c7 dfbd 7086 b73d f2c2 90bd 3b66 afbd
000001d0: b3e9 a3bb 41b4 0bbe e554 cf3d 92aa 113e
000001e0: 4fac 213e f523 fc3c 2cdb 013d c79b 823d
000001f0: 88d1 f63c c39a d6bd 2f08 7cbc 15aa 883d
00000200: 7ad5 d7bd beda 41bd cc0f d03d cd3f 2dbe
00000210: 59da 8fbd 967c ba3d 6efb cf3b 7099 aa3c
00000220: 932c 733d 06af a43d 2416 c53d 75fa 57bd
00000230: 058f 20bc e8e7 d33d fc6b febc 0251 ea3d
00000240: 3a2b 413d 55e3 f53d fa8a 023e a549 c93b
00000250: e491 6dbc 4cb1 f93d ac89 d63d 0594 8fbd
00000260: 5983 9bbc 5893 26bd 3c30 d83d fcd1 923c
00000270: 2849 8abd 2994 55be 7885 91bd 2d3e 063e
00000280: 844a aabd bd2c 0b3e 5d6e fe3d 7aea 883c
00000290: c554 20be 9aeb f73d 4a6e 3d3d a8e6 2c3b
000002a0: 3ffc 1b3d e977 87bd e735 33bd c66c 2c3e
000002b0: 4d85 a23d 36ef ab3d c97a e93d fe05 a23d
000002c0: 0aa2 083e dedf babd 6423 c93d f26a 253c
000002d0: a653 183e 2c4b ffbb 18c4 d9bd 03a8 223e
000002e0: 5d22 10bd cdc8 353d 07c7 a13d 9fd4 40bc
000002f0: 5d89 90bd 4426 3fbe 26f4 7abd 0713 b43d
00000300: f56d 9b3c d3dc bbbd 8ddd e13d 9372 81bd
00000310: 0466 24bd 7bdd 69bd d7c9 0c3e 2d02 913b
00000320: 2b9e d2bd 58d7 eabd cc34 f6bd e393 1dbb
00000330: 311d d9bd f56f 323c 16ca fd3d 85a1 f93d
00000340: 1437 34bc dd91 073d 91f2 a13d 6b95 3abd
00000350: 7d6b 1c3e cf7a 0d3d d317 9fbd 68c7 03bd
00000360: bc46 e6bd 9bd5 16be b293 ad3d ee61 29be
00000370: 7d71 aa3d 75cc 0b3e d1ba 9cbc e6ab 4e3d
00000380: 62a6 b4bc 7d1c c7bc 3d0f 363d bda1 ecbd
00000390: 1b5c 19bc 121f ff3b 721e 3abd c802 21bd
000003a0: 01df b5bd fde2 d93c e96d b23c 6804 453d
000003b0: 1ecc dfbd 214a f83c 51ef 12bd 4514 df3d
000003c0: 3be7 b83c 1f61 96bc a3b0 10bb bf2c 973c
000003d0: 0058 d6bc f5f3 c93d eee4 22be 3b8d 653d
000003e0: b0ed c93d 5a31 db3c eb35 fdbd 751e 89bc
000003f0: 2ccf e9bd b5c0 d4bd 3627 ae3d 8bb8 0cbe
-0.13853069 0.058882825 -0.024531383 0.030823627 -0.004762006 0.08771774 0.015908808 -0.09911365
0.048491538 0.061129384 0.11059727 0.10273312 -0.10404084 -0.024364008 0.020460254 -0.020419791
-0.025724044 0.03343023 0.022979243 -0.029855225 0.018306721 0.047967352 0.0540382 0.07183652
0.12846862 0.104362205 0.11121676 -0.06576224 -0.027702693 -0.046628952 0.1167173 0.05867143
0.10433787 0.00973914 0.0072551467 0.10473271 -0.010393894 -0.1564712 -0.085241325 0.0966577
-0.051801104 0.07522536 -0.06133313 0.0035987885 0.015331639 0.0044198227 -0.0470759 -0.11230926
0.10337749 -0.14011626 0.16492243 -0.026890816 0.043618925 0.1576757 -0.036494356 -0.011820155
0.058470353 -0.04617601 0.016869191 0.14375696 -0.07269868 -0.1402551 0.117582366 -0.011376517
-0.10022602 0.11484142 -0.010524394 0.040842984 0.0037070122 0.15225412 -0.009265108 0.124607146
-0.05604636 0.008505832 -0.06783246 0.070223674 0.13145985 0.039405312 -0.10269474 -0.066492826
-0.152401 0.1096412 -0.13750717 0.042082384 -0.03800232 -0.020242827 -0.056834668 -0.09670021
0.038676508 0.088970065 -0.11532365 -0.13304079 0.06071291 0.09925882 0.016466217 0.11296855
0.057024993 0.0075818338 0.05775547 0.012121209 -0.08139061 -0.04307975 -0.02178702 0.14926764
-0.020935431 -0.07897956 -0.12354311 -0.026174141 -0.09783157 0.03932225 0.1171752 0.046041824
-0.10926747 0.08961189 -0.07068433 -0.08564421 -0.0050022244 -0.1364298 0.10123614 0.14225224
0.15788387 0.030778864 0.03170316 0.063773684 0.03012921 -0.10478737 -0.0153828105 0.066730656
-0.10538764 -0.04732775 0.10159263 -0.1691887 -0.070240684 0.09105794 0.0063471114 0.020825118
0.05936868 0.080411956 0.096233636 -0.05272909 -0.0097997235 0.10346967 -0.03105735 0.11441232
0.047160365 0.12006251 0.12748328 0.0061428123 -0.014500115 0.1219202 0.104754776 -0.07010654
-0.01898353 -0.04066786 0.10556075 0.017922394 -0.06752235 -0.208573 -0.07105535 0.13109656
-0.08314994 0.13591285 0.12423394 0.01671337 -0.15657337 0.12105484 0.046247758 0.00263826
0.038082357 -0.06614668 -0.043752577 0.16838369 0.07935581 0.08395235 0.114003725 0.07911299
0.13343063 -0.091247305 0.09821203 0.0100962985 0.1487566 -0.0077909436 -0.10633105 0.15884404
-0.03518902 0.04438095 0.078992896 -0.011769443 -0.0705745 -0.18666941 -0.061267994 0.08792692
0.01897333 -0.09172978 0.110285856 -0.063206814 -0.040136352 -0.057095986 0.13748871 0.004425308
-0.102840744 -0.11466855 -0.12021789 -0.0024044446 -0.10601271 0.01089095 0.123920605 0.121890105
-0.01099946 0.03309809 0.07907594 -0.045552652 0.15275379 0.034540948 -0.07768216 -0.03217259
-0.1124396 -0.14729922 0.08475436 -0.16541263 0.083224274 0.13652213 -0.01913205 0.050456904
-0.022051994 -0.024305576 0.044448126 -0.11554287 -0.009360339 0.0077856863 -0.04543919 -0.039309293
-0.08880425 0.026597494 0.021780925 0.048099905 -0.10927604 0.030308785 -0.03587276 0.10892538
0.022571197 -0.018356858 -0.002207794 0.018453954 -0.026165009 0.09860984 -0.15907642 0.05604289
0.098597884 0.026756931 -0.123638 -0.016738156 -0.11416468 -0.103883184 0.08503573 -0.13742273

node_model.0.bias f4 [16]
00000000: 3eb5 2fbd 502d 95bd a2b9 fe3d 8064 9b3d
00000010: e362 c03c 4390 cbbd 40ed f2bd 65cc 08be
00000020: 17e4 2d3e 3ced 0f3e 1637 293d 808a c63d
00000030: 85a4 b73c 78a1 013e fc9b fa3b f20e ebbd
-0.042897455 -0.07284033 0.124377504 0.07587528 0.023484653 -0.09939625 -0.11861658 -0.1335922
0.1698154 0.14055341 0.0413123 0.096943855 0.022417316 0.12659252 0.0076479893 -0.1147746

node_model.2.weight f4 [16, 16]
00000000: fb72 59be 3856 0d3e a5ca 2f3e f82c b03d
00000010: 5db4 7d3e 500b b1bc 5fd4 5f3d fe70 3a3e
00000020: ca19 0f3e 40e1 d0bd 75ee 5bbe d25f 32be
00000030: 65c7 2b3d 9f8e 043d 3c3a b5bb 4aed 3a3e
00000040: 4caf cbbd 4f4d 5abd f3fd 01be 1bdf 11bd
00000050: 9460 1dbe b1aa 90be 4da2 a0bb a65e 15be
00000060: 393d b33e c54e 51be 3b04 ca3b 2f9e 7f3d
00000070: c515 683d c9be 8f3e 6531 193e 5cee efbd
00000080: 479d 5fbe 9055 913d 3b89 093e d318 1dbe
00000090: 465a 0abe 3882 813e 40b9 00be 1ed5 283e
000000a0: 2ec0 93bd 1593 3fbd 1fbb 8f3d d3be cf3b
000000b0: eac7 7f3e 03dc 593d 96c8 8abe 2d3a 8d3c
000000c0: dc76 0cbe 30a3 8fbd f29c 1dbd 1ba5 ca3d
000000d0: 3e65 5a3e ab5c 7fbd d295 4c3e f48f 21be
000000e0: 2b66 9a3e d56a 2bbe f223 293e 45ac 253e
000000f0: 49dd 77be 0cbe 843d 92f2 693e 0c0c 86bd
00000100: 1409 253d aed3 813d be27 353e 5a56 dcbd
00000110: 26e7 493d 086e 38be ef20 45be 8311 f73d
00000120: de72 243e 2897 313e 5212 b33c d78a c43c
00000130: 4eed 80bd cc02 77be 40ea 2a3e a362 ca3d
00000140: 26d6 e2bc 9a0d 1ebe f884 48bc ada3 9cbd
00000150: 7bb1 203e d6ad 46be d5cf debc 9953 9dbc
00000160: be3c 0c3e 2845 673d 0ab3 07be 9bed 6fbd
00000170: 885a b93c 54c2 083e dd9f 37be 6f37 edbd
00000180: 0ee9 58be 40d5 7e3e 998b 263e 87ec 353e
00000190: 91a4 59be f193 3a3e 996b fe3d b12f 2ebe
000001a0: 7467 7b3e 5f21 723d b136 1d3d bfa5 3cbe
000001b0: 4f7b 46be 757d f93d 6fa0 8a3d 3acd 323e
000001c0: d12a 17be f317 783e e58b 4fbd 0f7b 56be
000001d0: 9211 48be 582c 48be c717 a73d b1d9 6a3e
000001e0: 2ab8 783d bb03 053d cc18 34be 4212 9e3e
000001f0: 2c26 b8bd e66a 4abd ee41 84be 9605 11bd
00000200: 3d42 e4bd b149 69bd aba7 f5bd 20a9 023d
00000210: fe3f 02bd 31a4 703d c47a 873e 9d6c f4bd
00000220: 44e8 03be 5af6 663e 6543 f5bd 3951 1abe
00000230: 0b9f cdbb ed4d 173e a486 833e 6e43 7b3e
00000240: 67b0 073d 4bbc db3d 704f 9bbc 6255 463e
00000250: 6e98 9e3c 1a05 c93d 527b 383e 77d0 50be
00000260: 6b82 e83d 1dce 14be 2653 9dbc 3412 9bbe
00000270: 1ba2 713c d0a7 fb3d ac08 6ebe 5cc4 0cbe
00000280: 6210 acbd 2a82 683e 1e81 723d ea32 e9bc
00000290: e4b2 913c 2af9 033e 2c46 9cbd 3bb2 b3bd
000002a0: 8e4c 68be f277 0abd ea4a 903d a61f 263e
000002b0: 115e 473e 6b92 53bd 7d25 cbbd f820 05be
000002c0: dd36 843c 38b1 d43b b326 24bd 376a 8c3e
000002d0: 2a24 a93c d291 95bd 40d9 7e3d 5b27 3b3e
000002e0: 3421 903d d98a 12bd e277 36be 9699 59be
000002f0: 5ef7 583e 671e 5e3e b6c2 923e 1f74 123e
00000300: 4bdc 863c 7c95 3dbe 72e1 07be cba3 773e
00000310: fb51 27be 1277 433e 4a92 c8bd 5553 7c3e
00000320: 4f6c 133e bd9a 533e c8fb 803d c044 33be
00000330: f3ae a13e fabc 9d3e 9981 e4bd 9409 1d3e
00000340: 1eb9 823d e0bf 813e 381f f33d 268b 0f3e
00000350: a194 61be 3e35 14bd da07 a4bd d073 953d
00000360: e5e5 d73d 26b9 50be 1c54 4e3d c615 2f3e
00000370: 87d3 9ebd 7d03 7a3e d49c 14be 587b 183e
00000380: 1c68 e5bd 09e0 853d cea1 4abe abe4 363e
00000390: e85f d8bd 3229 703e 13ff 183e b4ec 94bd
000003a0: 9cac 223e a836 dc3d ce03 98bd 4600 c0be
000003b0: f4af 903d 1661 113e 6a5d 3d3e d5e6 973d
000003c0: 26da b83d 0b05 8ebe 08e0 b1bd c3d4 90bd
000003d0: 28a0 073e b129 e8bd eb16 953d b8ee 0bbe
000003e0: 75bb 873e d40e 3b3d 89e2 6e3e 171a 863e
000003f0: e24c 8cbe a593 4b3e 80d4 2f3e 61b8 4cbc
-0.21235268 0.13802421 0.17167147 0.08602327 0.24775834 -0.02161184 0.054645892 0.18207166
0.13974681 -0.10199213 -0.21477683 -0.17419365 0.041938204 0.032362577 -0.0055306237 0.18254581
-0.099455446 -0.053296383 -0.1269453 -0.03561316 -0.15368873 -0.28255227 -0.0049021603 -0.14586887
0.35007647 -0.20440204 0.006165055 0.062406715 0.056661386 0.28075245 0.14960249 -0.11715385
-0.2183734 0.07096398 0.13431256 -0.15341501 -0.13510999 0.25294662 -0.12570667 0.16487548
-0.0721439 -0.046771128 0.070181124 0.0063398867 0.24978605 0.053188335 -0.2710616 0.017239654
-0.13717216 -0.070135474 -0.038479753 0.098947726 0.21327683 -0.062344234 0.19979027 -0.1577757
0.30156073 -0.16739972 0.16517618 0.16178997 -0.24205507 0.06481561 0.2284644 -0.065452665
0.04029186 0.06339203 0.17690942 -0.10758658 0.049292706 -0.18010724 -0.19250844 0.12063887
0.16059443 0.17342818 0.021859322 0.023991985 -0.06295262 -0.2412216 0.16690922 0.09882095
-0.027690005 -0.15434876 -0.0122387335 -0.07648406 0.15692703 -0.1940225 -0.027198711 -0.019204902
0.13695046 0.056462437 -0.13251892 -0.058576208 0.022626176 0.1335538 -0.17932077 -0.11582839
-0.21182653 0.24886036 0.1626419 0.1776601 -0.21254183 0.18220498 0.124228664 -0.1701038
0.24551183 0.059113856 0.038382236 -0.18422602 -0.19382976 0.12182132 0.067688815 0.174611
-0.14762427 0.24227886 -0.050670523 -0.2094538 -0.19537953 -0.19548166 0.08158832 0.22934605
0.060722508 0.03247426 -0.17587584 0.30873305 -0.08991656 -0.049418353 -0.2583155 -0.035405718
-0.111454464 -0.056955043 -0.11994871 0.03189957 -0.03179931 0.058750335 0.2646085 -0.11934779
-0.12881571 0.22554913 -0.11975745 -0.15070046 -0.006275063 0.1477582 0.2568866 0.24537441
0.033127215 0.107292734 -0.018958777 0.19368508 0.019359794 0.09815426 0.18015793 -0.20392023
0.11353 -0.14531751 -0.019204687 -0.30287325 0.014748122 0.12287867 -0.23245496 -0.1374678
-0.08401562 0.22705904 0.059205167 -0.02846666 0.017785497 0.12888017 -0.07630572 -0.08774229
-0.22685453 -0.033805795 0.07045539 0.1622301 0.19469477 -0.051653307 -0.0991926 -0.13000858
0.016139442 0.0064908527 -0.04007597 0.27424785 0.020647127 -0.07303204 0.062218904 0.18276732
0.07037583 -0.035776947 -0.17819169 -0.21249995 0.21188113 0.21691285 0.28664178 0.14302109
0.016462466 -0.18514055 -0.13269594 0.24183576 -0.16339867 0.1908839 -0.097935274 0.24641164
0.14396785 0.20664497 0.062980235 -0.17506695 0.31578788 0.3080824 -0.11157531 0.15335685
0.063829646 0.25341702 0.11871189 0.14017925 -0.22029354 -0.03618359 -0.0800931 0.0729748
0.10541896 -0.20383129 0.05037318 0.1709815 -0.077551894 0.24415393 -0.1451295 0.14890802
-0.11201498 0.06536872 -0.19788286 0.17860667 -0.10565168 0.23453215 0.14941053 -0.0727171
0.15886158 0.10752612 -0.07422601 -0.3750021 0.070648104 0.14197192 0.18492666 0.074170746
0.090259835 -0.27738222 -0.08685309 -0.07071831 0.13244689 -0.11336077 0.07279762 -0.13665283
0.26510206 0.045668438 0.23328604 0.2619178 -0.27402407 0.1988054 0.17170906 -0.012495131

node_model.2.bias f4 [16]
00000000: 0beb 6fbd a579 19b9 298e 0a3d ce61 5cbe
00000010: 95af 393e 9a09 85bd 0433 0d3e 95cb 5f3c
00000020: 92ed 11be 7d6c a63d 39b6 34bd a084 5dbd
00000030: 5467 28bc 8e12 d43d 213d 143e 8cb5 a5bc
-0.058573764 -0.00014636533 0.03382698 -0.21521685 0.18133385 -0.06495972 0.13788992 0.013659378
-0.14250782 0.08126161 -0.044119094 -0.05408156 -0.010278542 0.103551015 0.14476444 -0.02022817

node_model.3.weight f4 [16]
00000000: 3a3f 983f 81a1 a93f 060e ae3f a155 963f
00000010: 4640 a03f 9379 863f 2420 953f 590e a33f
00000020: 8924 893f 118a 6f3f 5fd4 9c3f 99a7 993f
00000030: 14f4 883f e951 8e3f 6457 7c3f 0e65 a13f
1.1894295 1.3252412 1.359803 1.1744882 1.2519615 1.0505852 1.1650434 1.2738754
1.0714275 0.9357005 1.225231 1.2004272 1.0699487 1.1118747 0.9857085 1.2608964

node_model.3.bias f4 [16]
00000000: e5e8 513e 287d 7cbe 4176 223e 61d2 1ebe
00000010: 6b96 373e 62b7 043e 3dc8 01be 3296 4fbe
00000020: 992b c3bd c178 c23d 2a14 453e 51ba 203e
00000030: 6975 183e 94e5 0bbe 904f 1abd a1da 37be
0.20498998 -0.24657118 0.15865423 -0.1550994 0.17928474 0.1296058 -0.12674041 -0.20272139
-0.095298 0.09495688 0.19245973 0.15696074 0.14888538 -0.13661796 -0.037673533 -0.17954494

edge_model.0.weight f4 [16, 96]
00000000: cd7d 18bd f107 abbd 3e12 313c 9c73 7bbd
00000010: 42c9 0b3d f401 a8bd 9d68 b33d e012 f1bc
00000020: 6a37 28bc 766a a6bd 9ca5 7b3d c3b5 7b3b
00000030: 98e4 7cbd 79ac 963d 5fc3 b93c cb3d 953d
00000040: 4cbe 423d be30 ccbd a079 95bd d169 9b3d
00000050: 2cb8 adbd 58e6 d5bc 9c8e 833d 2586 5c3d
00000060: a965 7d3d 8901 9dbc 9444 fbbb fdb6 063d
00000070: c822 1f3d 914c 643d 0ab1 a83c 45be 0fbc
00000080: c824 c93d cdcd cc3d 4210 65bb 69e3 ca39
00000090: 09af 18bd 9121 41bd 2a85 2f3d 9ed9 803b
000000a0: 2944 5dbc ac7d 6bbd 24f2 0dbc 5ecb c93d
000000b0: 0bbf 383d b85a 77bd 9a6c 743d 070e a7bd
000000c0: 7c6c 9abd 7e03 0bbe eb23 b5bd 262e ce3c
000000d0: a0cd 37bd a8bd a53d 8bc7 813d 7992 243d
000000e0: fe3c 443d b0bf 213c 1ca2 7cbd d4d6 f0bc
000000f0: dad6 84bd 388d b1bc a9f8 923c e346 42bd
00000100: 36d7 30bc fd61 b23d 9f49 2f3d 7d00 b93d
00000110: 5d9d d93d 8a50 a7bc e590 363b 632d cebd
00000120: 6180 a53d 6099 d93d c7a8 97bd 384d 82bc
00000130: acd1 873d fb10 2bbd 203b babd ff33 0f3d
00000140: fd37 e0bd 580e 69bb 68a5 6cbb c160 873d
00000150: a1a5 c73d 98a5 da3b ec3a 223d b4e6 06bd
00000160: b992 a73c e17b aabc 10df 2a3d 2dde 45bd
00000170: 6279 713d 23c2 3a3c 6e74 4f3d 67e1 773d
00000180: e18c 11bc 613c 25bc f6e9 46bd 295d 5b3d
00000190: 86d4 00bb 117c 8dbd e88e adbd 565f d13d
000001a0: 5286 b1bd bce8 963b 9047 c63c d790 413c
000001b0: 4556 99bd 2cbc 193d 8153 1ebd 376a e7bd
000001c0: c29d 9dbc 6858 993d 168f 6c3d bca1 8dbc
000001d0: 1cd6 913d b32e debd ecfe 0c3d 4bc2 53bc
000001e0: 9d8f d5bd 875a 973c d729 7dbc 5b52 56bc
000001f0: 7f91 f03d 4d80 94bd 9a82 dc3d 75ae 133d
00000200: 1532 ed3d 7b1f 1a3d 5a72 18bd 3de9 4dbd
00000210: 2392 2abd 7409 d0bd f2f9 6f3c 5d73 1a3d
00000220: 78a6 6e3d eee1 af3c d722 4bbd b316 f43c
00000230: 832b 683d 9e6d 9bbd e929 80bd 4fb4 69bc
00000240: 5585 d8ba 6c89 8ebc f13e 223d 6c16 2fbd
00000250: 0ee9 ad3c 9ba9 393d f6e6 45bd 32b7 bf3d
00000260: d124 c4bd eca4 74bd 0e17 20bd 0c70 09be
00000270: 05d0 92bd 3f17 993d 5788 c1bc 957b 143e
00000280: 2474 b13d 7af1 52bd a02c 40bc 81ab 233c
00000290: f58d d13d 01a8 b63d 855d 133d a404 503d
000002a0: 4f83 bd3d 3e27 83bd 82ae 16bd 23ba c8bd
000002b0: c7ae 743d d228 893d f15c ffbc 7738 a7bd
000002c0: b88b b73b 0ba2 77bd 0102 283d 032f cc3d
000002d0: c020 083c 1fe2 1b3d 18ed a6bd f294 69bd
000002e0: 21a2 853d 9d7a 873d 567b 853d 54c4 693d
000002f0: 6ac1 993c 6a6b 8dbd 20b3 0a3d dfa8 c9bc
00000300: 84ae 0cbd 1111 b83d 7c9a cebd c0dc 923c
00000310: 3a22 e03d d875 1e3d 997e c1bd 2254 01bd
00000320: 79cb a8bc 540f 7ebc c06b e5bc 4e8b adbc
00000330: 3d41 883d f760 b33d b3bb 70bd 717d 99bc
00000340: edfb 853d ccc5 a43d fedd b4bd 4458 973d
00000350: ef38 b33d 4c79 8d3d 6fe3 11bd 5b0d b3bc
00000360: 17bf afbd e683 2dbd a61c 9fbc 4920 f83c
00000370: 188a 9ebd 5954 d33a 36a7 21bd 6535 2b3e
00000380: f264 373d e6be b03d 96ae d2bc 61b3 003d
00000390: dc32 b0bd 2f03 d33a 7e28 443d e283 86bb
000003a0: 2b38 8e3c 0049 9bbd 5a52 a0bd c9c9 a33c
000003b0: 76cf 1bbd 943f 943d 3e82 953d ca45 c4bd
000003c0: 69a1 ea3c f101 fb3d 503d 7cbd ab71 343d
000003d0: 958a 183c 044e 83bc e452 77bd 3ed0 acbd
000003e0: 2d6d b0bd 6081 7cbd b368 0abe 94dd ab3d
000003f0: f88b e53d 7fe5 e9bd eff8 003d 1a8c 33bd
-0.037229348 -0.08351124 0.010807572 -0.06138955 0.03412748 -0.082034975 0.08760188 -0.029427946
-0.010267118 -0.081257746 0.061437234 0.00384079 -0.06174144 0.07357115 0.022676168 0.07287177
0.047544762 -0.09970234 -0.07298589 0.07588542 -0.084823936 -0.026110813 0.06423685 0.053838868
0.06186453 -0.019165771 -0.0076680873 0.032889355 0.03885153 0.055737082 0.020592231 -0.008773391
0.098214686 0.10000191 -0.0034952317 0.00038697876 -0.0372763 -0.047151152 0.042851605 0.003932192
-0.01350502 -0.057492897 -0.008663688 0.09853242 0.045104068 -0.06038925 0.059673883 -0.081569724
-0.07540223 -0.13575551 -0.088447414 0.02516849 -0.044873834 0.08092815 0.06336888 0.04017875
0.04790973 0.009872362 -0.061678037 -0.029399313 -0.06486292 -0.021673784 0.017940836 -0.047430884
-0.010793498 0.08710096 0.04279482 0.09033296 0.10625718 -0.020424146 0.002785736 -0.100672506
0.08081127 0.10624957 -0.074052386 -0.015905961 0.066317886 -0.04176424 -0.090933084 0.034961697
-0.10948179 -0.0035561528 -0.0036109332 0.06610251 0.09748388 0.0066725723 0.039606974 -0.03293486
0.020455705 -0.020811023 0.041716635 -0.048307586 0.05895365 0.011398825 0.050648145 0.060517695
-0.008883686 -0.010085196 -0.048562966 0.05355564 -0.0019657924 -0.069084294 -0.08474523 0.10223262
-0.08668198 0.004605381 0.024204046 0.011814318 -0.07487158 0.03753297 -0.038653854 -0.11299556
-0.019240264 0.07487565 0.057753645 -0.017289035 0.07120916 -0.10848751 0.0344228 -0.012924741
-0.10427783 0.018475784 -0.01545187 -0.0130811585 0.11746501 -0.07251034 0.10767098 0.036055047
0.11581818 0.03762768 -0.03721843 -0.05027126 -0.041643273 -0.10158053 0.014646994 0.037707675
0.058264226 0.021470036 -0.049593773 0.02979598 0.05668212 -0.07589267 -0.06257994 -0.01426418
-0.0016519228 -0.017399512 0.039610807 -0.042745993 0.021229293 0.045327764 -0.048315965 0.093611136
-0.09577335 -0.059727594 -0.039084487 -0.13421649 -0.07168583 0.07475137 -0.023624582 0.14500268
0.0866473 -0.05149982 -0.011729389 0.00998962 0.10232154 0.08918763 0.03597786 0.050785676
0.09253561 -0.06403969 -0.036787517 -0.09801128 0.059736993 0.06697239 -0.031172248 -0.08165067
0.0056013726 -0.06045727 0.041017536 0.09969904 0.008308589 0.038057443 -0.08150691 -0.05702681
0.06525064 0.066151835 0.06517665 0.057072 0.018768985 -0.06905253 0.033862233 -0.024616657
-0.03434612 0.0898763 -0.10088059 0.017927527 0.10944028 0.038686603 -0.09447975 -0.031574376
-0.020604836 -0.015506584 -0.02800548 -0.02118459 0.06653068 0.08758729 -0.058772754 -0.018736573
0.06542192 0.08045539 -0.08831404 0.07389882 0.087510936 0.06907901 -0.03561729 -0.021856954
-0.08581369 -0.042362116 -0.01942284 0.030288832 -0.07741183 0.001612316 -0.039466105 0.16719587
0.044774003 0.08630161 -0.025718015 0.03142107 -0.08603451 0.0016098971 0.04789018 -0.004105077
0.017360767 -0.07582283 -0.07828207 0.01999368 -0.038039647 0.07238689 0.07300232 -0.09583624
0.02864142 0.1225623 -0.06158191 0.044053715 0.009310384 -0.016028412 -0.060381785 -0.084381565
-0.08614574 -0.06164682 -0.13516502 0.08391872 0.112083375 -0.11420726 0.0314874 -0.043834783

edge_model.0.bias f4 [16]
00000000: b740 21bd 0c15 1cbd 042f 38bd 08cd cf3d
00000010: 3ca6 ffba bc99 b03d a716 843d 87af cbbd
00000020: 8fa0 413d b124 4c3d 81fe 8bbd f0c3 9f3d
00000030: 2c87 24bc a13c 6fbd 50b1 95bd fb6d 6b3c
-0.039368358 -0.03810601 -0.044966713 0.101465285 -0.0019504498 0.086230725 0.06449633 -0.099455886
0.04727226 0.04983968 -0.06835652 0.07801044 -0.010041993 -0.05840743 -0.0730921 0.014369483

edge_model.2.weight f4 [16, 16]
00000000: de22 2cbe 0a05 5fbe da23 31bd 7492 73bd
00000010: 3dcc 0dbd 7df8 28be 7a10 9c3d 4aa6 03be
00000020: 4be5 793e bbcf 003c 0cbc 10bb ae60 cfbd
00000030: ebf9 9d3d 2641 2cbe 8217 92bd da31 04be
00000040: 00fd 823d 58f4 debd f110 983d dd69 253e
00000050: 23cb e23d 12eb 6cbe 597b 113e ca22 43be
00000060: f103 a1bb dfdb f7bd b5bb 3e3e 9b7f e9bd
00000070: c72e e93c c002 0ebe c0ff 193e dd2e c93d
00000080: fe0c 803d a908 a33d 7f2c 8b3d 6119 76be
00000090: d37e 46be 476c 713e 820d 3c3d 7f02 63bb
000000a0: 3939 3ebd 6707 04be 672b a23d 714a d43c
000000b0: 3991 38be 94ca 893c 4492 91bc 5ca5 423e
000000c0: de3b 073d 88d0 45bb 16e5 943e 56a6 ef3d
000000d0: 8af8 bbbc 8ba4 513d 55fb 67be 8a05 52be
000000e0: 0138 11be 2de3 8cbe 0f0c 803c 480d eabc
000000f0: ada3 7bbc 9335 83be 00b8 193e 5b9c 7539
00000100: cd1a 793e 16c3 2bbe 858d 69be 14d3 223e
00000110: e548 eabd 5b99 043e de67 873e 1398 6e3e
00000120: db6b 80be c7d5 463e d7a3 babd ce67 273e
00000130: b2e9 7b3c 38c3 65be 8adf 37be 27f8 4e3e
00000140: c1f3 3e3d cf7f 143e eece 7b3d 9d3b 333e
00000150: 8702 71be f421 54be 76a2 79be d134 5d3d
00000160: 3d41 823e 3125 633d 5f94 7ebe 4131 0b3e
00000170: 2d31 3d3e 5f98 723e 9301 5cbe 84ca 86bc
00000180: f449 f43d 1b96 90bd b906 9e3d 7a16 433e
00000190: 8f3e 2fbd d37d 043c ffb1 293e 513e 13bd
000001a0: f845 4fbe e243 113e 3c4b 803e 764f 433e
000001b0: 1d83 6ebe c977 31be daa2 fbbd c37c 1ebe
000001c0: e1fb 71be 0d50 d63b f0a7 98bd c185 a0bc
000001d0: 9be6 a83c 77db 6dbe beaa 5dbe 153c 75be
000001e0: ffa1 18be befc 2c3e 892f 053e 8f79 7cbd
000001f0: 3b9b 09be f704 32be 8bcb 63be c497 e03d
00000200: 5f1a 013e 1cb0 af3b e141 18be c1b7 6b3e
00000210: 324c 463e dc5f 78be ccd8 f23d 3d38 ac3d
00000220: ff53 55ba 3093 173e 1961 b5bd 731b aebd
00000230: 7086 023e 4eee 2abd c873 d1bd cf6d ae3d
00000240: 12c9 f33c 5a8b 3abe 9176 c33d 2010 f3bd
00000250: b076 403e 76f3 513e a6a5 8b3d 642c 653e
00000260: b2e7 3ebe 5140 7dbc bd49 6a3e fc29 84bd
00000270: af9e 5b3e f7fb 39be ab7c 413e 436d 05be
00000280: 4ee1 afbd 2bb1 91bd 02f0 523e cfb6 0e3d
00000290: a648 1f3e 926b 78be c7a5 97bd ab37 5fbe
000002a0: a3a8 543d 0019 503c 05df 2ebe b9b3 a23d
000002b0: 3e1e 16be 7705 37be 0e63 d8bd 6af8 11bd
000002c0: a2d8 443e e189 c5bd dacb 273e 29a8 f13d
000002d0: bf2d 2ebe 2484 57be 83bc ce3c 6dcb 9abd
000002e0: bb04 b53d 99df 06be 2da1 6abd c46f e9bd
000002f0: cbe8 8f3e e463 5bbe 8940 8fbd de35 073e
00000300: 984f 3b3e d633 11bd e32f b9bd e9c6 823e
00000310: c313 61bd a811 ec3d fd3a 5fbe 3863 5ebd
00000320: c9f8 40be da52 88bd bc3d bb3d 5507 7a3e
00000330: b9d1 2b3e 60df 57be d857 803b b6f4 febd
00000340: 0f03 3b3e 2a4c c5bd e81a 9a3d 9cf3 ad3d
00000350: 8da9 36b9 e812 68bd 784c 87be a29a 7f3e
00000360: 83f7 293e 28e0 d6bd b11c 6b3c ff79 4a3c
00000370: 5750 6fbe b4a9 b63d a21c 4c3b 4120 1fbd
00000380: 5000 343e b4f9 4a3e e54e 82be d79a 49bd
00000390: e502 b93c a00e 0d3e 19ec e5bd 9c26 103e
000003a0: c377 d9bd 356c c63d db11 6f3e b982 58bd
000003b0: 3a52 d53d 21de 28be 1013 62be e322 44be
000003c0: 4975 cdbd 460e 623e e278 5a3d ec9e 69be
000003d0: dd57 7d3e a2e2 c53d 1504 163e c2c9 983d
000003e0: ca9a 97bd dda9 e8bd 85d3 393d 5ddf d43d
000003f0: 5720 5abd c2c6 57be 05ad 243d 67f8 63bd
-0.16810176 -0.21779266 -0.04324708 -0.05946584 -0.034618605 -0.16501041 0.0762033 -0.12856403
0.24403875 0.007862027 -0.002208474 -0.10125862 0.07713684 -0.16821727 -0.0713339 -0.12909642
0.06395912 -0.108864486 0.07425106 0.16153665 0.110739015 -0.23136547 0.1420721 -0.1905624
-0.0049138 -0.12102484 0.18626292 -0.11401292 0.028464688 -0.13868237 0.15038967 0.098233916
0.06252478 0.07960636 0.06795596 -0.24033119 -0.19384317 0.23576461 0.04591132 -0.003463894
-0.04644129 -0.12893449 0.079184346 0.025914403 -0.18024148 0.01682023 -0.01776994 0.19008392
0.03301608 -0.0030184109 0.2908103 0.11701648 -0.022945661 0.05118231 -0.2265447 -0.20509925
-0.1418152 -0.2751707 0.01563075 -0.028570786 -0.015358848 -0.2562681 0.15011597 0.00023423268
0.2432663 -0.16773638 -0.22807892 0.15900832 -0.11439685 0.12949125 0.26446432 0.23300199
-0.25082287 0.19417487 -0.09113281 0.16348192 0.0153755415 -0.22437751 -0.17956367 0.2021185
0.04661918 0.1450188 0.06147664 0.1750321 -0.2353612 -0.20716077 -0.2437838 0.054005448
0.25440398 0.05545539 -0.24861287 0.13593008 0.1847579 0.23690937 -0.21484976 -0.016453989
0.11928168 -0.0705988 0.07716126 0.19051543 -0.04278427 0.008086639 0.16571806 -0.0359481
-0.20241535 0.14186051 0.250574 0.1907328 -0.23292203 -0.1733085 -0.12286921 -0.1547728
-0.2363124 0.0065403045 -0.074539065 -0.019595029 0.020617774 -0.2322825 -0.21647164 -0.239487
-0.14905547 0.16893288 0.13006414 -0.061639365 -0.13438122 -0.17384706 -0.22245614 0.10966447
0.12607716 0.00536157 -0.14868881 0.23019315 0.19365004 -0.24255317 0.11857757 0.08409164
-0.00081378216 0.14802241 -0.088564105 -0.08501329 0.12746596 -0.04173117 -0.10227162 0.08517038
0.029758964 -0.18217221 0.09544099 -0.1186831 0.18795276 0.20503029 0.06818704 0.22380215
-0.18643072 -0.015457229 0.22879691 -0.064533204 0.21447252 -0.18162523 0.18895213 -0.13029961
-0.08587895 -0.0711387 0.20599368 0.03484231 0.15555057 -0.24259785 -0.074046664 -0.2179858
0.051918637 0.012701273 -0.17077263 0.079444356 -0.14659974 -0.17873178 -0.10565768 -0.035637297
0.19223264 -0.09645439 0.16386357 0.11799652 -0.17009638 -0.21046501 0.025236374 -0.07558332
0.08838793 -0.13171233 -0.057282615 -0.11398271 0.28107294 -0.21424824 -0.06994731 0.13204142
0.18292081 -0.035449825 -0.09042337 0.2554238 -0.054950487 0.11526805 -0.21799846 -0.05429384
-0.18844904 -0.06656428 0.09142634 0.2441686 0.16779222 -0.21081305 0.003916722 -0.12449019
0.18262886 -0.09633668 0.07524663 0.084937304 -0.00017420035 -0.056658655 -0.2642553 0.24961331
0.16598324 -0.10491973 0.014350102 0.012358188 -0.23370491 0.08919087 0.0031144996 -0.03884912
0.17578244 0.19821817 -0.25450817 -0.049219932 0.022584388 0.1377511 -0.11226673 0.14077228
-0.10618546 0.096886076 0.23346655 -0.05285904 0.10416074 -0.16490985 -0.22077584 -0.19153933
-0.10032136 0.22075757 0.05333794 -0.2281453 0.24740548 0.096623674 0.14649995 0.07460357
-0.074025705 -0.11360524 0.045367736 0.10394166 -0.053253498 -0.21071914 0.040204067 -0.055656817

edge_model.2.bias f4 [16]
00000000: e90e 76bd fdff 0cbd b72c 5cbd 090a 3a3e
00000010: 75b5 143e cf4e 0f3e 08ab 1bbe f714 7fbd
00000020: 4034 87bd 0401 273e f4c7 36bd c884 5cbe
00000030: 1124 1c3e 34cb a2bd 77d9 ec3d b1ce 313d
-0.060072813 -0.034423817 -0.05375358 0.1816789 0.14522345 0.13994907 -0.15201962 -0.062275853
-0.06601763 0.16308981 -0.044624284 -0.21535027 0.15248133 -0.07948914 0.115649156 0.043410007

edge_model.3.weight f4 [16]
00000000: 2ee5 813f 7f46 813f 0b44 843f c056 893f
00000010: b651 7e3f 4f2a 833f e17f 7c3f f194 7e3f
00000020: 0add 843f 285e 7d3f 3ab1 833f ea54 813f
00000030: f422 813f 1884 7f3f 8bad 7c3f c445 803f
1.0148065 1.0099639 1.0333265 1.0729599 0.9934343 1.0247287 0.9863263 0.99446017
1.0379956 0.98971796 1.028846 1.0104039 1.0088792 0.99810934 0.98702306 1.0021291

edge_model.3.bias f4 [16]
00000000: 0358 ef3c f528 773c ff59 b6bb 1988 02bd
00000010: 2ec0 7abb c3dd db3c dbb7 853b 82d4 223b
00000020: ee92 1c3c 3ba8 5b3b 6368 a6bc 4495 253c
00000030: cb62 413c a4c5 c13c a97e 193a b791 a6bb
0.029216772 0.0150854485 -0.0055649276 -0.031868074 -0.003826152 0.026839143 0.004080755 0.0024845903
0.009556515 0.0033517021 -0.020313447 0.0101063885 0.011803339 0.023653813 0.00058553607 -0.0050832885

node_decoder.0.weight f4 [1, 16]
00000000: 07c2 ea3e 30a8 d0be 7d4f db3e 0fa5 cabe
00000010: ae4a ca3e df70 1b3e 63a2 52be 30bd a2be
00000020: fa14 e7bd a545 b53d b20b b03e 77e8 803e
00000030: 846a 433e cfcc b3be 0cda ca3c 3055 d7be
0.45851156 -0.40753317 0.42834082 -0.39579055 0.395101 0.15179776 -0.20569758 -0.31784964
-0.11283298 0.08851174 0.34383923 0.25177357 0.19083601 -0.35117194 0.024762176 -0.4205718
