tmp/tmp4model300.pt (torch, 23679 bytes, 25 tensors)

node_encoder.0.weight f4 [16, 5]
0	0x3d6fd071	0.058548395
1	0x3d6dd021	0.058059815
2	0xbebb174c	-0.36541212
3	0xbe84cd97	-0.25938103
4	0xbee1adba	-0.44077855
5	0xbed82743	-0.42217454
6	0x3ee0931a	0.4386223
7	0x3eb7d016	0.35900944
8	0x3dd93628	0.106060326
9	0x3ed87ce2	0.42282778
10	0xbe25f82a	-0.16207948
11	0xbe8008ce	-0.25006717
12	0x3ec325fe	0.38114923
13	0xbcc20b10	-0.023686916
14	0x3da4d2ec	0.08048043
15	0x3e754002	0.23950198
16	0x3e57da5a	0.21079388
17	0xbe831be0	-0.25607204
18	0xbe311ada	-0.172954
19	0xbed35163	-0.4127303
20	0x3c7e3382	0.01551521
21	0xbe2c6981	-0.16837122
22	0x3dc0476f	0.09388625
23	0x3caa7180	0.020806074
24	0x3eb7bc83	0.3588601
25	0x3ccc2aa2	0.024922673
26	0x3e59cd5c	0.21269745
27	0x3df441b9	0.11926598
28	0x3ecb26da	0.3967808
29	0xbe3c9f00	-0.18420029
30	0x3ebd392d	0.36957684
31	0x3e9f8907	0.3115923
32	0xbe328394	-0.17433006
33	0x3e8c5ae8	0.27413106
34	0x3ed5b768	0.4174149
35	0xbe7e6e80	-0.2484684
36	0xbe30f2a6	-0.17280063
37	0x3e9ee466	0.3103363
38	0x3eb8a024	0.36059678
39	0x3de70fa9	0.11282284
40	0x3e0af89d	0.13571401
41	0x3ea32dfe	0.31871027
42	0x3ec7ee67	0.39049074
43	0xbe90d0b5	-0.2828423
44	0xbe537277	-0.20649134
45	0x3ecb75b9	0.39738253
46	0x3e8865d0	0.26640177
47	0xbe3dee18	-0.18547857
48	0xbe1b622a	-0.15174165
49	0x3ee552b0	0.44789648
50	0xbe8ed4be	-0.27896684
51	0x3e8b7e2c	0.272447
52	0x3e89829f	0.26857468
53	0xbedb98ac	-0.42889917
54	0xbee49220	-0.44642735
55	0x3e13b937	0.14426123
56	0x3e565c7b	0.20933716
57	0x3ec9ae70	0.39390898
58	0x3d61c6c0	0.055121183
59	0x3e9087ae	0.28228515
60	0xbeb65244	-0.3560964
61	0x3e6a2ab6	0.22867855
62	0xbedc94c6	-0.43082255
63	0x3e95293c	0.29133022
64	0x3da153c9	0.07877309
65	0x3e8f477e	0.27984232
66	0x3e55f35f	0.2089362
67	0xbea2dcbe	-0.31809038
68	0x3b982e00	0.0046441555
69	0x3d918f97	0.07107466
70	0x3d7cb8c9	0.061699662
71	0xbec77b60	-0.38961315
72	0xbe76526c	-0.24054879
73	0xbe57b7eb	-0.21066253
74	0xbe7b2970	-0.24527526
75	0x3ebea456	0.37234753
76	0x3e7320af	0.23742937
77	0x3e4967b3	0.19668464
78	0xbe0948c2	-0.13406661
79	0xbec35bae	-0.38155884

node_encoder.0.bias f4 [16]
0	0x3dcd90bf	0.10037374
1	0x3ece89fd	0.40339652
2	0x3e4bb294	0.19892341
3	0xbec598cd	-0.3859314
4	0xbd338dfa	-0.04383657
5	0x3b95befb	0.004569886
6	0x3e8f59f1	0.27998307
7	0x3e45f5ef	0.19332097
8	0xbea24d42	-0.31699568
9	0xbecd4399	-0.40090635
10	0x3e09233f	0.13392352
11	0x3e5b426b	0.21412055
12	0x3e5f7701	0.2182274
13	0x3e9f767d	0.31145087
14	0x3ec914ce	0.39273685
15	0xbe47d123	-0.19513373

node_encoder.2.weight f4 [16, 16]
0	0xbe819e48	-0.25316072
1	0x3e075dc7	0.13219367
2	0x3e71a79e	0.23599097
3	0xbe3ee080	-0.18640327
4	0xbdf41235	-0.11917535
5	0x3e5d4b32	0.21610716
6	0x3e4b23a4	0.19837815
7	0xbcda7bfe	-0.026670452
8	0xbe07691e	-0.13223693
9	0x3d605e7e	0.054777615
10	0xbe706608	-0.23476422
11	0xbdc191e9	-0.09451658
12	0xbd06d32b	-0.03291623
13	0xbd75310e	-0.059861235
14	0x3da5e40b	0.08100136
15	0x3b867f62	0.0041045407
16	0xbe5343e0	-0.20631361
17	0xbca2a635	-0.019854644
18	0x3d1cb023	0.038253915
19	0x3e19cb8c	0.15019053
20	0x3c58b455	0.013226588
21	0xbda10c11	-0.078636296
22	0x3dcf1d27	0.10112982
23	0x3e0378b5	0.12839015
24	0x3d72a85e	0.0592426
25	0xbe15e82f	-0.14639352
26	0x3da3cb0e	0.07997714
27	0x3d35e8a7	0.044411328
28	0x3e101bca	0.140731
29	0xbd85dc98	-0.065362155
30	0x3a8550f6	0.0010171223
31	0x3e10f02c	0.14154118
32	0xbd139ad6	-0.036036335
33	0x3e03d229	0.12873138
34	0xbd427083	-0.04747058
35	0x3e5c2d87	0.21501742
36	0x3acce7b8	0.0015633022
37	0xbd6fe039	-0.058563445
38	0x3dae77cc	0.08518943
39	0xbca4fd3a	-0.02014028
40	0x3e4541f8	0.19263446
41	0xbcef2953	-0.02919451
42	0x3e251689	0.16121878
43	0xbd8c147d	-0.06839845
44	0x3ca004b4	0.019533493
45	0x3da30c69	0.079613514
46	0xbe7a33e3	-0.24433856
47	0x3d29f646	0.04149463
48	0x3e1d5af0	0.15366721
49	0x3dad30a2	0.084565416
50	0xbadd73eb	-0.0016895508
51	0xbc64f20c	-0.013973724
52	0x3db6362c	0.08897051
53	0x3d862267	0.065495305
54	0xbe04c51d	-0.12965818
55	0x3dbe612f	0.0929588
56	0xbe706763	-0.23476939
57	0x3c74a286	0.014931327
58	0xbdd1db44	-0.102469
59	0xbdf32dc1	-0.11873961
60	0xbe4cd646	-0.20003614
61	0x3e44bc38	0.19212425
62	0x3c7c75f6	0.015408983
63	0x3bb80276	0.0056155277
64	0xbd9c8ee0	-0.07644439
65	0xbdc62573	-0.096751116
66	0xbe37f1d4	-0.17963344
67	0x3c78880e	0.015169157
68	0xbe333283	-0.17499737
69	0xbdf4f8ae	-0.119614944
70	0x3df8e93f	0.12153863
71	0x3e669144	0.22516352
72	0xbda18242	-0.07886173
73	0xbe8106a8	-0.2520039
74	0x3e6de745	0.23232754
75	0x3e10738f	0.14106582
76	0x3e1c72a1	0.15278102
77	0xbd7041ec	-0.058656618
78	0xbd6f052d	-0.058354545
79	0x3c4b284f	0.012399747
80	0x3c6301d3	0.013855415
81	0xbc114399	-0.008866214
82	0xbdeadcfb	-0.1146793
83	0x3e3971c6	0.18109807
84	0x3dceb957	0.100939445
85	0xbd00b533	-0.031422805
86	0xbe716619	-0.23574103
87	0xbde2a257	-0.1106612
88	0xbdb0f0b9	-0.08639664
89	0xbdbf25c0	-0.09333372
90	0x3d8af750	0.06785452
91	0xbd4d8c9e	-0.05018293
92	0x3d33fa10	0.04393965
93	0xbe41f07f	-0.18939398
94	0xbd3936eb	-0.04521839
95	0x3ddb0599	0.10694427
96	0x3e7da16e	0.24768612
97	0xbe5ea463	-0.21742396
98	0x3d0011b7	0.031266894
99	0x3e06387e	0.13107488
100	0xbcd58618	-0.026064917
101	0x3d59afaa	0.053146042
102	0x3e1d12c7	0.15339194
103	0xbe79ed8a	-0.2440702
104	0x3e0bce95	0.13653024
105	0xbe67fe03	-0.22655492
106	0x3d0d1333	0.034442138
107	0x3e1825e1	0.148582
108	0xbde8ee00	-0.1137352
109	0x3a5e02b6	0.0008469032
110	0xbe60f6f6	-0.21969208
111	0xbc967bd6	-0.018369596
112	0x3defbc13	0.11705794
113	0x3dd997d4	0.10624662
114	0x3d94d222	0.07266642
115	0xbd22c31b	-0.03973685
116	0xbde76faa	-0.11300595
117	0x3e406f2c	0.18792409
118	0x3d56902f	0.052383598
119	0x3dbedd7a	0.09319587
120	0x3de315e1	0.110881574
121	0xbdd00fb5	-0.10159246
122	0xbcf4fbfb	-0.02990531
123	0x3e63c2f1	0.22242333
124	0x3e51b5d5	0.2047952
125	0xbe8a31ec	-0.26991212
126	0xbe45c090	-0.19311738
127	0xbdaaaa62	-0.08333279
128	0x3da68fae	0.081328735
129	0xbe070536	-0.13185582
130	0x3df3a7d0	0.11897242
131	0xbe55ab3d	-0.20866103
132	0xbc809bcb	-0.015699288
133	0x3e20580c	0.15658587
134	0xbd7a66a8	-0.061133057
135	0xbd86ca4f	-0.06581556
136	0x3d41f9bc	0.047357306
137	0x3e5a24fe	0.21303174
138	0x3d47198c	0.048608348
139	0x3bb1d8dd	0.0054274634
140	0x3c3a4145	0.0113681005
141	0xbe52f52f	-0.20601343
142	0xbdd1a90b	-0.102373205
143	0x3e799816	0.24374422
144	0xbdfa0167	-0.12207299
145	0x3dfe0082	0.124024406
146	0xbdd8af3b	-0.105802976
147	0x3dff23d9	0.12458009
148	0x3de6dc9d	0.112725474
149	0x3e36d3ae	0.17854187
150	0xbe0f965b	-0.140222
151	0xbd429422	-0.04750455
152	0xbe3b8c24	-0.18315178
153	0x3dba181b	0.09086629
154	0xbe09d1a8	-0.13458884
155	0x3cc2b727	0.023768974
156	0xbe2a546e	-0.1663377
157	0xbd152533	-0.03641243
158	0xbe635558	-0.22200525
159	0xbe5a76d7	-0.21334396
160	0x3ddf4c81	0.10903264
161	0x3c406124	0.01174191
162	0xbdc59ec7	-0.09649425
163	0xbdb7c929	-0.08973915
164	0x3e518166	0.20459518
165	0x3d1b5484	0.037922397
166	0x3d9a4618	0.075329006
167	0x3e78f26d	0.24311228
168	0x3e7f851e	0.24953124
169	0xbd463ce1	-0.048397902
170	0x3e06b649	0.13155474
171	0xb92bd907	-0.0001638868
172	0xbe383e5e	-0.17992541
173	0x3e2fe52d	0.17177267
174	0xbcede834	-0.029041387
175	0xbc6326a1	-0.01386419
176	0x3d2efd3e	0.04272198
177	0x3e3d07f3	0.18460064
178	0xbd5b65d9	-0.053563926
179	0xbd33093c	-0.04370998
180	0x3dacdc1b	0.08440419
181	0x3d131bb0	0.035915077
182	0x3dd61d5f	0.10454821
183	0x3e66bf45	0.22533901
184	0xbda56d20	-0.080774546
185	0x3e2a7bff	0.16648863
186	0xbe5a736f	-0.21333097
187	0x3cbe5130	0.023232073
188	0x3d860357	0.06543606
189	0xbe7a2694	-0.24428779
190	0xbe821c26	-0.254121
191	0xbd9b5964	-0.07585409
192	0xbd204ac5	-0.039133806
193	0x3e2a0fec	0.16607636
194	0xbdaaa925	-0.08333043
195	0x3e4e6670	0.20156264
196	0xbd9436c1	-0.07237006
197	0x3da2e6a6	0.07954149
198	0x3e3a6aa3	0.18204741
199	0x3e19fcdd	0.15037866
200	0xbdaff1b6	-0.085910246
201	0x3dd1b89e	0.10240291
202	0x3daeb944	0.0853143
203	0xbe450417	-0.19239841
204	0x3e3227d2	0.17398003
205	0x3e7422af	0.23841356
206	0x3cc2d9f9	0.023785578
207	0x3e860231	0.26173547
208	0xbc4d2bdc	-0.012522664
209	0x39a1fedf	0.00030898207
210	0xbd0c29b6	-0.034219466
211	0x3d87a043	0.06622364
212	0x3dda9025	0.10672025
213	0xbe3d37be	-0.18478295
214	0xbd9eb7f9	-0.07749934
215	0xbe404db1	-0.18779637
216	0xbd0dce56	-0.034620605
217	0x3d99e45b	0.075142585
218	0xbe13536f	-0.14387296
219	0x3d459d0b	0.04824547
220	0xbe6dd284	-0.23224837
221	0x3dd9bf5f	0.10632204
222	0x3e080bf9	0.13285817
223	0xbd965160	-0.0733974
224	0x3e3c9fe2	0.18420365
225	0xbd4d7ba4	-0.05016674
226	0xbe4bdb20	-0.19907808
227	0xbe457983	-0.19284634
228	0xbe788f76	-0.24273476
229	0x3d8af5ff	0.06785201
230	0x3d13c08e	0.036072306
231	0xbe5aa2c2	-0.2135115
232	0xbd559585	-0.052144546
233	0x3cd43bd4	0.025907435
234	0xbbbeaba1	-0.0058187996
235	0x3dee1ec6	0.11626963
236	0x3e834e9c	0.25645912
237	0x3e20777a	0.15670577
238	0x3dbc3287	0.09189325
239	0x3e0f29c4	0.13980776
240	0xbe072523	-0.1319776
241	0xbdb42c51	-0.08797515
242	0xbdd5ca13	-0.10438933
243	0x3d13e291	0.036104742
244	0x3d89818e	0.06714164
245	0x3d89479c	0.067031115
246	0xbe17a912	-0.14810589
247	0xbe7338fd	-0.23752208
248	0xbd720652	-0.05908806
249	0x3e01f4b0	0.12690997
250	0xbe5e46cd	-0.21706696
251	0x3de790ce	0.11306916
252	0x3dca8ddd	0.098903395
253	0xbe066a7f	-0.13126563
254	0x3e481898	0.19540632
255	0xbe047912	-0.1293681

node_encoder.2.bias f4 [16]
0	0x3de3235c	0.11090729
1	0xbbc33065	-0.005956697
2	0xbe4776a2	-0.19478849
3	0xbdd784cb	-0.10523375
4	0x3df3fdd5	0.11913649
5	0xbe55443c	-0.2082681
6	0x3e5997f9	0.21249379
7	0xbdd73d16	-0.10509698
8	0xbdb7a17f	-0.0896635
9	0xbe51def2	-0.20495203
10	0xbe4df389	-0.20112433
11	0xbe76d099	-0.24103011
12	0x3d977bd9	0.07396669
13	0x3e548635	0.20754321
14	0x3d919808	0.07109076
15	0x3e559073	0.20855884

node_encoder.3.weight f4 [16]
0	0x3f7bfb34	0.9843018
1	0x3f814f3a	1.0102303
2	0x3f80bed6	1.0058239
3	0x3f7e39aa	0.9930674
4	0x3f7c946a	0.9866396
5	0x3f802b66	1.0013244
6	0x3f7e4695	0.9932645
7	0x3f7daf7f	0.9909591
8	0x3f7f0234	0.99612737
9	0x3f7d4f4c	0.9894912
10	0x3f7bbb60	0.98332787
11	0x3f809440	1.0045242
12	0x3f7dcb56	0.9913839
13	0x3f7afa47	0.9803814
14	0x3f7fb6d5	0.99888355
15	0x3f79ef03	0.9763033

node_encoder.3.bias f4 [16]
0	0xbc45c93b	-0.012071903
1	0x3b8505f9	0.00405955
2	0xbb76bd34	-0.0037649395
3	0x3b842b48	0.00403348
4	0xbc291c23	-0.01032165
5	0xbb042fc3	-0.002017007
6	0xbbc15d14	-0.0059009884
7	0xbc80ea97	-0.015736861
8	0xbc2b4311	-0.010453002
9	0x3c543809	0.012952813
10	0x3a0f79f2	0.00054731884
11	0xbc69959d	-0.014256862
12	0xbba3d825	-0.0050001317
13	0x3ad5fb5b	0.001632552
14	0xbc2cb954	-0.010542233
15	0x3c44d74b	0.0120142205

edge_encoder.0.weight f4 [16, 4]
0	0xbef260b2	-0.47339398
1	0xbecee0e7	-0.40405962
2	0x3edc2b7a	0.4300192
3	0x3deba976	0.115069315
4	0x3ea4212d	0.3205656
5	0x3e613a3c	0.21994871
6	0x3eb5214e	0.35376972
7	0xbe6e9190	-0.23297715
8	0x3ef0c480	0.47024918
9	0xbe80e498	-0.25174403
10	0xbf0cd0ce	-0.5500611
11	0x3e368f3d	0.17828079
12	0xbeb11262	-0.34584337
13	0x3dd911fb	0.105991326
14	0x3eee305c	0.4652127
15	0xbe514ddc	-0.20439857
16	0xbe419648	-0.18904984
17	0xbcb02520	-0.021502078
18	0xbdb10550	-0.086435914
19	0x3d05d710	0.032675803
20	0xbd78a506	-0.060704254
21	0x3ef49294	0.4776808
22	0x3e881f1e	0.2658624
23	0xbe47421a	-0.1945881
24	0xbe24b551	-0.16084792
25	0x3cff5fae	0.031173553
26	0x3e931b9b	0.28732
27	0xbe599a04	-0.21250159
28	0xbe40823b	-0.18799679
29	0x3ec1c4b6	0.3784539
30	0xbe6aca63	-0.22928767
31	0x3e874067	0.26416323
32	0xbedbaaf2	-0.42903858
33	0xbe8b26e4	-0.2717811
34	0xbda17f67	-0.07885628
35	0xbef46bae	-0.47738403
36	0x3eb1c8f3	0.34723625
37	0xbe7f9d99	-0.24962462
38	0x3ebce356	0.36892194
39	0xbc6a7e0f	-0.014312281
40	0x3e4126c6	0.18862447
41	0x3e814275	0.25246015
42	0xbe92a7d4	-0.28643668
43	0xbe532b6a	-0.2062203
44	0x3df5c361	0.12000156
45	0xbdf2343b	-0.118263684
46	0x3f09a7ab	0.53771466
47	0xbef75db0	-0.48313665
48	0xbed32abe	-0.41243547
49	0xbd940fb3	-0.07229557
50	0xbeaa613c	-0.3327731
51	0xbe855533	-0.26041564
52	0x3ebb38ef	0.36566874
53	0x3bce8153	0.0063020377
54	0x3ec7aec7	0.39000532
55	0x3ed101c4	0.4082166
56	0x3e8f5cab	0.28000388
57	0x3ecafa83	0.3964425
58	0xbdfd3f0c	-0.12365541
59	0xbeefd100	-0.46839142
60	0xbe77311c	-0.24139827
61	0xbeec39a7	-0.46137735
62	0x3dac878a	0.084242895
63	0x3e3ca1bb	0.1842107

edge_encoder.0.bias f4 [16]
0	0x3d0296ef	0.031882223
1	0xbe9cf2e3	-0.30654058
2	0x3d8271ec	0.06369385
3	0xbeefe586	-0.468548
4	0xbe9511ae	-0.2911505
5	0xbe568903	-0.20950703
6	0x3eae6dc8	0.3406813
7	0x3eefcd79	0.4683645
8	0x3e8e5806	0.27801532
9	0x3eb7ea9d	0.35921183
10	0xbd7911f1	-0.060808126
11	0xbe733371	-0.23750092
12	0x3e9cc4d8	0.3061893
13	0x3ef2a4c3	0.47391328
14	0x3d7a1c15	0.061061937
15	0x3e808b4b	0.25106272

edge_encoder.2.weight f4 [16, 16]
0	0xbdfb5e8d	-0.122738935
1	0xbdc7805e	-0.09741281
2	0xbdc2bd77	-0.09508794
3	0x3ddf4a60	0.10902858
4	0xbdaba154	-0.0838038
5	0x3e856b36	0.26058358
6	0x3e642b66	0.2228218
7	0x3d5fcf9c	0.05464135
8	0xbe578065	-0.21045072
9	0x3d7375e2	0.059438594
10	0x3e3fc6af	0.18728136
11	0x3e4374dd	0.19087549
12	0x3e0097c7	0.12557898
13	0x3dfb9f0b	0.122861944
14	0x3e064369	0.13111652
15	0x3c195775	0.00935923
16	0x3c07e4c6	0.00829429
17	0x3e0fd480	0.14045906
18	0xbd0b986a	-0.0340809
19	0xbd0fad25	-0.035077233
20	0xbd948cd0	-0.0725342
21	0x3dd51353	0.104040764
22	0x3e726788	0.23672307
23	0xbe814472	-0.25247532
24	0x3e24ba68	0.16086733
25	0xbe28f4da	-0.16499653
26	0xbe265e27	-0.16246854
27	0xbe3467c9	-0.17617716
28	0x3e6b9c50	0.23008847
29	0x3bfb037d	0.007660328
30	0x3dc20cc5	0.09475092
31	0x3e707ea6	0.23485813
32	0xbdf754b0	-0.120767
33	0x3ee1486e	0.44000572
34	0xbe0159d5	-0.12631924
35	0xbe1b5712	-0.15169933
36	0x3e335b86	0.17515382
37	0xbdc50998	-0.096209705
38	0xbe74b1f0	-0.23896003
39	0xbc95a32d	-0.018266285
40	0xbe3ba5af	-0.18324922
41	0x3e5f5372	0.21809176
42	0xbe4a71ac	-0.19769925
43	0x3d92b5f0	0.07163608
44	0xbbac1948	-0.005252037
45	0x3db622af	0.08893334
46	0x3e136cb3	0.14396934
47	0xbe8b91ec	-0.27259767
48	0xbe099e85	-0.13439377
49	0xbe468e5b	-0.19390242
50	0xbe8bac55	-0.27279916
51	0xbe0ef123	-0.13959174
52	0x3d18b640	0.037283182
53	0x3e373ed0	0.17895055
54	0xbc1d9287	-0.009617454
55	0x3e6ee7bb	0.23330586
56	0x3bf4de09	0.0074727577
57	0xbda78bad	-0.08180938
58	0xbdd283ec	-0.10279068
59	0x3df648b8	0.12025589
60	0x3e5cb8c3	0.21554856
61	0x3e28519d	0.16437383
62	0xbdf04a77	-0.11732953
63	0xbd90db61	-0.07073093
64	0xbe24c277	-0.16089807
65	0xbed0539c	-0.4068879
66	0x3d77d6e4	0.06050767
67	0x3dd90042	0.10595752
68	0x3dbf7870	0.093491435
69	0xbe03b6ae	-0.12862656
70	0xbe2ab551	-0.16670729
71	0x3d081a92	0.033228464
72	0x3d86906f	0.06570517
73	0xbe4f8c95	-0.20268472
74	0xbe782e1e	-0.24236342
75	0xbc02aa27	-0.007975138
76	0x3bf4aadc	0.007466657
77	0x3e530bea	0.20610014
78	0xbd2dd241	-0.042436842
79	0x3de689ae	0.11256729
80	0x3b92c784	0.0044793505
81	0xbe7b608c	-0.24548548
82	0xbe7f010e	-0.24902746
83	0xbdb6cb05	-0.08925442
84	0x3d0832e8	0.033251673
85	0x3e0b5889	0.13607992
86	0x3e6f5966	0.23373947
87	0x3e3f1096	0.18658671
88	0x3e235ca0	0.15953302
89	0x3d9cfba9	0.07665188
90	0x3e3e160f	0.18563102
91	0xbe1c076c	-0.15237206
92	0x3bb32581	0.0054671173
93	0x3e37e307	0.17957698
94	0x3e6f1766	0.2334877
95	0x3e818d7e	0.25303262
96	0x3d62a7a0	0.05533564
97	0xbd06d967	-0.032922175
98	0x3e081bcb	0.13291852
99	0x3e0f067a	0.13967314
100	0xbe24c3ba	-0.16090289
101	0x3e281e50	0.16417813
102	0x3e197748	0.14986908
103	0x3d9557a2	0.07292105
104	0x3e17078f	0.14748977
105	0xbe1af968	-0.15134203
106	0xbc7d6ce5	-0.015467857
107	0x3d845642	0.06461765
108	0xbe3c05f0	-0.1836164
109	0x3dbf790a	0.09349258
110	0x3bacb1b0	0.0052702054
111	0x3d569b1f	0.05239403
112	0xbe6a22a9	-0.22864784
113	0x3e834197	0.2563598
114	0x3da9677d	0.08271692
115	0xbcfb36ec	-0.030665837
116	0x3cc885e0	0.0244779
117	0x3e754f8c	0.23956126
118	0x3d4949e7	0.049142744
119	0xbdda0787	-0.10645967
120	0xbcaca49c	-0.021074586
121	0x3d6fb7fa	0.058525063
122	0x3db7811b	0.08960172
123	0x3d917944	0.07103208
124	0x3d5a6e2b	0.05332772
125	0x3e2b0ce4	0.16704136
126	0x3e581f6f	0.21105741
127	0xbe5fe227	-0.21863614
128	0x3d1f83c9	0.03894404
129	0xbefb58d4	-0.49091208
130	0xbdbd3556	-0.09238689
131	0x3e078a7d	0.13236423
132	0xbdaedc60	-0.08538127
133	0xbd5777ad	-0.052604366
134	0x3e0cf8ab	0.13766734
135	0xbe20d774	-0.15707189
136	0x3e40322f	0.18769144
137	0xbe4ed70d	-0.20199223
138	0x3d26cfd0	0.04072553
139	0xbe8c0bd2	-0.27352768
140	0x3d89b5f6	0.067241594
141	0x3d8e583a	0.06950422
142	0xbd799e4e	-0.060941987
143	0x3e78fdb1	0.24315526
144	0x3e156e9f	0.1459298
145	0xbe28ca71	-0.16483475
146	0x3db7bc8f	0.089715116
147	0xbe7238a3	-0.23654418
148	0x3cc4fd30	0.02404651
149	0x3e7681ec	0.24072999
150	0x3e09ee4a	0.13469806
151	0x3de8ddb8	0.113704145
152	0xbe0524a3	-0.13002257
153	0x3dfcec8a	0.12349804
154	0x3d9bf0b6	0.07614271
155	0xbe4cf4a7	-0.20015202
156	0xbe53348d	-0.20625515
157	0x3e7e743b	0.24849026
158	0x3dc6d17c	0.09707925
159	0x3d8767d2	0.06611599
160	0xbe390353	-0.18067674
161	0xbca7fb32	-0.020505521
162	0x3e5e9e6f	0.21740125
163	0x3ced35c0	0.028956294
164	0xbc796800	-0.015222549
165	0x3e56cc2b	0.20976321
166	0xbe105597	-0.1409515
167	0xbdb6b0bc	-0.08920428
168	0x3cdd12a5	0.02698643
169	0xbe5044aa	-0.20338693
170	0x3e387c73	0.18016224
171	0x3db69adb	0.08916255
172	0x3e3cf2d5	0.18452008
173	0x3ca13912	0.019680534
174	0x3d8dccab	0.06923803
175	0x3d5dddf0	0.054166734
176	0xbe4d41d6	-0.20044646
177	0xbe122182	-0.14270595
178	0x3e379bae	0.17930481
179	0xbe368a5f	-0.17826222
180	0x3e601a9c	0.2188515
181	0x3d9cccbc	0.076562375
182	0xbe4dd3de	-0.20100352
183	0xbe25793f	-0.16159533
184	0x3db65b80	0.08904171
185	0x3e0af26b	0.13569038
186	0x3e5a33d8	0.2130884
187	0x3e275e9a	0.16344681
188	0xbd968437	-0.07349437
189	0xbbe1d6f9	-0.006892082
190	0xbe75b60c	-0.23995227
191	0x3d6c1d57	0.05764517
192	0xbc7b5938	-0.015341096
193	0x3e75f470	0.24019027
194	0xbd39edd8	-0.04539284
195	0xbe0428b1	-0.12906148
196	0xbdff7c58	-0.124748886
197	0xbd872a5b	-0.065998755
198	0xbd908023	-0.0705569
199	0x3de084a1	0.10962797
200	0xbe632eda	-0.22185841
201	0x3e149316	0.14509234
202	0xbe03b17b	-0.12860672
203	0x3c81b3bf	0.01583278
204	0xbe37fa41	-0.17966558
205	0xbe697e89	-0.22802176
206	0x3ce63fb7	0.028106553
207	0x3e4fadef	0.20281194
208	0x3db84825	0.089981355
209	0xbe837199	-0.25672606
210	0x3d554e04	0.052076355
211	0xbdf12690	-0.11774933
212	0x3d6543d0	0.055972874
213	0xbcf57ce7	-0.029966785
214	0xbe72835b	-0.2368292
215	0x3e59722e	0.21234962
216	0x3e1a8417	0.15089451
217	0x3e3f71b5	0.1869572
218	0xbc092cf1	-0.008372531
219	0xbd4df4c2	-0.050282247
220	0xbd003616	-0.03130158
221	0xbe1a9e75	-0.15099509
222	0xbd2d2360	-0.042270064
223	0x3db90027	0.09033232
224	0xbd1c018a	-0.038087405
225	0x3e132bdd	0.14372201
226	0x3e39f993	0.18161611
227	0x3e25704e	0.16156122
228	0x3c15a7a0	0.009134203
229	0x3e3ce4c4	0.18446642
230	0x3e4e03e8	0.20118678
231	0xbe40d7bd	-0.18832298
232	0x3e503589	0.20332922
233	0xbe30ecbb	-0.17277806
234	0x3cbb05c0	0.02282989
235	0x3e5d7359	0.21626033
236	0xbe5a21d5	-0.21301968
237	0x3e0960bf	0.13415812
238	0xbcd512b9	-0.026009904
239	0x3df04ecf	0.117337815
240	0x3d127fc1	0.035766367
241	0x3e4758d1	0.19467475
242	0x3e3dd9b8	0.18540084
243	0x3e0b241f	0.13587998
244	0x3e598040	0.2124033
245	0xbe172f43	-0.14764123
246	0xbe702f2b	-0.23455493
247	0xbdac131c	-0.08402082
248	0x3e37b7f4	0.17941266
249	0x3e815d6f	0.25266597
250	0x3e0c14b8	0.13679779
251	0xbdef71e2	-0.11691643
252	0xbe29d93c	-0.16586775
253	0xbde18a22	-0.11012675
254	0xbe1de6cf	-0.15420078
255	0xbdb9b8a1	-0.09068418

edge_encoder.2.bias f4 [16]
0	0xbd3ecf8c	-0.04658465
1	0x3e5cfbd5	0.21580441
2	0x3e653b8a	0.22385994
3	0xbe6904bb	-0.22755711
4	0x3e0d00fe	0.1376991
5	0x3d8e4ec5	0.06948618
6	0xbe246b3f	-0.16056536
7	0xbdfc12c5	-0.123082675
8	0x3c892440	0.016740918
9	0xbe0b2935	-0.13589938
10	0xbc1e8f47	-0.009677715
11	0x3e22ce70	0.15899062
12	0xbde2d633	-0.110760115
13	0xbc5db061	-0.013530822
14	0x3d8ea996	0.0696594
15	0xbe45c441	-0.19313146

edge_encoder.3.weight f4 [16]
0	0x3f80669c	1.0031314
1	0x3f7d518d	0.9895256
2	0x3f807e4e	1.0038545
3	0x3f813750	1.0095005
4	0x3f80396c	1.0017524
5	0x3f80d029	1.0063525
6	0x3f7c2b5a	0.9850365
7	0x3f88eaf5	1.0696703
8	0x3f7e29de	0.99282634
9	0x3f7fdf6a	0.9995028
10	0x3f81ddf0	1.0145855
11	0x3f804cfc	1.0023494
12	0x3f7fb282	0.99881756
13	0x3f7cb9ca	0.9872099
14	0x3f7dc35c	0.9912622
15	0x3f7a3f94	0.9775326

edge_encoder.3.bias f4 [16]
0	0x3b139b69	0.0022523052
1	0xbc16c12e	-0.009201331
2	0x3b73c8fe	0.0037198658
3	0x38dc1a97	0.0001049537
4	0xbc6557d8	-0.013997994
5	0x3b8f84b3	0.0043798327
6	0x3bac53d8	0.0052590184
7	0xbc035a13	-0.008017081
8	0x3c05704a	0.008144448
9	0x3b0292a3	0.0019923828
10	0xbc1d1a8c	-0.009588849
11	0x3c3aa4f9	0.011391872
12	0x3a0afa07	0.0005301539
13	0xbb425aab	-0.0029656093
14	0x3c2df3db	0.010617222
15	0x3cd706d0	0.026248366

node_model.0.weight f4 [16, 48]
0	0xbe091dfd	-0.13390346
1	0x3d75ad38	0.059979647
2	0xbccf29a8	-0.025288418
3	0x3ce07508	0.027399555
4	0xba874700	-0.0010320842
5	0x3d9cf076	0.07663052
6	0x3cbf06e0	0.023318708
7	0xbdd0e8e4	-0.1020067
8	0x3d360a7c	0.044443592
9	0x3d541eb8	0.05178711
10	0x3de6132c	0.112341255
11	0x3dc3af72	0.09554948
12	0xbdbfe95c	-0.09370682
13	0xbca804a0	-0.020510018
14	0x3cef5e20	0.029219687
15	0xbcb81134	-0.02246914
16	0xbc809168	-0.015694335
17	0x3cb86590	0.022509366
18	0x3d0af5b4	0.033925727
19	0xbd1ac3b4	-0.037784293
20	0x3c91df38	0.017806634
21	0x3d2cd728	0.042197376
22	0x3d668ae8	0.056284815
23	0x3d84288a	0.06453045
24	0x3e003728	0.1252104
25	0x3de4a3d4	0.1116406
26	0x3df80b50	0.12111533
27	0xbd761786	-0.060081027
28	0xbccfb96c	-0.02535697
29	0xbd585e28	-0.05282417
30	0x3dfd541c	0.12369558
31	0x3d3c1f48	0.04592827
32	0x3de2c0f0	0.11071956
33	0x3cd86e88	0.026419893
34	0x3c17f4b0	0.009274647
35	0x3dd51ee4	0.104062825
36	0xbc84e050	-0.016220242
37	0xbe0fc53c	-0.14040083
38	0xbdc48c18	-0.09597033
39	0x3daaa634	0.08332482
40	0xbd48a7f0	-0.048988283
41	0x3d9e5a1a	0.07732029
42	0xbd9fcf28	-0.07803184
43	0x3c575a40	0.013144076
44	0x3c913be8	0.01772876
45	0x3c1e0860	0.009645551
46	0xbd3f32e8	-0.046679407
47	0xbe0011c7	-0.12506782
48	0x3de997ae	0.11405884
49	0xbe014ad1	-0.12626196
50	0x3e188715	0.1489528
51	0xbd1d4c11	-0.03840262
52	0x3d70b28f	0.058764037
53	0x3e1b797f	0.15183066
54	0xbce9aa1c	-0.028523497
55	0xbb53acc5	-0.0032299024
56	0x3d804d62	0.062647596
57	0xbd6aac1e	-0.05729305
58	0x3b4356ce	0.0029806378
59	0x3e061a0b	0.13095872
60	0xbd8b3bf1	-0.06798542
61	0xbe0ad8f8	-0.1355933
62	0x3dfec943	0.124407314
63	0x3cd28873	0.02569983
64	0xbdc9cada	-0.09853144
65	0x3df55449	0.11978967
66	0xbc8a7ff4	-0.016906716
67	0x3d042410	0.032260954
68	0x3c935fd1	0.017990025
69	0x3e17d416	0.14826998
70	0xbb731692	-0.003709231
71	0x3df84449	0.12122399
72	0xbd50d89d	-0.05098783
73	0xba2f7066	-0.0006692469
74	0xbd81ca90	-0.06337464
75	0x3d67c755	0.056586582
76	0x3e0b7ac8	0.13621056
77	0x3d45e7e3	0.048316848
78	0xbdc80c56	-0.09767978
79	0xbd0944ab	-0.033512753
80	0xbe11b4d7	-0.14229141
81	0x3dc4ffd4	0.09619108
82	0xbe237ddf	-0.15965985
83	0x3d28ad3d	0.041180838
84	0xbcc0f079	-0.023552166
85	0xbcf8f3e6	-0.030389737
86	0xbd873462	-0.06601788
87	0xbdb961a2	-0.09051825
88	0x3d42457f	0.047429558
89	0x3da9d0dd	0.08291791
90	0xbdca3085	-0.098725356
91	0xbdf34ae3	-0.11879518
92	0x3d578819	0.052620027
93	0x3dca5cc4	0.09880975
94	0xbb8861f2	-0.0041620666
95	0x3dd627c7	0.10456806
96	0x3d890476	0.06690304
97	0x3c3978e1	0.011320324
98	0x3d0db07a	0.03459213
99	0x3bcdc444	0.0062795
100	0xbd8ac5ff	-0.06776046
101	0xbd4d5f08	-0.050139457
102	0xbc553a50	-0.013014391
103	0x3e03ee29	0.1288382
104	0xbcd265d0	-0.025683314
105	0xbdb946f2	-0.09046735
106	0xbe01a66a	-0.12661138
107	0xbd188b84	-0.037242427
108	0xbdb8dee8	-0.09026891
109	0x3d4d0047	0.050049093
110	0x3e054c78	0.13017452
111	0x3d4fcce0	0.050732493
112	0xbdd671e1	-0.104709394
113	0x3d9d4fde	0.07681249
114	0xbdabe1f0	-0.083927035
115	0xbd9e1fb2	-0.07720889
116	0x3ac28092	0.0014839342
117	0xbe0edd96	-0.13951716
118	0x3dd56b68	0.10420877
119	0x3dee2021	0.11627222
120	0x3e228f21	0.15874912
121	0x3d042bd6	0.032268368
122	0x3cfa1638	0.030528173
123	0x3d6e59ed	0.05819123
124	0x3cfde7ad	0.03099426
125	0xbdec47e5	-0.1153715
126	0x38ebe05f	0.000112474656
127	0x3d9fe20d	0.07806788
128	0xbdd423be	-0.1035838
129	0xbd52db99	-0.051478956
130	0x3dd4bc4d	0.10387478
131	0xbe0ddecc	-0.13854522
132	0xbd8d7816	-0.0690767
133	0x3ddc9f29	0.10772545
134	0xbb862a97	-0.0040944326
135	0x3ab99cba	0.0014161088
136	0x3d53d1c2	0.051713713
137	0x3da02baa	0.07820828
138	0x3dda5506	0.10660748
139	0xbd2b6e0e	-0.041853003
140	0xbc4bc841	-0.012437881
141	0x3dde3e13	0.108516835
142	0xbd589701	-0.052878384
143	0x3ddd0173	0.10791292
144	0x3d3edd55	0.046597797
145	0x3ddcc8e4	0.10780504
146	0x3da041ed	0.07825074
147	0x3c8e1c09	0.017347353
148	0xbc98bc5c	-0.018644504
149	0x3e009d62	0.12560037
150	0x3dd1e89b	0.10249444
151	0xbdab3fbb	-0.08361765
152	0xbc91bd5a	-0.017790485
153	0xbd1da22f	-0.03848475
154	0x3d9ba514	0.075998455
155	0x3cacf300	0.021111965
156	0xbd8fb136	-0.07016222
157	0xbe2f8eb6	-0.17144284
158	0xbd909daa	-0.07061322
159	0x3e0d7111	0.13812663
160	0xbdc90282	-0.098149315
161	0x3e024e63	0.12725215
162	0x3e17ab65	0.14811476
163	0x3c9191f1	0.017769786
164	0xbe1cb586	-0.1530362
165	0x3df2b7c1	0.118514545
166	0x3d35c9ac	0.044381782
167	0x3ca76e92	0.020438466
168	0x3d283a87	0.04107144
169	0xbd94a907	-0.07258802
170	0xbcff7ecc	-0.031188391
171	0x3e19fadb	0.150371
172	0x3d908d19	0.07058162
173	0x3db45e22	0.08807017
174	0x3de33071	0.11093224
175	0x3da71f32	0.08160247
176	0x3e036f1a	0.1283535
177	0xbdbb2abd	-0.09139011
178	0x3dceedce	0.101039514
179	0x3b805389	0.003916208
180	0x3e0a8dcc	0.13530654
181	0x3b567187	0.0032721476
182	0xbde16a75	-0.11006633
183	0x3e1f3651	0.15548064
184	0xbcf4a513	-0.02986387
185	0x3d25c88f	0.04047447
186	0x3d9df727	0.07713156
187	0xbc952c39	-0.018209564
188	0xbd9702e1	-0.07373596
189	0xbe20c3e9	-0.15699734
190	0xbd6b11d2	-0.05739004
191	0x3dc1ca40	0.09462404
192	0x3c831f63	0.016006177
193	0xbdbe3c60	-0.09288859
194	0x3deb93fd	0.11502836
195	0xbd8236fe	-0.06358145
196	0xbd351077	-0.044205155
197	0xbd648342	-0.05578924
198	0x3e0bcfb0	0.13653445
199	0x3c305737	0.010762981
200	0xbdd8117b	-0.10550209
201	0xbde5d9a4	-0.11223152
202	0xbde00a14	-0.10939422
203	0x3a95c787	0.0011427262
204	0xbddbdd1d	-0.107355334
205	0x3c232efc	0.009959932
206	0x3df8f852	0.12156738
207	0x3de58f07	0.11208921
208	0xbd075e5f	-0.033048984
209	0x3d35712d	0.044297386
210	0x3d8c7f5b	0.06860229
211	0xbd20a92f	-0.039223846
212	0x3e0e9f99	0.13928069
213	0x3d11b378	0.035571545
214	0xbd9c731f	-0.07639145
215	0xbd0dfd4d	-0.034665395
216	0xbdebdce1	-0.11516739
217	0xbe145626	-0.14485988
218	0x3d9a919e	0.075473055
219	0xbe2b95c1	-0.16756345
220	0x3daab138	0.08334583
221	0x3e197d9f	0.14989327
222	0xbca977d3	-0.02068702
223	0x3dbb86f8	0.091566026
224	0xbd0757ca	-0.033042707
225	0xbca4b892	-0.020107541
226	0x3d63b784	0.055594936
227	0xbdf7384f	-0.12071287
228	0x3cff3aba	0.031155933
229	0xbc020a21	-0.007936985
230	0xbd01ebf5	-0.031719167
231	0xbd4c71fa	-0.049913384
232	0xbdcd5ca4	-0.100274354
233	0x3d293872	0.041313596
234	0x3c78584b	0.015157769
235	0x3d0bda03	0.03414346
236	0xbdd11d80	-0.10210705
237	0x3c72350b	0.014783154
238	0xbd12015f	-0.03564584
239	0x3e015ac1	0.12632276
240	0x3d16be39	0.036802504
241	0xbb9e8d7a	-0.0048386427
242	0xbc1a1635	-0.009404709
243	0x3b425f03	0.0029658682
244	0xbc2f54db	-0.010701383
245	0x3daf33e3	0.085548185
246	0xbe156100	-0.14587784
247	0x3d50a798	0.05094108
248	0x3dba81a4	0.09106758
249	0x3c47f965	0.012205456
250	0xbdf74b5d	-0.12074921
251	0xbd0ad609	-0.033895526
252	0xbdcb2d11	-0.09920705
253	0xbdc57505	-0.0964146
254	0x3dcebd68	0.1009472
255	0xbe0819a8	-0.13291037

node_model.0.bias f4 [16]
0	0xbd137456	-0.03599962
1	0xbd85e918	-0.065386
2	0x3e0823d7	0.13294922
3	0x3d94c2ed	0.07263742
4	0x3cb4bbd5	0.022062222
5	0xbdafaaf1	-0.08577526
6	0xbda4d6d9	-0.080487914
7	0xbdc4ff91	-0.09619058
8	0x3e205e37	0.1566094
9	0x3e1df7f9	0.15426625
10	0x3d14fd28	0.03637424
11	0x3dcd9ec3	0.10040047
12	0x3cad09d6	0.021122854
13	0x3df0b7dd	0.11753819
14	0xbca62f88	-0.020286337
15	0xbdc8bead	-0.098019935

node_model.2.weight f4 [16, 16]
0	0xbe5999fc	-0.21250147
1	0x3e24f96c	0.16110772
2	0x3e39955f	0.18123387
3	0x3d51b493	0.0511976
4	0x3e76a83f	0.24087618
5	0xbc4ea1cd	-0.0126118185
6	0x3d465fd1	0.04843122
7	0x3e4b89f7	0.19876848
8	0x3e1399c5	0.14414127
9	0xbdd915a5	-0.105998315
10	0xbe65bd7c	-0.22435564
11	0xbe1d657a	-0.15370741
12	0x3d19bff9	0.037536595
13	0x3ca0ee98	0.01964502
14	0xbbbd9556	-0.0057856245
15	0x3e445963	0.19174723
16	0xbdcc0948	-0.09962708
17	0xbcef3215	-0.029198686
18	0xbe091f96	-0.13390955
19	0xbc171eee	-0.009223683
20	0xbe2291a0	-0.15875864
21	0xbe8ecc4c	-0.2789024
22	0xbc01c7f0	-0.007921204
23	0xbe2a96fb	-0.16659157
24	0x3eac524c	0.33656538
25	0xbe44ef44	-0.19231898
26	0x3c7ae5fb	0.015313621
27	0x3dacfcd0	0.08446658
28	0x3d770388	0.060306102
29	0x3e8b2cb4	0.27182543
30	0x3e10579c	0.1409592
31	0xbdaca279	-0.08429427
32	0xbe5fb8ae	-0.21847793
33	0x3d4a447c	0.049381718
34	0x3e0a46e9	0.13503613
35	0xbe3f7ef3	-0.18700771
36	0xbe0b371e	-0.13595244
37	0x3e6d4978	0.23172557
38	0xbdf96b91	-0.1217872
39	0x3e242ad5	0.16031964
40	0xbd89a4fb	-0.06720921
41	0xbd7fbf80	-0.062438488
42	0x3d931a4c	0.0718275
43	0xbb28e257	-0.0025769675
44	0x3e78f96e	0.243139
45	0x3d5ac858	0.05341372
46	0xbe8462c2	-0.25856596
47	0xbc7b920b	-0.015354644
48	0xbe0c86b4	-0.1372326
49	0xbd811e6b	-0.0630463
50	0xbd423e65	-0.047422785
51	0x3e03b534	0.12862092
52	0x3e6178f2	0.22018793
53	0xbd084aa6	-0.033274315
54	0x3e60680c	0.2191469
55	0xbe2d1d32	-0.16905668
56	0x3e9fe235	0.3122727
57	0xbe337535	-0.1752518
58	0x3e21fdb2	0.15819433
59	0x3e08db28	0.13364851
60	0xbe7dabbc	-0.24772543
61	0x3d7be7f4	0.061500505
62	0x3e5979e2	0.21237901
63	0xbd9c70b2	-0.076386824
64	0x3d255e50	0.040373147
65	0x3dc2f5a2	0.09519507
66	0x3e33389a	0.1750206
67	0xbe02901d	-0.12750287
68	0x3d5cfceb	0.05395214
69	0xbe1f14cd	-0.15535279
70	0xbe4f26e3	-0.20229678
71	0x3e040df5	0.12895949
72	0x3e26f1ae	0.16303131
73	0x3e41cadf	0.18925045
74	0x3d23b755	0.03996976
75	0x3bf956aa	0.007609208
76	0xbd7c274b	-0.06156091
77	0xbe8187bc	-0.2529887
78	0x3e31d39c	0.17365879
79	0x3dd8061d	0.10548041
80	0xbce293e0	-0.027658403
81	0xbe0e01e7	-0.13867913
82	0xbce060a3	-0.02738983
83	0xbda5edc6	-0.08101992
84	0x3e0b3b8b	0.13596933
85	0xbe51fb38	-0.20505989
86	0xbd516155	-0.051118214
87	0xbcac37b7	-0.02102266
88	0x3df81fa3	0.12115409
89	0x3d65346e	0.055958204
90	0xbe09a19a	-0.13440552
91	0xbda5169b	-0.08060952
92	0x3cc2b51c	0.023768
93	0x3df270f4	0.1183795
94	0xbe3a1fc2	-0.18176177
95	0xbdc17809	-0.09446723
96	0xbe58aa78	-0.21158779
97	0x3e6e65cf	0.23281024
98	0x3e2bbe32	0.16771773
99	0x3e43441c	0.1906895
100	0xbe626013	-0.22106962
101	0x3e2a8cc5	0.16655262
102	0x3de4129d	0.11136363
103	0xbe230d28	-0.15922987
104	0x3e77581c	0.24154705
105	0x3d85e232	0.06537284
106	0x3d3315c8	0.043721944
107	0xbe2d0fce	-0.1690056
108	0xbe43df17	-0.19128071
109	0x3e027b8d	0.12742443
110	0x3d7b908f	0.06141716
111	0x3e35c04d	0.17749138
112	0xbe171c30	-0.14756846
113	0x3e565314	0.2093013
114	0xbcd212f9	-0.025643812
115	0xbe2598cd	-0.1617157
116	0xbe206343	-0.15662865
117	0xbe3c3aff	-0.1838188
118	0x3def003a	0.11669965
119	0x3e6a545c	0.22883743
120	0x3dd40af1	0.103536494
121	0x3c8c5acb	0.017133137
122	0xbe3908f8	-0.18069828
123	0x3e8944f7	0.26810429
124	0xbd988677	-0.07447522
125	0xbce611f4	-0.028084733
126	0xbe84a8a9	-0.25909927
127	0xbd96ce44	-0.07363561
128	0xbde43730	-0.11143339
129	0xbda2f270	-0.079563975
130	0xbde3dcdf	-0.11126112
131	0x3d96144e	0.073280916
132	0xbcfcfc38	-0.030881986
133	0x3d450206	0.048097633
134	0x3e843729	0.25823334
135	0xbdd58650	-0.10426009
136	0xbdeef269	-0.1166733
137	0x3e63d541	0.22249319
138	0xbde834ad	-0.11338172
139	0xbe23bbb3	-0.1598957
140	0xbc1f149d	-0.009709504
141	0x3e38f41b	0.18061869
142	0x3e63308e	0.22186491
143	0x3e7486ba	0.23879519
144	0x3d07caa8	0.033152252
145	0x3dd1a796	0.102370426
146	0x3b8988a3	0.0041971966
147	0x3e31142f	0.17292856
148	0x3cfa1f1e	0.030532416
149	0x3dc07c61	0.093987234
150	0x3e46f062	0.19427636
151	0xbe43ae32	-0.19109419
152	0x3e035064	0.12823635
153	0xbe148345	-0.145032
154	0xbcb9eee6	-0.022696923
155	0xbe852eec	-0.2601236
156	0x3cbe33bf	0.023218034
157	0x3e0641d1	0.13111044
158	0xbe6ef448	-0.23335373
159	0xbe16a00b	-0.14709489
160	0xbdac07bc	-0.08399913
161	0x3e53bcd0	0.20677495
162	0x3d9ab843	0.075546764
163	0xbd0dcf80	-0.034621716
164	0x3d21b46b	0.0394787
165	0x3e046574	0.12929326
166	0xbdb7a32e	-0.08966671
167	0xbdcdb698	-0.100445926
168	0xbe5e5a14	-0.2171405
169	0xbd417f0e	-0.04724031
170	0x3d351b8e	0.04421573
171	0x3dd694da	0.1047761
172	0x3e52e030	0.20593333
173	0xbd61b302	-0.055102356
174	0xbdbef28d	-0.09323607
175	0xbe101b9e	-0.14073035
176	0x3c847640	0.016169667
177	0xbc5cfcb6	-0.013487985
178	0xbce7e3a1	-0.028306784
179	0x3e6bd671	0.23031022
180	0x3d06af26	0.03288188
181	0xbdb73f68	-0.08947641
182	0x3d87e6a0	0.06635785
183	0x3e420716	0.18948016
184	0x3d930b0c	0.071798414
185	0xbcb655b8	-0.02225767
186	0xbe2f8510	-0.17140603
187	0xbe1c2246	-0.1524745
188	0x3e41e7c4	0.18936068
189	0x3e537c1e	0.20652816
190	0x3e8f3edf	0.27977654
191	0x3df41ed5	0.11919943
192	0x3c86bf40	0.016448617
193	0xbe3ed5c7	-0.18636237
194	0xbe1b53af	-0.15168642
195	0x3e4f956d	0.20271845
196	0xbe4495b5	-0.19197734
197	0x3e1097ed	0.14120455
198	0xbe0b4223	-0.13599448
199	0x3e7d1f60	0.24719
200	0x3dca90f0	0.09890926
201	0x3e64b1a3	0.22333388
202	0x3d9138a1	0.07090879
203	0xbe1362d2	-0.14393166
204	0x3e97e39d	0.29665843
205	0x3e94519a	0.28968507
206	0xbdb5e2e2	-0.08881165
207	0x3e35eee8	0.17766917
208	0x3d82e3bc	0.06391093
209	0x3e6b8a48	0.23001969
210	0x3dd35922	0.10319735
211	0x3e269253	0.16266756
212	0xbe770d42	-0.24126151
213	0xbd8b22a1	-0.06793714
214	0xbdc4a5c8	-0.09601933
215	0x3d94882b	0.072525345
216	0x3dad8f90	0.08474648
217	0xbe4ac5b9	-0.19801988
218	0x3d8eeca2	0.06978728
219	0x3e543b3a	0.20725718
220	0xbda6228f	-0.0811206
221	0x3e8428b6	0.2581231
222	0xbe155e74	-0.14586812
223	0x3e1baf1c	0.15203518
224	0xbde550f8	-0.11197084
225	0x3d9141b8	0.07092613
226	0xbe358835	-0.1772774
227	0x3e14475d	0.14480348
228	0xbdb356b3	-0.08756771
229	0x3e538e26	0.20659694
230	0x3e1a64ec	0.15077561
231	0xbd92f97b	-0.07176491
232	0x3e259abc	0.16172308
233	0x3df5a6bf	0.11994695
234	0xbd851047	-0.06497245
235	0xbeb4adbb	-0.35288796
236	0x3daa252b	0.083078705
237	0x3e201942	0.15634635
238	0x3e44108a	0.19146934
239	0x3db32670	0.08747566
240	0x3db897e0	0.09013343
241	0xbe8380b8	-0.25684142
242	0xbdd5b681	-0.104352005
243	0xbd23f468	-0.040028006
244	0x3e03f7d1	0.12887503
245	0xbdc3efe6	-0.09567241
246	0x3dc026d4	0.09382406
247	0xbe177d8f	-0.1479399
248	0x3e875cfa	0.26438123
249	0x3d13209b	0.035919767
250	0x3e65aed6	0.22429976
251	0x3e80d731	0.25164178
252	0xbe8acb33	-0.27108154
253	0x3e354f78	0.17706096
254	0x3e486ab2	0.19571951
255	0xbb6a3592	-0.0035737497

node_model.2.bias f4 [16]
0	0xbd644de3	-0.05573834
1	0xbb174762	-0.002308332
2	0x3d0f2c7d	0.034954537
3	0xbe5f690e	-0.21817419
4	0x3e3b1d4e	0.18272898
5	0xbdae4680	-0.085095406
6	0x3e11d17f	0.14240073
7	0x3cf70d75	0.030157784
8	0xbdffcb51	-0.124899514
9	0x3dca5243	0.098789714
10	0xbd334759	-0.043769214
11	0xbd42bbb2	-0.04754228
12	0xbcdac806	-0.026706707
13	0x3dca587d	0.09880159
14	0x3e22f068	0.1591202
15	0xbd1d340f	-0.038379725

node_model.3.weight f4 [16]
0	0x3f95570b	1.1667188
1	0x3f9fa055	1.2470804
2	0x3fa1f55c	1.2653003
3	0x3f94e246	1.1631553
4	0x3f99eb30	1.2024899
5	0x3f82281c	1.016849
6	0x3f90d1d6	1.1314037
7	0x3f9a3f4e	1.2050569
8	0x3f84fd1d	1.0389744
9	0x3f713353	0.9421894
10	0x3f997ac5	1.1990591
11	0x3f93e481	1.1554109
12	0x3f893ed3	1.0722297
13	0x3f8beed0	1.0932255
14	0x3f7dc952	0.99135315
15	0x3f9909cb	1.1956114

node_model.3.bias f4 [16]
0	0x3e25e4f0	0.16200614
1	0xbe3c6ce0	-0.18400908
2	0x3e015160	0.12628698
3	0xbdf68f58	-0.120390594
4	0x3e17ddb9	0.14830674
5	0x3de74d15	0.11293999
6	0xbddd694e	-0.10811101
7	0xbe0d4479	-0.13795651
8	0xbd8e576d	-0.06950269
9	0x3dcb308c	0.09921369
10	0x3e1bc70b	0.15212648
11	0x3e07af35	0.1325043
12	0x3ddff9f4	0.10936347
13	0xbdf0c33d	-0.11755989
14	0xbc47cdd1	-0.012195067
15	0xbe17b643	-0.14815621

edge_model.0.weight f4 [16, 96]
0	0xbd2e54a9	-0.042561207
1	0xbdacda12	-0.08440031
2	0x3c67b35a	0.014141882
3	0xbd67708b	-0.056503814
4	0x3ce6b8ed	0.028164351
5	0xbd934b53	-0.07192101
6	0x3d9be34a	0.07611711
7	0x3b06a89b	0.0020547274
8	0x3b6d0d88	0.0036171395
9	0xbd92ea49	-0.071735926
10	0x3d422fe2	0.047408946
11	0x3c756112	0.014976757
12	0xbd996ddc	-0.07491657
13	0x3d7d724e	0.061876588
14	0x3bf429cf	0.007451273
15	0x3dc83df7	0.09777444
16	0x3d2526d7	0.040320244
17	0xbdb03029	-0.08602936
18	0xbd93e9ff	-0.072223656
19	0x3d9a0471	0.075203784
20	0xbd9083a8	-0.070563614
21	0x3b8e96ca	0.0043514716
22	0x3d43186b	0.04763071
23	0x3d6c4387	0.057681587
24	0x3d82891e	0.06373809
25	0xbcf433fb	-0.029809942
26	0xbc901da6	-0.017592262
27	0x3cfda23e	0.030961152
28	0x3d2a2e23	0.041547906
29	0x3d8e9046	0.06961112
30	0x3b674e7b	0.003529458
31	0x3c8b5da1	0.01701242
32	0x3daee224	0.08539227
33	0x3da83522	0.08213259
34	0x3c926ca3	0.017874068
35	0x3c5d29f0	0.013498768
36	0xbd4eaa86	-0.050455593
37	0xbd174d22	-0.036938794
38	0x3d020ba5	0.031749386
39	0xbccd0ccc	-0.025030516
40	0xbb8ed017	-0.0043583023
41	0xbd3caaac	-0.046061203
42	0xbcc4c315	-0.024018804
43	0x3ddfdecf	0.10931169
44	0x3d1e639e	0.03866922
45	0xbd9c3129	-0.07626564
46	0x3d69c187	0.057069328
47	0xbdd084b0	-0.10181558
48	0xbdb6c6f8	-0.08924669
49	0xbdecb272	-0.11557473
50	0xbd93737e	-0.07199763
51	0x3c66cf32	0.014087485
52	0xbd81e470	-0.06342399
53	0x3dc0ee78	0.09420484
54	0x3d3d9562	0.04628504
55	0x3d379a93	0.044825148
56	0x3d6bef96	0.057601534
57	0xbaa76b14	-0.0012773001
58	0xbd3a2aa0	-0.045450807
59	0xbd1d6d99	-0.0384346
60	0xbd5df15d	-0.05418526
61	0xbb970103	-0.004608275
62	0x397fc2cf	0.00024391267
63	0xbd4f65d8	-0.050634235
64	0xbcad3ff9	-0.021148669
65	0x3d94cb89	0.07265384
66	0x3d1abb2f	0.03777617
67	0x3db30203	0.08740618
68	0x3daef4d5	0.08542792
69	0xbd088adb	-0.033335548
70	0x3bb1eee9	0.0054300916
71	0xbd94e003	-0.07269289
72	0x3db08391	0.08618844
73	0x3dc7b652	0.09751572
74	0xbd90a29c	-0.07062265
75	0x3c484737	0.01222401
76	0x3d9c24d0	0.07624209
77	0xbd4f4c29	-0.05060974
78	0xbd5f919a	-0.054582216
79	0x3d4d2d04	0.05009176
80	0xbdc869d8	-0.09785813
81	0xbc413d03	-0.0117943315
82	0xbd2099dc	-0.03920923
83	0x3d52e14e	0.0514844
84	0x3dc45515	0.095865406
85	0x3c2f2d25	0.010691916
86	0x3cf2886b	0.029606065
87	0xbd09aed8	-0.03361401
88	0x3d355966	0.04427471
89	0xbcef1c00	-0.029188156
90	0x3d5cf4a5	0.05394425
91	0xbd12edd8	-0.035871357
92	0x3d6351a5	0.055497784
93	0x3c92c549	0.017916339
94	0x3d2a707b	0.041611176
95	0x3d51c559	0.051213596
96	0xbc8ac36b	-0.016938886
97	0xbc986c51	-0.018606337
98	0xbcf4bd16	-0.02987532
99	0x3d6be7ee	0.057594232
100	0xbc0bf1ca	-0.008541534
101	0xbd7a625c	-0.06112896
102	0xbdc05491	-0.0939113
103	0x3dbf564c	0.09342632
104	0xbd9fba37	-0.077991895
105	0x3c6534e7	0.013989664
106	0x3cd28b98	0.02570133
107	0x3c8a9de1	0.016920986
108	0xbda8cc3f	-0.08242082
109	0x3cd18e78	0.02558063
110	0xbd4a2ced	-0.04935925
111	0xbdc18d32	-0.09450759
112	0xbcf0cbcf	-0.029394059
113	0x3d7e42c0	0.062075377
114	0x3d6d7218	0.057970136
115	0xbbfcbbca	-0.007712816
116	0x3d807d58	0.062739074
117	0xbdd4e755	-0.103956856
118	0x3cd90bc9	0.026494877
119	0xbcded07a	-0.027199019
120	0xbda05276	-0.07828228
121	0x3ccaa297	0.024735732
122	0x3bf6c303	0.0075305714
123	0xbc59ac44	-0.0132857
124	0x3de04f8d	0.10952673
125	0xbdaeff13	-0.08544745
126	0x3dd34245	0.10315374
127	0x3d3c276d	0.045936037
128	0x3ddc51d2	0.107577935
129	0x3cc0670e	0.02348664
130	0xbc6d8e3e	-0.014499245
131	0xbd242607	-0.04007533
132	0xbd610037	-0.054931846
133	0xbdc4655e	-0.09589647
134	0x3bad4c0e	0.0052886074
135	0x3cdbc08e	0.026825216
136	0x3d6fed92	0.058576174
137	0x3d0822b5	0.033236224
138	0xbd4afb36	-0.04955598
139	0x3d2cec93	0.042217802
140	0x3d510676	0.051031552
141	0xbdb4f955	-0.08836619
142	0xbd976ae0	-0.07393432
143	0xbc2550d2	-0.01009007
144	0xbab9cd2b	-0.0014175525
145	0xbc4d3bfd	-0.012526509
146	0x3d5a32cf	0.05327111
147	0xbd2ab8ad	-0.041680027
148	0x3b503663	0.0031770698
149	0x3d55e6d1	0.052222077
150	0xbd7ce366	-0.0617403
151	0x3d8b83fc	0.068122834
152	0xbdb6db5d	-0.08928559
153	0xbd5abc3a	-0.053402163
154	0xbd21bfe2	-0.039489634
155	0xbdea4256	-0.11438434
156	0xbd921532	-0.07132949
157	0x3d81d859	0.06340093
158	0xbcb6c4d7	-0.022310657
159	0x3df88226	0.12134199
160	0x3da4ba9e	0.08043407
161	0xbd9cdbfe	-0.07659148
162	0xbc50ce6e	-0.012744529
163	0x3ce458be	0.027874347
164	0x3dd1e040	0.102478504
165	0x3da1dad7	0.079030685
166	0x3cfac03b	0.03060924
167	0x3d831274	0.06400004
168	0x3dc5c167	0.09656029
169	0xbd93d0aa	-0.07217534
170	0xbd11f859	-0.035637233
171	0xbdbe95ee	-0.093059406
172	0x3d9121b7	0.07086509
173	0x3d2bb88d	0.04192405
174	0xbd2a5d6d	-0.041593004
175	0xbd8bd65a	-0.06827994
176	0x378d894e	1.6872447e-05
177	0xbd75ee37	-0.060041633
178	0x3d6861bf	0.056733843
179	0x3de45e84	0.1115084
180	0xbb174640	-0.0023082644
181	0x3ce1e560	0.027575195
182	0xbd9952b8	-0.074864805
183	0xbd2a600b	-0.0415955
184	0x3d50ebe8	0.051006228
185	0x3d833f03	0.06408503
186	0x3d76747b	0.06016968
187	0x3d4c74ff	0.049916264
188	0x3ced1556	0.028940838
189	0xbd9d12b3	-0.07669582
190	0x3d283455	0.041065533
191	0xbc84d0c9	-0.016212838
192	0xbd24c4f9	-0.04022691
193	0x3daab267	0.08334809
194	0xbdbce81a	-0.09223957
195	0x3cc20d94	0.023688115
196	0x3dd0a163	0.10187032
197	0x3d25ce4b	0.04047994
198	0xbdc2d257	-0.095127754
199	0xbda2e64f	-0.07954084
200	0xbccc304f	-0.02492538
201	0xbc4328de	-0.011911599
202	0xbcac021f	-0.020997105
203	0xbca1a434	-0.019731618
204	0x3d8a5ca0	0.06755948
205	0x3db48ba8	0.088157
206	0xbd661843	-0.05617548
207	0xbd232007	-0.039825466
208	0x3d79b350	0.06096202
209	0x3d8323cc	0.06403312
210	0xbd9d32e0	-0.07675719
211	0x3db45dca	0.08806951
212	0x3d838131	0.06421126
213	0x3d7b2980	0.061318874
214	0xbcf932a3	-0.030419653
215	0xbc36c1ca	-0.011154601
216	0xbd9cc5ad	-0.07654891
217	0xbd50db34	-0.0509903
218	0x3c073fda	0.0082549695
219	0x3be53573	0.006994897
220	0xbd96e09d	-0.0736706
221	0x39cf9a23	0.00039596958
222	0xbd0ecd6e	-0.03486388
223	0x3e10d591	0.14143969
224	0x3d3d552a	0.046223797
225	0x3dc80767	0.09767037
226	0xbd22131a	-0.039568998
227	0x3ce5e3f4	0.028062798
228	0xbdacdea9	-0.084409066
229	0x3b7be717	0.00384373
230	0x3d3f7f53	0.046752285
231	0x3cb6c6eb	0.022311648
232	0x3ca1d6a0	0.019755661
233	0xbd9973e0	-0.074928045
234	0xbd95bfbf	-0.07311963
235	0x3ca1762a	0.019709665
236	0xbd370a56	-0.04468759
237	0x3d9afe86	0.07568078
238	0x3d784eb6	0.06062194
239	0xbd5fc05c	-0.054626808
240	0x3cc9c235	0.024628738
241	0x3e07871b	0.13235132
242	0xbda0c566	-0.07850151
243	0x3d8ad702	0.06779291
244	0x3c475698	0.012166642
245	0xbcaa7d62	-0.02081174
246	0xbd5d062a	-0.053960957
247	0xbd8bbf47	-0.06823593
248	0xbd9e863c	-0.07740447
249	0xbd9f3a5d	-0.07774804
250	0xbe02e183	-0.12781338
251	0x3d3f1250	0.046648324
252	0x3dbde5fb	0.09272381
253	0xbdea1ddc	-0.114314765
254	0x3cde0c37	0.027105434
255	0xbccea365	-0.025224397

edge_model.0.bias f4 [16]
0	0xbd4c8cd4	-0.04993899
1	0xbd3da963	-0.046304118
2	0xbd3fbaa4	-0.046808854
3	0x3dbfb010	0.09359753
4	0xbc5bb472	-0.013409721
5	0x3db5d075	0.08877651
6	0x3dac896d	0.084246494
7	0xbdcbb724	-0.09947041
8	0x3d550e25	0.052015442
9	0x3d87c371	0.06629074
10	0xbd97ffd2	-0.07421841
11	0x3da7b369	0.08188517
12	0xbcf79ca6	-0.030226063
13	0xbd74bb1e	-0.05974876
14	0xbd342a04	-0.04398538
15	0x3d040145	0.032227773

edge_model.2.weight f4 [16, 16]
0	0xbe4f4b14	-0.20243484
1	0xbe3ed82c	-0.1863715
2	0xbd463525	-0.048390526
3	0xbd7bbc52	-0.061458893
4	0xbd1624f3	-0.03665633
5	0xbe2963af	-0.16541933
6	0x3d94bca0	0.0726254
7	0xbe05144b	-0.12996022
8	0x3e6d889e	0.23196647
9	0x3cd13f46	0.025542866
10	0x3beed1b1	0.0072881808
11	0xbd9cafa3	-0.076506875
12	0x3c844ec7	0.016150845
13	0xbe20f2ce	-0.15717623
14	0xbdd53c8d	-0.1041194
15	0xbdfa31f1	-0.12216557
16	0x3d4f0527	0.050542023
17	0xbddd1375	-0.10794727
18	0x3d946743	0.07246258
19	0x3e208718	0.15676534
20	0x3dd006dd	0.10157559
21	0xbe6cfe89	-0.23143972
22	0x3e175a69	0.14780582
23	0xbe43392f	-0.19064783
24	0xbcd5efe8	-0.026115373
25	0xbdfb058f	-0.122569196
26	0x3e3a41c0	0.18189144
27	0xbddd6d48	-0.10811859
28	0x3cf922b9	0.030412065
29	0xbe11e97b	-0.14249222
30	0x3e03f6bb	0.12887089
31	0x3da59a31	0.0808605
32	0x3d812ab4	0.06306973
33	0x3da72341	0.08161021
34	0x3da33bfb	0.07970425
35	0xbe702f82	-0.23455623
36	0xbe351aa3	-0.17685942
37	0x3e71798b	0.23581521
38	0x3d77ade7	0.06046858
39	0xbb34e005	-0.0027599346
40	0xbd091b67	-0.0334734
41	0xbe20c44c	-0.15699881
42	0x3dbe97cd	0.093062975
43	0x3d1c0c04	0.038097396
44	0xbe1ea70d	-0.15493412
45	0x3ce16a91	0.027516635
46	0x3bad2a0b	0.005284553
47	0x3e574a71	0.21024491
48	0x3d3315c7	0.04372194
49	0xbbb6a441	-0.00557378
50	0x3e8e55fc	0.27799976
51	0x3df32cff	0.11873817
52	0xbca2b205	-0.019860277
53	0x3d529625	0.05141272
54	0xbe603b41	-0.21897604
55	0xbe4fe3a4	-0.20301682
56	0xbdf9e368	-0.122015774
57	0xbe83735e	-0.25673956
58	0x3cc15635	0.023600677
59	0xbcf91a23	-0.03040797
60	0x3cd15703	0.025554186
61	0xbe7e1467	-0.2481247
62	0x3e1e03a3	0.15431075
63	0x3cbcf928	0.023068026
64	0x3e6e262a	0.23256746
65	0xbe2cbbc4	-0.16868502
66	0xbe744d1e	-0.23857543
67	0x3e28f233	0.16498642
68	0xbde568d1	-0.11201633
69	0x3e04aba6	0.12956104
70	0x3e8f1658	0.27946734
71	0x3e6f26b8	0.23354614
72	0xbe84799e	-0.25874037
73	0x3e624f35	0.22100528
74	0xbdadbd2b	-0.084833466
75	0x3e33546d	0.17512675
76	0xbd42c789	-0.047553573
77	0xbe627cc4	-0.22117907
78	0xbe5dd272	-0.2166231
79	0x3e52f8e8	0.20602763
80	0x3d664b0b	0.05622391
81	0x3e17a2d3	0.14808206
82	0x3d8fbdae	0.070186004
83	0x3e31a786	0.17349061
84	0xbe6ec3c8	-0.23316872
85	0xbe547cbe	-0.2075071
86	0xbe81c54b	-0.25345835
87	0x3d631837	0.055443015
88	0x3e7b00d7	0.24512039
89	0x3cf4436f	0.029817311
90	0xbe812bef	-0.2522883
91	0x3e052bc4	0.13004977
92	0x3e680b7d	0.22660632
93	0x3e6e7c24	0.23289543
94	0xbe680a87	-0.22660266
95	0xbce07b07	-0.027402414
96	0x3dd8967c	0.105755776
97	0xbd90e06b	-0.07074054
98	0x3d67c442	0.05658365
99	0x3e3ee935	0.18643649
100	0xbd07b70d	-0.033133555
101	0x3c07c780	0.008287311
102	0x3e22f17a	0.15912428
103	0xbd166ebd	-0.036726702
104	0xbe498d99	-0.19682921
105	0x3e083931	0.13303067
106	0x3e82315a	0.25428277
107	0x3e30858a	0.17238441
108	0xbe68fea2	-0.22753385
109	0xbe2b69ed	-0.16739626
110	0xbdfc460b	-0.12318047
111	0xbe2a026c	-0.16602486
112	0xbe71e3df	-0.23622082
113	0xbc2e9ab8	-0.010657005
114	0xbd80ce9b	-0.06289407
115	0xbc7d1d61	-0.015448899
116	0x3bca4ad3	0.0061734705
117	0xbe6da430	-0.23207164
118	0xbe469f03	-0.19396596
119	0xbe79a4f8	-0.24379337
120	0xbe0fdd44	-0.1404925
121	0x3e37fd9d	0.1796784
122	0x3e05d98c	0.13071269
123	0xbd6b983b	-0.057518225
124	0xbdb9bd12	-0.090692654
125	0xbe3381cc	-0.17529982
126	0xbe5ca1a6	-0.21546039
127	0x3e04b8c4	0.12961107
128	0x3dd9c9aa	0.106341675
129	0x3c2a7bda	0.010405505
130	0xbe13d059	-0.14434947
131	0x3e707e76	0.23485741
132	0x3e3b2fe9	0.18279995
133	0xbe7946f9	-0.2434348
134	0x3dd74600	0.10511398
135	0x3da71c83	0.08159735
136	0xbc1d4d36	-0.009600928
137	0x3e2ef2d1	0.17084815
138	0xbdc7f474	-0.097634226
139	0xbdbd4258	-0.0924117
140	0x3dccc186	0.09997849
141	0xbd4fdf58	-0.050750107
142	0xbe0086e4	-0.12551457
143	0x3d90e1a7	0.0707429
144	0x3cb68b3d	0.02228319
145	0xbe38dbe3	-0.1805263
146	0x3da7ea36	0.08198969
147	0xbdfe07e3	-0.12403848
148	0x3e2c7265	0.16840513
149	0x3e51b38b	0.20478646
150	0x3d438a8d	0.047739554
151	0x3e6659fd	0.22495265
152	0xbe4c1b74	-0.19932348
153	0xbba27441	-0.004957706
154	0x3e621269	0.22077335
155	0xbd4456aa	-0.04793421
156	0x3e335e4d	0.17516442
157	0xbe3bd4fa	-0.18342963
158	0x3e3086ea	0.17238966
159	0xbe196cbf	-0.1498289
160	0xbd87dc52	-0.0663382
161	0xbd8984a2	-0.06714751
162	0x3e43b0f0	0.19110465
163	0x3cfb1d9a	0.030653764
164	0x3e1ef8d4	0.15524608
165	0xbe785035	-0.24249347
166	0xbd918be9	-0.07106764
167	0xbe5ead5c	-0.21745819
168	0x3d801a0d	0.06254969
169	0x3cdaaede	0.026694711
170	0xbe2daaf1	-0.1695974
171	0x3dba041a	0.090828136
172	0xbe1cd166	-0.15314254
173	0xbe2ffdb2	-0.17186621
174	0xbdb77206	-0.08957295
175	0xbcc9697d	-0.024586434
176	0x3e50374c	0.20333594
177	0xbd812ba6	-0.063071534
178	0x3e12af2c	0.14324635
179	0x3e196cc9	0.14982904
180	0xbe243f94	-0.16039878
181	0xbe579ba0	-0.2105546
182	0x3ceba6b2	0.02876601
183	0xbd9d6b10	-0.07686436
184	0x3dbf36da	0.09336634
185	0xbddd2a2e	-0.10799061
186	0xbd189f1f	-0.037261125
187	0xbdc76c25	-0.09737424
188	0x3e624b56	0.22099051
189	0xbe440c4c	-0.19145316
190	0xbddaa982	-0.10676862
191	0x3e014693	0.12624578
192	0x3e32678d	0.17422314
193	0xbd468192	-0.04846341
194	0xbdbf796d	-0.09349332
195	0x3e8586ed	0.26079503
196	0xbd90193f	-0.07036065
197	0x3dec74c4	0.11545709
198	0xbe5af3b6	-0.21382031
199	0xbd5c8b07	-0.053843524
200	0xbe3942d5	-0.180919
201	0xbd153713	-0.036429476
202	0x3da251f4	0.079257876
203	0x3e69066d	0.22756357
204	0x3e3f975c	0.18710083
205	0xbe63c818	-0.22244298
206	0xbce432d4	-0.027856268
207	0xbe10307f	-0.14081
208	0x3e4348b4	0.19070703
209	0xbddbdf7d	-0.107359864
210	0x3dd0ac75	0.101891436
211	0x3d954fd3	0.07290616
212	0xbb949fb7	-0.004535641
213	0xbd678ba4	-0.056529656
214	0xbe88e208	-0.26734948
215	0x3e7e0ffb	0.24810784
216	0x3e29b958	0.1657461
217	0xbe02f202	-0.12787631
218	0x3b3b0a70	0.0028540157
219	0x3badeddd	0.0053078965
220	0xbe435849	-0.19076647
221	0x3d9a45ae	0.075328216
222	0x3d28fddf	0.041257735
223	0xbcd9be40	-0.026579976
224	0x3e2668cd	0.16250916
225	0x3e50f4cb	0.20405881
226	0xbe817db9	-0.2529123
227	0xbd5e5562	-0.054280646
228	0x3ccb0dd5	0.024786869
229	0x3e0c9f98	0.13732755
230	0xbe0a96eb	-0.13534133
231	0x3e0e6d7e	0.13908955
232	0xbdf58060	-0.11987376
233	0x3d8e6d68	0.06954461
234	0x3e6a3bf0	0.22874427
235	0xbd8e9284	-0.069615394
236	0x3d8329c4	0.064044505
237	0xbe2eb9b8	-0.17063034
238	0xbe632766	-0.22182998
239	0xbe536177	-0.20642649
240	0xbdbe9821	-0.0930636
241	0x3e5718e0	0.21005583
242	0x3db6c9c6	0.08925204
243	0xbe69b89e	-0.22824332
244	0x3e802853	0.25030765
245	0x3dc629db	0.09675952
246	0x3e148a53	0.14505892
247	0x3d97f73c	0.07420203
248	0xbd8db633	-0.06919517
249	0xbe0d5fc9	-0.1380607
250	0x3d223810	0.039604247
251	0x3dc661c7	0.09686618
252	0xbac656c3	-0.0015132058
253	0xbe65986f	-0.2242143
254	0x3d9ca3a8	0.076484025
255	0xbd2a3b3c	-0.041560397

edge_model.2.bias f4 [16]
0	0xbd62ce0f	-0.055372294
1	0xbd1919c3	-0.037378084
2	0xbd2a2b2b	-0.041545074
3	0x3e3d73c8	0.18501198
4	0x3e1aa597	0.1510223
5	0x3e0eb3f8	0.1393584
6	0xbe2151a7	-0.15753804
7	0xbd6a4ded	-0.057203222
8	0xbd8f08eb	-0.06984123
9	0x3e21da7e	0.15806004
10	0xbd348cd6	-0.044079624
11	0xbe4a1b5f	-0.19737004
12	0x3e12e71f	0.14345978
13	0xbdaf28f8	-0.08552736
14	0x3dde6f42	0.108610645
15	0x3d2ff649	0.042959485
