tmp/tmp5model600.pt (torch, 23679 bytes, 25 tensors)

node_encoder.0.weight f4 [16, 5]
00000000: 80d2 933e 5fb6 a8be 50c2 b63e 7082 923e
00000010: 0a9d bc3e 3324 96be 8337 71be 7d5e 863e
00000020: 6cbd d5be 95b9 fb3e 224f c03d 4145 673d
00000030: fccf c3be 00f0 113e 626b 013e 0404 7e3d
00000040: 9cd9 dd3e d50e d13d be09 cbbe 8269 bc3e
00000050: ba9e 0b3e 2bb1 80be 3ec6 cfbe fc87 823e
00000060: 00d4 e23e bb99 bbbe 8037 c83c 744c 243e
00000070: 9942 58be 8067 c8bd 71e4 98be a980 58be
00000080: 5dbf d0be 40d0 29bc a4c3 873e bef2 3f3e
00000090: 6f9a c63e 1d36 e3be 0063 61bd db98 b63e
000000a0: 984a c13d 33ea edbd 7ff5 b2be 581a 553e
000000b0: a4d9 c03e 0559 bb3e c98a cd3e 06e3 eb3d
000000c0: b232 a33e 26e1 90bd 98b7 be3e 94c0 e4bc
000000d0: 93ac aebd d4a3 63be c543 863e 399e 503e
000000e0: 353b 9e3e 4954 7bbe 787d 73be 6124 e53e
000000f0: e62d 7ebe 6c96 82be 980e f5bd 4203 14be
00000100: d4b7 9bbe 6ca0 be3e b34b 3a3d 79f0 443e
00000110: dcd6 a93e 34e4 a2be 07a1 b43e 129f 82be
00000120: a33b 11bd de47 ad3e 8400 d53e 92d9 be3e
00000130: d472 753e f410 c73e 2e00 25be 8aeb abbd
0.28871536 -0.32951638 0.35695124 0.2861514 0.3683856 -0.29324493 -0.23556332 0.26243964
-0.4174608 0.49165025 0.093900934 0.05646253 -0.38244617 0.14251709 0.1263862 0.06201555
0.43330085 0.10207907 -0.3965587 0.36799246 0.13634768 -0.25135168 -0.40580934 0.25494373
0.44302368 -0.36640725 0.024440527 0.1604479 -0.21119155 -0.09785366 -0.29861787 -0.2114283
-0.40771 -0.010364592 0.2651645 0.18744943 0.38789698 -0.44377223 -0.055026054 0.35663494
0.09438056 -0.116169356 -0.34952924 0.2081083 0.37666047 0.36591354 0.40144947 0.11517911
0.31874615 -0.07074194 0.37249446 -0.02792386 -0.0852901 -0.22230464 0.2622358 0.20372857
0.30904546 -0.24543871 -0.23778331 0.44754317 -0.24822196 -0.25505388 -0.11965674 -0.14454368
-0.30413687 0.37231767 0.04548235 0.19232358 0.33171737 -0.3181473 0.35279104 -0.25511986
-0.035457265 0.33843893 0.41601956 0.37275368 0.23969585 0.38880122 -0.1611335 -0.08394535

node_encoder.0.bias f4 [16]
00000000: 7376 23be 845d 893c 6d06 64bd 8584 6b3e
00000010: 2f73 953e 00e3 a4be c1e0 7cbe cfa0 2bbe
00000020: cfbf a53d 4949 2abe a5a5 89be 473e 71bd
00000030: 047b 5fbe b139 be3c 65aa a3be edc9 06be
-0.15963154 0.016768225 -0.05567019 0.22999771 0.2918944 -0.32204437 -0.24695112 -0.16760562
0.08093225 -0.16629519 -0.2688419 -0.058897283 -0.2182427 0.023220869 -0.31965938 -0.13162966

node_encoder.2.weight f4 [16, 16]
00000000: a0fc ecbd 57a7 01be 80f5 373e 88f7 143e
00000010: 09c6 e3bd e6b4 6abe 141d 37be b80e 52be
00000020: 604d a5bd 0b0c fdbd 7e6b 5fbe 271a 0b3d
00000030: c0ca 833c 4a88 47bd 8ce2 1cbe e4ac 4b3e
00000040: c84a 83be 8c98 563d 0423 f33d 720c 283e
00000050: 875f 57be 5059 20bd f67f 553e 8582 303d
00000060: f867 923d 9d0b fdbd e6ee 343e e110 bdbd
00000070: 04db 09be 4d77 533e c79c b13d f49c b4bc
00000080: 30b6 fabd 6a73 bebc 1d2e 2cbe aca1 2cbe
00000090: e846 33bc 90f6 453d 88c2 51be 746b 813e
000000a0: d958 5b3e 69b8 6cbe 2636 283e 6fdc 1bbe
000000b0: 489c 50be 5aa0 823e 1604 b4bd 72f5 97bd
000000c0: 9d71 193d ee14 253e cfa5 42bc 652c a5bd
000000d0: 48d7 1b3c c0a2 04be 5c36 3abe 9c52 393d
000000e0: 3928 a53b db66 d73d 1f00 babd 5f1d 87be
000000f0: 6016 7ebd f557 83be cb75 cabb 2e00 e33d
00000100: 6bdd 453d 539d 4f3e 7d0e 443d a5b1 003e
00000110: 9914 793e 885d 183d 2068 2a3d 6e1f c6bd
00000120: 1623 4f3e 097d 643e e508 0fbe 3ad6 823e
00000130: 8072 9a3d db5f a8bc c6c4 2bbe 28cb 6cbe
00000140: 1984 36be c573 cdbd d1f0 2dbe 8e21 5cbd
00000150: 302a 41be 4403 56be 20ef e3bc 5aa5 53be
00000160: 36e4 923a 929e 363d dcdb b43d 2af9 313e
00000170: 10bc 0b3e 4471 15be eb48 a1bc 092b 683c
00000180: e8a0 373e 8af5 133d 609d 16be d033 37bd
00000190: 93ab 653c 28d3 b13d a840 bebd 4389 68be
000001a0: 9e0f 50be 46bb ed39 3c2c 62be 3148 7c3d
000001b0: 8aeb 203e a852 55bc 99b8 6f3d af25 273e
000001c0: a567 163e 8472 76be 7f03 743e 0ae3 4e3d
000001d0: 02e1 76be 88cf 7e3d 4a48 30be efd9 6c3e
000001e0: 9bfc 423e f1ad 35be 48ee 45be 2d11 463c
000001f0: a4a1 87bd 8eb5 c23d e020 82be b5dc 2a3e
00000200: ad0d ae3c d535 65bd 18bf 21be f915 653a
00000210: aa3a 293e 0267 793e eecd 25be f900 e7bd
00000220: 1281 813d f5a5 023e 1eb4 61be a870 d9bd
00000230: 7862 4bbe 59be 653e 8578 ecbd 6422 0c3e
00000240: 3c90 f43d a8b1 083e 7734 a23d b30d 253e
00000250: f9c7 ecbb f8b9 063e e042 08bd dfd3 e13c
00000260: c824 cb3d e001 65be b03e d2bd f655 38be
00000270: 38b2 9bbd e4e6 a2bc 7b2c 0d3e ee89 57be
00000280: 2811 5bbe 29b9 2e3e 9c82 f7bc b4b4 d5bd
00000290: 0eb4 7fbd 4074 5a3c 6436 3bbe 4a29 72be
000002a0: 5935 24be c684 653e 462e 923d 844f 75be
000002b0: 0ce8 09be aa29 583e 42b3 753e 4444 9b3d
000002c0: c5ae 083e 91ea a03c fc35 fc3d ff3d 46be
000002d0: caef 7f3c 4ef6 62be 14ca 7bbe 3771 483e
000002e0: a9e0 523b 8c23 d23d 4a91 47bd 3b2f 5dbe
000002f0: 8069 423e 75c7 72be a08b 25be 12c1 a43d
00000300: d313 8cbd 4a3d 073e 6b7b 44be 1b31 d43d
00000310: 9be6 fcbd 341b 0e3e 70c5 e2bc 92a2 33be
00000320: 292f cfba 09d7 07bd 9fc6 423e b09b b9bd
00000330: 30bd b53c f151 cabd 4a8e 1c3d 59ae 683e
00000340: bfd7 d53d e2df 023e 395b 7cbe 84a7 203e
00000350: cc31 713e 982a 823d 24f3 543e 2880 da3d
00000360: 013e 5b3e 9a8b e0bc 3374 91bd a489 0b3e
00000370: 246a 89bd aea3 08bd 6b60 c43c 6bda b8bd
00000380: d18b 193d 6a7d 06be 80c5 29be 36a4 773e
00000390: 1e3b 79be f295 07be 4662 6a3e 19ac 1bbe
000003a0: d5c6 5fbe 5593 1e3e 9d81 7a3e 2c13 413e
000003b0: 4c20 31be 63f7 74be 6ff1 86be 1022 0e3b
000003c0: 11c3 613d f12c 26bd 033d b13d 6195 bcbd
000003d0: 0f08 2d3c 94c9 653e f0e2 a6bd 50c3 2abe
000003e0: 887b 6a3e 6eb6 413e c778 753e 9086 6b3e
000003f0: 8021 343b 5310 153e 8075 d83c e159 c03d
-0.11571622 -0.12661491 0.17964745 0.1454755 -0.111217566 -0.2292057 -0.17882186 -0.20513427
-0.08071399 -0.12355813 -0.21818349 0.033960488 0.01608789 -0.04871396 -0.15320796 0.19890171
-0.2564299 0.052391574 0.11871913 0.16410998 -0.21032535 -0.039147675 0.20849594 0.043093223
0.07148737 -0.12355731 0.17669258 -0.09231735 -0.13462454 0.20650978 0.08672481 -0.022047497
-0.12241781 -0.023248393 -0.16814466 -0.16858548 -0.010942198 0.048330843 -0.20484364 0.25277293
0.21420611 -0.23117222 0.16426906 -0.15220807 -0.20372117 0.25512964 -0.08789842 -0.07419862
0.037461866 0.16121265 -0.011880352 -0.08065108 0.009511776 -0.12952709 -0.18184799 0.045244798
0.0050401953 0.10517665 -0.09082054 -0.26389596 -0.062033057 -0.25653043 -0.006178593 0.11084019
0.048306864 0.20274858 0.04786538 0.12567766 0.24324264 0.037198573 0.041603208 -0.096739635
0.20228228 0.22313322 -0.13968237 0.25554067 0.075413704 -0.02055352 -0.16774282 -0.23124373
-0.17823829 -0.10031847 -0.16986395 -0.053742938 -0.1886375 -0.20899683 -0.027823985 -0.20668545
0.0011206928 0.04458482 0.08830997 0.17380205 0.13645959 -0.14593989 -0.01968809 0.014170417
0.17932475 0.036122836 -0.14708471 -0.044727147 0.014017957 0.08682853 -0.09289676 -0.22708611
-0.20318457 0.00045343692 -0.22087187 0.061592285 0.15714851 -0.013020195 0.058525655 0.16322969
0.14687975 -0.24067122 0.23829459 0.05050949 -0.24109271 0.062209636 -0.17215076 0.2313001
0.19041674 -0.17742135 -0.19329178 0.012089056 -0.066226274 0.09507285 -0.25415707 0.16685756
0.021246755 -0.05595954 -0.15795553 0.0008738931 0.16526285 0.243557 -0.16191837 -0.112794824
0.06323446 0.1275862 -0.22041366 -0.106171906 -0.19861782 0.22435893 -0.11546425 0.13684994
0.11941573 0.1334902 0.07920163 0.16118507 -0.007225987 0.13156879 -0.033266902 0.027566848
0.09919125 -0.22363997 -0.10265863 -0.18001541 -0.07602352 -0.019885488 0.13786499 -0.2104871
-0.21393263 0.1706282 -0.030213647 -0.10434857 -0.062427573 0.01333338 -0.18282467 -0.23648563
-0.16035976 0.2241393 0.07137732 -0.23956114 -0.13467425 0.21109644 0.23994163 0.0758138
0.1334792 0.0196431 0.12314984 -0.19359587 0.015621135 -0.2216427 -0.24588805 0.19574438
0.0032177365 0.10260686 -0.048722543 -0.21600048 0.18985558 -0.237089 -0.16166544 0.08044638
-0.06839719 0.13206974 -0.19187705 0.103609286 -0.12348672 0.13877565 -0.027682036 -0.17542484
-0.0015806902 -0.033164058 0.1902108 -0.09062898 0.022184938 -0.0987891 0.038221635 0.22722758
0.10441541 0.12780717 -0.24644174 0.15688902 0.23554152 0.0635578 0.20795876 0.10668975
0.21410371 -0.027410317 -0.07102241 0.13626724 -0.06709698 -0.033359222 0.023971757 -0.09026035
0.037486855 -0.13133779 -0.16579247 0.24183735 -0.24338958 -0.13240793 0.22889051 -0.15202369
-0.21853192 0.1548589 0.24463506 0.1885497 -0.17297477 -0.23922496 -0.26356074 0.0021687783
0.05511767 -0.040570203 0.08654215 -0.09208179 0.010561003 0.22440177 -0.08148754 -0.16676068
0.22898686 0.18917248 0.23971854 0.2300055 0.0027485788 0.14557008 0.026423216 0.09392143

node_encoder.2.bias f4 [16]
00000000: d07d 76bb 6a77 003e fa50 56bd 8905 1cbd
00000010: 75a3 1b3e f2cc c63d 6221 3a3e 019a 8dbd
00000020: b1a0 68bd 0ad8 2dbe adc1 c1bd 54a7 79be
00000030: df3d 743e f65b 40be 9244 a7bd de1d b73d
-0.0037611611 0.12545553 -0.05232332 -0.038091216 0.15199073 0.09707059 0.18176797 -0.069141395
-0.056793872 -0.16976944 -0.09460769 -0.24380237 0.23851727 -0.1878508 -0.081673756 0.089412436

node_encoder.3.weight f4 [16]
00000000: 9022 7f3f 7f06 7c3f 1969 7d3f ac9c 813f
00000010: 68b9 813f ab89 7e3f d189 7c3f ca4a 7b3f
00000020: e980 7c3f 0b43 7f3f eb27 803f 2261 803f
00000030: bd25 813f 3e39 813f 6022 823f 8ad4 813f
0.99662113 0.9844741 0.9898849 1.0125937 1.0134706 0.99428815 0.9864779 0.98160994
0.986342 0.99711674 1.0012182 1.0029643 1.0089642 1.0095594 1.016674 1.0142987

node_encoder.3.bias f4 [16]
00000000: b7db 9ebc d0bc 6cbc 8ddf bd3c 3a5e 2bbc
00000010: e433 ab3c 8d61 2ebb 091b 91bc a26f 3fbc
00000020: 7388 13bc a970 2139 2f21 033c e17f 70bb
00000030: 520f 683c 25b6 dfbb 75d0 3138 e724 7c3c
-0.019391878 -0.014449313 0.023177886 -0.010459477 0.020898767 -0.0026608438 -0.017713087 -0.01168433
-0.0090047 0.00015396126 0.008003517 -0.0036697316 0.014163809 -0.0068271332 4.239423e-05 0.015389658

edge_encoder.0.weight f4 [16, 4]
00000000: 9f54 bc3e 45ca 953e cbfd e13e 621f e4bc
00000010: 3595 96be 6087 fbbe 8d10 d03d 2b22 313e
00000020: bb01 93bc 7a45 a13e bdaa 58bd 9405 d53d
00000030: 4243 e2be 688a e73d 44d3 173e 749c 30be
00000040: 026a 8f3e a4d3 f2be b6cd ca3e a62d eebe
00000050: e493 b63e 3f22 07be 8876 bfbe 3943 0b3d
00000060: d77a 953e 001e 99bc 4081 acbe cc4c acbe
00000070: bc58 c33e c472 e7be 4606 83be 1cef eabe
00000080: 6471 f6be 5836 eb3e 8505 91be 69c3 a7bd
00000090: be48 b1bd 5e2f d2be c2c0 43bd 8ac9 d4be
000000a0: 8c8b 95be ab4a ca3e f46d a7be 04f6 a93e
000000b0: e07d 06be ec57 2c3e 56fc c2bd e7db ad3e
000000c0: ee12 da3e 87e7 d63e 4b78 ae3e 5b16 35be
000000d0: 268f 9d3e 6e8f bebe eb58 f5be c999 cc3e
000000e0: b333 a4bd adcd d23e 9819 813e 2ff1 1dbe
000000f0: 4cfb 0dbe d04d 74bd d09e e0be 369e c23e
0.3678331 0.29255882 0.4413894 -0.027846996 -0.2941071 -0.4912672 0.10159407 0.1729819
-0.017945161 0.3149832 -0.052897204 0.104014546 -0.4419194 0.11305696 0.14826685 -0.17247182
0.28010565 -0.47427094 0.3961007 -0.46519202 0.35659707 -0.13196658 -0.3739512 0.033999655
0.29195282 -0.018691063 -0.3369236 -0.3365234 0.38153636 -0.45204747 -0.25590724 -0.4588555
-0.48133385 0.45939898 -0.28324524 -0.081915684 -0.086564526 -0.41051763 -0.04779125 -0.41560012
-0.29208028 0.39510092 -0.32701075 0.33195508 -0.13133955 0.16830415 -0.095207855 0.33956835
0.42592567 0.41973516 0.3407615 -0.17684309 0.30773276 -0.37218803 -0.47919402 0.3996108
-0.08017673 0.41172543 0.2521484 -0.15424035 -0.13865393 -0.05964452 -0.43871164 0.3801133

edge_encoder.0.bias f4 [16]
00000000: b1c7 97be d61f 453e 9f94 fa3e de93 cfbe
00000010: 5bb6 8fbe b519 d43e eeb1 dfbc 26f6 e4be
00000020: b550 303e 6dee b23e 505c 9cbe 1199 bc3e
00000030: 97bd e83e efe0 df3e 0552 943e 8a84 fd3c
-0.2964454 0.19250426 0.48941514 -0.405425 -0.28068814 0.41425863 -0.027306523 -0.44719046
0.17218287 0.3494753 -0.3053918 0.3683553 0.45457146 0.43726298 0.28968826 0.030946989

edge_encoder.2.weight f4 [16, 16]
00000000: 141b be3d ae43 77bd 4418 383d 64df fcbd
00000010: 6855 413e 661c b5bd 8513 16be 1035 12bd
00000020: 58e2 493d 478e 123d c551 15be 1611 0bbe
00000030: 995f 4fbe 6302 c8bd d873 a1bc ef8e 5b3e
00000040: 4e7c 3fbe ee02 233d 4f5a fabd d821 f2bd
00000050: 9e74 7bbe 881c 7ebe be4c 29be 008a 06bd
00000060: 2204 3e3d 99f7 b73d 7583 6ebe 9775 6bbe
00000070: 9dc5 15be 899d fdbd adca 08be bb3d 033e
00000080: 532b 893d 56d8 33bd 4043 48be 82a6 23be
00000090: d533 773e 32b2 70be 6261 b5bc 2636 61be
000000a0: c52a 83be 2cd9 683c c4d8 b7bd f8d0 87be
000000b0: 3475 30be 06ac 2e3e 14d8 febd 7620 083e
000000c0: 97d9 8d3e dd5c 5bbe b945 24bd 6e39 503e
000000d0: 91f5 e6bc 117a b23d de51 7c3e 9e42 72be
000000e0: ae51 763d 1f40 783e 60fb 35bd 9f65 88be
000000f0: 0ef7 06be 1fb1 2dbe 69e8 f43c dca0 273c
00000100: 201c db3d f9c5 ca3d e9a0 3f3e 9650 32be
00000110: 71c2 b8bd 9453 c7bd 992a 723d b88e 1dbe
00000120: ab90 51be fa4c 063c bc37 13be d355 0c3e
00000130: 2948 103e adf9 d0bd 54e9 9cbd 3c7f e13c
00000140: 234e efbd 89c4 22bc 6ac5 6cbe 4899 323e
00000150: 35a0 3c3e 3ed7 813d 3995 703e 98cb 163d
00000160: 7cc6 35be f156 09be 2334 b5bd 7a14 4b3e
00000170: 3a00 a53c 3467 8d3d 2bc5 f9bd 9bf1 b93d
00000180: 3b6a 843e d673 72be 40f1 63be 4874 a6bd
00000190: 3cb1 01be 5d96 2fbe 5095 a43d 26d0 0fbe
000001a0: 1a31 723e 48b2 25bd 397f 9cbd 3e48 3a3e
000001b0: 50e2 9ebd d82f 1cbe 6002 083d 14c6 a43d
000001c0: a92f 0cbe 7f6a 27be bcaf 5abe f0ca 6fbe
000001d0: 8465 3d3e 89ff 49bd 0a7f 983d cc88 82bd
000001e0: e610 353e 6560 b33d 4cb4 b23d 33ab 133d
000001f0: 2169 933d f24d 293e aa22 51be bf0a 883e
00000200: fb7b 5a3b 5c8b 88bc b59f 79be 768a 083e
00000210: f3cc 57bd 7098 6a3e 6685 f0bd 406f 4ebe
00000220: af5c 1fbe f73d f23d 050f 46be f87e 76be
00000230: 48bd 2f3e ab9c f93d 5584 093d 271c 163e
00000240: f6b8 7abe 7b15 943d 1094 9cbb 68b0 a3bd
00000250: e827 b93d 4a27 6bbe 941d 6c3e 62f0 1cbe
00000260: 8ba6 5f3e 6f69 17bd a0f1 73be 7fec 25be
00000270: 615d c63d 53ed 483d a74c 233e f66c 9f3d
00000280: f578 04be 04f9 23be 4762 bcbd e053 3dbe
00000290: 6a70 12be 5da2 1ebe 84db 5dbe e0c6 6abc
000002a0: afc6 23be e47a 8fbd 2d70 c03d 9a54 adbd
000002b0: 4764 1dbe 7ea0 aabd 000c 943d be98 80bc
000002c0: e21a 003e b477 3e3e ea70 6b3e b429 583e
000002d0: d491 04be 3a64 f63c 1b8a 723e 6a38 43be
000002e0: 276c ab3d 8c89 7bbe abad 9a3b 9e01 8dbc
000002f0: b9ad 0f3e e737 5cbe 31f2 1c3e 66e5 79be
00000300: ac9d 01bd b85a 57bd 9c93 083b e8ee c2bd
00000310: fd41 acbd cd9c e83d d6d1 75be b6c0 2e3e
00000320: 2d3f 13be 8ba2 4cbe 6bb0 813b 7b7f 803d
00000330: 4681 1dbe d8cd f8bd 671f 5fbe 4a9d a03d
00000340: 1337 363e 6a52 023e cde6 663e f4c1 e73d
00000350: 6600 aebd 176d 0b3e b986 db3d 0cec 893d
00000360: 815b 25be 1573 443e 0d38 5bbd 48a1 30bc
00000370: d2df 233e 26df 3dbe ab45 2abe 93fb 963a
00000380: ef0e 2dbe 3f79 4dbe b38a 6f3e d011 d73d
00000390: 4453 903e 409d 153e 052f 573e 407c 1abc
000003a0: 7a2c 02bd 8765 d3bd 978b 303e fd14 3a3e
000003b0: afd6 c93c 826b 143d dd81 90bd 611a c6bd
000003c0: 6f66 353e 5049 29be b506 f2bd bcd3 16be
000003d0: b148 463e 9845 1ebe 2bd5 25bd 362d 24be
000003e0: a874 b63d 3b5c 16be 4db9 8cbe 92e3 81be
000003f0: 6adb 6ebe cab6 91bd e961 01be 4510 65bc
0.092825085 -0.06036728 0.044945017 -0.12347296 0.18880236 -0.08843307 -0.14655884 -0.035695136
0.049288124 0.035780217 -0.14581974 -0.13580737 -0.20251311 -0.0976608 -0.019708559 0.21441244
-0.18699762 0.039797716 -0.12224256 -0.118228614 -0.24556205 -0.24815571 -0.16533181 -0.03284645
0.04639066 0.089827724 -0.23292334 -0.22994076 -0.14626165 -0.12383563 -0.13358565 0.12816517
0.066977166 -0.043907486 -0.19556904 -0.15981486 0.24140866 -0.23505476 -0.022141162 -0.21993312
-0.25618568 0.014211934 -0.08976892 -0.26526618 -0.1723221 0.17057809 -0.124435574 0.13293633
0.2770507 -0.21422143 -0.040105555 0.20334408 -0.028193267 0.087146886 0.24640605 -0.23658225
0.06013649 0.2424321 -0.044429183 -0.2664003 -0.13180181 -0.16962098 0.029895978 0.010231223
0.10698724 0.099010415 0.18713726 -0.17413554 -0.09021462 -0.09732738 0.059122656 -0.15386474
-0.20465343 0.008197064 -0.1437673 0.13704614 0.14090027 -0.10203872 -0.07661691 0.02752649
-0.11684825 -0.009934553 -0.23122182 0.17441285 0.18420489 0.06339882 0.23494424 0.036815256
-0.17751497 -0.13412072 -0.08847835 0.1983203 0.02014171 0.0690445 -0.1219581 0.09079286
0.25862297 -0.23677 -0.22259998 -0.08127648 -0.12665266 -0.17147203 0.080362916 -0.14044246
0.23651543 -0.040453225 -0.07641453 0.1819162 -0.077580094 -0.15252626 0.03320539 0.08045593
-0.13690056 -0.16349219 -0.213561 -0.23417258 0.18495756 -0.049315963 0.07446106 -0.06373748
0.17682227 0.0875862 0.08725795 0.03605194 0.07197786 0.1653364 -0.2042338 0.265707
0.0033338058 -0.016668014 -0.2437733 0.13334069 -0.05268569 0.22909713 -0.11744194 -0.20159626
-0.155627 0.11828225 -0.19341667 -0.24071872 0.17162049 0.12188085 0.033573467 0.14659177
-0.2448462 0.072306596 -0.0047783926 -0.07992631 0.09040815 -0.22964206 0.23058158 -0.15326074
0.21840875 -0.036965784 -0.23822641 -0.16203497 0.09685779 0.049054455 0.1594721 0.077844545
-0.12936766 -0.1601296 -0.091984324 -0.18489027 -0.14300695 -0.15491624 -0.2166577 -0.014329642
-0.1599376 -0.070058614 0.09396396 -0.08463402 -0.15370284 -0.08331393 0.07228851 -0.015697833
0.12510255 0.1860035 0.22992292 0.21109658 -0.12946254 0.030077089 0.23685496 -0.19064489
0.08370238 -0.24564189 0.00472041 -0.017212685 0.14031114 -0.215057 0.15326764 -0.24403915
-0.03164451 -0.05257675 0.0020839935 -0.09518224 -0.08411024 0.113580324 -0.24005827 0.17065701
-0.14379568 -0.1998388 0.0039577982 0.06274315 -0.15381345 -0.121486366 -0.21789323 0.078425005
0.17794447 0.12726751 0.22548981 0.113162905 -0.0849617 0.13615833 0.10719056 0.067344755
-0.16148187 0.19184525 -0.05352025 -0.01078064 0.1600335 -0.18542156 -0.16628139 0.0011519067
-0.16900228 -0.20065783 0.23392753 0.10501444 0.28188527 0.14610767 0.2101403 -0.009429038
-0.031780697 -0.10322099 0.1724075 0.18172069 0.024638502 0.03623534 -0.070560195 -0.09673
0.17714857 -0.16531873 -0.118176855 -0.14729208 0.19363667 -0.15456235 -0.040486496 -0.16032872
0.08908969 -0.1468362 -0.27485123 -0.25368935 -0.23325887 -0.07114942 -0.12635006 -0.01398093

edge_encoder.2.bias f4 [16]
00000000: 3c48 dcbd 46d3 033e 7948 55be 730c e8bd
00000010: 7276 4f3e 6eb3 8f3c 93a6 163e 60fb b3bc
00000020: aaf3 7f3c 882c 83be 18d3 573d 4716 0bbe
00000030: c22a 10be 93df 38be 09d1 3abe 3340 cdba
-0.10755965 0.12873563 -0.20828427 -0.113304995 0.20260027 0.017541613 0.1471198 -0.02197045
0.015622059 -0.25619912 0.05269155 -0.13582717 -0.14078811 -0.18054037 -0.18243803 -0.0015659392

edge_encoder.3.weight f4 [16]
00000000: 36b7 7e3f 200e 803f 8d6c 7e3f df77 843f
00000010: d331 7e3f 045d 793f 46ca 7e3f 6486 833f
00000020: d842 7a3f 7b54 7d3f 809e 7e3f bad7 803f
00000030: 10e5 7b3f 21b0 7e3f 4a61 833f f56c 7e3f
0.9949831 1.0004311 0.99384385 1.0349082 0.99294776 0.97407556 0.99527395 1.0275388
0.97758245 0.9895703 0.994606 1.0065835 0.98396397 0.994875 1.0264065 0.99385005

edge_encoder.3.bias f4 [16]
00000000: c41b fd3b 42ec e53b 9058 94bb d280 d0bb
00000010: 0ab8 39bc d06d dbbc 52ea 063c bd68 78bb
00000020: 5294 aabc a1f8 04bc e80a de3b 4efb 003c
00000030: 5eed 8b3c c029 c1bb 730f 823c fc28 b23b
0.007724257 0.0070166895 -0.004527159 -0.006363013 -0.011335382 -0.026785761 0.008234577 -0.0037904226
-0.020822678 -0.008115918 0.0067762025 0.007872416 0.017080959 -0.0058948696 0.015876507 0.0054370146

node_model.0.weight f4 [16, 48]
00000000: e44a bd3d 3af7 f9bd e9ae abbd b7a5 a2bd
00000010: 7b51 ca3d db54 c7bd 3562 b53d 5a98 37bd
00000020: 16bf 173e aa06 ea3d a386 713d 8e0d a83c
00000030: 9550 d9bd 584e e83c 8796 033e f62e 53bc
00000040: b104 26bd b9ae a3bd 5874 93bd cdf2 04be
00000050: 0887 5fbd bbf2 9cbd 9cfe d4bc ccd0 dabd
00000060: 1abe dd3d 6e6b 143e 5f35 18be 9ef9 963d
00000070: c951 46bd cbe2 343e 1d6b b1bd a34e 7e3b
00000080: 5efb 1a3e c494 a23d 5fcf 21be ce81 ebbd
00000090: b552 80bd d96e 17bb 32a8 20be d74b 9c3d
000000a0: d58e 063e 5a2f 0fbe be45 b13d 919f 29bd
000000b0: 6e11 eb3c 6525 123e e281 a13c da3a ea3d
000000c0: e648 d8bd e82e 133e e5cf 96bd 1f97 e93d
000000d0: 579a b63d ee93 ca3d 0ca6 d2bd 4aba a7bd
000000e0: f8ed 63bb be1d 72bd 4e4e 70bd 32c4 99bd
000000f0: 635d 1b3e d81c bebd 23e2 ed3c 9ae8 a53c
00000100: 6447 1bbe 16f9 00be c12a 7fbc 5807 08be
00000110: f4b9 7dbc 9320 b8bc 956b 0e3d 935d 5d3d
00000120: 087c cb3d 43fb cebd ed1f 1a3e b4a5 2fbe
00000130: 0c21 bebd 241d 84bd 4eda 913d beb4 cabc
00000140: 5829 10be 36a7 f9bb 3e40 d63d a4f6 f43d
00000150: f548 34bd 6299 ec3d f92a b9bd 044e 273d
00000160: c192 e3bd 38c1 eabc fa1f e53d e69c 8f3d
00000170: f214 29bd 132c 10bd ce78 90bb b7d6 863d
00000180: f3ab dd3d caff 34bd bfd5 623c 8eb6 38bd
00000190: f143 81bd 7b0b 4dbd e105 493d 1e20 9bbd
000001a0: 3bbb f23d 2504 69bc e051 c5bd a03f 923d
000001b0: 0248 8fbd 5136 23be 50d4 1f3d 7983 d8bd
000001c0: 45a8 0bbe d6cd 08be dac5 98bd f307 343d
000001d0: 2581 febd 2853 583d 5529 b93d 62c4 94bd
000001e0: d475 8f3d 5652 083e 23a7 fe3d deda cfbd
000001f0: bf2f c3bc f0fa 783d 345b 3f3d d2aa e6bc
00000200: 3e31 953c d810 96bc 450d f2bd a9a9 74bd
00000210: d185 943d a407 d0bd 04d0 e33c a26c 1b3e
00000220: d9a1 a1bd b453 5dbc 0a88 3a3d 2b90 1a3e
00000230: ee2b e5bd 025c e8bd 1f3a 54bc 86fa ac3c
00000240: 6437 26bd 6f73 ba3d 46f6 07be f1c6 0bbe
00000250: 5f7e 01be 8ffd ecbd b914 d53d 7c1c 073e
00000260: 6c28 c1bd 8c9a 153d a6b4 b8bd f5ab 0f3d
00000270: c954 24bd 1012 acbd 6c28 113e 61a0 41bd
00000280: de9e 873d 2c45 81bb 7b99 8bbd 846d b7bd
00000290: 8ece 87bd e4f6 6dbd 0281 d93d 8005 d8bd
000002a0: 400d d7bd a623 cebd 90be 2b3d 7766 853d
000002b0: a567 5f3d b875 2a3a 3f4a 093e 94b5 72bd
000002c0: 1149 aabd c277 d5b9 fb2c 0c3d dea4 a73d
000002d0: b332 12bd a035 a7bd 4227 7cbd ba15 6dbd
000002e0: 019c fc3d 5984 0b3e 61da 6abd 4d29 7cbc
000002f0: f437 8e3d bf4a 053e 8e77 893c 5771 ab3a
00000300: 56ab 31bd d499 ee3d 6475 bebd 8e21 07bd
00000310: 722b b5bd 2ab0 90bc 1668 e0bd 8df8 dbbd
00000320: 4fc7 a7bd f9a4 283d eedc b4bd 49f6 87bd
00000330: 2236 afbb 9bbf 453d ef4c 1dbe 3d0a 8ebd
00000340: df9e 82bd 43ed 8a3d 73be 7d3c ac63 06bc
00000350: b8d4 f0bd 1e39 93bd f05b 0a3d 98c6 0dbe
00000360: 68d0 11bd 884d ebbd 5cca 403d dc45 09bc
00000370: 6e32 b5bd 5170 5bbd 343a 113e 9efc 03be
00000380: 02a0 10bd 68ce 84bd 051e 8bbd 3f6f 26be
00000390: e58e 00be 5299 77bd d02f 28be 56f6 a4bc
000003a0: 4fe4 f3bd c03f 303d 9b60 fb3c b651 c5bd
000003b0: d106 e23c 1c97 dfbd 99ca 193d 36d3 a13d
000003c0: e165 093d af09 e0bd 3c86 cfbd e47d 033e
000003d0: 3414 e63c ac9a e63d f225 b0bb 125c 0c3d
000003e0: 9a5c 84bd 6c89 9abd e0b5 04be e3f3 cfbc
000003f0: e425 24bd 0767 1b3e 5946 79bd 06e6 ccbd
0.092428 -0.12205358 -0.08382971 -0.07941764 0.098788224 -0.09732982 0.08856622 -0.04482303
0.14818987 0.11427052 0.05896629 0.020514276 -0.10611073 0.02835767 0.1285039 -0.012889614
-0.040531818 -0.0799231 -0.07199925 -0.12983246 -0.054572135 -0.07663485 -0.026000313 -0.10684356
0.108272746 0.14494106 -0.1486411 0.073718295 -0.04841784 0.1766464 -0.08663008 0.0038804195
0.15134951 0.07938531 -0.15801762 -0.11499368 -0.06265775 -0.0023106842 -0.15689161 0.07631653
0.13140424 -0.13982907 0.086558804 -0.04141194 0.028694835 0.14272077 0.019715253 0.11437006
-0.10560779 0.14373362 -0.073638715 0.11405777 0.08916157 0.098914966 -0.10285577 -0.08189829
-0.0034779292 -0.059110396 -0.058668427 -0.075081244 0.15172343 -0.09282845 0.029038494 0.020252515
-0.15163952 -0.12595019 -0.015574158 -0.13284051 -0.015486229 -0.02247647 0.034770567 0.054044317
0.099357665 -0.10106518 0.15051241 -0.17153054 -0.09283647 -0.06450871 0.071217164 -0.024744388
-0.14078271 -0.00761881 0.10461472 0.119611055 -0.04401489 0.11552693 -0.090413995 0.040845886
-0.111119755 -0.028656587 0.1118774 0.07012348 -0.04127974 -0.035198282 -0.0044089323 0.06583922
0.10823812 -0.044189252 0.013844906 -0.045095973 -0.06311787 -0.050059777 0.049077872 -0.07574485
0.11852118 -0.01422218 -0.09634757 0.07141042 -0.06996156 -0.15938689 0.039020836 -0.105719514
-0.13638408 -0.1335977 -0.07459612 0.043952893 -0.12426976 0.05281368 0.090410866 -0.072640195
0.07004896 0.13312659 0.124342225 -0.101491675 -0.023826478 0.060786188 0.046717837 -0.028157625
0.018211957 -0.018318579 -0.11818937 -0.059732113 0.07252086 -0.10157707 0.02780915 0.15178159
-0.07892198 -0.013508726 0.045539893 0.15094058 -0.111900195 -0.11345674 -0.01295331 0.021115553
-0.04058017 0.091040485 -0.1327754 -0.13650109 -0.12645863 -0.115718 0.10404343 0.1319446
-0.09431538 0.03652434 -0.09018831 0.0350761 -0.04011992 -0.08401883 0.14175576 -0.04727209
0.066220984 -0.0039450135 -0.068163835 -0.08956435 -0.06631194 -0.05809678 0.106203094 -0.10547924
-0.10500574 -0.10065393 0.04192978 0.06513684 0.054542203 0.0006502527 0.13407229 -0.059255198
-0.083147176 -0.00040715752 0.034222584 0.08185743 -0.03569288 -0.08164525 -0.061560877 -0.05788205
0.12334443 0.13624705 -0.05733717 -0.015390706 0.06944266 0.13016795 0.01678064 0.0013080043
-0.04337629 0.11650434 -0.09299734 -0.032990985 -0.08846177 -0.017662127 -0.10957353 -0.10740767
-0.08192312 0.041172955 -0.088312015 -0.06638772 -0.0053470293 0.048278432 -0.15361379 -0.069355465
-0.063779585 0.06783535 0.015487301 -0.008202475 -0.11759323 -0.071886286 0.033779085 -0.13845289
-0.035599142 -0.11489397 0.047067985 -0.008378472 -0.08847509 -0.05357391 0.14182359 -0.12889335
-0.035308845 -0.06484681 -0.06792835 -0.16253375 -0.1255451 -0.060448952 -0.16424489 -0.020136993
-0.11908781 0.043029547 0.030685714 -0.09634726 0.027591141 -0.10917494 0.037546728 0.079016134
0.033544425 -0.10939347 -0.10133025 0.12840992 0.028085805 0.1125997 -0.005375617 0.034267493
-0.06462975 -0.075457424 -0.12960005 -0.025384849 -0.040075198 0.1517602 -0.060858104 -0.10004811

node_model.0.bias f4 [16]
00000000: d72a f63a de8a 083d aff4 1c3d 6ccc 073e
00000010: 4bf2 9ebd 3884 d7bd 0624 163e 825c 243e
00000020: 14f2 67bd 2a9f cbbb 087e 0cbe 6914 d2bd
00000030: 4ad9 f43d 5859 9e3d 9c82 b23d ad55 363b
0.0018781078 0.03333556 0.038319286 0.13261575 -0.077610575 -0.105232656 0.1466218 0.16050914
-0.056627348 -0.006214042 -0.13719952 -0.10257799 0.11955507 0.07731885 0.08716318 0.0027822063

node_model.2.weight f4 [16, 16]
00000000: 3030 f13d 9d22 c43c 3799 ab3c ba22 9e3c
00000010: 6e8e 9abe d9bd 253e 3e1e 16bd 1581 94bd
00000020: 96e9 41be c608 e93d 6595 37be d97a 753e
00000030: d1ea 2fbd 4ad1 1bbd 1e02 c03d 5b2a 7d3e
00000040: f301 2bbe 5865 643d 2dad 3abe 9f63 8b3d
00000050: 5a5b 3dbe 7d57 2cbe 9fc1 0a3e cbb8 0abe
00000060: 6170 e4bd c64c 723d 8a54 44bd 279f 0d3e
00000070: 41fe 64be 01ea 09be 435d 403c b4ed 4bbe
00000080: 2b27 57bd 52df ddbd a4ae 573e 0d81 fc3c
00000090: 0df6 443d 7681 69be 114f 693d 27ea d5bd
000000a0: bca1 43be 4c2b d33c 5b80 003e a531 b9bd
000000b0: 30a1 a43c f8be 42bd eb6b 20be e269 e83d
000000c0: d37d 91be b378 3d3e 61ef 263e ff3a 04be
000000d0: 0a11 8fbd 9402 e8bb eddd 253d 9b2d 263d
000000e0: 43cf 8cbd 797d 62bc 47fa 083e 8f0c 2fbe
000000f0: b858 223e b867 0cbe f83d e2bd 797c 23be
00000100: 22e4 b8bd 97bb 49bd d1a3 10bd bf8d 4c3e
00000110: fd57 813d 5295 5b3e eff2 e2bc dec1 96be
00000120: 337d 50be 5e65 49be 60d3 f33d aeec 323e
00000130: f26d e2bd ecee 56be 2ce0 dfbd 7ce1 8c3d
00000140: b9da 73bd 84c3 45be f7b8 38be 5744 d5bd
00000150: 4811 a73d 409f 05be bd48 fc3d b2ff 2a3d
00000160: 63f5 253d bc32 8bbe 50b4 21bd ec8a b33d
00000170: 60ae 0e3e 3e11 333e c67c 88bd d52a c0bd
00000180: 551c 853c 5b58 8b3c ff2d 4f3e 6d63 0bbe
00000190: 4b1e cbbc 7e18 c43d a42d 72bc 4915 92bd
000001a0: 7f66 163e edca 44be 61b9 fc3d 94e7 873e
000001b0: 643a 23be 7266 8d3c 26f8 3fbe 905d 323e
000001c0: ab49 2abe 674b e93d 6bb5 503c dca5 93bd
000001d0: 68c5 0f3d 6a0f 79be eaab 533d e16e df3d
000001e0: e99d e2bd f490 f6bd 81ce 3e3e 1040 1fbe
000001f0: 5252 653b d8ac 8e3d 9e3c 3d3d 8cdf f93d
00000200: 1d46 003d 26bf 67be fb67 45be 9d02 6d3d
00000210: cb76 413e d7b6 c8bd 97ec 0dbe 9dda 93bc
00000220: 3d8c c0bd 464e 623e 7421 f23c 42e5 0abd
00000230: 464e 853d 6225 413e 52db 64be 7553 2a3e
00000240: e926 0b3e 9a5c 76be 93ea 213e ef45 ff3d
00000250: 69ae 46bd 5575 3cbd dc88 243e 47fb 5dbe
00000260: e7b0 6e3d fa22 9fbd d437 943d 7a32 e0bd
00000270: 8b0c 703e f88c 9ebd 9d6d 3e3e 981b 533e
00000280: c7d5 2cbe b128 c63d 490a 123e 490c 47bc
00000290: 5eb1 553c 4f54 b23d 9755 363e 0d28 80be
000002a0: f5d1 2ebe 43d6 2cbd 6c28 a2bd 5fcf 933a
000002b0: bc1f 4a3e 6753 ff3d b965 bc3d a8cb f73b
000002c0: 5fc7 56be f98b 853c 864d f83c 295d 05be
000002d0: 176c d73d 40a1 673e ba07 6fbe 9d7b 473e
000002e0: 93ab 813e edf3 37bd d3b5 56bb 2786 80be
000002f0: f1dc 12be 3c4a 96bd 0334 ca3c 7970 0a3d
00000300: 49d8 723c 9ac8 10bd 784a 35be f65d 9bbd
00000310: 5f17 8f3c 92ff 7a3e 47e6 5b3d fdc9 fa3c
00000320: 9b3b c6bd 4832 babd 987f c83d ac3f 1fbe
00000330: c389 aa3d 2de8 07be ccfc d5bd 17fa 503e
00000340: 59cc e43d 5702 15be b867 17be 9826 773a
00000350: 214a f13d 0856 123e 2f35 023e 7c81 e23b
00000360: bc01 653e 18c9 57be 8cf7 a43e c12b 4ebe
00000370: e72b 783c 50da 50be 8622 5c3e d0f5 023e
00000380: 530d 39be feb6 8e3d 7f5d 343b 95d2 4c3e
00000390: 3cf1 7ebe 3e96 9b3d fe55 153e 2f67 65be
000003a0: a5b6 bb3d c8ef cd3d a252 85be 3dba 7a3e
000003b0: 4af3 1cbe d70f 833e ccbb b83c ce01 563e
000003c0: bd48 763e 0762 56be 996c 4e3e 3623 81bd
000003d0: 4bb4 4f3b d6ad d33d 02e4 d23d 6aa0 90bd
000003e0: eb42 f93c c5e9 003e 9f27 6b3e 6f6e 3cbe
000003f0: 776c 37be 2018 85be ea9a fd3d 2424 d0bc
0.11776769 0.023942286 0.020947082 0.019303668 -0.3018679 0.16185702 -0.036649935 -0.07251183
-0.18936762 0.113786265 -0.17928083 0.23972644 -0.042948548 -0.03804139 0.09375404 0.24723189
-0.16699962 0.05576071 -0.18230124 0.068061106 -0.18491879 -0.16830249 0.13550423 -0.13547055
-0.11154247 0.059155248 -0.047932185 0.13830243 -0.22362615 -0.13468172 0.011740985 -0.19914895
-0.052527588 -0.108336106 0.21062714 0.030823255 0.048086215 -0.22803292 0.05696017 -0.10445052
-0.19104666 0.025777481 0.12548964 -0.09042672 0.020096391 -0.047545403 -0.15666167 0.113483205
-0.2841631 0.18503074 0.16302253 -0.1291313 -0.06985672 -0.0070803855 0.040494848 0.040570837
-0.068754695 -0.01382386 0.13376723 -0.17094634 0.15854156 -0.1371144 -0.11046976 -0.15965451
-0.09027888 -0.049251165 -0.035312477 0.19975947 0.063156106 0.2144368 -0.02770373 -0.29444784
-0.2036026 -0.19667575 0.11905551 0.17473099 -0.11056127 -0.20989579 -0.10931429 0.06878945
-0.059534762 -0.19312865 -0.18039308 -0.104134254 0.08157593 -0.1304903 0.12318561 0.041747756
0.040517222 -0.27187145 -0.0394786 0.087667316 0.13933706 0.17487046 -0.06664424 -0.093831696
0.016248861 0.017009905 0.2023239 -0.13612147 -0.024794718 0.09574984 -0.014781389 -0.07132966
0.14687537 -0.19218035 0.12340046 0.26543868 -0.15940243 0.017260764 -0.18747005 0.17418504
-0.16629665 0.11391335 0.012738566 -0.072093695 0.03510037 -0.24322286 0.051677622 0.1090982
-0.11065275 -0.12039366 0.18633462 -0.15551782 0.0034991694 0.06966561 0.046200387 0.12200841
0.031316865 -0.22631511 -0.19277947 0.05786382 0.18892972 -0.09800499 -0.13859783 -0.018048579
-0.09401748 0.22100171 0.029556967 -0.033910044 0.0650907 0.18861917 -0.22349289 0.16633399
0.13589062 -0.24058762 0.15812139 0.12464511 -0.048506174 -0.046010334 0.16067833 -0.21677886
0.058274176 -0.07770343 0.07237211 -0.10947128 0.23442285 -0.077417314 0.18596502 0.20615995
-0.16878425 0.0967573 0.14261736 -0.012148925 0.013042776 0.08707487 0.17806087 -0.25030556
-0.1707228 -0.042196523 -0.07917866 0.0011277011 0.19738668 0.124670796 0.091990896 0.0075621195
-0.20974492 0.016302096 0.030310404 -0.13023819 0.105186634 0.22620106 -0.23342791 0.19480748
0.25326213 -0.04491036 -0.0032762184 -0.2510235 -0.14342095 -0.07338378 0.024683004 0.03379867
0.014822074 -0.03534756 -0.17704189 -0.07586281 0.017467199 0.24511555 0.053686406 0.030613894
-0.096793376 -0.09091622 0.097899616 -0.15551633 0.08327057 -0.13272162 -0.10448608 0.20407902
0.11171789 -0.14551674 -0.1478566 0.0009428053 0.11781717 0.14290631 0.127156 0.0069124084
0.22363943 -0.21072805 0.32220113 -0.20133878 0.015147186 -0.2039578 0.21497545 0.12789083
-0.18071489 0.06968497 0.0027521548 0.20002206 -0.24896711 0.07597016 0.14583585 -0.22402643
0.09165696 0.100555 -0.26039606 0.24485107 -0.15327182 0.25598022 0.022550486 0.20899126
0.24051185 -0.20935832 0.20158614 -0.06305544 0.0031693156 0.10335891 0.10297395 -0.070618466
0.030427417 0.12589176 0.22964333 -0.18401502 -0.1791247 -0.25994968 0.12383063 -0.025407858

node_model.2.bias f4 [16]
00000000: 821e 43bd 77fe 033e da8a b4bb 1ef4 a43d
00000010: b7fd 563e c70e 10be bd3f fbbd ec90 67be
00000020: f4bc a8bd 591d 023d 6285 6bbc 4b91 bf3d
00000030: 3568 3f3d 566b 12bd 403f 2dbe 5fd6 783d
-0.047636516 0.1289004 -0.0055097165 0.08054374 0.20995222 -0.14068137 -0.122680165 -0.22613877
-0.08239165 0.03176627 -0.014375063 0.09353884 0.04673024 -0.035746895 -0.16918659 0.060751315

node_model.3.weight f4 [16]
00000000: 2d2a 973f db47 9f3f 7825 883f f9bb 8b3f
00000010: bca5 b53f cbf8 ae3f d637 9c3f 8d43 843f
00000020: 4770 953f 9b3d 923f 3225 9e3f 9667 a43f
00000030: 78fc 7c3f c4a5 893f f459 943f d52e 883f
1.1809746 1.2443804 1.0636435 1.091674 1.4191203 1.3669676 1.220454 1.0333115
1.1674889 1.142505 1.2355101 1.2844112 0.98822737 1.0753713 1.1589952 1.0639292

node_model.3.bias f4 [16]
00000000: 8109 69be cecc 273e f23f 1b3e a6b8 ff3d
00000010: 4a94 543e e270 0fbe bf56 32be dc3e 5bbd
00000020: 3b5d fdbd 4043 3e3e 0424 133e 2141 41be
00000030: e7d2 333c 62f4 b13d 6945 093e 903b 1dbe
-0.22757532 0.1638672 0.15161112 0.12486391 0.20759693 -0.14007905 -0.17415904 -0.053526744
-0.12371298 0.18580341 0.14369208 -0.18872501 0.010975576 0.086891904 0.13405384 -0.15354753

edge_model.0.weight f4 [16, 96]
00000000: 4156 a13d 1fef dabc cc47 babd 9993 9d3d
00000010: 94a8 a1bd c87d 543d e3be 453d c015 a4bd
00000020: d079 933d f041 98bd 389d 023c f476 d33d
00000030: e465 bb3d 02f4 5a3d d29f 6cbd 3832 a9bd
00000040: 0cbc 053d 681e 1a3d 0a9a 66bd d1fc dc3d
00000050: 6f49 cdbd f1f0 903d 2ec5 55bc c442 cc3d
00000060: a3b9 df3b e707 0b3d 4e4e 043d fcf4 1d3d
00000070: 037f a93c 4a9b 013d 7e50 b63d b272 8c3d
00000080: b447 04bd 7863 9c3d d799 c3bd fcdd a83d
00000090: 2db4 c63d 5e69 6fbd 28d3 ec3c c87e 423d
000000a0: ec80 dabd 6383 033d 3f73 ab3d 8076 b7bd
000000b0: 46fd fe3c 3ce7 b03d 136f 003d 18f8 ca3c
000000c0: 05db 19be 1162 3e3b ffd8 9abd c894 ca3b
000000d0: 299d 8dbc ae6b fd3d 1dcc 1bbd e1b8 a3bd
000000e0: eecb 673c 3182 6dbd 2740 f6bc 90a1 563d
000000f0: d3bb 843d 760b 973d 1466 233b dcf2 833d
00000100: 742c 033d 1341 9bbc 8363 c5bc 6938 773d
00000110: 53c1 2f3d 7999 963d 4be6 a9bd f3af 5fbd
00000120: 641b 963d 3660 b5bd 29f6 29bd b58a e4bc
00000130: c99c 2a3d ec7f b33d 92f1 bfbd a4ea 07bd
00000140: b43e 9ebc e928 b6bd c2e1 5cbd d063 a3bd
00000150: 597f c2bc d3fe 4dbd 4a21 6f3d 525f 1cbd
00000160: f358 05be dbd0 863d 0527 43bc 770a 9dbc
00000170: 361a b0bd 760a 4d3b 1844 583d 84fc 07bc
00000180: db53 463d 0f72 e13c aa46 acbc 9d89 9b3d
00000190: fd98 2dbd f417 b13d c792 7d3d 4247 91bd
000001a0: a6c2 733d 0e95 ab3d 43a1 c13c f7d1 49bd
000001b0: dbda c6bd 84d6 ab3d 4ab7 32bd 1650 bebd
000001c0: 8ca8 97bd f93a 42bc 40ab 84bd f4dc 8e3d
000001d0: 7a41 b23d 1c62 083c ad1d 89bc 234b 8e3b
000001e0: 9794 e73c 51a0 873d 7a2a 44bd 6ce1 80bd
000001f0: e302 babd 85e0 c7bd 6865 b7bd 8adc cebb
00000200: 8592 c93a 1910 9d3d eee5 223d 3d8b eabc
00000210: 48f7 d7bd ff08 9abd b430 a03d 20d3 2d3d
00000220: 00a6 35bd 99f8 db3d 7589 b83d 7b58 95bc
00000230: 671c 73bc 1681 de3d 6721 8abd 815c 493d
00000240: 977c bcbd 0b72 a7bd 78f8 c53d 8c83 a4bd
00000250: c315 a9bd 16ac 933c 5f35 d1bc 561f 40bc
00000260: 3bce 53bd ad4e 80bc 07d1 ac3d 0842 5cbd
00000270: d88e 453c b7e7 b8bd 7d7e c7bd a4a6 493d
00000280: d175 1c3d 6f82 793d 9ac9 cdbc fecd 123c
00000290: 69e6 a1bd 0902 143d 98bb 11bc a29d 203d
000002a0: bd26 d1bd e0c7 8d3d 005d 4bbd c3a8 babd
000002b0: 65b0 5bbd 0f29 a53d 959e e0bd cde3 1bbd
000002c0: 19b0 35bd e178 0cbd 97a2 ab3d 6503 1b3d
000002d0: 990b bcbd 8a8e 983d 981e 2b3c fd1e 903c
000002e0: bf63 733d 21ab e33c 521e a53d ce66 8dbc
000002f0: a17e 20bd 6bf0 86bd 6606 e3bc 4172 85bd
00000300: c4a5 aabd c844 cd3c 7287 e03d 35f2 b33c
00000310: 0137 8ebd 2435 98bd be11 c4bd d2bb 03bc
00000320: d899 2abc 5c21 9cbb c3dc da3c 31b9 9fbd
00000330: b96d 16bd 6b64 13bb 0d14 a0bc 0b5a 333d
00000340: 3757 adbd cf3e 8ebd 61ed b6bd 602c bdbd
00000350: 484b a93d ea35 943d aa01 a4bd ee59 94bc
00000360: f390 38bc 3716 323c deda 263d df27 e738
00000370: 6704 03bd fc8f d9bc 713a e2bc 0fc0 03bb
00000380: 9047 1abd c855 57bd 0a0e 983d 969a e6bb
00000390: d68a 39bd fd17 c93d 37c4 0e3d 1e93 5b3d
000003a0: e072 81bd eadc 31bc 3344 983d 55a5 093c
000003b0: 7fbb cdbc c066 233d 83d1 463d c47c a2bd
000003c0: be4b 4f3d 71c2 b7bd a500 cd3d 36ab b43c
000003d0: 7880 9cbc c825 bb3d 9c46 a63c 7ef6 c1bd
000003e0: 82e8 9c3d eab8 78bd 8a78 afbd 8b13 ce3c
000003f0: f279 7d3d 2849 a83b 78c6 463d 5dce b0bd
0.0787778 -0.02672535 -0.090957254 0.07694168 -0.07893482 0.051877767 0.048277747 -0.08011961
0.07200968 -0.074344516 0.007972054 0.10325423 0.091502935 0.05345536 -0.057769604 -0.082615316
0.03265004 0.037626654 -0.056299247 0.107904084 -0.10023772 0.07077206 -0.0130475 0.09973672
0.0068275495 0.033943083 0.03230124 0.038563713 0.020690447 0.031642236 0.089020714 0.06857814
-0.032294944 0.0763616 -0.09550827 0.08245465 0.097023346 -0.058450095 0.02890928 0.04748419
-0.10669121 0.032107722 0.08371591 -0.08958149 0.03112663 0.086378545 0.03135593 0.024776503
-0.15024956 0.0029050151 -0.0756092 0.006182287 -0.017286854 0.12374054 -0.038036454 -0.07994247
0.014147742 -0.05798549 -0.030059887 0.05240017 0.06481137 0.07375233 0.002493267 0.06442806
0.032024816 -0.018951928 -0.024095302 0.06035653 0.042908978 0.07353491 -0.08295878 -0.054611158
0.07329443 -0.088562414 -0.041494522 -0.027898172 0.04165343 0.087646335 -0.09372248 -0.033182755
-0.019317009 -0.08894522 -0.053926237 -0.07978022 -0.023742365 -0.050291847 0.058381356 -0.038176842
-0.13022213 0.06582805 -0.011911158 -0.01917003 -0.08598749 0.0031286753 0.052799314 -0.0082999505
0.048419815 0.027520208 -0.021029789 0.07594607 -0.04238223 0.08647147 0.061907556 -0.070936695
0.059511803 0.08378039 0.023636466 -0.049272504 -0.09709712 0.08390525 -0.04363183 -0.09292619
-0.07405195 -0.0118548805 -0.06477976 0.06975737 0.08703895 0.008324172 -0.016737783 0.004342453
0.028269095 0.06622375 -0.04789207 -0.06292996 -0.09082582 -0.097596206 -0.089548886 -0.0063129114
0.0015378749 0.07669086 0.03977006 -0.028630847 -0.10545212 -0.07521247 0.078217894 0.042437673
-0.044347763 0.107407756 0.09010593 -0.018230667 -0.014838315 0.10864465 -0.06744652 0.049160484
-0.09203451 -0.08176049 0.09666532 -0.08032903 -0.08256104 0.018026393 -0.025538145 -0.011726221
-0.05171035 -0.015662516 0.08438306 -0.05377391 0.012057982 -0.09028571 -0.097409226 0.049231187
0.038198296 0.060915407 -0.025120545 0.008960245 -0.079052754 0.036134753 -0.0088948235 0.03921283
-0.10212467 0.06922889 -0.04964924 -0.0911422 -0.05363502 0.08064472 -0.10967747 -0.038059045
-0.044357393 -0.034294967 0.08380621 0.037845034 -0.091818996 0.07449062 0.010444306 0.017592901
0.059421297 0.027791562 0.08062424 -0.017260935 -0.039183263 -0.06588825 -0.027713012 -0.06515933
-0.083323985 0.025057212 0.10963334 0.02196608 -0.06944085 -0.07432011 -0.095736966 -0.008040385
-0.010412656 -0.004764719 0.026716596 -0.07798994 -0.036725733 -0.0022490274 -0.019540811 0.043787044
-0.084639005 -0.069455735 -0.08931995 -0.092369795 0.08266312 0.07236846 -0.0800813 -0.018109288
-0.011265027 0.010869554 0.04073607 0.00011022365 -0.03198662 -0.026557915 -0.027615758 -0.002010349
-0.037665904 -0.05257204 0.07424553 -0.007037471 -0.04529842 0.098190285 0.034855094 0.0536071
-0.06320739 -0.010855893 0.07434883 0.008401235 -0.02511382 0.039892912 0.04853965 -0.079339534
0.050609343 -0.08972634 0.100098886 0.022054296 -0.019104227 0.091380656 0.020297341 -0.09470843
0.07661535 -0.060723223 -0.08567913 0.025155803 0.061883874 0.005135674 0.04852912 -0.08633111

edge_model.0.bias f4 [16]
00000000: d716 bb3c c90e 9d3c bae9 5a3d 6a2f 9a3d
00000010: 0e55 803d c242 7ebd 2a56 883d f432 6abd
00000020: 3004 07bd a39c e83c d7f5 a03d a49a e53c
00000030: 2465 1e3c b88e d5bc 0078 21bd d681 7ebc
0.02283804 0.01917209 0.053445555 0.07528575 0.06266223 -0.062075384 0.066570595 -0.0571775
-0.032962978 0.028395003 0.0785939 0.02802784 0.0096676685 -0.02606903 -0.03942108 -0.015533885

edge_model.2.weight f4 [16, 16]
00000000: ff35 4d3e bc2d 55bd 2290 4ebe c8a1 2bbd
00000010: 4c92 74bd c51c 5dbe f4e2 14be 25b9 a0bc
00000020: 09ba 263e 2700 9e3c ba5a 0fbd 6017 efbd
00000030: 083d 51be 4d96 da3d bcef afbd c924 1abe
00000040: 6a96 a23d 66a6 78bc 0fba b43d 76b4 07be
00000050: 324e 5fbe 30f3 ef3d c047 2ebc 1b58 29be
00000060: a642 51bd 3aec ea3d d3ab 393c 38cc bbbc
00000070: 6edd 35be c629 0539 4346 1b3e ffaa 02be
00000080: 99d1 363e 34ef bd3c 8673 79be 02f1 05bd
00000090: dc41 6e3e d768 0f3e 86ae e63d 7768 ddbd
000000a0: cc5b 303d 7e07 0c3e d73f 7f3e 5de9 93bd
000000b0: 1bfa 4d3e 4977 7dbe 58cd 3a3e 12e5 79be
000000c0: a713 b1bd 76e9 2bbe db24 4e3d 2f60 44be
000000d0: a869 66bd a5aa 3abe 8879 5a3e 627f 0ebd
000000e0: a78b 243d b2ec 153e 1589 01be e374 843e
000000f0: 29ff 88bd a0ba 7abc 46fa eabd 56be 703d
00000100: e081 4c3e a4e5 1e3e ecc7 83bd 5f85 7cbe
00000110: 735e 8d3d 9857 203e abbe 30be 2a72 7cbd
00000120: 59c3 2dbe 1682 d1bd e75c 8cbe bdd4 983d
00000130: e5f5 103e 354e 853e 2f50 223d 5842 9fbd
00000140: d146 07be 18a4 90bd 13ec eabc 6327 b33d
00000150: f511 c0bd 7e7d 5e3d c636 07be 2f57 91bd
00000160: 3b3f 3bbe 8486 a63d 2a35 babc 3379 89bd
00000170: 7bb3 1bbe d25d c1bd 302b 34be c032 0a3e
00000180: 6388 b23c 507c debd 15bd 54be 52f5 4dbe
00000190: 79d3 d5bd 6967 0a3e 0f88 69bc 7d5f ae3d
000001a0: c5f3 163c 8916 0d3e 8736 323e 9feb 29be
000001b0: 3005 dd3c e9a8 89be 169a 2c3c 18d5 b1bd
000001c0: 1755 743c 75cc 6e3e cb6c 16be e9fd 71be
000001d0: 1710 2abe b94c 64be 488f 62bd c623 d83d
000001e0: 9d2b b5bd 6828 ba3d 3cdd 09be 453f a1bd
000001f0: 8ab4 8fbd ba3e 30be 2aaa 1f3d 9998 cabd
00000200: b691 113e 2b89 43be e5ab 12be 1d66 78be
00000210: 8b75 a73d a597 1fbe 168a 5cbe 426a a73d
00000220: c1bd e8bd cfaa 2a3e 7b85 2ebe ead3 b8bd
00000230: 67cd 60be b1e0 793e 2db3 babd 5fe1 2c3e
00000240: bb4f dcbd 57ad ad3c 6357 e33d e133 f63d
00000250: 60fc 4c3e 509c 0ebd 6ebd 423e bd8c 3fbe
00000260: a54e 75be 9b18 57bd 6262 f237 7209 f03d
00000270: 4ef0 503e dadf 44be d047 12be 5a5a 1dbd
00000280: b016 e9bd 5f75 1c3e 20f4 093e a04f 7bbd
00000290: 4218 0bbe 978a 20bc 6b58 143e c30a 0a3d
000002a0: 39df 39be 07c4 963d ba14 ca3d b614 db3b
000002b0: 75e7 473e d4bc 123e d32b 80bd d7aa 8dbd
000002c0: b5a0 693c b3cb 623c 373f da3d 1b44 0cbd
000002d0: 79ea 453e 6404 c33d 1bf5 953c 800a f43a
000002e0: c273 2b3e 8745 823e 49c9 b8bd 78d9 66be
000002f0: 7a59 283e db80 873e d5e5 78be 2df6 47be
00000300: 5bcc e53c 986a 8cbc 64c4 cc3d 9d77 4cbd
00000310: d7d9 21bd 0bf5 4cbd 7dc6 88be e571 1e3e
00000320: 6a83 203e 0f7f e83c 3d91 b6bd ab1d 703c
00000330: 3a38 2f3c 7ce9 03be 0050 42be 98df f1bd
00000340: 42d8 a83d 55aa d9bd 8b7b 30be 2e3c f3bd
00000350: 3dc6 23be 05a7 2e3e 7bd7 603e a2ff 6f3d
00000360: 2016 df3d 5d19 623e f580 c13d 0283 10be
00000370: db00 ea3c 9492 6b3e 6136 cb3c aa90 173c
00000380: e96b febd 99ad 913d 7788 81bc 6582 673e
00000390: 9073 75be 4c77 23be 6929 2dbe d1e1 4b3e
000003a0: f8a5 82be 71a6 88be 0800 dabd 5776 e73d
000003b0: 4701 043e eaa6 72be 35e3 723e 68ea 1e3d
000003c0: 9265 1338 9e14 ac3d 8801 6cbc 6e32 983d
000003d0: b949 753e c19d ac3c f4a3 d93d 7b20 69be
000003e0: c883 493e 6506 27bd 28c5 7b3c 93e0 d0bd
000003f0: e745 51be 5e3d 423e 9e9a 073e 3aef f5bc
0.20040129 -0.05204557 -0.2017217 -0.041902333 -0.059709832 -0.21593006 -0.14539701 -0.019619534
0.16281904 0.019287182 -0.034998633 -0.1167438 -0.20433438 0.10673199 -0.085906476 -0.15053095
0.079388455 -0.015176391 0.0882455 -0.13252434 -0.21807173 0.11716306 -0.010637224 -0.16537516
-0.05108895 0.11470838 0.01133247 -0.022924528 -0.1776025 0.0001269943 0.15163521 -0.12760542
0.17853393 0.02318535 -0.24360475 -0.032700546 0.23267311 0.14004837 0.112637565 -0.10810941
0.043056294 0.13674733 0.24926697 -0.07222245 0.20114939 -0.24752535 0.18242395 -0.2440379
-0.086463265 -0.16788277 0.050328117 -0.19177316 -0.056253105 -0.18229158 0.21335423 -0.03478945
0.040172245 0.14641073 -0.12649949 0.25870427 -0.06689293 -0.015303284 -0.11473517 0.05877527
0.19971418 0.15517288 -0.064346164 -0.24660252 0.069027804 0.15658414 -0.17260234 -0.061632313
-0.1696905 -0.1022989 -0.2741463 0.074624516 0.14156301 0.2603623 0.03962725 -0.07776326
-0.13210608 -0.070625484 -0.028677022 0.08747747 -0.09378425 0.054318897 -0.13204488 -0.07096707
-0.1828584 0.081311256 -0.022730429 -0.0671257 -0.15205185 -0.09441723 -0.175946 0.13495922
0.02179355 -0.108635545 -0.20775254 -0.20113114 -0.10440726 0.1351601 -0.01425363 0.08514307
0.009213393 0.13778128 0.17403613 -0.16593789 0.026980013 -0.2688668 0.010534784 -0.086832225
0.014912865 0.23320182 -0.14689939 -0.23632015 -0.166077 -0.22294892 -0.055312425 0.10553698
-0.08846209 0.09089738 -0.134633 -0.07873396 -0.07016857 -0.17211428 0.03898064 -0.09892387
0.1421574 -0.19095294 -0.14323385 -0.24257703 0.081767164 -0.15585192 -0.2153705 0.08174564
-0.11364318 0.16666721 -0.17043106 -0.090247944 -0.21953355 0.24402119 -0.09116206 0.16882847
-0.10757395 0.021200819 0.11100652 0.12021614 0.20018148 -0.03481704 0.19017574 -0.18706031
-0.23955782 -0.0525137 2.8894461e-05 0.117205516 0.20404169 -0.19226018 -0.14285207 -0.038416244
-0.113812804 0.15279149 0.13472033 -0.061355233 -0.13583472 -0.009798667 0.14486854 0.03370167
-0.18151559 0.07361608 0.098672345 0.0066858185 0.19521888 0.14329845 -0.06258359 -0.06917351
0.014259507 0.013842511 0.106565885 -0.034244638 0.19327725 0.09522322 0.018305352 0.0018618852
0.16743377 0.2544367 -0.09022767 -0.22543895 0.16440383 0.26465496 -0.24306424 -0.19527502
0.028051546 -0.017140672 0.09998396 -0.04991876 -0.03951439 -0.05003838 -0.26713935 0.15473135
0.1567513 0.028380899 -0.08914421 0.014655511 0.010694558 -0.12882036 -0.1897583 -0.11810225
0.08244373 -0.106281914 -0.17234628 -0.11876713 -0.1599359 0.170559 0.219572 0.0585934
0.10892892 0.22079988 0.09448425 -0.14112476 0.028564861 0.23005134 0.024806203 0.009250799
-0.12422926 0.07113189 -0.015812142 0.22608335 -0.23969865 -0.15963477 -0.16910328 0.19910361
-0.2551725 -0.26689485 -0.10644537 0.113018684 0.12891112 -0.23696485 0.23719485 0.038797766
3.5142126e-05 0.0840237 -0.014404662 0.07431494 0.23953904 0.021071317 0.10626975 -0.22766297
0.19679177 -0.040777583 0.01536683 -0.10199084 -0.20436822 0.18968722 0.13242576 -0.030021299

edge_model.2.bias f4 [16]
00000000: 4bf4 023d 8c6c 19be 088d 023d ae09 2fbe
00000010: ba2d 333e 8e3f 473e d981 903d c460 513e
00000020: 7e79 3fbd c59e c03d 2847 93bd 819e 2ebe
00000030: 0362 aabd 34f1 4c3e 9f49 843d cd18 333e
0.031971257 -0.14982814 0.03187278 -0.17093536 0.17497912 0.19457838 0.070560165 0.2044707
-0.046746723 0.09405283 -0.07191306 -0.17052652 -0.083194755 0.20013887 0.064593546 0.1748993

edge_model.3.weight f4 [16]
00000000: e315 833f d3ef 7e3f 6487 823f 6f0a 7e3f
00000010: b00b 813f df89 7b3f 13da 803f 5764 7f3f
00000020: b1a5 823f 5405 813f a8f8 7b3f cfd4 853f
00000030: d5bd 7f3f 40d2 813f d3b7 863f ef89 7b3f
1.0241054 0.9958469 1.0197568 0.9923467 1.0081692 0.9825725 1.0066551 0.9976248
1.0206815 1.0079751 0.98426294 1.0455569 0.99899036 1.0142288 1.0524849 0.98257345

edge_model.3.bias f4 [16]
00000000: 18a2 0fbc 8b3b 893c e9bf 213c 9ef6 913c
00000010: 7b0c 443a b84a c9bb b206 fabb 955a 40bb
00000020: 8fd7 463c 7822 ecb9 6cb1 ae3c 287d 553c
00000030: f228 8f3b 3336 6f3c 8098 26bc 3f19 643b
-0.0087666735 0.016752025 0.009872415 0.017817792 0.00074786664 -0.0061429404 -0.0076301927 -0.0029350866
0.012136354 -0.0004503911 0.021324836 0.013030328 0.0043688947 0.014600324 -0.010168195 0.0034805087

node_decoder.0.weight f4 [1, 16]
00000000: d4fd e1be 7d90 d03e 49d5 bd3d 80d0 3b3e
00000010: dc02 153f 1071 b5be f000 ddbe f971 a7bd
00000020: 1c2d a3be b6e2 343e bbe6 df3e 4d6c b9be
00000030: 6d07 6bbc 4ab8 1a3e 10f1 813e 9560 44be
-0.44138968 0.40735236 0.092691965 0.18341255 0.5820749 -0.35437822 -0.43164778 -0.081760354
-0.31870353 0.17664608 0.4373072 -0.3621544 -0.014345032 0.15109363 0.2537923 -0.19177468
