tmp/tmp5model1000.pt (torch, 23679 bytes, 25 tensors)

node_encoder.0.weight f4 [16, 5]
000000 67 d5 96 3e 5d 6b a5 be e0 ba b9 3e 70 82 92 3e
       0.29459688 -0.32308474 0.36275387 0.2861514
000010 9f 21 bc 3e 14 b1 95 be 40 57 81 be 9c d1 86 3e
       0.367444 -0.29236662 -0.2526188 0.26331794
000020 6c bd d5 be 46 dd 02 3f 54 13 ba 3d 90 cd 5a 3d
       -0.4174608 0.51118886 0.09085718 0.053418696
000030 fc cf c3 be 00 f0 11 3e df e3 0c 3e ac fb 77 3d
       -0.38244617 0.14251709 0.13758801 0.060542747
000040 30 37 de 3e cf 2e cd 3d be 09 cb be 31 59 bd 3e
       0.4340148 0.10018694 -0.3965587 0.3698211
000050 c7 a5 0b 3e d0 a3 80 be 8e 02 d0 be fc 87 82 3e
       0.13637458 -0.2512498 -0.4062695 0.25494373
000060 78 30 e5 3e bb 99 bb be 80 37 c8 3c 74 4c 24 3e
       0.4476354 -0.36640725 0.024440527 0.1604479
000070 99 42 58 be 80 67 c8 bd 71 e4 98 be a9 80 58 be
       -0.21119155 -0.09785366 -0.29861787 -0.2114283
000080 5d bf d0 be 40 d0 29 bc a4 c3 87 3e 57 f3 3d 3e
       -0.40771 -0.010364592 0.2651645 0.18549858
000090 e8 9a c5 3e 41 6f e3 be 00 63 61 bd b6 a0 b8 3e
       0.38594747 -0.44420817 -0.055026054 0.36060113
0000a0 c2 c8 c2 3d a8 99 ec bd 22 74 b5 be 58 1a 55 3e
       0.09510948 -0.11552745 -0.35440165 0.2081083
0000b0 0b 2d bb 3e 8b 28 bb 3e c0 f6 cd 3e b7 19 e7 3d
       0.36557803 0.3655437 0.40227318 0.112842016
0000c0 b2 32 a3 3e 87 8a 8e bd 7e 27 bf 3e 46 2d dc bc
       0.31874615 -0.06960016 0.37334818 -0.026877057
0000d0 1f 49 b2 bd d4 a3 63 be 3d 5f 83 3e 22 16 52 3e
       -0.08705353 -0.22230464 0.256586 0.20516255
0000e0 a5 0a 9f 3e 7b 0e 76 be 78 7d 73 be 48 fd e4 3e
       0.3106281 -0.24028961 -0.23778331 0.44724488
0000f0 e6 2d 7e be 6c 96 82 be 98 0e f5 bd 42 03 14 be
       -0.24822196 -0.25505388 -0.11965674 -0.14454368
000100 d4 b7 9b be a1 9b be 3e 76 98 37 3d 67 cf 45 3e
       -0.30413687 0.3722811 0.044823132 0.19317399
000110 dc d6 a9 3e d5 7e a6 be 2f d2 b3 3e 81 9c 94 be
       0.33171737 -0.3251864 0.35121295 -0.29025653
000120 48 55 11 bd de 47 ad 3e 99 67 cb 3e 27 ea bc 3e
       -0.03548172 0.33843893 0.39727476 0.36897394
000130 fb 87 73 3e b7 b9 c7 3e 2e 00 25 be d0 81 b6 bd
       0.23782341 0.39008877 -0.1611335 -0.089114785

node_encoder.0.bias f4 [16]
000000 af 70 1d be c1 8f 90 3c 1e 7e 70 bd 79 02 6a 3e
       -0.15375017 0.017646672 -0.058714025 0.22852506
000010 b9 76 95 3e 00 e3 a4 be c1 e0 7c be 37 a0 2d be
       0.2919214 -0.32204437 -0.24695112 -0.16955648
000020 fa 3d a7 3d 37 aa 2a be be 35 89 be b2 5e 6b bd
       0.08166118 -0.16666494 -0.26798815 -0.057463355
000030 04 7b 5f be d8 ec bd 3c 3d 79 a4 be 95 a8 0a be
       -0.2182427 0.023184225 -0.32123747 -0.13540871

node_encoder.2.weight f4 [16, 16]
000000 1c 71 ed bd 7c 1c 0d be 51 81 36 3e 36 ab 13 3e
       -0.115938395 -0.13780397 0.17822768 0.1442078
000010 af 7d e6 bd e6 b4 6a be 14 1d 37 be e8 f3 53 be
       -0.11254441 -0.2292057 -0.17882186 -0.20698512
000020 17 28 a1 bd 12 61 00 be ff d4 60 be f7 08 06 3d
       -0.07868975 -0.1253703 -0.21956252 0.032723393
000030 c0 ca 83 3c ba 2f 4b bd 15 65 1e be f9 16 4b 3e
       0.01608789 -0.049606062 -0.15468247 0.19832982
000040 b2 60 84 be 74 3e 4c 3d 8c f6 f3 3d 0e 0d 28 3e
       -0.25855023 0.049864247 0.119122595 0.1641123
000050 48 85 56 be 50 59 20 bd f6 7f 55 3e 31 9e 33 3d
       -0.2094928 -0.039147675 0.20849594 0.043852035
000060 ba 03 95 3d ae e4 fc bd 77 07 35 3e 5d fb bb bd
       0.072761014 -0.12348305 0.17678629 -0.09178803
000070 04 db 09 be b7 96 52 3e 0d 74 af 3d a5 a8 bd bc
       -0.13462454 0.20565306 0.08567057 -0.023151705
000080 54 3a e5 bd 8d 9b 64 bc c6 92 2c be d8 cb 2c be
       -0.11192766 -0.013953102 -0.16852865 -0.16874635
000090 63 fb 39 bc 90 f6 45 3d 88 c2 51 be 9b 05 81 3e
       -0.011351439 0.048330843 -0.20484364 0.2519959
0000a0 cf e0 5a 3e 04 13 6d be 4e c7 28 3e 19 a4 1c be
       0.2137482 -0.23151785 0.16482279 -0.15296973
0000b0 48 9c 50 be 41 0f 83 3e 66 95 a1 bd 9d 63 96 bd
       -0.20372117 0.25597575 -0.078898236 -0.073432185
0000c0 ec 77 29 3d cb 07 32 3e 6f a7 34 bc db f0 a2 bd
       0.041374132 0.17385785 -0.011026247 -0.07956096
0000d0 8b f7 46 3c c0 a2 04 be 5c 36 3a be 1e 45 3e 3d
       0.01214398 -0.12952709 -0.18184799 0.046452634
0000e0 e6 e3 05 3c 62 c4 d8 3d a4 c5 b3 bd ff bd 86 be
       0.008172011 0.10584332 -0.08777931 -0.2631683
0000f0 60 16 7e bd ff 5f 82 be 72 92 6b 3a 85 34 e6 3d
       -0.062033057 -0.25463864 0.00089863606 0.11240486
000100 83 44 3f 3d 7c fd 6d 3e 0a 9f 5a 3d 32 6a 02 3e
       0.046696197 0.23241228 0.053374328 0.12735823
000110 cf b1 7f 3e 88 5d 18 3d 20 68 2a 3d 1d 91 ba bd
       0.24970172 0.037198573 0.041603208 -0.091097094
000120 f4 a9 5b 3e c6 a4 65 3e 93 0c 07 be c4 dc 86 3e
       0.2145155 0.22426137 -0.1318839 0.26340306
000130 80 72 9a 3d 3a a0 b0 bc 5e da 18 be b2 6a 6d be
       0.075413704 -0.021560777 -0.1492705 -0.23185232
000140 53 8c 38 be 0f a1 83 bd 07 c1 2c be 88 ce 55 bd
       -0.1802228 -0.06427204 -0.16870509 -0.052198917
000150 bf 22 3f be 44 03 56 be 20 ef e3 bc 3f f4 51 be
       -0.18665598 -0.20899683 -0.027823985 -0.20503329
000160 a6 0b 3b 3b 0b 03 3d 3d 18 74 b8 3d d1 c2 33 3e
       0.0028540879 0.04614548 0.09006518 0.17554785
000170 10 bc 0b 3e f9 f3 14 be b0 1b 24 bc bc ab 71 3c
       0.13645959 -0.14546193 -0.010016367 0.014750417
000180 46 c5 39 3e 68 8f 18 3d c6 ff 17 be f4 63 3b bd
       0.1814166 0.037246138 -0.14843664 -0.04574962
000190 ca 0c 48 3c 28 d3 b1 3d a8 40 be bd fb 42 6a be
       0.01221008 0.08682853 -0.09289676 -0.22877114
0001a0 4b 1a 52 be e6 ea 2a ba 5d 6d 63 be 29 4c 76 3d
       -0.20517842 -0.0006519988 -0.22209688 0.060131226
0001b0 8a eb 20 3e df cb 5a bc b4 7e 72 3d 39 49 27 3e
       0.15714851 -0.013354271 0.059202865 0.16336526
0001c0 f7 f4 19 3e 88 55 81 be a1 c3 72 3e e2 f4 4c 3d
       0.15034853 -0.25260568 0.23707439 0.050038226
0001d0 69 f6 78 be 88 cf 7e 3d 4a 48 30 be 4f 41 6b 3e
       -0.24312748 0.062209636 -0.17215076 0.22974132
0001e0 27 5f 40 3e 58 17 36 be ef 91 47 be 9d 0b 2f 3c
       0.18786298 -0.17782342 -0.19489263 0.010683921
0001f0 a4 a1 87 bd d7 56 c3 3d 82 e7 86 be f0 44 2b 3e
       -0.066226274 0.09538048 -0.263485 0.16725516
000200 d7 85 ad 3c d8 1a 94 bd a7 31 22 be fe c1 f5 b9
       0.021181984 -0.072316825 -0.15839253 -0.00046874577
000210 8f dd 27 3e 02 67 79 3e ee cd 25 be cf ad e8 bd
       0.16393112 0.243557 -0.16191837 -0.11361276
000220 ed ef 7c 3d c6 46 01 3e 6b a3 62 be e9 71 db bd
       0.06175225 0.12624654 -0.22132652 -0.10715086
000230 78 62 4b be a9 b4 63 3e 00 8e f7 bd de f3 09 3e
       -0.19861782 0.22236885 -0.12087631 0.13471934
000240 cd 78 f3 3d ff b0 0f 3e 30 08 a4 3d 16 3f 26 3e
       0.11888275 0.14032362 0.08009374 0.16235003
000250 bc 29 cc bb f8 b9 06 3e e0 42 08 bd 97 e2 ec 3c
       -0.006230561 0.13156879 -0.033266902 0.02891664
000260 e9 82 c9 3d b4 1a 63 be bf 7d d4 bd 42 54 37 be
       0.09839422 -0.22178155 -0.10375547 -0.17903236
000270 38 b2 9b bd 42 ff 9b bc 9f e2 07 3e 53 09 57 be
       -0.07602352 -0.019042615 0.13270043 -0.2099965
000280 90 03 5c be ba e3 32 3e 9d 44 e8 bc 0b 1b d4 bd
       -0.21485734 0.17469683 -0.02835303 -0.103567205
000290 6e 74 7a bd 40 74 5a 3c 64 36 3b be c8 1f 70 be
       -0.061146192 0.01333338 -0.18282467 -0.23449624
0002a0 5c cf 24 be 05 7b 66 3e db cd 94 3d 19 a5 73 be
       -0.16094726 0.22507866 0.07265826 -0.23793449
0002b0 0c e8 09 be 7e d0 58 3e d4 fb 72 3e 6a b6 9b 3d
       -0.13467425 0.21173283 0.23728877 0.07603152
0002c0 6c 30 09 3e 6d 12 e0 3c 04 b2 e9 3d 81 fd 46 be
       0.13397378 0.027352536 0.11410907 -0.19432642
0002d0 a0 41 5b 3c 4e f6 62 be 14 ca 7b be e7 57 3f 3e
       0.013382345 -0.2216427 -0.24588805 0.18685876
0002e0 24 05 25 3b be 0c d0 3d 71 47 4c bd 30 5a 62 be
       0.0025180066 0.101586804 -0.04987282 -0.22104716
0002f0 80 69 42 3e f2 22 73 be 64 5d 1f be 28 7a a4 3d
       0.18985558 -0.237438 -0.1556297 0.08031112
000300 0e 5a 8f bd 36 30 0b 3e a6 bf 41 be a6 77 d5 3d
       -0.069995984 0.1359261 -0.18920764 0.10423212
000310 f1 14 f9 bd 34 1b 0e 3e 70 c5 e2 bc a3 25 31 be
       -0.121621974 0.13877565 -0.027682036 -0.17299514
000320 0e 23 4a ba 8d cf 04 bd db 9f 44 3e 0b b5 b5 bd
       -0.0007710912 -0.0324245 0.19201605 -0.08872422
000330 30 bd b5 3c 42 f3 c9 bd 46 fe 1b 3d 3e 98 68 3e
       0.022184938 -0.09860851 0.03808429 0.22714326
000340 18 56 d4 3d 7f 85 11 3e 75 cf 7b be 50 45 23 3e
       0.103679836 0.14211081 -0.24590857 0.1594441
000350 9a a1 72 3e 98 2a 82 3d 24 f3 54 3e 65 24 dc 3d
       0.23694459 0.0635578 0.20795876 0.10749129
000360 ca 48 5c 3e e2 a9 c7 bc d1 5d 91 bd 25 d4 0c 3e
       0.21512142 -0.024372999 -0.07097972 0.13752802
000370 24 6a 89 bd f2 2d 06 bd 93 cf fe 3c e3 0f b7 bd
       -0.06709698 -0.03275866 0.031104838 -0.08938577
000380 37 71 14 3d 12 c1 12 be c1 20 2a be b2 52 77 3e
       0.036240783 -0.14331463 -0.16614057 0.2415264
000390 01 42 79 be f2 95 07 be 46 62 6a 3e d3 da 1b be
       -0.24341585 -0.13240793 0.22889051 -0.15220194
0003a0 e4 db 5e be 9b 3a 1e 3e 99 03 7a 3e 07 ce 40 3e
       -0.21763569 0.15452044 0.24415435 0.18828593
0003b0 4c 20 31 be 43 62 75 be 33 32 88 be 1e 18 f1 3a
       -0.17297477 -0.23963265 -0.266008 0.0018394028
0003c0 65 4d 54 3d b0 fa 9c bd d6 8f b3 3d 8b a6 bc bd
       0.05183162 -0.07665002 0.08767669 -0.09211453
0003d0 04 1e f4 3b 94 c9 65 3e f0 e2 a6 bd b9 78 29 be
       0.007449867 0.22440177 -0.08148754 -0.16549958
0003e0 d2 06 64 3e 88 74 43 3e ed d5 6e 3e 5f 88 6b 3e
       0.22268227 0.19087422 0.23323794 0.2300124
0003f0 80 21 34 3b 99 6d 17 3e c6 05 0f 3c 5a 3e c1 3d
       0.0027485788 0.14787902 0.008729404 0.09435721

node_encoder.2.bias f4 [16]
000000 a6 2a a2 bb 1b 28 00 3e fc d9 53 bd 19 8e 13 bd
       -0.0049489317 0.12515299 -0.051721558 -0.036024187
000010 65 87 1b 3e 69 41 c9 3d c8 2e 39 3e f5 d6 8d bd
       0.15188368 0.09826929 0.18084252 -0.069257654
000020 18 f2 6e bd 9a b1 2c be 78 f0 bf bd 71 43 7a be
       -0.058336347 -0.16864625 -0.09372038 -0.2443979
000030 dc d0 74 3e d4 40 3f be d1 2d a8 bd 27 c2 b8 3d
       0.23907799 -0.18677074 -0.08211864 0.090214066

node_encoder.3.weight f4 [16]
000000 f2 40 7f 3f 93 ea 7b 3f 2e 50 7d 3f 4c 90 81 3f
       0.99708474 0.98404807 0.9895047 1.0122161
000010 93 f8 81 3f a7 19 7f 3f fb 51 7d 3f c4 5e 7b 3f
       1.0153984 0.9964852 0.9895322 0.98191476
000020 23 4a 7b 3f c3 60 7f 3f 43 bb 7f 3f be 8c 80 3f
       0.9816 0.9975702 0.99895114 1.0042951
000030 bb 27 81 3f d5 2b 81 3f 2c 97 81 3f 93 ad 81 3f
       1.009025 1.0091501 1.0124259 1.0131096

node_encoder.3.bias f4 [16]
000000 3a da ab bc 9b 18 74 bc 38 58 be 3c 77 4b 1c bc
       -0.020978082 -0.0148984445 0.023235425 -0.009539477
000010 18 8c a7 3c 95 a7 02 bb 1d 89 97 bc 03 61 45 bc
       0.020452544 -0.0019936312 -0.018497998 -0.012047055
000020 2e e6 2d bc 93 60 bf b9 7f 33 0b 3c 8d e4 9b bb
       -0.010613961 -0.00036502312 0.008496164 -0.00475747
000030 3b 71 6b 3c 24 9a 08 bc d6 34 09 ba 78 b6 6d 3c
       0.014370258 -0.008337531 -0.00052340084 0.014508836

edge_encoder.0.weight f4 [16, 4]
000000 82 88 bd 3e d1 b7 95 3e 0a 6d e2 3e e7 15 da bc
       0.3701821 0.29241803 0.44223815 -0.026621772
000010 49 51 9a be 60 87 fb be 20 ab cf 3d 5d 17 3b 3e
       -0.3014014 -0.4912672 0.101400614 0.18270631
000020 cc 09 35 bc 3f 90 a0 3e ff 31 65 bd 6c 06 d2 3d
       -0.011049699 0.3136005 -0.055955883 0.10255131
000030 42 43 e2 be 68 8a e7 3d 44 d3 17 3e 74 9c 30 be
       -0.4419194 0.11305696 0.14826685 -0.17247182
000040 0f 6a 90 3e a4 d3 f2 be 4e 56 d3 3e a6 2d ee be
       0.28205916 -0.47427094 0.41276783 -0.46519202
000050 76 28 b7 3e 6e 64 07 be 7b 18 be be 80 67 43 3d
       0.35773057 -0.13221905 -0.37128052 0.047706127
000060 27 f8 96 3e 00 1e 99 bc 40 81 ac be cc 4c ac be
       0.294862 -0.018691063 -0.3369236 -0.3365234
000070 bc 58 c3 3e c4 72 e7 be 46 06 83 be 1c ef ea be
       0.38153636 -0.45204747 -0.25590724 -0.4588555
000080 64 71 f6 be bb 43 eb 3e 2a 2e 97 be fb 0a f2 bd
       -0.48133385 0.45950112 -0.29527408 -0.118185006
000090 47 68 b2 bd 5e 2f d2 be d1 f4 32 bd 8a c9 d4 be
       -0.087112956 -0.41051763 -0.043690506 -0.41560012
0000a0 8c 8b 95 be f7 07 ca 3e f4 6d a7 be a8 b7 ae 3e
       -0.29208028 0.39459202 -0.32701075 0.34124494
0000b0 08 e4 07 be 75 49 2b 3e ba 66 ba bd 65 4e b0 3e
       -0.13270581 0.1672724 -0.09101625 0.3443481
0000c0 88 ed db 3e 5a 67 d6 3e 6f d8 a5 3e 57 ec 32 be
       0.4295466 0.41875726 0.32391688 -0.17472969
0000d0 58 76 9a 3e 1a bb be be eb 1f f2 be e1 eb d1 3e
       0.30168414 -0.37252122 -0.47289976 0.41000274
0000e0 26 91 9d bd 93 b4 d2 3e a5 a8 79 3e 09 80 2f be
       -0.076937005 0.41153392 0.24380739 -0.17138685
0000f0 f2 b2 1d be 2e de f9 bc d0 9e e0 be 79 3c cf 3e
       -0.15400293 -0.030501451 -0.43871164 0.40475824

edge_encoder.0.bias f4 [16]
000000 5e 27 97 be 22 95 4a 3e 63 20 fb 3e de 93 cf be
       -0.29522222 0.19783452 0.49048147 -0.405425
000010 5e 8d 90 be 5f e2 d3 3e a0 dd c7 bc 26 f6 e4 be
       -0.28232855 0.41383645 -0.024397671 -0.44719046
000020 61 23 31 3e 90 4e b2 3e a8 ae 9c be 41 07 bc 3e
       0.17298652 0.34825563 -0.30602002 0.36724284
000030 ae 60 e8 3e df a3 dd 3e c6 f0 94 3e b9 96 22 3d
       0.4538626 0.43289086 0.29089946 0.03969452

edge_encoder.2.weight f4 [16, 16]
000000 c1 78 cd 3d 7a 6e 76 bd 49 27 39 3d 64 df fc bd
       0.100327976 -0.060163952 0.04520348 -0.12347296
000010 21 78 63 3e 23 ab bd bd e6 da 1b be 10 35 12 bd
       0.22213794 -0.09261157 -0.15220222 -0.035695136
000020 8c 31 4e 3d 7e 61 09 3d a9 4d f8 bd d9 a7 08 be
       0.05034022 0.03354024 -0.121241875 -0.13345279
000030 c2 62 50 be 98 10 cd bd f9 bf 98 bc c5 87 65 3e
       -0.20350173 -0.10012931 -0.018646227 0.22415073
000040 ad 68 47 be 94 60 23 3d 24 60 fb bd d8 21 f2 bd
       -0.19473524 0.039887026 -0.12274197 -0.118228614
000050 e8 3a 8f be e9 01 80 be e4 0e 2c be 00 8a 06 bd
       -0.2797463 -0.25001457 -0.16802555 -0.03284645
000060 42 61 3f 3d f5 b2 b1 3d b2 d0 6b be 2a 88 6b be
       0.04672361 0.086767115 -0.2302883 -0.23001161
000070 47 ff 16 be aa 1c 01 be b4 20 09 be 3a 0f 0a 3e
       -0.14745818 -0.1260859 -0.13391382 0.13482371
000080 cf 21 9c 3d c2 0a 60 bd 5f 2e 48 be 82 a6 23 be
       0.07623636 -0.05469776 -0.19548939 -0.15981486
000090 6a a9 93 3e b4 84 76 be b1 80 0e bd 26 36 61 be
       0.2884019 -0.2407406 -0.0347907 -0.21993312
0000a0 da 6d 82 be ee 97 46 3b 66 40 ad bd 24 bd 87 be
       -0.25474435 0.003030296 -0.08459549 -0.2651149
0000b0 0d c2 30 be 65 a8 21 3e 51 2b fd bd c3 fc 08 3e
       -0.17261524 0.15786894 -0.123617776 0.13377671
0000c0 f4 9d 91 3e 32 fa 60 be e9 a1 22 bd 6e 39 50 3e
       0.2844082 -0.21970442 -0.03970519 0.20334408
0000d0 d7 1a 40 bc bd c8 b7 3d df 7e 80 3e 9e 42 72 be
       -0.011725149 0.08973835 0.25096795 -0.23658225
0000e0 30 c8 74 3d 1f 68 7c 3e 59 ad 3a bd f5 6d 88 be
       0.059761226 0.24649094 -0.045575473 -0.2664639
0000f0 a6 b9 05 be 4e 36 2a be 57 63 f5 3c 8e e5 96 3b
       -0.130591 -0.16622278 0.029954595 0.004605002
000100 c0 59 d6 3d 27 48 cd 3d 94 0f 40 3e 96 50 32 be
       0.10466337 0.100235276 0.18755943 -0.17413554
000110 4b a2 02 be 42 50 c3 bd 62 78 7c 3d b8 8e 1d be
       -0.12757222 -0.09536792 0.061638243 -0.15386474
000120 5a 16 53 be 1c ee 28 3c 58 21 11 be 53 12 0d 3e
       -0.20613995 0.010310676 -0.14172876 0.13776521
000130 c9 ee 10 3e c1 be cb bd ef 24 9f bd 8f 2b 04 3d
       0.1415359 -0.09948493 -0.077707164 0.032268103
000140 ef 7f f2 bd 4a 3e 89 bb 1e 49 6d be 48 99 32 3e
       -0.11840808 -0.0041883336 -0.23172423 0.17441285
000150 4e a1 32 3e c2 77 83 3d 18 3a 73 3e 98 cb 16 3d
       0.17444345 0.06419326 0.2375263 0.036815256
000160 89 8d 37 be 9d 07 06 be e1 5e b6 bd d5 34 4b 3e
       -0.17925085 -0.13088842 -0.089048155 0.19844373
000170 79 58 9e 3c bb 46 94 3d 6e 28 fc bd 48 5c c5 3d
       0.019329296 0.07240053 -0.12312399 0.09636742
000180 60 7c 84 3e 83 30 73 be 13 93 63 be 48 74 a6 bd
       0.2587614 -0.23748975 -0.22224073 -0.08127648
000190 6a 25 e7 bd 0d e8 30 be 43 7d a1 3d 26 d0 0f be
       -0.11286433 -0.1727602 0.0788522 -0.14044246
0001a0 60 5a 73 3e fd 6e 2c bd b2 9a a5 bd be d5 39 3e
       0.23764944 -0.042098034 -0.080861464 0.18147942
0001b0 ab 72 9e bd 1c 20 1e be 21 7f 0c 3d ae 55 7e 3d
       -0.07736715 -0.15441936 0.034300927 0.06209343
0001c0 18 5f 0f be f7 c6 21 be 2a 08 5b be f0 ca 6f be
       -0.14001119 -0.15798555 -0.21389833 -0.23417258
0001d0 cb c3 38 3e 78 06 54 bd 01 e9 91 3d cc 88 82 bd
       0.18043439 -0.05176398 0.0712452 -0.06373748
0001e0 21 11 35 3e ff 2d af 3d 6f 97 b6 3d 01 dc 14 3d
       0.17682315 0.08553695 0.089156024 0.036342625
0001f0 59 12 91 3d 3c 80 27 3e c1 4e 51 be 01 7f 8c 3e
       0.07083578 0.16357511 -0.20440198 0.27440646
000200 13 82 5c ba 30 9e d2 bc bf 90 7a be 76 8a 08 3e
       -0.00084117166 -0.025710195 -0.24469279 0.13334069
000210 a7 c9 75 bd f0 4f 63 3e fc 72 f6 bd 40 6f 4e be
       -0.060006764 0.22198462 -0.1203365 -0.20159626
000220 90 2a 1f be 6e 5e ea 3d 7c 02 42 be a6 c7 76 be
       -0.1554358 0.11443792 -0.1894626 -0.24099597
000230 c1 5e 2d 3e 87 56 f3 3d 7b f0 06 3d 2f 00 20 3e
       0.16930677 0.11881738 0.032944184 0.1562507
000240 f8 47 7a be 19 39 9b 3d 80 62 99 bb 68 b0 a3 bd
       -0.24441516 0.0757925 -0.0046809316 -0.07992631
000250 4c 71 81 3d b8 49 67 be 9a 74 72 3e 62 f0 1c be
       0.06320438 -0.22586715 0.23677292 -0.15326074
000260 79 d0 5e 3e a5 50 00 bd d7 7b 7a be 2a 9e 26 be
       0.21759214 -0.03132691 -0.24461304 -0.16271272
000270 cd 97 c8 3d b8 cc 58 3d ad 1d 23 3e 85 37 8d 3d
       0.09794579 0.05292961 0.15929289 0.06895355
000280 40 52 07 be a9 85 1e be 3f c4 bb bd e0 53 3d be
       -0.1321497 -0.15480675 -0.0916829 -0.18489027
000290 05 9f 21 be b0 09 1d be cd 31 5b be e0 c6 6a bc
       -0.15783317 -0.15335727 -0.21405716 -0.014329642
0002a0 21 86 24 be 83 1d 8a bd 01 26 b6 3d 04 37 ad bd
       -0.16066791 -0.0674391 0.088939674 -0.08457759
0002b0 08 c3 1c be 5b af a6 bd d6 e6 93 3d 2a 5a a5 bc
       -0.15308774 -0.08138915 0.07221763 -0.020184595
0002c0 c9 4d d8 3d d4 aa 43 3e c8 80 6c 3e b4 29 58 3e
       0.10561711 0.19108135 0.23096001 0.21109658
0002d0 e6 cc 38 be a0 a7 06 3d 8e c0 79 3e 6a 38 43 be
       -0.18046913 0.032874703 0.2438986 -0.19064489
0002e0 b9 ad ad 3d ac b3 79 be 94 fc 29 bb b0 2a 8a bc
       0.084804006 -0.24384946 -0.0025937902 -0.016866058
0002f0 da e5 10 3e dd c3 5a be 22 05 1e 3e 3b cf 86 be
       0.14150181 -0.21363778 0.15431646 -0.2632998
000300 4d 20 01 bd 88 f9 46 bd 67 34 b7 3a e8 ee c2 bd
       -0.031524945 -0.048577815 0.0013977409 -0.09518224
000310 d8 91 b0 bd 4a 2e e8 3d 72 3e 76 be b6 c0 2e 3e
       -0.086215675 0.11336954 -0.24047258 0.17065701
000320 9d e9 13 be 89 4b 4d be a1 5e 48 bb 2d 94 7c 3d
       -0.14444585 -0.20048346 -0.0030573981 0.06166475
000330 d5 fe 1d be 5b 05 fa bd 2d ab 5f be 4c 3f 90 3d
       -0.15429242 -0.12208053 -0.21842642 0.07043323
000340 4c ae 3e 3e d3 ba f9 3d 67 f3 66 3e f4 c1 e7 3d
       0.18621176 0.12193837 0.22553788 0.113162905
000350 8a 96 75 bd 58 27 0b 3e 50 63 da 3d 0c ec 89 3d
       -0.05995802 0.13589227 0.106634736 0.067344755
000360 09 7b 25 be 0f 99 44 3e a7 90 31 bd 14 bf 28 bc
       -0.16160215 0.19199012 -0.04335084 -0.010299463
000370 37 ff 23 3e 97 74 3d be b3 5e 2a be 31 85 1a 3c
       0.16015325 -0.18501507 -0.16637687 0.009431169
000380 63 92 1e be 98 a9 59 be e7 16 6e 3e d0 11 d7 3d
       -0.1548553 -0.21256101 0.23250924 0.10501444
000390 0b 54 ac 3e aa e3 11 3e df 7e 4f 3e 40 7c 1a bc
       0.3365787 0.14247003 0.20263241 -0.009429038
0003a0 4d f9 04 bd 44 6d e0 bd 06 76 37 3e d3 0a 39 3e
       -0.032464314 -0.10958341 0.17916116 0.18070535
0003b0 0c 7c bc 3c 31 de ff 3c 98 d0 92 bd 49 e6 b3 bd
       0.023008369 0.031233879 -0.07168692 -0.08784158
0003c0 c1 8b 3e 3e e0 ff 23 be 48 13 ed bd bc d3 16 be
       0.18608 -0.16015577 -0.11575943 -0.14729208
0003d0 8f 1b 56 3e e0 55 18 be d5 a7 03 bd 36 2d 24 be
       0.2090895 -0.14876509 -0.03214248 -0.16032872
0003e0 66 78 b8 3d 40 6b 0c be 90 1a 8d be 14 cf 80 be
       0.09007339 -0.13712788 -0.27559328 -0.25157988
0003f0 2e 84 6b be 33 09 82 bd ec e8 fe bd 2f 23 55 bc
       -0.22999641 -0.06349411 -0.1244677 -0.013008877

edge_encoder.2.bias f4 [16]
000000 87 55 de bd fe bf 02 3e bf 76 56 be d6 18 e6 bd
       -0.10856157 0.12768552 -0.20943736 -0.11235206
000010 83 95 50 3e b5 1d 90 3c 64 51 16 3e 34 da b9 bc
       0.20369534 0.01759229 0.14679486 -0.022687055
000020 8d 61 58 3c 2e 9c 82 be 2a 97 5b 3d 85 98 09 be
       0.013206852 -0.2550978 0.05361096 -0.13437088
000030 e8 8a 10 be 45 23 39 be 77 18 3d be 8a 05 f5 3a
       -0.14115489 -0.1807986 -0.18466364 0.0018693667

edge_encoder.3.weight f4 [16]
000000 61 48 7f 3f f8 39 80 3f 1c 10 7e 3f 3b 92 84 3f
       0.99719816 1.0017691 0.9924333 1.0357126
000010 75 33 7e 3f f3 76 79 3f c0 00 7f 3f f1 4d 83 3f
       0.9929727 0.9744713 0.9961052 1.0258161
000020 54 e0 77 3f df f5 7c 3f cc 15 7e 3f 7a 04 81 3f
       0.9682667 0.9881267 0.9925201 1.0079491
000030 43 d9 7b 3f 21 94 7e 3f 95 3d 83 3f f0 62 7d 3f
       0.9837839 0.99444777 1.0253168 0.9897909

edge_encoder.3.bias f4 [16]
000000 66 bf 03 3c 94 75 cd 3b 5c 19 79 bb 0a b1 b3 bb
       0.008041238 0.00627012 -0.00380095 -0.005483751
000010 1d cb 3a bc 56 48 de bc b5 04 fb 3b e3 09 93 bb
       -0.011400965 -0.027134102 0.007660473 -0.0044872626
000020 fd 5b b8 bc 00 14 ee bb 5f 00 00 3c 91 50 14 3c
       -0.0225048 -0.007265568 0.0078125885 0.009052412
000030 7e 05 8a 3c 36 20 c8 bb d4 0c 67 3c ec 7f 16 3c
       0.016848322 -0.0061073555 0.01410218 0.009185772

node_model.0.weight f4 [16, 48]
000000 e9 76 bc 3d dd 1b f4 bd 74 85 b1 bd 20 06 a8 bd
       0.09202368 -0.11919377 -0.08668032 -0.08204293
000010 6d 1d d6 3d 89 90 c3 bd 55 7b b3 3d 47 21 4f bd
       0.10454831 -0.09549052 0.08763758 -0.050568845
000020 17 03 17 3e b8 31 e6 3d 25 9a 64 3d 9b c3 95 3c
       0.14747272 0.11239952 0.055811066 0.018281749
000030 73 1b d7 bd 9d 21 01 3d cb 55 0e 3e 75 69 27 bc
       -0.105032824 0.031526197 0.13899915 -0.010218014
000040 6e f3 38 bd 6c 3e a1 bd e9 b8 9b bd d9 03 0d be
       -0.045154028 -0.07873234 -0.07603628 -0.13770999
000050 0a 3b 4f bd 16 c4 8f bd 07 91 a8 bc 1d 3a e2 bd
       -0.050593413 -0.07019822 -0.020576967 -0.110462405
000060 86 28 cf 3d 7d 59 19 3e 19 bf 18 be fc 98 99 3d
       0.10115151 0.14975543 -0.14916648 0.074998826
000070 c5 28 6e bd c2 93 3a 3e bc 9c a8 bd a4 51 1c 3b
       -0.05814435 0.18220428 -0.0823302 0.0023852373
000080 ec 6f 1d 3e 69 17 aa 3d 0a ab 23 be 3d af ea bd
       0.15374726 0.083052464 -0.15983215 -0.11459205
000090 0d 03 82 bd 1f c1 33 bc f6 33 1e be b5 e3 99 3d
       -0.06348238 -0.010971337 -0.15449509 0.07514135
0000a0 63 a1 10 3e 15 d3 1c be e3 44 b6 3d 12 3d 0a bd
       0.14124064 -0.15314896 0.08899858 -0.033749647
0000b0 50 fc e6 3c ee 93 13 3e 8b fa 56 3c 8a c0 e7 3d
       0.028196484 0.144119 0.013121258 0.11316021
0000c0 e9 90 e9 bd 35 2d 14 3e 8f f4 96 bd 48 e5 e6 3d
       -0.114045925 0.1447037 -0.073708646 0.11274201
0000d0 b2 be b9 3d 93 4d c7 3d ad 2c d2 bd 37 7f a2 bd
       0.09069575 0.09731593 -0.102624275 -0.079344206
0000e0 4d 07 22 bb b7 9f 76 bd ca 0e 77 bd 54 fd 9b bd
       -0.002472359 -0.06021091 -0.06031684 -0.07616678
0000f0 ef 41 1c 3e a4 58 bc bd 1c db e8 3c 77 14 ae 3c
       0.15259527 -0.09196594 0.028424792 0.021249993
000100 c1 cf 1f be 11 b0 fe bd b0 8a 22 bc da 4f 06 be
       -0.15606596 -0.12435926 -0.009920761 -0.13116398
000110 97 69 74 bc d8 10 c2 bc e5 ec 08 3d 65 50 58 3d
       -0.014917753 -0.023689672 0.033429045 0.052811045
000120 da 64 c9 3d ce 85 d4 bd 89 c8 1b 3e 6e fb 34 be
       0.09833689 -0.10377084 0.15213217 -0.17674038
000130 6c 80 be bd 69 14 88 bd b2 37 92 3d f6 23 c1 bc
       -0.09301838 -0.06644518 0.07139529 -0.023576718
000140 26 ec 11 be dd 27 11 bc 34 88 dd 3d 8f b5 f0 3d
       -0.1425024 -0.008859602 0.10816994 0.117533796
000150 cc 62 30 bd 6c 87 e3 3d 5c 3d b9 bd a7 33 20 3d
       -0.04306297 0.11109814 -0.090449065 0.03911176
000160 a7 f1 e7 bd c2 84 d5 bc ae 84 ec 3d a0 5c 95 3d
       -0.113253884 -0.02606428 0.11548744 0.072930574
000170 8a 2d 31 bd 2a 9d 0b bd d5 74 ad bb ce c1 88 3d
       -0.04325632 -0.03408543 -0.0052934685 0.0667759
000180 93 7f dc 3d 3a 6e 34 bd df e1 60 3c b1 86 39 bd
       0.1076652 -0.044050433 0.013725727 -0.045294467
000190 49 1a 80 bd 5a a8 4c bd 68 fd 47 3d 5b 0b 9c bd
       -0.062550135 -0.04996524 0.04882565 -0.076193534
0001a0 a6 ec f1 3d b5 17 69 bc b4 f5 c5 bd 28 ff 91 3d
       0.11812715 -0.014226844 -0.09666005 0.07128745
0001b0 36 60 8f bd e9 68 20 be 00 ab 25 3d 90 24 d8 bd
       -0.07000773 -0.1566502 0.04044628 -0.10553849
0001c0 ee c8 0b be ca c5 08 be 77 5f 99 bd 1c c6 2f 3d
       -0.13650867 -0.133567 -0.074889116 0.04291354
0001d0 11 e2 fd bd 9e 4c 56 3d 2b 39 ba 3d 3a 16 95 bd
       -0.12396634 0.05231916 0.09092935 -0.0727963
0001e0 bf b1 8e 3d 90 6b 08 3e 2f 07 ff 3d 35 5e d0 bd
       0.06967496 0.13322282 0.12452542 -0.101742186
0001f0 4d 9d c6 bc ec e0 7a 3d ef f3 3f 3d 70 bc e5 bc
       -0.024244929 0.06124966 0.046863493 -0.028043956
000200 52 5e 96 3c b1 13 95 bc f9 19 f2 bd f1 ba 74 bd
       0.018355522 -0.018197866 -0.1182136 -0.059748594
000210 cf 69 94 3d 54 17 d0 bd 9a fe e3 3c f4 61 1b 3e
       0.07246744 -0.101606995 0.027831364 0.15174085
000220 96 f4 a0 bd ac b4 68 bc 15 d7 39 3d 98 fc 1a 3e
       -0.07859151 -0.014203232 0.045371134 0.1513542
000230 53 3e e5 bd bf 2b e8 bd 50 5e 5c bc 97 4b ad 3c
       -0.11193528 -0.11336469 -0.01345022 0.021154208
000240 ff e3 25 bd 15 0d b7 3d 0f c8 06 be a8 d8 0a be
       -0.040500637 0.08938042 -0.13162254 -0.1355921
000250 c4 b8 02 be 7a 7c ed bd 39 7a d4 3d c8 a5 06 3e
       -0.12765795 -0.11596008 0.103748746 0.13149178
000260 27 d6 c0 bd 6a 6c 19 3d ef 43 b4 bd e0 39 13 3d
       -0.09415846 0.037456907 -0.0880202 0.035943866
000270 fa 99 26 bd 75 e3 ab bd 63 96 0c 3e d6 70 46 bd
       -0.040674187 -0.08392993 0.13729243 -0.048447452
000280 f6 28 83 3d a5 c7 b7 bb da d4 89 bd 41 aa c1 bd
       0.06404297 -0.0056085163 -0.06730051 -0.094563015
000290 c8 b3 87 bd 40 23 4d bd 1c 8f d9 3d f2 de d9 bd
       -0.066260874 -0.050082445 0.10622999 -0.106382266
0002a0 28 df d3 bd cd 14 c6 bd c1 94 24 3d 58 06 83 3d
       -0.10345298 -0.09671936 0.040180925 0.06397694
0002b0 9d 4e 62 3d 45 7f 31 3b 7f 40 07 3e 9d bd 6b bd
       0.055250753 0.0027083915 0.13208197 -0.057553876
0002c0 b1 e7 a2 bd 15 67 96 ba c2 12 eb 3c d8 77 a9 3d
       -0.07954348 -0.0011474813 0.028695468 0.082748115
0002d0 27 28 15 bd 4c be ac bd ba 2c 82 bd 61 57 60 bd
       -0.036415245 -0.08434734 -0.06356187 -0.05477083
0002e0 0a ce fe 3d 84 2b 0b 3e 08 2a 6b bd 04 94 82 bc
       0.124416426 0.13590819 -0.05741313 -0.01593972
0002f0 f6 19 92 3d 35 89 03 3e ee 45 92 3c 22 10 9b 3a
       0.07133858 0.12845309 0.01785561 0.001183037
000300 51 27 2d bd 8b 06 ef 3d ff ff bd bd 9f f2 05 bd
       -0.042273823 0.1167117 -0.09277343 -0.032702085
000310 fa 77 b6 bd 3c 5a 8c bc 2a cb e0 bd e4 45 da bd
       -0.089096025 -0.01713287 -0.109762505 -0.10657862
000320 b9 fd a7 bd e0 e3 28 3d 01 c7 b4 bd 73 52 87 bd
       -0.08202691 0.041232944 -0.088270195 -0.06607523
000330 9e 15 bb bb d2 97 43 3d 8f 14 1d be a0 47 8e bd
       -0.005709364 0.04775221 -0.15339874 -0.06947255
000340 6f 81 7c bd 6f 8a 89 3d e0 2e 68 3c d2 06 13 bc
       -0.061646875 0.06715857 0.014171332 -0.008973794
000350 98 ac e5 bd ae e6 92 bd db a0 0a 3d 42 96 0c be
       -0.1121456 -0.07172905 0.03384481 -0.13729194
000360 c1 06 12 bd 6f a5 ec bd 30 38 3e 3d 1d 4f 1c bc
       -0.035650972 -0.115549915 0.046440303 -0.009540346
000370 23 62 b3 bd e0 3f 53 bd 06 17 11 3e bf 75 03 be
       -0.087589525 -0.051574588 0.14168939 -0.12837885
000380 4e 55 17 bd d4 83 87 bd e7 7d 8e bd 9c 7c 28 be
       -0.036946587 -0.06616941 -0.06957608 -0.16453785
000390 1e 1d 01 be b6 e7 68 bd 28 56 28 be a8 12 92 bc
       -0.12608764 -0.0568616 -0.16439116 -0.017831162
0003a0 85 01 f7 bd dd b3 36 3d 9a f2 f6 3c 9c 02 cb bd
       -0.12060837 0.044605125 0.030144978 -0.09912607
0003b0 d2 e7 e7 3c 0c 75 e0 bd 05 e4 1f 3d 20 1d 9e 3d
       0.028308783 -0.10959825 0.039035816 0.07720399
0003c0 cf d1 07 3d b0 9b e0 bd 5c e2 ce bd 39 06 04 3e
       0.033159073 -0.10967195 -0.101017684 0.12892999
0003d0 f9 9b e3 3c 0a b8 e6 3d 6b 62 b7 bb 3b 7f 0b 3d
       0.027784334 0.112655714 -0.005596449 0.034056883
0003e0 64 5c 85 bd c3 b6 99 bd 6e b5 04 be bb 74 cc bc
       -0.06511763 -0.07505562 -0.12959835 -0.024958005
0003f0 bc de 25 bd 7c 8c 1c 3e d2 2f 7a bd 6a cb cd bd
       -0.04049562 0.15287966 -0.06108076 -0.10048564

node_model.0.bias f4 [16]
000000 d2 b6 82 3b b5 8c 0c 3d bd 5c 1d 3d d0 d7 06 3e
       0.003989079 0.034313876 0.03841852 0.13168263
000010 91 72 9f bd f4 48 d8 bd 09 01 17 3e 63 5e 25 3e
       -0.07785524 -0.1056079 0.14746489 0.16149287
000020 d8 f7 70 bd 15 6e a7 bb 84 01 0b be 6f 33 d0 bd
       -0.058830112 -0.0051095583 -0.13574797 -0.1016606
000030 db 23 fe 3d c9 02 a0 3d b4 e2 b0 3d 6f 20 27 3b
       0.12409183 0.07813031 0.0863699 0.002550151

node_model.2.weight f4 [16, 16]
000000 dc 80 de 3d e3 21 c7 3c 38 13 98 3c ce e0 e4 3c
       0.10864422 0.02430815 0.018563852 0.027939226
000010 95 0e 99 be bc b0 25 3e 8e 6b 0f bd 6a e0 98 bd
       -0.29893938 0.161807 -0.03501468 -0.074646786
000020 dc 13 41 be a0 71 e6 3d 31 ec 33 be 6f ff 80 3e
       -0.18855232 0.11252141 -0.17570569 0.2519488
000030 16 5e 1b bd 4a ca 16 bd d6 94 bd 3d dd de 7f 3e
       -0.037931524 -0.03681401 0.09256904 0.2498736
000040 68 b0 27 be a5 b9 5d 3d 62 17 3a be b8 fb 83 3d
       -0.16375887 0.054132123 -0.18172982 0.06444496
000050 00 7d 3f be 70 61 2c be c1 41 09 3e 02 b4 07 be
       -0.18700027 -0.16834044 0.1340399 -0.13252261
000060 cb 95 e6 bd c6 68 6c 3d 20 9f 18 bd 84 f5 0a 3e
       -0.112590395 0.057717107 -0.03726113 0.1357022
000070 01 c3 62 be 7a a9 09 be 66 9b 3d 3c 4e bf 4c be
       -0.221447 -0.13443556 0.011572694 -0.19994852
000080 17 33 29 bd b9 d5 d6 bd 8a 0b 5c 3e d4 f4 e6 3c
       -0.04130849 -0.10489983 0.21488777 0.028192915
000090 cb 89 42 3d f2 1a 6a be 77 f0 67 3d b0 6d d3 bd
       0.04749469 -0.22861841 0.05662581 -0.103236556
0000a0 49 14 43 be aa 42 d1 3c 7a b0 e2 3d 4d 86 ba bd
       -0.19050707 0.025544483 0.110688165 -0.09107647
0000b0 97 cb 4b 3c 74 89 5a bd 25 dc 1b be 9d 25 e4 3d
       0.012438676 -0.05335374 -0.15220697 0.11139987
0000c0 61 7d 8d be d9 35 3e 3e 56 60 29 3e 49 db 04 be
       -0.2763472 0.18575229 0.16540655 -0.12974276
0000d0 19 e3 8f bd c9 48 ef bb 0f 3b 24 3d d4 4b 33 3d
       -0.07025737 -0.007302378 0.040095385 0.043773487
0000e0 4a d2 8b bd ac 0c ac bc ab 04 19 3e cb 30 2b be
       -0.06827219 -0.021002136 0.14943187 -0.16717832
0000f0 a2 ab 21 3e c8 76 0d be 5c a8 e6 bd 07 2f 24 be
       0.15788129 -0.13814843 -0.11262581 -0.16033565
000100 be 57 c4 bd ee fe 51 bd 6c 51 19 bd 8b b8 48 3e
       -0.09587048 -0.05126851 -0.037431166 0.19601648
000110 ba df 80 3d f1 9a 5b 3e 70 ed de bc 5e 62 96 be
       0.062926725 0.21445824 -0.027212828 -0.29371923
000120 5d 3c 50 be ce 64 4a be 50 16 f7 3d 32 ba 30 3e
       -0.20335527 -0.19765016 0.12064803 0.17258528
000130 dd 8b df bd c4 f4 57 be d8 0c e0 bd 93 62 8a 3d
       -0.10915349 -0.21089464 -0.1093995 0.06757083
000140 8f a0 6c bd c3 89 46 be 43 09 35 be 5c 8f d3 bd
       -0.057770308 -0.1938849 -0.17679314 -0.10330078
000150 20 5e a4 3d f6 80 05 be 67 a0 f8 3d 59 cb 2c 3d
       0.080257654 -0.13037476 0.12139969 0.042186115
000160 ae 3b 26 3d 21 9a 8c be a4 06 34 bd 60 5a b7 3d
       0.04058426 -0.2746134 -0.043951645 0.089527845
000170 dc b3 10 3e 57 8c 35 3e b5 74 81 bd b6 ac bf bd
       0.14131111 0.17729317 -0.06321088 -0.09359114
000180 30 7c 41 3c e9 35 ba 3c 67 3e 4e 3e 9e ac 03 be
       0.011809394 0.022730784 0.20140992 -0.12858817
000190 65 7d be bc 86 0e c4 3d 4a e2 55 bc 95 2a 96 bd
       -0.023253152 0.095730826 -0.01305444 -0.07332341
0001a0 4c 39 16 3e 30 4d 45 be 12 db ec 3d 2e 3b 96 3e
       0.14670295 -0.19267726 0.11565222 0.29342026
0001b0 5c 57 21 be dc 19 96 3c 06 20 41 be 99 e9 32 3e
       -0.15755981 0.018322878 -0.18859872 0.17471923
0001c0 e1 2a 2e be 1b 55 ec 3d ee 17 51 3c 10 a8 90 bd
       -0.17008545 0.1153967 0.012762053 -0.070633054
0001d0 35 ea 16 3d f9 ee 77 be 31 66 5a 3d 13 71 e5 3d
       0.03684445 -0.24212255 0.053320114 0.11203208
0001e0 c9 b5 e2 bd e2 24 f2 bd 9e 9f 37 3e 42 e8 1d be
       -0.11069829 -0.11823441 0.17931983 -0.1542063
0001f0 11 6a 3c 3a ea f7 94 3d e4 f6 37 3d e3 e8 fa 3d
       0.0007187436 0.07273848 0.044913188 0.12251451
000200 17 b0 a7 3c bc f4 65 be b2 48 47 be eb 2e 75 3d
       0.020469708 -0.2245664 -0.19461325 0.059859198
000210 66 57 3f 3e 41 8b c8 bd 7c d1 0e be de 99 a1 bc
       0.18685684 -0.097921856 -0.139471 -0.01972669
000220 ff d4 c0 bd 3c 29 66 3e 2e 17 fe 3c 13 9b 0b bd
       -0.09415626 0.22476667 0.031016912 -0.034083437
000230 54 44 5b 3d b0 3d 42 3e 90 c7 63 be 83 c0 2a 3e
       0.05353196 0.18968844 -0.22244096 0.16675
000240 e2 c9 16 3e 51 ec 79 be 8a ce 25 3e ac 62 f7 3d
       0.1472545 -0.24406554 0.1619207 0.12079367
000250 f7 5d 47 bd 4c d5 3c bd 90 6f 23 3e 9a c0 5d be
       -0.048673596 -0.046101853 0.15960526 -0.21655503
000260 1e 6e 6f 3d 24 b8 a3 bd 6d e4 97 3d 4e b6 f5 bd
       0.058454625 -0.079941064 0.07416616 -0.119976625
000270 34 15 70 3e 73 0f a8 bd e6 5d 42 3e 8a b4 54 3e
       0.23445588 -0.08206072 0.18981132 0.20771995
000280 47 02 32 be c2 29 c6 3d f2 d2 0f 3e 8c fd 74 bc
       -0.17383681 0.096759334 0.14045313 -0.014953028
000290 52 b9 5d 3c ee 58 b2 3d e2 4d 37 3e de 18 7f be
       0.013532953 0.08708368 0.17900804 -0.2491183
0002a0 00 82 2e be 36 72 28 bd 01 36 a3 bd d2 90 94 3a
       -0.17041779 -0.041124545 -0.07969285 0.0011334664
0002b0 1b b7 49 3e 97 cf fe 3d 73 90 bb 3d 92 b5 9d 3b
       0.19698755 0.12441938 0.09158411 0.0048129046
0002c0 7b f8 4c be 7d 8e 7b 3c a7 45 12 3d 67 1a 02 be
       -0.20016663 0.015353796 0.035710957 -0.12705384
0002d0 2a 64 d5 3d bf 80 67 3e c8 04 74 be e2 1a 47 3e
       0.104194954 0.22607706 -0.23829949 0.19443849
0002e0 23 7f 81 3e b7 7a 3f bd 22 0a 16 ba 9d 1c 7b be
       0.2529231 -0.04674789 -0.0005723556 -0.24522634
0002f0 10 3c 08 be 6b 9a 93 bd dc e4 c6 3c 48 05 0f 3d
       -0.13304162 -0.07207187 0.02427905 0.034917146
000300 81 16 28 3d 7d aa 2e bd a3 1b 34 be 47 d5 9a bd
       0.041037086 -0.04264306 -0.17588668 -0.07560211
000310 f8 df 99 3c 42 11 7b 3e 0b e3 5c 3d a7 4d ed 3c
       0.018783554 0.24518302 0.053927463 0.028967692
000320 e7 f6 c6 bd a6 0e b7 bd 46 ad 01 3e ea 8c 34 be
       -0.09715062 -0.08938341 0.12663755 -0.1763188
000330 fd 9b ab 3d 4d 55 0b be 9e 76 d5 bd 86 c1 54 3e
       0.08379362 -0.13606758 -0.10423015 0.20776948
000340 f3 7b 0a 3e 45 b3 15 be dd 55 0e be e2 33 3f bb
       0.13523845 -0.14619167 -0.13899942 -0.0029175212
000350 78 32 ed 3d d1 5f 12 3e da f5 01 3e ae a4 dc 3b
       0.11581892 0.14294364 0.12691441 0.0067334985
000360 f0 5e 64 3e 2a 53 57 be df e2 8f 3e e0 0d 5b be
       0.22301841 -0.21027818 0.28102776 -0.21392012
000370 80 ac 4f 3c dc 62 5b be 79 2b 5f 3e 4e 96 00 3e
       0.012675405 -0.2142443 0.21793927 0.12557337
000380 df 89 42 be 22 b0 8d 3d 7b 7e 75 39 cf 58 4b 3e
       -0.18997906 0.0691836 0.00023412138 0.19858097
000390 1a f0 7f be 31 aa 9b 3d c7 65 14 3e 5c bf 62 be
       -0.24993935 0.07600821 0.1449195 -0.2214331
0003a0 bd 68 ba 3d 0b 3d cf 3d 58 35 88 be 4e 5e 7b 3e
       0.091020085 0.10119065 -0.26603198 0.24547693
0003b0 19 f4 18 be b2 4a 84 3e 02 a9 b1 3c ba e8 54 3e
       -0.14936866 0.25838238 0.021687035 0.20791903
0003c0 42 35 86 3e 93 7e 54 be 22 fb 4e 3e 19 c9 7d bd
       0.26212507 -0.20751409 0.20212987 -0.06195936
0003d0 1c 0f 5e 3b aa b8 d3 3d a1 be d6 3d 97 d8 99 bd
       0.0033883518 0.10337956 0.10485578 -0.07512014
0003e0 f7 16 fa 3c 2d 77 03 3e f3 ab 6a 3e 39 ee 3e be
       0.030528529 0.1283843 0.22917156 -0.18645562
0003f0 fd 58 3b be ee 2a 87 be 3b da fc 3d ed 34 c8 bc
       -0.18295665 -0.2639994 0.12346312 -0.0244393

node_model.2.bias f4 [16]
000000 f8 d0 3c bd bb 9d 01 3e be 69 d4 bb f3 c8 a2 3d
       -0.046097726 0.12657826 -0.006482332 0.07948484
000010 36 3a 55 3e c2 e7 0f be cb d7 f6 bd f2 bb 65 be
       0.20822987 -0.14053252 -0.12052878 -0.22434977
000020 83 d4 a7 bd db 8c e8 3c 3c 71 6a bc 24 59 bf 3d
       -0.0819483 0.028387478 -0.014309224 0.09343174
000030 f4 f6 3c 3d bb cc 16 bd 5f c8 2c be c7 1a 73 3d
       0.04613395 -0.03681634 -0.1687331 0.05935171

node_model.3.weight f4 [16]
000000 6a 76 99 3f 20 c2 a5 3f 7e 32 88 3f 7c d5 8e 3f
       1.1989262 1.2949867 1.0640409 1.11589
000010 c8 03 c1 3f cf 96 b7 3f f8 c1 a0 3f aa 4c 84 3f
       1.5079279 1.4342898 1.2559195 1.0335896
000020 de 57 99 3f ca 65 94 3f fd 67 a2 3f 89 78 aa 3f
       1.197994 1.1593564 1.2687985 1.3318034
000030 2e a0 7d 3f 3a 29 8a 3f d9 e9 94 3f 37 bf 88 3f
       0.9907254 1.0793831 1.1633865 1.0683354

node_model.3.bias f4 [16]
000000 8c 43 74 be c2 e3 33 3e a5 ba 30 3e dd bf 0b 3e
       -0.23853892 0.17567351 0.17258699 0.13647409
000010 a0 ab 5f 3e a5 7e 14 be 9b b5 3e be e7 f9 5d bd
       0.21842813 -0.14501436 -0.18623964 -0.054193404
000020 e4 d0 03 be 0a 9e 49 3e f7 56 18 3e 0a 65 49 be
       -0.12872654 0.19689193 0.14876924 -0.1966745
000030 b4 7d 1e 3c e5 46 c0 3d 82 5c 0d 3e 2c d3 21 be
       0.009673525 0.09388522 0.1380482 -0.15803212

edge_model.0.weight f4 [16, 96]
000000 01 02 94 3d 58 f4 d7 bc 04 ad bb bd 9c 9b 9d 3d
       0.07226945 -0.02636163 -0.091638595 0.07695696
000010 3a 69 a0 bd dd cd 58 3d 5d 70 40 3d 78 f4 a9 bd
       -0.078325704 0.0529307 0.046982158 -0.08298582
000020 cb 03 8e 3d 45 83 97 bd 48 33 d4 3b e1 7c d3 3d
       0.06934317 -0.073980846 0.0064758398 0.10326553
000030 04 9e ba 3d 59 0d 7a 3d 78 7d 62 bd 06 73 a8 bd
       0.0911217 0.061047886 -0.055295438 -0.08225064
000040 72 75 08 3d 70 24 1a 3d e6 65 6e bd 4e 98 df 3d
       0.03331513 0.037632406 -0.058202647 0.10917722
000050 1b 6d cc bd d1 02 8d 3d 6b 20 17 bc cb 9f cc 3d
       -0.09981748 0.06885303 -0.009224038 0.099914156
000060 61 05 9d 3b 78 15 0f 3d c1 5e 06 3d 91 8a 24 3d
       0.004791901 0.034932584 0.032805208 0.04017121
000070 0a 8a 9d 3c 48 43 06 3d aa 9c b8 3d 33 90 86 3d
       0.019230861 0.03277901 0.09014256 0.065704726
000080 0c ff 24 bd 26 50 9c 3d a7 57 c6 bd e8 b0 a9 3d
       -0.040282294 0.076324746 -0.09684687 0.08285695
000090 6b 42 cc 3d df 39 6f bd 7d ae eb 3c 4d f9 31 3d
       0.09973606 -0.0584048 0.028769726 0.043450642
0000a0 e1 a8 dc bd 9c ba 05 3d 88 75 a8 3d 40 cc b7 bd
       -0.107743986 0.032648668 0.08225542 -0.089745045
0000b0 59 80 ff 3c d7 8b b4 3d a5 04 04 3d ad 49 ce 3c
       0.03118913 0.08815735 0.032230992 0.025181616
0000c0 59 34 1c be b9 1b a8 3a 34 55 9f bd 42 07 a0 3b
       -0.15254344 0.0012825645 -0.07779923 0.0048836777
0000d0 6a f6 84 bc 3f fc fc 3d 2e d8 28 bd 18 0b aa bd
       -0.01623078 0.123527996 -0.04122179 -0.08302897
0000e0 47 05 07 3c d9 59 5e bd b8 a7 f5 bc 46 f9 5d 3d
       0.008241004 -0.054284904 -0.029987201 0.054192804
0000f0 ae 12 86 3d 14 fe 9f 3d 67 b4 76 38 9b df 8d 3d
       0.065465316 0.078121334 5.8818983e-05 0.06927415
000100 17 a8 02 3d e0 c5 a9 bc c6 91 c3 bc 0f 86 75 3d
       0.031898584 -0.020724237 -0.023873221 0.0599423
000110 a1 5f 30 3d 67 36 98 3d 5f 06 a9 bd 59 5d 4c bd
       0.04305995 0.074322514 -0.08253168 -0.04989371
000120 fd 40 94 3d 5c 40 b8 bd 7d a8 28 bd 8d df e6 bc
       0.07238958 -0.089966506 -0.041176308 -0.02818277
000130 da 88 29 3d 6d 1d b4 3d c4 66 be bd 47 e2 09 bd
       0.041390277 0.08794675 -0.09296945 -0.03366306
000140 2b 51 b1 bc 94 44 b5 bd de fb 4f bd d4 07 9c bd
       -0.02164515 -0.08850971 -0.05077731 -0.076186806
000150 8f d1 cc bc 2a 2a 4b bd ba eb 6e 3d 66 b4 19 bd
       -0.02500227 -0.049600758 0.058330275 -0.037525557
000160 28 cf 05 be ce 4c 86 3d 8b 5a 17 bc b2 88 b1 bc
       -0.13067305 0.06557618 -0.009237896 -0.021671627
000170 fd a8 b4 bd 68 12 b3 3b e2 cd 41 3d de 02 cc bb
       -0.088212945 0.0054648407 0.047315486 -0.0062259277
000180 db 53 46 3d 0f 72 e1 3c aa 46 ac bc 9d 89 9b 3d
       0.048419815 0.027520208 -0.021029789 0.07594607
000190 fd 98 2d bd f4 17 b1 3d c7 92 7d 3d 42 47 91 bd
       -0.04238223 0.08647147 0.061907556 -0.070936695
0001a0 a6 c2 73 3d 0e 95 ab 3d 43 a1 c1 3c f7 d1 49 bd
       0.059511803 0.08378039 0.023636466 -0.049272504
0001b0 db da c6 bd 84 d6 ab 3d 4a b7 32 bd 16 50 be bd
       -0.09709712 0.08390525 -0.04363183 -0.09292619
0001c0 8c a8 97 bd f9 3a 42 bc 40 ab 84 bd f4 dc 8e 3d
       -0.07405195 -0.0118548805 -0.06477976 0.06975737
0001d0 7a 41 b2 3d 1c 62 08 3c ad 1d 89 bc 23 4b 8e 3b
       0.08703895 0.008324172 -0.016737783 0.004342453
0001e0 97 94 e7 3c 51 a0 87 3d 7a 2a 44 bd 6c e1 80 bd
       0.028269095 0.06622375 -0.04789207 -0.06292996
0001f0 e3 02 ba bd 85 e0 c7 bd 68 65 b7 bd 8a dc ce bb
       -0.09082582 -0.097596206 -0.089548886 -0.0063129114
000200 85 92 c9 3a 19 10 9d 3d ee e5 22 3d 3d 8b ea bc
       0.0015378749 0.07669086 0.03977006 -0.028630847
000210 48 f7 d7 bd ff 08 9a bd b4 30 a0 3d 20 d3 2d 3d
       -0.10545212 -0.07521247 0.078217894 0.042437673
000220 00 a6 35 bd 99 f8 db 3d 75 89 b8 3d 7b 58 95 bc
       -0.044347763 0.107407756 0.09010593 -0.018230667
000230 67 1c 73 bc 16 81 de 3d 67 21 8a bd 81 5c 49 3d
       -0.014838315 0.10864465 -0.06744652 0.049160484
000240 97 7c bc bd 0b 72 a7 bd 78 f8 c5 3d 8c 83 a4 bd
       -0.09203451 -0.08176049 0.09666532 -0.08032903
000250 c3 15 a9 bd 16 ac 93 3c 5f 35 d1 bc 56 1f 40 bc
       -0.08256104 0.018026393 -0.025538145 -0.011726221
000260 3b ce 53 bd ad 4e 80 bc 07 d1 ac 3d 08 42 5c bd
       -0.05171035 -0.015662516 0.08438306 -0.05377391
000270 d8 8e 45 3c b7 e7 b8 bd 7d 7e c7 bd a4 a6 49 3d
       0.012057982 -0.09028571 -0.097409226 0.049231187
000280 d1 75 1c 3d 6f 82 79 3d 9a c9 cd bc fe cd 12 3c
       0.038198296 0.060915407 -0.025120545 0.008960245
000290 69 e6 a1 bd 09 02 14 3d 98 bb 11 bc a2 9d 20 3d
       -0.079052754 0.036134753 -0.0088948235 0.03921283
0002a0 bd 26 d1 bd e0 c7 8d 3d 00 5d 4b bd c3 a8 ba bd
       -0.10212467 0.06922889 -0.04964924 -0.0911422
0002b0 65 b0 5b bd 0f 29 a5 3d 95 9e e0 bd cd e3 1b bd
       -0.05363502 0.08064472 -0.10967747 -0.038059045
0002c0 19 b0 35 bd e1 78 0c bd 97 a2 ab 3d 65 03 1b 3d
       -0.044357393 -0.034294967 0.08380621 0.037845034
0002d0 99 0b bc bd 8a 8e 98 3d 98 1e 2b 3c fd 1e 90 3c
       -0.091818996 0.07449062 0.010444306 0.017592901
0002e0 bf 63 73 3d 21 ab e3 3c 52 1e a5 3d ce 66 8d bc
       0.059421297 0.027791562 0.08062424 -0.017260935
0002f0 a1 7e 20 bd 6b f0 86 bd 66 06 e3 bc 41 72 85 bd
       -0.039183263 -0.06588825 -0.027713012 -0.06515933
000300 c4 a5 aa bd c8 44 cd 3c 72 87 e0 3d 35 f2 b3 3c
       -0.083323985 0.025057212 0.10963334 0.02196608
000310 01 37 8e bd 24 35 98 bd be 11 c4 bd d2 bb 03 bc
       -0.06944085 -0.07432011 -0.095736966 -0.008040385
000320 d8 99 2a bc 5c 21 9c bb c3 dc da 3c 31 b9 9f bd
       -0.010412656 -0.004764719 0.026716596 -0.07798994
000330 b9 6d 16 bd 6b 64 13 bb 0d 14 a0 bc 0b 5a 33 3d
       -0.036725733 -0.0022490274 -0.019540811 0.043787044
000340 37 57 ad bd cf 3e 8e bd 61 ed b6 bd 60 2c bd bd
       -0.084639005 -0.069455735 -0.08931995 -0.092369795
000350 48 4b a9 3d ea 35 94 3d aa 01 a4 bd ee 59 94 bc
       0.08266312 0.07236846 -0.0800813 -0.018109288
000360 f3 90 38 bc 37 16 32 3c de da 26 3d df 27 e7 38
       -0.011265027 0.010869554 0.04073607 0.00011022365
000370 67 04 03 bd fc 8f d9 bc 71 3a e2 bc 0f c0 03 bb
       -0.03198662 -0.026557915 -0.027615758 -0.002010349
000380 90 47 1a bd c8 55 57 bd 0a 0e 98 3d 96 9a e6 bb
       -0.037665904 -0.05257204 0.07424553 -0.007037471
000390 d6 8a 39 bd fd 17 c9 3d 37 c4 0e 3d 1e 93 5b 3d
       -0.04529842 0.098190285 0.034855094 0.0536071
0003a0 e0 72 81 bd ea dc 31 bc 33 44 98 3d 55 a5 09 3c
       -0.06320739 -0.010855893 0.07434883 0.008401235
0003b0 7f bb cd bc c0 66 23 3d 83 d1 46 3d c4 7c a2 bd
       -0.02511382 0.039892912 0.04853965 -0.079339534
0003c0 be 4b 4f 3d 71 c2 b7 bd a5 00 cd 3d 36 ab b4 3c
       0.050609343 -0.08972634 0.100098886 0.022054296
0003d0 78 80 9c bc c8 25 bb 3d 9c 46 a6 3c 7e f6 c1 bd
       -0.019104227 0.091380656 0.020297341 -0.09470843
0003e0 82 e8 9c 3d ea b8 78 bd 8a 78 af bd 8b 13 ce 3c
       0.07661535 -0.060723223 -0.08567913 0.025155803
0003f0 f2 79 7d 3d 28 49 a8 3b 78 c6 46 3d 5d ce b0 bd
       0.061883874 0.005135674 0.04852912 -0.08633111

edge_model.0.bias f4 [16]
000000 2d 5b bc 3c c9 0e 9d 3c ba e9 5a 3d 41 45 9a 3d
       0.022992695 0.01917209 0.053445555 0.075327404
000010 58 14 82 3d 16 59 7c bd 2f 1d 88 3d f4 d7 6a bd
       0.063515365 -0.061608396 0.06646191 -0.057334855
000020 d3 10 03 bd 01 bd ef 3c 3d b4 96 3d a7 f4 e4 3c
       -0.031998467 0.029264929 0.073585965 0.02794869
000030 d2 e3 02 3c c1 96 e4 bc f0 03 22 bd 24 ce 96 bc
       0.007988887 -0.027903916 -0.039554536 -0.018408842
