tmp/tmp5model900.pt (torch, 23679 bytes, 25 tensors)

node_encoder.0.weight f4 [16, 5]
00000000: 86c9 943e 7f97 a6be 88d1 b73e 7082 923e
00000010: 95ef bb3e 09fe 98be ba61 7ebe a784 833e
00000020: 6cbd d5be 6fdc 003f fa5b ba3d ef5e 5b3d
00000030: fccf c3be 00f0 113e 2854 fe3d 5738 7b3d
00000040: f20f de3e 1879 cf3d be09 cbbe 1bdc bb3e
00000050: 6493 0b3e 0185 80be d8a0 d0be fc87 823e
00000060: 132e e43e bb99 bbbe 8037 c83c 744c 243e
00000070: 9942 58be 8067 c8bd 71e4 98be a980 58be
00000080: 5dbf d0be 40d0 29bc a4c3 873e 5225 3e3e
00000090: e1b3 c53e 8e4c e3be 0063 61bd 26d4 b43e
000000a0: af02 c13d e64e eebd c07a b4be 581a 553e
000000b0: 3db9 bd3e e26d bb3e 9d17 ce3e b30a e83d
000000c0: b232 a33e 8f91 8dbd f423 bf3e a945 debc
000000d0: 1978 b0bd d4a3 63be 5cf0 843e 3103 523e
000000e0: 97f9 9e3e c0a5 77be 787d 73be a110 e53e
000000f0: e62d 7ebe 6c96 82be 980e f5bd 4203 14be
00000100: d4b7 9bbe 2672 be3e fa8d 373d 75dd 443e
00000110: dcd6 a93e 75a9 a4be 0c43 b43e c740 8bbe
00000120: dee6 11bd de47 ad3e f199 d03e 0372 be3e
00000130: d870 743e d193 c73e 2e00 25be ea2e b3bd
0.2906 -0.32537457 0.35902047 0.2861514 0.36706224 -0.29881313 -0.24841967 0.25687143
-0.4174608 0.50336355 0.090995744 0.053557333 -0.38244617 0.14251709 0.12418395 0.061333027
0.4337154 0.10130519 -0.3965587 0.36691365 0.13630444 -0.25101474 -0.40747714 0.25494373
0.44566402 -0.36640725 0.024440527 0.1604479 -0.21119155 -0.09785366 -0.29861787 -0.2114283
-0.40771 -0.010364592 0.2651645 0.18568924 0.386138 -0.44394344 -0.055026054 0.35318106
0.0942434 -0.116361424 -0.352499 0.2081083 0.37055388 0.3660727 0.4025239 0.11330166
0.31874615 -0.06912529 0.37332118 -0.027132826 -0.08616657 -0.22230464 0.2596463 0.2050903
0.31049797 -0.24184322 -0.23778331 0.4473925 -0.24822196 -0.25505388 -0.11965674 -0.14454368
-0.30413687 0.37196463 0.044813134 0.19225104 0.33171737 -0.32160535 0.35207403 -0.2719786
-0.035620563 0.33843893 0.40742448 0.3719636 0.23871171 0.38979962 -0.1611335 -0.087491825

node_encoder.0.bias f4 [16]
00000000: 6a88 21be 9880 373c beec 6fbd a4d1 6a3e
00000010: 8c6d 953e 00e3 a4be c1e0 7cbe 3b6e 2dbe
00000020: e677 a53d 981f 2abe 4939 89be 54aa 6bbd
00000030: 047b 5fbe fd54 bb3c 6008 a4be e898 07be
-0.15774694 0.011200093 -0.058575384 0.22931534 0.2918514 -0.32204437 -0.24695112 -0.16936581
0.080795094 -0.16613615 -0.26801518 -0.057535484 -0.2182427 0.022867674 -0.3203764 -0.13241923

node_encoder.2.weight f4 [16, 16]
00000000: c294 ecbd bbf8 09be b80f 373e 2ec1 153e
00000010: 7e4d e6bd e6b4 6abe 141d 37be 0ee6 52be
00000020: 277e a7bd ca08 fbbd 2d0f 61be cbec 093d
00000030: c0ca 833c 3a29 45bd 6b50 20be 108e 4c3e
00000040: fb83 83be 6683 513d fff1 f23d ccbb 273e
00000050: 232e 57be 5059 20bd f67f 553e af0d 313d
00000060: 9855 933d d48e fdbd 908b 343e 3d37 bdbd
00000070: 04db 09be 1601 533e df61 af3d 3106 babc
00000080: 8caf eebd eed9 86bc 4f7f 2cbe 89db 2cbe
00000090: 2c28 39bc 90f6 453d 88c2 51be 6420 813e
000000a0: a2eb 5a3e 7211 6dbe de83 283e c36b 1cbe
000000b0: 489c 50be 20c7 823e 6cb3 a7bd ec6a 97bd
000000c0: e9b9 273d 63b1 2a3e 195c 44bc b5a2 a4bd
000000d0: 7cda 2a3c c0a2 04be 5c36 3abe 05ab 393d
000000e0: 713f bf3b 6b77 d73d e5ab b7bd d659 87be
000000f0: 6016 7ebd 3995 82be b83c 5dbb 5e64 e53d
00000100: a5c8 403d 2f78 663e e12f 553d dffd 013e
00000110: 8b2b 7e3e 885d 183d 2068 2a3d ab26 bdbd
00000120: 2b65 583e e460 653e 7df1 08be e3e6 853e
00000130: 8072 9a3d 8388 aebc f7d4 1dbe e345 6dbe
00000140: 5674 37be 8021 a0bd c94b 2dbe cd12 59bd
00000150: 18e4 3fbe 4403 56be 20ef e3bc 35c1 52be
00000160: 3279 273b 6b68 393d b64d b73d 57e8 323e
00000170: 10bc 0b3e 53a4 15be eca1 37bc 3cbb 683c
00000180: cac8 383e 8a63 223d a886 17be 3015 3abd
00000190: d4b1 523c 28d3 b13d a840 bebd 46a5 69be
000001a0: ee5e 51be faef a9b9 ace5 62be 1c8a 783d
000001b0: 8aeb 203e f7f4 5ebc f3a8 773d 69ea 263e
000001c0: 3ff8 173e 11c1 7dbe 7ece 723e 141a 4c3d
000001d0: f9b7 78be 88cf 7e3d 4a48 30be 2460 6b3e
000001e0: 05c2 403e b854 36be 4f70 47be e8ef 303c
000001f0: a4a1 87bd b731 c23d 3e26 85be 6ab4 2a3e
00000200: c71d ac3c cf12 87bd e7c0 21be 5f09 9239
00000210: 86b3 283e 0267 793e eecd 25be be8a e7bd
00000220: ff81 803d 66fe 013e 28d2 61be 2c22 dabd
00000230: 7862 4bbe 2293 643e 8ecb f1bd 28ed 0a3e
00000240: 2ae9 f33d 1471 113e c6b3 a13d ed95 243e
00000250: ef4e f2bb f8b9 063e e042 08bd bd71 e13c
00000260: 2c36 c93d b814 65be a2fb d5bd f998 38be
00000270: 38b2 9bbd 898a a3bc 6874 0d3e 2dca 57be
00000280: f0b1 5bbe 9cbd 2d3e e7de e9bc bab7 d4bd
00000290: b919 7abd 4074 5a3c 6436 3bbe af75 70be
000002a0: 4b77 23be 040c 663e 8033 953d 5606 74be
000002b0: 0ce8 09be 2d7e 583e 4b34 743e 8758 9b3d
000002c0: 89c0 083e ef48 d33c 18fe f53d 3f35 46be
000002d0: eab0 813c 4ef6 62be 14ca 7bbe cf0c 463e
000002e0: 430f 683b 58ee d13d 368f 46bd 5b9c 5dbe
000002f0: 8069 423e d4d7 72be 06e4 21be afd8 a43d
00000300: 2866 8cbd 9277 083e 0a17 42be ffd7 d53d
00000310: ba8a f8bd 341b 0e3e 70c5 e2bc 908c 31be
00000320: 4d2e 943a f89b 04bd 5b20 453e 9b21 b6bd
00000330: 30bd b53c 9a60 c9bd 3e9f 223d 1106 693e
00000340: 003c d43d 04f6 093e d866 7cbe 1547 213e
00000350: 6f37 713e 982a 823d 24f3 543e ccdb da3d
00000360: 1280 5a3e a3fa d5bc db83 94bd 52f4 0b3e
00000370: 246a 89bd e81a 09bd e7b2 cd3c 5b07 b9bd
00000380: 04dc 163d 710f 0dbe 1eac 29be a9c5 773e
00000390: fee1 78be f295 07be 4662 6a3e 8963 1bbe
000003a0: 98f1 5ebe e9b4 1e3e 827c 7a3e bd45 413e
000003b0: 4c20 31be fdde 74be 021d 88be b4df 143b
000003c0: 5a42 543d d871 87bd 1a54 b53d 9669 bbbd
000003d0: 56eb 1f3c 94c9 653e f0e2 a6bd 0bba 28be
000003e0: a384 683e 7d6b 433e 8998 723e 2bb5 6c3e
000003f0: 8021 343b 8900 163e 9647 743c 671f c03d
-0.11551811 -0.1347379 0.1787709 0.14624473 -0.11245249 -0.2292057 -0.17882186 -0.20595571
-0.081783585 -0.12257536 -0.21978445 0.03367309 0.01608789 -0.04813502 -0.15655677 0.19976068
-0.2568663 0.051150702 0.11862563 0.16380233 -0.21013694 -0.039147675 0.20849594 0.04322594
0.0719406 -0.12380758 0.17631364 -0.092390515 -0.13462454 0.20605883 0.08563589 -0.02270803
-0.11654577 -0.016461339 -0.1684544 -0.16880621 -0.011301082 0.048330843 -0.20484364 0.25220025
0.2137895 -0.23151186 0.16456553 -0.15275483 -0.20372117 0.25542545 -0.08188519 -0.073934406
0.040948782 0.1666923 -0.011984848 -0.080388464 0.010428067 -0.12952709 -0.18184799 0.045329113
0.00583642 0.10520824 -0.08968333 -0.26435727 -0.062033057 -0.25504473 -0.0033758115 0.11200784
0.04706635 0.22506784 0.052047614 0.126945 0.24821298 0.037198573 0.041603208 -0.09235891
0.21132343 0.22400242 -0.1337337 0.26152715 0.075413704 -0.021305328 -0.15413271 -0.23171191
-0.17915472 -0.078188896 -0.16923441 -0.052996445 -0.18739355 -0.20899683 -0.027823985 -0.20581515
0.0025554416 0.045265596 0.08950369 0.17471443 0.13645959 -0.14613466 -0.011208039 0.014204796
0.18045345 0.03964571 -0.14797461 -0.045430362 0.01285978 0.08682853 -0.09289676 -0.22816953
-0.20446369 -0.00032412988 -0.22157925 0.060678586 0.15714851 -0.013608209 0.060463857 0.16300358
0.14840792 -0.2478068 0.23711583 0.049829558 -0.2428893 0.062209636 -0.17215076 0.22985893
0.18824013 -0.17805755 -0.19476436 0.010799386 -0.066226274 0.094821386 -0.2600574 0.16670385
0.021010293 -0.06595384 -0.15796243 0.00027854272 0.16474733 0.243557 -0.16191837 -0.1130576
0.06274795 0.12694702 -0.22052824 -0.10651049 -0.19861782 0.22321752 -0.11806403 0.1356703
0.11909707 0.14203292 0.07895617 0.16072817 -0.0073946635 0.13156879 -0.033266902 0.027520055
0.098247856 -0.22371185 -0.10448386 -0.18027104 -0.07602352 -0.01996352 0.13813937 -0.21073218
-0.21454597 0.16966861 -0.028548671 -0.103866056 -0.061059687 0.01333338 -0.18282467 -0.23482393
-0.15963475 0.22465521 0.072852135 -0.23830542 -0.13467425 0.21141882 0.23848073 0.075852446
0.13354696 0.025791613 0.12011355 -0.1935625 0.01583143 -0.2216427 -0.24588805 0.19340824
0.0035409487 0.102505386 -0.04847642 -0.21641676 0.18985558 -0.23715144 -0.1580964 0.080491416
-0.06855422 0.13326862 -0.18954101 0.104415886 -0.12135835 0.13877565 -0.027682036 -0.17338777
0.0011305303 -0.032375306 0.19250624 -0.088931285 0.022184938 -0.098328784 0.039702646 0.2275622
0.103630066 0.13472754 -0.24648607 0.15749772 0.23556302 0.0635578 0.20795876 0.10686454
0.21337917 -0.02612049 -0.07251712 0.1366742 -0.06709698 -0.033472925 0.025109721 -0.09034606
0.036830917 -0.13775422 -0.16569564 0.24196495 -0.24304959 -0.13240793 0.22889051 -0.15174688
-0.21771848 0.15498699 0.24461558 0.1887426 -0.17297477 -0.23913188 -0.2658463 0.0022716345
0.05182109 -0.06613511 0.08853932 -0.09150998 0.009760698 0.22440177 -0.08148754 -0.1647722
0.22706847 0.19083972 0.23691 0.23115985 0.0027485788 0.14648642 0.014909646 0.093809895

node_encoder.2.bias f4 [16]
00000000: 112e 63bb 7d2a 003e 8488 55bd bb5b 16bd
00000010: 8a93 1b3e a8c5 c73d 4a53 393e 23ad 8ebd
00000020: 32c6 6bbd 2ffb 2dbe f794 c0bd 43c9 79be
00000030: 2109 753e bf93 40be 6c20 a7bd 8b34 b83d
-0.003466491 0.12516208 -0.052132145 -0.036708575 0.15193 0.09754497 0.18098179 -0.06966617
-0.05756206 -0.1699035 -0.09403413 -0.24393182 0.23929264 -0.1880636 -0.08160481 0.08994397

node_encoder.3.weight f4 [16]
00000000: e3c4 7f3f 76e3 7b3f 3053 7d3f 1a83 813f
00000010: 0712 823f 2798 7e3f 76ed 7c3f 3239 7b3f
00000020: bcc0 7b3f 1559 7f3f 1eda 7f3f 1363 803f
00000030: 5237 813f 6333 813f 19c5 813f 77db 813f
0.999098 0.9839395 0.9895506 1.0118134 1.0161752 0.99450916 0.98799837 0.9813415
0.98340964 0.99745303 0.99942195 1.0030235 1.0095007 1.0093807 1.0138274 1.01451

node_encoder.3.bias f4 [16]
00000000: c5fc 99bc 8508 72bc 2a3e be3c ccce 18bc
00000010: 9c18 ac3c decc 0dbb dc60 95bc 3d32 48bc
00000020: c0b8 1dbc d86c 5fb9 8793 0b3c e9f5 73bb
00000030: e2f0 733c 7e1c f3bb 48b2 f738 760a 7f3c
-0.018797288 -0.014772539 0.023223002 -0.009326648 0.021007828 -0.0021637003 -0.018234663 -0.012219009
-0.009626567 -0.00021307485 0.00851906 -0.0037225431 0.014888974 -0.007419168 0.00011811085 0.015566459

edge_encoder.0.weight f4 [16, 4]
00000000: c590 bc3e dfbc 953e 3170 e13e 24f5 d8bc
00000010: b1da 97be 6087 fbbe 8b42 d03d 6b63 353e
00000020: 2c79 78bc a2e3 a03e 6bcb 5fbd 3bf6 d73d
00000030: 4243 e2be 688a e73d 44d3 173e 749c 30be
00000040: f06d 913e a4d3 f2be c21d d03e a62d eebe
00000050: 9881 b63e 1754 07be 98d2 bcbe 7f1a 3e3d
00000060: 13fd 953e 001e 99bc 4081 acbe cc4c acbe
00000070: bc58 c33e c472 e7be 4606 83be 1cef eabe
00000080: 6471 f6be 563f eb3e 3e7f 95be 4c24 dcbd
00000090: 55d3 b1bd 5e2f d2be 323f 3cbd 8ac9 d4be
000000a0: 8c8b 95be 7330 ca3e f46d a7be 76ba af3e
000000b0: f845 06be 32c7 2b3e 9ce8 b5bd fe5a b03e
000000c0: efe0 da3e c75b d63e 487d a93e 8333 31be
000000d0: aa27 9c3e 6de0 bebe 6d28 f3be f91e d03e
000000e0: 5870 a2bd 91af d23e 8aba 7c3e 1d84 2abe
000000f0: c6b4 1abe b0e1 e1bc d09e e0be 87e6 ca3e
0.368292 0.2924566 0.44030908 -0.02648408 -0.29659036 -0.4912672 0.10168942 0.17713706
-0.015165608 0.3142367 -0.054637354 0.105450116 -0.4419194 0.11305696 0.14826685 -0.17247182
0.28404188 -0.47427094 0.40647703 -0.46519202 0.35645747 -0.13215671 -0.3687942 0.046411987
0.29294643 -0.018691063 -0.3369236 -0.3365234 0.38153636 -0.45204747 -0.25590724 -0.4588555
-0.48133385 0.4594676 -0.2919864 -0.107491106 -0.086828865 -0.41051763 -0.045958705 -0.41560012
-0.29208028 0.3949009 -0.32701075 0.34321946 -0.13112628 0.16775206 -0.08882257 0.34444422
0.42749736 0.41866896 0.33103395 -0.17304806 0.3049901 -0.37280598 -0.4749178 0.4064863
-0.07931584 0.41149572 0.24680534 -0.1665196 -0.15108022 -0.027573436 -0.43871164 0.39629003

edge_encoder.0.bias f4 [16]
00000000: 65ec 97be 6d8e 473e d289 fa3e de93 cfbe
00000010: 1da0 8fbe 6fe9 d33e d78e d7bc 26f6 e4be
00000020: 2ef0 303e 2252 b23e c174 9cbe 1f8f bc3e
00000030: a455 e83e bc6b de3e 4476 943e 00b1 2e3d
-0.29672542 0.19487925 0.48933274 -0.405425 -0.28051844 0.41389033 -0.026313229 -0.44719046
0.17279121 0.34828287 -0.30557826 0.36827943 0.4537784 0.4344157 0.2899648 0.04264927

edge_encoder.2.weight f4 [16, 16]
00000000: d95b c83d a5f2 77bd 4d26 433d 64df fcbd
00000010: 7333 563e 796d b7bd d120 19be 1035 12bd
00000020: 602e 573d 5ca7 0d3d 3c15 01be 6013 07be
00000030: 4bf4 4dbe 376d c9bd 8b10 89bc e2ea 623e
00000040: f397 43be 53da 1d3d e812 f9bd d821 f2bd
00000050: ef1b 8abe 591f 7ebe 8c8f 29be 008a 06bd
00000060: 0b3a 423d 01e1 b63d 9427 6cbe 1fa8 6abe
00000070: aa77 15be 7b50 febd f411 08be b86e 053e
00000080: cb17 953d a93b 52bd 6237 48be 82a6 23be
00000090: b6c6 893e 3461 74be 04db f8bc 2636 61be
000000a0: 81ac 82be 4736 d93b fad6 b0bd 1fc6 87be
000000b0: 3cad 30be 8753 263e 62cd fdbd 3456 083e
000000c0: 767d 8f3e 3b5b 5ebe 3da8 25bd 6e39 503e
000000d0: 3478 8bbc 624c b33d ce6d 7d3e 9e42 72be
000000e0: 1845 743d 3704 793e 76c8 39bd 14a9 88be
000000f0: 1802 07be 40fb 2cbe 1e73 f13c 1d1e f53b
00000100: b0af d63d 13dd ca3d 1fad 3e3e 9650 32be
00000110: ea58 f0bd 2cbf c5bd 1164 783d b88e 1dbe
00000120: f573 53be b394 183c 210b 12be cab7 0b3e
00000130: 588d 0f3e c0e6 cdbd a1d7 a0bd 3cae fe3c
00000140: 5006 f0bd d4c7 e0bb 4886 6dbe 4899 323e
00000150: 3551 343e 59b4 843d d0df 743e 98cb 163d
00000160: a7cd 37be 2ae9 04be 6ac6 b6bd 0ea5 4a3e
00000170: 96fd 9f3c f2e4 943d 179d fcbd 3cf9 c03d
00000180: b5b1 843e d48b 70be ee7c 62be 4874 a6bd
00000190: 678e f5bd 1c5a 2fbe 5d7f a33d 26d0 0fbe
000001a0: d36b 733e 383b 28bd e11f a3bd 33e6 3a3e
000001b0: 46d1 9abd 15dc 1cbe 3a2a 0e3d 795b 8b3d
000001c0: e6b1 0cbe eb96 23be 44c3 5abe f0ca 6fbe
000001d0: 0c33 3d3e 20df 4dbd 11e7 953d cc88 82bd
000001e0: 7ee9 343e ebae b23d bda5 b53d 7aeb 143d
000001f0: a582 923d 9d22 293e 753c 51be f47e 8b3e
00000200: 3286 0f39 2a96 c0bc 3c42 7abe 768a 083e
00000210: 6710 6bbd 6e8a 653e e3cc f4bd 406f 4ebe
00000220: 0622 1fbe 8af1 ec3d 2d00 43be b7b2 76be
00000230: 9a22 2e3e 9583 f43d 6d1a 083d a73c 1b3e
00000240: e610 7cbe b36a 983d 760c aabb 68b0 a3bd
00000250: 4aa5 8f3d 678e 69be 3614 6f3e 62f0 1cbe
00000260: 78e4 5e3e 494f 0dbd c9f1 78be a4dd 26be
00000270: c2a1 c63d 711a 4e3d d6d7 223e c98f 913d
00000280: 15e8 06be df7c 20be 1283 bcbd e053 3dbe
00000290: 2883 1bbe ddf6 1dbe 5675 5cbe e0c6 6abc
000002a0: 365a 24be e9aa 8cbd 6beb b83d 01ca adbd
000002b0: 2246 1dbe 9aec a8bd fe9a 933d d6a3 9fbc
000002c0: 141e e53d 4054 423e b7dd 6b3e b429 583e
000002d0: 93fb 24be 6f05 ff3c 5662 753e 6a38 43be
000002e0: 66a5 ac3d d57f 7bbe 8607 1dba c667 8dbc
000002f0: 6c27 103e 380c 5dbe bd81 1d3e 9519 84be
00000300: af41 febc b90c 4dbd 6864 f23a e8ee c2bd
00000310: 7d04 abbd 8a63 e83d 6043 76be b6c0 2e3e
00000320: 9762 13be f1de 4cbe d5d1 feb9 5cca 7e3d
00000330: 6193 1dbe 7628 fabd 6d26 5fbe 7d37 943d
00000340: f9b9 3b3e fd4f fe3d 4034 673e f4c1 e73d
00000350: 3ed3 8fbd 4b93 0b3e 051d db3d 0cec 893d
00000360: 753d 25be c279 443e 3ed3 3cbd 82ec 24bc
00000370: 851a 243e b3ff 3cbe fd38 2abe 5300 0e3c
00000380: 727d 21be 181f 54be 21fe 6e3e d011 d73d
00000390: eb34 a43e a8c8 133e 49d9 523e 407c 1abc
000003a0: 8b34 03bd 1c53 d9bd 5674 353e b7d2 393e
000003b0: cbc3 c43c 2eff 0a3d 455a 91bd 6aa3 b7bd
000003c0: 550c 3a3e 7d2d 27be be99 f3bd bcd3 16be
000003d0: 46b0 513e f034 1dbe 62f8 16bd 362d 24be
000003e0: 1a9d b33d 1410 12be 24c3 8dbe 2555 82be
000003f0: 213b 6fbe db9a 8bbd 296b 02be 188a 5fbc
0.097831436 -0.06053414 0.04764395 -0.12347296 0.20918064 -0.08956427 -0.14953925 -0.035695136
0.05253446 0.034583434 -0.12605757 -0.13190985 -0.20112722 -0.09835284 -0.016731521 0.22159913
-0.19100933 0.03853829 -0.12161809 -0.118228614 -0.26974437 -0.24816646 -0.16558665 -0.03284645
0.047418635 0.08929635 -0.23061973 -0.22915696 -0.1459643 -0.12417694 -0.13288099 0.13030517
0.07279929 -0.051326428 -0.19552377 -0.15981486 0.26909417 -0.23865205 -0.030377872 -0.21993312
-0.25522235 0.006628785 -0.086347535 -0.26518342 -0.17253584 0.162428 -0.12392689 0.13314134
0.28025407 -0.21714489 -0.040443648 0.20334408 -0.01702509 0.08754803 0.24748918 -0.23658225
0.059636205 0.24318014 -0.04535719 -0.26691496 -0.13184392 -0.1689272 0.029473837 0.0074803964
0.104827285 0.09905448 0.18620728 -0.17413554 -0.11735709 -0.09655604 0.060642306 -0.15386474
-0.20649703 0.009312796 -0.14262058 0.13644329 0.14018762 -0.10053778 -0.07853628 0.03108894
-0.11719954 -0.006859759 -0.23195755 0.17441285 0.17609103 0.06479711 0.23913503 0.036815256
-0.17949544 -0.1297957 -0.08924563 0.19789526 0.019530099 0.0727023 -0.1233465 0.09422538
0.2591683 -0.2349084 -0.2211797 -0.08127648 -0.11990052 -0.17124218 0.07983277 -0.14044246
0.237716 -0.0410721 -0.07965065 0.18251877 -0.07559447 -0.1531833 0.03470824 0.068045564
-0.13739738 -0.1597554 -0.2136355 -0.23417258 0.18476504 -0.050261617 0.07319463 -0.06373748
0.17667195 0.08724769 0.08869503 0.03635738 0.07153825 0.1651711 -0.20433219 0.27245295
0.00013687534 -0.023509104 -0.24439329 0.13334069 -0.05738869 0.22416088 -0.119531415 -0.20159626
-0.15540323 0.115695074 -0.19043036 -0.24091612 0.17005387 0.1193916 0.033228327 0.15159856
-0.24615821 0.07442226 -0.0051894737 -0.07992631 0.07013948 -0.22808228 0.23347554 -0.15326074
0.21766841 -0.03449944 -0.24310984 -0.16295487 0.096988216 0.050318185 0.15902647 0.07107503
-0.1317447 -0.15672635 -0.09204687 -0.18489027 -0.15186751 -0.15426202 -0.21529135 -0.014329642
-0.16050038 -0.06868536 0.090292774 -0.08485795 -0.15358785 -0.08248253 0.07207297 -0.019487303
0.111873776 0.18977451 0.23033796 0.21109658 -0.16111593 0.03113052 0.23963293 -0.19064489
0.08429985 -0.24560483 -0.0005990196 -0.017261397 0.14077538 -0.21586692 0.15381522 -0.25800768
-0.03103718 -0.05006096 0.0018493058 -0.09518224 -0.083504654 0.113471106 -0.24049139 0.17065701
-0.14393078 -0.2000692 -0.00048602992 0.062204704 -0.15388252 -0.122147486 -0.21792002 0.07237146
0.18332662 0.124176 0.22578526 0.113162905 -0.07022713 0.13630407 0.106988944 0.067344755
-0.16136725 0.19187072 -0.046099894 -0.0100661535 0.16025741 -0.18456917 -0.16623302 0.0086670695
-0.1577051 -0.20714986 0.2333913 0.10501444 0.32071623 0.14432013 0.205907 -0.009429038
-0.03203253 -0.10611555 0.1772016 0.18146788 0.024019143 0.033934765 -0.07097296 -0.08966716
0.18168767 -0.16325946 -0.11894558 -0.14729208 0.20477399 -0.15352225 -0.03685797 -0.16032872
0.08770199 -0.14263946 -0.27687943 -0.25455585 -0.233624 -0.06816646 -0.12736191 -0.013643764

edge_encoder.2.bias f4 [16]
00000000: ecb8 d9bd 6c2d 043e 8d17 56be d768 e8bd
00000010: 3e0b 4f3e cd01 8f3c e562 183e ac3f b5bc
00000020: 7a03 643c fa1b 83be 3e14 593d 9470 0abe
00000030: 0334 10be 9ccf 38be 29ce 3bbe 4304 f4ba
-0.10630974 0.12907952 -0.20907421 -0.113481216 0.20219132 0.017456913 0.14881475 -0.022125088
0.0139168445 -0.25607282 0.05299782 -0.13519508 -0.14082341 -0.18047947 -0.18340363 -0.0018616993

edge_encoder.3.weight f4 [16]
00000000: 53d9 7e3f ea09 803f 882d 7e3f 9c96 843f
00000010: 29c5 7d3f dac2 793f 09f5 7e3f 7175 833f
00000020: 5dbf 783f 921d 7d3f b066 7e3f d7e6 803f
00000030: 91cf 7b3f e3a6 7e3f 0151 833f 247b 7e3f
0.9955036 1.0003026 0.99288225 1.0358462 0.9912897 0.97562945 0.99592644 1.0270215
0.97167 0.98873246 0.9937544 1.0070447 0.98363596 0.994734 1.0259095 0.9940665

edge_encoder.3.bias f4 [16]
00000000: e03d 203c a2da f43b e6f5 85bb 2b9c d7bb
00000010: 6085 55bc aa4b dfbc 38ab 113c c5cb 85bb
00000020: 137f b4bc de9a 09bc 6130 e53b fb03 033c
00000030: cf68 8b3c 60d6 c1bb 7535 753c de7e ad3b
0.009780377 0.007472352 -0.0040881513 -0.006579896 -0.013032287 -0.02725776 0.008890919 -0.004083129
-0.02203325 -0.00839874 0.0069942926 0.0079965545 0.01701775 -0.005915448 0.014966358 0.0052946648

node_model.0.weight f4 [16, 48]
00000000: 237e bc3d 7ccb f4bd 3f3f b1bd b7d2 a7bd
00000010: c999 d43d 0c8a c6bd d7a8 b53d 1e7d 48bd
00000020: 50bd 173e 741c e63d ca95 663d 74f1 943c
00000030: 0317 d6bd 4472 f83c 7c1a 0b3e 6b03 26bc
00000040: c5a5 3bbd fc28 a2bd 9bbd 9abd 17d2 0bbe
00000050: 6944 50bd f850 90bd 81e4 b0bc eeae e1bd
00000060: 4cfa d23d 1bf1 183e dee2 18be 65cd 993d
00000070: 31dd 64bd b74e 3a3e 8976 aabd e48d 4e3b
00000080: 3c1f 1d3e 9bcc a63d 7fcf 22be bb92 ebbd
00000090: 8843 80bd 3b14 27bc 30b4 20be ab7e 993d
000000a0: d261 0e3e 1041 19be 7914 b53d ac7c 11bd
000000b0: 4345 e33c 03c2 133e 34ca 683c 1f8f e93d
000000c0: 8de4 e6bd 56cb 133e 14a1 96bd 46bf e73d
000000d0: 0ac9 b83d bdcb c73d 0383 d2bd 5789 a3bd
000000e0: 8b24 3cbb d3f6 74bd bfa4 75bd d233 9bbd
000000f0: eae5 1b3e 0198 bbbd 05f4 e73c 6a77 ab3c
00000100: 65ab 1ebe b29f ffbd 2d07 28bc 1c8d 06be
00000110: 164e 7abc 08d6 bfbc a388 083d 676d 593d
00000120: e5d6 c93d de03 cfbd be63 1b3e cfa1 32be
00000130: 919b bebd 3a4d 86bd fffa 913d 105c c4bc
00000140: bc2d 11be 1d9b 0fbc 3605 dc3d 9541 ef3d
00000150: efff 30bd 7ee6 e63d 74b9 b8bd ac49 223d
00000160: 76f7 e6bd b55e dbbc abcb e93d 6111 943d
00000170: c90f 2fbd bf95 0cbd 2e29 a2bb e75f 883d
00000180: 3cc4 dc3d c9bc 34bd 9770 623c 35fc 38bd
00000190: a077 80bd fa69 4cbd 7eac 473d 18f7 9bbd
000001a0: c2db f13d cdbd 67bc 29ca c5bd b243 923d
000001b0: 6cab 8fbd 3e9c 20be 6bb5 253d 2f72 d8bd
000001c0: 6584 0bbe f5cb 08be 5920 99bd 2cd6 303d
000001d0: 8d28 febd 8c4d 553d 8309 ba3d 11df 94bd
000001e0: 6afd 8e3d 2e56 083e c0f9 fe3d d6c1 d0bd
000001f0: 7c01 c6bc f2d5 783d 5f19 403d afb1 e6bc
00000200: d1d3 953c 69f8 94bc 1d1b f2bd c596 74bd
00000210: 7150 943d 80bb cfbd 6ed5 e53c da68 1b3e
00000220: 983c a1bd 9c82 64bc 72eb 393d 2cd5 1a3e
00000230: 2a1c e5bd 7956 e8bd 5999 58bc 3500 ad3c
00000240: ee45 26bd ad25 b83d 412d 07be ea36 0bbe
00000250: a64c 02be 3581 edbd 4ce0 d43d 94ec 063e
00000260: c3c5 c0bd e205 183d 26b4 b5bd bcd3 113d
00000270: 999a 25bd a015 acbd afcb 0d3e f0b5 44bd
00000280: d945 843d ef32 a5bb 717d 8abd a0da bebd
00000290: 31ca 87bd 9462 54bd 20af d93d aa60 d9bd
000002a0: dcd1 d4bd 079e c9bd c5d0 253d 302b 843d
000002b0: d9e2 613d 73a1 0d3b efc7 073e c7ec 6cbd
000002c0: a16c a4bd 3436 a4ba e344 fe3c 453a a83d
000002d0: 67f2 13bd cd00 abbd 3286 81bd afa7 65bd
000002e0: 0fe1 fd3d f764 0b3e f93a 6cbd f692 82bc
000002f0: e6fe 903d b706 043e bc7b 913c c075 c53a
00000300: 2434 2abd 2e86 ec3d 35e1 bcbd a0da 01bd
00000310: 5c48 babd 4e52 8dbc 7d7e e0bd a066 dbbd
00000320: b3c7 a7bd a7a4 2b3d 7c33 adbd 77ee 85bd
00000330: 4a87 c4bb 7699 413d e588 1fbe a91e 90bd
00000340: 0ebf 73bd 29c9 883d b54d 763c e52f 13bc
00000350: 0248 eebd bae1 92bd 6b5a 0a3d 374d 0cbe
00000360: 3951 0ebd ddcc ecbd be63 3d3d f53e 14bc
00000370: 1bc1 b2bd efeb 58bd 618a 103e 981c 03be
00000380: 560a 1bbd 6358 87bd 64c5 8dbd 564e 25be
00000390: 40ce 01be 7bce 6bbd ea27 28be 3d62 95bc
000003a0: 4da7 f7bd dc86 393d 06ae f43c f8f3 cbbd
000003b0: 60ef e93c ebaf e1bd c6b2 203d cb18 9f3d
000003c0: 1a17 083d 626d e0bd aa3a cfbd 2aca 033e
000003d0: 3e2f e53c a59e e63d 2fa4 b4bb c2d4 0b3d
000003e0: 7324 85bd 1b06 9abd fbcf 04be 22f2 cdbc
000003f0: aa17 25bd c285 1c3e 2eab 78bd 4863 cdbd
0.09203746 -0.11952874 -0.08654641 -0.081944875 0.10380895 -0.09694299 0.08870094 -0.048947446
0.1481831 0.11235896 0.056295194 0.01818154 -0.10453608 0.030327924 0.13584322 -0.010132651
-0.045812387 -0.079179734 -0.075556956 -0.13654362 -0.05084649 -0.070466936 -0.021593334 -0.11019693
0.103016466 0.14935724 -0.14930293 0.07509879 -0.055875007 0.1819409 -0.0832339 0.003151768
0.15343946 0.08144494 -0.15899466 -0.11502596 -0.062628806 -0.010197694 -0.15693736 0.07494863
0.13904503 -0.14966226 0.088417955 -0.035519287 0.027742987 0.14429478 0.014208365 0.11404251
-0.11274061 0.14433035 -0.07354942 0.113157794 0.0902272 0.09755657 -0.10278895 -0.0798518
-0.0028708305 -0.059805702 -0.059971567 -0.07578243 0.15224424 -0.09159852 0.0283146 0.020930964
-0.1549507 -0.12481631 -0.010255617 -0.13139766 -0.015277406 -0.023417488 0.033333432 0.05308285
0.09855441 -0.101081595 0.15174767 -0.17444538 -0.09307016 -0.065576985 0.07127952 -0.02396968
-0.14177603 -0.008765009 0.107431814 0.11682431 -0.043212827 0.11274432 -0.090197474 0.03962104
-0.11277668 -0.026778558 0.114158 0.07229877 -0.042739663 -0.034322497 -0.0049487567 0.06658917
0.10779616 -0.044125352 0.013820789 -0.0451624 -0.06272817 -0.049905755 0.048748486 -0.07615489
0.118094936 -0.014144373 -0.096576996 0.07141818 -0.07015118 -0.15684602 0.040456217 -0.10568654
-0.13624723 -0.13359053 -0.07476873 0.043173 -0.12410078 0.052075908 0.090838455 -0.07269109
0.06981929 0.13314125 0.1244998 -0.10193221 -0.02417063 0.06075091 0.046899196 -0.028160898
0.018289478 -0.018184857 -0.11821578 -0.059714098 0.072419055 -0.10143185 0.028055873 0.15176716
-0.078728855 -0.013947155 0.045390554 0.15120381 -0.111870125 -0.11344618 -0.013220155 0.021118263
-0.040594034 0.08991561 -0.13200857 -0.13595167 -0.12724552 -0.1159691 0.10394344 0.13176185
-0.0941272 0.037114985 -0.08872251 0.035602316 -0.04043064 -0.08402562 0.1384723 -0.04802507
0.06458635 -0.005041472 -0.06762207 -0.09319043 -0.06630362 -0.051851824 0.106291056 -0.1061414
-0.1039159 -0.098445944 0.0404823 0.0645355 0.05514798 0.0021611124 0.13259862 -0.057842996
-0.08028532 -0.0012528361 0.031038707 0.08214239 -0.036119845 -0.08349762 -0.06324424 -0.05606812
0.12396442 0.13612734 -0.05767343 -0.015939217 0.07079868 0.12893187 0.017759196 0.0015065
-0.04155363 0.1154903 -0.09222642 -0.031702638 -0.09095833 -0.01725116 -0.10961626 -0.107129335
-0.081923865 0.04190507 -0.084570855 -0.06539624 -0.005997573 0.047265492 -0.15579565 -0.07037098
-0.059508376 0.06678993 0.015033175 -0.008983587 -0.11634828 -0.0717196 0.033777636 -0.1370133
-0.03474543 -0.11562512 0.0462377 -0.009048213 -0.08728238 -0.05295938 0.14115287 -0.12803876
-0.037851654 -0.06608655 -0.06922415 -0.16143164 -0.12676334 -0.057569962 -0.16421476 -0.01823532
-0.12092457 0.045294628 0.029868137 -0.09958643 0.028556526 -0.11019882 0.03923299 0.07768401
0.033225156 -0.10958363 -0.10118611 0.12870088 0.027976628 0.11260728 -0.0055127363 0.03413845
-0.06501093 -0.07520696 -0.12969963 -0.025139872 -0.04030577 0.152854 -0.060710125 -0.10028702

node_model.0.bias f4 [16]
00000000: 48ec 873b 7b33 0b3d 9ce4 1c3d 0133 073e
00000010: 32e4 a0bd ddf1 d7bd 70ee 163e baf0 243e
00000020: e3fc 6cbd fa6e babb e7bc 0bbe bd94 d0bd
00000030: bee5 f43d 6588 a03d b1f7 b13d 2c79 333b
0.00414804 0.033984642 0.038303956 0.1320305 -0.07856025 -0.10544179 0.14739394 0.16107455
-0.05785836 -0.005689499 -0.1364628 -0.101846196 0.11957882 0.07838515 0.086898215 0.0027385456

node_model.2.weight f4 [16, 16]
00000000: 7e80 e33d 4fa8 c73c 3180 9e3c a7f2 d13c
00000010: 6292 99be 92b6 253e e446 11bd cf7b 97bd
00000020: e752 41be ae60 e73d 500b 36be 8f30 7f3e
00000030: c9f3 32bd 3feb 17bd c1b3 be3d a3ea 7e3e
00000040: b82f 28be b23b 5e3d 4328 3abe 587f 853d
00000050: 009e 3ebe 8b5d 2cbe a4b1 093e 3476 08be
00000060: 57a2 e5bd 8629 6c3d 6b2c 21bd 0b39 0c3e
00000070: 69d5 64be bcaa 09be 7ce6 3b3c 1062 4cbe
00000080: f70c 35bd 332f dabd 91c7 5a3e 9eb4 f03c
00000090: ff4d 433d 4bf1 69be 161c 683d c0e9 d5bd
000000a0: 3058 43be f0c3 d03c edca ef3d 6fd8 babd
000000b0: 96b2 a13c 4493 56bd 2034 1bbe 9c6c e53d
000000c0: 82c3 8fbe 65f1 3d3e 1f04 283e a754 04be
000000d0: 5c9d 8fbd 0a79 ecbb 35e9 243d 48df 2c3d
000000e0: 603a 8cbd 0728 9bbc 5dac 173e 45dc 2cbe
000000f0: a5fa 213e a872 0dbe 6048 e3bd 13f7 23be
00000100: ad35 c1bd 1245 4dbd e04e 16bd 00e0 493e
00000110: 436a 823d 4c98 5b3e e72d dbbc e07d 96be
00000120: 2d32 50be 5418 49be 022a f83d 9457 313e
00000130: f469 e1bd a1b9 57be cc4e e0bd a165 8a3d
00000140: 8416 6cbd 311a 46be 968c 35be 25d1 d3bd
00000150: 2559 a43d 0e90 05be f261 f93d f8f6 2c3d
00000160: d509 253d b7fa 8bbe a53c 36bd 5d9f b63d
00000170: ea2e 0f3e 6801 353e 29a6 85bd fac4 c1bd
00000180: 1d31 5f3c a9a6 a63c 0fd8 4e3e 35c6 05be
00000190: 54ac c3bc 5c11 c43d 1301 61bc fdbb 94bd
000001a0: 4f41 163e aa6f 45be e6cb ee3d b958 923e
000001b0: c08a 23be 2e44 943c 35a2 40be c98e 323e
000001c0: a49e 2ebe 8015 eb3d 8799 463c c922 92bd
000001d0: 9f8a 153d c04b 78be fb88 583d d075 e23d
000001e0: 9c3d e2bd af35 f4bd 09bf 393e 881e 1ebe
000001f0: b49d 553b 146f 933d 82f8 393d 5ba0 fa3d
00000200: ae62 bb3c 859b 66be 41d2 46be d286 733d
00000210: b1b0 3f3e 339c c8bd 8efd 0ebe 10e2 9ebc
00000220: dc17 c1bd 9fcc 643e b944 ff3c 6db4 0bbd
00000230: d4fa 833d c8eb 413e f4d9 63be 20c0 2a3e
00000240: 2b3a 143e 844d 78be 3ad8 243e b181 fb3d
00000250: a7e0 46bd c5bb 3cbd 02ea 233e 13d5 5dbe
00000260: 46de 6e3d 4fec a0bd 8615 983d 5a79 efbd
00000270: 1dbf 703e 61e2 a5bd a9a4 403e 6eb9 543e
00000280: e367 31be 3f4c c63d a430 103e 4158 69bc
00000290: 7f03 5e3c 7356 b23d 262a 373e 1883 7fbe
000002a0: ccaf 2ebe 000f 29bd 1a8b 9fbd 18c4 903a
000002b0: db4d 4a3e dbe3 fe3d 4403 bc3d 0b35 b23b
000002c0: 3eae 4fbe 94d7 7d3c 38c8 0a3d d4f2 02be
000002d0: d854 d53d ee8e 673e b690 72be 894a 473e
000002e0: 34a2 813e bc4c 3dbd 7671 c5ba adce 7cbe
000002f0: 8019 13be a52b 94bd 0b31 c63c 36ee 0f3d
00000300: 5a01 023d d754 23bd 5c8e 34be aed3 9bbd
00000310: 3673 8b3c 310c 7b3e 71ab 593d d9df ed3c
00000320: b2e8 c9bd 41aa b6bd 5fce f53d 1d32 2fbe
00000330: 47d3 aa3d ee77 0abe 6a91 d5bd 0151 533e
00000340: 948a 043e 5f8d 15be 6a18 11be 3233 efba
00000350: 9c9f f03d d558 123e e921 023e 29de de3b
00000360: ca53 653e 83a7 57be d0a9 933e 60ae 56be
00000370: bcae 853c e6a6 58be f749 5d3e 99cf 013e
00000380: 532c 40be 9723 8c3d 979d 873a 257c 4b3e
00000390: f0a9 7fbe fba4 9b3d f679 143e 9c3b 63be
000003a0: 31bd ba3d 1429 ce3d 3d99 87be 6916 7b3e
000003b0: 841d 1dbe e110 843e 5070 b73c 5c4c 553e
000003c0: 1788 833e a98d 53be 0ad6 4e3e f49e 7ebd
000003d0: 99fa 583b eeb6 d33d b805 d63d 7594 97bd
000003e0: 9b07 fb3c fa09 033e 087d 683e 2b31 3ebe
000003f0: 4583 37be 32b7 86be 29d4 fc3d 9cc9 c7bc
0.11108492 0.024372248 0.019348236 0.025628401 -0.29994494 0.16182926 -0.035467997 -0.073966615
-0.18879281 0.11297737 -0.17777753 0.24920867 -0.043689523 -0.037089583 0.09311629 0.24894194
-0.16424453 0.05425615 -0.18179421 0.065184295 -0.1861496 -0.16832559 0.13446671 -0.13326341
-0.112126045 0.057656787 -0.039349 0.13693635 -0.22347035 -0.13444036 0.011468526 -0.19959283
-0.044201817 -0.10653534 0.21365191 0.029383 0.047681805 -0.22845952 0.05666741 -0.10444975
-0.1907661 0.025484055 0.11708627 -0.09123313 0.019738477 -0.052386537 -0.15156603 0.11202356
-0.28078848 0.18549116 0.16407822 -0.12922917 -0.07012436 -0.0072165774 0.040261466 0.042205125
-0.06847072 -0.018939985 0.14811845 -0.16880901 0.1581827 -0.13813269 -0.11097789 -0.1601222
-0.09434066 -0.0501147 -0.036696315 0.19714355 0.06367924 0.21444815 -0.026755286 -0.2939291
-0.2033164 -0.19638187 0.12117387 0.17318565 -0.11006537 -0.21066906 -0.10952529 0.067576654
-0.05763866 -0.19345929 -0.1772941 -0.103426255 0.080248155 -0.13043234 0.12176885 0.042227715
0.04029258 -0.27339718 -0.04449143 0.08917115 0.1398274 0.17676318 -0.06525833 -0.094613984
0.013622549 0.020343142 0.20199607 -0.13063891 -0.023885883 0.095736235 -0.013733166 -0.072624184
0.14673351 -0.19280878 0.11659984 0.28583315 -0.15970898 0.018098917 -0.18811877 0.1743728
-0.17052704 0.1147871 0.012121565 -0.07135541 0.036509153 -0.24247646 0.05286501 0.11057627
-0.11046907 -0.11924302 0.1813928 -0.15441334 0.003259522 0.07198921 0.04540301 0.12237617
0.022874203 -0.22520263 -0.19416143 0.059454747 0.18719746 -0.09795418 -0.13963911 -0.019394904
-0.09428379 0.22343682 0.0311607 -0.034107614 0.06444326 0.189376 -0.22251111 0.16674852
0.14475314 -0.2424832 0.16098109 0.12280596 -0.04855409 -0.04607751 0.16007236 -0.21663313
0.058317445 -0.07857572 0.0742598 -0.11693068 0.23510404 -0.08099819 0.18812813 0.20773861
-0.17324786 0.096825115 0.14081055 -0.014242233 0.013550638 0.08707895 0.17887172 -0.24952352
-0.17059249 -0.04127407 -0.077902034 0.0011044769 0.19756262 0.12445804 0.0918031 0.005438452
-0.20281312 0.015493292 0.03388235 -0.12787944 0.10416573 0.22613117 -0.23688015 0.19462027
0.25319064 -0.046215758 -0.0015063721 -0.24688216 -0.14365196 -0.07234887 0.024193307 0.035139285
0.03173957 -0.03987583 -0.17632431 -0.07608734 0.01702271 0.2451637 0.053142015 0.029037403
-0.09858836 -0.08919192 0.12002253 -0.1710896 0.08341079 -0.13522312 -0.10428126 0.2063637
0.12943488 -0.1460471 -0.1416947 -0.001824951 0.11749193 0.14291699 0.12708248 0.006801386
0.22395244 -0.21059994 0.28840494 -0.20964956 0.016318671 -0.21157417 0.21610247 0.12676848
-0.18766908 0.06842726 0.0010346648 0.19871576 -0.2496717 0.07599827 0.1449965 -0.22190708
0.09118117 0.10066429 -0.264841 0.24520268 -0.1534329 0.25794128 0.022392422 0.2082991
0.25689766 -0.20659508 0.20198837 -0.06216331 0.0033108352 0.103376254 0.104503095 -0.07401363
0.030643275 0.12796775 0.22703946 -0.18573444 -0.17921169 -0.26311642 0.12345154 -0.024388127

node_model.2.bias f4 [16]
00000000: 22fe 3dbd 8f3c 023e d4a1 d7bb 4f4e a33d
00000010: 5805 563e 3ae8 0fbe 637b f8bd 4e63 66be
00000020: d987 a8bd 5f77 f53c c225 6abc b490 bf3d
00000030: 783c 3c3d 6944 15bd 3ff3 2cbe c51d 753d
-0.046384938 0.12718414 -0.0065805707 0.079739206 0.20900476 -0.14053431 -0.12132909 -0.22498819
-0.08229036 0.029964147 -0.014291229 0.09353772 0.045956105 -0.036442194 -0.16889666 0.059842844

node_model.3.weight f4 [16]
00000000: c4fe 983f 8f5a a43f 9136 883f 0623 8e3f
00000010: dfa1 be3f 77e0 b53f 1ac0 9f3f bb4a 843f
00000020: f27a 983f 07d9 933f fd8b a13f 0a47 a93f
00000030: 1631 7d3f 550f 8a3f 0dcd 943f 2ca0 883f
1.1952748 1.2840136 1.0641652 1.1104438 1.4893149 1.4209126 1.24805 1.0335306
1.191252 1.1550606 1.2620846 1.3224804 0.98903024 1.0785929 1.1625077 1.067388

node_model.3.bias f4 [16]
00000000: 0955 72be 63f7 313e 24bf 2c3e 2da9 093e
00000010: f615 5e3e 8a9a 13be 7dd5 3cbe ad08 5ebd
00000020: ee15 03be 7a66 483e ba7c 173e 21f1 47be
00000030: 1734 293c f20c be3d 38ad 0c3e bede 20be
-0.23665251 0.17379527 0.1686979 0.13443442 0.21688065 -0.1441442 -0.18440814 -0.054207493
-0.12801334 0.19570342 0.14793673 -0.19525577 0.010327361 0.09279813 0.13737953 -0.1570997

edge_model.0.weight f4 [16, 96]
00000000: a1c2 9c3d 1fda d6bc 1205 bcbd bb35 9d3d
00000010: cdb1 a0bd afd2 553d 2680 453d a176 a7bd
00000020: 495f 913d 2d78 98bd f6c3 ea3b fde2 d23d
00000030: 3dd8 bb3d 2a01 663d bbb8 65bd 8e34 a8bd
00000040: a847 083d d2ec 1b3d aeef 6dbd 4876 de3d
00000050: c4be cbbd 784a 8d3d 70f7 25bc b148 cc3d
00000060: 727b 9e3b 5bcc 0c3d 2bd3 073d ca44 1f3d
00000070: 6443 a03c 7f42 043d 99aa b83d 8fa9 873d
00000080: 9f26 1fbd aa07 9d3d 1c07 c6bd 40f9 a83d
00000090: ec3a cc3d 9646 70bd f728 ed3c 6ee3 363d
000000a0: abd7 dbbd fd24 043d 5963 a73d 9838 b8bd
000000b0: ff93 003d 5d76 b33d 7f4a 023d 81de cf3c
000000c0: 6fa6 1bbe c812 1d3b 365a 9cbd a1e3 ab3b
000000d0: 5759 7bbc 3de4 fa3d 8d71 25bd 8eff a8bd
000000e0: 5156 1a3c 6a7e 61bd 3321 fabc 0973 593d
000000f0: e57b 853d a382 9d3d 42b1 983a 13c4 8b3d
00000100: 0695 013d d970 a9bc 9ed1 c5bc e8b2 743d
00000110: 10e4 303d c51d 993d ef0f a9bd 64ed 4bbd
00000120: 2505 963d ad87 b7bd d3c4 2bbd 7c46 e5bc
00000130: 764c 293d b185 b43d ebdf bdbd 57df 0abd
00000140: 2028 b0bc 1b8c b6bd b254 52bd 4ede 9dbd
00000150: 2221 c6bc f0c5 4ebd 83f4 713d ace9 1abd
00000160: 71eb 05be 641b 873d 6c4f 1dbc 3b8c acbc
00000170: fffc b3bd 0768 a43b 08d4 493d b56d dcbb
00000180: db53 463d 0f72 e13c aa46 acbc 9d89 9b3d
00000190: fd98 2dbd f417 b13d c792 7d3d 4247 91bd
000001a0: a6c2 733d 0e95 ab3d 43a1 c13c f7d1 49bd
000001b0: dbda c6bd 84d6 ab3d 4ab7 32bd 1650 bebd
000001c0: 8ca8 97bd f93a 42bc 40ab 84bd f4dc 8e3d
000001d0: 7a41 b23d 1c62 083c ad1d 89bc 234b 8e3b
000001e0: 9794 e73c 51a0 873d 7a2a 44bd 6ce1 80bd
000001f0: e302 babd 85e0 c7bd 6865 b7bd 8adc cebb
00000200: 8592 c93a 1910 9d3d eee5 223d 3d8b eabc
00000210: 48f7 d7bd ff08 9abd b430 a03d 20d3 2d3d
00000220: 00a6 35bd 99f8 db3d 7589 b83d 7b58 95bc
00000230: 671c 73bc 1681 de3d 6721 8abd 815c 493d
00000240: 977c bcbd 0b72 a7bd 78f8 c53d 8c83 a4bd
00000250: c315 a9bd 16ac 933c 5f35 d1bc 561f 40bc
00000260: 3bce 53bd ad4e 80bc 07d1 ac3d 0842 5cbd
00000270: d88e 453c b7e7 b8bd 7d7e c7bd a4a6 493d
00000280: d175 1c3d 6f82 793d 9ac9 cdbc fecd 123c
00000290: 69e6 a1bd 0902 143d 98bb 11bc a29d 203d
000002a0: bd26 d1bd e0c7 8d3d 005d 4bbd c3a8 babd
000002b0: 65b0 5bbd 0f29 a53d 959e e0bd cde3 1bbd
000002c0: 19b0 35bd e178 0cbd 97a2 ab3d 6503 1b3d
000002d0: 990b bcbd 8a8e 983d 981e 2b3c fd1e 903c
000002e0: bf63 733d 21ab e33c 521e a53d ce66 8dbc
000002f0: a17e 20bd 6bf0 86bd 6606 e3bc 4172 85bd
00000300: c4a5 aabd c844 cd3c 7287 e03d 35f2 b33c
00000310: 0137 8ebd 2435 98bd be11 c4bd d2bb 03bc
00000320: d899 2abc 5c21 9cbb c3dc da3c 31b9 9fbd
00000330: b96d 16bd 6b64 13bb 0d14 a0bc 0b5a 333d
00000340: 3757 adbd cf3e 8ebd 61ed b6bd 602c bdbd
00000350: 484b a93d ea35 943d aa01 a4bd ee59 94bc
00000360: f390 38bc 3716 323c deda 263d df27 e738
00000370: 6704 03bd fc8f d9bc 713a e2bc 0fc0 03bb
00000380: 9047 1abd c855 57bd 0a0e 983d 969a e6bb
00000390: d68a 39bd fd17 c93d 37c4 0e3d 1e93 5b3d
000003a0: e072 81bd eadc 31bc 3344 983d 55a5 093c
000003b0: 7fbb cdbc c066 233d 83d1 463d c47c a2bd
000003c0: be4b 4f3d 71c2 b7bd a500 cd3d 36ab b43c
000003d0: 7880 9cbc c825 bb3d 9c46 a63c 7ef6 c1bd
000003e0: 82e8 9c3d eab8 78bd 8a78 afbd 8b13 ce3c
000003f0: f279 7d3d 2849 a83b 78c6 463d 5dce b0bd
0.0765431 -0.026227055 -0.091806546 0.07676264 -0.07846413 0.052202877 0.048217915 -0.081769235
0.07098252 -0.07444797 0.0071644736 0.10297201 0.091721036 0.056153454 -0.056084376 -0.08213149
0.03327146 0.038067646 -0.058089904 0.10862404 -0.09948495 0.068989694 -0.0101297945 0.09974802
0.004836493 0.034374576 0.03316037 0.03888396 0.019563384 0.032289978 0.09016914 0.066241376
-0.03885519 0.076674774 -0.09669325 0.08250666 0.09972176 -0.058661066 0.028950198 0.044650488
-0.10734495 0.032261837 0.08173246 -0.089951694 0.03139114 0.087628104 0.031809326 0.025374653
-0.15200208 0.0023967493 -0.07634394 0.0052456413 -0.0153411245 0.12250564 -0.040391494 -0.08251868
0.0094199935 -0.0550522 -0.030533409 0.05308822 0.06517772 0.076909326 0.0011649507 0.068245076
0.03163626 -0.020683693 -0.024147805 0.05974093 0.043186247 0.07476381 -0.08254992 -0.04978694
0.073252 -0.08961425 -0.041935753 -0.027987711 0.041332684 0.08814562 -0.092712246 -0.0339044
-0.021503508 -0.08913442 -0.051350303 -0.07708417 -0.02418572 -0.050481737 0.059071075 -0.037820503
-0.13078095 0.06597021 -0.009601455 -0.02106296 -0.087884896 0.005017284 0.049274474 -0.0067269453
0.048419815 0.027520208 -0.021029789 0.07594607 -0.04238223 0.08647147 0.061907556 -0.070936695
0.059511803 0.08378039 0.023636466 -0.049272504 -0.09709712 0.08390525 -0.04363183 -0.09292619
-0.07405195 -0.0118548805 -0.06477976 0.06975737 0.08703895 0.008324172 -0.016737783 0.004342453
0.028269095 0.06622375 -0.04789207 -0.06292996 -0.09082582 -0.097596206 -0.089548886 -0.0063129114
0.0015378749 0.07669086 0.03977006 -0.028630847 -0.10545212 -0.07521247 0.078217894 0.042437673
-0.044347763 0.107407756 0.09010593 -0.018230667 -0.014838315 0.10864465 -0.06744652 0.049160484
-0.09203451 -0.08176049 0.09666532 -0.08032903 -0.08256104 0.018026393 -0.025538145 -0.011726221
-0.05171035 -0.015662516 0.08438306 -0.05377391 0.012057982 -0.09028571 -0.097409226 0.049231187
0.038198296 0.060915407 -0.025120545 0.008960245 -0.079052754 0.036134753 -0.0088948235 0.03921283
-0.10212467 0.06922889 -0.04964924 -0.0911422 -0.05363502 0.08064472 -0.10967747 -0.038059045
-0.044357393 -0.034294967 0.08380621 0.037845034 -0.091818996 0.07449062 0.010444306 0.017592901
0.059421297 0.027791562 0.08062424 -0.017260935 -0.039183263 -0.06588825 -0.027713012 -0.06515933
-0.083323985 0.025057212 0.10963334 0.02196608 -0.06944085 -0.07432011 -0.095736966 -0.008040385
-0.010412656 -0.004764719 0.026716596 -0.07798994 -0.036725733 -0.0022490274 -0.019540811 0.043787044
-0.084639005 -0.069455735 -0.08931995 -0.092369795 0.08266312 0.07236846 -0.0800813 -0.018109288
-0.011265027 0.010869554 0.04073607 0.00011022365 -0.03198662 -0.026557915 -0.027615758 -0.002010349
-0.037665904 -0.05257204 0.07424553 -0.007037471 -0.04529842 0.098190285 0.034855094 0.0536071
-0.06320739 -0.010855893 0.07434883 0.008401235 -0.02511382 0.039892912 0.04853965 -0.079339534
0.050609343 -0.08972634 0.100098886 0.022054296 -0.019104227 0.091380656 0.020297341 -0.09470843
0.07661535 -0.060723223 -0.08567913 0.025155803 0.061883874 0.005135674 0.04852912 -0.08633111

edge_model.0.bias f4 [16]
00000000: 4a25 be3c c90e 9d3c bae9 5a3d 1013 9a3d
00000010: f1e3 7e3d f16d 7cbd f9b0 893d c2b7 6abd
00000020: 5a48 02bd dbac ee3c 5a3a 9e3d 781f e43c
00000030: 45e8 113c 03d8 cdbc 0fb5 22bd aa77 81bc
0.02321114 0.01917209 0.053445555 0.07523167 0.0622291 -0.061628286 0.06723208 -0.05730415
-0.03180728 0.029135158 0.077259734 0.027847037 0.008905475 -0.025127416 -0.039723452 -0.01580413

edge_model.2.weight f4 [16, 16]
00000000: b168 4c3e bc2d 55bd 2290 4ebe 5289 31bd
00000010: c9f3 80bd e361 5cbe b44f 16be aeb9 a0bc
00000020: 3449 263e defe a83c 29c2 12bd 5a8b e8bd
00000030: a2a5 52be 1d32 db3d 6b50 b5bd 3405 1abe
00000040: 65ba a63d 66a6 78bc 0fba b43d a96c 06be
00000050: fe6d 5fbe fc68 f73d b4a4 4cbc f457 29be
00000060: 8d51 55bd b036 f73d e99a 213c 7ac3 bdbc
00000070: 7095 34be 7c04 3d3b 11b1 193e 7fe4 00be
00000080: 5bd5 373e 34ef bd3c 8673 79be 7554 00bd
00000090: 8af6 733e d2ea 0e3e 9979 ef3d 9869 ddbd
000000a0: 21bf 2a3d 2f92 0a3e 4c67 813e eda2 98bd
000000b0: 6d3c 4f3e 6a95 7dbe 2c55 3d3e 7284 7abe
000000c0: 3160 afbd 76e9 2bbe db24 4e3d a737 42be
000000d0: f44f 4dbd 423b 3bbe e8b1 5d3e 547e 0ebd
000000e0: 254b 2f3d 8712 143e 75a8 03be ebce 843e
000000f0: da67 86bd 109a 7dbc 803a e9bd da85 7e3d
00000100: 3cfc 4c3e a4e5 1e3e ecc7 83bd ddf1 7dbe
00000110: 710c 903d 791a 273e e044 32be 1073 7cbd
00000120: 7d27 2ebe 2390 ccbd fd73 8cbe 94b1 983d
00000130: 7ad3 0f3e 10ec 853e 7a6e 253d 968f a3bd
00000140: 2ec2 07be 18a4 90bd 13ec eabc 7a2f b03d
00000150: ff36 bcbd 9220 673d 1c96 00be 1255 91bd
00000160: 336b 42be 35d0 a23d 0b55 c0bc e469 8dbd
00000170: 826b 1cbe 580a c1bd 079b 31be a62d 073e
00000180: 4edb b93c 507c debd 15bd 54be abcf 4dbe
00000190: 3f82 d6bd 0fcd 0a3e bd2e 54bc 1b5f ae3d
000001a0: 76d9 743c 8fde 0d3e 82f2 313e 87ce 2abe
000001b0: 5a39 e23c 2de3 88be 3e93 2d3c 0345 b0bd
000001c0: 3988 863c 75cc 6e3e cb6c 16be b885 71be
000001d0: f09c 2abe f473 5ebe 58b2 65bd ec23 d83d
000001e0: e01c bcbd 70ab bf3d 29c2 08be cd5f a1bd
000001f0: 80c3 8ebd 6d52 2fbe cfc4 203d 5eb9 cfbd
00000200: d34c 133e 2b89 43be e5ab 12be d66c 78be
00000210: 79e9 a63d edab 21be e7fd 67be 1569 a73d
00000220: 9eae dfbd 5d7c 2e3e fe1e 2dbe fe1b b8bd
00000230: 89f3 60be 4974 7e3e 9feb b8bd eebe 2d3e
00000240: 9054 ddbd 57ad ad3c 6357 e33d b78d f13d
00000250: 994d 4c3e 0466 2abd ede7 413e ff8c 3fbe
00000260: aa8b 75be b8b9 5cbd 5fdf 283a 9ff4 e73d
00000270: 3090 4f3e 5154 45be 0726 12be 789f 19bd
00000280: f500 ecbd 5f75 1c3e 20f4 093e 4b68 76bd
00000290: 936d 0dbe 440c fabb d900 1a3e 960c 0a3d
000002a0: 8f8b 3bbe 55c9 963d e412 c73d ebe4 0c3c
000002b0: 077c 493e 73e9 113e 1e7b 84bd c956 8cbd
000002c0: 2063 803c b3cb 623c 373f da3d 3916 04bd
000002d0: 3313 473e a0c0 ca3d 0940 9a3c 5083 f43a
000002e0: 71a6 2a3e b4e7 833e 2814 babd a11c 63be
000002f0: 2577 283e 2435 883e 32a5 78be 7af1 48be
00000300: 0be0 a43c 986a 8cbc 64c4 cc3d da28 4bbd
00000310: 4f5f 2ebd 1e11 54bd bb24 89be e571 1e3e
00000320: fd75 243e 3b0a 843c 2fca b5bd b1d8 843c
00000330: cedc 1d3c 6264 0bbe 7e48 43be b5fc e9bd
00000340: 2586 a83d 55aa d9bd 8b7b 30be fd64 fabd
00000350: e4e6 24be 3a56 2a3e 7b66 5d3e 8bfd 6f3d
00000360: 938a df3d 6872 603e 9f55 c23d b460 17be
00000370: 613a e33c c241 6b3e 842e ce3c eba0 ef3b
00000380: 0145 07be 99ad 913d 7788 81bc 6d38 663e
00000390: 928c 75be 37e0 23be 2474 2cbe a3e1 4b3e
000003a0: 6055 81be fd4a 8dbe 2256 dabd a493 ea3d
000003b0: 5103 033e e02e 78be ecf0 713e aace 263d
000003c0: b6c7 05bb 9e14 ac3d 8801 6cbc 1940 9a3d
000003d0: efea 733e 501f 9e3c 62c0 da3d 801d 69be
000003e0: 0ae9 473e e223 32bd fc33 753c ca98 dcbd
000003f0: bb27 50be 2134 403e e287 093e d52d ebbc
0.19961812 -0.05204557 -0.2017217 -0.04334385 -0.06296498 -0.21521716 -0.14678842 -0.019619789
0.16238862 0.020629343 -0.035829697 -0.11354704 -0.20570996 0.10702918 -0.08853229 -0.15041047
0.08141021 -0.015176391 0.0882455 -0.13127388 -0.21819302 0.12080571 -0.01249044 -0.16537458
-0.052079726 0.12070978 0.009863594 -0.0231645 -0.17635131 0.0028841784 0.15008952 -0.12587164
0.17952482 0.02318535 -0.24360475 -0.031330545 0.23824516 0.13956764 0.11693115 -0.10811156
0.04168618 0.13532327 0.25274122 -0.074529506 0.20237894 -0.24764028 0.18489522 -0.24464586
-0.08563269 -0.16788277 0.050328117 -0.18966542 -0.050125077 -0.18284324 0.21649897 -0.034788445
0.042796273 0.14460193 -0.1285723 0.25939116 -0.06562777 -0.015478626 -0.11388111 0.06213937
0.20018095 0.15517288 -0.064346164 -0.24799295 0.07033623 0.16318692 -0.17409086 -0.06163317
-0.17007251 -0.099884294 -0.27432242 0.07455745 0.14045516 0.26156664 0.04038856 -0.07986371
-0.13257667 -0.070625484 -0.028677022 0.086028054 -0.09190177 0.056427546 -0.12557262 -0.07096304
-0.18986206 0.079498686 -0.023478052 -0.06904963 -0.15275386 -0.09425801 -0.17344294 0.13201007
0.02268758 -0.108635545 -0.20775254 -0.2009875 -0.10474061 0.13554786 -0.012950596 0.08514234
0.014944425 0.1385443 0.17377666 -0.16680346 0.027615238 -0.2673582 0.010594187 -0.08606913
0.016422378 0.23320182 -0.14689939 -0.23586166 -0.1666143 -0.2172392 -0.056078285 0.105537266
-0.09185195 0.09358871 -0.13355316 -0.07879601 -0.069708824 -0.17121287 0.03925019 -0.10142778
0.14384775 -0.19095294 -0.14323385 -0.24260268 0.0815 -0.1578824 -0.2265545 0.0817434
-0.109219775 0.17039628 -0.16906354 -0.08989714 -0.21967901 0.24849047 -0.09029316 0.16967365
-0.10807145 0.021200819 0.11100652 0.11794608 0.19951476 -0.041601196 0.18936129 -0.1870613
-0.23979059 -0.053888053 0.00064419763 0.11325955 0.20269847 -0.19270445 -0.14272319 -0.037505597
-0.1152362 0.15279149 0.13472033 -0.060158055 -0.1381133 -0.0076308567 0.15039386 0.03370341
-0.18314956 0.0736262 0.097204 0.0085995 0.19676219 0.1424921 -0.06468795 -0.068524905
0.015672266 0.013842511 0.106565885 -0.032247756 0.19440918 0.099000216 0.018829362 0.0018654857
0.16665055 0.25762713 -0.09085876 -0.2217889 0.164517 0.26603043 -0.24281767 -0.19623366
0.020126363 -0.017140672 0.09998396 -0.049599506 -0.042571362 -0.051774137 -0.26785836 0.15473135
0.16060634 0.01611816 -0.08876454 0.016216608 0.0096351635 -0.13612512 -0.19070622 -0.11425153
0.08228711 -0.106281914 -0.17234628 -0.12226293 -0.16103703 0.16634455 0.21621124 0.058591407
0.10915103 0.21918643 0.09488987 -0.14782983 0.027737798 0.22974303 0.025168665 0.007312884
-0.13209917 0.07113189 -0.015812142 0.22482462 -0.23979405 -0.160035 -0.16841179 0.19910292
-0.25260448 -0.27596274 -0.1066096 0.114539415 0.12794234 -0.24236631 0.2362706 0.040724434
-0.0020413226 0.0840237 -0.014404662 0.07531757 0.23820089 0.01930204 0.10681225 -0.2276516
0.19522491 -0.04349125 0.014966007 -0.1077133 -0.20327656 0.18769886 0.13430741 -0.028708378

edge_model.2.bias f4 [16]
00000000: a254 043d 8228 17be c2cf 023d c75c 2ebe
00000010: d90a 333e bfe0 453e 12d1 903d 5e4c 533e
00000020: f65d 3ebd ebf1 b63d 01fe 8dbd ae9b 2bbe
00000030: 7484 abbd 3c5d 4a3e 9960 833d 2769 313e
0.032307275 -0.14761546 0.031936415 -0.17027579 0.17484607 0.19324015 0.07071127 0.206346
-0.046476327 0.08932861 -0.06933213 -0.16758606 -0.08374873 0.19762129 0.06414909 0.17325269

edge_model.3.weight f4 [16]
00000000: 9305 833f ce45 7f3f 3fb9 823f 2b1d 7e3f
00000010: cd3e 813f 7bfb 7a3f 71fd 803f 1fbe 7e3f
00000020: 6242 833f a112 813f 64cc 7c3f 03d1 863f
00000030: 8776 803f 2ddb 813f 5318 883f a096 7b3f
1.0236076 0.9971589 1.0212783 0.99263257 1.009729 0.9803998 1.0077344 0.9950885
1.0254633 1.008381 0.98749375 1.0532535 1.0036172 1.0145012 1.0632423 0.9827671

edge_model.3.bias f4 [16]
00000000: 9c47 12bc 0ebf 8b3c 28c3 2b3c 371d 953c
00000010: 8764 c23a 3071 80bb dcdc f0bb 0dfb 09bb
00000020: 0aae 443c 9c71 62ba 7557 c13c 019f 6e3c
00000030: 8187 ee3a 31dc 733c f642 40bc 4b34 623b
-0.008928206 0.017058875 0.010483541 0.018202407 0.0014830985 -0.003919743 -0.0073505472 -0.002105418
0.012004385 -0.0008638145 0.023601273 0.014564277 0.0018198342 0.014884041 -0.011734715 0.0034516032

node_decoder.0.weight f4 [1, 16]
00000000: 39f0 efbe c0f9 dd3e d6cc cd3d 1a24 543e
00000010: 17d3 223f 04aa c6be 1e60 e9be 8a29 b3bd
00000020: cb20 adbe 2457 3d3e 5e78 ec3e e05d c6be
00000030: e21e 64bc 617b 223e 95e5 843e deaa 49be
-0.46862963 0.43354607 0.10048835 0.20716897 0.6360335 -0.38801587 -0.45581144 -0.08748157
-0.33814082 0.18490273 0.46185583 -0.38743496 -0.013923379 0.15867378 0.25956407 -0.19694087
