tmp/tmp5model300.pt (torch, 23679 bytes, 25 tensors)

node_encoder.0.weight f4 [16, 5]
000000 05 da 92 3e ed e9 a9 be ce a3 b5 3e 70 82 92 3e
       0.2868196 -0.33186284 0.35476536 0.2861514
000010 b7 60 bc 3e 3a ff 9d be 4d 30 5c be ea 06 7d 3e
       0.36792538 -0.30858785 -0.215028 0.24709669
000020 6c bd d5 be 8e de f3 3e 9e c5 c5 3d 48 32 72 3d
       -0.4174608 0.47630733 0.09656833 0.059129983
000030 fc cf c3 be 00 f0 11 3e f4 84 06 3e 6a 8d 7f 3d
       -0.38244617 0.14251709 0.13136655 0.062390722
000040 50 37 dd 3e 16 99 d3 3d be 09 cb be 1c f1 bb 3e
       0.43206263 0.10331933 -0.3965587 0.3670739
000050 fb ec 0b 3e a3 c0 80 be 19 03 cf be fc 87 82 3e
       0.1366462 -0.2514697 -0.4043205 0.25494373
000060 75 b8 df 3e bb 99 bb be 80 37 c8 3c 74 4c 24 3e
       0.43695417 -0.36640725 0.024440527 0.1604479
000070 99 42 58 be 80 67 c8 bd 71 e4 98 be a9 80 58 be
       -0.21119155 -0.09785366 -0.29861787 -0.2114283
000080 5d bf d0 be 40 d0 29 bc a4 c3 87 3e 0e 3e 42 3e
       -0.40771 -0.010364592 0.2651645 0.18968984
000090 db bf c7 3e 7a 1b e3 be 00 63 61 bd f6 70 b9 3e
       0.39013562 -0.443569 -0.055026054 0.36218995
0000a0 a5 b2 c1 3d e8 eb ec bd 2e f6 b2 be 58 1a 55 3e
       0.09457902 -0.11568433 -0.34953445 0.2081083
0000b0 21 69 c3 3e 70 33 bb 3e 8b df cc 3e f8 1b f0 3d
       0.38166144 0.3656268 0.400143 0.117240846
0000c0 b2 32 a3 3e b2 7e 96 bd 37 38 be 3e fb f9 ed bc
       0.31874615 -0.07348384 0.37152264 -0.029049864
0000d0 3b 8d aa bd d4 a3 63 be d7 ec 87 3e 1d d6 4e 3e
       -0.08327719 -0.22230464 0.26547882 0.20198865
0000e0 cb 4f 9d 3e 9a e3 7e be 78 7d 73 be 61 af e3 3e
       0.3072494 -0.2489151 -0.23778331 0.4446974
0000f0 e6 2d 7e be 6c 96 82 be 98 0e f5 bd 42 03 14 be
       -0.24822196 -0.25505388 -0.11965674 -0.14454368
000100 d4 b7 9b be 70 07 bf 3e 09 d7 3d 3d 65 a8 46 3e
       -0.30413687 0.37310362 0.04634765 0.19400175
000110 dc d6 a9 3e 66 8f 9f be 09 69 b6 3e 5f 91 6a be
       0.33171737 -0.31164092 0.3562701 -0.22907017
000120 03 08 07 bd de 47 ad 3e f0 91 da 3e a2 55 bf 3e
       -0.032966625 0.33843893 0.42689466 0.3737002
000130 a8 82 76 3e 55 9a c6 3e 2e 00 25 be 06 77 9a bd
       0.24073279 0.3878962 -0.1611335 -0.07542233

node_encoder.0.bias f4 [16]
000000 74 67 25 be 3c de ba 3a 66 19 59 bd ea e6 6b 3e
       -0.16152745 0.0014256905 -0.053002737 0.23037305
000010 58 9a 95 3e 00 e3 a4 be c1 e0 7c be 81 55 29 be
       0.29219317 -0.32204437 -0.24695112 -0.16536523
000020 dd 27 a6 3d 75 94 2a be 07 25 8a be 94 5e 78 bd
       0.08113072 -0.16658194 -0.26981375 -0.06063707
000030 04 7b 5f be 0c aa c4 3c 63 e2 a1 be dc d1 05 be
       -0.2182427 0.024006866 -0.31618032 -0.13068336

node_encoder.2.weight f4 [16, 16]
000000 8a ed ec bd 7a d3 e8 bd 1e e1 37 3e f3 29 13 3e
       -0.115687445 -0.11368461 0.17956969 0.14371471
000010 e0 3d e2 bd e6 b4 6a be 14 1d 37 be 9f 4d 52 be
       -0.11046958 -0.2292057 -0.17882186 -0.20537423
000020 39 45 a5 bd 7d ba 00 be 84 70 5e be 69 b2 08 3d
       -0.08069844 -0.1257114 -0.21722609 0.03337327
000030 c0 ca 83 3c b0 9f 4b bd e5 ef 19 be 7f 4f 4a 3e
       0.01608789 -0.049712837 -0.15032919 0.19756888
000040 37 3d 83 be fc 12 4b 3d a2 a8 f3 3d 7b 84 28 3e
       -0.2563264 0.04957865 0.118973985 0.16456787
000050 76 4f 57 be 50 59 20 bd f6 7f 55 3e 21 89 31 3d
       -0.21026406 -0.039147675 0.20849594 0.043343667
000060 45 3b 92 3d 0a 4a fc bd 2f f4 35 3e 51 49 bc bd
       0.07140211 -0.12318809 0.1776893 -0.091936715
000070 04 db 09 be 13 cf 53 3e 0e 04 b2 3d 96 b6 b0 bc
       -0.13462454 0.20684461 0.086921796 -0.021571439
000080 21 66 03 be e1 31 8f bc a1 5d 2b be 65 0f 2c be
       -0.12831928 -0.017479839 -0.16734935 -0.16802748
000090 50 ff 24 bc 90 f6 45 3d 88 c2 51 be 62 ea 81 3e
       -0.010070637 0.048330843 -0.20484364 0.25374132
0000a0 c9 48 5c 3e 8e 11 6c be f7 6c 28 3e 62 db 1a be
       0.2151214 -0.23053572 0.16447817 -0.1512275
0000b0 48 9c 50 be 5c 8b 82 3e e0 13 b9 bd 26 2d 98 bd
       -0.20372117 0.25496948 -0.09036994 -0.074304864
0000c0 98 d2 05 3d bc 0b 1e 3e 89 16 3a bc 24 f6 a6 bd
       0.03267154 0.15434164 -0.011357912 -0.08152416
0000d0 6a 26 0f 3c c0 a2 04 be 5c 36 3a be f5 e3 3a 3d
       0.008737186 -0.12952709 -0.18184799 0.045627553
0000e0 f1 9e a7 3b 7b f9 d5 3d cf b4 bb bd 4c b4 86 be
       0.005115383 0.10447975 -0.09165346 -0.2630943
0000f0 60 16 7e bd d9 dc 84 be 9a 5b 18 bc f7 bf dd 3d
       -0.062033057 -0.25949743 -0.009299183 0.1082763
000100 82 b6 46 3d 53 b3 32 3e 58 31 38 3d ee b3 fe 3d
       0.048513897 0.1745122 0.044968933 0.124366626
000110 80 09 73 3e 88 5d 18 3d 20 68 2a 3d df 77 cc bd
       0.23734093 0.037198573 0.041603208 -0.09983801
000120 89 fe 41 3e 47 12 64 3e a6 e6 17 be 15 22 80 3e
       0.18944754 0.22272597 -0.14834079 0.25026003
000130 80 72 9a 3d 8b b1 a0 bc 77 9c 3e be e7 63 6c be
       0.075413704 -0.01961591 -0.18614374 -0.23084985
000140 b3 2e 36 be 4b d9 02 be 12 74 2e be 77 7d 5e bd
       -0.17791252 -0.12778203 -0.17036465 -0.05431887
000150 a6 62 42 be 44 03 56 be 20 ef e3 bc a7 3b 54 be
       -0.18982944 -0.20899683 -0.027823985 -0.2072588
000160 31 ed d7 b9 9d d7 34 3d c7 8e b2 3d cd 4e 31 3e
       -0.00041184717 0.044150937 0.08718639 0.17315216
000170 10 bc 0b 3e 4a 47 15 be 82 57 ed bc aa b3 65 3c
       0.13645959 -0.14577976 -0.028972391 0.014019886
000180 0c 24 36 3e 00 d5 1b 3d e0 d9 14 be 33 00 32 bd
       0.17787188 0.03804493 -0.14536238 -0.04345722
000190 70 f9 83 3c 28 d3 b1 3d a8 40 be bd de c4 66 be
       0.016110152 0.08682853 -0.09289676 -0.22536036
0001a0 45 9f 4d be 3f 49 e7 3a 47 c1 60 be 13 36 81 3d
       -0.20080288 0.001764573 -0.2194873 0.06309142
0001b0 8a eb 20 3e 08 1b 41 bc 76 2a 6b 3d c4 ca 27 3e
       0.15714851 -0.01178623 0.05741354 0.16385943
0001c0 00 79 14 3e 52 1b 6f be 4e c2 75 3e 70 6a 52 3d
       0.14499283 -0.23350266 0.23999903 0.051371038
0001d0 ac 7e 74 be 88 cf 7e 3d 4a 48 30 be cd ab 6e 3e
       -0.23876446 0.062209636 -0.17215076 0.23307724
0001e0 2d 45 46 3e f7 e2 34 be 14 12 44 be 7e be 61 3c
       0.19362326 -0.17664705 -0.19147521 0.013778327
0001f0 a4 a1 87 bd 54 1b c3 3d 79 04 7c be 5b 04 2b 3e
       -0.066226274 0.09526697 -0.24611081 0.1670088
000200 00 f5 c3 3c 3a d3 b6 bc b3 f2 21 be 27 18 19 3b
       0.023920536 -0.022317518 -0.15815239 0.0023360343
000210 db bc 2a 3e 02 67 79 3e ee cd 25 be 2f 27 e7 bd
       0.16673605 0.243557 -0.16191837 -0.112867706
000220 e0 df 84 3d a4 d2 03 3e 83 db 5f be 3d 4a d8 bd
       0.06488013 0.12873322 -0.21861081 -0.10561035
000230 78 62 4b be 03 20 68 3e 35 b6 d2 bd c2 17 0f 3e
       -0.19861782 0.22668462 -0.102886595 0.13973907
000240 76 2d f6 3d 45 08 ea 3d 7a ad 9f 3d e6 2c 25 3e
       0.1202039 0.114273585 0.0779676 0.16130409
000250 9b 7b 12 bc f8 b9 06 3e e0 42 08 bd 24 2e da 3c
       -0.008940603 0.13156879 -0.033266902 0.02663333
000260 3c 58 cc 3d e7 58 65 be 78 a0 cf bd bb 59 39 be
       0.09977767 -0.22397195 -0.10138029 -0.18100636
000270 38 b2 9b bd 07 0b a1 bc df 68 0d 3e ed 16 57 be
       -0.07602352 -0.019658579 0.13809536 -0.21004839
000280 4f 7c 59 be 0b c6 2d 3e e6 db 03 bd 26 c6 d6 bd
       -0.21238826 0.16970079 -0.032192133 -0.104870126
000290 8c 6f 83 bd 40 74 5a 3c 64 36 3b be 2c 3d 74 be
       -0.0641776 0.01333338 -0.18282467 -0.2385146
0002a0 11 b4 25 be 4a ed 64 3e f0 a6 8f 3d 68 ef 76 be
       -0.16181971 0.22356144 0.07014263 -0.24114764
0002b0 0c e8 09 be 62 11 58 3e 73 52 76 3e 85 80 9b 3d
       -0.13467425 0.21100381 0.2405489 0.075928725
0002c0 c5 01 08 3e eb a8 1b 3c 0d 00 05 3e e6 19 46 be
       0.13281925 0.009500722 0.129883 -0.19345817
0002d0 20 80 76 3c 4e f6 62 be 14 ca 7b be f5 b8 4d 3e
       0.015045196 -0.2216427 -0.24588805 0.20090087
0002e0 5d 5a f5 39 7d 57 d3 3d bd d4 50 bd f9 65 5a be
       0.00046797367 0.103194214 -0.050984133 -0.21327962
0002f0 80 69 42 3e 35 a2 72 be 5d 4e 2f be b3 a0 a4 3d
       0.18985558 -0.2369469 -0.17119737 0.080384634
000300 b3 76 88 bd 96 bd 0a 3e fd b1 47 be 8a 1c d3 3d
       -0.06663265 0.13548884 -0.19501491 0.10308178
000310 53 b0 00 be 34 1b 0e 3e 70 c5 e2 bc 6a 4e 36 be
       -0.12567262 0.13877565 -0.027682036 -0.1780335
000320 8b 0c 8a bb c5 9c 0a bd 5a 34 41 3e 74 a7 bd bd
       -0.004212921 -0.033840913 0.18867627 -0.09260455
000330 30 bd b5 3c 9b 79 ca bd c9 d5 23 3d d1 df 68 3e
       0.022184938 -0.09886476 0.039998803 0.22741629
000340 e8 0c d7 3d ab 4e c7 3d d9 a2 7c be fc 76 1f 3e
       0.105005085 0.097318016 -0.24671496 0.15572733
000350 be 74 6e 3e 98 2a 82 3d 24 f3 54 3e 3a dc d9 3d
       0.23286721 0.0635578 0.20795876 0.10637708
000360 91 0c 59 3e 5f 42 e6 bc aa 4a 98 bd 8c 40 0a 3e
       0.211962 -0.02810782 -0.07436116 0.13501185
000370 24 6a 89 bd 2e 87 04 bd 85 0c 17 3c 81 94 b7 bd
       -0.06709698 -0.03235548 0.0092192935 -0.08963872
000380 86 2f 1f 3d 2d c1 f7 bd 28 b0 2a be 42 03 77 3e
       0.03886368 -0.12097392 -0.16668761 0.24122337
000390 4a 33 7a be f2 95 07 be 46 62 6a 3e ad b7 1c be
       -0.24433628 -0.13240793 0.22889051 -0.15304442
0003a0 13 85 61 be 0d f4 1d 3e df fe 79 3e 94 2b 40 3e
       -0.2202342 0.15425129 0.24413632 0.18766624
0003b0 4c 20 31 be 67 5e 75 be a9 8b 85 be 00 80 e6 3a
       -0.17297477 -0.23961793 -0.26083115 0.0017585754
0003c0 c4 b9 73 3d 63 a3 59 bc dd 32 a9 3d 52 e3 bf bd
       0.05950333 -0.013283583 0.082616545 -0.0936953
0003d0 79 8e 27 3c 94 c9 65 3e f0 e2 a6 bd 3e 95 2e be
       0.010226839 0.22440177 -0.08148754 -0.17049119
0003e0 77 8c 6b 3e 37 92 3e 3e 8e fe 77 3e c7 e9 68 3e
       0.23002802 0.18610464 0.24218199 0.22745429
0003f0 80 21 34 3b 9f 3c 13 3e 20 87 28 3d 06 ac bf 3d
       0.0027485788 0.14378594 0.04114449 0.09358983

node_encoder.2.bias f4 [16]
000000 15 99 94 bb ad e1 00 3e ad 19 56 bd 47 7b 26 bd
       -0.0045348504 0.12586088 -0.05227058 -0.04064491
000010 88 bb 1b 3e 34 fb c5 3d 99 b7 3b 3e 60 86 8c bd
       0.15208256 0.09667054 0.18331756 -0.068615675
000020 7a 57 61 bd 0e b9 2d be bb 7a c2 bd f0 72 79 be
       -0.055015065 -0.16965124 -0.09496065 -0.24360251
000030 4d c5 73 3e 11 d1 3f be a3 26 a8 bd 59 b4 b3 3d
       0.23805733 -0.18732096 -0.08210494 0.08774633

node_encoder.3.weight f4 [16]
000000 86 91 7e 3f e0 29 7c 3f 1a 78 7d 3f 61 ed 81 3f
       0.994408 0.98501396 0.99011385 1.0150567
000010 37 5b 81 3f 56 da 7e 3f 7a 17 7c 3f 44 5d 7b 3f
       1.0105962 0.99551904 0.9847332 0.9818919
000020 33 96 7d 3f 26 41 7f 3f 39 a3 80 3f 7b 60 80 3f
       0.9905731 0.99708784 1.0049812 1.0029444
000030 10 1c 81 3f 04 fc 80 3f d4 48 82 3f 40 9c 81 3f
       1.0086689 1.0076909 1.0178475 1.0125809

node_encoder.3.bias f4 [16]
000000 8c 47 ac bc 01 e6 69 bc 9a 4e be 3c 3d 5a 53 bc
       -0.02103021 -0.014276029 0.02323084 -0.012899932
000010 7e fd a6 3c dc 5b 55 bb 56 4c 8b bc aa 4d 37 bc
       0.020384546 -0.0032555973 -0.017004173 -0.01118795
000020 24 85 fc bb e3 9a a6 39 82 8a f2 3b 4a 6c 72 bb
       -0.0077063013 0.00031777387 0.0074017653 -0.0036990815
000030 9c 9e 5b 3c 3a ff d6 bb cc 57 ef b9 58 e8 61 3c
       0.013404515 -0.006561187 -0.00045651046 0.013788305

edge_encoder.0.weight f4 [16, 4]
000000 bd 87 bc 3e 4d df 95 3e 88 49 e4 3e 1c d3 02 bd
       0.3682231 0.29271927 0.4458735 -0.03193961
000010 a7 b5 94 be 60 87 fb be 79 d3 cd 3d 25 8c 2d 3e
       -0.2904484 -0.4912672 0.10050101 0.16947992
000020 45 d6 9f bc e4 94 a0 3e 0c 41 53 bd 0a 40 c6 3d
       -0.019511351 0.31363595 -0.051575705 0.09680183
000030 42 43 e2 be 68 8a e7 3d 44 d3 17 3e 74 9c 30 be
       -0.4419194 0.11305696 0.14826685 -0.17247182
000040 2b 53 66 3e a4 d3 f2 be 59 73 c6 3e a6 2d ee be
       0.22492664 -0.47427094 0.38759878 -0.46519202
000050 56 e2 b6 3e ed 44 07 be b6 dc c3 be 38 70 69 3b
       0.35719556 -0.13209887 -0.38254327 0.0035619866
000060 03 33 95 3e 00 1e 99 bc 40 81 ac be cc 4c ac be
       0.2914048 -0.018691063 -0.3369236 -0.3365234
000070 bc 58 c3 3e c4 72 e7 be 46 06 83 be 1c ef ea be
       0.38153636 -0.45204747 -0.25590724 -0.4588555
000080 64 71 f6 be 2b b7 eb 3e af 38 8a be ed c1 35 bd
       -0.48133385 0.46038184 -0.2699637 -0.044374395
000090 b4 3b ad bd 5e 2f d2 be 30 67 51 bd 8a c9 d4 be
       -0.08458653 -0.41051763 -0.051123798 -0.41560012
0000a0 8c 8b 95 be 41 6f ca 3e f4 6d a7 be ac d7 a0 3e
       -0.29208028 0.39538005 -0.32701075 0.31414545
0000b0 47 1b 07 be 67 82 2c 3e d9 e8 cf bd 33 62 a7 3e
       -0.13193999 0.1684662 -0.10151834 0.32692108
0000c0 9c da d8 3e 86 ad d7 3e 05 ab b0 3e 02 75 3f be
       0.42354286 0.42124575 0.34505478 -0.18696979
0000d0 1c 47 9e 3e c7 be bd be a2 69 f6 be 19 a5 c8 3e
       0.30913627 -0.37059614 -0.48127466 0.3918846
0000e0 b9 a7 a5 bd 7b 47 d3 3e f3 96 84 3e 35 ef 0c be
       -0.08088631 0.41265473 0.25896415 -0.13763125
0000f0 a4 46 e7 bd 8b 1c f9 bd d0 9e e0 be 98 1e ba 3e
       -0.112927705 -0.12163647 -0.43871164 0.36351466

edge_encoder.0.bias f4 [16]
000000 a0 24 97 be dd 80 42 3e ff 41 fa 3e de 93 cf be
       -0.2952013 0.1899447 0.48878476 -0.405425
000010 b7 10 94 be 24 37 d4 3e 72 2f e4 bc 26 f6 e4 be
       -0.28919002 0.4144832 -0.027854655 -0.44719046
000020 39 2b 30 3e 7f 7e b3 3e 54 3e 9c be 3b 5f bc 3e
       0.17203988 0.35057446 -0.30516303 0.36791405
000030 15 3c e9 3e 45 e3 e1 3e ad b2 94 3e a5 14 6b 3c
       0.4555365 0.44118705 0.2904257 0.014348184

edge_encoder.2.weight f4 [16, 16]
000000 41 a1 ba 3d 7e 4c 7b bd 5a ee 22 3d 64 df fc bd
       0.09112788 -0.061352246 0.03977809 -0.12347296
000010 12 94 36 3e 02 5e b3 bd de 04 13 be 10 35 12 bd
       0.17829922 -0.08758165 -0.14357325 -0.035695136
000020 f2 11 31 3d 65 f9 15 3d 0d e5 32 be 00 0c 12 be
       0.043230005 0.036614794 -0.17470188 -0.1426239
000030 e3 13 52 be 43 54 c7 bd 95 b9 cd bc e7 de 53 3e
       -0.20515399 -0.097328685 -0.025112906 0.20690499
000040 46 e8 3b be 44 8b 23 3d 9c fc fc bd d8 21 f2 bd
       -0.18350324 0.039927736 -0.12352869 -0.118228614
000050 98 73 65 be c7 ae 7e be 3d b3 29 be 00 8a 06 bd
       -0.22407377 -0.2487136 -0.1657228 -0.03284645
000060 e0 03 36 3d 24 58 b7 3d 74 61 6e be 43 96 6c be
       0.04443729 0.08952358 -0.23279363 -0.23104195
000070 d4 f0 16 be 70 a7 fc bd e8 88 0a be d8 28 0b 3e
       -0.14740306 -0.12336624 -0.13528788 0.135898
000080 4f 04 8b 3d 59 3f 13 bd 89 bc 47 be 82 a6 23 be
       0.06787931 -0.035949085 -0.19505514 -0.15981486
000090 b5 c9 6b 3e 4a a4 6b be 53 ab 5c bc 26 36 61 be
       0.23026164 -0.2301189 -0.013468581 -0.21993312
0000a0 eb 8b 83 be 89 07 bc 3c 17 fb bd bd fc 87 87 be
       -0.25692686 0.022952812 -0.09276407 -0.26470935
0000b0 b4 8c 2f be d6 d9 38 3e 5d 0b ff bd a0 df 0b 3e
       -0.17143518 0.18051848 -0.12453339 0.13659525
0000c0 e8 04 8c 3e ea c1 57 be 65 e6 21 bd 6e 39 50 3e
       0.27347493 -0.21070066 -0.039526362 0.20334408
0000d0 61 d8 24 bd bb 83 b2 3d 59 14 7c 3e 9e 42 72 be
       -0.040245418 0.08716532 0.24617137 -0.23658225
0000e0 12 6f 79 3d e3 6f 78 3e 95 3d 39 bd ce 1d 88 be
       0.06089694 0.24261431 -0.045224745 -0.2658524
0000f0 71 84 06 be 7e 4d 2e be 00 71 fb 3c 78 ed 00 3c
       -0.1313646 -0.17021748 0.030693531 0.007869117
000100 e4 de e0 3d e4 3b c8 3d 40 6a 40 3e 96 50 32 be
       0.10980013 0.09777048 0.18790531 -0.17413554
000110 28 b6 5b bd f1 ec c8 bd db 9a 6a 3d b8 8e 1d be
       -0.053640515 -0.09810818 0.057276588 -0.15386474
000120 30 e7 4e be ee 30 df 3b 79 d6 16 be c5 71 0c 3e
       -0.20205379 0.006811253 -0.14730252 0.13715275
000130 c9 24 11 3e be 7c d5 bd a7 83 98 bd 2f d3 af 3c
       0.14174189 -0.10424183 -0.07446986 0.021463005
000140 58 4d f2 bd c6 e1 6c bc e3 95 6b be 48 99 32 3e
       -0.118311584 -0.014458125 -0.23006396 0.17441285
000150 92 ee 3f 3e 76 79 7e 3d 44 1f 6c 3e 98 cb 16 3d
       0.18743351 0.062127553 0.23058802 0.036815256
000160 ed de 32 be 08 d9 0e be dc ae b4 bd 72 8a 4b 3e
       -0.17467852 -0.13949978 -0.08822414 0.19877031
000170 16 a3 ae 3c 60 0e 84 3d d0 ab f5 bd fc a8 af 3d
       0.021318 0.06448054 -0.11995661 0.08577153
000180 74 c9 84 3e 74 11 74 be 5b 65 66 be 48 74 a6 bd
       0.25934947 -0.23834783 -0.22499602 -0.08127648
000190 60 c1 0a be 56 9b 2f be 51 e9 a6 3d 26 d0 0f be
       -0.13550329 -0.171491 0.0814997 -0.14044246
0001a0 a1 b1 6f 3e 70 10 1f bd 82 6b 8f bd af 10 39 3e
       0.23407604 -0.038834035 -0.07002927 0.1807277
0001b0 fd e8 a2 bd af fd 1a be 01 72 fa 3c 97 b0 bd 3d
       -0.07954595 -0.15135835 0.03057194 0.092621975
0001c0 4c fa 0f be 79 db 2a be 9d d3 5a be f0 ca 6f be
       -0.14060324 -0.16685285 -0.21369787 -0.23417258
0001d0 ce 8e 33 3e a4 8a 4c bd cb d8 96 3d cc 88 82 bd
       0.17534944 -0.049936906 0.07365569 -0.06373748
0001e0 dc 79 35 3e fe 53 ae 3d ed c3 ae 3d da b2 11 3d
       0.17722267 0.08512114 0.085334636 0.035570957
0001f0 fe 29 93 3d f9 88 26 3e 94 09 51 be 3d a2 84 3e
       0.07185744 0.16263188 -0.2041381 0.25905028
000200 eb 2d 02 3c 2b 05 de bb 90 d5 78 be 76 8a 08 3e
       0.007945518 -0.0067755184 -0.24300218 0.13334069
000210 d1 5e 32 bd 94 fd 70 3e fc 2f eb bd 40 6f 4e be
       -0.043547455 0.23534232 -0.11483762 -0.20159626
000220 65 d3 1f be 06 2f f8 3d 62 cd 4d be 34 74 76 be
       -0.15607984 0.12118344 -0.20097879 -0.24067765
000230 2f f9 31 3e 25 61 00 3e 17 f6 0a 3d f2 cc 10 3e
       0.17380212 0.12537058 0.033926096 0.1414068
000240 bf d1 79 be fc ae 8f 3d ae a1 33 bb 68 b0 a3 bd
       -0.24396418 0.070157975 -0.00274096 -0.07992631
000250 23 98 d8 3d ef 9e 6b be 6a 07 6a 3e 62 f0 1c be
       0.10575893 -0.23009847 0.2285439 -0.15326074
000260 6a a4 61 3e 0b 6f 1d bd 74 85 6a be 81 08 23 be
       0.22035375 -0.038435977 -0.22902471 -0.15921213
000270 ba 2b c9 3d 7f 35 49 3d e5 11 25 3e 8b 6f ae 3d
       0.09822793 0.049123283 0.16120107 0.08517369
000280 e2 25 02 be f4 d9 27 be 13 d6 ba bd e0 53 3d be
       -0.12709764 -0.16391736 -0.09122863 -0.18489027
000290 bd e3 08 be 05 39 1f be 99 28 60 be e0 c6 6a bc
       -0.13368125 -0.15549095 -0.21890487 -0.014329642
0002a0 10 6c 22 be 47 9d 93 bd 25 3e cf 3d 2f db aa bd
       -0.15861535 -0.07207733 0.10119275 -0.08342587
0002b0 d8 0c 1d be 4d 09 ac bd a5 ba 95 3d 1f 58 27 bc
       -0.15336931 -0.084002115 0.0731099 -0.010213881
0002c0 a7 ea 0a 3e 18 05 3c 3e b1 6b 6b 3e b4 29 58 3e
       0.13566075 0.18361318 0.229903 0.21109658
0002d0 08 03 d8 bd ca 22 ea 3c fd a1 6e 3e 6a 38 43 be
       -0.10547453 0.028581042 0.23303981 -0.19064489
0002e0 79 f6 aa 3d 00 61 7b be f2 2e 58 3c 88 3f 86 bc
       0.08347792 -0.24548721 0.013194786 -0.016387716
0002f0 3c 44 0f 3e df bc 5a be c2 b4 1c 3e 6e 90 69 be
       0.13990873 -0.21361111 0.15303329 -0.22809002
000300 9e be 08 bd 33 40 5a bd 47 b4 00 3b e8 ee c2 bd
       -0.03338491 -0.05328388 0.0019638704 -0.09518224
000310 ce 3b b6 bd f6 1f e8 3d b0 4e 75 be b6 c0 2e 3e
       -0.088981256 0.11334221 -0.23955798 0.17065701
000320 3d 97 13 be 7b f8 4b be c4 a7 f6 3b 4d f1 80 3d
       -0.14413162 -0.19919007 0.0075273234 0.062960245
000330 e7 d1 1d be 31 6f f7 bd 19 79 5f be 8c 7e a8 3d
       -0.15412103 -0.12081755 -0.21823539 0.08227262
000340 84 fc 30 3e e8 33 04 3e 8c a7 65 3e f4 c1 e7 3d
       0.17283827 0.12910426 0.22427195 0.113162905
000350 20 d6 cc bd be 85 0b 3e 97 6d de 3d 0c ec 89 3d
       -0.100017786 0.13625237 0.10860746 0.067344755
000360 4d b4 26 be 77 de 44 3e af f6 86 bd 06 ea 53 bc
       -0.16279717 0.19225489 -0.0659002 -0.0129342135
000370 e0 33 23 3e 8d d1 3e be 02 4e 2b be b4 0d 04 bc
       0.15937757 -0.18634625 -0.16728976 -0.008059908
000380 a8 69 36 be 9b 08 47 be db ad 6f 3e d0 11 d7 3d
       -0.17813742 -0.19436876 0.23406164 0.10501444
000390 1f e8 81 3e da 4c 17 3e 81 80 5b 3e 40 7c 1a bc
       0.25372407 0.1477541 0.21435739 -0.009429038
0003a0 e7 ab 02 bd 3e d1 cd bd 15 3d 29 3e c4 b1 39 3e
       -0.03190222 -0.100496754 0.16527207 0.18134218
0003b0 a3 35 cd 3c 3a 44 1a 3d 57 40 90 bd 13 03 d7 bd
       0.02504999 0.037662722 -0.07043522 -0.10498633
0003c0 8c 3f 31 3e aa 8c 2a be 1e ae ed bd bc d3 16 be
       0.17309397 -0.16655222 -0.11605476 -0.14729208
0003d0 a6 a1 44 3e 67 c4 1e be c4 4f 3b bd 36 2d 24 be
       0.19202289 -0.15504609 -0.045730367 -0.16032872
0003e0 cd 4e bc 3d b6 44 1b be cf 49 8b be 94 cd 80 be
       0.091947176 -0.1516293 -0.2720475 -0.25156844
0003f0 92 10 6d be 7f 45 9a bd 87 82 fd bd 56 fb 7a bc
       -0.23150852 -0.075327866 -0.12378412 -0.015318712

edge_encoder.2.bias f4 [16]
000000 96 26 e2 bd 7e ba 02 3e dc aa 53 be a0 f7 e6 bd
       -0.11042516 0.12766454 -0.20670646 -0.112776995
000010 9d d3 4f 3e f2 b4 91 3c 50 e2 14 3e dc 84 b7 bc
       0.20295568 0.017786477 0.14539456 -0.02240222
000020 67 08 95 3c 44 69 82 be 0d 9a 58 3d f6 76 0b be
       0.018192483 -0.25470936 0.05288129 -0.13619599
000030 32 6a 10 be e7 93 39 be ac 25 3a be 9a ea 7c 38
       -0.1410301 -0.18122827 -0.18178433 6.029997e-05

edge_encoder.3.weight f4 [16]
000000 a5 db 7e 3f 77 20 80 3f 3a be 7e 3f c1 5a 84 3f
       0.995539 1.0009907 0.9950901 1.0340196
000010 ab c9 7e 3f 8b 7f 78 3f ec 92 7e 3f d9 39 83 3f
       0.9952647 0.97069615 0.99442935 1.0252029
000020 aa 8a 7b 3f 54 b5 7d 3f b0 d4 7e 3f 7c e3 80 3f
       0.9825846 0.9910481 0.99543285 1.0069423
000030 d8 0e 7c 3f c5 b5 7e 3f 88 63 83 3f 8d fb 7d 3f
       0.9846015 0.9949611 1.026475 0.9921196

edge_encoder.3.bias f4 [16]
000000 ad 27 84 3b ff a5 c0 3b 71 c6 a0 bb d5 40 bf bb
       0.00403305 0.0058791633 -0.0049064686 -0.005836586
000010 ef 1f 13 bc 7a 25 d6 bc 03 65 09 3c 61 69 81 bb
       -0.0089797815 -0.026140917 0.0083858995 -0.0039493297
000020 ee 09 9e bc 26 ca b2 bb a9 2e f0 3b d2 6c 0a 3c
       -0.019291844 -0.005456227 0.007329781 0.008448796
000030 78 fc 89 3c 71 ad d3 bb 71 ef 87 3c 9f fc e6 3b
       0.01684402 -0.006459885 0.016593667 0.0070491577

node_model.0.weight f4 [16, 48]
000000 7a 87 c1 3d 5c 09 01 be ce 23 a5 bd 79 47 9a bd
       0.09449668 -0.12601227 -0.0806347 -0.075331636
000010 88 fd b9 3d 0c b9 c8 bd 02 d8 b7 3d 03 2a 27 bd
       0.090815604 -0.0980092 0.08976747 -0.04081155
000020 08 e7 18 3e 1a 33 ef 3d ea fe 83 3d 73 4f c2 3c
       0.14931881 0.11679669 0.064451054 0.023719525
000030 6a 55 dc bd 39 da be 3c ce 25 ef 3d 45 9f 8a bc
       -0.10758479 0.023297416 0.116771325 -0.016921649
000040 c3 80 04 bd 79 c5 ab bd 09 6b 89 bd ac 3f ff bd
       -0.03234936 -0.08387274 -0.067098685 -0.12463316
000050 24 6d 76 bd 1c 05 ac bd 49 92 f8 bc 3a f5 d0 bd
       -0.06016268 -0.08399412 -0.030343192 -0.10203023
000060 64 f6 ed 3d a3 80 10 3e 9a dc 19 be e5 0c 92 3d
       0.11619261 0.14111571 -0.15025559 0.07131366
000070 52 d6 16 bd 01 dd 2d 3e 0d 44 b9 bd bd fd 00 3c
       -0.036825486 0.16978838 -0.09046183 0.007872996
000080 69 82 15 3e d4 00 9e 3d 65 a1 1f be 89 ba ea bd
       0.14600529 0.07715002 -0.15588911 -0.1146136
000090 50 0d 82 bd 0c 2c 44 3c bb 12 1c be ff f1 a0 3d
       -0.063501954 0.011973392 -0.1524152 0.07858657
0000a0 1f e9 f5 3d ff 1b fc bd f5 24 aa 3d a6 72 51 bd
       0.12007355 -0.12310027 0.0830783 -0.051134728
0000b0 9b 62 fa 3c b2 96 0e 3e af ca ec 3c 6e ac e9 3d
       0.030564597 0.13924673 0.02890524 0.114098415
0000c0 4e cb cc bd a1 01 12 3e a8 8e 96 bd 16 bb ec 3d
       -0.09999715 0.14258434 -0.07351428 0.11559121
0000d0 34 46 b3 3d 5f 65 cd 3d 0a e1 d2 bd 73 b1 ae bd
       0.087536246 0.100291006 -0.10296829 -0.085299395
0000e0 40 61 93 bb ad 38 6d bd f9 d3 67 bd f7 76 97 bd
       -0.004497677 -0.05791538 -0.056598637 -0.073957376
0000f0 6b 95 1a 3e 58 a0 c1 bd 66 df f1 3c ce 38 9d 3c
       0.15096061 -0.09454411 0.02952547 0.019192126
000100 5e 4f 16 be 79 82 02 be 4f 03 b9 bc 18 e8 09 be
       -0.14678714 -0.12745084 -0.022584585 -0.13467443
000110 cf 93 7f bc 12 d8 ad bc f1 9b 16 3d 90 cb 62 3d
       -0.015599205 -0.021221194 0.03676981 0.055369914
000120 b7 d6 cc 3d eb 26 ce bd 1b ac 18 3e 73 93 2e be
       0.10001891 -0.10066017 0.14909403 -0.17048435
000130 0b 8f bd bd 60 0c 81 bd 9b f6 90 3d a9 b7 d4 bc
       -0.09255799 -0.063011885 0.07078286 -0.025966482
000140 04 59 0e be 7c 37 ca bb c9 fb cf 3d e3 20 fb 3d
       -0.13901144 -0.006171165 0.10155446 0.12262132
000150 be b2 35 bd 4f a4 ec 3d a0 7d ba bd 3e 12 2e 3d
       -0.044359915 0.11554777 -0.09105992 0.042497866
000160 61 79 df bd f8 3b 00 bd 81 7e dc 3d 0a 37 89 3d
       -0.10911823 -0.03130719 0.10766316 0.06699951
000170 c2 86 21 bd 67 8d 14 bd ed 41 9a bb 3d 26 86 3d
       -0.039435156 -0.036267664 -0.004707566 0.06550262
000180 68 8d de 3d df 30 31 bd e9 49 5c 3c 76 e7 3d bd
       0.10866815 -0.043259498 0.013445356 -0.046363316
000190 51 47 7e bd 78 c2 4c bd 74 56 49 3d 1d 63 99 bd
       -0.06207973 -0.049990147 0.049154714 -0.074896075
0001a0 7e cb f3 3d 61 90 78 bc 58 54 c6 bd 69 99 90 3d
       0.119040474 -0.015171141 -0.09684056 0.07060511
0001b0 0e 22 8e bd 01 88 24 be 67 ce 28 3d 75 db d6 bd
       -0.06940089 -0.16067506 0.041212466 -0.10491077
0001c0 88 1b 0c be 40 4a 07 be 06 75 9a bd 69 cf 41 3d
       -0.13682377 -0.13211918 -0.07541852 0.047316942
0001d0 7b c3 fa bd c8 6b 4a 3d af 5f ba 3d 7d dd 95 bd
       -0.12244316 0.049419194 0.091002814 -0.07317636
0001e0 b6 c0 8b 3d 83 24 08 3e 57 35 00 3e 34 3c d5 bd
       0.06823866 0.13295178 0.12520348 -0.104118735
0001f0 d0 fe c9 bc e4 52 77 3d 2f 7a 47 3d bd bd fa bc
       -0.024657637 0.060381785 0.048700508 -0.030608052
000200 02 c5 93 3c ee f1 96 bc 6c 8e f1 bd e4 eb 75 bd
       0.018038277 -0.018425908 -0.11794743 -0.060039416
000210 92 16 95 3d 84 5f d0 bd 2a 7a e4 3c 26 00 1b 3e
       0.072796956 -0.10174468 0.027890284 0.15136775
000220 62 52 a1 bd 71 2f 6c bc 01 7a 3b 3d b7 7d 1b 3e
       -0.078770414 -0.014415608 0.04577065 0.15184675
000230 8e e4 e5 bd fc 32 e7 bd 70 5f 68 bc 5a 08 ae 3c
       -0.11225234 -0.112890214 -0.01418291 0.021244217
000240 0b ba 21 bd 57 8c bc 3d 64 81 08 be 68 25 0c be
       -0.039484065 0.09206455 -0.13330609 -0.13686144
000250 1c fe 00 be d9 f6 ec bd 3d 99 d5 3d 58 81 07 3e
       -0.12596935 -0.1157052 0.104296185 0.13232934
000260 4c 23 c1 bd 95 48 13 3d cf a3 ba bd 54 f3 0d 3d
       -0.094305605 0.03595789 -0.09113275 0.034655884
000270 35 1e 23 bd bd 8e ad bd 77 fc 11 3e d8 ed 3e bd
       -0.03982373 -0.08474491 0.14256464 -0.046613544
000280 eb 28 8e 3d a3 73 00 bb 6a 02 8d bd 39 56 af bd
       0.06941398 -0.0019600175 -0.06885226 -0.085613675
000290 31 20 87 bd 7f f6 8a bd be 83 da 3d b7 bd d6 bd
       -0.06597937 -0.06785297 0.10669659 -0.10485404
0002a0 12 4e da bd 88 3a d4 bd 50 47 31 3d 18 4f 83 3d
       -0.10659422 -0.103627264 0.0432809 0.0641157
0002b0 e1 c3 54 3d a2 89 15 bb 07 12 0c 3e fc 08 7f bd
       0.051944617 -0.0022817631 0.13678752 -0.062264428
0002c0 63 5f b1 bd b8 06 22 ba 6c d7 19 3d 06 b7 a7 3d
       -0.08660772 -0.0006180811 0.037558958 0.08189206
0002d0 b7 c0 0e bd 50 53 a4 bd f6 54 75 bd 40 13 6d bd
       -0.034851756 -0.08023703 -0.05989548 -0.057879686
0002e0 5f e7 f9 3d 5b e3 0b 3e 63 c7 73 bd 76 e8 82 bc
       0.12202334 0.13660948 -0.059516322 -0.015979987
0002f0 18 0a 8d 3d 5d 88 06 3e 20 58 82 3c b3 0c 33 b9
       0.06886691 0.13137956 0.015911162 -0.00017075501
000300 7a a4 42 bd 60 ab f2 3d 32 64 c1 bd 34 a6 10 bd
       -0.04752014 0.118490934 -0.09442939 -0.035314754
000310 32 8d ac bd 98 da 95 bc 1d de e0 bd 73 5b db bd
       -0.08425368 -0.01829271 -0.10979865 -0.10710802
000320 be 62 a8 bd 77 58 23 3d 31 35 c3 bd a5 6c 8b bd
       -0.082219586 0.03987929 -0.0953163 -0.06807832
000330 73 43 90 bb b8 a2 50 3d 57 03 18 be f5 27 8a bd
       -0.004402572 0.05093643 -0.14845024 -0.067459024
000340 20 e8 90 bd 4c 4f 8d 3d a9 f2 81 3c c1 46 f5 bb
       -0.07075524 0.0689989 0.01586278 -0.007485241
000350 ff 59 f3 bd 8e 4e 93 bd eb 43 08 3d 2f d0 0f be
       -0.118824 -0.071927175 0.033267897 -0.1404426
000360 e3 60 13 bd 0b da e9 bd b6 d5 42 3d 9d dd e5 bb
       -0.03598107 -0.114185415 0.047567092 -0.0070149438
000370 c3 7e b7 bd e4 4c 5c bd ca fe 11 3e a8 a3 04 be
       -0.08959725 -0.053784266 0.1425735 -0.12953055
000380 2d 1f 07 bd f0 ab 85 bd 43 cd 89 bd 55 31 27 be
       -0.032988716 -0.06526935 -0.06728604 -0.16327412
000390 41 46 00 be f8 0b 80 bd 76 4b 2b be c2 0e bb bc
       -0.125268 -0.06252283 -0.16728005 -0.022834186
0003a0 79 64 f2 bd b8 62 2c 3d 12 1d fb 3c 08 79 bb bd
       -0.1183557 0.042086333 0.03065351 -0.09153944
0003b0 89 bc e0 3c e6 6d de bd c7 0d 15 3d b9 e4 a4 3d
       0.02743365 -0.10860805 0.036390092 0.08051438
0003c0 6a f0 0e 3d 0d 9d de bd 10 60 d1 bd 74 4f 02 3e
       0.034897245 -0.10869799 -0.102234006 0.12725621
0003d0 a1 bd e8 3c e3 54 e6 3d ef f2 90 bb 01 2f 0d 3d
       0.028410735 0.112466596 -0.004423491 0.034468655
0003e0 90 df 80 bd 4e ba 9c bd ac 1a 04 be f7 01 d9 bc
       -0.06292641 -0.07652722 -0.129008 -0.026490195
0003f0 10 e9 1e bd c3 42 16 3e b5 d0 78 bd d1 f5 ca bd
       -0.038796484 0.14673905 -0.060745914 -0.09910167

node_model.0.bias f4 [16]
000000 fc 36 95 ba b9 2f 04 3d a6 ac 1f 3d c5 4d 08 3e
       -0.0011384184 0.032272074 0.03898301 0.13310917
000010 54 8c 9b bd 78 b2 d5 bd 8b 29 16 3e 5c 8b 23 3e
       -0.07595125 -0.10434431 0.14664285 0.1597113
000020 a7 d3 63 bd b3 c0 c9 bb ac 77 0a be 0d bb d3 bd
       -0.05562177 -0.0061570047 -0.13522214 -0.103384115
000030 b5 e8 f4 3d ea 5d 97 3d 5c 34 b2 3d e0 48 4c 3b
       0.11958448 0.073909596 0.08701393 0.0031171367

node_model.2.weight f4 [16, 16]
000000 78 ce 0b 3e 9f 35 c1 3c a0 e5 db 3c 1c b7 34 3c
       0.1365298 0.023585139 0.026842892 0.011029985
000010 e1 10 9c be 26 c0 25 3e d1 94 19 bd 1b 64 8d bd
       -0.30481628 0.1618658 -0.037495438 -0.06903859
000020 19 5b 42 be c7 7c ea 3d 99 b8 2e be 29 ef 73 3e
       -0.18980063 0.11449581 -0.17062606 0.23821701
000030 5e 85 2d bd 31 bc 20 bd dd b6 c0 3d 6e 78 7a 3e
       -0.042363517 -0.039241973 0.094098784 0.24460003
000040 01 21 2d be d3 fb 61 3d 3a 51 3c be e9 08 91 3d
       -0.16907121 0.0551718 -0.1839036 0.070817776
000050 c5 17 3c be ed 52 2c be 65 c1 0a 3e 12 16 0e be
       -0.18368442 -0.16828509 0.13550337 -0.13875607
000060 c8 1a e4 bd ba 20 7b 3d 30 aa 85 bd 9d 15 0c 3e
       -0.111379206 0.061310507 -0.06526601 0.1368012
000070 de 12 65 be 10 d7 09 be f9 f9 43 3c b7 fb 4a be
       -0.22370479 -0.13460946 0.011961454 -0.19822584
000080 e7 6e 8b bd 40 a1 e0 bd 41 44 50 3e d2 11 04 3d
       -0.06808262 -0.10968256 0.20338537 0.032243557
000090 de df 47 3d 52 23 69 be db 8c 6a 3d fd 81 d7 bd
       0.04879748 -0.2276738 0.057263236 -0.1052284
0000a0 ee a5 43 be 09 96 d6 3c bb c0 01 3e 00 43 b8 bd
       -0.19106266 0.02619459 0.12671177 -0.08997154
0000b0 95 4f a6 3c 0d 86 25 bd 43 a9 23 be 5d f3 ee 3d
       0.02030162 -0.040411044 -0.15982537 0.116675116
0000c0 65 fb 94 be 09 97 3c 3e 41 75 23 3e 98 50 05 be
       -0.2909805 0.1841699 0.15962698 -0.13019025
0000d0 5d 6f 8f bd 28 9c e5 bb 4b 76 23 3d 5e 1f 15 3d
       -0.07003663 -0.0070071407 0.039907735 0.036406867
0000e0 50 b9 8d bd 78 14 17 bc 7c 80 d1 3d d0 c0 35 be
       -0.06920111 -0.009221189 0.102295846 -0.17749333
0000f0 0b fc 22 3e 80 b5 0b be 3e a0 e2 bd ca a0 22 be
       0.1591646 -0.13643456 -0.1106572 -0.15881649
000100 f5 c6 a8 bd 6e 26 4a bd ae 62 11 bd a5 3b 50 3e
       -0.08241073 -0.049353056 -0.0354945 0.20335253
000110 dc a7 80 3d 8e 91 5b 3e 5b c7 f7 bc db 3e 97 be
       0.06282017 0.21442243 -0.030246427 -0.29540142
000120 51 f4 51 be 14 bf 49 be 44 74 de 3d ce 86 33 3e
       -0.20503356 -0.19701797 0.1086202 0.17531893
000130 da 27 e3 bd da 71 55 be d8 a4 df bd 5d 61 8e 3d
       -0.110915855 -0.20844212 -0.10920113 0.06952164
000140 bc 7e 80 bd fd e5 43 be 55 b8 37 be 6c f6 d3 bd
       -0.06274173 -0.19130702 -0.17941411 -0.103497356
000150 6b ab ab 3d c6 a5 05 be cf 0b 01 3e bd 89 26 3d
       0.08382305 -0.13051519 0.12602161 0.0406587
000160 9a 4d 27 3d 15 99 8a be 01 5e 52 bc 63 ff ae 3d
       0.04084549 -0.27069917 -0.012839795 0.08544805
000170 d6 16 0e 3e 3f 75 2f 3e b1 41 8b bd 7c 62 bf bd
       0.13875899 0.1713457 -0.06799639 -0.09344956
000180 39 01 78 3c f7 dd 5c 3c d3 4a 50 3e 55 9f 15 be
       0.01513701 0.013480655 0.20341043 -0.14611562
000190 1f 70 de bc 36 1d c4 3d 2d 87 8a bc e3 24 90 bd
       -0.027153073 0.09575884 -0.01691016 -0.070382856
0001a0 a7 63 16 3e cb 67 44 be 10 57 0b 3e 35 df 82 3e
       0.14686452 -0.19180219 0.1360743 0.25560918
0001b0 34 d0 22 be 5c 85 74 3c d4 64 3f be a8 58 33 3e
       -0.15899736 0.0149243735 -0.18690807 0.17514288
0001c0 4e bd 25 be e1 16 e8 3d 0e a2 67 3c bc a2 94 bd
       -0.16185495 0.11332489 0.014137758 -0.072576016
0001d0 56 b7 0b 3d 0b 74 79 be 1d dc 50 3d 8b cf df 3d
       0.03411039 -0.24360673 0.050991166 0.109282576
0001e0 46 82 e2 bd 76 00 f9 bd 2e 0b 43 3e db 7c 1e be
       -0.11060004 -0.12158291 0.19047233 -0.15477316
0001f0 1d c7 73 3b bb 96 86 3d d9 ca 43 3d 97 aa f9 3d
       0.0037197538 0.06571718 0.047800872 0.121907406
000200 e8 c0 1f 3d b2 4e 68 be 71 63 43 be 71 92 67 3d
       0.03900233 -0.2268627 -0.19080903 0.05653614
000210 36 98 44 3e 3e ca c8 bd ed 56 0b be 18 c6 87 bc
       0.19198689 -0.098042 -0.13607378 -0.01657395
000220 61 d9 bd bd 2a cc 5f 3e 64 3f 1a 3d 11 cc 09 bd
       -0.09269977 0.21855226 0.03765811 -0.03364188
000230 52 21 87 3d 8e b3 3f 3e 85 80 65 be 19 7f 2a 3e
       0.06598152 0.18720838 -0.22412308 0.16650046
000240 b6 5f f6 3d 66 b9 74 be 64 0f 1d 3e 08 f4 01 3e
       0.12029974 -0.23898849 0.15337902 0.12690747
000250 03 14 45 bd d4 8e 3c bd af 67 25 3e 52 3a 5e be
       -0.048114788 -0.04603465 0.16152833 -0.21701935
000260 70 19 73 3d 7a 19 9d bd 2b 53 8a 3d b8 62 d0 bd
       0.05935043 -0.07670875 0.06754144 -0.10175079
000270 36 ec 6e 3e d3 20 92 bd 03 09 3c 3e bf 86 4f 3e
       0.23332295 -0.07135167 0.18362813 0.20266245
000280 e6 76 21 be 48 40 c6 3d 91 d8 12 3e 38 e3 15 bc
       -0.15768012 0.096802294 0.14340426 -0.009148411
000290 e9 cd 66 3c e2 54 b2 3d a5 e5 35 3e 08 42 80 be
       0.014087179 0.08707596 0.17763384 -0.25050378
0002a0 26 d9 2f be 72 56 32 bd 69 80 ba bd d3 50 aa 3a
       -0.1717268 -0.043539472 -0.091065235 0.0012994058
0002b0 83 49 4a 3e ac 37 01 3e 07 9a bd 3d a1 f4 1d 3c
       0.19754605 0.12618893 0.09257894 0.009640844
0002c0 73 6b 65 be ab 31 90 3c c2 e1 eb 3c fd be 07 be
       -0.2240427 0.017601809 0.028794173 -0.1325645
0002d0 5a 9f da 3d 51 af 67 3e c8 0e 69 be cc 5a 47 3e
       0.10674925 0.22625472 -0.22759545 0.1946823
0002e0 d2 90 81 3e b7 41 31 bd d3 96 4e 3b 5e 05 83 be
       0.25305802 -0.04327556 0.0031523004 -0.25590032
0002f0 b6 89 12 be 9e 37 9b bd 5e 6c ca 3c c9 de 05 3d
       -0.14310345 -0.075789675 0.024709877 0.032683168
000300 06 b7 9f ba 3d 64 01 bd 83 b5 35 be 15 2b 9c bd
       -0.0012185283 -0.031589735 -0.17745022 -0.07625405
000310 35 9d 7b 3c 7c f8 7a 3e dd d5 57 3d 30 56 01 3d
       0.015357305 0.24508852 0.05269419 0.031576335
000320 ab b9 c3 bd 87 43 bd bd b6 54 4b 3d 1c a2 13 be
       -0.09556898 -0.092413954 0.049641334 -0.14417309
000330 85 ea aa 3d 35 f2 06 be e9 c0 d6 bd 1d 0c 4e 3e
       0.08345512 -0.13178332 -0.104860134 0.20121808
000340 cf 9d ac 3d ab de 14 be 01 d1 1e be 40 00 4e 3b
       0.08428537 -0.14538066 -0.15509416 0.0031433254
000350 f0 d4 e6 3d 77 66 12 3e d5 f7 00 3e fb f2 0d 3c
       0.11271083 0.142969 0.1259454 0.008663888
000360 d9 43 62 3e d0 92 57 be 38 5d b6 3e 6c f4 43 be
       0.22096194 -0.21052098 0.35617995 -0.19136208
000370 1b 5a 5a 3c 41 05 44 be 1a 07 5b 3e 63 dc 04 3e
       0.013327147 -0.19142629 0.21389428 0.12974696
000380 94 e1 2b be 17 af 90 3d 02 e7 26 3b 2f f7 4e 3e
       -0.1678527 0.07064646 0.0025467281 0.2021148
000390 15 b8 7d be 59 8e 9b 3d 9c 85 16 3e 5d 67 68 be
       -0.24777253 0.0759551 0.14699405 -0.2269568
0003a0 b9 6b bc 3d c2 6c ce 3d 7d 52 86 be f5 17 7a 3e
       0.09200234 0.10079338 -0.2623481 0.24423201
0003b0 97 06 1d be 70 04 82 3e 9c 98 ba 3c 3b 4f 56 3e
       -0.15334545 0.2539401 0.022777848 0.20928662
0003c0 64 5f 5a 3e 66 ea 5a be 91 8a 4e 3e e2 da 86 bd
       0.21325451 -0.21378478 0.20170046 -0.06584717
0003d0 d8 1e 3a 3a 28 a3 d3 3d a9 7c ca 3d 75 a9 87 bd
       0.0007099933 0.10333854 0.09887058 -0.06624118
0003e0 b8 df f5 3c d3 5b fd 3d d9 de 74 3e 19 31 3a be
       0.030013904 0.1237103 0.23913135 -0.18182792
0003f0 00 4e 37 be b1 33 83 be a2 50 fe 3d 62 9a dc bc
       -0.17900848 -0.25625375 0.12417723 -0.026929084

node_model.2.bias f4 [16]
000000 0e a2 45 bd d1 d3 03 3e 08 56 82 bb e0 c2 a4 3d
       -0.04825025 0.1287377 -0.003977541 0.08044982
000010 21 75 57 3e a5 c1 0f be 0a 44 00 be 6f 6a 68 be
       0.21040775 -0.14038713 -0.12525955 -0.22696851
000020 e7 c5 a7 bd c9 90 0a 3d e7 57 66 bc c1 02 c0 3d
       -0.08192044 0.033829484 -0.0140590435 0.09375525
000030 55 23 3f 3d e6 41 10 bd cb 7f 2d be 56 71 78 3d
       0.046664555 -0.035219096 -0.1694328 0.06065496

node_model.3.weight f4 [16]
000000 30 af 93 3f ff c8 96 3f 75 d0 87 3f c7 3e 88 3f
       1.1537838 1.1780089 1.0610491 1.0644158
000010 48 00 a8 3f d6 5d a1 3f a5 9d 96 3f 9b 1f 84 3f
       1.3125086 1.2606761 1.1766859 1.0322145
000020 03 ce 90 3f c5 b6 8f 3f b4 24 98 3f 8a d3 9c 3f
       1.131287 1.1227652 1.1886201 1.2252057
000030 b2 1b 7d 3f b5 e4 88 3f 95 a4 92 3f b1 f4 86 3f
       0.98870385 1.0694796 1.1456476 1.0543424

node_model.3.bias f4 [16]
000000 f4 3c 4c be 9c 78 0c 3e 15 3f f0 3d 30 46 d9 3d
       -0.19945127 0.13717884 0.11730782 0.1060909
000010 b5 c0 35 3e 6d 30 03 be 17 81 17 be 9a 52 51 bd
       0.17749293 -0.12811442 -0.14795338 -0.051104166
000020 d9 ea e2 bd 90 f2 29 3e 5d 96 06 3e 0a 68 2d be
       -0.1107995 0.16596437 0.13143297 -0.16934219
000030 8c 2e 3c 3c 27 97 98 3d 99 5c f9 3d 4c 96 0e be
       0.011485707 0.07450705 0.12175865 -0.13924521

edge_model.0.weight f4 [16, 96]
000000 f9 e0 a6 3d 96 1b e9 bc a2 fc b5 bd 53 ff 9f 3d
       0.08148379 -0.028455537 -0.088860765 0.07812371
000010 97 98 a5 bd e2 b2 51 3d d1 37 48 3d 2d 64 9f bd
       -0.08085745 0.051195987 0.048881356 -0.07782779
000020 53 98 96 3d bb 3a 96 bd 0e df 27 3c c6 0d d6 3d
       0.07353272 -0.07335421 0.0102460515 0.10451846
000030 d5 c5 b9 3d 6f 18 49 3d 51 c2 81 bd 3c 91 ac bd
       0.090709366 0.049095567 -0.06335891 -0.08426139
000040 4a b2 06 3d 15 c1 0f 3d 81 9a 59 bd 94 00 dc 3d
       0.032884873 0.035096247 -0.053125862 0.10742298
000050 9c 32 d3 bd 2b b6 95 3d 27 f6 81 bc 04 73 cf 3d
       -0.10312387 0.073101364 -0.015864445 0.10129359
000060 f9 8b 48 3c e8 af 05 3d b6 67 f2 3c 87 8f 27 3d
       0.012240403 0.03263846 0.029590469 0.040908363
000070 16 4f c2 3c 74 ee ef 3c e6 c2 b0 3d ee 9f 92 3d
       0.023719352 0.029288508 0.08630924 0.071594104
000080 69 fc a0 bc af c6 9c 3d 2e d4 bc bd 8e de a8 3d
       -0.019651609 0.076550834 -0.092201576 0.08245574
000090 13 f3 bc 3d 08 89 67 bd 9a 81 e4 3c 8d 1b 5f 3d
       0.0922605 -0.056527168 0.02789383 0.054469634
0000a0 41 0b d9 bd 5b c6 01 3d 24 7f b0 3d e7 c6 b4 bd
       -0.1059785 0.031683307 0.08618 -0.08827
0000b0 b0 f4 f2 3c 4c bc ab 3d 06 e2 00 3d e3 5c bb 3c
       0.029657692 0.08385524 0.031465553 0.02287144
0000c0 ac db 15 be 6c 82 38 3b 84 ec 95 bd 9c cb f5 3b
       -0.1463458 0.002815391 -0.073205024 0.007501079
0000d0 e9 05 a3 bc ad a7 f9 3d 9c 63 0a bd 09 f5 97 bd
       -0.01990028 0.12190185 -0.0337864 -0.074197836
0000e0 24 b5 8c 3c 99 01 80 bd 0c 67 ec bc 45 11 4c 3d
       0.017176218 -0.06250305 -0.02885773 0.049821157
0000f0 18 e4 7e 3d bd 39 8d 3d 69 70 a9 3b a5 3d 74 3d
       0.062229246 0.06895778 0.005170871 0.0596291
000100 ee 95 06 3d b0 ff 83 bc 52 62 bd bc 99 7b 81 3d
       0.032857828 -0.016113132 -0.023118172 0.063224025
000110 49 9c 2a 3d 13 a6 95 3d 37 44 ae bd 29 e4 7e bd
       0.04165295 0.07307067 -0.08509105 -0.06222931
000120 44 47 9b 3d a3 9a b4 bd 2d 14 2d bd a6 7e eb bc
       0.07581952 -0.08818557 -0.04225557 -0.028746914
000130 15 9e 2d 3d ee 1b b3 3d f9 36 c5 bd 00 fc fe bc
       0.042387087 0.087455615 -0.09629626 -0.031126022
000140 71 c6 7d bc 84 f4 b5 bd d3 dd 70 bd 43 21 a4 bd
       -0.015489207 -0.08884528 -0.058805298 -0.08014157
000150 9c 57 c4 bc 5f 08 4b bd 93 2c 52 3d 0a b0 1a bd
       -0.023967557 -0.04956853 0.05131204 -0.03776554
000160 ff 67 02 be f2 c4 83 3d e7 7d 8f bc 8b bc 87 bc
       -0.12734984 0.06434049 -0.01751609 -0.016569396
000170 c8 6c a8 bd d8 0a 32 b7 ef 8f 65 3d b5 2e 41 bc
       -0.082238734 -1.06121515e-05 0.05604547 -0.011790921
000180 db 53 46 3d 0f 72 e1 3c aa 46 ac bc 9d 89 9b 3d
       0.048419815 0.027520208 -0.021029789 0.07594607
000190 fd 98 2d bd f4 17 b1 3d c7 92 7d 3d 42 47 91 bd
       -0.04238223 0.08647147 0.061907556 -0.070936695
0001a0 a6 c2 73 3d 0e 95 ab 3d 43 a1 c1 3c f7 d1 49 bd
       0.059511803 0.08378039 0.023636466 -0.049272504
0001b0 db da c6 bd 84 d6 ab 3d 4a b7 32 bd 16 50 be bd
       -0.09709712 0.08390525 -0.04363183 -0.09292619
0001c0 8c a8 97 bd f9 3a 42 bc 40 ab 84 bd f4 dc 8e 3d
       -0.07405195 -0.0118548805 -0.06477976 0.06975737
0001d0 7a 41 b2 3d 1c 62 08 3c ad 1d 89 bc 23 4b 8e 3b
       0.08703895 0.008324172 -0.016737783 0.004342453
0001e0 97 94 e7 3c 51 a0 87 3d 7a 2a 44 bd 6c e1 80 bd
       0.028269095 0.06622375 -0.04789207 -0.06292996
0001f0 e3 02 ba bd 85 e0 c7 bd 68 65 b7 bd 8a dc ce bb
       -0.09082582 -0.097596206 -0.089548886 -0.0063129114
000200 85 92 c9 3a 19 10 9d 3d ee e5 22 3d 3d 8b ea bc
       0.0015378749 0.07669086 0.03977006 -0.028630847
000210 48 f7 d7 bd ff 08 9a bd b4 30 a0 3d 20 d3 2d 3d
       -0.10545212 -0.07521247 0.078217894 0.042437673
000220 00 a6 35 bd 99 f8 db 3d 75 89 b8 3d 7b 58 95 bc
       -0.044347763 0.107407756 0.09010593 -0.018230667
000230 67 1c 73 bc 16 81 de 3d 67 21 8a bd 81 5c 49 3d
       -0.014838315 0.10864465 -0.06744652 0.049160484
000240 97 7c bc bd 0b 72 a7 bd 78 f8 c5 3d 8c 83 a4 bd
       -0.09203451 -0.08176049 0.09666532 -0.08032903
000250 c3 15 a9 bd 16 ac 93 3c 5f 35 d1 bc 56 1f 40 bc
       -0.08256104 0.018026393 -0.025538145 -0.011726221
000260 3b ce 53 bd ad 4e 80 bc 07 d1 ac 3d 08 42 5c bd
       -0.05171035 -0.015662516 0.08438306 -0.05377391
000270 d8 8e 45 3c b7 e7 b8 bd 7d 7e c7 bd a4 a6 49 3d
       0.012057982 -0.09028571 -0.097409226 0.049231187
000280 d1 75 1c 3d 6f 82 79 3d 9a c9 cd bc fe cd 12 3c
       0.038198296 0.060915407 -0.025120545 0.008960245
000290 69 e6 a1 bd 09 02 14 3d 98 bb 11 bc a2 9d 20 3d
       -0.079052754 0.036134753 -0.0088948235 0.03921283
0002a0 bd 26 d1 bd e0 c7 8d 3d 00 5d 4b bd c3 a8 ba bd
       -0.10212467 0.06922889 -0.04964924 -0.0911422
0002b0 65 b0 5b bd 0f 29 a5 3d 95 9e e0 bd cd e3 1b bd
       -0.05363502 0.08064472 -0.10967747 -0.038059045
0002c0 19 b0 35 bd e1 78 0c bd 97 a2 ab 3d 65 03 1b 3d
       -0.044357393 -0.034294967 0.08380621 0.037845034
0002d0 99 0b bc bd 8a 8e 98 3d 98 1e 2b 3c fd 1e 90 3c
       -0.091818996 0.07449062 0.010444306 0.017592901
0002e0 bf 63 73 3d 21 ab e3 3c 52 1e a5 3d ce 66 8d bc
       0.059421297 0.027791562 0.08062424 -0.017260935
0002f0 a1 7e 20 bd 6b f0 86 bd 66 06 e3 bc 41 72 85 bd
       -0.039183263 -0.06588825 -0.027713012 -0.06515933
000300 c4 a5 aa bd c8 44 cd 3c 72 87 e0 3d 35 f2 b3 3c
       -0.083323985 0.025057212 0.10963334 0.02196608
000310 01 37 8e bd 24 35 98 bd be 11 c4 bd d2 bb 03 bc
       -0.06944085 -0.07432011 -0.095736966 -0.008040385
000320 d8 99 2a bc 5c 21 9c bb c3 dc da 3c 31 b9 9f bd
       -0.010412656 -0.004764719 0.026716596 -0.07798994
000330 b9 6d 16 bd 6b 64 13 bb 0d 14 a0 bc 0b 5a 33 3d
       -0.036725733 -0.0022490274 -0.019540811 0.043787044
000340 37 57 ad bd cf 3e 8e bd 61 ed b6 bd 60 2c bd bd
       -0.084639005 -0.069455735 -0.08931995 -0.092369795
000350 48 4b a9 3d ea 35 94 3d aa 01 a4 bd ee 59 94 bc
       0.08266312 0.07236846 -0.0800813 -0.018109288
000360 f3 90 38 bc 37 16 32 3c de da 26 3d df 27 e7 38
       -0.011265027 0.010869554 0.04073607 0.00011022365
000370 67 04 03 bd fc 8f d9 bc 71 3a e2 bc 0f c0 03 bb
       -0.03198662 -0.026557915 -0.027615758 -0.002010349
000380 90 47 1a bd c8 55 57 bd 0a 0e 98 3d 96 9a e6 bb
       -0.037665904 -0.05257204 0.07424553 -0.007037471
000390 d6 8a 39 bd fd 17 c9 3d 37 c4 0e 3d 1e 93 5b 3d
       -0.04529842 0.098190285 0.034855094 0.0536071
0003a0 e0 72 81 bd ea dc 31 bc 33 44 98 3d 55 a5 09 3c
       -0.06320739 -0.010855893 0.07434883 0.008401235
0003b0 7f bb cd bc c0 66 23 3d 83 d1 46 3d c4 7c a2 bd
       -0.02511382 0.039892912 0.04853965 -0.079339534
0003c0 be 4b 4f 3d 71 c2 b7 bd a5 00 cd 3d 36 ab b4 3c
       0.050609343 -0.08972634 0.100098886 0.022054296
0003d0 78 80 9c bc c8 25 bb 3d 9c 46 a6 3c 7e f6 c1 bd
       -0.019104227 0.091380656 0.020297341 -0.09470843
0003e0 82 e8 9c 3d ea b8 78 bd 8a 78 af bd 8b 13 ce 3c
       0.07661535 -0.060723223 -0.08567913 0.025155803
0003f0 f2 79 7d 3d 28 49 a8 3b 78 c6 46 3d 5d ce b0 bd
       0.061883874 0.005135674 0.04852912 -0.08633111

edge_model.0.bias f4 [16]
000000 7b 51 b0 3c c9 0e 9d 3c ba e9 5a 3d 9c 9a 99 3d
       0.021523228 0.01917209 0.053445555 0.075001925
000010 93 d9 7d 3d 53 f3 7e bd 19 37 86 3d 63 ee 67 bd
       0.061975073 -0.06224377 0.06553478 -0.056623828
000020 45 8d 02 bd 17 71 e3 3c 64 60 a3 3d 46 10 e9 3c
       -0.031873006 0.027763886 0.079773694 0.028450143
000030 0a 00 43 3c 31 60 ed bc 62 dd 21 bd 45 89 87 bc
       0.011901865 -0.028976532 -0.039517768 -0.016544947
