tmp/tmp6model300.pt (torch, 23679 bytes, 25 tensors)

node_encoder.0.weight f4 [16, 5]
000000 76 d6 6d 3d e0 a2 8c 3d 00 9c db 3e 20 e3 c5 3d
       0.058065854 0.068670034 0.42892456 0.09662461
000010 e0 06 73 be 5f 01 8c bd 61 96 28 3e 7a be 4c 3e
       -0.23733091 -0.06836199 0.16463615 0.19994536
000020 e0 36 5c 3d ce 52 98 be f6 a6 18 be f8 21 01 bd
       0.05376327 -0.29750675 -0.1490744 -0.031526536
000030 30 13 f4 3d c0 99 76 3e b5 a6 82 be b0 98 6e 3e
       0.11917722 0.24082088 -0.25517812 0.23300433
000040 e2 2e 9a 3e 95 2d b7 3d d8 56 f7 bd 7c 61 8d be
       0.30113894 0.08944241 -0.12077111 -0.27613437
000050 dd 5d a2 be 81 b8 51 be d1 f8 f3 bd bc d6 98 3e
       -0.31712237 -0.20480539 -0.11912692 0.2985133
000060 d8 75 ab 3d 87 64 d2 bd ca c2 8d be d2 3f 97 3e
       0.08372086 -0.1027308 -0.27687675 0.2954088
000070 12 64 84 be de 96 97 bd b3 3e a3 3c d9 d4 db be
       -0.25857598 -0.074018225 0.019927358 -0.42935827
000080 ce 19 bb 3e d2 9b b9 be af 1d 47 3e d0 6d 34 3e
       0.36543125 -0.36251694 0.19444917 0.17620015
000090 d6 b8 20 be 9b a0 6d be 14 20 af 3e cc 86 3b be
       -0.1569551 -0.23205797 0.3420416 -0.1831314
0000a0 75 52 d1 3e ec 34 68 3c a4 09 be 3e cc 79 9f 3e
       0.40883222 0.014172774 0.3711673 0.3114761
0000b0 4f 20 0e be fe 23 75 bd d8 42 19 3c 7b 47 99 3e
       -0.13879512 -0.059848778 0.009354316 0.29937348
0000c0 98 38 0a 3d 8a 08 47 be 8e ad 06 bc cf f4 cf bc
       0.03374538 -0.19436851 -0.00822009 -0.025385289
0000d0 bd 32 cf 3e f0 e9 48 3e ce 73 98 be 24 6d 9b be
       0.40468398 0.1962049 -0.29775852 -0.30356705
0000e0 47 fb 73 be 80 2d 80 3e 18 b3 10 3d f8 f6 07 be
       -0.23826323 0.25034714 0.035327047 -0.13277805
0000f0 66 3c cf 3d ad 1a 7f 3e 63 bb 9a 3c 84 a8 34 3e
       0.10118942 0.2491252 0.018888181 0.17642409
000100 65 d7 f2 bd 56 d6 b7 3d 4b f7 95 3e d3 5a 1c be
       -0.118574895 0.08976428 0.29290232 -0.15269022
000110 5c 7e 0d be 26 27 3b be c5 93 0a 3e 6e e7 6a be
       -0.13817734 -0.18276653 0.13532932 -0.22939846
000120 b8 de d9 3e 8c 25 73 3e 27 fc c7 be e8 17 13 be
       0.42552733 0.23744792 -0.39059564 -0.14364588
000130 16 a4 d2 3e 01 7d 08 be f6 e0 d5 be 6b 5c c1 3e
       0.41140813 -0.13328935 -0.41773194 0.37765822

node_encoder.0.bias f4 [16]
000000 65 6c b7 be 75 95 01 be e0 aa fc bd 25 01 83 be
       -0.35824886 -0.1265467 -0.12337279 -0.2558681
000010 2f b6 cb 3e f0 f3 71 3e ac 95 31 be 60 1c ca bc
       0.39787433 0.23628211 -0.17342252 -0.024671733
000020 c3 10 13 be 9b 66 c4 bd bc 9c 3c 3e c0 2f 5c bd
       -0.14361863 -0.09589883 0.18419164 -0.053756475
000030 2e 5e 0e 3e 0b 26 c1 bd 91 57 ac be 88 33 e6 3e
       0.13903114 -0.09431084 -0.33660558 0.4496119

node_encoder.2.weight f4 [16, 16]
000000 31 a3 7e 3e a7 2f e6 bd 10 2e 9e bd 23 78 fd bd
       0.2486694 -0.11239558 -0.077236295 -0.1237643
000010 72 a0 09 3e 82 72 f8 3d 39 5a 96 3d cc 7e 9f bd
       0.13440111 0.12131216 0.07341427 -0.077878565
000020 a2 3f ad 3c ee 74 2e 3e 77 c2 9f 3d a4 2f 72 3e
       0.021148507 0.17036793 0.07800763 0.23650986
000030 1a d4 00 3e c2 3a 24 be a2 75 53 be 94 8a 31 3e
       0.1258091 -0.1603804 -0.20650342 0.1733802
000040 e4 4a 31 bd 94 c1 a8 bd 3a 79 06 3e ed 8b 50 bd
       -0.043284312 -0.08240047 0.13132182 -0.050914694
000050 c1 8e 25 be d9 49 eb bd df a2 18 bd f4 ef 9a bd
       -0.16167738 -0.11488695 -0.0372647 -0.07565299
000060 e2 d3 8c 3d 57 33 8d bd 44 28 7e 3e 60 7e c0 3d
       0.06876351 -0.06894558 0.24820048 0.09399104
000070 83 3b f1 bd e0 ae 07 be 36 79 1b be d6 12 2b 3e
       -0.11778929 -0.13250303 -0.15182957 0.16706404
000080 2f 64 cd bd 62 97 ba bc cc 8a 44 3e 3a be b0 bd
       -0.10028874 -0.022777263 0.19193572 -0.08630033
000090 fa e5 91 bc 59 a5 01 be 4b f4 59 3e 70 1e af 3d
       -0.017809857 -0.12660731 0.21284597 0.08550727
0000a0 2c 28 1d bd 48 fd f0 bd 0c a8 4a 3e 44 66 09 3e
       -0.03836839 -0.117670596 0.19790667 0.13417917
0000b0 b7 aa 83 3d 2d 3f fe 3d 4e 4b 67 3e e6 95 91 3d
       0.06429046 0.124143936 0.2258732 0.07108669
0000c0 d6 4e 5f be ec 99 d6 bd 90 e6 b5 bd 2a c1 75 3e
       -0.21807417 -0.10478577 -0.08881867 0.23999467
0000d0 4d 8a db 3d dd 40 07 be 05 f4 ee 3d 50 1d f5 bd
       0.10719738 -0.13208337 0.11667637 -0.119684815
0000e0 a2 8b 5e 3e 36 c6 88 bd b4 6d 99 3d b6 0c 2a 3e
       0.21732953 -0.06678431 0.07491627 0.16606411
0000f0 37 84 29 3e 9e c1 80 bd e0 2f 90 3e fb 01 b4 3c
       0.16554342 -0.062869295 0.28161526 0.0219736
000100 c2 17 f5 bc 4a 0c 80 be 40 ad 3c 3d e4 a1 25 3c
       -0.029918555 -0.25009376 0.04606366 0.0101093985
000110 64 5a fc bd 27 54 89 bd 0c 20 59 3e 58 dc 96 bd
       -0.12321928 -0.06705504 0.21203631 -0.07366246
000120 f2 71 d1 bd 13 cb 78 bd ea e6 77 bd 10 27 16 be
       -0.102268115 -0.06074054 -0.06052295 -0.14663339
000130 c9 10 5f 3e d8 87 65 3e 0d 67 f0 bd b0 72 3a be
       0.21783747 0.22415102 -0.117384054 -0.18207812
000140 b7 c4 3e 3d 23 40 94 3d 48 74 b1 bd fe 38 62 be
       0.04657432 0.072387956 -0.08664757 -0.22092053
000150 42 59 70 3e 99 e6 4a bd a8 3e 49 3e 64 d3 e9 bd
       0.23471549 -0.04953632 0.19652808 -0.11417273
000160 85 c4 4e bd 4d 0f f8 3d 3a d8 07 3d 10 4c 39 bd
       -0.050480384 0.121122934 0.033165194 -0.045238554
000170 60 53 4e bd 8e 7c 30 3e 0c c6 04 3e 98 7f 2f 3d
       -0.05037248 0.17235014 0.12966174 0.042846292
000180 fd 9c 6a 3e e6 f5 21 3d 2c 56 6f 3e 57 92 f7 bc
       0.22911449 0.039541148 0.23372716 -0.030221147
000190 a5 e4 60 3e 9a a9 6a 3d d3 72 26 be 54 78 e6 bd
       0.21962221 0.05729065 -0.1625474 -0.112534195
0001a0 14 f0 7a be 0f d6 f5 3d 22 f8 04 3e 9e d2 76 3e
       -0.24505645 0.12003719 0.1298528 0.24103782
0001b0 26 9a 2d be d8 11 2d bd 1e 36 47 be 27 f2 20 3e
       -0.16953334 -0.042253345 -0.19454238 0.15717374
0001c0 65 6a 0c bd 86 2f 16 be 40 7c 3a bd 9b 87 b6 3d
       -0.034281153 -0.14666566 -0.04552865 0.089125834
0001d0 5e 8d 8d 3e 5b 15 b7 bd 4e cb 2e 3d a6 c7 34 be
       0.27646917 -0.0893962 0.042674355 -0.17654285
0001e0 60 fe a2 3d 75 0a ec 3c e1 2c c8 3d 8a 97 16 3e
       0.079586744 0.02881358 0.09774185 0.14706245
0001f0 4c d1 ce 3d 80 13 32 3d c3 ab 5b be df 18 93 bc
       0.10098514 0.043475628 -0.2145224 -0.017956195
000200 bc 22 f9 bd 10 e1 72 3b d8 a3 10 be 22 35 a0 bc
       -0.12164828 0.0037060417 -0.14125001 -0.019556586
000210 c8 c7 55 be 78 27 39 3e 0a 4a ec bd 70 04 08 be
       -0.20876992 0.18081462 -0.11537559 -0.13282943
000220 68 3a 5b 3e 62 8f 92 3d 7f f0 40 be dc 27 1a be
       0.21408999 0.07156254 -0.18841742 -0.15054268
000230 14 25 a4 bc 16 ca 81 be 65 eb 4d 3e d2 52 03 3e
       -0.020037211 -0.25349492 0.20109327 0.12824562
000240 7f 2c 4e be 13 8f 12 3d 8e 6e 50 3e a1 08 15 be
       -0.20134161 0.035780977 0.20354673 -0.14554073
000250 53 26 38 be c9 66 ae bd 72 51 33 be 28 b9 72 3d
       -0.1798337 -0.085156985 -0.17511538 0.05925861
000260 72 c9 d3 bd a2 cf 57 be 42 06 2e be 70 69 4b 3e
       -0.10341157 -0.210753 -0.16994575 0.1986444
000270 02 aa 28 be d2 23 97 3d 9c bf 07 be af 7d e2 bd
       -0.16471103 0.07379879 -0.13256687 -0.110591285
000280 4a 42 2b 3e aa 6a 0a 3d 82 33 71 3e c9 25 73 3d
       0.16724506 0.03379313 0.23554805 0.059362207
000290 73 47 51 3e fd 2b 23 be 8b a3 ff bd 6c c7 b0 3d
       0.20437412 -0.15934749 -0.12482365 0.08631787
0002a0 e3 88 3f be 2b 3a 4e 3d 88 ee 42 be 20 32 4d 3e
       -0.18704562 0.050348442 -0.19036305 0.20038652
0002b0 52 d6 d9 bc 1e a9 25 3d 4c 7c 3e 3d c2 a5 24 3e
       -0.026591454 0.040444486 0.046505257 0.16078857
0002c0 bc ca 35 3e f0 77 36 3e 9e 21 54 be f5 1b 15 be
       0.17753118 0.1781919 -0.20715949 -0.14561446
0002d0 5a 85 be bd e1 a8 bd 3d 14 9c 69 be cc 40 54 be
       -0.093027785 0.09260727 -0.22813445 -0.20727843
0002e0 30 73 00 3e 31 65 53 be e0 f2 8a bc 4a 6d 5d be
       0.1254394 -0.2064407 -0.016961515 -0.21623722
0002f0 6a 3d 34 be 86 16 14 3e 16 76 db 3d 79 6e 24 3e
       -0.17601553 0.14461717 0.107158825 0.16057767
000300 ed 11 b4 3c 5e ed 77 bd c0 ce cf 3c 02 0b 45 b9
       0.021981204 -0.060529105 0.02536714 -0.00018791485
000310 b5 69 d4 bd 06 55 2d be 89 0b a6 bd 20 c7 02 3e
       -0.103717245 -0.16926965 -0.08107669 0.12771273
000320 aa 8a 86 3e 30 6f 88 3d f4 a9 cd 3c f8 33 89 3d
       0.26277667 0.06661832 0.025105454 0.066993654
000330 0c 6f 7e 3e 8a e1 95 3d f8 67 45 3e fe 6c 30 3d
       0.24847049 0.07318409 0.19277942 0.043072693
000340 19 83 3b 3e 23 cd 4b 3c 4a 9a 3a be 15 40 b9 3d
       0.18311729 0.012439045 -0.18222919 0.09045426
000350 fe 74 07 3e 9d 06 85 3d 77 30 0a be 52 aa 38 3e
       0.13228223 0.06495402 -0.1349505 0.18033722
000360 b6 03 16 be 78 e5 1c 3e c8 e6 39 be e0 de f1 3c
       -0.14649853 0.1532191 -0.18154442 0.02952522
000370 fb d3 e7 3d 49 9d 4d 3c 92 7c 95 3c cf b6 d0 3c
       0.11319729 0.012549707 0.018247876 0.025477795
000380 70 cb 2d be 42 75 76 3e 50 49 03 bd 7d ac 6b 3e
       -0.16972136 0.24068168 -0.032052338 0.23015018
000390 7a e7 8a 3d 44 23 fb bc 6d 22 60 bd 4c c0 0f 3e
       0.06782432 -0.030656464 -0.05472033 0.14038199
0003a0 29 a2 18 be 1c 19 e2 bd ae 7d 98 3c 8a cb 50 3e
       -0.14905609 -0.110399455 0.018614616 0.20390144
0003b0 96 d2 72 3e 44 d3 21 be fa 7f 88 be 5d ee 66 3e
       0.23713145 -0.15803248 -0.26660138 0.22551866
0003c0 13 a5 41 3e f5 c8 3c 3e 16 e1 62 3e 26 4d df 3d
       0.18910627 0.18436034 0.22156176 0.10903387
0003d0 84 72 69 3e e9 b6 b5 bd d4 88 35 be 9c 4c db 3d
       0.2279759 -0.08872778 -0.17727977 0.107079715
0003e0 2a 59 d3 bd c6 d8 7a be 39 4e d4 3d 40 4b dc 3c
       -0.10319741 -0.24496755 0.10366482 0.02689135
0003f0 8e ee 75 be 80 fa 22 3d 79 7f 9e bd 34 46 02 3d
       -0.24016783 0.039789677 -0.07739157 0.031805232

node_encoder.2.bias f4 [16]
000000 73 1e 6c 3d 03 92 53 be 0a b9 0e be dd 0d 11 3d
       0.057646226 -0.20661168 -0.13937774 0.03541361
000010 f1 c0 bb 3c ad f7 39 3e 3c 0b 59 be e7 5a 16 bd
       0.02291915 0.18160887 -0.21195692 -0.036707785
000020 e5 56 ea 3d 4b 08 06 3d af 36 ec bd 7e 79 8e 3d
       0.11442355 0.032722753 -0.115338676 0.069567665
000030 ab 4f 49 3e 4a b6 21 be 35 f1 1e 3e 72 c3 66 be
       0.19659297 -0.15792194 0.155217 -0.22535494

node_encoder.3.weight f4 [16]
000000 70 e7 80 3f dc bf 7f 3f 32 08 83 3f 1d 12 7d 3f
       1.0070629 0.9990213 1.0236876 0.98855764
000010 1e 2c 81 3f 96 85 80 3f f5 3d 80 3f 3c 5b 7d 3f
       1.0091588 1.0040767 1.0018908 0.9896734
000020 f3 7c 7e 3f 56 10 80 3f 2b 03 80 3f 0f cd 7a 3f
       0.9940941 1.0004985 1.0000967 0.97969145
000030 3c 77 7d 3f e9 70 80 3f c3 4a 7f 3f 76 c6 7e 3f
       0.9901006 1.0034457 0.9972345 0.9952158

node_encoder.3.bias f4 [16]
000000 65 fb 66 3c e3 b5 69 3b 66 05 be bc 01 68 4c bc
       0.014098023 0.0035661391 -0.023195934 -0.012475968
000010 a6 70 1b bc ae 2c 65 3b 00 d3 06 bb 82 b6 3c 3c
       -0.009487307 0.0034969258 -0.0020572543 0.011518123
000020 5c 53 22 bc 68 43 ca bb 65 78 55 bc ea 30 9a bb
       -0.00990757 -0.006172586 -0.013029193 -0.004705538
000030 ca 24 e4 bb c9 b2 02 bc 20 cc 57 bb ee bc 27 3b
       -0.0069623934 -0.007977196 -0.0032928064 0.0025594789

edge_encoder.0.weight f4 [16, 4]
000000 15 e8 e9 3d af 0a 13 be 74 26 4d be 64 27 c5 be
       0.11421219 -0.14359544 -0.200342 -0.38506615
000010 5b e8 3a 3e 52 3a ca 3e 85 a6 b5 3e cd 96 92 be
       0.18252699 0.3949762 0.35478607 -0.28630677
000020 2f 8a c4 be 3a b4 a7 3e ae 03 b8 3e d0 d0 e6 be
       -0.38386676 0.3275469 0.35940307 -0.45081186
000030 74 6e f8 be 84 b5 11 3e b8 d1 6f 3e f6 4f d4 be
       -0.4852177 0.14229399 0.23419845 -0.41467255
000040 2d 1e 0a 3e 77 65 e0 3e 83 04 d0 be b4 47 43 3e
       0.13488074 0.43827412 -0.40628442 0.19070321
000050 53 0a c0 be 6e 8c b5 3e 5c 82 b8 be 53 7a 8f 3e
       -0.37507877 0.35458702 -0.36036956 0.28023013
000060 1c 38 f5 be c7 9f 5c 3e 80 26 39 be ec 14 0b be
       -0.4789437 0.21545325 -0.18081093 -0.135822
000070 04 cb ee be a5 fe 70 bd 82 1a b6 be f6 26 83 be
       -0.46639264 -0.058836598 -0.355671 -0.25615662
000080 f0 44 fc be 1d 6c 89 be eb c8 a4 3e 82 e6 89 bd
       -0.49271345 -0.26840296 0.32184538 -0.06733419
000090 e0 62 db bd 38 85 9e 3d 48 db b4 3d 7c 42 db be
       -0.10712218 0.07740253 0.08830887 -0.4282416
0000a0 cc 14 f3 3e 94 24 90 be 8a 70 e6 3e 69 2a ae 3d
       0.47476804 -0.28152907 0.45007735 0.08504183
0000b0 43 02 c5 3e c6 23 85 3e 59 dd a1 bd 94 27 92 3e
       0.38478288 0.26003855 -0.07903547 0.2854582
0000c0 e0 a3 e9 3e 3b 3b ee 3c 38 83 ac 3e c4 97 e1 3d
       0.4563284 0.029080978 0.33693862 0.11015275
0000d0 76 ac 97 be 15 47 43 be a0 ea e3 bd 9b 47 5c 3e
       -0.29623765 -0.19070084 -0.111287355 0.2151169
0000e0 21 03 0d be 7f 63 1b be be 4a 9e bd 94 e0 ed be
       -0.13770725 -0.15174673 -0.077291 -0.46460402
0000f0 b5 6b 33 3d e1 3a 96 3e 1a 9d f4 bd 82 f8 0e be
       0.04380389 0.29341796 -0.11944027 -0.13961986

edge_encoder.0.bias f4 [16]
000000 c1 41 5a 3e 64 43 75 3e 71 d8 b1 3d 0c 1c d5 be
       0.21314146 0.23951489 0.08683861 -0.4162296
000010 c4 df cf 3e 85 96 f7 3e 41 8a 4f be a3 62 49 3e
       0.40600407 0.48357025 -0.20267583 0.19666533
000020 4c 50 f7 3d f4 bb a3 be 12 80 d8 3e 83 ca 56 3e
       0.12075862 -0.31979334 0.4228521 0.2097569
000030 45 fd 3d bd d4 d1 dd bc 94 e3 60 3e 85 9a 82 3e
       -0.046384115 -0.027077593 0.21961814 0.25508514

edge_encoder.2.weight f4 [16, 16]
000000 66 35 05 3c 0d 0e 5f 3c e5 79 2d 3e 0e 0d 2c be
       0.008130407 0.01361419 0.1694103 -0.16801855
000010 12 2a 12 3e ec 3c cf 3d bb d5 bc 3d 68 b1 cf bd
       0.14273861 0.10119042 0.09220453 -0.101412594
000020 29 70 3a be 5c 48 ea 3d 33 fe af 3d 73 21 71 bd
       -0.18206848 0.11439583 0.085934065 -0.05886979
000030 60 f1 1e 3e 3a 15 e3 3a 92 90 61 3d 70 f8 4d be
       0.15521765 0.0017325052 0.055069514 -0.20114303
000040 d8 6c 81 3e e9 9e 12 3e 51 43 7b bb 8e 8b 60 3e
       0.25278354 0.14318432 -0.0038339684 0.21928236
000050 a9 60 eb 3c 8d 91 7c 3e 57 89 9d bd 9f fb 1b bd
       0.028732615 0.24664898 -0.07692211 -0.03808176
000060 be 4e 12 3e 2e 4b 33 be 58 bf 9d 3d 46 16 59 3e
       0.1428785 -0.17509148 0.077025115 0.21199903
000070 c9 8a 08 bd 84 75 de bb f4 14 02 be 98 f2 41 be
       -0.03333548 -0.0067889113 -0.12703305 -0.18940198
000080 27 6b 93 3c 31 08 fc 3d 04 65 ac 3d 40 b1 ce bc
       0.01799543 0.1230625 0.08417705 -0.025231004
000090 0c b3 ce bd ee 2a 0e 3e e0 74 49 3e bd a8 2c 3e
       -0.10092744 0.13883564 0.1967349 0.16861244
0000a0 00 36 8b 3e 34 73 0e 3e 00 bf d5 3d ea 7e 38 3e
       0.27189636 0.13911134 0.10436821 0.18017164
0000b0 5b 59 6b 3e 83 ec 86 3e 0a bc fe 3d d8 00 ef bd
       0.22983305 0.2635232 0.12438209 -0.11670083
0000c0 08 81 53 3e c6 b7 82 3e 58 ec 4e be 36 68 0f be
       0.2065469 0.25530833 -0.20207345 -0.14004597
0000d0 4c ab a8 3d 48 94 02 3d 38 b2 84 3d 60 81 98 bd
       0.08235797 0.031879693 0.06479305 -0.07446551
0000e0 a8 71 b7 bd 9e 66 3c be 48 5e a2 bd fb 9f e3 3d
       -0.08957225 -0.1839852 -0.07928139 0.11114498
0000f0 a3 fd 04 3c 0b 8e 4e be 5a 1b aa bd ba 22 d8 3d
       0.008117112 -0.20171373 -0.08305998 0.105534986
000100 31 ad 2e be 78 70 c8 bd e0 eb 70 3d 50 60 b7 bc
       -0.17058255 -0.09787077 0.058818698 -0.022384793
000110 74 cf e5 bc f7 20 8b bd 24 8b 43 3d c7 4e 75 be
       -0.028053023 -0.06793397 0.047740117 -0.23955832
000120 26 88 17 bc 90 63 a8 3c 90 af 0f be 15 e3 c1 bd
       -0.009248769 0.020555288 -0.14031816 -0.094671406
000130 80 d3 ea bd e9 3d ea 3d 2e d8 00 be 02 99 55 3d
       -0.11466122 0.1143759 -0.12582466 0.052147873
000140 22 5f 32 bd bd ad 1b be e3 6a 2c be 8e 89 65 be
       -0.043547757 -0.15202995 -0.16837649 -0.22415754
000150 6d 0d 29 3e 15 57 70 be ce 6f 54 3e 63 43 db 3d
       0.16509028 -0.23470719 0.20745775 0.10706212
000160 c5 a2 f0 3d a4 86 4f be dc 2c 13 bd 03 8f 57 bd
       0.11749796 -0.20266205 -0.035931453 -0.05262662
000170 19 71 74 be f5 45 08 be 00 bb 15 3d 72 e8 5c bd
       -0.23871268 -0.13307936 0.03655529 -0.053932615
000180 b9 85 3b 3e 1d 3c fa bd 36 1a 30 be 74 a5 d4 bd
       0.1831273 -0.12218497 -0.17197499 -0.1038312
000190 f9 7f 12 be e3 de 3a 3e 9e 93 c4 bc 26 c0 b8 3a
       -0.1430663 0.18249087 -0.02399617 0.0014095351
0001a0 f0 d6 2e be 74 4b 68 be 40 56 ac bd 2e db 82 ba
       -0.1707418 -0.22685033 -0.084148884 -0.0009983534
0001b0 8c 72 b0 bd ec e4 f2 bb b7 07 6d 3e c1 71 72 be
       -0.08615598 -0.0074125435 0.23147474 -0.23676206
0001c0 7d 56 0d be 52 33 d3 3d 2b d8 8d bc a0 75 36 be
       -0.13802524 0.10312523 -0.017314991 -0.17818308
0001d0 03 64 23 3e 0e e6 1c bd 0d 01 02 3e 31 a9 2d 3e
       0.1595612 -0.038305335 0.12695713 0.16959073
0001e0 be 65 60 be 80 e0 06 3d 9b 77 31 3d dd 85 39 3e
       -0.21913812 0.032928944 0.043326955 0.18117471
0001f0 6e 11 63 be ef 8e 59 be 83 63 c8 bb 08 2f 65 be
       -0.22174618 -0.21245931 -0.0061153783 -0.22381222
000200 7d b6 26 3d a6 c6 de 3d 99 db 6d be 70 26 39 be
       0.040701378 0.10877733 -0.23228301 -0.18081069
000210 06 90 8b bd 60 44 c5 3c d4 07 ca bb 68 a0 38 be
       -0.0681458 0.024080455 -0.006165484 -0.1802994
000220 16 16 39 3e fa 6f 2b 3e ac 5a 62 be 1b 87 3a be
       0.18074831 0.16741934 -0.22104901 -0.18215601
000230 ef 61 3b be 9b de 32 3e c5 8b 6d 3e cd 35 36 3e
       -0.18299077 0.1746773 0.23197849 0.17793961
000240 e6 0c 25 3e 1b 89 4c 3c 67 b7 40 3e 82 cb 51 3e
       0.16118202 0.01248386 0.18819962 0.20487788
000250 20 61 4c 3d 88 95 53 3e 8b f2 fb bd 41 04 3b be
       0.049897313 0.2066251 -0.12302121 -0.18263341
000260 f9 c7 9c 3d fa 25 49 be 85 26 ad 3b 73 e0 e2 bd
       0.07655329 -0.19643393 0.005284133 -0.110779665
000270 55 fa 18 3e 86 19 6f bd 51 2d 8e bd 2c c8 19 3e
       0.14939244 -0.05837395 -0.06942237 0.15017766
000280 94 b4 3e be 17 59 c8 bc 58 85 fa 3d f0 7b 30 bd
       -0.18623573 -0.024456544 0.122324646 -0.043086946
000290 96 d4 14 bd 47 60 4a 3e 62 17 9f bd 02 f3 56 3d
       -0.03633555 0.1976329 -0.07768132 0.052477844
0002a0 f5 95 9a 3d c0 3d cb bd fa bf 84 3e 87 0a 0c 3e
       0.07548133 -0.09923887 0.25927716 0.13675891
0002b0 d8 9c d4 3d e1 62 85 3e a2 18 79 3e 08 52 18 be
       0.10381478 0.26052 0.24325803 -0.14875042
0002c0 f1 34 82 bd 3b 4c da bd a8 39 36 be 96 0c 02 be
       -0.06357754 -0.10659071 -0.17795432 -0.12700114
0002d0 6f 95 ed bd bc 62 6e be 5c ad 31 be af 8f 7b bd
       -0.11600768 -0.23279852 -0.17351288 -0.061416324
0002e0 d4 68 30 be e2 9e 1a be 31 26 4b be f2 26 af bd
       -0.17227489 -0.15099671 -0.19838788 -0.0855235
0002f0 36 77 d9 bd 74 ee c4 bd 57 46 c4 bd 03 c3 07 3e
       -0.10618441 -0.09615794 -0.09583729 0.13257985
000300 1a 65 78 be 48 26 52 be 5b 77 c8 3d c2 f3 3b be
       -0.24257317 -0.20522416 0.0978839 -0.18354705
000310 f1 3c 5d 3e b3 e3 a7 bd 2a 6a 74 3d 3e 01 7f be
       0.21605279 -0.08197727 0.05967156 -0.24902818
000320 d8 19 b7 3c d0 e8 42 be 7b 4c 11 be 4d ab 87 3d
       0.02235119 -0.19034123 -0.14189331 0.0662447
000330 4d 0a f2 3c 7c 00 b6 bd 0b 6f e2 3d 97 8d 23 be
       0.029545927 -0.08886811 0.11056336 -0.15971981
000340 b5 0d 3c be dc ab 89 bd fc 64 33 be 00 41 de ba
       -0.18364604 -0.06722233 -0.17518991 -0.0016956627
000350 53 4b 3e 3e a2 47 ff 3d 6b 5b 4c bd 63 b6 24 be
       0.18583421 0.12464835 -0.04989187 -0.160852
000360 85 7a 6c 3c 78 70 f2 3d 53 90 52 be 21 b0 40 be
       0.014433508 0.11837858 -0.20562868 -0.18817188
000370 f6 58 54 be 83 88 68 3e f3 0b 86 3b a5 9a cd 3d
       -0.20737061 0.22708325 0.00409078 0.10039262
000380 41 5e 08 3d 00 18 d7 bd 27 6b 74 3c 80 a1 6d 3b
       0.033293013 -0.105026245 0.014918125 0.0036259592
000390 0a ef 65 be 61 01 08 be d9 4c d4 3d 97 22 49 bd
       -0.22454467 -0.13281776 0.1036622 -0.049105253
0003a0 15 1f 3c 3d 06 25 34 3e cb c7 2a be 01 f0 39 3d
       0.04592808 0.17592248 -0.16677777 0.0453949
0003b0 b7 11 16 3c 48 1a b8 3d 75 70 81 3e f9 ad 41 3e
       0.009159497 0.08989388 0.2528111 0.18914022
0003c0 2c 84 00 be f7 ad 99 bd f0 01 e2 bd a4 14 7a 3e
       -0.1255042 -0.07503884 -0.11035526 0.24421936
0003d0 9d fe 49 3d c6 59 4a bd 98 22 63 3e ed 72 ae bd
       0.049315084 -0.04940202 0.22181165 -0.08518014
0003e0 c3 1c 27 be 82 2d 3d be d8 3c 09 3e 34 04 67 3e
       -0.16319565 -0.18474391 0.13402116 0.22560197
0003f0 63 55 23 3c b6 36 71 be 90 28 93 bb fe a0 86 3b
       0.009969088 -0.23556027 -0.0044909194 0.0041085472

edge_encoder.2.bias f4 [16]
000000 27 fe 78 be e9 66 ce 3d 94 9d 73 3e a1 c0 66 3e
       -0.24315701 0.10078222 0.2379058 0.2253442
000010 37 f8 4d be 2c bf 44 3e b5 06 3e be 57 3c 75 bd
       -0.20114218 0.19213551 -0.18557246 -0.059871998
000020 17 18 ba 3d a1 8c 4a be 88 21 10 3e 25 44 65 bd
       0.09086626 -0.19780208 0.14075291 -0.05597319
000030 b4 46 1e be 90 13 de 3c 43 db 6a 3d 12 97 2e 3e
       -0.15456659 0.027108938 0.05733801 0.17049816

edge_encoder.3.weight f4 [16]
000000 5a 07 80 3f f5 d1 7e 3f 48 36 7f 3f 30 bc 84 3f
       1.0002244 0.9953912 0.996922 1.036993
000010 4e 17 79 3f 31 02 81 3f 34 a4 7a 3f 54 c6 7b 3f
       0.97301185 1.0078794 0.97906804 0.983495
000020 5b e8 7c 3f 93 0e 7c 3f b9 97 81 3f 97 ab 7e 3f
       0.98792046 0.9845974 1.0124427 0.99480575
000030 3f d3 7a 3f 82 01 7c 3f 7d a6 7d 3f 35 81 80 3f
       0.97978586 0.984398 0.99082166 1.0039431

edge_encoder.3.bias f4 [16]
000000 18 76 9c bb 6f 98 75 bb 5b f4 9f bb 83 6a 18 3d
       -0.00477482 -0.003747489 -0.0048814244 0.037210952
000010 99 5e 8b 3c ee cb 5b 3b ac d7 9a 3c 11 b2 ce 3b
       0.017012881 0.00335383 0.018901668 0.0063078483
000020 f0 7a 40 39 6d 41 ab bb aa 64 c1 3b d8 ba 74 3b
       0.00018356345 -0.005226305 0.0059018927 0.0037342813
000030 08 04 75 3c 40 e3 ad bb 60 bb df 3b fe e5 2d 3c
       0.014954574 -0.0053066313 0.0068277568 0.010613916

node_model.0.weight f4 [16, 48]
000000 86 08 8e 3d 75 45 83 3d 15 9d 4c 3c db 50 c0 bd
       0.069352195 0.06409732 0.012488623 -0.09390422
000010 8c 36 34 bd 0a 29 7b 3c a3 7d 5d bd 00 de 31 bd
       -0.043997332 0.015329609 -0.054074895 -0.043424606
000020 93 0a ae bd b5 4b b5 bd ac 76 53 3d ff 0d bb 3d
       -0.084981106 -0.088523306 0.051626846 0.09133529
000030 29 a6 bf bd ac c8 1a bd 43 59 50 3a c6 8f 16 3e
       -0.093578644 -0.037789032 0.00079478713 0.14703283
000040 e1 74 da bc 58 e5 01 bc 04 5b e0 bd f5 ac aa bd
       -0.02666706 -0.007928215 -0.1095486 -0.0833377
000050 d2 fb d5 3d 03 ef 48 bd 0c 2f db 3d 38 de bc bb
       0.104484215 -0.049056064 0.10702333 -0.005763795
000060 32 71 86 3c 32 c0 c5 bd 04 67 be 3d 37 1c db bb
       0.016411398 -0.09655799 0.092969924 -0.006686713
000070 f4 ef 79 3d a9 e5 aa 3d 8c 21 1d 3c b7 44 00 3d
       0.061019853 0.083445854 0.009590518 0.03131553
000080 e8 76 1f 3d 7c dc f7 bc e9 1a 31 3d 1e e7 fd bd
       0.038931757 -0.030256502 0.043238554 -0.12397598
000090 cc 1a a2 bc f4 50 fd 3d de ea 5d 3d 54 16 eb 3c
       -0.019788168 0.12368956 0.054179065 0.02869717
0000a0 16 e9 0e 3d f6 da 91 3d cd d7 63 3d 2b 92 87 3d
       0.034890257 0.071218416 0.055625726 0.06619676
0000b0 37 1e 02 3e 0b 11 b4 bd 9c 76 e7 bd bc ad 61 3d
       0.12706839 -0.08792313 -0.1130192 0.055097327
0000c0 e6 31 d6 3d 21 76 ac bb b3 0e 07 bd 6d a6 2c 3e
       0.10458736 -0.0052631055 -0.032973003 0.16860361
0000d0 4e 28 8a bd fd 79 2b 3e fd 8d 71 3d f7 3a e1 3d
       -0.06745969 0.16745754 0.0589733 0.10997575
0000e0 cc 92 8b bd f0 98 19 bd 5d d1 28 3d 92 62 20 3e
       -0.06815109 -0.03749937 0.04121529 0.15662602
0000f0 18 07 a0 3d 15 2e d7 ba 56 fb 96 3d 8b f0 20 3c
       0.07813853 -0.0016416932 0.07372157 0.009822975
000100 62 84 f1 3d cb ca 76 3c 91 8f a7 3c e2 94 84 3d
       0.11792828 0.015062998 0.0204542 0.0647371
000110 e5 48 88 3c 7c aa e4 bd 43 e2 a8 3c ae c3 15 3e
       0.016636321 -0.1116533 0.020615702 0.14625427
000120 e7 e9 03 3d 4d 88 58 3d da c0 1f 3e d3 99 4b 3d
       0.03220549 0.05286436 0.15600911 0.049707245
000130 1a a0 7e bd 48 55 d1 3c 9f a8 89 3d 3a 58 6f 3d
       -0.062164403 0.02555336 0.06721615 0.05843375
000140 6f 3b 34 3e c8 e3 bb bd 9a 86 50 3c a4 8c 4c bd
       0.17600797 -0.09174305 0.012727404 -0.049938813
000150 71 51 59 bd bd a5 6d 3c d3 76 45 3c db 78 80 3d
       -0.053056184 0.014504847 0.012052256 0.06273051
000160 6e c9 10 3d ef 78 0f 3e d6 1b 25 bb 1b d1 d9 3a
       0.03534835 0.14010976 -0.0025193593 0.0016618104
000170 7b 91 10 be 64 d3 d0 3d 25 c0 0b 3d e5 70 8e bc
       -0.14117996 0.101965696 0.03411879 -0.017387817
000180 fd 9c d5 bd 70 0f 4b bd 8b 51 8d 3d 41 ed ab 3d
       -0.10430334 -0.04957527 0.06900319 0.08394862
000190 29 26 95 bc 5a 23 9a bd 9f 7b 11 3c 19 87 a9 bd
       -0.018206673 -0.07526274 0.008879571 -0.08277721
0001a0 2e e2 c1 3d 24 25 c7 3d ee e0 46 bc 69 f0 e8 bd
       0.094669685 0.09723881 -0.012138588 -0.113739796
0001b0 72 7f 36 3c 81 40 32 bc 67 c3 c6 bd 83 4e 1a 3e
       0.011138784 -0.010879637 -0.09705239 0.15069012
0001c0 e8 f5 3d 3c 50 5c a7 bd a8 91 10 3e af ef 86 3d
       0.011594273 -0.08171904 0.14118063 0.06588685
0001d0 cb 2b 8a bd 9b 07 d1 3c 37 a4 e1 bc 8e 6c a9 3d
       -0.06746634 0.025516322 -0.027544124 0.08272658
0001e0 0e c0 ae bd 0d 40 9b bc 1a fd 54 3d a6 48 cf 3d
       -0.08532725 -0.01895144 0.05199919 0.101212785
0001f0 69 2b 09 be 5e c1 b8 3d 9d e5 0a 3e 7b c4 5d 3d
       -0.13395466 0.09021257 0.13564153 0.054142457
000200 fb 8f 1c bd 6c b4 c3 3d fb 76 8c bc d9 f2 07 be
       -0.038223248 0.09555897 -0.017146578 -0.13276233
000210 a9 78 66 3d 11 63 c2 3d 2c 08 09 3e 46 0f ed bd
       0.056267414 0.09491552 0.13382024 -0.11575179
000220 37 c2 ee 3d 34 ee 92 3c 25 55 01 3d 9f d0 22 bd
       0.11658137 0.01793585 0.03157534 -0.039749738
000230 5a 40 60 3b 05 b6 fe 3b 04 1f 53 bd 47 0e bc 3c
       0.0034218044 0.0077731633 -0.05154325 0.022956027
000240 9b 4e 99 bd 4d 24 ca bd 83 82 5a 3d 35 60 33 3d
       -0.07485696 -0.09870205 0.053347122 0.043792922
000250 df a4 6f bd 74 c2 5d 3b a5 3a f4 bd c4 f2 a5 3d
       -0.058506843 0.0033837827 -0.11925248 0.081029445
000260 25 f6 00 3e 79 4f 15 3a b2 57 c6 3d 6b 73 2e bd
       0.12593897 0.0005695741 0.09684695 -0.04259054
000270 b8 ad 10 bd ac 54 ad 3d 3b 01 09 be 62 ca f2 3d
       -0.03532192 0.084634155 -0.13379376 0.11855008
000280 3f 4d 1c bd 79 f8 b6 bd e5 ab 8d 3d 62 43 98 3d
       -0.038159605 -0.08934111 0.06917552 0.07434727
000290 ef 9e 27 bb 91 ed bf bd ee ba 47 3d 16 75 cd 3d
       -0.002557691 -0.09371484 0.048762254 0.10032098
0002a0 4c 49 58 bc fb 8e 9a 3c 93 4f bc bd b6 33 2c 3e
       -0.013201069 0.018867007 -0.09194865 0.16816601
0002b0 56 1e 43 bd 2e 0a 3d 3d af a8 6b bc 87 27 7c bd
       -0.047636352 0.046152286 -0.014383479 -0.061561134
0002c0 ac 61 73 bd 3f 89 3e 3c 20 41 cd bd 1e b0 69 bd
       -0.05941932 0.011629402 -0.10022187 -0.057052724
0002d0 1c 98 a4 3c 8b ca d3 3d 55 71 1f bd 36 c4 5b bd
       0.020092063 0.103413664 -0.03892644 -0.05365392
0002e0 39 59 fa bd b6 f3 f2 3d fb 99 00 be 0a 75 8a 3d
       -0.12224049 0.118628904 -0.12558739 0.06760605
0002f0 50 ef b1 bd 78 d1 0f be 2c ec e8 3d 90 33 8f bd
       -0.08688223 -0.1404475 0.11373171 -0.06992257
000300 73 ed 6d bd 9e 8f 3b bd 86 d3 cc bc e4 84 06 3e
       -0.058087777 -0.04579126 -0.025003206 0.13136631
000310 8c 74 38 3d dc 26 fe bd ed a2 85 bd c0 35 1e 3d
       0.045033023 -0.124097556 -0.06525216 0.03862548
000320 01 48 a7 bc 32 60 58 3d ed 08 f3 bd 02 e4 c9 bc
       -0.020420076 0.052826114 -0.11866937 -0.024644855
000330 40 73 52 3d 37 0d e9 3d 9a 85 c1 bd cf b7 c6 3d
       0.051379442 0.11379474 -0.094493106 0.097030275
000340 24 33 b9 3d 9e 3e 93 3d 9d b9 65 bd 70 4c 8f bd
       0.090429574 0.07189678 -0.056085218 -0.06997001
000350 12 7e 98 3c 1c 1f 20 bd 2d b7 d0 3d 33 c0 f2 bd
       0.018614803 -0.03909217 0.10191188 -0.11853065
000360 19 de e8 3c ba fb b2 3d 6a c3 e4 bd fc 02 fc 3c
       0.028426217 0.08739419 -0.11170085 0.030763142
000370 90 20 a5 bd e4 96 b3 bc d9 a1 af bb fa 51 9f bd
       -0.080628514 -0.021922536 -0.00535987 -0.07779308
000380 70 10 99 bb ee e5 ce bd 19 de 1a be 9e b5 d6 bd
       -0.004671149 -0.10102449 -0.15123786 -0.104838595
000390 f1 a2 9f 3d e0 40 f1 3d 71 51 f0 bd 1b e8 18 be
       0.077947505 0.11779952 -0.11734284 -0.14932291
0003a0 bb 3d 46 3d 3e e4 9b bd 2d 60 0b 3e d6 f1 d3 bd
       0.048398715 -0.07611893 0.13610907 -0.10348861
0003b0 dd 84 04 3e 56 34 b5 bd 29 10 f2 3d c5 a7 dd bd
       0.12941308 -0.08847873 0.118194886 -0.10823015
0003c0 ee ed 29 3e 86 4c 4c 3c 21 21 17 be c4 d9 e4 bd
       0.16594669 0.0124694165 -0.14758731 -0.11174348
0003d0 52 40 69 3d 20 c1 9f bd 59 8b 11 bd c6 de bd bd
       0.056946106 -0.078005075 -0.035533283 -0.09271006
0003e0 ed 0e 5b bc e0 0b b7 3d 3a 96 22 be ff 6b 17 3e
       -0.013370258 0.08937812 -0.1587762 0.14787291
0003f0 ab ac 00 3d 65 d7 44 3d ae c5 5c bc b5 8f ea bd
       0.03141467 0.04805698 -0.013474865 -0.11453191

node_model.0.bias f4 [16]
000000 6f d3 01 be 17 3e a3 3d 94 e7 11 3d 16 ab e6 3d
       -0.12678312 0.07970827 0.03562124 0.11263101
000010 1c 03 52 bd 3f ab 0f 3e 56 55 34 3c da 18 db 3d
       -0.051272497 0.14030169 0.011006674 0.106980994
000020 ca c9 9d bd 2e ed a5 3d 75 99 1a 3d cd 3f 9e 3c
       -0.07704504 0.08101879 0.037744004 0.019317532
000030 ee 2e 8c 3c e8 b7 18 3e 8a 46 b6 bd 89 e4 13 bd
       0.017112222 0.14913905 -0.08900173 -0.03610662

node_model.2.weight f4 [16, 16]
000000 18 4d 67 3d 77 19 69 3b 8d 2e cb bd 60 f9 13 3e
       0.056470007 0.0035568157 -0.09920988 0.14450598
000010 2b 2d fd 3d f8 c1 94 bd b2 d1 7c bc 9b ff e4 3b
       0.12362131 -0.07263559 -0.015430855 0.0069884784
000020 15 6f 61 bd 9f af 65 be e9 55 05 3e 70 52 59 3e
       -0.055037577 -0.22430275 0.13021053 0.21222854
000030 7a 11 a1 be af 0e 83 3e 85 70 1a 3e 9a 83 33 3e
       -0.31458646 0.2559714 0.15081985 0.17530671
000040 29 c1 4d be c9 b6 a7 3d 92 a8 e8 3d a5 ea cf bd
       -0.20093216 0.081891604 0.11360277 -0.10152177
000050 70 03 da 3d 7d 2d aa bd 84 77 77 3d b6 a8 45 3a
       0.10645187 -0.083094575 0.060416713 0.00075400935
000060 d9 35 21 3e 40 1f 18 be 47 29 b9 bc f7 c7 66 3e
       0.15743198 -0.14855671 -0.02260269 0.22537218
000070 b5 79 fc 3d fa d0 b2 3d 02 02 e8 3d 47 e9 c8 3d
       0.12327901 0.08731265 0.11328508 0.09810119
000080 ef 14 fc bd 56 9f c7 3d 47 4a 01 bd bf ea 30 be
       -0.1230868 0.09747188 -0.031564977 -0.17277049
000090 d2 3a 22 be 1a 9f 26 be 91 0c 1c 3e 73 23 ce 3c
       -0.1584275 -0.1627163 0.15239169 0.025163388
0000a0 9f 4b 53 3e 38 dd 87 3d 42 aa 4e be bd 47 9b 3d
       0.20634316 0.06633991 -0.20182136 0.07582042
0000b0 b5 f3 9c 3e f9 f0 9f 3c 73 9b 8a be ec 27 5b be
       0.30654684 0.019524084 -0.27071723 -0.21401948
0000c0 d3 03 68 3e 48 09 d7 bd 83 1a 75 3d 6b f0 d5 3d
       0.22657709 -0.10499817 0.059839737 0.10446247
0000d0 84 e1 19 3e 02 c9 91 3d 53 72 12 3e 12 fd f3 3d
       0.15027434 0.07118417 0.14301424 0.11913504
0000e0 f6 29 38 3e f5 32 fa 3c 36 1b 37 bd 56 d2 92 bd
       0.17984757 0.030541876 -0.044703685 -0.07169025
0000f0 06 6d 35 3e 62 e3 9c 3c 58 bc 6d bb 59 fd 7b be
       0.1771737 0.019151393 -0.0036275592 -0.24608363
000100 d8 3e 31 3d 95 37 7e 3e d6 93 fe 3d c5 6a 00 bb
       0.043272823 0.2482589 0.12430541 -0.001959489
000110 26 9a 9d bc e6 b2 48 3e 7b 5f c2 3d 4c d7 db bd
       -0.019238543 0.19599494 0.09490868 -0.10734424
000120 14 34 a2 3c 14 cd 23 3e 89 8a a7 bd 3c 19 2b be
       0.019800223 0.159962 -0.0818072 -0.16708845
000130 ed b6 77 3c 52 c0 a9 3e ac 93 36 3e 94 de 04 3e
       0.0151192965 0.3315454 0.1782977 0.12975532
000140 c6 0e 27 3d a8 42 e9 3d 87 05 5d be e6 c4 19 be
       0.040785573 0.11389667 -0.2158414 -0.15016517
000150 e0 10 0c 3e d7 74 14 be a3 d7 15 be 5e ea 9f be
       0.13678312 -0.14497696 -0.1463304 -0.31233495
000160 a8 88 98 bd 3f 38 2a bc dd 2d 4a 3e 79 ca 80 3e
       -0.0744794 -0.010389387 0.19744058 0.25154474
000170 1a ba d7 bd 3d e0 d5 bd 13 d8 95 bd e4 31 55 bd
       -0.10533543 -0.10443161 -0.073166035 -0.052049533
000180 6a 2e 6c 3e a3 e4 a3 3d 35 29 62 be 7c 1a 84 3d
       0.2306458 0.08002593 -0.22086032 0.06450364
000190 b3 e7 1e be ff 70 39 3e 92 05 77 be f4 41 75 be
       -0.15518074 0.18109511 -0.24123219 -0.2395094
0001a0 d5 e6 6a be 9f c8 48 be 16 e0 d2 3d 61 d2 63 bd
       -0.22939618 -0.19607781 0.10296647 -0.055620555
0001b0 8b 71 55 3d 00 8b 55 3e b4 46 50 3d c1 ff 63 3e
       0.052110236 0.20853806 0.050848678 0.22265531
0001c0 9c 55 29 3d 44 66 dd 3c 52 de 45 be 90 12 ad 3d
       0.04134141 0.027026303 -0.1932309 0.08450806
0001d0 61 93 05 3e 90 ee 3d 3d 00 25 22 be b1 26 80 be
       0.13044502 0.04637009 -0.15834427 -0.2502952
0001e0 ce 02 5f bd d9 06 6f be 03 c0 50 3e 49 bc fa bd
       -0.054446034 -0.23342456 0.20385747 -0.12242944
0001f0 cf 48 da bd 98 bc 87 bd 36 1b 1a 3e 65 ad 0e 3e
       -0.106584184 -0.06627768 0.15049443 0.13933332
000200 78 07 32 3b 26 fe 93 3d 59 ae d3 bd e6 71 ef 3d
       0.0027165096 0.07226209 -0.103359886 0.11691646
000210 7f e9 3d be ba 1e 53 be a4 91 15 be cd 08 60 bd
       -0.18546103 -0.2061719 -0.14606339 -0.054695893
000220 e5 b3 55 3e d5 57 80 3e 5d 71 e8 3b 8a 68 33 be
       0.20869406 0.2506701 0.007093592 -0.17520347
000230 9f 6e 3a be a3 99 64 3e d2 2f 4c 3c 60 d1 25 be
       -0.18206261 0.22324233 0.012462573 -0.16193151
000240 f5 d8 5f be c8 eb 4a 3c 4d 8f bf 3d 2c 44 b4 3d
       -0.21860106 0.012385316 0.09353504 0.08802065
000250 59 77 2a 3e c8 92 df 3d 06 1f 62 be d1 44 0c 3d
       0.1664709 0.10916668 -0.22082147 0.034245316
000260 9b cc 04 3e ea ea 76 3b 0a d4 88 be 88 02 cf bd
       0.12968676 0.003767664 -0.26724273 -0.10107905
000270 af 84 f2 3d 79 d8 48 3e 80 60 6f be ab b6 91 be
       0.11841714 0.19613828 -0.23376656 -0.28459677
000280 3c ba 62 3e f1 8c 77 be 52 39 f8 3d 13 c1 80 3e
       0.22141355 -0.24174859 0.12120308 0.25147304
000290 30 75 07 3e 58 8d 20 3d da ee 46 bd ff 3b 2b 3e
       0.13228297 0.039197296 -0.04856763 0.16722105
0002a0 01 11 39 bd 29 85 75 3c d4 f7 54 bc 8c 43 76 bd
       -0.04518223 0.014985361 -0.01299854 -0.06012301
0002b0 36 40 91 3d 37 2b 20 bd 8a 37 50 3e 4c 58 30 bd
       0.070923254 -0.039103713 0.20333686 -0.043052956
0002c0 68 29 bb bc 17 1d 8e bd 73 d8 39 3e 0b df a9 3c
       -0.022846892 -0.06939142 0.18148975 0.020736238
0002d0 47 93 80 bd 67 73 01 bc 53 55 5a 3c d4 e8 9c 3e
       -0.06278091 -0.007901049 0.013326007 0.30646384
0002e0 ce 07 fd bd 05 09 42 be 0d 16 43 be 28 13 83 be
       -0.12355004 -0.18948753 -0.1905138 -0.25600553
0002f0 60 80 ef bd 19 81 4c 3e 8e 90 45 be 40 e8 84 3e
       -0.116944075 0.19971122 -0.19293424 0.25958443
000300 f2 0f 48 bd ea 80 09 3e 53 13 19 be 17 30 2d bd
       -0.04884333 0.13428083 -0.14948778 -0.04228219
000310 30 03 27 be bf cf 85 be ac 7a 34 3e 64 c9 41 3d
       -0.1630981 -0.2613506 0.1762492 0.0473112
000320 a7 e5 45 bc e4 68 33 be f4 b4 e1 bd 05 9a cb bd
       -0.012078679 -0.17520481 -0.11020842 -0.09941486
000330 11 e4 1f be e7 92 80 3d 63 5a 55 be 8b f3 00 3e
       -0.15614344 0.062780194 -0.20835261 0.12592904
000340 32 25 d3 3d cf f9 cf bd 9e bb 47 bd fb d9 f3 3d
       0.10309829 -0.10155069 -0.04876291 0.11906811
000350 8e 8a 55 be 51 04 58 be 0d a6 3a 3e 57 cc ba 3e
       -0.20853636 -0.21095397 0.18227406 0.36484024
000360 a6 ac 0d be dc 95 01 3e 54 28 b8 3d 3b 0e 46 3e
       -0.13835391 0.12654823 0.08992067 0.19341366
000370 40 3b 8c bd 7b 8d 28 be 4e 85 6d be 59 d9 26 bd
       -0.068472385 -0.1646022 -0.23195383 -0.040734623
000380 4b 01 54 3e c0 08 0e 3c 79 35 a3 3d a8 34 92 be
       0.20703618 0.008669078 0.079691835 -0.285558
000390 83 a6 27 3e 48 c7 e7 bd 30 9b 8e 3d fc 87 93 3e
       0.16372113 -0.11317307 0.069631934 0.28814685
0003a0 1e b2 03 be a5 e9 07 3e 30 a6 31 be 78 de c5 3d
       -0.12860915 0.13272722 -0.17348552 0.09661573
0003b0 1b f2 fe bd 54 a9 91 be 3e e5 c4 bd f2 8a 43 3e
       -0.12448522 -0.284495 -0.09614037 0.19095972
0003c0 39 af 77 3d 34 10 47 3e 69 bd 38 be 86 35 c6 bd
       0.06046984 0.19439775 -0.18041004 -0.096781775
0003d0 7a 72 90 bd 0e 24 73 3e 4b 6e 52 3e f8 b1 4a bd
       -0.07053085 0.23744223 0.20549886 -0.04948613
0003e0 ef 0c 6c be 36 07 66 3e c6 1c 7a be b7 f9 ec 3d
       -0.23051809 0.22463688 -0.24425039 0.11571067
0003f0 76 12 5a bd 5b 9f 37 be 44 12 43 be 5a 61 45 3e
       -0.053240262 -0.17931883 -0.19049937 0.19275418

node_model.2.bias f4 [16]
000000 cc 18 04 3e 9f e1 08 be 93 8a 69 bd ad 48 b7 3d
       0.12900084 -0.13367318 -0.05701692 0.08949409
000010 0d 88 5c be b2 73 7e 3e 89 a1 16 be 8f d4 5b 3e
       -0.21536274 0.24848822 -0.14710058 0.21467803
000020 d7 23 f7 3d 3b fb 13 3e 2f 59 30 3e b9 cd 93 bb
       0.12067383 0.14451306 0.17221521 -0.004510608
000030 f6 a3 39 3e d1 32 a3 bd bb a8 12 3e 04 fb 11 bd
       0.18128952 -0.07968677 0.14322178 -0.035639778

node_model.3.weight f4 [16]
000000 72 f2 9b 3f 9f 87 7e 3f ac b8 94 3f 0d 44 8e 3f
       1.2183363 0.9942569 1.1618857 1.1114517
000010 e1 f0 a5 3f 75 13 99 3f 23 4d 9a 3f 7a b9 91 3f
       1.2964135 1.1959063 1.205479 1.1384728
000020 c1 a3 9a 3f 6d a1 9c 3f ec 3c 84 3f 0f d4 86 3f
       1.2081224 1.2236763 1.0331092 1.0533465
000030 48 47 89 3f f2 e7 86 3f 7c ae 99 3f c5 78 81 3f
       1.0724878 1.0539534 1.2006373 1.0114981

node_model.3.bias f4 [16]
000000 96 95 17 3e ca 0a 80 bc 97 15 04 be b1 79 51 bd
       0.14803156 -0.015630145 -0.12898861 -0.051141445
000010 94 6b 02 3e 34 c2 0e 3e ce 30 d5 3d f4 94 cf 3d
       0.1273635 0.1394127 0.104096994 0.101358324
000020 c3 0c b1 3d 5a ca 18 be 21 61 b2 bd c3 83 53 bd
       0.08645012 -0.14920941 -0.08709932 -0.05163933
000030 6d 3d c0 3d e1 ab 0e bd 14 40 d5 bd 52 6d cf 37
       0.09386716 -0.034831885 -0.104126126 2.472723e-05

edge_model.0.weight f4 [16, 96]
000000 6c 58 1f 3d e8 36 b4 3d 44 78 bf 3d 28 96 57 3c
       0.038902685 0.08799535 0.09349111 0.013158359
000010 62 a2 19 bd 20 f9 16 3d 88 88 82 3d 58 40 58 bd
       -0.037508376 0.036858678 0.063736975 -0.052795738
000020 02 10 1d bd 28 f1 7c 3d 24 ae a6 3d 50 14 75 bd
       -0.038345344 0.061753422 0.081386834 -0.059833825
000030 b8 64 bb 3d e8 12 0a 3d b0 18 95 bc bf b5 72 bd
       0.0915007 0.033709437 -0.018200248 -0.059255358
000040 b0 75 32 3d 08 86 d0 3c 08 0c 5c 3c 80 60 4c 3d
       0.043569267 0.025454536 0.013430603 0.049896717
000050 a8 d3 91 bc 54 3d 0c 3d 08 5c a5 3d 98 3d 00 bc
       -0.01780112 0.034238175 0.08074194 -0.007827185
000060 18 e9 f2 3c 66 87 93 3d cf 6c 45 bd 2a 14 93 3d
       0.029652163 0.072035596 -0.04819947 0.0718158
000070 08 a2 51 3d de 81 c7 bd 96 c1 36 bd 00 2e c6 3d
       0.051179916 -0.09741567 -0.04461821 0.096767426
000080 90 40 fb 3b 8c 71 a1 bc 9a 98 bb 3d d6 14 31 bd
       0.0076676086 -0.019707464 0.09159966 -0.04323276
000090 a8 09 85 3d ef f5 5a bd c0 02 b6 3d a0 55 fa 3c
       0.064959824 -0.053457197 0.08887243 0.030558407
0000a0 60 98 de bc c0 c9 15 bc 32 de c2 3d b4 79 93 bc
       -0.027172267 -0.009142339 0.09515037 -0.018002369
0000b0 2c 06 b1 bd 4c ee 7e 3d a6 8d 9b 3d d0 81 83 bb
       -0.08643755 0.062238976 0.07595377 -0.0040132776
0000c0 94 f2 52 3d 68 bd 87 bc 28 95 03 3d 50 81 93 3b
       0.05150087 -0.016569808 0.03212467 0.0045014992
0000d0 55 10 24 bd c2 94 ae 3d 80 06 91 3d b6 35 bb bd
       -0.040054638 0.08524467 0.07081318 -0.09141104
0000e0 c8 81 b4 3d d4 f7 16 3d 74 c3 a9 3d 00 f2 1b bc
       0.08813816 0.03685744 0.08289233 -0.0095181465
0000f0 1c 29 86 bc a8 aa 90 3d 29 c4 b8 bd 00 85 a8 3d
       -0.016377024 0.070638 -0.090217896 0.08228493
000100 d5 1c 60 bd 86 af c6 bd 18 a9 21 3d 1d 65 bb bd
       -0.054714996 -0.09701447 0.0394679 -0.09150145
000110 10 eb 06 3d 6e 90 86 3d f8 00 81 bc 22 61 05 bd
       0.032939017 0.065705165 -0.015747532 -0.032563336
000120 d0 dc f1 3c 74 a3 52 3d b3 81 4c bd 18 ac 93 3d
       0.029524237 0.051425412 -0.04992838 0.07210559
000130 dc a7 63 3d a8 ea a7 3d f7 77 c9 bd 71 48 b1 bd
       0.055580005 0.08199054 -0.098373346 -0.08656395
000140 c0 31 d2 bb 88 b4 01 3d 20 84 80 3d 8e 93 7b bd
       -0.006414622 0.03166631 0.06275201 -0.061420016
000150 54 4c af 3d 2d e9 a3 bd 48 94 69 bc 66 fa 17 bd
       0.0855948 -0.08003459 -0.014256544 -0.037104033
000160 2c 81 88 3d a8 5e 36 3d 88 e2 75 3d 50 52 58 3d
       0.066652626 0.044523865 0.06003049 0.052812874
000170 dc b3 1e 3d a8 e8 87 3d b0 dc fb bb d4 e6 82 3c
       0.038745746 0.066361725 -0.00768622 0.015979208
000180 af a0 60 bd 6d e6 80 3c df 19 9c bd 49 00 dd bd
       -0.05484074 0.015734876 -0.07622122 -0.1079107
000190 d0 cd 97 bd 7c 63 60 3d 5c 44 67 bd bf bc 3f 3c
       -0.074123025 0.054782376 -0.056461677 0.011702715
0001a0 15 53 b1 3d 3a 60 1b 3d 1f 49 92 bd ba 45 40 bb
       0.08658425 0.037933566 -0.07142853 -0.0029338435
0001b0 41 52 39 3d 0c 31 c3 3d 3e 14 8b 3d 35 7f 95 3d
       0.04524446 0.09530839 0.0679097 0.072996534
0001c0 d9 7b c9 bc 9a 63 87 3c 1c 68 d1 3d 72 b3 85 bc
       -0.024595188 0.016526986 0.102249354 -0.016320918
0001d0 96 d0 96 3d 13 3b 91 3d 70 8c 7b bd 8c e3 6e 3c
       0.07364003 0.07091346 -0.06141323 0.014580619
0001e0 63 d7 77 3d b8 4b b1 3d 9e ad bb bd 8f 30 25 3d
       0.060508143 0.0865702 -0.09163974 0.040329512
0001f0 b1 00 50 bd b2 bf 88 bd 80 28 99 bc 17 75 5e bd
       -0.05078191 -0.06677188 -0.01869607 -0.054310884
000200 a8 d0 92 bc cf 70 95 3d 30 6d b9 3c c5 54 8d bb
       -0.01792176 0.07296907 0.022635072 -0.004313084
000210 d4 e2 81 3c e3 3c d6 bd 7f 03 dc 3d ce 70 a8 bc
       0.01585523 -0.10460832 0.10742854 -0.020561602
000220 f0 8a 9f bd 01 30 12 3d 4f ba d2 3d e4 dd b7 3d
       -0.07790172 0.03569031 0.10289442 0.08977869
000230 05 ce 79 3d ea dd 30 3d fb 33 1d 3d f7 cb d2 3d
       0.06098749 0.043180384 0.03837965 0.102928095
000240 85 f0 82 bc 00 ec b4 bd 45 5c e6 bc 3d bc 45 bb
       -0.01598383 -0.08834076 -0.02812017 -0.0030172013
000250 4e 1d 8a bd be af b4 bc f0 7b 76 bd af fa 5c bb
       -0.06743871 -0.022056457 -0.06017679 -0.0033718755
000260 f0 4d a1 bc 99 87 79 3d 29 1d 94 3d 3a ca 6e 3d
       -0.019690484 0.06092033 0.07232124 0.058298327
000270 60 06 2f 3d a4 76 3d 3d 96 b6 7f 3d 2a a3 67 bd
       0.04273069 0.046255723 0.062429987 -0.05655209
000280 1f d8 98 3d 10 fc 2d 3d 71 86 2d 3d ad 55 bc bd
       0.07463097 0.042476714 0.04236454 -0.09196029
000290 a9 e3 cb 3d 5d 88 48 bd e6 10 13 bd 5d cf f1 bc
       0.09955532 -0.04895817 -0.035904787 -0.029517824
0002a0 e1 72 26 bd 51 8c 69 3c 66 f1 ac bd 93 f6 b7 bd
       -0.0406369 0.014254645 -0.084444806 -0.08982577
0002b0 5a 44 84 bd 2f 28 20 3d e1 35 72 bd 3a e5 cc bd
       -0.064583495 0.039100822 -0.059133414 -0.10004659
0002c0 01 81 2b 3d f8 54 60 bd c4 fd ee b9 9f b0 b5 3d
       0.041871075 -0.054768533 -0.00045583968 0.088715784
0002d0 8c 92 ad 3d a8 d3 8f 3d 74 c9 45 3d de 01 28 3d
       0.08475217 0.07022792 0.048287824 0.041017406
0002e0 74 6a 82 bd 47 fc d8 3d 9f 6d ac bd df fc b7 bc
       -0.063679606 0.10594993 -0.08419346 -0.022459446
0002f0 dd 11 b2 3d 1d dc c2 ba 67 4c c6 3d 98 5f a8 bd
       0.086948134 -0.0014866624 0.09682541 -0.08221358
000300 9a 60 de 3c 78 31 e5 3c 6d dc 7f 3d 74 ec cc bb
       0.027145673 0.02797769 0.062466074 -0.0062537733
000310 a7 a1 2f 3d 81 5f 5b bd c4 44 b4 bc de d4 db 3c
       0.042878773 -0.053557876 -0.022005446 0.026834901
000320 05 4b 89 bd 30 f2 04 3c 01 b0 46 bd b3 fa d2 3c
       -0.06703762 0.008114383 -0.048507694 0.025754308
000330 1b 5a 79 3d c7 5c f6 bc 51 69 b3 bd 6e 18 80 3d
       0.060876947 -0.030073537 -0.08760322 0.062546596
000340 e8 be 77 bd f2 ba 9b 3d cd f6 90 bd 2d 03 e3 bd
       -0.060484797 0.07604016 -0.070783235 -0.1108459
000350 38 2a a7 3c 8c 9d 13 3d a3 f5 10 3d 4a ca 88 bd
       0.020405874 0.03603892 0.035390507 -0.066792086
000360 77 c7 66 3d b7 45 27 bc 06 cd 85 3b e8 65 0a be
       0.05634257 -0.010209492 0.0040832786 -0.13515437
000370 9e c4 8b 3c a9 c6 d5 3d 9b 74 84 3c 5b 5b a0 bc
       0.017061528 0.10438282 0.016168883 -0.019574812
000380 11 37 41 bd b8 4e 13 3d a5 97 01 3e bb 5c 72 bd
       -0.047171656 0.035963744 0.12655504 -0.059170466
000390 6c 02 12 3c 81 f9 6a 3c 40 65 9d 3d b9 8b 9f 3a
       0.00891171 0.014341713 0.076853275 0.0012172378
0003a0 1b f4 1b 3d 97 bf e5 bc ec dc 0b bd 01 0f 9f 3c
       0.038074594 -0.028045459 -0.034146234 0.019416334
0003b0 70 4f c2 3c 06 57 3b 3d 7b 78 94 3c 2e 1b ac 3d
       0.02371952 0.04573729 0.018123856 0.084036216
0003c0 b3 f7 20 3c 86 1b 48 3d 71 a8 81 ba 54 e2 81 3d
       0.009824681 0.048854373 -0.0009892118 0.06341997
0003d0 53 a2 a6 3d c7 6b cf bc fc 49 13 3d e6 39 92 3d
       0.0813643 -0.025319947 0.03595923 0.071399495
0003e0 d4 a2 72 bb fe cc b4 3d 1d 6b 84 bc 09 c2 b8 3d
       -0.0037023323 0.08828162 -0.016164357 0.09021384
0003f0 d8 6f eb bc 15 33 43 3d 10 09 f7 bd a9 92 5b bd
       -0.028739855 0.047656137 -0.120622754 -0.053606663

edge_model.0.bias f4 [16]
000000 65 a8 c2 bd d4 5e a8 3a 68 11 1d bd 58 cd 0b 3d
       -0.09504775 0.0012845644 -0.038346678 0.034131378
000010 1c a9 68 3b 8f 30 cc 3d a3 06 45 3d c2 08 7b bd
       0.0035501188 0.09970199 0.048102032 -0.06128765
000020 53 29 40 bd 8f 64 d2 bc c8 c2 c6 bc 7d 1b 94 3d
       -0.04691441 -0.025682716 -0.0242628 0.072318055
000030 5b 67 b9 3d c4 4e b7 3d c0 ac 65 3c 31 7d 8c bd
       0.090529166 0.0895057 0.014018238 -0.06859816
