tmp/tmp6model700.pt (torch, 23679 bytes, 25 tensors)

node_encoder.0.weight f4 [16, 5]
00000000: 3cdb 6e3d 26be 953d 8fbc db3e 20e3 c53d
00000010: e006 73be 45d0 8dbd 9cbf 293e 77d6 4b3e
00000020: e036 5c3d ce52 98be f6a6 18be f821 01bd
00000030: 3013 f43d c099 763e b5a6 82be 4c85 6f3e
00000040: c530 983e 6ca0 c63d d856 f7bd 6ec1 8fbe
00000050: fff6 a2be 81b8 51be bab2 f6bd bcd6 983e
00000060: 1406 a73d 36b5 d6bd 59ce 8bbe ad2b 963e
00000070: 1264 84be 96f8 9cbd 584a a73c d9d4 dbbe
00000080: 775a bb3e d29b b9be 0028 313e d06d 343e
00000090: d6b8 20be 9ba0 6dbe 1420 af3e cc86 3bbe
000000a0: 422b d13e 7b33 6b3c c3e7 bb3e cc79 9f3e
000000b0: 339a 28be d0b0 72bd 9ce8 173c ea95 993e
000000c0: 9838 0a3d 8a08 47be 47fb 23bc ede2 babc
000000d0: ac52 cd3e f0e9 483e c460 94be 246d 9bbe
000000e0: 47fb 73be 802d 803e 18b3 103d f8f6 07be
000000f0: 9f7f cd3d 9e11 773e 502d a63c 84a8 343e
00000100: a234 16be f947 b83d af13 963e 7b15 1dbe
00000110: 5c7e 0dbe 7551 3fbe a74b 163e 1f33 80be
00000120: aeba df3e 8c25 733e 27fc c7be fa0d 13be
00000130: 7f10 d33e c1da 08be f6e0 d5be 1980 d93e
0.058314547 0.073116586 0.42917296 0.09662461 -0.23733091 -0.0692449 0.16577 0.1990603
0.05376327 -0.29750675 -0.1490744 -0.031526536 0.11917722 0.24082088 -0.25517812 0.23390692
0.29724708 0.09698567 -0.12077111 -0.28077263 -0.31829068 -0.20480539 -0.12045808 0.2985133
0.08155456 -0.10483782 -0.27305868 0.29330197 -0.25857598 -0.076646015 0.020421192 -0.42935827
0.36592457 -0.36251694 0.17300415 0.17620015 -0.1569551 -0.23205797 0.3420416 -0.1831314
0.40853316 0.014355536 0.36700258 0.3114761 -0.16465072 -0.059250653 0.009271767 0.29997188
0.03374538 -0.19436851 -0.01000864 -0.022813285 0.40102136 0.1962049 -0.28980076 -0.30356705
-0.23826323 0.25034714 0.035327047 -0.13277805 0.100341074 0.24127814 0.020285279 0.17642409
-0.14668515 0.08998103 0.29311892 -0.15340225 -0.13817734 -0.18683417 0.14677297 -0.25039002
0.43697113 0.23744792 -0.39059564 -0.143608 0.41223523 -0.13364698 -0.41773194 0.42480543

node_encoder.0.bias f4 [16]
00000000: d64b b7be da7c 02be e0aa fcbd cd8a 82be
00000010: 0d1d cb3e 8dcb 6f3e 3a14 31be 601c cabc
00000020: 375f 13be fd2c c3bd e0c7 3a3e c02f 5cbd
00000030: c57f 0d3e 69b4 c0bd 9c7b a6be 8e38 e63e
-0.35800046 -0.1274294 -0.12337279 -0.25496522 0.396706 0.23417492 -0.17292872 -0.024671733
-0.1439179 -0.09530065 0.18240309 -0.053756475 0.13818271 -0.094094105 -0.3251618 0.44965023

node_encoder.2.weight f4 [16, 16]
00000000: 81c3 7b3e 5739 e1bd 102e 9ebd 90e0 f3bd
00000010: 0fe6 0f3e 2e73 f43d efa8 953d cc7e 9fbd
00000020: b934 ae3c 4a17 2b3e 3a0f 9d3d a42f 723e
00000030: e188 053e fd5c 1fbe 9bd0 57be 4344 393e
00000040: aa22 46bd 581d aabd 3a79 063e 3100 4fbd
00000050: 5042 0bbe 9ed9 efbd 38de 12bd f4ef 9abd
00000060: fb38 893d 47f0 97bd 36f6 7a3e 607e c03d
00000070: 260d f2bd df94 05be 2640 21be 89b5 2f3e
00000080: 820b cebd d69d dcbc cc8a 443e 2e10 b2bd
00000090: e589 a9bc 8377 02be b45a 583e 701e af3d
000000a0: 33e5 26bd f366 f1bd 63e8 483e 4466 093e
000000b0: 32f8 813d d067 fd3d ec47 673e dd75 8f3d
000000c0: 8e6b 54be d650 dabd 90e6 b5bd 39b6 743e
000000d0: 6bd4 bf3d 24e9 fbbd 5f6e f13d 501d f5bd
000000e0: 4b82 5f3e cb79 53bd 9477 a03d b60c 2a3e
000000f0: 9df7 283e 05b4 83bd 93b4 9b3e 2d82 a43c
00000100: cff5 e7bc 4a9f 7cbe 40ad 3c3d 11cd 2a3c
00000110: cebd 1cbe d11a 88bd e830 583e 58dc 96bd
00000120: 57d5 cfbd 5d1e 72bd 47cc 72bd 1027 16be
00000130: 8aec 5f3e 6d3d 653e 4fa8 ecbd a9b8 3bbe
00000140: cae4 3d3d e294 943d 4874 b1bd 41fb 62be
00000150: 2d07 6a3e e2f8 51bd 1803 453e 64d3 e9bd
00000160: 0927 55bd 9c9d f73d 65be 033d 104c 39bd
00000170: fd38 55bd cd70 2e3e 659a 043e a4f7 213d
00000180: 93c7 673e 9f7c 233d 2c56 6f3e 8ff0 f8bc
00000190: 7de1 6a3e 768b 713d 9522 1fbe 5478 e6bd
000001a0: 24c1 79be a540 ef3d 41f0 043e 9ed2 763e
000001b0: 039a 2dbe 28e7 2dbd 3583 4abe 8851 223e
000001c0: 693b 1abd 63f6 19be 407c 3abd dcde a53d
000001d0: 5124 ab3e 9194 b2bd 7d59 513d a6c7 34be
000001e0: 454b a03d 4341 d33c 6f53 c43d 8a97 163e
000001f0: 0315 c23d c13a 193d 7d74 5dbe 1a91 a3bc
00000200: eaac eabd 16e9 803b d8a3 10be 9a94 b3bc
00000210: 2f5c 5bbe 259d 3d3e faac e9bd 7004 08be
00000220: 1a46 5b3e 0526 a33d 4e14 3fbe dc27 1abe
00000230: aae8 b1bc 056f 83be 45bc 573e e418 003e
00000240: df49 52be 5d93 1a3d 8e6e 503e 79b1 0cbe
00000250: def9 1fbe b2a2 b0bd 739f 2fbe 28b9 723d
00000260: de0c d3bd 625b 5cbe 4ea3 2fbe 7069 4b3e
00000270: 9bfe 22be 05cf a53d bd83 0dbe 369b bebd
00000280: 1a44 2a3e 4760 f53c 8233 713e fa9d 6d3d
00000290: e0ac 8e3e 9656 1bbe a260 debd 6cc7 b03d
000002a0: 53dc 3cbe 44b3 4d3d 5fcd 3fbe 2032 4d3e
000002b0: a13e e0bc 93da 213d 947b 433d 3dbf 243e
000002c0: 1042 303e 137d 3b3e 9e21 54be b431 12be
000002d0: 6d42 b5bd a011 b13d e65e 6fbe cc40 54be
000002e0: e5b5 ff3d 8c00 5abe 64b2 9abc 4a6d 5dbe
000002f0: 0f27 32be a521 173e 4bf0 c83d 1184 273e
00000300: e061 c73c 1cda 73bd c0ce cf3c 6c1d 763b
00000310: c419 fcbd ece7 2cbe e9e5 aabd 20c7 023e
00000320: af3e 873e 3c54 8d3d 3bb7 db3c f833 893d
00000330: 8e9d 803e 6926 9b3d dffd 473e 53bb 313d
00000340: 8306 403e 326d 7d3c 4a9a 3abe 6557 b53d
00000350: b6ad fb3d b91e 873d dd70 0dbe 52aa 383e
00000360: a355 15be e389 213e 65bc 37be e0de f13c
00000370: af5e e43d 29bb d63b 2cff b93c 9201 7b3c
00000380: 8a94 2ebe 70ec 733e 5049 03bd 5ebf 6b3e
00000390: 3368 913d 3133 00bd cec2 60bd 4cc0 0f3e
000003a0: 87b6 19be 74b7 e3bd 761d 903c 8acb 503e
000003b0: fdaa 723e f65f 21be 60fe 88be ff19 673e
000003c0: b2a6 493e 423f 3b3e 16e1 623e 9e03 df3d
000003d0: da3d 463e 6abc b6bd 052c 42be 9c4c db3d
000003e0: ec19 d4bd 4afe 71be 9560 d73d 404b dc3c
000003f0: a113 76be c35b 203d 8ee7 88bd 2100 ea3c
0.24586298 -0.10997265 -0.077236295 -0.11908066 0.14052604 0.11936031 0.07307612 -0.077878565
0.021265374 0.16708103 0.0766892 0.23650986 0.13040496 -0.15562816 -0.2107567 0.18092446
-0.048372902 -0.08306378 0.13132182 -0.050537292 -0.13599515 -0.11711429 -0.035856456 -0.07565299
0.06700321 -0.07418876 0.24507985 0.09399104 -0.11818914 -0.13045071 -0.15747127 0.17159094
-0.10060789 -0.02693073 0.19193572 -0.08694492 -0.020695636 -0.12740903 0.2112835 0.08550727
-0.040745925 -0.11787214 0.19619898 0.13417917 0.063461676 0.12373316 0.2258603 0.070049025
-0.20744154 -0.106599495 -0.08881867 0.23897637 0.093666874 -0.123003274 0.1178863 -0.119684815
0.21827047 -0.051629823 0.07835308 0.16606411 0.16500707 -0.064308204 0.30411205 0.020081604
-0.028315453 -0.24670139 0.04606366 0.010424868 -0.1530678 -0.0664574 0.21112406 -0.07366246
-0.10148113 -0.059110988 -0.059276845 -0.14663339 0.21867576 0.22386713 -0.1155554 -0.18332161
0.04636077 0.0725496 -0.08664757 -0.22166158 0.228543 -0.051262744 0.19239461 -0.11417273
-0.05203918 0.120906085 0.032163996 -0.045238554 -0.0520563 0.17035218 0.12949522 0.03954281
0.22634725 0.03991377 0.23372716 -0.030388145 0.2293758 0.05897089 -0.15540536 -0.112534195
-0.24390084 0.11682252 0.12982275 0.24103782 -0.16953282 -0.042456776 -0.19776614 0.15851414
-0.037654314 -0.15035395 -0.04552865 0.08099148 0.33426145 -0.08719743 0.051110733 -0.17654285
0.078268565 0.025787955 0.09586226 0.14706245 0.09476664 0.037409548 -0.21626468 -0.01996665
-0.11458762 0.003934036 -0.14125001 -0.021921445 -0.21421884 0.18516977 -0.11409946 -0.13282943
0.2141346 0.07966236 -0.1866009 -0.15054268 -0.021717388 -0.2567064 0.21067913 0.12509495
-0.20535992 0.037738193 0.20354673 -0.13739575 -0.1562266 -0.08624782 -0.17150669 0.05925861
-0.103051886 -0.21519235 -0.1715214 0.1986444 -0.15917437 0.080961265 -0.13819785 -0.09306948
0.16627541 0.029953135 0.23554805 0.058011986 0.27866268 -0.15169749 -0.10858275 0.08631787
-0.18443422 0.05021979 -0.18730687 0.20038652 -0.027373614 0.03951509 0.047725275 0.16088577
0.17212701 0.18309431 -0.20715949 -0.14276773 -0.0885056 0.0864594 -0.23376045 -0.20727843
0.124858655 -0.21289271 -0.018883891 -0.21623722 -0.17397712 0.14758928 0.09811457 0.16358973
0.024338663 -0.059534177 0.02536714 0.0037554158 -0.12309602 -0.16885346 -0.08344633 0.12771273
0.2641501 0.06900832 0.02682077 0.066993654 0.25120205 0.075756855 0.19530438 0.043391537
0.18752484 0.015467929 -0.18222919 0.0885456 0.12288992 0.06597657 -0.13812585 0.18033722
-0.14583449 0.15775256 -0.1794296 0.02952522 0.11150872 0.006553073 0.022704683 0.015320199
-0.1704885 0.23820662 -0.032052338 0.2302222 0.070999525 -0.03129882 -0.05487328 0.14038199
-0.15011035 -0.11118975 0.017592173 0.20390144 0.2369804 -0.15759262 -0.26756573 0.2256851
0.19692495 0.1828585 0.22156176 0.10889362 0.19359532 -0.08922656 -0.18962105 0.107079715
-0.10356507 -0.2363216 0.105164684 0.02689135 -0.24030925 0.03915001 -0.066847906 0.028564515

node_encoder.2.bias f4 [16]
00000000: 190b 7c3d 93c4 53be 6446 10be 01d4 0f3d
00000010: d041 c03c 9c35 373e bee8 57be f229 1fbd
00000020: 85c8 e73d 9a7d 153d a9b1 eabd 02c8 903d
00000030: 8990 4a3e e799 23be a7b4 1d3e 0b13 68be
0.06153402 -0.20680456 -0.14089352 0.035114292 0.023468882 0.17891544 -0.21084878 -0.03885836
0.11317543 0.036496736 -0.11459667 0.070693985 0.19781698 -0.15976678 0.15400945 -0.22663514

node_encoder.3.weight f4 [16]
00000000: aaf3 803f 8c9c 7f3f 9615 833f ab2c 7d3f
00000010: 48fb 803f eb50 803f 0a1d 803f 47fd 7b3f
00000020: 3baa 7e3f 1fdf 7f3f 5200 7f3f 77cb 7a3f
00000030: 0c95 7d3f 7bac 803f 803d 7f3f 6712 7f3f
1.007436 0.99848247 1.0240963 0.9889628 1.0076685 1.0024694 1.0008862 0.98433346
0.994785 0.9994983 0.99609864 0.9796671 0.9905555 1.0052637 0.99703217 0.99637455

node_encoder.3.bias f4 [16]
00000000: 5b5b 7d3c 66c1 3f3b f15a c9bc 5c65 51bc
00000010: 832f 11bc 952f 033b ff62 8fba 1587 123c
00000020: 0ed5 38bc 9d72 94bb bc0c 3ebc dc79 76bb
00000030: 752b dbbb 824f 15bc fb52 d5bb aa43 da3a
0.015463675 0.0029259562 -0.024579497 -0.012780514 -0.008861425 0.0020017375 -0.0010939537 0.008943339
-0.011281265 -0.0045302645 -0.011599716 -0.0037609255 -0.00668853 -0.009113194 -0.006510136 0.0016652246

edge_encoder.0.weight f4 [16, 4]
00000000: bb46 ec3d b28e 11be fef2 5cbe 6427 c5be
00000010: e002 3f3e b76c ca3e e8b8 b03e ffec e0be
00000020: 4e06 aebe 196b a83e 5a21 b83e d0d0 e6be
00000030: 746e f8be 84b5 113e b8d1 6f3e f64f d4be
00000040: 45f5 093e 8e96 df3e 9045 a3be 0f24 4a3e
00000050: 8a65 c0be 12d7 b43e 5ab7 b8be f935 8f3e
00000060: 1c38 f5be 6b03 5d3e 8026 39be ec14 0bbe
00000070: 04cb eebe ebb5 72bd 821a b6be f626 83be
00000080: f044 fcbe 9ee2 8bbe 20cc a43e eab3 84bd
00000090: e062 dbbd 3885 9e3d 48db b43d 7c42 dbbe
000000a0: 3599 f23e 7429 90be cece 013f 932a 9f3d
000000b0: e791 c53e ce83 853e 74b4 a6bd 5015 8f3e
000000c0: b883 e93e 4868 573c 31c5 ac3e 0581 d03d
000000d0: 76ac 97be 66c7 3dbe a0ea e3bd 5899 5f3e
000000e0: 6136 0ebe f43b 1abe 57b7 9fbd 94e0 edbe
000000f0: d493 353d 6291 963e b89d 08be 0481 d0bd
0.11536928 -0.1421459 -0.21577069 -0.38506615 0.1865344 0.39536068 0.34516072 -0.43930814
-0.33989185 0.3289421 0.35962945 -0.45081186 -0.4852177 0.14229399 0.23419845 -0.41467255
0.13472469 0.43669552 -0.3188901 0.19740318 -0.37577468 0.35320336 -0.36077386 0.27970865
-0.4789437 0.21583335 -0.18081093 -0.135822 -0.46639264 -0.05925552 -0.355671 -0.25615662
-0.49271345 -0.27321333 0.32186985 -0.064796284 -0.10712218 0.07740253 0.08830887 -0.4282416
0.47382513 -0.28156626 0.50706184 0.07771792 0.38587877 0.26077121 -0.081398875 0.27945948
0.45608306 0.013147421 0.33744195 0.101808585 -0.29623765 -0.18533096 -0.111287355 0.2183584
-0.13887931 -0.15061933 -0.07798641 -0.46460402 0.044330433 0.29407793 -0.13341415 -0.10180858

edge_encoder.0.bias f4 [16]
00000000: 58cf 5c3e 7832 773e a4b4 b43d 0c1c d5be
00000010: c0e2 cf3e dff8 f63e 9d26 4fbe d1f4 483e
00000020: 724b fa3d f4bb a3be c80e d83e 14fb 563e
00000030: a8b0 43bd e843 c3bc 46a8 613e 468b 823e
0.2156347 0.24140346 0.08823517 -0.4162296 0.40602684 0.4823675 -0.20229574 0.1962464
0.12221421 -0.31979334 0.42198777 0.20994216 -0.047775894 -0.023836091 0.22036847 0.25496882

edge_encoder.2.weight f4 [16, 16]
00000000: 217a 013c 11dc 753c 4adc 2e3e 0e0d 2cbe
00000010: 93da 113e 2879 cf3d d33b bd3d a39c ccbd
00000020: 7a44 3abe 5c48 ea3d 60cf b03d 724a 73bd
00000030: 9de7 1e3e c6b8 e23b 6f43 623d e688 4dbe
00000040: ebe9 813e 624d 143e 7de8 56bb 8e8b 603e
00000050: d01c ef3c 1653 7c3e 5305 9abd ef96 19bd
00000060: bb95 103e 2e4b 33be f037 9e3d e38b 593e
00000070: c0fb 04bd 18ee 59bc 1b4d 00be ae00 41be
00000080: 341a 9e3c 9fb1 f73d 1ba7 a93d 40b1 cebc
00000090: c6d5 ccbd 28ed 0e3e e494 473e 20c2 2b3e
000000a0: fbc4 8b3e 3473 0e3e 895f d03d a894 383e
000000b0: 98d0 663e 790e 883e 5fb6 003e 01ae eebd
000000c0: a36a 5e3e d3c8 823e 4010 4fbe 3668 0fbe
000000d0: 8e77 a93d 7623 fc3c 391e 883d d5e0 97bd
000000e0: a4c8 c0bd 9e66 3cbe 77a7 9ebd 1605 e53d
000000f0: 35d9 1d3c 4fca 56be 5cc4 a1bd 2b3c d93d
00000100: cff3 2ebe 649b cdbd 86e7 613d 5060 b7bc
00000110: 0588 f2bc 878e 8ebd 6535 353d ad44 79be
00000120: f770 24bc 9063 a83c bf90 0ebe 722d c2bd
00000130: 6d5a e6bd 6c73 d53d 572f 04be 5017 4c3d
00000140: 3356 41bd 1214 1ebe 36ed 2fbe 8e89 65be
00000150: c405 283e 4ece 6fbe 039c 4d3e 6e4d d23d
00000160: 42b0 fa3d a486 4fbe f9cc 15bd 0706 5abd
00000170: 9e34 75be 41b0 00be 1b83 073d d513 65bd
00000180: e088 393e af65 ffbd c7c5 30be 74a5 d4bd
00000190: 7de4 17be 2d5e 383e 7c3c d9bc 4273 9f38
000001a0: 082b 18be 744b 68be deb3 aabd 1678 07bc
000001b0: 6974 afbd e379 9e3c c8d5 683e 2d4f 76be
000001c0: d619 0bbe 8eea d23d e507 87bc a075 36be
000001d0: 53ca 233e 5019 23bd ac5c 043e 4742 2f3e
000001e0: 6344 62be 80e0 063d 0c20 2f3d 0844 393e
000001f0: b5e7 63be ba9a 5dbe b5e6 42bb c33f 64be
00000200: cb13 253d ff70 e23d be9c 6bbe 7026 39be
00000210: 2725 88bd 22f3 da3c 2d55 abbb 7c3b 35be
00000220: ed3e 383e fa6f 2b3e e80f 62be b09d 39be
00000230: c088 3bbe e089 373e 8c16 6d3e 3c53 383e
00000240: 0260 233e f675 483c b75b 3f3e 82cb 513e
00000250: 3dc9 4a3d 0e57 533e 081c fdbd f18b 3cbe
00000260: 0b6e 9b3d fa25 49be d77e b93b 7ebb e2bd
00000270: 260b 1b3e e540 79bd 59aa 91bd e82e 193e
00000280: da66 42be f8c3 c3bc d727 fb3d f07b 30bd
00000290: 5495 1cbd 875f 4a3e c487 a1bd 1904 573d
000002a0: fa8b 9f3d c03d cbbd 8df4 843e 87fa 083e
000002b0: 6dfc d53d 25f7 8a3e a797 6f3e a994 19be
000002c0: a852 81bd 1f7d d8bd 606f 36be 960c 02be
000002d0: 32dd eabd d8fe 6dbe e421 30be 6741 7cbd
000002e0: 8bf0 31be e29e 1abe f937 4bbe 1b72 acbd
000002f0: 9fb9 d8bd b942 d5bd 6e2b c2bd 4dc7 083e
00000300: 631c 78be 686f 51be 2c1c cb3d c2f3 3bbe
00000310: 76c9 5e3e 751f a4bd 9038 753d b555 7dbe
00000320: d62c c03c d0e8 42be 1fec 10be 7f55 893d
00000330: b098 ef3c 8fee 84bd aa9e e33d 872b 22be
00000340: 5f92 41be 7c6c 94bd 7140 3abe 0041 deba
00000350: 4ef8 3c3e 12a4 fe3d b7e8 61bd f553 2ebe
00000360: d384 703c 7870 f23d d78d 53be b9d4 40be
00000370: f5f0 54be 33f6 683e 1c28 72ba a77f c53d
00000380: 0001 103d 2901 d5bd d574 9b3c 80a1 6d3b
00000390: bd31 65be 8584 08be 6bd6 d93d 4617 2dbd
000003a0: 679e 3c3d 0625 343e be1d 2cbe 43a1 373d
000003b0: 0af6 ed3b 2f0c af3d f641 833e 469c 433e
000003c0: 6d0f 02be 635f 95bd b151 debd a414 7a3e
000003d0: c110 483d 4968 47bd 098b 633e b6ef acbd
000003e0: 7a2a 26be 822d 3dbe 68a7 0a3e d647 673e
000003f0: 912e 463c 8409 72be d625 bdbb 6f72 883b
0.007902653 0.015006081 0.17076221 -0.16801855 0.14243536 0.101305306 0.09239926 -0.099908136
-0.18190184 0.11439583 0.08633304 -0.05939717 0.15518041 0.0069189994 0.05524009 -0.20071754
0.25373778 0.14482644 -0.0032792382 0.21928236 0.029188544 0.2464107 -0.07520547 -0.037497457
0.14119618 -0.17509148 0.07725513 0.21244769 -0.03246665 -0.013301395 -0.12529413 -0.18847916
0.019299604 0.120944254 0.08283826 -0.025231004 -0.100017115 0.13957655 0.19490391 0.16773272
0.27298722 0.13911134 0.10174472 0.18025458 0.2254051 0.26573542 0.12569569 -0.11654282
0.21720366 0.25543842 -0.20221043 -0.14004597 0.08274756 0.030778628 0.066463895 -0.0741593
-0.09413269 -0.1839852 -0.07746785 0.11182611 0.009634306 -0.20975612 -0.07898781 0.10607179
-0.17085193 -0.10039404 0.05515244 -0.022384793 -0.029605875 -0.06960779 0.044240374 -0.24342604
-0.010036699 0.020555288 -0.13922404 -0.09481324 -0.11247716 0.104224056 -0.12908684 0.04982692
-0.047201347 -0.15437344 -0.17180333 -0.22415754 0.1640845 -0.23418543 0.20079045 0.10268675
0.1224065 -0.20266205 -0.03657243 -0.053228404 -0.23945853 -0.12567236 0.033084016 -0.055927116
0.1811862 -0.124705665 -0.17262946 -0.1038312 -0.14833255 0.18004675 -0.026518099 7.603179e-05
-0.14860165 -0.22685033 -0.08335088 -0.008268377 -0.08567125 0.01934523 0.22737801 -0.2405364
-0.13584074 0.10298644 -0.016483257 -0.17818308 0.1599515 -0.03981906 0.12925977 0.17115127
-0.220964 0.032928944 0.04275517 0.18092358 -0.22256358 -0.21641055 -0.0029739563 -0.22289948
0.04030208 0.110567085 -0.23009011 -0.18081069 -0.06647711 0.026727263 -0.0052286596 -0.17698473
0.17992754 0.16741934 -0.2207638 -0.1812656 -0.18313885 0.17923689 0.23153132 0.18000501
0.15954593 0.012235155 0.1868733 0.20487788 0.049508322 0.20638677 -0.12358862 -0.18412758
0.075893484 -0.19643393 0.0056608724 -0.110709175 0.15140972 -0.060852904 -0.07112569 0.149593
-0.18984547 -0.023897156 0.12263458 -0.043086946 -0.038228348 0.19763003 -0.07887223 0.052494142
0.0779037 -0.09923887 0.25967827 0.13376819 0.10448537 0.2714168 0.23397695 -0.14998116
-0.063145936 -0.1057074 -0.17815924 -0.12700114 -0.11467971 -0.23241746 -0.17200428 -0.06158581
-0.17376916 -0.15099671 -0.1984557 -0.084202014 -0.105822794 -0.10413117 -0.0948094 0.13357277
-0.24229579 -0.20452654 0.09917483 -0.18354705 0.21756539 -0.080138125 0.059868395 -0.24739726
0.02345888 -0.19034123 -0.14152573 0.0670576 0.029247612 -0.06490814 0.11114247 -0.15836917
-0.18903492 -0.07247254 -0.18188645 -0.0016956627 0.18454096 0.12433638 -0.055153575 -0.17024215
0.014680105 0.11837858 -0.20659576 -0.18831147 -0.20795043 0.22750168 -0.0009237544 0.096434884
0.035157204 -0.10400612 0.018976608 0.0036259592 -0.22382255 -0.13331802 0.106366 -0.042258523
0.0460495 0.17592248 -0.1680822 0.044831526 0.007261996 0.08547246 0.25636262 0.19102582
-0.12701197 -0.07293584 -0.10855425 0.24421936 0.048844103 -0.04868344 0.22221006 -0.08444159
-0.16227141 -0.18474391 0.13540423 0.22585997 0.012096063 -0.23636442 -0.0057723327 0.004164032

edge_encoder.2.bias f4 [16]
00000000: e727 78be 0fb4 ce3d 0b3e 733e eb38 673e
00000010: 1fcf 4fbe 17b9 433e cf47 42be 91b5 75bd
00000020: cbd7 bc3d ba08 4bbe b4ec 0e3e ff15 64bd
00000030: 03b9 1cbe f6e4 ce3c 1413 6b3d 7625 2f3e
-0.24233972 0.10092937 0.23754136 0.22580306 -0.20293854 0.19113575 -0.18972705 -0.05998761
0.09220847 -0.19827548 0.13957483 -0.05568504 -0.15304951 0.025255661 0.05739124 0.17104134

edge_encoder.3.weight f4 [16]
00000000: cad6 7f3f 61d8 7e3f e2c8 7e3f 87c4 843f
00000010: 6a1b 793f 99db 803f a305 7b3f dd95 7b3f
00000020: 7cd2 7c3f b6f8 7b3f 4cba 813f 1277 7e3f
00000030: 8554 7a3f d395 7c3f c1e1 7d3f 0e8e 803f
0.9993712 0.9954892 0.9952527 1.0372475 0.97307456 1.0067016 0.98055476 0.9827555
0.98758674 0.9842638 1.0134978 0.99400437 0.97785217 0.98666114 0.991726 1.0043352

edge_encoder.3.bias f4 [16]
00000000: c8a3 80bb 8d38 5bbb f16b c5bb 3fdc 173d
00000010: 08a6 873c 3197 1f3b 2555 8e3c 8cca bf3b
00000020: efd0 df3a ba93 b3bb 7baa bc3b 77d5 8a3b
00000030: b108 883c 4547 e1bb c971 d83b 432d 3a3c
-0.0039257742 -0.0033450455 -0.0060248305 0.037075277 0.016558662 0.0024351592 0.017374584 0.005853003
0.0017075817 -0.005480257 0.0057576275 0.004236873 0.016605707 -0.006874951 0.006605361 0.01136333

node_model.0.weight f4 [16, 48]
00000000: a105 8e3d a347 833d 0009 4d3c 4e51 c0bd
00000010: 6927 34bd b210 7b3c 947a 5dbd 10cd 31bd
00000020: 600c aebd 2e4a b5bd 4a77 533d 7e0b bb3d
00000030: 2aa8 bfbd a7c3 1abd 3a4e 4e3a 0f91 163e
00000040: ea94 dabc 7fa2 01bc 6d54 e0bd 7baa aabd
00000050: 75f4 d53d bc15 49bd e32d db3d 7477 bdbb
00000060: fe64 863c fbb4 c5bd 0d68 be3d ea08 dbbb
00000070: a8ec 793d 8be7 aa3d f036 1d3c da4a 003d
00000080: db6e 1f3d cada f7bc 561f 313d 4ae8 fdbd
00000090: cc16 a2bc 434f fd3d 37e0 5d3d 6c16 eb3c
000000a0: 96e8 0e3d 2dda 913d 10db 633d 0a96 873d
000000b0: 7e22 023e 9617 b4bd 0376 e7bd 36ae 613d
000000c0: b75d de3d dfcc ffbb e9ce 0ebd dd19 2f3e
000000d0: 6b74 93bd ad5c 2f3e e9be 653d 4ee7 e13d
000000e0: f179 84bd 17aa 24bd dd52 1e3d 92f1 233e
000000f0: 9ed4 a43d 3f1e c0bb a835 9c3d 3185 cd3b
00000100: 34a8 f23d 2329 253c bd02 9f3c 9118 813d
00000110: 026b 913c ed79 d0bd 97ae ae3c 7074 153e
00000120: 43f7 083d caf4 523d 0a65 1d3e 3206 3f3d
00000130: 1c00 81bd 801b d13c 39a0 883d 8a5e 7e3d
00000140: 26b0 373e e086 b5bd 63ea 423c 0a9a 4ebd
00000150: 10cd 4abd 1386 bb3c 0a9a 2a3c 00b6 633d
00000160: 5c04 023d 16a3 0c3e 907b 70bb cd24 e7bb
00000170: d35d 10be c101 cf3d 0765 113d 495b 53bc
00000180: fd9c d5bd 700f 4bbd 8b51 8d3d 41ed ab3d
00000190: 2926 95bc 5a23 9abd 9f7b 113c 1987 a9bd
000001a0: 2ee2 c13d 2425 c73d eee0 46bc 69f0 e8bd
000001b0: 727f 363c 8140 32bc 67c3 c6bd 834e 1a3e
000001c0: e8f5 3d3c 505c a7bd a891 103e afef 863d
000001d0: cb2b 8abd 9b07 d13c 37a4 e1bc 8e6c a93d
000001e0: 0ec0 aebd 0d40 9bbc 1afd 543d a648 cf3d
000001f0: 692b 09be 5ec1 b83d 9de5 0a3e 7bc4 5d3d
00000200: fb8f 1cbd 6cb4 c33d fb76 8cbc d9f2 07be
00000210: a978 663d 1163 c23d 2c08 093e 460f edbd
00000220: 37c2 ee3d 34ee 923c 2555 013d 9fd0 22bd
00000230: 5a40 603b 05b6 fe3b 041f 53bd 470e bc3c
00000240: 9b4e 99bd 4d24 cabd 8382 5a3d 3560 333d
00000250: dfa4 6fbd 74c2 5d3b a53a f4bd c4f2 a53d
00000260: 25f6 003e 794f 153a b257 c63d 6b73 2ebd
00000270: b8ad 10bd ac54 ad3d 3b01 09be 62ca f23d
00000280: 3f4d 1cbd 79f8 b6bd e5ab 8d3d 6243 983d
00000290: ef9e 27bb 91ed bfbd eeba 473d 1675 cd3d
000002a0: 4c49 58bc fb8e 9a3c 934f bcbd b633 2c3e
000002b0: 561e 43bd 2e0a 3d3d afa8 6bbc 8727 7cbd
000002c0: ac61 73bd 3f89 3e3c 2041 cdbd 1eb0 69bd
000002d0: 1c98 a43c 8bca d33d 5571 1fbd 36c4 5bbd
000002e0: 3959 fabd b6f3 f23d fb99 00be 0a75 8a3d
000002f0: 50ef b1bd 78d1 0fbe 2cec e83d 9033 8fbd
00000300: 8c4d 7bbd 5908 2abd 77a6 ccbc 19b5 023e
00000310: 3e6e 443d 560d 02be 6885 7ebd a30d 173d
00000320: a316 c6bc bd5a 653d 1344 edbd 4e6f e3bc
00000330: 071b 453d d596 ef3d a682 c5bd df6d cd3d
00000340: ab18 b43d 657a 8d3d 6006 59bd a5c9 64bd
00000350: 9b23 913b 5a9a 30bd 38f2 cb3d 5560 e9bd
00000360: 439c ba3c 0334 be3d ae7b d1bd a755 073d
00000370: cbbf a0bd 5f1e 9abc b5ca db3b 63ef aabd
00000380: 5a47 bdbb 73aa c8bd 0ad0 17be 0912 d9bd
00000390: 5d68 a03d 6eb4 d03d d0d2 f4bd 7e58 18be
000003a0: b680 483d dafd 9ebd a3ba 133e 6e94 bbbd
000003b0: 98f1 063e ace8 c3bd b400 f33d 6122 cdbd
000003c0: 215d 283e 78f3 153b 1a51 24be 4baf e5bd
000003d0: 9fa8 6b3d 29e3 a3bd 8b11 1ebd 1291 b9bd
000003e0: 5686 88bc c817 b73d 6186 1fbe c460 173e
000003f0: c94f 0a3d 97ae 413d 292d 6d39 f55d efbd
0.069346674 0.06410148 0.012514353 -0.09390508 -0.043982897 0.015323805 -0.054071978 -0.043408453
-0.08498454 -0.08852039 0.051627435 0.09133051 -0.093582466 -0.037784245 0.0007869933 0.14703773
-0.026682336 -0.007912277 -0.10953603 -0.08333298 0.10447017 -0.049092993 0.107021116 -0.005782062
0.016405579 -0.0965366 0.0929719 -0.0066844122 0.06101671 0.083449446 0.009595618 0.031321384
0.03892408 -0.030255694 0.043242775 -0.12397821 -0.019786261 0.123686336 0.054168906 0.028697215
0.03488978 0.07121692 0.055628836 0.066204146 0.1270847 -0.08793561 -0.11301806 0.05509778
0.108577184 -0.007806405 -0.034865294 0.1709971 -0.07199939 0.17125197 0.05609027 0.11030446
-0.06468571 -0.040201273 0.038653243 0.1601012 0.08048366 -0.0058629806 0.076274216 0.006271981
0.118484885 0.010080609 0.019410485 0.06303514 0.01775122 -0.101795055 0.021323485 0.14595199
0.033438932 0.05150298 0.15370575 0.046636768 -0.06298849 0.025525808 0.06671185 0.06210188
0.17938289 -0.08863616 0.011896702 -0.05043987 -0.04951197 0.02289108 0.010412702 0.05559349
0.03174244 0.13734087 -0.0036694743 -0.0070539475 -0.14098291 0.101077564 0.035496738 -0.012900182
-0.10430334 -0.04957527 0.06900319 0.08394862 -0.018206673 -0.07526274 0.008879571 -0.08277721
0.094669685 0.09723881 -0.012138588 -0.113739796 0.011138784 -0.010879637 -0.09705239 0.15069012
0.011594273 -0.08171904 0.14118063 0.06588685 -0.06746634 0.025516322 -0.027544124 0.08272658
-0.08532725 -0.01895144 0.05199919 0.101212785 -0.13395466 0.09021257 0.13564153 0.054142457
-0.038223248 0.09555897 -0.017146578 -0.13276233 0.056267414 0.09491552 0.13382024 -0.11575179
0.11658137 0.01793585 0.03157534 -0.039749738 0.0034218044 0.0077731633 -0.05154325 0.022956027
-0.07485696 -0.09870205 0.053347122 0.043792922 -0.058506843 0.0033837827 -0.11925248 0.081029445
0.12593897 0.0005695741 0.09684695 -0.04259054 -0.03532192 0.084634155 -0.13379376 0.11855008
-0.038159605 -0.08934111 0.06917552 0.07434727 -0.002557691 -0.09371484 0.048762254 0.10032098
-0.013201069 0.018867007 -0.09194865 0.16816601 -0.047636352 0.046152286 -0.014383479 -0.061561134
-0.05941932 0.011629402 -0.10022187 -0.057052724 0.020092063 0.103413664 -0.03892644 -0.05365392
-0.12224049 0.118628904 -0.12558739 0.06760605 -0.08688223 -0.1404475 0.11373171 -0.06992257
-0.06135325 -0.041511867 -0.02498172 0.12764396 0.047956698 -0.127004 -0.062138945 0.03687824
-0.024180716 0.055994738 -0.1158525 -0.027763035 0.04812148 0.11698691 -0.0964406 0.10030722
0.087937675 0.069081105 -0.052984595 -0.055856366 0.0044292933 -0.04311595 0.09958309 -0.11395327
0.02277959 0.09287264 -0.10228668 0.03304067 -0.078490816 -0.01881331 0.006707514 -0.08346441
-0.005776328 -0.097981356 -0.14825454 -0.10599143 0.07832406 0.10190664 -0.11954272 -0.14877507
0.048950873 -0.07763262 0.14426665 -0.0915917 0.13178098 -0.09565863 0.118653685 -0.10016323
0.16441776 0.0022880714 -0.16046563 -0.11215075 0.057533856 -0.08002312 -0.03859095 -0.09060873
-0.016665619 0.08940083 -0.15578605 0.14783007 0.033767495 0.047285642 0.00022618905 -0.11687843

node_model.0.bias f4 [16]
00000000: 82d4 01be 8ca9 a93d 94e7 113d 16ab e63d
00000010: 841b 5fbd f919 113e 6c69 263c f53e d73d
00000020: 1bd0 9dbd d32f a93d 36f7 1a3d d7a1 8f3c
00000030: f6d4 953c ecc0 1a3e 1ad5 b6bd fe22 1abd
-0.12678722 0.082842916 0.03562124 0.11263101 -0.0544696 0.14170064 0.0101569705 0.10510055
-0.077057086 0.08261075 0.037833415 0.017533226 0.018290024 0.15112656 -0.08927365 -0.037631027

node_model.2.weight f4 [16, 16]
00000000: 184d 673d db44 903a 8d2e cbbd 60f9 133e
00000010: 7f28 fd3d 12a1 91bd b37d 9bbc 3ea1 0c3c
00000020: 7153 68bd 050f 65be 9774 023e c1d4 583e
00000030: 281f a0be 4edb 813e 9a38 183e 38c3 2e3e
00000040: 29c1 4dbe 6441 a83d 92a8 e83d a5ea cfbd
00000050: 7716 da3d 29f9 b1bd cedf 663d 45a1 343c
00000060: e68b 233e 30af 1abe 4290 b9bc 9452 633e
00000070: cef7 093e 6670 b03d a3a1 ef3d 844a c93d
00000080: ef14 fcbd ec15 ce3d 474a 01bd bfea 30be
00000090: 5039 22be d1b3 21be 77c5 183e 4c9a eb3c
000000a0: 9516 4b3e 9ff1 8c3d 15bf 52be 36ad a33d
000000b0: 42ab 9e3e a9ea b83c e9db 8bbe acfb 53be
000000c0: d303 683e 60f5 ddbd 831a 753d 6bf0 d53d
000000d0: 99c6 193e 61eb 903d 0b1d 0e3e 239e d73d
000000e0: 30a7 3c3e 6eb2 023d 4242 44bd 399e 93bd
000000f0: 5530 2f3e 4db5 9c3c 9e2a 64bb 0ce0 7dbe
00000100: d83e 313d 7ec3 7b3e d693 fe3d c56a 00bb
00000110: f165 9dbc 5811 483e 51ff ca3d d122 03be
00000120: c4e7 df3c 2291 233e 397d 9dbd 8148 2dbe
00000130: e507 05bc 6dfd ab3e 5211 353e dc4e 003e
00000140: d00e 273d 93fe ec3d 8705 5dbe e6c4 19be
00000150: 410c 0c3e f2cb 14be fefe 11be a626 9ebe
00000160: c94b 8abd 29ec 34bc 0526 4e3e 5a32 7d3e
00000170: 3532 cfbd 70cb d5bd b73b 94bd cc97 4cbd
00000180: 6a2e 6c3e 88ed a13d 3529 62be 7c1a 843d
00000190: a9dc 1dbe f910 3a3e 32fc 7ebe 0569 5abe
000001a0: ed39 65be 43b1 4fbe 2bd5 cf3d e029 77bd
000001b0: 0447 7d3d b27d 553e b79f 593d d130 623e
000001c0: 8d55 293d b075 c03c 52de 45be 9012 ad3d
000001d0: 7479 053e 58aa 423d 3a5c 27be 3ca9 7bbe
000001e0: 3f83 87bd 72e9 6dbe 6cfc 4b3e 5781 f6bd
000001f0: 081b d2bd 9d13 8fbd 4e5f 1a3e 4595 0e3e
00000200: eb08 323b d0d4 933d 59ae d3bd e671 ef3d
00000210: 99e3 3dbe d0d2 51be ea27 12be 50d9 50bd
00000220: 95c6 523e 9ebd 803e d532 173c aa21 28be
00000230: 356b 3abe 47fb 5f3e 1896 453c 23b2 25be
00000240: efd8 5fbe 2192 8f3c 4d8f bf3d 2c44 b43d
00000250: e082 2a3e f3a6 f33d 9007 61be 7c0e 1d3d
00000260: 60e0 003e 7691 a63a 3d68 8abe 941f d4bd
00000270: 29d6 093e 82d6 533e 3adb 70be c7de 91be
00000280: 3cba 623e cf4d 75be 5239 f83d 13c1 803e
00000290: db6b 073e 115c 233d 8559 3ebd 823b e63d
000002a0: 8004 49bd 4f6e 603c eb9c 5dbc c67e 57bd
000002b0: 0c73 733d 522d 15bd 13e0 4e3e 95f0 37bd
000002c0: 6829 bbbc 5087 87bd 73d8 393e 0bdf a93c
000002d0: fd89 80bd b832 27bc f19a 543c ff1a 9a3e
000002e0: d1a1 03be 7765 41be aa8a 3ebe 554c 85be
000002f0: 87fe f5bd 1b2e 4c3e 6f63 45be d4ee 853e
00000300: 1110 48bd e12b 0b3e 5313 19be 1730 2dbd
00000310: 5645 27be 1270 85be 2f6b 323e 0aa0 3f3d
00000320: 1154 b1bb 34db 30be 9a99 d9bd 5984 c7bd
00000330: 526f 22be 198c 833d cfb0 58be 1f2f 033e
00000340: 3225 d33d 3b23 c8bd 9ebb 47bd fbd9 f33d
00000350: 4082 55be 40a3 73be e32b 3b3e 7ba8 d33e
00000360: 3d08 0cbe be9f 023e 7b68 bd3d f5d0 423e
00000370: c413 80bd 50f9 38be b846 69be ee1d 10bd
00000380: 4b01 543e 951f e83b 7935 a33d a834 92be
00000390: c7d5 263e 3677 f3bd bff3 953d 82aa 873e
000003a0: b9e2 08be 7f6c 083e aba8 38be a32f d23d
000003b0: 8b04 0bbe 8808 94be 5a2e c7bd 242b 423e
000003c0: deae 773d d72b 473e 69bd 38be 8635 c6bd
000003d0: 97d3 90bd 3623 793e ce15 4a3e 5c54 19bd
000003e0: 17cb 68be 0d4d 653e b515 7cbe bfee eb3d
000003f0: ec2d 25bd d59f 37be f347 41be 1bbb 483e
0.056470007 0.0011006849 -0.09920988 0.14450598 0.1236124 -0.071108 -0.018980836 0.008583365
-0.0567202 -0.22369011 0.12739788 0.21174909 -0.3127377 0.2536263 0.14865342 0.17066658
-0.20093216 0.08215597 0.11360277 -0.10152177 0.10648816 -0.08690102 0.05636578 0.011024778
0.15971336 -0.15105891 -0.022651795 0.2219947 0.13473436 0.08615188 0.11700752 0.09828666
-0.1230868 0.10062775 -0.031564977 -0.17277049 -0.15842175 -0.15791251 0.14919077 0.028760098
0.19832833 0.06882023 -0.20580705 0.07992022 0.30990034 0.022572832 -0.27316216 -0.20701474
0.22657709 -0.10837817 0.059839737 0.10446247 0.15017165 0.07076145 0.13878267 0.10528209
0.18423152 0.031908445 -0.04791475 -0.07207913 0.17108281 0.01912942 -0.003481544 -0.24792498
0.043272823 0.24586293 0.12430541 -0.001959489 -0.019213649 0.19537866 0.09911979 -0.1280625
0.027332194 0.15973333 -0.076899 -0.1692219 -0.008119558 0.33591786 0.17682388 0.12530082
0.04078561 0.11571994 -0.2158414 -0.15016517 0.1367655 -0.14530924 -0.14257428 -0.3088886
-0.06752736 -0.011042633 0.20131691 0.24726239 -0.10116998 -0.10439193 -0.07237952 -0.049949452
0.2306458 0.079066336 -0.22086032 0.06450364 -0.15416206 0.18170537 -0.24900892 -0.21329124
-0.22385378 -0.20282464 0.101480804 -0.06034267 0.061835304 0.2084873 0.05313083 0.22088934
0.041341353 0.023493618 -0.1932309 0.08450806 0.13034612 0.047525734 -0.16343775 -0.24576277
-0.0661683 -0.23233584 0.1992051 -0.12036388 -0.10259062 -0.06986163 0.15075418 0.1392413
0.002716596 0.07218325 -0.103359886 0.11691646 -0.18543853 -0.20490575 -0.14273039 -0.050988495
0.20583566 0.25144666 0.009228428 -0.16419092 -0.18204959 0.21873198 0.012059711 -0.16181235
-0.21860097 0.017525734 0.09353504 0.08802065 0.16651487 0.118970774 -0.21975541 0.03834389
0.12585592 0.0012708146 -0.27032652 -0.103575855 0.13460602 0.20687297 -0.23521128 -0.28490278
0.22141355 -0.23955463 0.12120308 0.25147304 0.13224737 0.039882723 -0.04647209 0.11241819
-0.049076557 0.013698175 -0.013526182 -0.052611135 0.05943589 -0.036420174 0.20202665 -0.04490717
-0.022846892 -0.06617606 0.18148975 0.020736238 -0.06276319 -0.010204963 0.012976394 0.3009872
-0.12854697 -0.18886362 -0.18607584 -0.260348 -0.12011438 0.19939463 -0.19276212 0.26158774
-0.048843447 0.13590957 -0.14948778 -0.04228219 -0.16335043 -0.26062065 0.174237 0.046783485
-0.005411633 -0.1727112 -0.10625 -0.0974204 -0.15862778 0.06423206 -0.21161197 0.12810944
0.10309829 -0.09772345 -0.04876291 0.11906811 -0.20850468 -0.23792744 0.1827846 0.41339478
-0.13675018 0.1275625 0.09248444 0.19025023 -0.0625377 -0.18063855 -0.22780883 -0.035184793
0.20703618 0.007083843 0.079691835 -0.285558 0.16292487 -0.11887972 0.073218815 0.26497275
-0.13367738 0.13322638 -0.18033092 0.10262992 -0.13575952 -0.2891276 -0.09725638 0.1896177
0.0604695 0.19450317 -0.18041004 -0.096781775 -0.070716076 0.24329838 0.1973488 -0.037433967
-0.22733723 0.22392674 -0.24617656 0.115201466 -0.040326998 -0.17932065 -0.18875103 0.19602625

node_model.2.bias f4 [16]
00000000: 933a 043e 571a 08be 8ee2 43bd 56b3 b33d
00000010: cae4 63be 3932 803e 07d7 14be aaf2 5c3e
00000020: a00e f63d d9e6 163e 615f 2b3e 307c b0bb
00000030: 0e9c 3a3e d9c6 9dbd 2086 0b3e 60d1 fabc
0.1291297 -0.13291298 -0.04782348 0.0877444 -0.22255245 0.25038317 -0.14535151 0.21576944
0.12014508 0.14736499 0.16735603 -0.005385898 0.18223593 -0.07703943 0.13625383 -0.030617416

node_model.3.weight f4 [16]
00000000: 94b8 a43f 7f17 803f 5429 9b3f a68c 943f
00000010: 0acd b43f 82b8 a03f a7a5 9f3f 45e9 923f
00000020: a1bf a43f 6893 a33f a1e5 873f 1132 893f
00000030: cf9f 893f b86b 893f 9a9c a23f b492 813f
1.2868829 1.000717 1.2121987 1.1605422 1.4125073 1.2556307 1.2472428 1.1477438
1.287098 1.277936 1.0616952 1.0718404 1.0751895 1.0735998 1.2704041 1.0122895

node_model.3.bias f4 [16]
00000000: 3cf0 3e3e c90c 98bc 090a 1dbe d035 73bd
00000010: 9e85 203e 4c20 373e 65a5 ec3d aadd ec3d
00000020: 859f e93d 97a3 41be 26cb c9bd b1ed 8bbd
00000030: d2ae d63d ff42 32bd 0a82 fabd 22d2 9838
0.1864633 -0.018560784 -0.1533586 -0.05937749 0.15675971 0.17883414 0.11554984 0.115657166
0.11407379 -0.18910061 -0.098532006 -0.068324454 0.10482563 -0.043520924 -0.12231834 7.287065e-05

edge_model.0.weight f4 [16, 96]
00000000: 6c58 1f3d e836 b43d 4478 bf3d 2896 573c
00000010: 62a2 19bd 20f9 163d 8888 823d 5840 58bd
00000020: 0210 1dbd 28f1 7c3d 24ae a63d 5014 75bd
00000030: b864 bb3d e812 0a3d b018 95bc bfb5 72bd
00000040: b075 323d 0886 d03c 080c 5c3c 8060 4c3d
00000050: a8d3 91bc 543d 0c3d 085c a53d 983d 00bc
00000060: 18e9 f23c 6687 933d cf6c 45bd 2a14 933d
00000070: 08a2 513d de81 c7bd 96c1 36bd 002e c63d
00000080: 9040 fb3b 8c71 a1bc 9a98 bb3d d614 31bd
00000090: a809 853d eff5 5abd c002 b63d a055 fa3c
000000a0: 6098 debc c0c9 15bc 32de c23d b479 93bc
000000b0: 2c06 b1bd 4cee 7e3d a68d 9b3d d081 83bb
000000c0: 94f2 523d 68bd 87bc 2895 033d 5081 933b
000000d0: 5510 24bd c294 ae3d 8006 913d b635 bbbd
000000e0: c881 b43d d4f7 163d 74c3 a93d 00f2 1bbc
000000f0: 1c29 86bc a8aa 903d 29c4 b8bd 0085 a83d
00000100: d51c 60bd 86af c6bd 18a9 213d 1d65 bbbd
00000110: 10eb 063d 6e90 863d f800 81bc 2261 05bd
00000120: d0dc f13c 74a3 523d b381 4cbd 18ac 933d
00000130: dca7 633d a8ea a73d f777 c9bd 7148 b1bd
00000140: c031 d2bb 88b4 013d 2084 803d 8e93 7bbd
00000150: 544c af3d 2de9 a3bd 4894 69bc 66fa 17bd
00000160: 2c81 883d a85e 363d 88e2 753d 5052 583d
00000170: dcb3 1e3d a8e8 873d b0dc fbbb d4e6 823c
00000180: bfa8 60bd cbef 803c 7419 9cbd 4303 ddbd
00000190: 68c8 97bd de57 603d 0b3f 67bd c698 3f3c
000001a0: e84f b13d 6f66 1b3d 3445 92bd c192 40bb
000001b0: 654b 393d c034 c33d 6813 8b3d 5682 953d
000001c0: 6f8e c9bc 9d90 873c c971 d13d 85a9 85bc
000001d0: d4a2 963d 2c32 913d 8590 7bbd f1a0 6f3c
000001e0: e3d2 773d 054c b13d afac bbbd 4135 253d
000001f0: 07e4 4fbd dab3 88bd 1f25 99bc d7d5 5ebd
00000200: 2ce5 92bc 9b73 953d 2c8e b93c 5f7a 8dbb
00000210: d706 823c 5543 d6bd a706 dc3d cf7d a8bc
00000220: bf8c 9fbd 1435 123d e7bd d23d b8d9 b73d
00000230: 1bc7 793d 39e8 303d 112d 1d3d 3ecf d23d
00000240: 2fb6 82bc 61e6 b4bd f745 e6bc 0084 45bb
00000250: 1f28 8abd 1bc5 b4bc 8273 76bd 2e32 5bbb
00000260: abb5 a1bc 77a3 793d 471d 943d 41d7 6e3d
00000270: 6501 2f3d c374 3d3d 84a0 7f3d 0eb2 67bd
00000280: 23dc 983d 6ef6 2d3d 7781 2d3d 485d bcbd
00000290: 61e7 cb3d ac90 48bd b00a 13bd 45dd f1bc
000002a0: 9c68 26bd 08ca 693c 14f4 acbd eef3 b7bd
000002b0: 7541 84bd cb32 203d ed2f 72bd 17ea ccbd
000002c0: 796f 2b3d 7870 60bd d32f f0b9 79ae b53d
000002d0: 3f7d ad3d 7fce 8f3d a0cc 453d 880f 283d
000002e0: 7962 82bd f5fd d83d 8969 acbd 80f0 b7bc
000002f0: 7f19 b23d b4b4 c6ba 674e c63d 2862 a8bd
00000300: 3230 5c3d cd68 113d 0e89 a63d 6a69 15bc
00000310: 4a11 c33c 74a2 12bd e789 a0bc 188a 06bd
00000320: 8f59 50bd 9dd5 343c 6bfc 94bd f088 433d
00000330: d69c 5f3d 2ee9 3abd 5b57 bdbd b778 7d3d
00000340: d7d6 83bd 417f a93d 0c07 19bd 01dd e3bd
00000350: 952c 243d d81b 173d c256 1d3d cf62 1ebe
00000360: f7ca 123d 8af4 07bc b94b 06bd 2952 3dbe
00000370: 8a72 683c b98f be3d 4b1f 7d3c 248a 50bc
00000380: 78e3 4fbd 8c30 f33c 127e 113e 04eb 78bd
00000390: b281 d23c 809b 8a3c 0095 993d 3f8e e6bc
000003a0: cd8b 173d f995 bfbc 50f5 fcbc 631b 963c
000003b0: b16e b53c e4f0 3a3d eb7b c53c aaf1 a73d
000003c0: 1782 273c 1bf6 3a3d 9b7f 0abc 3115 873d
000003d0: 7d10 7a3d c940 eabc 2811 133d 0af6 b93d
000003e0: 46bd 83bb 97df b93d 2812 51bc 3985 c03d
000003f0: 2fc8 ebbc bca6 463d 49f8 fdbd e5af 6abd
0.038902685 0.08799535 0.09349111 0.013158359 -0.037508376 0.036858678 0.063736975 -0.052795738
-0.038345344 0.061753422 0.081386834 -0.059833825 0.0915007 0.033709437 -0.018200248 -0.059255358
0.043569267 0.025454536 0.013430603 0.049896717 -0.01780112 0.034238175 0.08074194 -0.007827185
0.029652163 0.072035596 -0.04819947 0.0718158 0.051179916 -0.09741567 -0.04461821 0.096767426
0.0076676086 -0.019707464 0.09159966 -0.04323276 0.064959824 -0.053457197 0.08887243 0.030558407
-0.027172267 -0.009142339 0.09515037 -0.018002369 -0.08643755 0.062238976 0.07595377 -0.0040132776
0.05150087 -0.016569808 0.03212467 0.0045014992 -0.040054638 0.08524467 0.07081318 -0.09141104
0.08813816 0.03685744 0.08289233 -0.0095181465 -0.016377024 0.070638 -0.090217896 0.08228493
-0.054714996 -0.09701447 0.0394679 -0.09150145 0.032939017 0.065705165 -0.015747532 -0.032563336
0.029524237 0.051425412 -0.04992838 0.07210559 0.055580005 0.08199054 -0.098373346 -0.08656395
-0.006414622 0.03166631 0.06275201 -0.061420016 0.0855948 -0.08003459 -0.014256544 -0.037104033
0.066652626 0.044523865 0.06003049 0.052812874 0.038745746 0.066361725 -0.00768622 0.015979208
-0.05484843 0.015739342 -0.07622042 -0.10791638 -0.07411271 0.054771297 -0.056456607 0.011694139
0.08657819 0.037939485 -0.07142106 -0.0029384347 0.045237917 0.09531546 0.06790811 0.0730025
-0.02460405 0.01654845 0.10226781 -0.016316185 0.07355276 0.07089648 -0.06141712 0.014625774
0.06050385 0.08657078 -0.09163796 0.04033399 -0.050754573 -0.06674929 -0.018694459 -0.054403152
-0.017931543 0.072974406 0.0226508 -0.0043175663 0.015872402 -0.10462061 0.10743456 -0.020567803
-0.07790517 0.03569515 0.10290127 0.089770734 0.060980897 0.043190215 0.038373057 0.102934346
-0.015956013 -0.08833004 -0.028109534 -0.0030138493 -0.06745934 -0.022066643 -0.06016875 -0.0033446657
-0.019739946 0.060946908 0.07232147 0.05831075 0.04272594 0.04625393 0.06240894 -0.05656629
0.07463863 0.04247134 0.042359795 -0.091974795 0.099562414 -0.048966095 -0.035898864 -0.029524455
-0.040627107 0.014269359 -0.08444992 -0.08982073 -0.064577974 0.03911094 -0.059127737 -0.100055866
0.041854355 -0.05479476 -0.00045812 0.08871169 0.084711544 0.07021808 0.04829085 0.041030437
-0.063664384 0.105953135 -0.08418567 -0.022453547 0.08696269 -0.0015160055 0.09682923 -0.08221847
0.0537569 0.035500336 0.0813161 -0.009119371 0.023811955 -0.03579946 -0.019597007 -0.03284654
-0.05086666 0.0110372575 -0.072747074 0.047738016 0.05459293 -0.045632534 -0.09245177 0.0618827
-0.06437462 0.08276225 -0.037360236 -0.111261375 0.04008158 0.03689179 0.038412817 -0.1546738
0.035838094 -0.008298049 -0.03278706 -0.18488373 0.0141874645 0.09304757 0.015449355 -0.012728248
-0.05075404 0.029686235 0.14208248 -0.060771003 0.02569661 0.016919851 0.074991226 -0.028144
0.03699856 -0.023386942 -0.030878693 0.018323606 0.022147508 0.045639887 0.02410694 0.08200391
0.010223887 0.04564486 -0.008453275 0.06595839 0.06105088 -0.028595345 0.035905033 0.09080131
-0.004020366 0.090758495 -0.012760676 0.0940041 -0.028781978 0.048498854 -0.12400872 -0.057296652

edge_model.0.bias f4 [16]
00000000: 65a8 c2bd 3b94 a73a ebc0 1fbd ec6c fa3c
00000010: 864a 843b 2ff1 d23d 361b 453d 8eb4 73bd
00000020: 5329 40bd b96d cdbc 1ac1 ccbc dca5 923d
00000030: e64f b63d 6f7d b73d c0ac 653c e7e6 8cbd
-0.09504775 0.0012785265 -0.03900234 0.030569516 0.004037204 0.10299908 0.048121653 -0.059498362
-0.04691441 -0.025076734 -0.024994422 0.071605414 0.08901958 0.089594714 0.014018238 -0.068799786

edge_model.2.weight f4 [16, 16]
00000000: 02aa 2ebe f2da 0ebe 85a1 c0be 819b 223e
00000010: da68 6e3d 7d04 a33c f65c 12be 97ba 843d
00000020: 106c 72bd 5cd4 3fbc d9bc 593e c916 0cbe
00000030: adad 013d 6c1f 0f3e f18a 453e 7b20 27be
00000040: 20b2 3b3c fdb8 d4bd cef9 aabd 2f66 133e
00000050: 834e 32be 29fe 1c3e a4bf 513d f520 143e
00000060: abbb 06be 6f9e ab3d 7e2e 84bc b7bd 643e
00000070: 24f9 2cbe a136 dc3c 3e34 8bbd ffe6 453e
00000080: 4428 6e3e 874b 6cbe c30f bebe 8e42 1f3e
00000090: 479d 58be 003f 2f3e 4190 0ebe 9329 d23c
000000a0: 1f4c 39be acc0 16be 5fd1 cbbd f46f 00be
000000b0: 0e30 113d 7d25 853d 08ca 1cbe ed7a 5b3e
000000c0: 7ce9 a43d 61d5 05be 2e55 a43d 60dd ce3d
000000d0: fd2c 1fbe bd62 4e3e 6418 bfbd fb7d 26bd
000000e0: ff97 1bbe 2adc 693e cefc 763d b1a4 20be
000000f0: 541d b93d 5a22 5f3e 822e 663e 6d89 58be
00000100: c6ab 68be 22cc 0bbe ae23 b13d 49ec 033e
00000110: e950 8ebd 07be 593e bd54 b5bd dab5 f33d
00000120: 3402 883d f89e f5bd fee9 e6bc c362 f5bd
00000130: 067f 5fbe bcbc 543e 7619 773e 77f2 1e3e
00000140: 0097 5fbe 1c63 48be ccaa 423e 4ff9 2f3e
00000150: bcaf d23d 9eb2 fbbb 464e 10bd b1bc 4a3d
00000160: d8c8 6cbb 80bc 343d 32ae 513d 3130 923d
00000170: 68b0 9cba da30 c8bd 487e 773e 3567 32be
00000180: 1415 a5bd 2585 913d 98c2 9bbe cbc7 313e
00000190: 9fbd 663e a5a9 5f3e 4cd2 703d c183 43be
000001a0: 598b 43be 6bd3 12bc b1b4 2bbe bd48 0dbe
000001b0: 423a da3d a7b8 f9bd aa01 583e 3f89 cc3c
000001c0: 804a d13c a368 0ebd 48e1 f4bd 41b5 063d
000001d0: 236f 1fbe 193b 4abd 7278 443e c18e 1abe
000001e0: 3123 53bc c696 91bd 7296 e3bc da8b 693e
000001f0: d34f 6c3e d088 593e 9e9e d23d bdbb f3bd
00000200: 402a 213c 41b1 483e 6eb5 edbd f4f8 19be
00000210: 3440 9f3d 8740 f93d eff0 053e 6a1c 75be
00000220: 394b db3d 78cc 51bd 632b 47be af29 343d
00000230: 62c1 c53d 22ea bf3c cf14 36be d7e2 123e
00000240: 1a55 693e 47c9 1cbd d028 423c b1ad 973d
00000250: e044 f9bd 7b71 27be 4c12 6bbe 8058 9cbd
00000260: 577e c53b 76db 32bd 47c3 6dbc 9893 30be
00000270: 8f08 8a3e 5578 5fbe 867e 733e 553f 50be
00000280: 1284 68be 37c2 17be e656 c2be d1e6 ec3d
00000290: 365d 98bd 4ebd 74be 1435 323e 951a 9dbc
000002a0: 4a15 123e ec2c 1a3e 449c 25be d21a 00be
000002b0: ae9d b8bd b643 c23d 4db2 76be dd2b 373e
000002c0: 68f9 d03d 04f1 6dbd b493 99be 5444 043e
000002d0: c7d8 14be 9e7c 593e ca46 673e 7030 a2bd
000002e0: c5cf 70be 6197 133c c077 82bd b132 92bd
000002f0: faf5 26be e968 c33c 6622 123e 4424 d33d
00000300: 4e25 133e 319e c53d b0f8 d33e 3ae9 a2bb
00000310: c848 74be c3bb 1e3e feef 1bbe 5ac0 6c3d
00000320: 0ae6 1d3e 1715 453d 4f9d 67be a058 5cbc
00000330: 672b 44be 24c7 153e b5f0 a63c 3d5a 75bc
00000340: 5ec2 1d3e 2e23 06be ec6d db3e b1af 35be
00000350: a80f 653e 4003 563e 47d3 6abd 3266 103d
00000360: e143 533e a40e 4c3e b4a1 513e f079 5abe
00000370: 14a7 4dbc 432a 75be 3306 863d 6d8b 563e
00000380: c80a 36be 079c 1ebe b350 173e 00ba 8ebd
00000390: b37a 8f3d d4e5 45be 50a9 b53b 14cf acbd
000003a0: 2fb9 473e e50a e4bd 7a10 4dbe e8aa 43be
000003b0: 9dd7 18be ff80 c7bd 0101 3f3e 2d86 77be
000003c0: 18a9 703e df68 693e 4ee9 d63d 07e2 8cbc
000003d0: 8e13 94bd edb1 82be a5ca bfbc 2cfd 0f3e
000003e0: 6f51 67be 4381 9a3d 22fb 2c3e fb17 78be
000003f0: b85d 2ebe 1dda b1bd 0674 45be 23f3 cabd
-0.1705704 -0.13950709 -0.3762323 0.15879633 0.058205463 0.019899601 -0.14293274 0.06480902
-0.059185088 -0.011708345 0.21263446 -0.13680567 0.03165977 0.1397683 0.19291283 -0.16320984
0.0114560425 -0.10386846 -0.08348428 0.14394449 -0.17412762 0.1533133 0.051208153 0.14465697
-0.13157527 0.08379828 -0.01613545 0.22337995 -0.16891915 0.026881518 -0.06797074 0.193264
0.23257548 -0.23075686 -0.371214 0.15552732 -0.21153747 0.17113876 -0.13922216 0.02565459
-0.18095444 -0.14721936 -0.09952044 -0.12542707 0.03544622 0.06501291 -0.15311444 0.21433611
0.08052346 -0.13069679 0.08024059 0.10100818 -0.15544505 0.20154853 -0.09330824 -0.040647488
-0.151947 0.22837892 0.060299687 -0.15687825 0.09038797 0.21790448 0.22478679 -0.21146174
-0.22721776 -0.13652089 0.086493835 0.12883104 -0.06949026 0.21263896 -0.08854053 0.1189992
0.06641045 -0.119932115 -0.028187748 -0.11981728 -0.218258 0.20775121 0.24130806 0.1552218
-0.21834946 -0.19569057 0.19010466 0.17184947 0.10287425 -0.007681205 -0.035230897 0.049496356
-0.0036130454 0.04412508 0.051191516 0.07138098 -0.0011954429 -0.09774943 0.24169266 -0.17422183
-0.08060661 0.071054734 -0.304219 0.17361371 0.22533272 0.21842058 0.058794305 -0.19093229
-0.19096126 -0.008961539 -0.16768147 -0.13797279 0.10655643 -0.12193423 0.21094385 0.024967788
0.02554822 -0.034767758 -0.119570315 0.0328877 -0.15569739 -0.049372766 0.19186571 -0.15093519
-0.012886808 -0.07108836 -0.027781699 0.22807255 0.23077326 0.21243596 0.1028416 -0.119010426
0.009836733 0.19598867 -0.116068706 -0.15036374 0.07775918 0.12170511 0.1308019 -0.2393662
0.10707707 -0.051220387 -0.19450144 0.043985065 0.096560255 0.023427073 -0.17781375 0.14344345
0.2278637 -0.03827789 0.011850551 0.07406176 -0.1217134 -0.16351883 -0.22956198 -0.076340675
0.006027024 -0.043666326 -0.01451189 -0.17243803 0.26959655 -0.21823247 0.23778734 -0.20336659
-0.22706631 -0.14820181 -0.37956923 0.11567462 -0.074396536 -0.23900339 0.1740306 -0.019177714
0.14265934 0.15056199 -0.16172892 -0.12510231 -0.0901445 0.09485571 -0.24091454 0.17887826
0.102038205 -0.05809118 -0.299955 0.1291669 -0.14535819 0.21238944 0.22585598 -0.07919395
-0.23516758 0.0090082595 -0.06370497 -0.07138575 -0.1630477 0.023853736 0.14270934 0.103096515
0.143697 0.09649313 0.4140067 -0.0049716504 -0.23855889 0.15501313 -0.15228269 0.05780063
0.15419784 0.048115816 -0.22618602 -0.013448864 -0.19157182 0.14626747 0.02037845 -0.014975128
0.15406176 -0.13099357 0.428573 -0.17742802 0.22369254 0.20899677 -0.057330396 0.03525371
0.20631362 0.1992746 0.20471841 -0.21335578 -0.012552042 -0.23941903 0.06544151 0.20951624
-0.1777755 -0.15489207 0.14776878 -0.069690704 0.07005825 -0.19325954 0.0055438653 -0.084379345
0.19504236 -0.111348905 -0.20025817 -0.19108164 -0.14926 -0.09741401 0.18652727 -0.24172278
0.23502004 0.22793911 0.10493718 -0.017197622 -0.07230292 -0.25526372 -0.023412058 0.14061421
-0.22589658 0.07544186 0.16892675 -0.24227898 -0.17027938 -0.0868418 -0.1928254 -0.09909656

edge_model.2.bias f4 [16]
00000000: 2a23 aebb b0de 5f3e 8c31 6d3e 14bc d73d
00000010: 782e 3b3e 715f 903d 17f2 2f3e a561 9fbd
00000020: 0090 5a3d a4c0 083d 3a33 a7bd db4e 66ba
00000030: 582a 6c3e fe3b 88bd f299 023e 4c78 e33b
-0.0053142505 0.21862292 0.23163432 0.1053392 0.18279445 0.07049454 0.17182194 -0.07782296
0.053359985 0.03338684 -0.081640676 -0.0008785554 0.23063028 -0.066520676 0.12754038 0.0069418307

edge_model.3.weight f4 [16]
00000000: ff5a 843f fae9 7a3f 4aac 7b3f 9174 7e3f
00000010: a491 733f 9b2e 813f 2a1e 7f3f 18d1 7c3f
00000020: c374 7d3f cd15 843f be4a 823f 651c 813f
00000030: 8d7b 833f 1b01 853f bcdc 7d3f 0a18 823f
1.034027 0.9801327 0.9830977 0.99396616 0.95144105 1.0092348 0.996554 0.9875655
0.9900629 1.0319153 1.017906 1.008679 1.027208 1.0390962 0.9916494 1.0163586

edge_model.3.bias f4 [16]
00000000: f710 e13c 966b 2dbc 82e2 eebc 494b 653b
00000010: 036a 5b3c 871b ac3a 5220 c1bb 9fe7 773b
00000020: 918a 08bc 7a78 5c3c a4dd 83bc 3996 d3bb
00000030: 85fd 1fbd 9e8d 003d 1b9f 1a3b 317f e2bb
0.02747391 -0.0105847325 -0.029160742 0.00349875 0.013391974 0.0013130762 -0.0058937455 0.0037827266
-0.008333818 0.013456458 -0.016096897 -0.006457117 -0.039060134 0.031385057 0.002359337 -0.006912135

node_decoder.0.weight f4 [1, 16]
00000000: 1e07 ea3e b1d2 a6bc e1a1 98be 4dc2 8dbe
00000010: ff89 193f 7e89 ed3e 758a 8a3e db4c 873e
00000020: d319 073f a6f6 b3be 9101 90be 9030 41be
00000030: 53cb 413e fd12 1abe 2ba8 63be 6a45 c2bc
0.45708555 -0.020364137 -0.29811004 -0.27687302 0.5997619 0.4639396 0.2705876 0.26425824
0.5277378 -0.35149115 -0.28126195 -0.18866181 0.18925218 -0.15046306 -0.2223212 -0.02371474
