tmp/tmp7model800.pt (torch, 23679 bytes, 25 tensors)

node_encoder.0.weight f4 [16, 5]
000000 e0 f7 0c 3d c6 51 8f be 9e f8 36 3e dc b1 0f 3e
       0.03441608 -0.27992076 0.17868277 0.14032692
000010 28 61 44 be 84 45 89 bd 95 23 86 be 40 a6 ed 3d
       -0.19177687 -0.06702712 -0.26199022 0.11603975
000020 4c b6 f6 bd b8 dc a0 3e bd 0b a2 3e c2 eb 36 3d
       -0.12046489 0.31418395 0.3164958 0.04465843
000030 ed e2 50 be 75 7d 86 be c9 9c e7 bc 0a e1 00 be
       -0.20399065 -0.2626759 -0.028273003 -0.12585846
000040 50 d8 49 3e fc 84 c3 be ba 32 d7 3e e5 9c b3 be
       0.19711423 -0.38187397 0.4203089 -0.3508064
000050 e4 e9 b3 3e 33 b7 36 bd 45 fa 47 3e a8 75 32 3e
       0.35139382 -0.044608306 0.19529064 0.17427695
000060 68 0b 8b bd f7 92 b2 3d 91 e2 b3 3e bf ed bb 3d
       -0.06789285 0.087194376 0.35133794 0.09176206
000070 60 f6 72 3e f4 f1 cd be e4 33 a0 3e 2b f3 32 3e
       0.23726797 -0.40223658 0.3128959 0.17475574
000080 b4 4b d2 3d 80 0d 7d 3d 67 c7 40 3e c9 bb d1 3e
       0.102683455 0.061780453 0.18826066 0.4096358
000090 a4 88 da bd 49 34 62 be 5c 6f e6 bd d6 d6 5d be
       -0.106705934 -0.22090258 -0.11251709 -0.21663985
0000a0 3e dd 59 3e 43 17 71 be 27 b5 64 be 84 90 c5 3e
       0.21275803 -0.2354403 -0.22334729 0.3858682
0000b0 c9 68 dd 3e 63 0a 59 3d ad bd a1 bd 67 98 66 bd
       0.43244007 0.05298842 -0.07897506 -0.056297686
0000c0 d4 f0 58 3e 7e cf d5 be 17 cb b7 be 57 3d ba 3e
       0.21185619 -0.41759866 -0.35897133 0.36374924
0000d0 b5 62 e5 3e 30 b5 d9 bc 84 ec b4 be 60 33 48 3c
       0.4480187 -0.026575655 -0.35336697 0.01221928
0000e0 b6 0b 55 be 00 62 61 ba f8 25 60 3e ac b8 4a 3e
       -0.20805249 -0.0008597672 0.21889484 0.19797009
0000f0 a0 9b 4f bd a2 b8 38 3d b8 51 0d 3e 86 79 b3 be
       -0.050685525 0.045097955 0.13800704 -0.35053653
000100 d9 60 f7 bd b1 15 a7 3d 7a 71 cb be ec 2c fa bd
       -0.12079019 0.08158434 -0.39735013 -0.122155994
000110 68 d0 19 3e 76 fc a8 3e 00 55 cd 3b 5e 22 32 be
       0.15020907 0.33005112 0.0062662363 -0.17395923
000120 88 bc 7a 3e 7f 08 7b be 40 fb d6 bd ce 8c dc 3e
       0.24485981 -0.2451496 -0.10497141 0.43076175
000130 af f5 90 3d 8d 8e 1f 3d 74 61 1a 3e 2f 3c cd bd
       0.070781104 0.038954306 0.15076238 -0.10021245

node_encoder.0.bias f4 [16]
000000 7a 88 c5 3e 24 c1 ba be 22 f0 fd bd 00 54 9e bd
       0.38580686 -0.3647548 -0.12399317 -0.077308655
000010 cd 47 33 be f0 e3 da bd 55 1b 8b 3e 68 25 7a 3e
       -0.17507859 -0.10688007 0.2716929 0.24428332
000020 43 44 b8 3c 10 46 c8 3e 39 55 9e be 5b 89 88 be
       0.022493487 0.39115953 -0.30924395 -0.26667294
000030 e7 b4 50 3e 68 fd 23 3d 2b a9 d0 be 67 f1 99 be
       0.20381509 0.04003659 -0.40754065 -0.30066988

node_encoder.2.weight f4 [16, 16]
000000 74 f0 15 be a2 af 45 3e ac e1 db 3d 3e 0b 46 3e
       -0.14642507 0.1930528 0.10736403 0.19340226
000010 66 97 3e be c0 5e 7f be 93 88 2f be a3 f4 e3 3c
       -0.18612441 -0.24938488 -0.17141943 0.027826613
000020 82 77 91 bd 72 da 1c be f0 01 17 3e d4 1c a5 bd
       -0.071028724 -0.15317705 0.14746833 -0.08062139
000030 06 77 15 be da 27 da 3b c0 f3 89 bd 8e 77 1f 3e
       -0.14596185 0.0066575827 -0.06735945 0.1557295
000040 c8 c0 42 3d c0 1a ca 3b 86 79 87 3d ee 5c 40 be
       0.04754713 0.0061677396 0.06614976 -0.1878545
000050 23 a0 06 be 21 d6 dd bd 20 7b 03 be af 08 39 3d
       -0.13147025 -0.108318575 -0.12839937 0.045174297
000060 46 56 af 3d 57 97 df bd 26 e9 4d 3e 08 70 0e be
       0.08561377 -0.10917538 0.2010847 -0.13909924
000070 e8 ac 51 3d 07 5c 4d 3c ba 0f 5e be b7 aa 21 be
       0.051190287 0.012534148 -0.21685687 -0.15787779
000080 b2 e2 e2 3d ac 9c ca 3d 38 cc 25 be 98 a8 9f bd
       0.11078395 0.09893164 -0.16191185 -0.077958286
000090 d3 d3 5e be 38 c0 08 3e ea 18 64 3e 63 dd a0 3d
       -0.21760492 0.13354576 0.22275129 0.07854726
0000a0 03 8c 08 be 01 fa 04 3e 68 16 60 3e c8 7e 51 bd
       -0.1333466 0.12985994 0.21883547 -0.0511463
0000b0 ac a8 0a bd 6f 24 d7 3d 60 bc 03 3d 91 5d a4 bd
       -0.033852264 0.10504996 0.03216207 -0.08025659
0000c0 f7 8a 76 be c6 81 33 be 81 69 f2 3c 40 b9 5b bc
       -0.24076448 -0.17529973 0.029591324 -0.013410866
0000d0 89 8a 47 3e 7e bb 97 3c 80 7b 84 bd 9f 87 72 be
       0.1948644 0.01852202 -0.06468868 -0.23684548
0000e0 cc ac 6c be 13 27 e0 3d 89 0d 61 3e 80 97 78 bb
       -0.23112792 0.10944953 0.2197782 -0.0037932098
0000f0 48 42 65 be c5 81 02 3e 8a 81 50 3e 08 32 25 be
       -0.22388566 0.12744816 0.20361915 -0.16132367
000100 22 19 88 bd 90 3e ac 3c 49 91 1a be c6 5f 6d be
       -0.06645419 0.021025926 -0.15094484 -0.23181066
000110 37 e8 e8 3d bf 1c 5a be a3 72 7f bd 13 7a 0d be
       0.113724165 -0.21300028 -0.062365185 -0.13816099
000120 07 81 30 3e fc 38 35 3d 46 28 11 3e f4 5a 2d be
       0.1723672 0.044243798 0.1417552 -0.16929227
000130 93 a7 57 3e d5 af e8 bd 8a fc 0d be c5 84 9a bc
       0.21060018 -0.11361662 -0.13865867 -0.018862138
000140 26 ad 37 be 80 11 3d bc 81 06 19 3e 8c 2a e6 bd
       -0.17937145 -0.011539817 0.14943887 -0.11238584
000150 06 cf 5a 3e 31 5a b4 3d 77 d7 0f bd 4a 55 a5 3d
       0.21368036 0.08806265 -0.035117593 0.08072908
000160 2e 13 02 bd 82 23 72 bd 71 bc 07 be 98 2a 15 3e
       -0.031756572 -0.059115894 -0.13255478 0.1456703
000170 dd d9 1b 3e 95 89 09 3e b8 67 17 3e cc f7 81 3e
       0.15219827 0.1343139 0.1478566 0.25384367
000180 0e cf 80 3e b6 0c 77 be 7a 65 75 3d 90 5a af bc
       0.2515797 -0.24125943 0.05991123 -0.021405488
000190 c9 80 cd 3d 0e 8c 2d bd ea 7e a3 3d 34 28 61 be
       0.100343294 -0.042369895 0.07983191 -0.21987993
0001a0 21 41 a4 3d 9e e9 81 3e a0 f2 43 bd 10 a1 4b be
       0.08020235 0.25373548 -0.047838807 -0.19885659
0001b0 3b ce 45 be a6 19 1e be 80 d5 77 bb 9d d6 21 3d
       -0.19316952 -0.15439472 -0.0037816465 0.03951131
0001c0 d8 e9 e6 3c b8 d3 40 3e 5b ff 44 bd cc 1c 92 3d
       0.028187677 0.18830764 -0.04809509 0.07134399
0001d0 ad f4 0d be 66 a7 70 3e b2 ac ad 3d 2d 4e 24 bd
       -0.13862868 0.23501357 0.08480205 -0.040113617
0001e0 60 72 14 3e 7f b8 ae 3d 77 5f 4c 3d e4 24 97 bd
       0.14496756 0.085312836 0.04989573 -0.07380083
0001f0 1d e9 ca 3c 78 d1 eb bc ae 91 15 be a9 ed b6 bb
       0.02476936 -0.028786406 -0.14606354 -0.0055825305
000200 d1 6e 8d 3d aa a1 17 be 1b 53 39 bc b8 f2 a9 bd
       0.06905902 -0.14807764 -0.011311318 -0.08298248
000210 61 f9 47 be e5 a5 5d be 36 af 5b be 48 29 11 3d
       -0.19528724 -0.21645315 -0.21453556 0.03543976
000220 83 b9 21 3e fa 11 59 3e 2e c0 55 3e d4 a9 c9 3d
       0.15793423 0.21198264 0.20874092 0.09846845
000230 ec 3e e8 3d a3 bd 10 be 42 a1 53 3e 6c 00 f6 bd
       0.113401264 -0.1413484 0.20666984 -0.12011799
000240 fd b1 84 bd 30 66 aa bd 81 69 21 be e4 4c 45 be
       -0.06479261 -0.08320272 -0.15762903 -0.19267613
000250 d0 33 49 bd 3e 52 55 3e e2 01 f3 bd 96 c3 5f be
       -0.049121678 0.20832154 -0.118655935 -0.21851954
000260 52 a5 89 bc 0e 16 6e 3e 30 b9 38 3d 90 74 81 bc
       -0.016802464 0.232506 0.045098484 -0.015802652
000270 a6 74 8b bd 2f 88 a3 3e ee fd 75 be 5b d0 15 3e
       -0.06809358 0.31939837 -0.24022648 0.14630263
000280 2f 98 6c 3d aa 7a 20 3e 00 1d 09 be fc df a7 bd
       0.05776232 0.15671793 -0.13389969 -0.081970185
000290 58 b9 e9 bd 65 66 7e 3e 8b a4 0a bd 57 5a 72 be
       -0.11412305 0.24843748 -0.033848327 -0.23667274
0002a0 fc f6 06 3e e2 48 43 3d e3 b3 25 3d be b6 2a be
       0.13180155 0.04767693 0.040454756 -0.16671273
0002b0 cb c6 72 be 7f b8 e9 3e 02 ce 40 be 61 65 43 bd
       -0.23708646 0.45648572 -0.18828586 -0.047704104
0002c0 c1 f0 4f bd 9a 33 12 3e db a3 58 be ec 85 12 be
       -0.05076671 0.14277497 -0.21156256 -0.143089
0002d0 fc 27 0d be 27 6a 03 be f2 99 17 3e a8 f5 17 3e
       -0.13784784 -0.12833463 0.14804819 0.14839804
0002e0 b7 5c 01 3e b2 1a 4d 3e 76 cf 19 be 00 1f 82 ba
       0.12633024 0.20029715 -0.15020546 -0.0009927452
0002f0 6e 88 51 be 1f 9b 44 3e a8 cc 5a be 77 69 79 be
       -0.204622 0.19199799 -0.21367133 -0.24356638
000300 6b ab 2a 3e 28 93 e2 bd 63 89 8e bc 90 ea 96 bd
       0.16666953 -0.11063224 -0.017399495 -0.07368958
000310 d3 82 44 be 36 21 f4 bc cd c0 28 3d 69 22 4f 3e
       -0.1919053 -0.029800992 0.041199494 0.2022797
000320 1d 29 54 bd 66 e9 74 3e 0a 22 13 be 60 dd 23 3e
       -0.05179702 0.2391716 -0.14368454 0.16002417
000330 71 bd 61 3e 03 cb 3a 3e dc d7 af bd ac 12 3e 3e
       0.22044922 0.18241505 -0.08586094 0.1856181
000340 f2 d7 9f bd 78 30 db bd a9 57 8d bd 02 cb 50 be
       -0.0780486 -0.10702604 -0.069014855 -0.20389941
000350 be 90 05 bd 07 72 3c be 0c 1a 27 3e fc 71 6f be
       -0.03260874 -0.18402873 0.1631853 -0.23383325
000360 7d f3 70 be 02 36 69 3d 23 f0 32 3e 40 d9 74 3e
       -0.23530383 0.05693627 0.17474417 0.23911
000370 6b f2 4d be 9f 2a c6 3d 8a 60 33 3e b9 bd 21 be
       -0.20112006 0.09676098 0.17517295 -0.1579503
000380 7f ce e8 3d 8c 06 90 bd 04 ec 4a 3d 86 a1 62 be
       0.11367511 -0.07032499 0.04954149 -0.22131929
000390 a8 75 04 be d9 e9 2d be 4b 09 4a bd 4b 57 a0 bc
       -0.12935507 -0.16983737 -0.04932527 -0.019572875
0003a0 1d bb 31 bb 70 7d 1f be e5 c8 f6 3d de 0b 02 3e
       -0.0027119585 -0.15575194 0.12050036 0.1269984
0003b0 38 77 61 be ce 34 76 be 80 0a 5c bd 47 80 83 3d
       -0.22018135 -0.24043581 -0.05372095 0.06420951
0003c0 fa 90 58 be 20 98 bc bc 9e a4 19 3d 66 9c 43 be
       -0.21149054 -0.023021758 0.037510507 -0.1910263
0003d0 1d 3a 56 3e 15 1b 56 3e b9 e9 39 3e 88 7e ba bd
       0.20920606 0.20908768 0.18155564 -0.09106165
0003e0 be 5b 73 be 86 c5 26 3d b0 e7 36 3e a8 77 fa 3d
       -0.23765466 0.040715717 0.1786182 0.12229854
0003f0 30 6e 30 be 36 38 24 3d d4 ba f2 bd a0 93 10 bd
       -0.17229533 0.04009267 -0.11852041 -0.035297036

node_encoder.2.bias f4 [16]
000000 6b 64 98 bd 30 42 02 3e 5b 7c 6a be b3 22 22 be
       -0.07441028 0.12720561 -0.22899 -0.15833549
000010 96 e2 fc bc af d6 36 3e b0 4b 49 bd 32 ae 16 3e
       -0.030869763 0.17855333 -0.049144447 0.14714888
000020 ff cb 5b 3e 53 7e 80 3c 35 1f 2d be ae ff 59 bb
       0.21464537 0.015685236 -0.16906436 -0.003326397
000030 b4 a7 cf 3d f7 ec 56 bd bf 02 7c be 0e 2a 11 3e
       0.10139409 -0.05247208 -0.24610423 0.14176199

node_encoder.3.weight f4 [16]
000000 db 7c 7d 3f 9e de 75 3f 11 21 7b 3f fd 58 7e 3f
       0.9901864 0.9604281 0.9809733 0.99354535
000010 81 e0 80 3f 86 7d 80 3f 86 ed 7f 3f 31 16 7d 3f
       1.0068513 1.0038307 0.99971807 0.98861986
000020 5a 9c 7c 3f 79 43 7c 3f 8c 64 7e 3f 3d d2 7c 3f
       0.98676074 0.98540455 0.9937217 0.987583
000030 c5 9a 7f 3f 59 98 7d 3f f0 ef 7f 3f 21 ec 7e 3f
       0.99845535 0.9906059 0.9997549 0.99579054

node_encoder.3.bias f4 [16]
000000 54 5f 16 3c 47 34 9d 3b a5 e0 d9 3b 97 ce d2 3b
       0.009178001 0.0047974917 0.006649094 0.006433319
000010 30 9d ed ba f0 01 e5 3a de 7c 4d 3c 07 ab 2f bc
       -0.001812851 0.0017471891 0.012541978 -0.010721928
000020 c4 85 92 bc df 16 e2 3b ef 67 01 3c b3 71 b9 bb
       -0.01788605 0.006899699 0.007898315 -0.005659306
000030 d8 b3 2a ba fe b2 51 3a 46 82 98 b9 e2 1a f1 bb
       -0.0006511784 0.0007999389 -0.0002908876 -0.007357941

edge_encoder.0.weight f4 [16, 4]
000000 5b 0b cc be e8 f5 a3 be 5b 7a 84 3e fb 26 25 3e
       -0.39852414 -0.3202355 0.258746 0.16128151
000010 29 8c ba 3e c3 a0 b2 bd ee b0 9d 3e 22 ee 03 be
       0.3643506 -0.08722069 0.3079905 -0.12883809
000020 aa f1 aa be 18 c1 ea 3e d6 c1 f8 3e a0 5b b2 3e
       -0.333875 0.45850444 0.48585385 0.3483553
000030 fe c5 2a be fa 41 94 be 59 a2 fb 3d 9f da 8e 3e
       -0.1667709 -0.28956586 0.12286825 0.2790117
000040 43 1f 98 3d 3a 9c 5e 3e 69 2a 56 bd e4 71 8b 3e
       0.07427838 0.21739283 -0.05228654 0.2723533
000050 34 46 7c 3e 80 2d 88 3e 41 99 a8 bd 9c b0 d2 be
       0.24636155 0.26597214 -0.08232356 -0.41150367
000060 0e 8f a0 be a8 89 7f be d5 4d ec 3e 60 87 ce bc
       -0.31359142 -0.24954855 0.4615313 -0.025211036
000070 0b 30 94 bd 5e ec 80 be 60 ff ab bc 5b b6 af 3e
       -0.07235726 -0.25180334 -0.020995796 0.34318814
000080 20 82 68 bc a4 26 77 3e a5 78 a5 3e 5d e7 c2 be
       -0.0141911805 0.24135834 0.32318607 -0.3806714
000090 a5 89 3e 3e a8 7e 01 3f 3d 02 7b be 31 89 0d 3e
       0.18607195 0.5058389 -0.24512573 0.13821866
0000a0 80 3b 38 3c cc 50 87 3e 68 b6 f6 3d 7c 54 c0 be
       0.011244655 0.2642883 0.1204651 -0.37564456
0000b0 e8 38 bf be bd 10 e0 3e a0 ae 5c be 06 00 e1 be
       -0.37348104 0.4376277 -0.21550989 -0.4394533
0000c0 4a bf e5 be 0a b8 de be d6 6d b3 3d df 3a 2e 3d
       -0.44872504 -0.43499786 0.08761184 0.042536613
0000d0 9f 5b 9f be 79 27 c5 bd 7c 55 d4 3c 11 8f 12 3e
       -0.3112459 -0.096266694 0.025919668 0.14312388
0000e0 89 a0 48 3e d8 8f 9d be 4e 12 01 3f 23 d5 fb 3e
       0.1959249 -0.30773807 0.50418556 0.49186048
0000f0 b2 cd b5 be 19 77 f3 3e 74 b8 d1 be 84 f6 a8 be
       -0.35508496 0.47551802 -0.4096104 -0.33000576

edge_encoder.0.bias f4 [16]
000000 0e 48 fc 3d 7b 1f 21 3e b0 65 e0 3e fc dc 06 3d
       0.12318431 0.15734665 0.4382758 0.03292559
000010 42 01 a2 3e 69 55 32 be 09 bd a6 be 6f d4 2d bd
       0.31641585 -0.17415394 -0.32566097 -0.04243892
000020 b1 91 7d 3e d9 1c 42 be 3a b1 d8 be 83 76 96 be
       0.24762608 -0.18956317 -0.42322713 -0.29387292
000030 e8 ce 8a 3d 47 ac f2 3e 17 e0 eb 3c dc 30 c8 be
       0.067777455 0.47397062 0.028793378 -0.39099777

edge_encoder.2.weight f4 [16, 16]
000000 00 63 94 bd 95 31 0f 3e f4 3a a2 bd 94 e2 02 3c
       -0.07245445 0.13983758 -0.07921401 0.007988591
000010 da 35 40 3e 0a 08 b1 3d 0b e9 52 3e 79 9a 85 3e
       0.18770543 0.086441115 0.20596711 0.26094416
000020 74 e0 ad bd 73 5c c1 3c 06 12 40 be ff 78 74 3e
       -0.08490077 0.023603654 -0.18756875 0.23874281
000030 75 bf 05 be 25 90 79 3e 3d b8 85 3e 24 05 38 3d
       -0.13061316 0.24371393 0.26117125 0.044926777
000040 56 7f 83 be 56 31 97 3b c7 b6 e7 bd 79 9d 0f 3d
       -0.25683087 0.0046140356 -0.11314159 0.035062287
000050 49 d1 0e 3e 54 12 10 3e f4 70 23 3d d5 97 6a be
       0.13947023 0.14069492 0.039902642 -0.22909482
000060 1c 60 5a be 92 de 9b 3d 60 a4 60 bd 6b 28 dc 3d
       -0.21325725 0.07610811 -0.05484426 0.107498966
000070 d7 c4 51 3e c5 7f 81 3d bf 8d 23 be 7f d8 a6 bd
       0.20485245 0.06323198 -0.1597204 -0.08146762
000080 7b f8 02 3e 9d 88 ad 3c 07 b5 24 3e aa 70 88 be
       0.127901 0.021183306 0.16084681 -0.26648456
000090 45 14 18 bd cd 86 f8 bd 1a 24 16 3e fd 53 b0 3d
       -0.037128706 -0.12135086 0.14662209 0.086097695
0000a0 5f 8e 15 bd 3d ec 65 be d0 73 f1 bc b6 a7 51 3e
       -0.03651273 -0.22453399 -0.029474169 0.20474133
0000b0 2c 91 f6 bc 74 0e c0 bc c6 95 76 be 83 77 4c 3e
       -0.03009852 -0.023444392 -0.24080572 0.19967465
0000c0 0c 3e 62 3e ee b8 47 be b1 5e 2b be a7 cf f9 3c
       0.22093982 -0.19504139 -0.1673534 0.030494524
0000d0 92 c9 0d be 41 f5 4d be 8d 8d b8 3d ed a5 51 bd
       -0.13846424 -0.20113088 0.09011374 -0.05118363
0000e0 67 81 c0 3d 3f 45 d6 3d a8 f6 63 3e fe 11 1e 3e
       0.093996815 0.104624264 0.2226206 0.15436551
0000f0 3a 21 65 be 74 0e 46 be f0 85 53 3e 55 8d 53 be
       -0.22375956 -0.19341451 0.20656562 -0.20659383
000100 cb 5c 3e 3e 7b 1a 22 be 41 07 57 3e 0c b5 34 3e
       0.18590085 -0.15830414 0.20998861 0.17647189
000110 34 f2 2c be 2b 30 57 be a5 e8 93 bd e7 8f a6 bd
       -0.16889268 -0.21014468 -0.07222108 -0.08132916
000120 f2 0c 13 be 87 fd 29 3e b0 7c 7b 3d 6d 32 0e bd
       -0.14360407 0.1660062 0.06139821 -0.03471606
000130 56 b3 74 3c dd c4 f3 3d b8 21 14 3d 2a e6 0c bd
       0.014935335 0.11902783 0.03616497 -0.03439919
000140 35 67 84 3e 23 60 2b 3e fe 40 cd 3c a2 ac 55 3e
       0.2585999 0.16735892 0.025055405 0.20866635
000150 eb 2a 4d bd 29 52 40 be 2f c6 43 3e a9 2c 2d 3e
       -0.050089758 -0.18781342 0.1911857 0.16911568
000160 59 1f 3d 3d bf 82 60 be c4 ca 38 3e ef 0f e8 3c
       0.046172474 -0.21924876 0.18046099 0.02832791
000170 3c 07 c6 bd 55 e9 54 be 90 94 f9 bd 9e e0 78 3e
       -0.096693486 -0.20792134 -0.12186539 0.24304435
000180 5d e9 1e 3e d8 88 f1 bd 2e 41 58 3e 62 b8 77 3e
       0.15518709 -0.11793679 0.21118614 0.2419143
000190 2f 51 fc 3d 17 34 cf bc 8b e9 91 3e a5 c6 12 bd
       0.12320172 -0.025293393 0.28498492 -0.035833973
0001a0 7d f5 d2 bd 4b 3f e7 3d 6c 9b d5 bd 99 14 41 3e
       -0.103007294 0.11291369 -0.10430035 0.18855514
0001b0 32 01 d3 bd 87 0b ca 3d 66 e7 3b be 86 73 24 be
       -0.10302962 0.0986548 -0.1834999 -0.16059694
0001c0 0b 6a 6a bc 23 44 4c 3e 95 22 40 be ca 13 be bd
       -0.014307509 0.19947867 -0.18763192 -0.09281118
0001d0 b4 be f5 3d 77 a4 03 bd d5 9d 85 be 5b 92 d4 bc
       0.11999264 -0.032139268 -0.2609698 -0.025948694
0001e0 93 bf a0 bd 1b ab a0 3d 28 ad d2 3d 3e 7f 77 bd
       -0.0784904 0.07845136 0.10286933 -0.060424082
0001f0 41 19 1d be d7 a9 13 3e 4e 8c 64 be 6e 93 0b 3e
       -0.15341665 0.14420258 -0.22319147 0.13630459
000200 69 05 03 3e cc fc d9 3d 40 5f 3a be 63 e0 0c 3e
       0.12795033 0.1064392 -0.18200397 0.13757472
000210 fe 09 13 be 9e d8 d4 3d 2a ab d4 bd 17 1d c1 3d
       -0.1435928 0.10392879 -0.103842095 0.094293766
000220 36 65 03 bc b2 05 46 be 00 e4 6d be 6a 0a a5 bd
       -0.008019736 -0.1933811 -0.23231506 -0.08058627
000230 55 2a 30 3e 79 7c 46 bd a8 5d 43 bd a6 db 34 be
       0.17203648 -0.04845855 -0.04769674 -0.17661914
000240 20 05 42 be 23 c8 89 bc 22 3b 86 bd e8 36 93 3d
       -0.18947268 -0.016819065 -0.065542474 0.07188207
000250 6e 16 7b 3e 42 25 34 be 7b 36 8d bd f6 df 94 3d
       0.24520275 -0.17592338 -0.06895157 0.0726928
000260 70 28 30 be 3c 7d c2 bc 80 d1 01 be 14 ba 18 3e
       -0.17202926 -0.023741357 -0.12677574 0.14914733
000270 c3 59 1f bd 5c 36 a2 3c b9 b5 1b 3e eb 23 3f be
       -0.038903963 0.019801311 0.1520604 -0.18666045
000280 0c 22 dc bd 94 5d 36 3e a2 c5 d8 3d 76 84 29 3c
       -0.107486814 0.17809135 0.105845705 0.010346523
000290 fd 98 80 3e 51 c2 5d 3e 03 70 c3 bd 69 65 17 bd
       0.2511672 0.21656157 -0.09542849 -0.036961947
0002a0 1d 8e d7 3d 34 ab 1e be 56 79 7e be d5 c9 fb bd
       0.10525153 -0.15494996 -0.24850973 -0.12294356
0002b0 f8 3d 4d be 82 c2 2a 3e ec 1d 86 3d 10 0d 54 be
       -0.2004317 0.16675761 0.06548676 -0.20708108
0002c0 d2 3f 02 bc 8d 7b 67 3e bc f6 f8 bd 8f 49 2b be
       -0.007949786 0.22605725 -0.12156436 -0.16727279
0002d0 ef 8f ec 3d 0d f1 24 be a4 64 36 be 96 61 04 3e
       0.11550891 -0.16107579 -0.17811829 0.12927851
0002e0 c0 6c 63 bc a5 f9 25 3e f0 e5 54 bd 32 88 8a 3e
       -0.0138809085 0.16208513 -0.051977098 0.27057034
0002f0 9a 01 c8 bd ff a6 61 3e a8 da 24 be 4c 5d 54 bd
       -0.097659305 0.2203636 -0.16099036 -0.051846787
000300 77 78 24 3e aa 96 15 3e fd b0 50 be c2 f4 50 bd
       0.16061579 0.14608255 -0.20380016 -0.05101467
000310 e6 9d 16 3e 45 36 44 be 01 6d 35 bd f8 6e 08 3e
       0.14708671 -0.19161327 -0.044293407 0.13323581
000320 40 83 48 be 3d 18 af 3d f8 81 77 be 48 6b 7e be
       -0.19581318 0.08549545 -0.24170673 -0.24845612
000330 a5 86 cf bc 1d 28 78 be c4 b0 ca bd c5 77 08 3e
       -0.025332758 -0.24234052 -0.098969966 0.13326938
000340 d9 ab ac bd a7 d7 2c be ed 96 59 3e 32 b6 96 be
       -0.08431215 -0.1687914 0.2124898 -0.2943588
000350 1b 16 66 3d 06 de 1e be b5 1d 30 be f9 96 ff bc
       0.056173425 -0.15514383 -0.17198832 -0.031199919
000360 54 05 82 3e 40 90 4f bd 02 4e 7e be 3a dd 87 3d
       0.2539469 -0.050674677 -0.24834445 0.066339925
000370 1d 54 09 be ca fd 28 be bc 1f b1 3d 98 f8 e2 3d
       -0.13410993 -0.16503063 0.08648631 0.11082572
000380 b8 ea 21 be 9e 79 bf 3c 18 89 05 3d 9a 93 8d bc
       -0.15812194 0.023373421 0.032601446 -0.017282296
000390 13 57 31 bd 25 26 18 be 69 15 e5 3d 0c 27 20 3e
       -0.04329593 -0.14858301 0.11185724 0.15639895
0003a0 81 86 51 3e 73 46 55 3e 60 7d 46 bc 14 b7 8e 3c
       0.20461465 0.20827655 -0.012114853 0.017421283
0003b0 30 02 0b be 2b 5a 88 bd 44 7c 7d 3d 80 3d 8d 3c
       -0.13575053 -0.06657823 0.061886087 0.01724124
0003c0 4f 7a 3e be 82 0f 39 be 99 58 b2 3d 0e ea 42 3e
       -0.18601345 -0.18072322 0.08708305 0.19034597
0003d0 22 bf 59 3e ee fa 03 3e f2 89 f3 3d c6 8f db 3d
       0.21264318 0.12888691 0.11891545 0.10720782
0003e0 08 d1 0c 3e a7 8f bc bd 18 55 1e 3d e8 da 8f 3d
       0.13751614 -0.09207087 0.03865537 0.07024175
0003f0 4d fa 2c 3d 41 68 36 bd 33 59 0c be e7 52 56 be
       0.042230893 -0.044533018 -0.13705902 -0.20930062

edge_encoder.2.bias f4 [16]
000000 fd 68 0f be 54 76 b7 3c 34 82 65 3e fc 0a b3 bd
       -0.14004894 0.02239529 0.2241295 -0.087423295
000010 8a fc 4c be 10 53 59 be 28 e3 c7 3d f9 dd d8 3d
       -0.20018211 -0.21223092 0.097601235 0.10589213
000020 fb 49 03 be ba d1 c5 bd 82 ef 45 3e d0 e8 52 be
       -0.1282119 -0.09659143 0.19329646 -0.20596623
000030 48 f3 1a 3e d6 c8 20 3c 17 b5 f8 bd 70 7b 65 3e
       0.15131867 0.009813508 -0.12143915 0.22410369

edge_encoder.3.weight f4 [16]
000000 8a d7 83 3f 86 55 82 3f 1f d6 7e 3f fc bd 7e 3f
       1.0300152 1.018235 0.9954547 0.99508643
000010 19 d0 80 3f 63 5f 7f 3f 90 da 80 3f c3 13 81 3f
       1.0063506 0.99754924 1.00667 1.0084156
000020 1d 94 80 3f ba ab 80 3f e9 2e 80 3f 66 07 7c 3f
       1.00452 1.0052407 1.0014316 0.9844879
000030 8e 66 85 3f 90 82 81 3f 22 e8 80 3f ad b6 7a 3f
       1.0421922 1.011797 1.0070841 0.9793499

edge_encoder.3.bias f4 [16]
000000 64 f2 4b 3a a5 ce 58 bb 2f 19 6e bb d5 a3 8a 3b
       0.00077799545 -0.0033082154 -0.0036330929 0.004230956
000010 d6 b6 f1 3a c2 44 69 3b 06 00 91 3a 6e 58 87 3b
       0.001844133 0.0035593961 0.0011062629 0.0041304147
000020 d1 be 8e b9 1c 2f e7 ba 6b 78 ab 3b a4 b6 26 3c
       -0.0002722652 -0.0017637941 0.005232861 0.010175381
000030 97 9e 72 bb ee 28 ce 3b 2f 4a 54 bb cb 38 8d bc
       -0.0037020796 0.0062915003 -0.003239285 -0.017238995

node_model.0.weight f4 [16, 48]
000000 b7 02 c8 bd 41 99 b0 3d 93 71 0d 3e df fe 40 3d
       -0.09766143 0.08622981 0.13812856 0.047118064
000010 9c 9a a3 3d 1b 7a 2d 3d a8 07 d1 3d 91 cb 24 3d
       0.07988474 0.042352777 0.102065384 0.0402332
000020 03 ad 17 be 94 96 70 bd 1e 71 91 3c 1f 71 d5 3d
       -0.14812092 -0.058737352 0.017754134 0.10421967
000030 f8 c4 24 bd 3d dc 4f 3d f4 5f 48 3d 88 1f c8 3c
       -0.040226907 0.050747145 0.048919633 0.024429098
000040 93 44 f9 bd d5 bc 1a 3e 43 39 9e bd a0 03 4b 3c
       -0.121712826 0.15111096 -0.077257656 0.012391001
000050 51 f8 aa bd a7 9b 2e 3d a8 26 d7 3d 65 73 31 3d
       -0.08348144 0.04262891 0.1050542 0.04332294
000060 cb 03 aa bd c4 57 03 3d 12 62 03 be e3 3e d7 3d
       -0.08301505 0.03206612 -0.1283038 0.105100416
000070 9c 26 93 3d 42 dc fb 3d 94 47 25 3d cd 06 08 be
       0.071850985 0.1229787 0.040351465 -0.13283844
000080 a2 e6 ec bd 7e 29 19 be 3a a1 8e 3d 0f da 3b 3e
       -0.11567427 -0.14957234 0.06964345 0.18344902
000090 9f 7d e9 3d 9e 94 c4 bd f3 38 a6 bd c9 52 91 bd
       0.114009134 -0.09598659 -0.08116331 -0.07095868
0000a0 30 39 21 3e b7 bd 1e be 40 ed 19 be d2 9d ed 3d
       0.15744472 -0.15502058 -0.1503191 0.116023675
0000b0 b9 72 90 ba d1 f2 ab bd 19 60 ab bd bc 91 1a be
       -0.0011020518 -0.08395923 -0.083679385 -0.15094656
0000c0 2e dd 18 3d cf bb 8c bd 03 d3 a9 3a 06 64 7a 3d
       0.03732031 -0.06871759 0.0012956563 0.061130546
0000d0 1a 20 17 be 00 0b 25 3e 0d 7c 59 bd d9 ac e2 3d
       -0.1475834 0.16117477 -0.05309682 0.11068124
0000e0 0e 59 4f bc 20 eb cf 3d c7 02 c2 bd 99 0e 8f bc
       -0.01265551 0.101522684 -0.09473186 -0.017463015
0000f0 7f 1e 5e bd 12 0c 8b 3d 7f 8b 20 be 0e 09 e7 3d
       -0.054228302 0.067894116 -0.15678214 0.11281024
000100 b5 0a 85 bc 57 9a 17 be ba 9c 9d bc 42 3f 68 bc
       -0.016240457 -0.1480497 -0.019239772 -0.014175238
000110 b1 80 30 bd 03 c5 68 bd 98 0c de bc aa 47 ea 3c
       -0.04309148 -0.05682851 -0.027105615 0.028598625
000120 de f4 ac 3d a3 f4 aa 3c 2c 73 f9 3d c0 9c a2 bc
       0.08445142 0.020868605 0.121801704 -0.019850135
000130 51 e1 f6 3d 27 7c 38 3d 3a 93 f1 bd 6e dc ad 3d
       0.120546944 0.045040276 -0.11795659 0.08489309
000140 ed e6 14 3d d1 16 e8 3d 6e 30 cd bd 60 44 69 bd
       0.03635304 0.11332477 -0.10019003 -0.056949973
000150 66 e9 1c be bd f6 fa bc c7 6e 6d bd 08 d2 b6 bd
       -0.1532341 -0.030635232 -0.057966974 -0.08926779
000160 c1 49 eb bd 60 a8 05 3e cb 84 87 3d 73 35 19 3d
       -0.11488677 0.13052511 0.06617125 0.03740449
000170 5c b6 06 3d 24 8f 81 3d ff 79 04 3c 13 eb 0b be
       0.032888755 0.0632613 0.008085727 -0.13663892
000180 91 69 1f bc a9 b1 9a 3d be 21 71 bc b4 20 06 3d
       -0.009729759 0.07553417 -0.014717517 0.032746032
000190 2f 4c b2 3d 6c 5d a4 3d b8 92 75 bd 7d 9f e7 3d
       0.08705937 0.08025631 -0.059954375 0.11309717
0001a0 1e 12 8a bd a0 e0 cd 3a 4e 7e fc 3d f3 e6 a3 bd
       -0.06741737 0.0015707202 0.12328778 -0.080030344
0001b0 4f 5a 0b 3e 88 35 82 bd c7 1b 8c bd fa 17 df 3d
       0.13608669 -0.063578665 -0.068412356 0.10893245
0001c0 83 9e dd 3d 2d d3 cc bd e0 f7 82 3d f3 44 1f 3d
       0.10821249 -0.10001216 0.06394935 0.038884114
0001d0 08 4f 00 be 5a 0e 5e bd 5c 14 13 3c 4b 16 07 be
       -0.12530148 -0.054212905 0.008977022 -0.13192098
0001e0 6f a6 a2 3b 86 ab 58 3d 1a d5 d6 3d 03 3c e0 3d
       0.004963688 0.052897952 0.10489865 0.10948946
0001f0 2f 2b 7d bd a1 24 5b 3d f7 d6 24 3d fc 26 45 bc
       -0.06180876 0.05350173 0.04024407 -0.01203322
000200 ef 4d fd bd 40 9a 37 3d 60 e2 03 3e 0d 26 f9 bd
       -0.1236838 0.04482484 0.12879324 -0.12165461
000210 85 8d 9d bc a7 84 a6 3d 16 3a b2 bc c5 82 d7 3d
       -0.01923252 0.0813077 -0.021756213 0.10522989
000220 1b 60 40 bd 16 37 99 bd f5 29 e4 bd 77 ef 8f bd
       -0.046966653 -0.0748121 -0.11140815 -0.07028096
000230 c5 9a a7 bc 67 54 03 3e c5 e3 4d 3c b2 93 b2 3b
       -0.020459542 0.12825166 0.0125665115 0.0054497356
000240 b9 fa e4 3d 9c 85 04 3d 11 66 41 bd fb 6c 58 bd
       0.11180634 0.032353982 -0.04721648 -0.052838307
000250 3f d2 8a 3d 10 4b 5a bd 56 b0 34 3d 20 88 85 3d
       0.067783825 -0.05329424 0.04411348 0.065201044
000260 0b 1f 2d 3c ad ee d7 bd ca 95 b6 bd dd d1 f7 bd
       0.010566483 -0.10543571 -0.08915289 -0.12100575
000270 23 31 5a 3d d3 36 12 be 8f f0 af bd 24 03 0f 3e
       0.053269517 -0.14278726 -0.08590805 0.13966042
000280 ee df 04 bc df e0 4f 3d 85 7f 72 bd 7f cf a8 bc
       -0.00811003 0.050751563 -0.059203643 -0.020606754
000290 2c b5 b1 bc 3d c8 3f 3d ed 49 9f bd 15 f1 85 bd
       -0.021692835 0.04682182 -0.07777772 -0.065401234
0002a0 24 67 83 3d cf b0 18 3c ee 4f 8b bd 0e e2 5d 3c
       0.06416157 0.009319498 -0.06802355 0.013542665
0002b0 0b 82 c0 bc c9 74 3c be ce 4c fa 3d b3 1c 00 be
       -0.02349951 -0.18403925 0.122216806 -0.12510948
0002c0 4d c3 9a 3d c6 4e b9 3d e4 91 06 bd da 03 21 bd
       0.07556782 0.09048228 -0.032853976 -0.039310314
0002d0 0d da f1 3d fa ed 04 3e 80 59 de bc 96 e5 38 bd
       0.11809168 0.12981406 -0.027142286 -0.045140825
0002e0 1f 7d a7 bd e8 fe fd 3d 12 2f 9f bd 1c 2f 8b 3d
       -0.08178162 0.12402135 -0.0777265 0.06796095
0002f0 d0 11 0c 3d 8a c9 d6 3d 62 77 5c bc a8 da a5 3d
       0.034196675 0.10487659 -0.013456197 0.08098346
000300 c2 fb 9d bd 2c 3e 23 bd fe fc 70 bd cb d0 0a be
       -0.077140346 -0.039854214 -0.058835022 -0.1355621
000310 33 a5 ff bd a0 01 85 3d e2 24 a0 3d 0f a9 30 bd
       -0.12482681 0.064944506 0.07819535 -0.043129977
000320 44 5b 01 be 93 6a d0 3d 6c 08 12 3e 1e f5 0b 3e
       -0.12632471 0.101765774 0.14261025 0.13667724
000330 ca 97 7a bd fe 30 00 be 7c 29 c9 3d 58 1b 83 3d
       -0.061179914 -0.12518689 0.09822366 0.064017
000340 88 00 f6 3d ea 7c 49 3d 84 ac a6 3d 9d 47 83 bd
       0.1201182 0.049191393 0.081383735 -0.064101435
000350 1e 7b cd bd 8a 82 af 3c e0 2e e1 3d a0 06 c5 bd
       -0.10033248 0.02142455 0.10995269 -0.09620404
000360 47 5a 9c 3d cb 6b 5c bd 39 ee c9 bd 31 23 cf bc
       0.076344065 -0.053813737 -0.098598905 -0.025285335
000370 ba 5f 12 3e 51 d9 87 3d 7e aa f1 3d 2e 85 19 3e
       0.1429433 0.06633247 0.11800097 0.1499221
000380 0b 2b 09 3b 86 c6 89 3d d7 fc 2e 3d 9c 78 ae bd
       0.0020930197 0.067273185 0.042721596 -0.08519098
000390 b7 b9 ce 3d 14 a5 60 bb eb c6 d7 bc 1c 43 b0 3d
       0.10094016 -0.0034278082 -0.026339969 0.0860655
0003a0 53 70 0b 3e 69 e6 e1 3d 57 32 82 3c 96 19 cc bd
       0.13617067 0.110302754 0.015893145 -0.09965818
0003b0 ba 68 0d 3e 7e a0 67 3d ab 0a e8 3d 9e 4c f8 bc
       0.13809481 0.05654954 0.1133016 -0.030309971
0003c0 2c 0d b1 3d 9d 9c 4f ba c3 d9 bc 3d 3f ff 10 3d
       0.086450905 -0.00079197605 0.09221222 0.03539967
0003d0 8f 46 6c bd 4f 97 81 3d 06 6f 09 3e 66 36 c6 bd
       -0.057684477 0.06327688 0.13421258 -0.096783444
0003e0 73 5b 08 3e 94 2f e8 3d 7c 23 fb 3d 98 f5 0f 3d
       0.13316135 0.113372 0.122626275 0.035146326
0003f0 b0 20 48 bd 84 be 2a bd 32 eb 97 bc 4f 78 be bd
       -0.0488593 -0.041685596 -0.018544767 -0.09300291

node_model.0.bias f4 [16]
000000 f1 c8 b5 3d e3 1a 93 3d 73 24 f0 bd da 04 cc bc
       0.08876217 0.071828626 -0.11725702 -0.024904657
000010 fc b6 ee bc c2 7f 9d 3d 6f 96 97 bd 77 c2 2c 3d
       -0.029139988 0.076903835 -0.0740174 0.042177644
000020 6a f5 4c 3d 5b a4 b5 3d 9b 98 00 3e e6 5c 2c bd
       0.050038733 0.08869239 0.12558214 -0.042080782
000030 75 e4 d6 bd b6 8f 04 be e5 2b 1b bd ba 4c af 3d
       -0.104927935 -0.12945446 -0.037883658 0.08559556

node_model.2.weight f4 [16, 16]
000000 96 f4 e4 ba e7 60 5a be 82 ce 37 be cf 3f 2b be
       -0.0017467912 -0.21326028 -0.1794987 -0.1672356
000010 3d 3f f7 bd d1 b8 06 3d d3 93 d8 bb 17 2b 3d bd
       -0.120726086 0.0328911 -0.006609419 -0.04618367
000020 76 54 3a bd 9a 4a 00 be 73 53 a1 b9 e6 3d 2b 3e
       -0.045490704 -0.12528458 -0.00030770488 0.16722831
000030 6d 81 4e 3e f9 77 67 bd 2d 56 b8 3d e3 1f 2b 3e
       0.2016656 -0.0565109 0.09000812 0.16711383
000040 80 0c 80 3e 13 ac 03 be 87 f9 62 be d6 61 20 3d
       0.25009537 -0.1285861 -0.221655 0.039155804
000050 49 ae aa 3d 26 28 33 3d 2a a2 6d 3e 6f ef d0 3d
       0.083340235 0.04373946 0.23206392 0.10201918
000060 77 05 93 3a 73 de 48 3e 5f de 2b 3e 43 10 09 be
       0.0011216839 0.19616108 0.16784047 -0.1338511
000070 33 05 71 be ae 02 84 bb 7f 0d 20 bd 0e 16 38 be
       -0.2353714 -0.0040286398 -0.03907537 -0.17977163
000080 90 bd 84 be 46 42 2e 3e 76 dc be bd cf de fb bd
       -0.25925875 0.17017469 -0.09319393 -0.12298357
000090 79 4d 04 3e 91 92 db bc 24 38 76 3d 46 4b 43 bd
       0.12920178 -0.026803287 0.060112134 -0.04767921
0000a0 de fb 8e 3d 79 8f 04 3e d0 18 26 be a8 eb 2a bd
       0.069816336 0.12945355 -0.16220403 -0.041728646
0000b0 c0 9e 25 3e 9e 3c 54 3e e7 32 06 3e 5d a2 39 3e
       0.1617384 0.20726249 0.13105355 0.18128343
0000c0 d5 01 8c bd 93 5d 6c 3c 96 c2 37 3c 8d 25 48 be
       -0.06836287 0.014426607 0.0112158265 -0.19545574
0000d0 4a b5 16 be cb db 19 bd ca 44 10 bc f5 67 ef 3d
       -0.14717594 -0.037563127 -0.008805463 0.1168975
0000e0 13 86 62 be 05 94 04 be d2 f4 56 3e 0d 12 74 3d
       -0.22121458 -0.1294709 0.20991829 0.059587527
0000f0 78 3a ec bd 83 32 e6 3d 52 d8 47 bd da a0 eb bd
       -0.115345895 0.11240103 -0.048790284 -0.115052894
000100 f3 9e 18 be 89 b6 0c be 29 0f 01 be ec 2e 1b 3d
       -0.14904384 -0.13741507 -0.1260344 0.037886545
000110 b6 5d f8 3d e0 a4 d1 3d 5f 7c 85 3e dd 17 68 3e
       0.12127249 0.102365255 0.2607145 0.22665353
000120 fa 51 11 be b2 68 50 3e aa cc 46 bd 02 bf 1f 3e
       -0.14191428 0.20352438 -0.048535027 0.15600207
000130 86 c1 59 bd ea 04 4f 3e 5d eb 58 bd 14 a0 a2 3d
       -0.053163074 0.20216718 -0.052958835 0.07940689
000140 d8 b8 ed 3d 2d 88 8b bd 4c 15 b0 3d ee 91 95 3d
       0.11607522 -0.06813083 0.08597812 0.073032245
000150 7b 34 03 be 1a 67 9e bd 0b 64 39 3e 38 df b4 3c
       -0.12812988 -0.07734509 0.1810457 0.022079095
000160 72 2c 2a 3e 40 31 bd 3d d2 e9 da 3d 05 1c 0a be
       0.16618517 0.09237909 0.10689129 -0.13487251
000170 1c ff 0c be 57 55 19 3e 46 b5 af bc 49 dc c8 3d
       -0.13769192 0.14973961 -0.021448743 0.09807641
000180 0e 7b 2b 3e de ac c1 3d 0b ba d8 3d 55 4b e6 bd
       0.1674616 0.094568 0.1058236 -0.11244837
000190 f3 9b f6 3c 80 ac 04 3b 06 b7 21 3e f3 c2 66 3c
       0.03010366 0.002024442 0.15792474 0.014084565
0001a0 6e a9 35 be 93 cb 29 3e 62 4e 2c bd e3 e0 b8 3c
       -0.17740414 0.16581564 -0.04206694 0.022568172
0001b0 0b 9d ae be 2c 79 75 be 2d 33 80 3d d6 86 b0 3d
       -0.3410419 -0.23972005 0.06259761 0.08619468
0001c0 d3 af 5d 3e 4f 4d 38 3e b5 cd e3 3d 83 8e 2a 3e
       0.21649103 0.17998241 0.1112322 0.16655926
0001d0 34 59 b6 3d d7 cf fd bd d5 02 3e 3d e8 65 3f be
       0.08903733 -0.12393158 0.04638942 -0.18691218
0001e0 0e 05 f5 bd 36 01 4b 3e ef 95 b0 3d 61 df c7 3d
       -0.11963855 0.1982468 0.086223476 0.09759403
0001f0 9d d7 13 bd bb b9 5f be 39 8f 49 bd a6 be 7b bd
       -0.036094297 -0.21848194 -0.049208853 -0.061461113
000200 88 10 cd bc 6d bc 74 3d b8 40 1a be f4 ac 0b be
       -0.025032297 0.05975001 -0.1506375 -0.13640195
000210 c2 fe 15 bc 60 9a 15 be d9 0a 2a bd 2a 80 96 bc
       -0.009154977 -0.1460967 -0.04151425 -0.01837166
000220 c0 9f 9b ba 05 8b bf bd 27 68 6f bd 8d 68 32 3e
       -0.0011873171 -0.09352688 -0.058448937 0.17422695
000230 c3 49 5a 3d de de 5e 3d 21 86 cc bd 42 a1 15 be
       0.053293 0.05441176 -0.099865206 -0.14612296
000240 d4 1d 4e 3d c9 5d ae 3c b9 38 28 bc 19 35 6a bd
       0.050321415 0.021284955 -0.01026743 -0.057179544
000250 72 3c 2e be 03 df 34 be 7b f5 1b 3e da 41 89 3e
       -0.17015246 -0.17663197 0.15230362 0.26808053
000260 7a f8 32 3e fd 15 1e be fa e8 8a 3b 6a f5 25 be
       0.17477599 -0.15438075 0.0042391988 -0.162069
000270 24 5f 9d bc 70 cf 27 be f9 09 b5 3c 9e bc 54 be
       -0.019210406 -0.16387725 0.022099482 -0.20775077
000280 c7 8a f9 3d af d8 5e 3e f4 89 38 3c 06 77 aa 3d
       0.12184673 0.21762346 0.011263359 0.08323483
000290 66 8c ab 3d 07 a7 27 3e 72 73 18 3d 71 90 5a 3e
       0.08376388 0.1637231 0.037219472 0.21344163
0002a0 9f 29 cc 3d db 10 c8 bd cc e6 4b 3e 97 ab 2f 3d
       0.09968876 -0.0976884 0.19912261 0.04288825
0002b0 88 74 40 be df f5 3e 3d ef 69 3a be 39 e3 75 3e
       -0.18794453 0.0466212 -0.18204473 0.2401246
0002c0 e9 c2 ec bb 16 a1 65 bd 0a 82 0d 3d ee f6 13 be
       -0.0072253835 -0.056061827 0.034547843 -0.14449665
0002d0 1f e9 65 3d 23 f1 93 be 1a 73 0f 3e 10 f5 16 3e
       0.056130525 -0.2889491 0.14008752 0.14741921
0002e0 d0 6d 27 be 22 7a cc 3d 21 59 07 3d 21 61 cc bd
       -0.16350484 0.099842325 0.033043984 -0.09979463
0002f0 90 88 3f 3e 5d c5 99 bc 6f 08 58 be 63 7d 87 be
       0.18704438 -0.018770868 -0.21096967 -0.2646285
000300 99 ae c9 3d 26 71 0f be b8 6c 8a be bd 1e 31 be
       0.09847755 -0.14008006 -0.2703607 -0.17296882
000310 57 5d 65 3e 32 bb 94 bd 57 a7 43 be 84 e0 08 be
       0.22398888 -0.07262267 -0.19106804 -0.13366896
000320 89 a9 0c 3d c4 57 0c bd 9a dd 55 be e6 a8 fc bd
       0.03434137 -0.034263387 -0.20885316 -0.12336902
000330 7e 84 62 bd 56 1e 99 3d f6 93 95 3d d3 21 77 3e
       -0.055302136 0.07476489 0.07303612 0.24133997
000340 af ad 24 3e ce 90 24 3d 7b f9 56 3e 09 52 1f 3d
       0.1608188 0.04017716 0.20993607 0.038896594
000350 3a 8c db bd 57 5c 83 3e 6b 88 f6 bd 6b fe 62 be
       -0.107201055 0.25656387 -0.120377384 -0.22167365
000360 4e 53 3d 3e 8a 68 7a 3e fd ad 06 3e ac 7f ab bd
       0.1848881 0.24453941 0.13152309 -0.08373961
000370 f8 de 1c 3d f1 f8 fb 3d 71 4d de 3d 34 c3 24 3b
       0.038298577 0.12303341 0.108546145 0.0025140764
000380 24 47 65 3d 8f 57 02 be 55 14 b2 bd fe 95 cd 3d
       0.055976048 -0.12728713 -0.08695284 0.10038374
000390 33 a2 05 3c 39 51 78 bd 5c 66 cf 3a b6 ff 97 3d
       0.008156347 -0.060624335 0.0015823352 0.0742182
0003a0 46 8c 6b 3e 90 d2 44 3e 15 ae 66 be 56 30 1d be
       0.23002729 0.19220948 -0.22527345 -0.1535047
0003b0 d4 6c f0 3d d6 d7 06 bd 6f 5b eb 3b 21 93 0f be
       0.11739507 -0.03292068 0.0071825306 -0.14020969
0003c0 8a 40 2b 3e f9 d0 87 be 96 f6 23 3e 8c 69 1a 3c
       0.16723838 -0.2652662 0.16012034 0.009424578
0003d0 d9 e0 c9 3d 5a 58 58 3e 1a fe d9 3b d7 f7 0b be
       0.098573394 0.21127453 0.0066526057 -0.13668762
0003e0 58 ff 83 bd 55 ea 82 3e 2e bf 7b bd 1d 14 08 bc
       -0.06445187 0.25569406 -0.06146162 -0.008305577
0003f0 e8 39 ff bd 4a c1 27 be 91 19 f6 3c c2 6b 65 3d
       -0.124622166 -0.16382328 0.030041488 0.05601097

node_model.2.bias f4 [16]
000000 d4 c7 f6 bd 48 2e 4b 3c 55 2c 5b 3e c6 09 8a 3e
       -0.12049833 0.012401171 0.2140363 0.26960582
000010 6e 7e 23 3b 93 d2 46 3e ed 54 42 3e a6 21 04 3e
       0.0024947184 0.19416265 0.18977709 0.12903461
000020 f5 a3 5e 3e f4 90 81 3d 54 16 e4 bd 51 c6 27 3e
       0.21742232 0.06326476 -0.11137071 0.16384245
000030 cc ac 12 3e 92 cc 50 3d 45 66 fe bb ee 2e 18 bc
       0.1432373 0.050976343 -0.0077636563 -0.009288533

node_model.3.weight f4 [16]
000000 c6 5f 94 3f 81 ce 9c 3f de 20 8d 3f af c1 93 3f
       1.1591728 1.225052 1.1025655 1.1543483
000010 ca b0 a0 3f b5 f8 80 3f 6d 70 98 3f 0e c4 95 3f
       1.2553952 1.0075899 1.190931 1.1700456
000020 ce 0b 9c 3f 5b 7e 95 3f a0 7e 80 3f 8c 14 a5 3f
       1.2191103 1.1679186 1.0038643 1.2896895
000030 5e f8 88 3f 60 9d a3 3f 7e cd 7e 3f 31 91 95 3f
       1.0700796 1.2782402 0.99532306 1.1684934

node_model.3.bias f4 [16]
000000 8d ef 3b be 01 33 8d 3d 23 d6 b2 bd 85 83 1f be
       -0.183531 0.06894494 -0.087322496 -0.15577514
000010 9d fa d4 bd a0 2a 50 3b 56 6a 18 3e 24 cc 62 3d
       -0.10399363 0.0031763688 0.14884314 0.055370465
000020 b4 e1 f9 bd 1b 14 e0 bd 83 f4 0a bd 5e 9a 3f be
       -0.122012526 -0.10941335 -0.03392459 -0.1871123
000030 4e bd 1d 3e 90 cb bc 3d 76 eb cd bd 77 6b 9f 3d
       0.15404245 0.09218514 -0.10054676 0.07784169

edge_model.0.weight f4 [16, 96]
000000 7b 1a 99 bd 97 b2 2e bd 34 c8 9b bd 90 f9 c5 bb
       -0.07475754 -0.042650785 -0.07606545 -0.006041713
000010 c1 0a 81 3d 81 d9 80 bd 47 4e a1 ba 81 20 4e bd
       0.06300879 -0.062914856 -0.0012306654 -0.050323967
000020 f3 05 46 bd 80 c6 e2 3c 36 8d 4c 3d ad 47 ae 3d
       -0.048345517 0.027682543 0.049939357 0.08509765
000030 ed 1e 01 bd 23 88 b1 3d 7a 93 81 bd b1 93 22 3b
       -0.031523634 0.08668544 -0.06326957 0.002480727
000040 aa d5 78 3c 83 42 b2 3d 24 96 80 3d 8e 7a 2e bd
       0.01518766 0.08704092 0.06278637 -0.042597346
000050 bc 8f 7a 3d 16 8c 0f bc e7 12 ba bd c2 17 8c bd
       0.061172232 -0.008761426 -0.090856366 -0.06840469
000060 95 15 81 bd 2c 79 c0 3d 06 9b a4 3d 25 5b 87 bd
       -0.063029446 0.09398112 0.08037381 -0.06609181
000070 23 a9 23 3d 00 9a af 3d 21 e4 21 bb e8 33 73 3d
       0.039956223 0.08574295 -0.0024702626 0.059375674
000080 71 10 b7 3d 36 68 36 3d 5e 1a 10 bd 80 04 c7 3d
       0.08938683 0.044532977 -0.035181396 0.09717655
000090 61 87 ae 3c e1 2d 1c 3d 7a ce ca bd 0a c2 d4 3c
       0.021304788 0.03812969 -0.099026635 0.025971431
0000a0 4d 08 54 3d b7 8e 76 bd ce 86 79 bd ea 49 4c bd
       0.05176573 -0.060194697 -0.060919575 -0.049875177
0000b0 86 5b 1d 3d 57 22 01 bd a4 fa 2b bb 84 b2 e5 bd
       0.03841736 -0.03152689 -0.0026241923 -0.1121569
0000c0 4b 69 99 bc 53 e2 48 bd 37 b0 b6 bd f8 36 57 3d
       -0.018726965 -0.049043965 -0.08920329 0.052542657
0000d0 32 a2 a0 3c 6c 0c d2 bd 3a 16 13 3d 9e 8e 62 3d
       0.01960859 -0.102562755 0.03590987 0.05531179
0000e0 d6 ad 58 bd ef 32 ea bc 6c fa 18 bd 8f a6 b1 bc
       -0.052900158 -0.02858874 -0.037348196 -0.021685867
0000f0 ae ff 57 3c f6 98 74 3d 9b 2c b3 3d 85 41 b4 bd
       0.013183517 0.059716187 0.08748742 -0.08801559
000100 13 8f ac 3d 85 81 47 3c 07 77 d7 bd db d4 8a 3d
       0.08425727 0.012176876 -0.105207495 0.0677888
000110 08 2e 96 3d b9 03 a6 bb 57 10 d9 bd c1 9f a3 3d
       0.073329985 -0.0050663617 -0.1059882 0.07989455
000120 7d 74 3e bd d7 f8 a8 bd 1c e1 29 bd 3f 8e 08 3c
       -0.04649781 -0.082505874 -0.041474447 0.008334695
000130 c0 d5 d2 3c 42 02 01 3d 48 d4 2f 3d 4d 7b c7 bc
       0.02573669 0.031496294 0.042927057 -0.024350787
000140 8e e8 62 bd 97 a2 c0 bc 32 51 57 3d 03 33 40 3c
       -0.055397563 -0.023515029 0.05256767 0.011730912
000150 60 80 58 3d ad 83 3a 3c 12 71 86 ba 98 b7 df bd
       0.052856803 0.011383933 -0.0010257086 -0.109236896
000160 42 41 f6 bc 93 60 3a bd 5f 54 d8 bd 7e 47 9b 3d
       -0.030060414 -0.045502257 -0.105629675 0.075819954
000170 b8 4c 87 3d 61 73 d0 3d cf a6 ba 3d fd df 9b 3d
       0.0660643 0.10178257 0.091138475 0.07611082
000180 2e 47 48 bd 98 ba 9b 3d 22 50 a2 bd 16 66 02 3d
       -0.048896007 0.07603949 -0.0792544 0.031835638
000190 af 25 ab bd a6 a6 5f 3d 13 69 e9 bc d1 9c 99 3d
       -0.08356797 0.054602288 -0.028492486 0.075006135
0001a0 f6 20 8d 3c 47 8b 9a 3d 75 da 10 bc 21 21 b7 bd
       0.017227631 0.07546096 -0.008841147 -0.08941866
0001b0 ff e1 d5 bd 5f 52 b2 bd a5 4f 3e bd 7b 67 ab 3d
       -0.10443496 -0.08707117 -0.046462674 0.08369347
0001c0 29 77 31 3d d7 09 5d 3c 7d 64 8a 3d 1f ad 98 bd
       0.04332653 0.0134911155 0.06757448 -0.07454895
0001d0 d8 ed b4 3c 15 7d 46 3d c6 bd d8 bd 19 70 c8 bd
       0.022086069 0.04845913 -0.105830714 -0.09787006
0001e0 48 99 d2 3d a4 78 6c bc df 09 b2 bd bc 79 bd 3d
       0.10283142 -0.01443306 -0.08693289 0.092517346
0001f0 3a 5b ae 3b bd bd 36 3d 8f b1 7c 3b 41 ef 10 3d
       0.0053209336 0.044614542 0.0038557982 0.03538442
000200 ed 84 a4 3d 15 35 3a 3d 9f 7b b8 bd 28 79 82 3d
       0.08033166 0.04546078 -0.09007954 0.06370765
000210 76 08 9a bd 43 62 35 3d a2 7f bc bd c1 a3 fd bc
       -0.07521145 0.044283163 -0.092040315 -0.030961873
000220 48 2d 8d bc 7c 49 c3 3c f5 25 81 3d bf fd a3 bd
       -0.017233506 0.023838751 0.06306068 -0.080073826
000230 c1 a6 bf bd 6d d9 8d 3d 84 8f 81 bd f1 47 b1 bd
       -0.09357978 0.06926236 -0.063262016 -0.086563
000240 8a a1 a1 bc 7c ae ca bc a2 64 ad bd be 52 0d 3b
       -0.019730348 -0.024741404 -0.0846646 0.002156421
000250 95 b0 d1 3c 77 07 ab 3d 41 05 c3 3c 3d ff c9 3c
       0.025596896 0.08351033 0.023806216 0.02465784
000260 f3 01 ab 3c ab e4 52 bd ba fc cb bb 70 a5 bf bc
       0.020874953 -0.051487606 -0.0062251957 -0.023394316
000270 be 6c 3d 3d 1f 35 49 3d c6 4f a9 3d a8 f2 3c bd
       0.046246283 0.049122926 0.08267169 -0.046129853
000280 15 a2 bc 3a 3e d4 97 3c 4c 29 70 bd d5 d9 98 3d
       0.0014391566 0.018533822 -0.058633134 0.07463423
000290 33 de ab 3d 1a af b1 3c d4 0e 8f bd 0a 3c 93 3d
       0.083919905 0.02168994 -0.0698525 0.07189186
0002a0 9b f6 ac 3d 3a 1f 32 bd 1d f9 7d bd bb 4d c6 3d
       0.08445474 -0.04348681 -0.06200515 0.09682795
0002b0 72 cd ac bd a4 7e 4c bc 9b 2d e4 ba 03 9e 0a bd
       -0.08437623 -0.012481365 -0.0017408611 -0.033842098
0002c0 a5 31 a6 bd 28 6e 1f bd 01 d5 5e bd 78 4c a6 3c
       -0.08114938 -0.038923413 -0.054402355 0.020300135
0002d0 61 b6 70 3d f3 7e 86 bd 91 d1 ad 3d fd 20 14 3d
       0.05876768 -0.065671824 0.08487237 0.036164273
0002e0 e4 a0 f8 bc 35 2b 81 3d 33 45 ef bc 70 8e 07 bd
       -0.030350156 0.06307069 -0.029207801 -0.033094823
0002f0 af 9c b1 bd 71 c3 e1 bc e0 68 e7 bc b0 32 10 3d
       -0.08672463 -0.027559014 -0.02824825 0.03520459
000300 1f cd ad bd 13 2e ee 3d 00 e0 30 bc ba 8a ed 3c
       -0.08486389 0.11629882 -0.010795593 0.028996814
000310 fb a4 db bb 84 cd 2c bd de f5 7a bd 52 8e 7d bc
       -0.006703017 -0.042188182 -0.061269633 -0.015475826
000320 62 32 87 3d 1d be 10 3d 15 46 23 3d 0b ef b0 bd
       0.06601407 0.035337556 0.039861757 -0.08639344
000330 bc f8 32 3d 08 56 ac bc cd e6 82 bd cd 3a 85 bd
       0.043694243 -0.021037117 -0.06391678 -0.06505356
000340 b9 4b 95 bd 8c c7 ea bc 87 6d bd 3d 1c d2 18 bd
       -0.072898336 -0.028659604 0.09249406 -0.03730975
000350 08 f7 e1 bc 51 32 91 3d d3 b2 23 bd 51 c9 ed 3c
       -0.027583614 0.07089675 -0.039965462 0.02902666
000360 1e cb 91 3d f8 12 6c 3d 51 a6 5d 3d 12 9c 98 3d
       0.0711882 0.057635278 0.05411369 0.07451643
000370 30 22 93 b9 86 0e 8b bd ef e5 5a bd 11 a4 7f ba
       -0.00028063497 -0.067898795 -0.053441938 -0.0009751926
000380 27 de e4 3a b3 74 fa 3c a5 cf 41 3d 39 3c d9 bb
       0.0017461226 0.030573225 0.047317166 -0.0066294936
000390 49 f8 1f 3d b2 5f d3 bd e5 b5 0e bd 3b 43 c0 bd
       0.039055143 -0.10320987 -0.034841437 -0.09387823
0003a0 2e 43 f1 3c 73 82 aa 3d 6d 68 db bc 67 9b c0 bc
       0.02945098 0.083256625 -0.026783193 -0.023511602
0003b0 d1 50 12 3d 01 74 29 bd 7e 54 67 3d a3 ed 9c bd
       0.035721604 -0.041370396 0.056477062 -0.07662513
0003c0 bd 2d 9e 3b d4 ee 8f bc fe da a8 bd 91 72 71 3b
       0.00482723 -0.017569937 -0.082448944 0.0036841969
0003d0 57 f0 41 3b 4e cb b3 bb 82 e2 bc 3d ae b4 ac bc
       0.0029592717 -0.0054868823 0.092228904 -0.021082249
0003e0 4c b0 96 3d 5b e1 f6 bc 03 aa 3e bd 52 a3 82 3c
       0.07357845 -0.030136755 -0.046548855 0.015947018
0003f0 cf b7 77 bd 43 40 87 bd 78 9d 41 bd 20 c9 ce bb
       -0.060478028 -0.06604054 -0.047269315 -0.006310597

edge_model.0.bias f4 [16]
000000 1e 2f 89 bd f4 86 06 3d 02 5e bb b9 fb 71 19 3d
       -0.0669844 0.032843545 -0.0003573746 0.037462216
000010 fe e2 7a 3d 95 1d ce 3d 02 d2 d0 3c 56 bf 66 3d
       0.061251633 0.10064236 0.025490765 0.056334816
000020 e0 c4 58 bd 38 96 85 3d a1 81 1b 3d 83 2e ae 3d
       -0.05292213 0.065227926 0.03796542 0.08504965
000030 80 b6 b0 3b e3 4c ba 3d 0b ff b1 bb 4c 6b 2c 3c
       0.0053928494 0.09096696 -0.005432015 0.010523628
