tmp/tmp7model400.pt (torch, 23679 bytes, 25 tensors)

node_encoder.0.weight f4 [16, 5]
0.03474061 -0.27819368 0.17518947 0.14032692 -0.19715916 -0.06702712 -0.26199022 0.11603975
-0.12046489 0.31418395 0.31179565 0.039960094 -0.20563409 -0.2626759 -0.029243294 -0.12585846
0.19711423 -0.38187397 0.4203089 -0.3508064 0.34959725 -0.048248038 0.20097801 0.17427695
-0.06050468 0.08612442 0.3495576 0.0941692 0.23726797 -0.39484462 0.31259263 0.1735556
0.103185914 0.061780453 0.19448364 0.41077778 -0.10473286 -0.22202992 -0.11251709 -0.222825
0.21368499 -0.23247597 -0.22506106 0.3858682 0.428512 0.05426529 -0.07623777 -0.057637643
0.21185619 -0.41759866 -0.36212838 0.3605922 0.44486165 -0.026575655 -0.35336697 0.01221928
-0.20805249 -0.0008597672 0.21889484 0.19797009 -0.047416724 0.04684215 0.13768625 -0.35053653
-0.123336725 0.0800052 -0.33303136 -0.12608425 0.15020907 0.319879 0.0062662363 -0.17395923
0.24485981 -0.2451496 -0.10497141 0.42918947 0.07055089 0.03825015 0.15076238 -0.09777129
00000000: 2b4c 0e3d 676f 8ebe de64 333e dcb1 0f3e
00000010: 17e4 49be 8445 89bd 9523 86be 40a6 ed3d
00000020: 4cb6 f6bd b8dc a03e aea3 9f3e 32ad 233d
00000030: be91 52be 757d 86be a28f efbc 0ae1 00be
00000040: 50d8 493e fc84 c3be ba32 d73e e59c b3be
00000050: 69fe b23e bc9f 45bd 2ecd 4d3e a875 323e
00000060: c1d3 77bd 0062 b03d 37f9 b23e c8db c03d
00000070: 60f6 723e 1329 cabe 240c a03e 8fb8 313e
00000080: 2353 d33d 800d 7d3d b826 473e 7751 d23e
00000090: 2f7e d6bd d05b 63be 5c6f e6bd 3d2c 64be
000000a0: 3dd0 5a3e 2e0e 6ebe 6876 66be 8490 c53e
000000b0: ed65 db3e 4845 5e3d 8c22 9cbd 7315 6cbd
000000c0: d4f0 583e 7ecf d5be e468 b9be 8a9f b83e
000000d0: e8c4 e33e 30b5 d9bc 84ec b4be 6033 483c
000000e0: b60b 55be 0062 61ba f825 603e acb8 4a3e
000000f0: 0a38 42bd 8edd 3f3d a0fd 0c3e 8679 b3be
00000100: f797 fcbd c4d9 a33d 1683 aabe 3b1c 01be
00000110: 68d0 193e 2ec7 a33e 0055 cd3b 5e22 32be
00000120: 88bc 7a3e 7f08 7bbe 40fb d6bd b9be db3e
00000130: fc7c 903d 30ac 1c3d 7461 1a3e 503c c8bd

node_encoder.0.bias f4 [16]
0.3861316 -0.3647548 -0.12869333 -0.077308655 -0.17687505 -0.10795001 0.2713897 0.24542566
0.023420388 0.39243644 -0.31240103 -0.26667294 0.20708388 0.038457494 -0.40754065 -0.30224213
00000000: 0bb3 c53e 24c1 babe 2fc8 03be 0054 9ebd
00000010: bc1e 35be e514 ddbd 97f3 8a3e dd50 7b3e
00000020: 1ddc bf3c 6eed c83e 07f3 9fbe 5b89 88be
00000030: cc0d 543e 9b85 1d3d 2ba9 d0be 7bbf 9abe

node_encoder.2.weight f4 [16, 16]
-0.14500968 0.1930528 0.106935345 0.19340226 -0.18456458 -0.24981718 -0.17159195 0.02756595
-0.068716586 -0.15341794 0.14743826 -0.08062139 -0.14587466 0.050900925 -0.06735945 0.15560582
0.048861403 0.0061677396 0.064188406 -0.1878545 -0.13056147 -0.10959754 -0.12865709 0.045490272
0.07931529 -0.108299755 0.1981947 -0.13909924 0.051828403 -0.015231187 -0.21685687 -0.15774864
0.10778721 0.09893164 -0.16062911 -0.077958286 -0.21998349 0.13526148 0.2224396 0.07820892
-0.13133664 0.12892923 0.22210522 -0.0511463 -0.035057217 0.113410726 0.03216207 -0.08035254
-0.23827077 -0.17529973 0.026324835 -0.013410866 0.19609968 0.016010717 -0.06644719 -0.23867229
-0.2333488 0.108204156 0.21728897 -0.0037932098 -0.2247424 0.12474725 0.20361915 -0.16322306
-0.0668171 0.021025926 -0.14834155 -0.23181066 0.11364876 -0.20953077 -0.060301404 -0.13584362
0.17482147 0.045628786 0.1431676 -0.16929227 0.21140037 -0.095627055 -0.13865867 -0.01649684
-0.17746644 -0.011539817 0.14333381 -0.11238584 0.21462475 0.0820908 -0.037353817 0.07851621
-0.033382274 -0.060372442 -0.14287458 0.1456703 0.15157183 0.118743 0.1478566 0.2515967
0.24726988 -0.24125943 0.060512163 -0.021405488 0.09629709 -0.041965533 0.07881158 -0.22060403
0.07916967 0.25247326 -0.04627373 -0.19885659 -0.19540246 -0.16148242 -0.0037816465 0.038490217
0.029899886 0.18830764 -0.05066072 0.07134399 -0.13739005 0.23317605 0.084331244 -0.041194875
0.15042292 0.08435098 0.04852256 -0.07380083 0.024562351 -0.0028097266 -0.14606354 -0.0065787984
0.06868089 -0.14807764 -0.0035532254 -0.08298248 -0.19536334 -0.2063899 -0.21246089 0.03778863
0.156046 0.21375732 0.20960559 0.09846845 0.11453774 -0.13927296 0.20666984 -0.11733365
-0.064070195 -0.08320272 -0.15870693 -0.19267613 -0.04855614 0.20737028 -0.11893415 -0.21883109
-0.01753282 0.23240209 0.045653116 -0.015802652 -0.06792861 0.31111187 -0.24022648 0.14617364
0.057282172 0.15671793 -0.133957 -0.081970185 -0.11421209 0.24831992 -0.034017008 -0.23685127
0.12927213 0.047519576 0.03943368 -0.16671273 -0.23724334 0.40962294 -0.18828586 -0.047735427
-0.050248314 0.14277497 -0.20985326 -0.143089 -0.1372976 -0.12649621 0.14925802 0.1497565
0.120617405 0.2016716 -0.15067738 -0.0009927452 -0.20358367 0.14668117 -0.21367133 -0.24225384
0.16531318 -0.11063224 -0.01654483 -0.07368958 -0.19264783 -0.028808994 0.04152555 0.20267455
-0.057228416 0.2395256 -0.14100371 0.16002417 0.22064051 0.15717144 -0.08586094 0.1860869
-0.077979855 -0.10702604 -0.07087275 -0.20389941 -0.032789297 -0.18626972 0.16250114 -0.23477465
-0.22974011 0.0559457 0.17016481 0.23911 -0.2018156 0.1200837 0.17517295 -0.15912518
0.10933722 -0.07032499 0.05040034 -0.22131929 -0.13337073 -0.16915992 -0.049284298 -0.019534348
-0.002433804 -0.1560865 0.12333827 0.1269984 -0.22097367 -0.2654968 -0.05372095 0.06422024
-0.20954491 -0.023021758 0.03635046 -0.1910263 0.21147403 0.207881 0.1814802 -0.09172342
-0.22577335 0.040077027 0.1743406 0.12229854 -0.17119679 0.100993425 -0.11852041 -0.035906814
00000000: 6b7d 14be a2af 453e eb00 db3d 3e0b 463e
00000010: 7ffe 3cbe 13d0 7fbe cdb5 2fbe fdd1 e13c
00000020: 48bb 8cbd 9819 1dbe 0efa 163e d41c a5bd
00000030: 2b60 15be 7d7d 503d c0f3 89bd 2257 1f3e
00000040: e522 483d c01a ca3b 3675 833d ee5c 40be
00000050: e8b1 05be ad74 e0bd afbe 03be 0254 3a3d
00000060: 0e70 a23d 43cc ddbd 8df3 4a3e 0870 0ebe
00000070: 054a 543d 3b8c 79bc ba0f 5ebe dc88 21be
00000080: 8abf dc3d ac9c ca3d f57b 24be 98a8 9fbd
00000090: 5a43 61be fc81 0a3e 35c7 633e 002c a03d
000000a0: 1d7d 06be 0606 043e 8d6f 633e c87e 51bd
000000b0: 2898 0fbd e243 e83d 60bc 033d df8f a4bd
000000c0: 41fd 73be c681 33be 2ea7 d73c 40b9 5bbc
000000d0: 5bce 483e e828 833c 7715 88bd 8266 74be
000000e0: fdf2 6ebe 249a dd3d 0081 5e3e 8097 78bb
000000f0: df22 66be 7c7b ff3d 8a81 503e f223 27be
00000100: 67d7 88bd 903e ac3c d9e6 17be c65f 6dbe
00000110: aec0 e83d 3c8f 56be 9bfe 76bd 971a 0bbe
00000120: 6604 333e 40e5 3a3d 879a 123e f45a 2dbe
00000130: 5779 583e 1ed8 c3bd 8afc 0dbe 6224 87bc
00000140: c3b9 35be 8011 3dbc 19c6 123e 8c2a e6bd
00000150: 97c6 5b3e 391f a83d 5100 19bd 1bcd a03d
00000160: dabb 08bd 1849 77bd b74d 12be 982a 153e
00000170: a535 1b3e 882f f33d b867 173e 48d1 803e
00000180: 5134 7d3e b60c 77be 9adb 773d 905a afbc
00000190: 6937 c53d 0de4 2bbd f767 a13d 06e6 61be
000001a0: b523 a23d 2d44 813e 8689 3dbd 10a1 4bbe
000001b0: 9517 48be a65b 25be 80d5 77bb eba7 1d3d
000001c0: 9bf0 f43c b8d3 403e 9d81 4fbd cc1c 923d
000001d0: faaf 0cbe b4c5 6e3e dcb5 ac3d f5bb 28bd
000001e0: 7708 1a3e 35c0 ac3d 98bf 463d e424 97bd
000001f0: fc36 c93c 6423 38bb ae91 15be f692 d7bb
00000200: 91a8 8c3d aaa1 17be 3bdd 68bb b8f2 a9bd
00000210: 540d 48be e057 53be 598f 59be 40c8 1a3d
00000220: 86ca 1f3e 33e3 5a3e d9a2 563e d4a9 c93d
00000230: c392 ea3d 929d 0ebe 42a1 533e a04c f0bd
00000240: 3c37 83bd 3066 aabd 1284 22be e44c 45be
00000250: cee2 46bd e058 543e bf93 f3bd 4215 60be
00000260: fda0 8fbc d0fa 6d3e c3fe 3a3d 9074 81bc
00000270: 281e 8bbd 0e4a 9f3e eefd 75be 8bae 153e
00000280: b6a0 6a3d aa7a 203e 062c 09be fcdf a7bd
00000290: 07e8 e9bd 9447 7e3e 6b55 0bbd 2489 72be
000002a0: ea5f 043e e3a3 423d 3685 213d beb6 2abe
000002b0: ebef 72be 19ba d13e 02ce 40be 3986 43bd
000002c0: 2dd1 4dbd 9a33 123e c6e3 56be ec85 12be
000002d0: be97 0cbe 3988 01be 18d7 183e c559 193e
000002e0: 4206 f73d 0083 4e3e 2c4b 1abe 001f 82ba
000002f0: 3d78 50be 9733 163e a8cc 5abe 6411 78be
00000300: dc47 293e 2893 e2bd 0689 87bc 90ea 96bd
00000310: 7945 45be d700 ecbc b216 2a3d eb89 4f3e
00000320: 5868 6abd 3346 753e 4763 10be 60dd 233e
00000330: 96ef 613e 8df1 203e dcd7 afbd 908d 3e3e
00000340: e7b3 9fbd 7830 dbbd bb25 91bd 02cb 50be
00000350: 124e 06bd 7dbd 3ebe b366 263e c468 70be
00000360: fe40 6bbe 5127 653d af3f 2e3e 40d9 743e
00000370: c0a8 4ebe 71ee f53d 8a60 333e b6f1 22be
00000380: 31ec df3d 8c06 90bd 9670 4e3d 86a1 62be
00000390: 5692 08be 4238 2dbe 55de 49bd 7f06 a0bc
000003a0: 7580 1fbb 24d5 1fbe c698 fc3d de0b 023e
000003b0: ec46 62be 32ef 87be 800a 5cbd e785 833d
000003c0: f192 56be 2098 bcbc 38e4 143d 669c 43be
000003d0: a68c 583e c2de 543e f2d5 393e 7dd9 bbbd
000003e0: 2131 67be cf27 243d 5886 323e a877 fa3d
000003f0: 364e 2fbe a4d5 ce3d d4ba f2bd 0613 13bd

node_encoder.2.bias f4 [16]
-0.074503526 0.12728769 -0.2295955 -0.15989025 -0.029128352 0.17679235 -0.050405692 0.14668705
0.21647346 0.0155193545 -0.169208 -0.0021948619 0.1016195 -0.053172607 -0.24630322 0.14180814
00000000: 4e95 98bd b457 023e 151b 6bbe 45ba 23be
00000010: 959e eebc 0e09 353e 3376 4ebd 2135 163e
00000020: 38ab 5d3e e444 7e3c dd44 2dbe acd7 0fbb
00000030: e21d d03d 85cb 59bd e936 7cbe 2736 113e

node_encoder.3.weight f4 [16]
0.990393 0.96262205 0.9828359 0.99553734 1.0041562 1.0015223 0.9975338 0.98811
0.98808646 0.98567545 0.9937872 0.9892349 0.9990064 0.99139506 0.999908 0.9950763
00000000: 658a 7d3f 666e 763f 229b 7b3f 89db 7e3f
00000010: 3188 803f e231 803f 605e 7f3f c7f4 7c3f
00000020: 3cf3 7c3f 3a55 7c3f d768 7e3f 803e 7d3f
00000030: e2be 7f3f 11cc 7d3f f8f9 7f3f 52bd 7e3f

node_encoder.3.bias f4 [16]
0.009020871 0.0052082725 0.006424557 0.0043234956 9.828633e-05 0.0005429375 0.011836145 -0.011000492
-0.015500009 0.0068340553 0.007815011 -0.004351889 -0.00014889058 0.00032134648 -0.00042644734 -0.007231859
00000000: 46cc 133c 28aa aa3b 1785 d23b 1cac 8d3b
00000010: 121f ce38 eb53 0e3a 64ec 413c 683b 34bc
00000020: c0f3 7dbc 36f0 df3b 880a 003c 4a9a 8ebb
00000030: 831f 1cb9 657a a839 cb94 dfb9 3bf9 ecbb

edge_encoder.0.weight f4 [16, 4]
-0.39852414 -0.3248335 0.25697017 0.15424378 0.36320257 -0.08566818 0.31936246 -0.12782593
-0.3322485 0.45782852 0.48442635 0.3551142 -0.16464032 -0.30293116 0.12032253 0.27433866
0.07358882 0.21805015 -0.04633447 0.26814905 0.24559894 0.26701203 -0.08169777 -0.41150367
-0.31359142 -0.24954855 0.45613477 -0.025211036 -0.07960594 -0.27447426 -0.020995796 0.32994163
-0.012844993 0.24002226 0.31510332 -0.3490212 0.18579961 0.5054013 -0.25012767 0.18737765
0.011244655 0.2642883 0.1204651 -0.37564456 -0.37348104 0.43675393 -0.21550989 -0.4394533
-0.44872504 -0.43499786 0.09053446 0.040534474 -0.30905694 -0.09748896 0.035507664 0.14637072
0.1973348 -0.323478 0.49161643 0.4887794 -0.35508496 0.47531298 -0.4096104 -0.33000576
00000000: 5b0b ccbe 9450 a6be 9891 833e 15f2 1d3e
00000010: b0f5 b93e cc72 afbd 7a83 a33e cde4 02be
00000020: 7a1c aabe 8068 ea3e bb06 f83e 87d1 b53e
00000030: 7997 28be cb19 9bbe a96b f63d 1e76 8c3e
00000040: bcb5 963d 8a48 5f3e 37c9 3dbd d54a 893e
00000050: 4a7e 7b3e cdb5 883e 2951 a7bd 9cb0 d2be
00000060: 0e8f a0be a889 7fbe 7f8a e93e 6087 cebc
00000070: 7008 a3bd e487 8cbe 60ff abbc 1cee a83e
00000080: ce73 52bc 65c8 753e 3955 a13e e8b2 b2be
00000090: 4142 3e3e fb61 013f bc10 80be eddf 3f3e
000000a0: 803b 383c cc50 873e 68b6 f63d 7c54 c0be
000000b0: e838 bfbe 369e df3e a0ae 5cbe 0600 e1be
000000c0: 4abf e5be 0ab8 debe 226a b93d 7a07 263d
000000d0: b63c 9ebe 4ba8 c7bd 7c70 113d 35e2 153e
000000e0: 2212 4a3e e99e a5be 26b5 fb3e 4b41 fa3e
000000f0: b2cd b5be 395c f33e 74b8 d1be 84f6 a8be

edge_encoder.0.bias f4 [16]
0.11830994 0.15698239 0.43980727 0.029059744 0.31776583 -0.17288476 -0.33105752 -0.055685624
0.24877033 -0.18999945 -0.42322713 -0.29474673 0.06735358 0.47499943 0.029314645 -0.39120278
00000000: 7b4c f23d febf 203e 6b2e e13e b30e ee3c
00000010: 34b2 a23e b408 31be 5f80 a9be 9c16 64bd
00000020: a6bd 7e3e 378f 42be 3ab1 d8be 0be9 96be
00000030: acf0 893d 2033 f33e 4425 f03c bb4b c8be

edge_encoder.2.weight f4 [16, 16]
-0.07958143 0.13614404 -0.07803612 -0.00022493058 0.18789092 0.08808343 0.19663537 0.25318587
-0.08341796 0.025720384 -0.18756875 0.24192366 -0.13599 0.24407706 0.25199443 0.047969475
-0.25296944 0.003289186 -0.113039106 0.038935687 0.13867432 0.14032133 0.046954513 -0.22651146
-0.2133476 0.07572786 -0.05484426 0.1087208 0.20782454 0.06325958 -0.16070254 -0.08029465
0.12966505 0.021348989 0.1638224 -0.26499456 -0.03511791 -0.11953053 0.15142493 0.08698473
-0.034261804 -0.2216883 -0.029474169 0.20753404 -0.028753858 -0.020784933 -0.24066791 0.20238909
0.21434416 -0.19539496 -0.16900836 0.022941004 -0.13943589 -0.20208031 0.08535636 -0.056699675
0.09196448 0.10371306 0.2226206 0.15224291 -0.22869386 -0.19502471 0.2052175 -0.20874391
0.18389075 -0.15872346 0.20933115 0.17381972 -0.16967873 -0.2103238 -0.07401965 -0.083812825
-0.14404382 0.1659959 0.06139821 -0.03474268 0.01343695 0.11798596 0.034928665 -0.03444878
0.25653878 0.16752833 0.025113592 0.20672353 -0.05016434 -0.1888086 0.18686555 0.16841389
0.045654666 -0.21898176 0.18046099 0.02716393 -0.09826883 -0.2082252 -0.12088377 0.24195309
0.15174335 -0.11659741 0.21115977 0.23838535 0.12391954 -0.025185388 0.27802685 -0.037603598
-0.10303578 0.113157585 -0.10430035 0.18699592 -0.105599746 0.09874597 -0.18199505 -0.16206639
-0.010989048 0.20064205 -0.18766691 -0.08871913 0.1205207 -0.033761334 -0.25656283 -0.022105772
-0.07955721 0.077409446 0.10286933 -0.06267907 -0.15092872 0.14492805 -0.21988478 0.13421324
0.12470516 0.105510764 -0.18241182 0.13130729 -0.14655176 0.104555845 -0.10107519 0.0858119
-0.007420287 -0.1933406 -0.23231506 -0.07950967 0.16966148 -0.050779548 -0.04967163 -0.1756413
-0.18514659 -0.016846009 -0.06706698 0.08257084 0.24458143 -0.17520067 -0.0768943 0.08427967
-0.17255114 -0.026072334 -0.12677574 0.14965148 -0.03609066 0.019421114 0.15242216 -0.186154
-0.10674506 0.17935078 0.1053732 0.01024152 0.25087088 0.21702255 -0.09101046 -0.038210332
0.10534002 -0.15562558 -0.24850973 -0.123286955 -0.19983359 0.16640945 0.06622446 -0.2074793
-0.0155524565 0.22824739 -0.12204347 -0.16975802 0.11530514 -0.16230471 -0.20304063 0.13122097
-0.014676135 0.16160987 -0.051977098 0.26944563 -0.10287876 0.21988407 -0.15531845 -0.052877367
0.16072063 0.14409952 -0.20225699 -0.052858073 0.14542954 -0.18987465 -0.03412482 0.1291078
-0.19284931 0.08702687 -0.24170673 -0.24550883 -0.025162546 -0.24176839 -0.10176608 0.13609032
-0.077448905 -0.16772401 0.21167865 -0.28238642 0.056780037 -0.15661536 -0.1692462 -0.016163345
0.25239992 -0.05171552 -0.24834445 0.064766206 -0.12883401 -0.16512151 0.08838277 0.10936005
-0.1585207 0.023775037 0.032393884 -0.016690351 -0.041696865 -0.14858826 0.10876679 0.15913412
0.20376204 0.20825952 -0.012114853 0.0168413 -0.13610417 -0.06618274 0.062288944 0.016739516
-0.18725632 -0.18174122 0.08856839 0.18817435 0.21334882 0.13221705 0.11938432 0.103624724
0.14047934 -0.09075886 0.03865537 0.07255642 0.041415066 -0.04326131 -0.13866709 -0.20710929
00000000: 97fb a2bd 5869 0b3e 67d1 9fbd 58db 6bb9
00000010: 7a66 403e 1665 b43d c85a 493e 94a1 813e
00000020: 09d7 aabd 8eb3 d23c 0612 40be d6ba 773e
00000030: f640 0bbe 56ef 793e 6a05 813e a47b 443d
00000040: 3685 81be 628f 573b 0c81 e7bd 077b 1f3d
00000050: a400 0e3e 65b0 0f3e 6053 403d 9ff2 67be
00000060: cb77 5abe 3517 9b3d 60a4 60bd 03a9 de3d
00000070: f5cf 543e 3d8e 813d 358f 24be 8571 a4bd
00000080: eac6 043e 13e4 ae3c 0fc1 273e 5ead 87be
00000090: ccd7 0fbd 6ccc f4bd 230f 1b3e 0d25 b23d
000000a0: 1b56 0cbd 4202 63be d073 f1bc ce83 543e
000000b0: 368d ebbc 2a45 aabc a671 76be 163f 4f3e
000000c0: 097d 5b3e 9e15 48be 8710 2dbe c6ee bb3c
000000d0: 48c8 0ebe 24ee 4ebe 51cf ae3d eb3d 68bd
000000e0: e057 bc3d 8367 d43d a8f6 633e 91e5 1b3e
000000f0: b92e 6abe 8fb4 47be 8924 523e f7c0 55be
00000100: db4d 3c3e 6788 22be e85a 563e ccfd 313e
00000110: 43c0 2dbe 1f5f 57be 9d97 97bd 0fa6 abbd
00000120: 3980 13be d4fa 293e b07c 7b3d 574e 0ebd
00000130: a726 5c3c 9fa2 f13d 5c11 0f3d 2a1a 0dbd
00000140: 0d59 833e 8c8c 2b3e 05bb cd3c 55af 533e
00000150: 1f79 4dbd 0b57 41be af59 3f3e b174 2c3e
00000160: 6300 3b3d c13c 60be c4ca 383e e486 de3c
00000170: 2b41 c9bd fd38 55be e991 f7bd 8dc2 773e
00000180: 9c62 1b3e 9fca eebd 443a 583e 4a1b 743e
00000190: 87c9 fd3d 9651 cebc 8959 8e3e 3b06 1abd
000001a0: 6c04 d3bd 2abf e73d 6c9b d5bd dc7b 3f3e
000001b0: ae44 d8bd 543b ca3d e95c 3abe bbf4 25be
000001c0: 680b 34bc 1c75 4d3e c12b 40be 60b2 b5bd
000001d0: 8fd3 f63d 5349 0abd 345c 83be 2a17 b5bc
000001e0: e4ee a2bd d888 9e3d 28ad d23d e25d 80bd
000001f0: 0f8d 1abe 0568 143e 7a29 61be 326f 093e
00000200: 6b65 ff3d 0716 d83d 2aca 3abe 6b75 063e
00000210: aa11 16be 6021 d63d 8200 cfbd 26be af3d
00000220: e125 f3bb 14fb 45be 00e4 6dbe f7d5 a2bd
00000230: bdbb 2d3e 37fe 4fbd 7b74 4bbd 50db 33be
00000240: 1197 3dbe a400 8abc 6a5a 89bd e71a a93d
00000250: 8e73 7a3e ce67 33be c27a 9dbd d29a ac3d
00000260: 3fb1 30be a695 d5bc 80d1 01be 3d3e 193e
00000270: cdd3 13bd 0719 9f3c 8e14 1c3e 279f 3ebe
00000280: 279d dabd bba7 373e e7cd d73d 0ccc 273c
00000290: 2672 803e 293b 5e3e b163 babd 7082 1cbd
000002a0: 82bc d73d 505c 1fbe 5679 7ebe df7d fcbd
000002b0: 2da1 4cbe 3d67 2a3e b1a0 873d 7475 54be
000002c0: bbcf 7ebc afb9 693e edf1 f9bd 0cd5 2dbe
000002d0: 1a25 ec3d 3533 26be e2e9 4fbe ca5e 063e
000002e0: 2c74 70bc 0f7d 253e f0e5 54bd c7f4 893e
000002f0: 19b2 d2bd 4a29 613e cd0b 1fbe f095 58bd
00000300: f393 243e d38e 133e 751c 4fbe b581 58bd
00000310: 7beb 143e 806e 42be 78c6 0bbd d634 043e
00000320: 4a7a 45be 253b b23d f881 77be ab66 7bbe
00000330: af21 cebc 2292 77be bc6a d0bd 435b 0b3e
00000340: 889d 9ebd d8bf 2bbe 4ac2 583e f494 90be
00000350: 2f92 683d c75f 20be e04e 2dbe fe68 84bc
00000360: 903a 813e a7d3 53bd 024e 7ebe 25a4 843d
00000370: 10ed 03be 9d15 29be 0702 b53d 29f8 df3d
00000380: 4053 22be dec3 c23c 73af 043d 34ba 88bc
00000390: 55ca 2abd 8527 18be 1fc1 de3d 0ef4 223e
000003a0: ffa6 503e fc41 553e 607d 46bc c4f6 893c
000003b0: e45e 0bbe d18a 87bd b122 7f3d 4f21 893c
000003c0: 1fc0 3fbe 5f1a 3abe 5863 b53d c7b0 403e
000003d0: 1d78 5a3e e863 073e c47f f43d 3339 d43d
000003e0: d1d9 0f3e c8df b9bd 1855 1e3d 7698 943d
000003f0: d8a2 293d c532 31bd bffe 0dbe 7514 54be

edge_encoder.2.bias f4 [16]
-0.14008734 0.02171264 0.2256957 -0.088566616 -0.20093271 -0.21252383 0.0982068 0.10640113
-0.12997706 -0.09654637 0.19337882 -0.20626251 0.14972177 0.010660789 -0.12042353 0.22504145
00000000: 0e73 0fbe b5de b13c c61c 673e 6a62 b5bd
00000010: 4ec1 4dbe d99f 59be a620 c93d d6e8 d93d
00000020: b518 05be 1aba c5bd 1905 463e 7b36 53be
00000030: aa50 193e 97aa 2e3c 9da0 f6bd 4471 663e

edge_encoder.3.weight f4 [16]
1.0189881 1.0178375 0.99684757 0.99587554 1.0063342 0.99797565 1.006381 1.0085509
1.0053174 1.0058261 1.0011681 0.985368 1.0402585 1.0107336 1.0060648 0.98090494
00000000: 346e 823f 8048 823f 6731 7f3f b3f1 7e3f
00000010: 8fcf 803f 557b 7f3f 18d1 803f 3218 813f
00000020: 3eae 803f e9be 803f 4726 803f 1441 7c3f
00000030: 3127 853f b85f 813f bbc6 803f 961c 7b3f

edge_encoder.3.bias f4 [16]
0.0010017509 -0.0040064817 -0.0021825365 0.003439203 0.001392746 0.0031943968 0.0014739296 0.0041568284
-0.0017221527 -0.0019196224 0.0044319932 0.009761456 -0.0043511223 0.0062806956 -0.0024199476 -0.016741479
00000000: 2f4d 833a ce48 83bb e308 0fbb 4064 613b
00000010: cd8c b63a 1659 513b df30 c13a 0136 883b
00000020: dbb9 e1ba d79b fbba 413a 913b 84ee 1f3c
00000030: dc93 8ebb 4bce cd3b fc97 1ebb 6d25 89bc

node_model.0.weight f4 [16, 48]
-0.097910725 0.08782365 0.13656628 0.046779096 0.08238249 0.04172952 0.105068386 0.03972577
-0.14718062 -0.05990769 0.017861284 0.105078705 -0.04005604 0.05101272 0.049102463 0.023297092
-0.12221918 0.15062432 -0.07675948 0.011053546 -0.08211614 0.04296031 0.10481721 0.042884115
-0.082641125 0.031823322 -0.12805307 0.10582043 0.07266167 0.12287133 0.040425785 -0.13335383
-0.11189368 -0.15428157 0.06917489 0.18096897 0.11148808 -0.09336183 -0.08115773 -0.07133151
0.15820958 -0.15404633 -0.14401187 0.10938111 -0.0007214624 -0.08559883 -0.0843304 -0.15022008
0.040084224 -0.06482254 -0.005105753 0.0641707 -0.14216806 0.15538938 -0.05140905 0.105271816
-0.012956527 0.101134434 -0.09088578 -0.019668002 -0.05817928 0.07381233 -0.15181361 0.106960334
-0.012585378 -0.12742098 -0.024817633 -0.019960798 -0.040503085 -0.056211334 -0.032880045 0.025586946
0.08353095 0.019653019 0.11378962 -0.016531412 0.125392 0.043627065 -0.11424645 0.0906064
0.037369303 0.10939269 -0.11203111 -0.044471137 -0.14993939 -0.035895675 -0.051399715 -0.09143168
-0.10778888 0.12520155 0.066847034 0.036816094 0.027959296 0.05656015 0.01156316 -0.13251887
-0.0096022505 0.07210443 -0.015306145 0.032744966 0.087717265 0.08012226 -0.059628602 0.11299192
-0.066992804 0.0021871296 0.123614185 -0.080543995 0.1359104 -0.06352404 -0.06841093 0.10875447
0.10817187 -0.09926899 0.06349902 0.03549058 -0.12350539 -0.052902162 0.008968783 -0.13186185
-0.0067385016 0.05127474 0.10476898 0.10932819 -0.06299344 0.05472372 0.0400446 -0.010667712
-0.124701925 0.044500213 0.12991083 -0.12178366 -0.009866424 0.07946122 -0.010880065 0.10650647
-0.04578853 -0.07644565 -0.11175812 -0.07189789 -0.023087434 0.12542988 0.013185074 0.0055186353
0.11131709 0.031022703 -0.04739958 -0.05326 0.068353295 -0.053184416 0.047497775 0.06532019
0.012021218 -0.10544649 -0.08941943 -0.12151725 0.053605385 -0.1430533 -0.086222045 0.13967219
-0.0090745585 0.05250508 -0.06095246 -0.023014972 -0.026102321 0.050627824 -0.07768364 -0.06180337
0.05662503 0.003712376 -0.06840931 0.013430872 -0.022726756 -0.17178388 0.121901624 -0.122737445
0.06354706 0.08984079 -0.03215716 -0.040729634 0.1225678 0.12667513 -0.014917025 -0.04304285
-0.0800961 0.12372723 -0.0786093 0.062226128 0.031959902 0.10367776 -0.012766301 0.079914615
-0.07688331 -0.03659778 -0.05956342 -0.13534437 -0.124629416 0.06473854 0.07575995 -0.04325146
-0.12762636 0.100777954 0.14308153 0.13729525 -0.061657097 -0.12461612 0.09848852 0.06388482
0.1204364 0.053235237 0.07980755 -0.063428134 -0.10140891 0.020237293 0.112290524 -0.09649315
0.07512886 -0.055982437 -0.09739015 -0.028239047 0.1427826 0.079295695 0.11832685 0.1502717
-0.0001732223 0.066597894 0.04218118 -0.08361888 0.10362023 -0.0033774087 -0.037841674 0.08569683
0.13618878 0.11009787 0.015105082 -0.0969267 0.13896209 0.05804615 0.11349257 -0.030416617
0.08622557 -0.012655878 0.094308354 0.03509127 -0.058734383 0.06393279 0.13358994 -0.09632995
0.13399196 0.11442073 0.1219396 0.03435932 -0.048262037 -0.04262306 -0.019047996 -0.092324905
00000000: 6b85 c8bd e3dc b33d 08d8 0b3e 709b 3f3d
00000010: 27b8 a83d 93ec 2a3d 182e d73d 7db7 223d
00000020: 84b6 16be c461 75bd d451 923c 8133 d73d
00000030: cd11 24bd b7f2 503d aa1f 493d 8bd9 be3c
00000040: 0d4e fabd 433d 1a3e 1334 9dbd ef19 353c
00000050: 822c a8bd 26f7 2f3d 68aa d63d 41a7 2f3d
00000060: c03f a9bd 2c59 023d 5820 03be 62b8 d83d
00000070: a4cf 943d f7a3 fb3d 8295 253d e88d 08be
00000080: 8428 e5bd fdfb 1dbe 91ab 8d3d ee4f 393e
00000090: dd53 e43d 7d34 bfbd 0636 a6bd 4116 92bd
000000a0: b101 223e 52be 1dbe d977 13be 3403 e03d
000000b0: 8620 3dba 704e afbd 6bb5 acbd 4bd3 19be
000000c0: 5b2f 243d aec1 84bd 294e a7bb ee6b 833d
000000d0: 8194 11be 651e 1f3e 4c92 52bd c098 d73d
000000e0: 9d47 54bc 921f cf3d 5322 babd ca1e a1bc
000000f0: 664d 6ebd eb2a 973d 0775 1bbe 050e db3d
00000100: e732 4ebc a57a 02be 594e cbbc d484 a3bc
00000110: 90e6 25bd db3d 66bd 3aad 06bd b79b d13c
00000120: 4612 ab3d 5eff a03c 880a e93d e26c 87bc
00000130: c366 003e 4bb2 323d 0bfa e9bd d98f b93d
00000140: 8e10 193d 4609 e03d 9170 e5bd 5e27 36bd
00000150: b689 19be 5807 13bd 8288 52bd 8840 bbbd
00000160: 6bc0 dcbd d634 003e 19e7 883d 79cc 163d
00000170: e50a e53c 9eab 673d 6973 3d3c 07b3 07be
00000180: c252 1dbc 7dab 933d a0c6 7abc 961f 063d
00000190: 1ca5 b33d 2417 a43d 1f3d 74bd 4f68 e73d
000001a0: 8633 89bd f255 0f3b 6f29 fd3d 40f4 a4bd
000001b0: 192c 0b3e e418 82bd 081b 8cbd aaba de3d
000001c0: 3789 dd3d 8a4d cbbd c60b 823d 925e 113d
000001d0: 65f0 fcbd f0af 58bd cdf1 123c cb06 07be
000001e0: a6ce dcbb 7605 523d 1e91 d63d 75e7 df3d
000001f0: b402 81bd fb25 603d ce05 243d a1c7 2ebc
00000200: b963 ffbd db45 363d 5807 053e b669 f9bd
00000210: c8a6 21bc 90bc a23d 4d42 32bc 1020 da3d
00000220: c18c 3bbd 898f 9cbd 71e1 e4bd 333f 93bd
00000230: dc21 bdbc b170 003e 3506 583c abd5 b43b
00000240: 37fa e33d 5323 fe3c 1026 42bd 2827 5abd
00000250: d0fc 8b3d e7d7 59bd 078d 423d 97c6 853d
00000260: a5f4 443c 54f4 d7bd 8921 b7bd 09de f8bd
00000270: 5291 5b3d 907c 12be 2f95 b0bd 3a06 0f3e
00000280: 75ad 14bc 910f 573d 49a9 79bd e589 bcbc
00000290: 89d4 d5bc 1f5f 4f3d 9a18 9fbd 8825 7dbd
000002a0: a6ef 673d 564b 733b 2e1a 8cbd 290d 5c3c
000002b0: 762d babc 1de8 2fbe 8fa7 f93d c55d fbbd
000002c0: f624 823d 73fe b73d 3ab7 03bd 1ed4 26bd
000002d0: d404 fb3d 20b7 013e 8a66 74bc b34d 30bd
000002e0: 6d09 a4bd b464 fd3d eafd a0bd d3e0 7e3d
000002f0: 63e8 023d 0155 d43d bf29 51bc 46aa a33d
00000300: ff74 9dbd 8ee7 15bd c6f8 73bd b797 0abe
00000310: b53d ffbd a495 843d 0828 9b3d 7128 31bd
00000320: 7cb0 02be ac64 ce3d f783 123e 2097 0c3e
00000330: 278c 7cbd bc36 ffbd 59b4 c93d 0bd6 823d
00000340: 5ca7 f63d 310d 5a3d 2472 a33d 9ce6 81bd
00000350: 79af cfbd aec8 a53c 93f8 e53d 339e c5bd
00000360: 29dd 993d d74d 65bd 7d74 c7bd 9355 e7bc
00000370: 9a35 123e c865 a23d 5955 f23d d3e0 193e
00000380: 02a3 35b9 7a64 883d 2cc6 2c3d 6040 abbd
00000390: d836 d43d 8457 5dbb dfff 1abd d281 af3d
000003a0: 1275 0b3e fe7a e13d 4e7b 773c 8181 c6bd
000003b0: 144c 0e3e cdc1 6d3d cb6e e83d 452c f9bc
000003c0: 0897 b03d 9a5a 4fbc bd24 c13d ddbb 0f3d
000003d0: 7793 70bd 32ef 823d cdcb 083e a348 c5bd
000003e0: 3035 093e 6a55 ea3d 78bb f93d 5cbc 0c3d
000003f0: 6aae 45bd 8595 2ebd 8b0a 9cbc d714 bdbd

node_model.0.bias f4 [16]
0.08870113 0.06742339 -0.11735867 -0.024602655 -0.029433288 0.07739642 -0.07492783 0.04030501
0.05057342 0.08826249 0.12558214 -0.042043317 -0.10460072 -0.12952441 -0.03706685 0.085055515
00000000: f0a8 b53d 4615 8a3d be59 f0bd 828b c9bc
00000010: 141e f1bc 0482 9e3d c373 99bd de16 253d
00000020: 1326 4f3d f7c2 b43d 9b98 003e 9d35 2cbd
00000030: e738 d6bd 0ca2 04be 69d3 17bd 9631 ae3d

node_model.2.weight f4 [16, 16]
-0.011242111 -0.20630038 -0.1769209 -0.15852359 -0.12012721 0.0315494 0.00085852126 -0.042821463
-0.044116046 -0.12776352 -0.00030770488 0.1709904 0.1826827 -0.05650272 0.086266816 0.16915625
0.24614231 -0.12499738 -0.21719795 0.039804447 0.086475976 0.049111113 0.2326772 0.10121027
0.0039934665 0.18987593 0.16784047 -0.136972 -0.2563336 -0.004022142 -0.04724665 -0.17547224
-0.256182 0.16938466 -0.09689444 -0.12425344 0.13085349 -0.029407835 0.05882918 -0.048119646
0.06681696 0.13188061 -0.16220403 -0.04085443 0.1598753 0.20724061 0.13629359 0.17916708
-0.076954044 0.013460173 0.0070896507 -0.19339788 -0.14900038 -0.041537344 -0.010478668 0.11600047
-0.22149834 -0.13088876 0.20991829 0.059897434 -0.10794061 0.11237267 -0.048160717 -0.11756194
-0.1527192 -0.13719606 -0.12915021 0.037089713 0.12264295 0.09929647 0.25956562 0.22742262
-0.14094977 0.20063038 -0.048535027 0.1587572 -0.040600717 0.2021223 -0.05317649 0.07844813
0.12404231 -0.068253875 0.08643861 0.069188535 -0.12741391 -0.07273671 0.17797108 0.021185527
0.16538437 0.09261893 0.10689129 -0.13629729 -0.13513029 0.14971392 -0.021323854 0.09867808
0.17438743 0.09173252 0.1063026 -0.11612616 0.031414557 0.006234061 0.15474668 0.014742898
-0.17878988 0.16756481 -0.04206694 0.024948977 -0.31234458 -0.23973861 0.07171885 0.09286398
0.20535532 0.17789933 0.11195696 0.16362627 0.087526254 -0.12313057 0.043054823 -0.18894342
-0.11795072 0.2026313 0.086223476 0.09359946 -0.019797254 -0.21845289 -0.05633925 -0.06100029
-0.030910851 0.05806349 -0.15373257 -0.13530783 -0.011637499 -0.15212819 -0.041024543 -0.016156184
-0.0018065778 -0.09034503 -0.058448937 0.18078575 0.06720603 0.05438883 -0.098593526 -0.14907172
0.059829783 0.02044024 -0.01821255 -0.058385313 -0.17136027 -0.17840724 0.15386137 0.26491627
0.17443891 -0.15514252 0.0042391988 -0.16514131 -0.02200682 -0.16386308 0.027710982 -0.21051824
0.121867836 0.21485333 0.005285735 0.07867985 0.084041774 0.16321376 0.029022276 0.20913814
0.10040818 -0.09596723 0.19912261 0.041207425 -0.14299813 0.04663114 -0.19219398 0.23843245
0.002513489 -0.049817774 0.033791397 -0.14510062 0.05430036 -0.29177332 0.14413953 0.15359114
-0.16439553 0.09632257 0.033043984 -0.088393554 0.20548645 -0.018758144 -0.21488208 -0.26484692
0.09754464 -0.13889134 -0.25460547 -0.16995405 0.22488871 -0.06777356 -0.1815395 -0.13233031
0.032896534 -0.034941673 -0.20885316 -0.12582856 -0.08724695 0.074785106 0.07277436 0.2404779
0.15835035 0.040297598 0.21267737 0.038620804 -0.10952694 0.25948352 -0.12141543 -0.21965809
0.18740825 0.24559091 0.13152309 -0.08309613 0.059109796 0.12308074 0.105477765 0.009551633
0.054659657 -0.1259052 -0.088453524 0.111513354 0.009058877 -0.06258311 0.0029075784 0.07350551
0.23035504 0.19498736 -0.22527345 -0.15309341 0.07674937 -0.032922972 0.011546276 -0.1399781
0.16741641 -0.2630135 0.16437548 0.008158187 0.09728281 0.21488208 0.00757084 -0.13857467
-0.06436454 0.2526718 -0.06146162 -0.01213098 -0.1711836 -0.16385145 0.02823648 0.054573573
00000000: d530 38bc 6840 53be c12a 35be 0254 22be
00000010: 4105 f6bd f239 013d 630e 613a 8f65 2fbd
00000020: 07b3 34bd 71d4 02be 7353 a1b9 1b18 2f3e
00000030: 2c11 3b3e 656f 67bd a8ac b03d 4c37 2d3e
00000040: bb0c 7c3e a0fe ffbd 2469 5ebe fd09 233d
00000050: 511a b13d bc28 493d ef42 6e3e 5447 cf3d
00000060: a0db 823b d66e 423e 5fde 2b3e 6342 0cbe
00000070: 283e 83be 2ccc 83bb b485 41bd ffae 33be
00000080: 492a 83be 2c73 2d3e 9870 c6bd 9678 febd
00000090: 75fe 053e b3e8 f0bc def6 703d 1b19 45bd
000000a0: 55d7 883d b60b 073e d018 26be fa56 27bd
000000b0: 5ab6 233e e236 543e 8c90 0b3e 9377 373e
000000c0: 159a 9dbd 0f88 5c3c 4d50 e83b 180a 46be
000000d0: 8e93 18be 1023 2abd b8ae 2bbc a891 ed3d
000000e0: 76d0 62be b407 06be d2f4 563e 0357 753d
000000f0: f70f ddbd a423 e63d 2c44 45bd 50c4 f0bd
00000100: 6c62 1cbe 207d 0cbe f43f 04be 62eb 173d
00000110: 3a2c fb3d f35b cb3d c9e5 843e 7ae1 683e
00000120: 2355 10be 0d72 4d3e aacc 46bd 3f91 223e
00000130: f04c 26bd 26f9 4e3e 97cf 59bd 6aa9 a03d
00000140: e509 fe3d b0c8 8bbd ba06 b13d b8b2 8d3d
00000150: cb78 02be fcf6 94bd 0d3e 363e 458d ad3c
00000160: 855a 293e feae bd3d d2e9 da3d 8491 0bbe
00000170: 985f 0abe 9b4e 193e 5daf aebc bc17 ca3d
00000180: 9e92 323e 42de bb3d 2db5 d93d 8dd3 edbd
00000190: 8dac 003d 1847 cc3b ea75 1e3e 328c 713c
000001a0: b214 37be 1c96 2b3e 624e 2cbd cc61 cc3c
000001b0: a1eb 9fbe 0a7e 75be 55e1 923d 782f be3d
000001c0: aa48 523e 3e2b 363e b149 e53d a58d 273e
000001d0: f740 b33d e12b fcbd 415a 303d 627a 41be
000001e0: 2690 f1bd 947e 4f3e ef95 b03d 13b1 bf3d
000001f0: da2d a2bc 1db2 5fbe fcc3 66bd 71db 79bd
00000200: c138 fdbc fbd3 6d3d 126c 1dbe 238e 0abe
00000210: 35ab 3ebc 7ec7 1bbe 5a09 28bd f959 84bc
00000220: b1ca ecba d106 b9bd 2768 6fbd e61f 393e
00000230: 51a3 893d d2c6 5e3d 67eb c9bd 42a6 18be
00000240: 1310 753d 4a72 a73c 7c32 95bc 7025 6fbd
00000250: 1179 2fbe 63b0 36be d68d 1d3e 1ba3 873e
00000260: 1da0 323e aedd 1ebe fae8 8a3b ce1a 29be
00000270: a647 b4bc b9cb 27be 2402 e33c 1892 57be
00000280: d895 f93d 8302 5c3e f533 ad3b e722 a13d
00000290: 181e ac3d 8221 273e 20c0 ed3c 4f28 563e
000002a0: cea2 cd3d 788a c4bd cce6 4b3e 1ec9 283d
000002b0: 1a6e 12be 4b00 3f3d 80ce 44be a327 743e
000002c0: 59b9 243b b90d 4cbd d968 0a3d 4295 14be
000002d0: 0e6a 5e3d 5063 95be 5099 133e ff46 1d3e
000002e0: 4d57 28be c544 c53d 2159 073d ae07 b5bd
000002f0: 0a6b 523e aeaa 99bc 0c0a 5cbe 049a 87be
00000300: 7cc5 c73d 8839 0ebe a65b 82be 6f08 2ebe
00000310: 3a49 663e ddcc 8abd 7ee5 39be 9981 07be
00000320: 84be 063d 001f 0fbd 9add 55be 34d9 00be
00000330: 87ae b2bd ef28 993d b90a 953d d73f 763e
00000340: 9826 223e 180f 253d 19c8 593e d930 1e3d
00000350: a94f e0bd 06db 843e a7a8 f8bd 0dee 60be
00000360: f3e7 3f3e 2f7c 7b3e fdad 063e 4e2e aabd
00000370: 1d1d 723d c111 fc3d ba04 d83d 747e 1c3c
00000380: cee2 5f3d 4bed 00be 1f27 b5bd 1d61 e43d
00000390: af6b 143c 932b 80bd 128d 3e3b 0f8a 963d
000003a0: 31e2 6b3e c4aa 473e 15ae 66be 85c4 1cbe
000003b0: c62e 9d3d 3dda 06bd 972c 3d3c 6b56 0fbe
000003c0: 356f 2b3e b5a9 86be 0c52 283e eba9 053c
000003d0: 363c c73d 0c0a 5c3e cf14 f83b 85e6 0dbe
000003e0: 8ed1 83bd 335e 813e 2ebf 7bbd 05c1 46bc
000003f0: c14a 2fbe adc8 27be 3150 e73c 8a88 5f3d

node_model.2.bias f4 [16]
-0.119114645 0.013217859 0.21316941 0.2677861 0.0017025495 0.19492295 0.1933377 0.12839484
0.2163792 0.062173933 -0.112907216 0.16795138 0.14280383 0.053635005 -0.0079536745 -0.010345693
00000000: 61f2 f3bd b88f 583c 1549 5a3e 421b 893e
00000010: 1528 df3a e299 473e 51fa 453e f079 033e
00000020: 8292 5d3e 18aa 7e3d e63b e7bd 72fb 2b3e
00000030: 2b3b 123e 61b0 5b3d 2150 02bc fb80 29bc

node_model.3.weight f4 [16]
1.1297575 1.1899952 1.0841501 1.1398435 1.2010148 1.0039084 1.158084 1.1022544
1.1842599 1.1386662 1.0047282 1.2373817 1.0594978 1.2116013 0.9913232 1.1478469
00000000: e59b 903f c351 983f 6ec5 8a3f 64e6 913f
00000010: daba 993f 1280 803f 193c 943f ac16 8d3f
00000020: d495 973f d0bf 913f ef9a 803f 8662 9e3f
00000030: a09d 873f c015 9b3f 5bc7 7d3f a6ec 923f

node_model.3.bias f4 [16]
-0.15126354 0.060153548 -0.079242386 -0.13792002 -0.09446231 0.0012826878 0.12998728 0.042331368
-0.10793601 -0.09985361 -0.029336346 -0.14858872 0.13764507 0.07929042 -0.08992507 0.06924413
00000000: d4e4 1abe 9163 763d d549 a2bd e83a 0dbe
00000010: 7575 c1bd dc1f a83a 631b 053e a863 2d3d
00000020: 8e0d ddbd 0d80 ccbd c752 f0bc a427 18be
00000030: d4f2 0c3e 0463 a23d a32a b8bd decf 8d3d

edge_model.0.weight f4 [16, 96]
-0.07475754 -0.042650785 -0.07606545 -0.006041713 0.06300879 -0.062914856 -0.0012306654 -0.050323967
-0.048345517 0.027682543 0.049939357 0.08509765 -0.031523634 0.08668544 -0.06326957 0.002480727
0.01518766 0.08704092 0.06278637 -0.042597346 0.061172232 -0.008761426 -0.090856366 -0.06840469
-0.063029446 0.09398112 0.08037381 -0.06609181 0.039956223 0.08574295 -0.0024702626 0.059375674
0.08938683 0.044532977 -0.035181396 0.09717655 0.021304788 0.03812969 -0.099026635 0.025971431
0.05176573 -0.060194697 -0.060919575 -0.049875177 0.03841736 -0.03152689 -0.0026241923 -0.1121569
-0.018726965 -0.049043965 -0.08920329 0.052542657 0.01960859 -0.102562755 0.03590987 0.05531179
-0.052900158 -0.02858874 -0.037348196 -0.021685867 0.013183517 0.059716187 0.08748742 -0.08801559
0.08425727 0.012176876 -0.105207495 0.0677888 0.073329985 -0.0050663617 -0.1059882 0.07989455
-0.04649781 -0.082505874 -0.041474447 0.008334695 0.02573669 0.031496294 0.042927057 -0.024350787
-0.055397563 -0.023515029 0.05256767 0.011730912 0.052856803 0.011383933 -0.0010257086 -0.109236896
-0.030060414 -0.045502257 -0.105629675 0.075819954 0.0660643 0.10178257 0.091138475 0.07611082
-0.048896007 0.07603949 -0.0792544 0.031835638 -0.08356797 0.054602288 -0.028492486 0.075006135
0.017227631 0.07546096 -0.008841147 -0.08941866 -0.10443496 -0.08707117 -0.046462674 0.08369347
0.04332653 0.0134911155 0.06757448 -0.07454895 0.022086069 0.04845913 -0.105830714 -0.09787006
0.10283142 -0.01443306 -0.08693289 0.092517346 0.0053209336 0.044614542 0.0038557982 0.03538442
0.08033166 0.04546078 -0.09007954 0.06370765 -0.07521145 0.044283163 -0.092040315 -0.030961873
-0.017233506 0.023838751 0.06306068 -0.080073826 -0.09357978 0.06926236 -0.063262016 -0.086563
-0.019730348 -0.024741404 -0.0846646 0.002156421 0.025596896 0.08351033 0.023806216 0.02465784
0.020874953 -0.051487606 -0.0062251957 -0.023394316 0.046246283 0.049122926 0.08267169 -0.046129853
0.0014391566 0.018533822 -0.058633134 0.07463423 0.083919905 0.02168994 -0.0698525 0.07189186
0.08445474 -0.04348681 -0.06200515 0.09682795 -0.08437623 -0.012481365 -0.0017408611 -0.033842098
-0.08114938 -0.038923413 -0.054402355 0.020300135 0.05876768 -0.065671824 0.08487237 0.036164273
-0.030350156 0.06307069 -0.029207801 -0.033094823 -0.08672463 -0.027559014 -0.02824825 0.03520459
-0.0853564 0.11798123 -0.010938506 0.028495446 -0.007924502 -0.041482255 -0.0617828 -0.014543832
0.06577347 0.03409672 0.039472274 -0.084570564 0.044175748 -0.021677505 -0.06460505 -0.06420779
-0.072602175 -0.030741159 0.095472254 -0.03644742 -0.027309056 0.07011889 -0.04015677 0.02921204
0.07533416 0.05766387 0.053725496 0.07292326 0.00032784193 -0.07303787 -0.05369924 -0.0022956443
0.0009679686 0.02987181 0.048991166 -0.007055747 0.03916277 -0.10306625 -0.032924585 -0.09383216
0.030894168 0.08210949 -0.028279131 -0.0237605 0.036832094 -0.042199984 0.056252196 -0.076717876
0.004944992 -0.021378268 -0.08034136 0.0052975416 0.001832851 -0.0054804077 0.09249678 -0.021568228
0.078062676 -0.024788652 -0.049041554 0.01813298 -0.06162314 -0.06767864 -0.045849856 -0.00955952
00000000: 7b1a 99bd 97b2 2ebd 34c8 9bbd 90f9 c5bb
00000010: c10a 813d 81d9 80bd 474e a1ba 8120 4ebd
00000020: f305 46bd 80c6 e23c 368d 4c3d ad47 ae3d
00000030: ed1e 01bd 2388 b13d 7a93 81bd b193 223b
00000040: aad5 783c 8342 b23d 2496 803d 8e7a 2ebd
00000050: bc8f 7a3d 168c 0fbc e712 babd c217 8cbd
00000060: 9515 81bd 2c79 c03d 069b a43d 255b 87bd
00000070: 23a9 233d 009a af3d 21e4 21bb e833 733d
00000080: 7110 b73d 3668 363d 5e1a 10bd 8004 c73d
00000090: 6187 ae3c e12d 1c3d 7ace cabd 0ac2 d43c
000000a0: 4d08 543d b78e 76bd ce86 79bd ea49 4cbd
000000b0: 865b 1d3d 5722 01bd a4fa 2bbb 84b2 e5bd
000000c0: 4b69 99bc 53e2 48bd 37b0 b6bd f836 573d
000000d0: 32a2 a03c 6c0c d2bd 3a16 133d 9e8e 623d
000000e0: d6ad 58bd ef32 eabc 6cfa 18bd 8fa6 b1bc
000000f0: aeff 573c f698 743d 9b2c b33d 8541 b4bd
00000100: 138f ac3d 8581 473c 0777 d7bd dbd4 8a3d
00000110: 082e 963d b903 a6bb 5710 d9bd c19f a33d
00000120: 7d74 3ebd d7f8 a8bd 1ce1 29bd 3f8e 083c
00000130: c0d5 d23c 4202 013d 48d4 2f3d 4d7b c7bc
00000140: 8ee8 62bd 97a2 c0bc 3251 573d 0333 403c
00000150: 6080 583d ad83 3a3c 1271 86ba 98b7 dfbd
00000160: 4241 f6bc 9360 3abd 5f54 d8bd 7e47 9b3d
00000170: b84c 873d 6173 d03d cfa6 ba3d fddf 9b3d
00000180: 2e47 48bd 98ba 9b3d 2250 a2bd 1666 023d
00000190: af25 abbd a6a6 5f3d 1369 e9bc d19c 993d
000001a0: f620 8d3c 478b 9a3d 75da 10bc 2121 b7bd
000001b0: ffe1 d5bd 5f52 b2bd a54f 3ebd 7b67 ab3d
000001c0: 2977 313d d709 5d3c 7d64 8a3d 1fad 98bd
000001d0: d8ed b43c 157d 463d c6bd d8bd 1970 c8bd
000001e0: 4899 d23d a478 6cbc df09 b2bd bc79 bd3d
000001f0: 3a5b ae3b bdbd 363d 8fb1 7c3b 41ef 103d
00000200: ed84 a43d 1535 3a3d 9f7b b8bd 2879 823d
00000210: 7608 9abd 4362 353d a27f bcbd c1a3 fdbc
00000220: 482d 8dbc 7c49 c33c f525 813d bffd a3bd
00000230: c1a6 bfbd 6dd9 8d3d 848f 81bd f147 b1bd
00000240: 8aa1 a1bc 7cae cabc a264 adbd be52 0d3b
00000250: 95b0 d13c 7707 ab3d 4105 c33c 3dff c93c
00000260: f301 ab3c abe4 52bd bafc cbbb 70a5 bfbc
00000270: be6c 3d3d 1f35 493d c64f a93d a8f2 3cbd
00000280: 15a2 bc3a 3ed4 973c 4c29 70bd d5d9 983d
00000290: 33de ab3d 1aaf b13c d40e 8fbd 0a3c 933d
000002a0: 9bf6 ac3d 3a1f 32bd 1df9 7dbd bb4d c63d
000002b0: 72cd acbd a47e 4cbc 9b2d e4ba 039e 0abd
000002c0: a531 a6bd 286e 1fbd 01d5 5ebd 784c a63c
000002d0: 61b6 703d f37e 86bd 91d1 ad3d fd20 143d
000002e0: e4a0 f8bc 352b 813d 3345 efbc 708e 07bd
000002f0: af9c b1bd 71c3 e1bc e068 e7bc b032 103d
00000300: 56cf aebd 25a0 f13d 6b37 33bc 486f e93c
00000310: c5d5 01bc 4ce9 29bd f60f 7dbd 4149 6ebc
00000320: 3eb4 863d 01a9 0b3d aead 213d 5533 adbd
00000330: a1f1 343d 0695 b1bc a74f 84bd 607f 83bd
00000340: 73b0 94bd e2d4 fbbc f586 c33d e449 15bd
00000350: 3eb7 dfbc 7e9a 8f3d 6d7b 24bd 174e ef3c
00000360: cc48 9a3d f330 6c3d 440f 5c3d ca58 953d
00000370: 33e2 ab39 e194 95bd bcf3 5bbd 8572 16bb
00000380: 46bf 7d3a bab5 f43c f6aa 483d e533 e7bb
00000390: 2469 203d 6614 d3bd eedb 06bd 132b c0bd
000003a0: c415 fd3c 0529 a83d a3a9 e7bc 61a5 c2bc
000003b0: 40dd 163d e4d9 2cbd b468 663d 431e 9dbd
000003c0: 9909 a23b 7a21 afbc 038a a4bd 0097 ad3b
000003d0: 463c f03a fe94 b3bb f46e bd3d daaf b0bc
000003e0: 53df 9f3d 9211 cbbc ccdf 48bd 9e8b 943c
000003f0: 8c68 7cbd 199b 8abd 0fcd 3bbd 889f 1cbc

edge_model.0.bias f4 [16]
-0.0669844 0.032843545 0.00025998318 0.037430454 0.061841108 0.09922533 0.025357693 0.055434465
-0.05231385 0.064999305 0.03762948 0.08502537 0.0053928494 0.09144264 -0.0043447693 0.011019262
00000000: 1e2f 89bd f486 063d 5a4e 8839 ad50 193d
00000010: 1a4d 7d3d a636 cb3d f0ba cf3c 400f 633d
00000020: 0c47 56bd 5b1e 853d 5f21 1a3d c821 ae3d
00000030: 80b6 b03b 4746 bb3d 915e 8ebb 228a 343c

edge_model.2.weight f4 [16, 16]
0.20297799 0.179776 0.21076383 -0.14531925 -0.16239901 -0.17988957 -0.0805795 0.23604453
0.20416816 0.10799145 -0.025150405 0.10419139 0.10076946 -0.25389147 -0.006186946 0.12956747
-0.040411685 -0.23411916 -0.031263296 0.18676247 -0.053413082 -0.25349167 0.22801855 0.009186927
0.049432397 0.051984213 0.08956121 -0.16588734 -0.23879749 -0.03273895 -0.015608989 -0.23819606
0.2341003 -0.1522799 -0.23926988 0.046443887 -0.07012861 -0.048056565 -0.21511573 0.13013259
-0.14574304 -0.05565541 0.16324347 0.20266442 0.22713545 -0.111489095 0.15385628 -0.085784815
-0.21331538 -0.0016880436 0.05423438 0.20147729 -0.18587506 -0.00011776673 0.00783647 -0.11138618
0.18376423 -0.19310649 -0.25519913 -0.042898137 0.04974687 -0.21554938 0.23399384 0.15792604
-0.113898106 -0.1294853 -0.022564419 0.2223485 -0.053537417 0.13388067 -0.12375271 0.016500898
0.2152587 0.040007897 0.07438714 -0.095001146 -0.002544701 0.23648463 -0.08680426 -0.0659294
0.23136057 -0.0049290475 0.24021867 0.05201714 0.10627151 0.04591149 0.2519991 -0.14884947
0.075083286 -0.12745278 0.1805417 0.20905657 0.14863285 0.0717826 0.23778875 -0.0064328304
-0.08883432 0.0329489 -0.07129762 0.108595036 -0.057261273 -0.2289149 0.048720345 0.20004484
-0.17928931 0.20922202 -0.14060882 -0.16843197 0.09671047 0.012584197 -0.08875199 0.2087829
-0.055825904 0.14670867 -0.016248848 0.2057328 -0.14061111 -0.056519087 0.082558595 -0.047049314
-0.08180129 -0.19769341 0.15905784 0.13981856 -0.04909125 0.21440727 -0.06606616 0.108134374
0.022668457 0.1713209 0.06263361 0.12675124 0.07326337 0.18315323 -0.043682173 -0.11781897
0.12443409 -0.18698676 -0.26678383 -0.13096918 -0.22566947 -0.15915613 -0.06974737 0.017281678
-0.10933943 -0.06940688 0.13890299 -0.024954112 0.11168895 -0.15774013 -0.27873796 -0.22196098
0.030588211 0.08929013 0.07693682 -0.03979151 0.19242853 -0.18949431 -0.16656119 -0.10951226
0.1259129 -0.0942366 0.036570575 -0.26991972 -0.05401361 0.18949673 -0.050623372 -0.20951311
0.07357824 -0.1435303 0.057950113 -0.10926105 0.22835597 -0.13775517 -0.033055946 -0.060813814
0.0512207 -0.06430144 0.20190045 0.07851355 0.04119705 -0.033168644 -0.029072609 -0.0080005
0.18641174 -0.2519424 -0.044298824 -0.013919267 -0.0071643293 0.18070862 -0.029529234 0.040972356
0.0963114 0.18522757 0.016336381 -0.09806529 0.1783361 0.055970363 0.25081778 -0.24310946
-0.10927115 -0.21602857 0.08112498 -0.16342771 0.12683114 -0.20822415 0.0002828145 -0.069545284
-0.1980632 -0.090750255 -0.07842503 -0.17323124 -0.06158639 -0.091712564 -0.001072173 -0.23300683
0.12425522 -0.032019544 0.17798574 -0.23759796 -0.060993284 0.19513705 -0.12729126 0.23021542
-0.0787798 -0.06275749 0.052866995 -0.18913512 -0.21817952 0.11248949 0.08643251 0.158046
-0.17328593 -0.15204817 -0.14385062 -0.25273466 0.08919123 -0.1674021 -0.1400862 -0.01696916
-0.16888618 0.057529047 0.22877006 -0.20446701 0.0012550974 0.023807447 -0.027781935 0.13411458
0.07569083 -0.020444177 -0.12497401 -0.032996614 -0.10446495 0.1416865 -0.027856296 0.15671761
00000000: 76d9 4f3e 3317 383e 79d2 573e 92ce 14be
00000010: ed4b 26be f934 38be dd06 a5bd a8b5 713e
00000020: 7511 513e 9f2a dd3d 3908 cebc 4c62 d53d
00000030: 3860 ce3d 10fe 81be ddbb cabb 56ad 043e
00000040: b986 25bd efbc 6fbe f10d 00bd a93e 3f3e
00000050: adc7 5abd a9c9 81be b27d 693e c484 163c
00000060: a079 4a3d 66ed 543d de6b b73d 5fde 29be
00000070: 5487 74be 4719 06bd d8bc 7fbc abe9 73be
00000080: fdb7 6f3e 43ef 1bbe 2a03 75be f23b 3e3d
00000090: 979f 8fbd f6d6 44bd 4c47 5cbe 7a41 053e
000000a0: aa3d 15be edf6 63bd 4c29 273e 4387 4f3e
000000b0: 3296 683e 6554 e4bd 808c 1d3e f3af afbd
000000c0: 596f 5abe 5841 ddba df24 5e3d 1050 4e3e
000000d0: 0856 3ebe 88f9 f6b8 8a64 003c 701e e4bd
000000e0: b12c 3c3e b5bd 45be 76a9 82be f5b5 2fbd
000000f0: 60c3 4b3d fab8 5cbe 159c 6f3e 5db7 213e
00000100: 6943 e9bd cb97 04be 04d9 b8bc 53af 633e
00000110: 0d4a 5bbd 0418 093e 1072 fdbd e42c 873c
00000120: c76c 5c3e 52df 233d 4958 983d f68f c2bd
00000130: 00c5 26bb 0729 723e 6fc6 b1bd fe05 87bd
00000140: c9e9 6c3e d983 a1bb e2fb 753e ed0f 553d
00000150: e1a4 d93d b00d 3c3d 0706 813e ff6b 18be
00000160: 44c5 993d fb82 02be ecdf 383e ed12 563e
00000170: 3633 183e c102 933d e57e 733e 7eca d2bb
00000180: c5ee b5bd 6df5 063d 7d04 92bd 1367 de3d
00000190: cc8a 6abd ab68 6abe fc8e 473d 8ed8 4c3e
000001a0: 9e97 37be 4c3e 563e c2fb 0fbe 6e79 2cbe
000001b0: 2410 c63d f32d 4e3c 9ac3 b5bd 2fcb 553e
000001c0: b4a9 64bd cc3a 163e 4e1c 85bc 9eab 523e
000001d0: 5cfc 0fbe 8f80 67bd 7b14 a93d c8b6 40bd
000001e0: 6f87 a7bd 2470 4abe 0fe0 223e 992c 0f3e
000001f0: e813 49bd 948d 5b3e b24d 87bd 8e75 dd3d
00000200: 33b3 b93c bf6e 2f3e 0d46 803d 14cb 013e
00000210: 1b0b 963d 858c 3b3e 14ec 32bd 124b f1bd
00000220: 4dd7 fe3d 7579 3fbe e497 88be c91c 06be
00000230: e615 67be d3f9 22be b6d7 8ebd 4e92 8d3c
00000240: 5aed dfbd 3225 8ebd 963c 0e3e 916c ccbc
00000250: 2dbd e43d a186 21be beb6 8ebe bd49 63be
00000260: 2194 fa3c bedd b63d 0d91 9d3d 6cfc 22bd
00000270: fc0b 453e cc0a 42be 048f 2abe f747 e0bd
00000280: 50ef 003e 1eff c0bd 07cb 153d eb32 8abe
00000290: 603d 5dbd 6e0b 423e 745a 4fbd 9b8a 56be
000002a0: 30b0 963d 9bf9 12be 195d 6d3d 42c4 dfbd
000002b0: 26d6 693e b10f 0dbe ac65 07bd e817 79bd
000002c0: cccc 513d 79b0 83bd febe 4e3e b6cb a03d
000002d0: 3dbe 283d d8db 07bd ae29 eebc 8714 03bc
000002e0: b8e2 3e3e 98fe 80be af72 35bd a30d 64bc
000002f0: c0c2 eabb ae0b 393e 4be7 f1bc a1d2 273d
00000300: e93e c53d 4cac 3d3e e0d3 853c 74d6 c8bd
00000310: bd9d 363e 2e41 653d 306b 803e b0f1 78be
00000320: 8dc9 dfbd 9836 5dbe da24 a63d 9859 27be
00000330: 06e0 013e b638 55be b846 9439 c26d 8ebd
00000340: 14d1 4abe 45db b9bd 4d9d a0bd 8863 31be
00000350: 0342 7cbd ccd3 bbbd 2888 8cba 5899 6ebe
00000360: 8579 fe3d ed26 03bd e541 363e e14c 73be
00000370: 18d4 79bd 02d2 473e a458 02be 97bd 6b3e
00000380: 4e57 a1bd 0087 80bd 108b 583d a3ac 41be
00000390: 746a 5fbe e460 e63d 8703 b13d d0d6 213e
000003a0: de71 31be 84b2 1bbe 944d 13be 7066 81be
000003b0: e4a9 b63d 756b 2bbe c272 0fbe e802 8bbc
000003c0: 80f0 2cbe 94a3 6b3d b342 6a3e cd5f 51be
000003d0: 1582 a43a d607 c33c f196 e3bc 5555 093e
000003e0: cb03 9b3d 8c7a a7bc 60f2 ffbd 7527 07bd
000003f0: b8f1 d5bd 4416 113e e332 e4bc 957a 203e

edge_model.2.bias f4 [16]
0.2341946 -0.07889537 0.03480849 0.08494516 -0.2405333 -0.18662128 0.15215655 0.101817116
0.24394496 0.15347092 0.19920273 -0.086178355 -0.12803242 -0.14309147 -0.18329266 -0.055983305
00000000: b6d0 6f3e e593 a1bd 5993 0e3d baf7 ad3d
00000010: 5d4e 76be a619 3fbe edce 1b3e 7e85 d03d
00000020: b5cc 793e 7b27 1d3e cdfb 4b3e 477e b0bd
00000030: ee1a 03be 9286 12be 12b1 3bbe c04e 65bd

edge_model.3.weight f4 [16]
1.0112498 1.0171819 0.9780879 1.0282085 1.0016584 1.0151423 0.98569 1.0119975
1.0231545 1.0024308 0.9937508 1.0115063 1.0102959 1.0188886 1.0079191 0.99192876
00000000: a270 813f 0433 823f f863 7a3f 569c 833f
00000010: 5836 803f 2ff0 813f 2e56 7c3f 2289 813f
00000020: baf6 823f a74f 803f 7466 7e3f 0a79 813f
00000030: 6051 813f f16a 823f 7e03 813f 0bef 7d3f

edge_model.3.bias f4 [16]
-0.0025565044 -0.00877596 0.014578733 0.0043107066 0.0017562843 -0.00948661 -0.017534899 0.007433526
0.004990437 0.00040810462 -0.012538318 0.010738479 -0.0013874603 0.0034344539 -0.009592129 0.0039650723
00000000: 078b 27bb 0bc9 0fbc a3db 6e3c d440 8d3b
00000010: 1f33 e63a ba6d 1bbc 59a5 8fbc f094 f33b
00000020: d286 a33b e0f6 d539 846d 4dbc 72f0 2f3c
00000030: 71db b5ba 9314 613b 4e28 1dbc 70ed 813b

node_decoder.0.weight f4 [1, 16]
-0.31602475 0.33692974 -0.4487392 -0.30781475 -0.41556317 0.07089352 0.38969502 0.24016011
-0.3128135 -0.30636993 -0.06840139 -0.47524974 0.23188715 0.43513536 -0.18475573 0.39836174
00000000: ffcd a1be 0e82 ac3e 25c1 e5be e599 9dbe
00000010: b2c4 d4be 9f30 913d 1b86 c73e 88ec 753e
00000020: 1729 a0be 85dc 9cbe 0716 8cbd ef53 f3be
00000030: d373 6d3e 10ca de3e 9b30 3dbe 12f6 cb3e
