tmp/tmp8model1000.pt (torch, 23679 bytes, 25 tensors)

node_encoder.0.weight f4 [16, 5]
0.11444021 0.34382132 0.42530754 -0.18198884 0.047753423 0.142796 0.37061515 -0.43461218
0.07016927 -0.33826607 0.37254226 0.14584519 -0.25578463 -0.34693944 -0.43955278 0.34866244
0.27720186 -0.19467352 -0.028354526 -0.29716423 -0.28461838 0.01864665 -0.35167083 0.08152372
0.26814583 -0.3708233 -0.118162334 -0.021385461 0.12398273 -0.04649335 -0.37611198 -0.1611127
-0.44434482 -0.06818798 -0.17267692 0.36928254 -0.086894594 0.2313926 -0.43552196 -0.1285128
0.2912698 0.28319114 0.080946326 -0.27803403 0.14352693 0.45926985 -0.0237801 0.22912623
-0.3028816 0.22129107 0.034720376 0.39859006 0.19797355 0.42235053 -0.10485855 0.019782254
-0.047342166 -0.041840613 -0.3614765 -0.2785744 -0.12932917 -0.30822212 -0.41922355 -0.21429645
0.022785664 -0.43816337 0.08193069 0.44286144 -0.14865255 -0.28181756 0.30211392 0.010632261
0.14838327 -0.3260685 -0.3476178 -0.05483173 -0.40467116 -0.046064086 -0.09916061 0.16343364
00000000: a15f ea3d 5909 b03e e9c1 d93e 485b 3abe
00000010: 1899 433d 1d39 123e 45c1 bd3e 7d85 debe
00000020: e8b4 8f3d 3631 adbe dcbd be3e 7158 153e
00000030: 34f6 82be 0ca2 b1be 100d e1be e283 b23e
00000040: 67ed 8d3e 7f58 47be c047 e8bc e925 98be
00000050: 80b9 91be dcc0 983c 330e b4be e8f5 a63d
00000060: 694a 893e 8ddc bdbe 18ff f1bd 9030 afbc
00000070: a8ea fd3d d06f 3ebd c091 c0be bafa 24be
00000080: 2a81 e3be 24a6 8bbd 38d2 30be 9a12 bd3e
00000090: cbf5 b1bd 2ff2 6c3e bcfc debe dc98 03be
000000a0: 5121 953e 6efe 903e 30c7 a53d 7a5a 8ebe
000000b0: b9f8 123e 6b25 eb3e 7cce c2bc 11a0 6a3e
000000c0: 4c13 9bbe 209a 623e f436 0e3d ff13 cc3e
000000d0: 94b9 4a3e 543e d83e 14c0 d6bd 650e a23c
000000e0: dce9 41bd 1061 2bbd 7313 b9be 4ea1 8ebe
000000f0: de6e 04be 4acf 9dbe 78a4 d6be 8770 5bbe
00000100: 00a9 ba3c f356 e0be 47cb a73d bcbe e23e
00000110: 6038 18be 644a 90be adae 9a3e ef32 2e3c
00000120: c9f1 173e 73f2 a6be f6fa b1be 3c97 60bd
00000130: 0f31 cfbe b2ad 3cbd b814 cbbd 265b 273e

node_encoder.0.bias f4 [16]
0.10258544 -0.35724124 0.028091393 -0.15383399 0.1588639 0.31910384 -0.27361485 -0.09624105
0.06559979 0.34930468 -0.19508858 0.44235337 -0.3750249 0.36254904 -0.0070588393 0.4547126
00000000: 5118 d23d 53e8 b6be ec1f e63c a886 1dbe
00000010: 38ad 223e 9461 a33e 3f17 8cbe 071a c5bd
00000020: 2f59 863d 10d8 b23e 4dc5 47be 247c e23e
00000030: 4403 c0be 07a0 b93e d64d e7bb 17d0 e83e

node_encoder.2.weight f4 [16, 16]
0.2508016 -0.05489294 -0.06601079 0.18503802 -0.120022684 0.013379395 0.013123125 -0.16881685
-0.1596512 0.20749144 0.07328162 0.039141238 -0.12352902 -0.25258464 0.12173604 -0.14859673
-0.17013001 -0.009611307 0.04666279 -0.025328232 0.01175002 0.21618944 0.21652862 0.17202774
0.0067195157 0.20931469 -0.059206855 0.21839097 0.10429779 -0.10104469 0.032643244 0.17234178
-0.13599361 -0.050277717 -0.07442555 0.052437875 -0.12620689 -0.039675027 -0.01881525 -0.016087329
0.020552004 -0.104799286 0.039758746 -0.25997755 -0.0669601 0.1861849 0.011945838 -0.04999777
-0.014659842 -0.22007024 -0.01743571 0.16210844 0.07707047 -0.20761395 -0.09731552 -0.07142849
0.18768895 -0.08374017 0.14376366 -0.1064547 -0.0021075606 -0.20405598 -0.010447155 -0.27806365
0.13670439 -0.25911632 -0.22480088 0.06629452 -0.057737958 0.16757649 0.1529144 0.015348099
-0.068670034 0.1642448 0.07511958 0.20341143 0.07375422 -0.19594693 -0.21047378 0.015101394
-0.016063368 0.18005012 -0.16235803 0.09907938 0.13206285 0.14620498 0.07485294 -0.11663185
0.23275682 0.060073208 -0.016692348 0.18257377 0.0007311404 -0.0045014005 -0.012040274 0.17234227
-0.0383355 0.2087037 0.087280616 0.15144564 -0.20328633 0.1332503 0.18865797 -0.0057596182
0.017081596 -0.043847095 -0.08916115 -0.14701016 0.20720243 -0.15514125 -0.19573396 -0.14567901
0.03667184 0.17828453 -0.22919258 -0.04657789 0.028998332 0.0298706 -0.17277852 -0.2118676
-0.17427495 0.25493154 -0.14510997 0.17625144 -0.009569198 0.17299758 -0.18666753 0.15720585
-0.08711906 -0.029730158 -0.1444534 0.087310426 -0.17658764 -0.17638105 0.08535203 -0.11353977
0.041959718 0.14013967 0.22130288 0.23426457 0.15999898 -0.0060740914 0.19880268 0.15160666
0.022563115 0.015967136 0.077789195 -0.064566456 -0.041024126 0.16494453 -0.2098946 0.060256056
-0.110051766 0.15401769 0.25493032 0.24015157 -0.23176739 -0.14701773 -0.12158826 -0.31547993
-0.119735375 0.004733235 -0.23791118 -0.09549891 -0.0896366 -0.21109423 0.03680402 -0.14992872
0.10839934 -0.0883781 0.2242241 0.05761057 -0.20097098 0.2207298 0.04695171 -0.20497154
-0.06725109 -0.009888909 0.2066964 -0.021319073 0.010107729 -0.17711577 0.10094178 0.08027562
-0.075249925 -0.016952468 0.011607342 0.13225906 0.024276286 0.20069651 0.17952937 0.27701205
-0.1248185 -0.15972775 -0.11910491 -0.19839591 0.062123783 -0.19959542 -0.13360351 0.072835274
-0.056892756 -0.22501037 0.08779074 -0.03543154 0.097655654 0.027936785 -0.06531187 0.25353628
0.17572862 -0.066544965 0.18983589 -0.16311811 -0.0070460094 0.016844392 -0.09840897 0.049582615
-0.18347111 0.09681858 -0.049946986 0.047257625 -0.054424047 0.2522814 0.0019751517 0.078609064
-0.13557878 0.03478362 0.17379667 0.1821395 -0.21335167 -0.045368165 0.21805492 0.22685868
-0.18292028 0.10025111 -0.15441942 -0.26124522 0.123384416 -0.13022012 0.07136331 -0.09437081
0.029271742 0.09353583 -0.1250326 0.00034877073 0.10445871 -0.07445571 -0.24301225 -0.20251384
0.2282908 -0.04698842 0.04686751 -0.21466845 -0.02435401 -0.10463616 0.21177602 -0.1509596
00000000: 1169 803e 6bd7 60bd aa30 87bd 9b7a 3d3e
00000010: 74ce f5bd 4035 5b3c 6002 573c 53de 2cbe
00000020: 9b7b 23be a378 543e ad14 963d 9052 203d
00000030: c8fc fcbd c652 81be bf50 f93d be29 18be
00000040: 9036 2ebe be78 1dbc 7b21 3f3d 277d cfbc
00000050: 2883 403c c460 5d3e aeb9 5d3e 0a28 303e
00000060: 622f dc3b 9756 563e e382 72bd e2a1 5f3e
00000070: 149a d53d 85f0 cebd ecb4 053d 5d7a 303e
00000080: e941 0bbe 02f0 4dbd 6c6c 98bd 19c9 563d
00000090: 613c 01be 4882 22bd 7022 9abc 93c9 83bc
000000a0: ad5c a83c 02a1 d6bd 11da 223d c71b 85be
000000b0: 6022 89bd 41a7 3e3e 7ab8 433c 76ca 4cbd
000000c0: d52f 70bc 185a 61be 56d5 8ebc c1ff 253e
000000d0: 1fd7 9d3d c098 54be 5c4d c7bd 1a49 92bd
000000e0: 8831 403e f77f abbd c836 133e ec04 dabd
000000f0: 001f 0abb 0df4 50be 8b2a 2bbc 5c5e 8ebe
00000100: 3cfc 0b3e e5aa 84be 3432 66be 6cc5 873d
00000110: a37e 6cbd 2c99 2b3e 9895 1c3e 9876 7b3c
00000120: e0a2 8cbd ca2f 283e 4bd8 993d 164b 503e
00000130: 740c 973d 50a6 48be 7086 57be d66b 773c
00000140: 5397 83bc 0f5f 383e 2f41 26be 21ea ca3d
00000150: 7c3b 073e c2b6 153e 804c 993d aedc eebd
00000160: ce57 6e3e 530f 763d 64be 88bc 9ef4 3a3e
00000170: 00aa 3f3a 7c80 93bb 9244 45bc 7e7a 303e
00000180: af05 1dbd 6cb6 553e 2ec0 b23d 9114 1b3e
00000190: 4b2a 50be c472 083e 8e2f 413e 2ebb bcbb
000001a0: b4ee 8b3c 0399 33bd 1f9a b6bd d589 16be
000001b0: e02c 543e 59dd 1ebe 7c6e 48be e12c 15be
000001c0: 3635 163d 3890 363e 76b1 6abe 75c8 3ebd
000001d0: e98d ed3c 30b3 f43c daec 30be d2f3 58be
000001e0: 2275 32be 6386 823e b597 14be 427b 343e
000001f0: 20c8 1cbc 4726 313e c625 3fbe 92fa 203e
00000200: 7a6b b2bd a98c f3bc 98eb 13be cfcf b23d
00000210: 64d3 34be 3c9d 34be 0ccd ae3d 8a87 e8bd
00000220: f4dd 2b3d c680 0f3e 399d 623e 0de3 6f3e
00000230: c6d6 233e 2c09 c7bb ee92 4b3e c73e 1b3e
00000240: 48d6 b83c 83cd 823c f14f 9f3d 6b3b 84bd
00000250: ea08 28bd 38e7 283e 9cee 56be 0ecf 763d
00000260: d262 e1bd d0b6 1d3e 3a86 823e 4bea 753e
00000270: 6e54 6dbe d18b 16be 4403 f9bd 9686 a1be
00000280: d237 f5bd 4119 9b3b fd9e 73be ef94 c3bd
00000290: 6593 b7bd 1629 58be d0bf 163d ea86 19be
000002a0: 7900 de3d 94ff b4bd 019b 653e 10f9 6b3d
000002b0: 56cb 4dbe fe06 623e 7050 403d 0fe4 51be
000002c0: f1ba 89bd 1705 22bc 39a8 533e 56a5 aebc
000002d0: e39a 253c d65d 35be 90ba ce3d 8b67 a43d
000002e0: a21c 9abd e7df 8abc b92c 3e3c eb6e 073e
000002f0: 10df c63c 6383 4d3e 8cd6 373e 86d4 8d3e
00000300: d7a0 ffbd ac8f 23be 46ed f3bd 4c28 4bbe
00000310: 8275 7e3d be62 4cbe 5ccf 08be a92a 953d
00000320: 6108 69bd 1e69 66be a2cb b33d aa20 11bd
00000330: b0ff c73d afdb e43c 3bc2 85bd 82cf 813e
00000340: 34f2 333e ba48 88bd 5764 423e 6f08 27be
00000350: 36e2 e6bb 40fd 893c a48a c9bd 2417 4b3d
00000360: dadf 3bbe d248 c63d 3695 4cbd 3691 413d
00000370: c0eb 5ebd 072b 813e 8c71 013b cafd a03d
00000380: 2ad5 0abe 4579 0e3d c1f7 313e c782 3a3e
00000390: dc78 5abe f8d3 39bd ca49 5f3e a44d 683e
000003a0: 744f 3bbe 7450 cd3d 2020 1ebe efc1 85be
000003b0: f8b0 fc3d 6c58 05be ed26 923d 7c45 c1bd
000003c0: 4bcb ef3c b78f bf3d 8c08 00be 37db b639
000003d0: 73ee d53d 3c7c 98bd 34d8 78be ca5f 4fbe
000003e0: 10c5 693e ee76 40bd 25f8 3f3d 0cd2 5bbe
000003f0: 1082 c7bc 7c4b d6bd d0db 583e 2795 1abe

node_encoder.2.bias f4 [16]
-0.1394601 -0.11516792 0.1882471 0.19703121 -0.046905488 0.14337802 -0.016879318 -0.1526873
0.16443747 0.25371772 -0.22881298 0.0119626345 -0.22084579 0.09956184 0.16548191 -0.14928164
00000000: a1ce 0ebe 29dd ebbd d9c3 403e 8dc2 493e
00000010: f81f 40bd b0d1 123e 7f46 8abc 0f5a 1cbe
00000020: 4c62 283e 4ae7 813e f34d 6abe edfe 433c
00000030: 6625 62be 14e7 cb3d 1774 293e 49dd 18be

node_encoder.3.weight f4 [16]
0.98919886 1.0486932 0.9919891 0.990672 0.9735362 1.0115845 1.0156792 1.0091736
0.9870953 1.034453 1.0080246 1.0345111 0.99207616 1.0107478 0.98885524 0.9899277
00000000: 233c 7d3f 943b 863f fff2 7d3f ae9c 7d3f
00000010: ab39 793f 9a7b 813f c701 823f 9a2c 813f
00000020: 47b2 7c3f f568 843f f306 813f dc6a 843f
00000030: b4f8 7d3f 2f60 813f 9e25 7d3f e76b 7d3f

node_encoder.3.bias f4 [16]
0.03864119 0.015978063 -0.022185314 -0.013234415 -0.007971658 0.013907575 0.0034744712 0.007143046
-0.0076713716 0.02826495 -0.011555061 0.028692385 0.008328453 -0.0010478933 -0.010800245 0.0193843
00000000: 3946 1e3d 6de4 823c fabd b5bc 29d5 58bc
00000010: 8f9b 02bc 99dc 633c f4b3 633b 3610 ea3b
00000020: 2160 fbbb e58b e73c 7051 3dbc 4b0c eb3c
00000030: 1074 083c 7759 89ba 83f3 30bc d3cb 9e3c

edge_encoder.0.weight f4 [16, 4]
-0.41963768 -0.08343893 -0.34433877 0.48646837 0.07497524 0.108121395 0.22219197 -0.10449273
0.2456904 0.1919411 -0.4515189 -0.28827772 0.122551076 0.40894434 0.28391188 0.5624893
-0.3058675 -0.23052323 0.23429184 -0.005091071 -0.36841366 0.024028486 0.16797002 0.19436772
0.2514393 -0.19861259 0.18464155 -0.1517869 -0.10469782 -0.3242556 -0.4524182 0.39453357
0.46823806 -0.43989605 -0.23448442 -0.25326896 0.20662004 -0.26161247 -0.16148901 -0.2849272
-0.02605361 0.4211683 -0.06163597 0.3243102 -0.46122247 0.15537632 -0.43370992 -0.0968219
0.04212243 0.35213342 -0.13497846 0.061616763 0.32298562 -0.22480603 -0.2718687 0.41676524
0.09335173 0.2839104 -0.24039581 -0.5711332 -0.3998443 -0.2019344 0.08174139 0.4481321
00000000: c0da d6be 08e2 aabd 2c4d b0be 6212 f93e
00000010: 9e8c 993d c06e dd3d 4b86 633e 4900 d6bd
00000020: 4496 7b3e 358c 443e 7c2d e7be 2399 93be
00000030: 0ffc fa3d 2761 d13e e65c 913e 4cff 0f3f
00000040: aa9a 9cbe 480e 6cbe 33ea 6f3e 00d3 a6bb
00000050: b7a0 bcbe 63d7 c43c 5500 2c3e 5508 473e
00000060: a7bc 803e 1961 4bbe ad12 3d3e 066e 1bbe
00000070: d06b d6bd d404 a6be 5ca3 e7be 4e00 ca3e
00000080: e6bc ef3e 0e3a e1be af1c 70be 78ac 81be
00000090: 3494 533e 12f2 85be 605d 25be fae1 91be
000000a0: 616e d5bc 5fa3 d73e 0076 7cbd fd0b a63e
000000b0: 5a25 ecbe f81a 1f3e 3a0f debe 8f4a c6bd
000000c0: 9288 2c3d d54a b43e cb37 0abe dc61 7c3d
000000d0: 5f5e a53e 8d33 66be 6032 8bbe 4162 d53e
000000e0: 312f bf3d b45c 913e 522a 76be c935 12bf
000000f0: 64b8 ccbe e4c7 4ebe 0868 a73d 9271 e53e

edge_encoder.0.bias f4 [16]
-0.14210583 0.39514878 0.49042392 -0.40989423 -0.058969058 0.45317614 0.07298404 -0.30693626
-0.24607524 -0.2688492 -0.32674396 -0.059618123 0.061280057 0.42492595 0.28664216 -0.32253373
00000000: 3184 11be f150 ca3e d818 fb3e a8dd d1be
00000010: 8a89 71bd b406 e83e a878 953d c026 9dbe
00000020: 26fb 7bbe 9aa6 89be fc4a a7be 2232 74bd
00000030: cc00 7b3d e58f d93e c3c2 923e 2423 a5be

edge_encoder.2.weight f4 [16, 16]
0.14514779 -0.18857594 -0.24088752 0.36488232 0.027195523 0.049511556 0.08674074 -0.14455336
0.09505767 0.043829232 0.10356106 -0.22051172 -0.22900257 0.25344282 0.0167367 -0.14937703
-0.1132963 -0.24847703 0.17648865 -0.32527158 -0.13456917 0.1284471 -0.10004724 -0.2081325
-0.24654156 0.22535941 0.071361944 0.16471434 -0.044760115 0.06015669 0.24396122 -0.14523774
0.09185527 -0.09531893 0.13129114 -0.011924136 0.025131695 -0.11044509 -0.14430921 0.18018878
-0.030654592 -0.13603476 0.18203992 0.18628149 -0.17500867 -0.06288562 0.05484878 0.09965098
0.03935866 -0.055242553 0.22923827 -0.27021 -0.008652127 0.21711281 -0.13372652 -0.25144836
-0.044582747 -0.17486125 0.23285533 0.096189275 -0.20190457 -0.1339641 0.030753426 -0.10581695
-0.20876488 -0.0033807363 0.12358592 0.021240724 -0.10950907 0.0020174943 -0.09935432 -0.012659123
0.1544982 -0.11633593 0.17049554 0.055686876 0.07128729 -0.09530295 -0.080342844 -0.12610067
-0.28566074 0.11400735 0.103677854 -0.15908323 -0.17322166 -0.17323802 0.055067763 0.1067628
0.2592914 0.17213741 0.2678468 0.23822953 0.12835456 0.1918371 0.15461084 -0.18138489
0.18164553 0.14156932 -0.23980461 -0.068218105 -0.07583295 -0.24561046 0.081729375 0.127148
-0.19651736 0.15456995 -0.21452399 0.1810887 -0.17210215 0.17259778 0.18806975 0.08189289
-0.10589997 0.041155413 -0.1470283 0.3142216 -0.25204808 -0.20802474 -0.16753855 0.07303384
0.17325729 0.14378741 0.147553 0.008335297 -0.12883498 0.23992422 -0.257609 -0.057765864
0.032740947 0.062094487 -0.047086526 -0.010977892 0.059548285 0.25204372 -0.07894683 -0.09908284
0.15508991 0.12500563 -0.21611696 0.22353204 0.04147111 0.22855477 0.085339025 -0.1951334
0.2008718 0.14149646 -0.12393697 0.47703812 0.23400293 -0.18030003 -0.23717481 0.18160485
-0.17675489 0.122683555 0.054893654 -0.21470518 -0.042127647 -0.078928806 -0.21937352 -0.24273022
-0.10592498 0.1784742 -0.033926856 0.3225176 0.22991876 -0.19071318 0.020233732 0.08159847
-0.14694397 0.07969478 0.08124327 -0.19096895 0.10313063 0.0845195 0.10786242 -0.16594167
-0.1669336 0.19248177 0.081589036 -0.46313664 0.041425396 0.112117454 -0.13319102 0.17534837
-0.2257321 -0.11140156 0.047749266 -0.07714128 -0.24787703 -0.0359233 -0.033843677 0.21455339
-0.08053618 0.1393591 -0.13640778 0.41623172 0.101220235 -0.046721827 0.28352997 0.003977067
-0.16063818 -0.17034501 0.26780936 -0.16461337 0.14275678 0.24592796 0.06292253 -0.10884683
0.15355629 0.0053980495 0.02160091 0.056925572 0.18199983 0.023981597 0.13109264 -0.20838787
-0.21424901 0.21138448 -0.16117074 -0.21217568 -0.0613875 -0.043498777 -0.24486248 -0.12345839
0.12959269 0.16522913 -0.091895625 -0.27245516 -0.09805998 0.020901112 0.044616953 0.111676246
-0.06929554 -0.10615724 -0.046158984 0.22794521 0.06880724 -0.17939301 0.18258238 0.059346292
-0.103071794 -0.029839044 -0.1860942 0.18217431 0.25769815 0.12340507 0.15822744 0.0544534
0.12639444 0.056391567 0.110805415 0.032219898 -0.19924378 -0.05768791 -0.15952133 -0.20869228
00000000: 9fa1 143e 0d1a 41be 38ab 76be dbd1 ba3e
00000010: 25c9 de3c a1cc 4a3d 21a5 b13d cc05 14be
00000020: 98ad c23d 4886 333d d217 d43d d3cd 61be
00000030: a67f 6abe 42c3 813e 671b 893c 4bf6 18be
00000040: e407 e8bd c370 7ebe 71b9 343e ff89 a6be
00000050: 80cc 09be a387 033e 91e5 ccbd b020 55be
00000060: 6475 7cbe 9ec4 663e 3626 923d e0aa 283e
00000070: 6256 37bd dd66 763d f8d0 793e 34b9 14be
00000080: 9e1e bc3d 9236 c3bd 2f71 063e 745d 43bc
00000090: fce0 cd3c 0931 e2bd cbc5 13be 6883 383e
000000a0: 571f fbbc b24c 0bbe ac68 3a3e 93c0 3e3e
000000b0: 7935 33be 2dca 80bd 1da9 603d d015 cc3d
000000c0: 8c36 213d 0446 62bd 70bd 6a3e f758 8abe
000000d0: a7c1 0dbc d252 5e3e 9bef 08be d7bd 80be
000000e0: 669c 36bd d40e 33be a171 6e3e e2fe c43d
000000f0: 12c0 4ebe e32d 09be 9cee fb3c 8fb6 d8bd
00000100: 76c6 55be 588f 5dbb 9d1a fd3d 0701 ae3c
00000110: 4b46 e0bd f037 043b 477a cbbd 3668 4fbc
00000120: c734 1e3e 8841 eebd 6296 2e3e ec17 643d
00000130: 12ff 913d 312e c3bd ca8a a4bd 8920 01be
00000140: 2042 92be af7c e93d 0e55 d43d b7e6 22be
00000150: 0561 31be 4f65 31be bc8e 613d 74a6 da3d
00000160: d8c1 843e ca44 303e 3723 893e 71f2 733e
00000170: 616f 033e f270 443e 4e52 1e3e f6bc 39be
00000180: 4901 3a3e 8cf7 103e 578f 75be efb5 8bbd
00000190: 4e4e 9bbd 4f81 7bbe bb61 a73d 1633 023e
000001a0: d93b 49be 9647 1e3e 2dac 5bbe 516f 393e
000001b0: 8c3b 30be 79bd 303e 5b95 403e 76b7 a73d
000001c0: 15e2 d8bd 9492 283d 968e 16be a7e1 a03e
000001d0: 720c 81be 7004 55be 3a8f 2bbe c492 953d
000001e0: 5c6a 313e 023d 133e 2218 173e c590 083c
000001f0: 51ed 03be b2ae 753e 54e5 83be e69b 6cbd
00000200: 5f1b 063d ca56 7e3d cddd 40bd 9edc 33bc
00000210: e7e8 733d e00b 813e e0ae a1bd f2eb cabd
00000220: e4cf 1e3e 7a01 003e c44d 5dbe 95e5 643e
00000230: 9cdd 293d 430a 6a3e 3ac6 ae3d 0dd1 47be
00000240: 56b1 4d3e 73e4 103e abd2 fdbd 573e f43e
00000250: 779e 6f3e 92a0 38be f4dd 72be 9ff6 393e
00000260: 3cff 34be 8441 fb3d 2bd8 603d addb 5bbe
00000270: 0a8e 2cbd 6da5 a1bd 74a3 60be 458e 78be
00000280: 32ef d8bd f1c1 363e e3f6 0abd 0721 a53e
00000290: d36f 6b3e 514a 43be 36c1 a53c 191d a73d
000002a0: 7b78 16be 0437 a33d df62 a63d 5d8d 43be
000002b0: 2736 d33d 8f18 ad3d f9e6 dc3d 9dec 29be
000002c0: a4f0 2abe f119 453e 2718 a73d 3f20 edbe
000002d0: adad 293d d69d e53d 3a63 08be 868e 333e
000002e0: 5126 67be 8026 e4bd bc94 433d 3ffc 9dbd
000002f0: 7ad3 7dbe 4f24 13bd ab9f 0abd e2b3 5b3e
00000300: 27f0 a4bd 27b4 0e3e 7bae 0bbe 531c d53e
00000310: 8e4c cf3d 635f 3fbd d72a 913e 0e52 823b
00000320: 567e 24be ec6e 2ebe 4f1e 893e 6890 28be
00000330: d52e 123e 8ad4 7b3e 87dd 803d 16eb debd
00000340: dc3d 1d3e 1fe2 b03b 64f4 b03c ca2a 693d
00000350: 2a5e 3a3e 0e75 c43c 263d 063e a163 55be
00000360: 1864 5bbe 2c75 583e f109 25be 9544 59be
00000370: 7671 7bbd c62b 32bd 3bbd 7abe c1d7 fcbd
00000380: f2b3 043e d331 293e c633 bcbd 3e7f 8bbe
00000390: acd3 c8bd cf38 ab3c 44c0 363d 84b6 e43d
000003a0: d2ea 8dbd f868 d9bd 3411 3dbd 786a 693e
000003b0: cfea 8c3d cdb2 37be e0f6 3a3e 1915 733d
000003c0: 4e17 d3bd 0371 f4bc 7a8f 3ebe e78b 3a3e
000003d0: 03f1 833e ccbb fc3d 6006 223e 870a 5f3d
000003e0: 8b6d 013e d8fa 663d f3ed e23d 03f9 033d
000003f0: 9006 4cbe 284a 6cbd 8f59 23be 6eb3 55be

edge_encoder.2.bias f4 [16]
0.20387515 0.05442133 0.24326456 -0.007173973 0.023728207 -0.013395963 0.15797475 0.12142884
0.23778123 -0.09575262 -0.038750026 0.04370026 0.015682125 -0.2136983 0.13865356 -0.19151564
00000000: a6c4 503e e7e8 5e3d 581a 793e a613 ebbb
00000010: a861 c23c be7a 5bbc 22c4 213e afaf f83d
00000020: ec7c 733e f319 c4bd 59b8 1ebd 0bff 323d
00000030: cd77 803c bad3 5abe 33fb 0d3e ad1c 44be

edge_encoder.3.weight f4 [16]
1.0076846 1.0076419 0.9923229 0.9925487 0.9884129 1.0053179 0.9956118 1.0161049
1.0089476 1.0064968 0.971706 1.0162412 1.039957 1.0024078 0.9894955 1.0119514
00000000: cffb 803f 69fa 803f e008 7e3f ac17 7e3f
00000010: a108 7d3f 42ae 803f 6ae0 7e3f ba0f 823f
00000020: 3225 813f e3d4 803f b9c1 783f 3114 823f
00000030: 501d 853f e64e 803f 944f 7d3f a087 813f

edge_encoder.3.bias f4 [16]
0.007876638 -0.020014657 -0.0029383064 0.013718205 -0.017782731 -0.01953713 -0.009591 -0.015675087
0.00819893 -0.0042573875 -0.00621122 0.00067081896 0.016232053 -0.00071767136 -0.0073675583 -0.010501991
00000000: 040d 013c c7f5 a3bc 9a90 40bb 52c2 603c
00000010: 17ad 91bc 550c a0bc 9223 1dbc 0a69 80bc
00000020: ce54 063c 8e81 8bbb 7d87 cbbb e6d9 2f3a
00000030: 15f9 843c 1c22 3cba 8f6b f1bb 8b10 2cbc

node_model.0.weight f4 [16, 48]
0.07683862 -0.08023843 -0.045592576 -0.12176765 -0.059636906 -0.10301392 0.14375539 0.0475477
0.049103793 -0.06389569 0.12508488 0.021819804 -0.02802506 0.011299118 0.032499786 0.096281454
0.0074787885 0.035448276 0.06278588 -0.04481615 0.121799015 -0.011701368 -0.05863078 -0.10820167
-0.09751612 0.02930135 0.13084051 0.061239704 0.011493008 -0.05653347 0.011815928 0.11724434
-0.02116432 -0.10611427 -0.12952416 -0.034262177 -0.004219391 0.004293778 -0.094555266 0.068141
0.07741656 -0.06524831 -0.09210339 -0.10527797 -0.14572462 0.07837809 -0.0379224 0.09552147
0.0120551055 0.04920461 0.00033902153 -0.077739015 -0.029390637 0.07189911 0.027962202 -0.07733542
-0.06778931 0.046515886 0.123747274 -0.05736063 -0.096858285 -0.13372195 -0.14147623 -0.09677878
-0.04346371 0.035783708 0.103871085 -0.11417306 -0.09404794 0.059087116 0.015163973 -0.06607019
-0.13011916 0.024676941 -0.042798456 -0.08866802 -0.03722989 -0.042798392 0.016535144 -0.034110833
0.068827614 0.037569042 0.087836295 0.17824888 -0.122834615 0.007364316 0.03775408 0.00339583
-0.03901538 -0.080692485 0.09100903 0.099720776 -0.0976014 0.046255447 0.0986729 0.0071477517
0.099500336 0.077335194 0.008341633 -0.069128715 0.09683133 -0.014047221 0.09146326 0.012238337
0.14979519 0.043222662 -0.050334744 0.037081383 -0.023440672 -0.033058003 0.031133544 0.073042214
-0.19650672 0.040285844 -0.12879123 0.014715708 -0.026507897 -0.103234656 0.02026009 -0.04253856
0.062130995 -0.10444727 0.07225656 0.10823067 0.06604129 0.11513144 -0.09303033 0.11844124
-0.025968699 -0.058176547 0.1562702 -0.028328067 -0.0018129753 -0.041070383 0.070767336 -0.08723162
0.029579714 -0.08949041 0.05750049 -0.08880145 -0.07368032 0.09599519 -0.15599455 -0.16415375
0.04185768 0.07888314 0.010932722 -0.053901456 -0.09315882 0.1640955 -0.07782395 -0.06545565
-0.015056447 0.1305651 0.088011496 0.019587027 0.089642145 -0.010156956 -0.09419504 0.002669716
0.0068497392 0.069767945 0.078277074 0.0015420553 0.063600935 0.05767218 -0.1316298 -0.15252753
0.056585122 0.10638289 -0.1418141 0.15523972 -0.102476105 -0.05843262 0.16303617 0.0152002415
-0.050832924 0.035996106 -0.09572385 0.17044486 0.10016779 0.02396135 0.1289597 0.08383363
-0.00077671197 0.023620844 0.05151758 0.13562787 0.038350374 0.008107037 0.1251838 0.043059353
0.1177378 -0.103265956 0.011697825 -0.09414465 0.097041845 0.009843236 -0.01654756 0.034063373
0.05825416 -0.15221968 0.06937316 -0.03214414 0.14434974 0.055190507 -0.0739183 0.13656703
0.03327203 0.119287245 0.03167398 -0.025261922 0.0743465 -0.034960635 0.031760074 0.004954062
-0.06107052 0.11060347 -0.044408634 -0.06836948 -0.09962817 -0.011081887 0.0008228705 -0.13249412
0.07215179 0.06446054 0.10636047 -0.14533672 -0.09532217 -0.0912931 0.085379384 -0.095104314
0.11177893 -0.106042646 0.009553497 -0.09408421 -0.117038295 0.074333064 -0.07267887 0.108620234
0.16142294 -0.08126995 -0.106945574 0.1718052 0.066037 0.11676526 0.15491849 0.00915675
0.11038767 0.09619511 0.005802591 0.13262294 -0.066926524 -0.11999033 -0.07587397 0.1394885
00000000: 915d 9d3d 0c54 a4bd 48bf 3abd 5161 f9bd
00000010: d445 74bd f6f8 d2bd 9d34 133e 61c1 423d
00000020: 0f21 493d bedb 82bd 4016 003e 72bf b23c
00000030: d094 e5bc f01f 393c 7f1e 053d 362f c53d
00000040: a010 f53b 3632 113d e295 803d 2491 37bd
00000050: c371 f93d 18b7 3fbc d426 70bd d698 ddbd
00000060: 88b6 c7bd 6209 f03c 0efb 053e 7cd6 7a3d
00000070: 2b4d 3c3c a48f 67bd 9897 413c cd1d f03d
00000080: cc60 adbc 7052 d9bd fba1 04be 7f56 0cbd
00000090: d142 8abb d2b2 8c3b 31a6 c1bd 828d 8b3d
000000a0: 938c 9e3d e8a0 85bd b4a0 bcbd fa9b d7bd
000000b0: d638 15be b184 a03d 8554 1bbd c3a0 c33d
000000c0: c782 453c c68a 493d b3be b139 a235 9fbd
000000d0: a2c4 f0bc d73f 933d fd10 e53c 0862 9ebd
000000e0: 1fd5 8abd 7187 3e3d 366f fd3d fbf2 6abd
000000f0: a35d c6bd 68ee 08be 25df 10be f433 c6bd
00000100: 0107 32bd f091 123d 5dba d43d 91d3 e9bd
00000110: 359c c0bd 5505 723d 5072 783c cf4f 87bd
00000120: f53d 05be 4c27 ca3c 6f4d 2fbd 9497 b5bd
00000130: 5e7e 18bd 5e4d 2fbd b674 873c cdb7 0bbd
00000140: 7ef5 8c3d ffe1 193d 84e3 b33d e086 363e
00000150: b790 fbbd 5c50 f13b 06a4 1a3d 938c 5e3b
00000160: 97ce 1fbd 1a42 a5bd f162 ba3d 683a cc3d
00000170: 3ee3 c7bd 5a76 3d3d 0415 ca3d b037 ea3b
00000180: d5c6 cb3d ea61 9e3d 58ab 083c 5b93 8dbd
00000190: 814f c63d 5126 66bc 1751 bb3d 4e83 483c
000001a0: e963 193e 3f0a 313d ce2b 4ebd a6e2 173d
000001b0: a706 c0bc d467 07bd c60b ff3c 2897 953d
000001c0: 0f39 49be c502 253d d9e1 03be 271a 713c
000001d0: 1727 d9bc b16c d3bd 7df8 a53c ea3c 2ebd
000001e0: 127d 7e3d 73e8 d5bd 3ffb 933d 0ba8 dd3d
000001f0: a840 873d 08ca eb3d b086 bebd 5291 f23d
00000200: 4fbc d4bc 884a 6ebd 4c05 203e 4310 e8bc
00000210: 5ba1 edba 6b39 28bd 77ee 903d 7ea6 b2bd
00000220: 2851 f23c c046 b7bd a285 6b3d 89dd b5bd
00000230: b5e5 96bd 2099 c43d 09bd 1fbe ec17 28be
00000240: f572 2b3d 7c8d a13d 291f 333c c6c7 5cbd
00000250: 0dca bebd a708 283e 2a62 9fbd 9d0d 86bd
00000260: 51af 76bc dcb2 053e 5f3f b43d f974 a03c
00000270: 4d96 b73d 5c69 26bc 54e9 c0bd 67f6 2e3b
00000280: c773 e03b 7fe2 8e3d bb4f a03d ca1e ca3a
00000290: 3541 823d aa39 6c3d f6c9 06be 2d30 1cbe
000002a0: cdc5 673d 46df d93d b737 11be 29f7 1e3e
000002b0: fede d1bd 0b57 6fbd f4f2 263e 6f0a 793c
000002c0: 2f36 50bd a770 133d de0a c4bd 1989 2e3e
000002d0: c524 cd3d 984a c43c 030e 043e f7b0 ab3d
000002e0: 429c 4bba 8080 c13c 1904 533d 08e2 0a3e
000002f0: 4815 1d3d 61d3 043c 2f30 003e 015f 303d
00000300: 8420 f13d 1a7d d3bd 3ca8 3f3c e9ce c0bd
00000310: e0bd c63d 8645 213c c08e 87bc 0986 0b3d
00000320: ea9b 6e3d 7adf 1bbe 8413 8e3d 93a9 03bd
00000330: 6bd0 133e 710f 623d 7a62 97bd 3ad8 0b3e
00000340: 4148 083d df4c f43d 93bc 013d 17f2 cebc
00000350: fa42 983d e232 0fbd da16 023d af55 a23b
00000360: 1525 7abd 1284 e23d d4e5 35bd 4c05 8cbd
00000370: db09 ccbd ce90 35bc e8b5 573a 8aac 07be
00000380: 51c4 933d e303 843d 85d3 d93d 26d3 14be
00000390: 4538 c3bd e0f7 babd 63db ae3d 0dc6 c2bd
000003a0: 5aec e43d e32c d9bd 4586 1c3c 39af c0bd
000003b0: c6b1 efbd ef3b 983d a9d8 94bd 4974 de3d
000003c0: 0e4c 253e dc70 a6bd 4806 dbbd b4ed 2f3e
000003d0: 683e 873d a022 ef3d f4a2 1e3e 3106 163c
000003e0: ee12 e23d f101 c53d a923 be3b 4fce 073e
000003f0: c610 89bd 7dbd f5bd d063 9bbd 13d6 0e3e

node_model.0.bias f4 [16]
-0.14056088 -0.10227801 0.12069248 0.1535678 0.124186456 -0.080739215 0.090056255 -0.009405057
0.05006104 -0.1261158 -0.044361096 -0.011763219 -0.12545109 0.051709585 0.07504343 0.10346446
00000000: 31ef 0fbe 2277 d1bd 9e2d f73d e140 1d3e
00000010: 7855 fe3d 9a5a a5bd 6a6f b83d ab17 1abc
00000020: ce0c 4d3d 8024 01be fbb3 35bd 84ba 40bc
00000030: 4076 00be 6ecd 533d 5fb0 993d 2de5 d33d

node_model.2.weight f4 [16, 16]
-0.0750322 0.124259196 -0.076082185 0.19151366 -0.055826996 -0.21598509 0.1861087 0.08657774
-0.19430944 -0.11308084 -0.14317217 -0.09147526 -0.22672924 -0.18723764 -0.24803492 -0.36279285
0.2226437 -0.050979253 -0.009058517 0.24567485 -0.1810783 -0.2526082 -0.12312225 -0.17966329
-0.27363047 -0.05968405 -0.005283127 -0.087843254 0.16836458 0.16125715 -0.1440603 0.103611074
-0.25715598 0.1745959 0.27012065 0.27362627 0.17228517 -0.088863194 0.08674141 -0.12316272
-0.16104826 0.071313985 0.09451102 -0.22603886 0.14026235 0.23890099 -0.16873468 -0.06880222
0.10324647 0.009131192 -0.0027237462 0.1503918 -0.061566472 -0.038844652 -0.18822023 0.17725071
0.23130718 0.1421339 -0.23132358 -0.103132956 -0.16131693 0.095195316 0.030109784 0.14651008
0.16278313 -0.09646205 0.04099674 0.12969327 -0.043470092 0.25075606 0.053957585 -0.079451315
-0.20597886 0.19839926 -0.024243226 0.11059517 -0.15278736 -0.20313184 -0.14275388 -0.008501592
0.048745967 -0.15995349 -0.060583632 0.20907742 -0.18524785 0.23775671 0.24914208 -0.14250207
0.2148819 0.027526032 0.023777904 0.15190062 -0.24603213 -0.042942524 -0.21396725 0.17175698
-0.17708072 -0.11359514 -0.18145062 0.09263484 -0.21468292 -0.24676274 0.22047976 -0.0956542
0.09907736 0.029575152 -0.24530782 0.14628798 0.06373256 -0.045299236 -0.07234607 -0.09122084
-0.1519122 0.21074362 -0.12554199 0.046199083 0.27645782 -0.12088182 -0.20404013 0.20574301
0.1727994 -0.009609194 0.23287217 -0.0976131 0.12018924 0.019885778 -0.12542112 0.13993311
-0.12047345 -0.09983443 0.19315156 -0.17251003 -0.17847772 -0.0045746625 -0.043988038 0.24113965
0.30350998 -0.09154522 -0.21803722 0.063757926 0.03213009 0.0842551 -0.02290372 -0.10312456
-0.18156816 0.0033760653 -0.20871241 -0.12273796 0.074583076 0.23619525 -0.079975806 0.28638098
-0.21736354 -0.059489176 -0.06477003 -0.21154784 -0.01518104 -0.19500631 -0.035156757 0.28815576
0.11060804 0.056852836 -0.10731758 0.22500883 -0.16876063 0.14290592 0.017347157 0.12463962
-0.08062521 0.14414445 0.26067904 0.23363754 -0.1286362 -0.060213458 -0.26458225 -0.04756583
0.2342775 -0.17767967 0.12512983 -0.19801928 0.011153048 -0.10944164 -0.0067827697 0.3020012
0.24231794 0.22653827 0.050248113 -0.034113746 -0.10573186 0.21993756 -0.092699 -0.05050123
0.06563292 -0.021719828 0.059956294 -0.1535019 -0.21412031 0.07193374 -0.03923996 -0.15606314
0.1961048 0.27868572 0.15085933 -0.09108469 -0.18204916 0.14339043 0.23942779 -0.0026734879
-0.015868362 -0.22379051 0.112362996 -0.17812915 0.13887428 -0.023997096 -0.27215272 0.2879421
0.25148705 -0.0054157493 -0.20471244 -0.22528957 -0.040042356 -0.06724187 -0.2091889 0.021759126
-0.13252404 0.015156488 0.054195065 0.1811512 -0.19415474 0.117035925 0.034672305 -0.0729995
-0.086422674 0.018253325 0.18331651 0.046685684 0.04723228 -0.24475054 -0.29763478 -0.041324466
0.19095819 0.010660859 -0.1993223 -0.17770648 -0.22962558 -0.0717291 -0.02843802 0.11670038
-0.116554774 0.10731813 0.1339261 0.07309218 -0.035932988 -0.05396025 -0.19625492 0.19617157
00000000: 7baa 99bd 9b7b fe3d fad0 9bbd 281c 443e
00000010: d9aa 64bd 322b 5dbe 4793 3e3e ac4f b13d
00000020: 0ef9 46be ed96 e7bd ba9b 12be 6257 bbbd
00000030: b62b 68be 39bb 3fbe defc 7dbe fcbf b9be
00000040: b6fc 633e 9fcf 50bd 2d6a 14bc 3092 7b3e
00000050: 976c 39be dd55 81be 8527 fcbd a7f9 37be
00000060: 4b19 8cbe 4377 74bd 151e adbb 2ae7 b3bd
00000070: c467 2c3e 9820 253e 8b84 13be 0b32 d43d
00000080: f3a9 83be 45c9 323e 414d 8a3e be18 8c3e
00000090: 866b 303e e8fd b5bd 7ba5 b13d bc3c fcbd
000000a0: d6e9 24be 110d 923d fe8e c13d bb76 67be
000000b0: efa0 0f3e 76a2 743e c9c8 2cbe 2ee8 8cbd
000000c0: e372 d33d ff9a 153c e180 32bb 4f00 1a3e
000000d0: 202d 7cbd 921b 1fbd cebc 40be 3681 353e
000000e0: cadb 6c3e 8d8b 113e 17e0 6cbe 5f37 d3bd
000000f0: 4430 25be c3f5 c23d cba8 f63c bd06 163e
00000100: 9fb0 263e e58d c5bd 33ec 273d 50ce 043e
00000110: b20d 32bd 1963 803e a102 5d3d 5fb7 a2bd
00000120: 1fec 52be 2d29 4b3e bb99 c6bc b87f e23d
00000130: 4a74 1cbe cb01 50be 132e 12be 434a 0bbc
00000140: daa9 473d d9ca 23be 8b26 78bd 6418 563e
00000150: 9db1 3dbe 7f76 733e 1a1f 7f3e 10ec 11be
00000160: 000a 5c3e 467e e13c e1c9 c23c d68b 1b3e
00000170: d9ef 7bbe 80e4 2fbd 3b1a 5bbe 10e1 2f3e
00000180: a654 35be 92a4 e8bd 31ce 39be 56b7 bd3d
00000190: d7d5 5bbe 5faf 7cbe 72c5 613e 59e6 c3bd
000001a0: 12e9 ca3d 9747 f23c f931 7bbe 84cc 153e
000001b0: 3786 823d b18b 39bd 2d2a 94bd fed1 babd
000001c0: df8e 1bbe 2dcd 573e 148e 00be 403b 3d3d
000001d0: e18b 8d3e e390 f7bd e5ef 50be 4cae 523e
000001e0: 53f2 303e e16f 1dbc 0b76 6e3e 61e9 c7bd
000001f0: c725 f63d 80e7 a23c 656e 00be a04a 0f3e
00000200: c9ba f6bd fe75 ccbd 86c9 453e 78a6 30be
00000210: ddc2 36be 0de7 95bb cd2c 34bd 50ed 763e
00000220: a965 9b3e 0f7c bbbd 2645 5fbe 8493 823d
00000230: d79a 033d f08d ac3d 95a0 bbbc f832 d3bd
00000240: 01ed 39be fa40 5d3b b5b8 55be 0a5e fbbd
00000250: 03bf 983d 2bdd 713e 5bca a3bd 87a0 923e
00000260: 8c94 5ebe ecaa 73bd 26a6 84bd ff9f 58be
00000270: e6b9 78bc bcaf 47be 8800 10bd 2789 933e
00000280: 7886 e23d 85de 683d 52c9 dbbd b768 663e
00000290: 96cf 2cbe ee55 123e a01b 8e3c 0f43 ff3d
000002a0: d51e a5bd 9a9a 133e b977 853e ae3e 6f3e
000002b0: 35b9 03be 63a2 76bd 5377 87be 63d4 42bd
000002c0: 71e6 6f3e a9f1 35be 0922 003e 91c5 4abe
000002d0: 46bb 363c f022 e0bd ff41 debb e79f 9a3e
000002e0: 3222 783e a6f9 673e f7d0 4d3d dbba 0bbd
000002f0: f289 d8bd 5037 613e f9d8 bdbd 61da 4ebd
00000300: 8d6a 863d c8ed b1bc bb94 753d 9a2f 1dbe
00000310: 5b42 5bbe ff51 933d 15ba 20bd 04cf 1fbe
00000320: b2cf 483e e5af 8e3e de7a 1a3e 9c8a babd
00000330: 186b 3abe f1d4 123e 8f2c 753e af35 2fbb
00000340: 5efe 81bc 5729 65be 921e e63d 7d67 36be
00000350: 0f35 0e3e 8f95 c4bc 9a57 8bbe 266d 933e
00000360: e9c2 803e 9976 b1bb 23a0 51be 4fb2 66be
00000370: 7403 24bd 1bb6 89bd 9d35 56be 3240 b23c
00000380: 62b4 07be eb52 783c a5fb 5d3d b37f 393e
00000390: 80d0 46be 88b0 ef3d 8c04 0e3d c380 95bd
000003a0: 5ffe b0bd ff87 953c 53b7 3b3e 7d39 3f3d
000003b0: a376 413d e39f 7abe 9663 98be d843 29bd
000003c0: 8b8a 433e e2aa 2e3c 251b 4cbe b0f8 35be
000003d0: f822 6bbe b5e6 92bd daf6 e8bc 9c00 ef3d
000003e0: 45b4 eebd 9cc9 db3d ec23 093e 5ab1 953d
000003f0: 782e 13bd 6c05 5dbd 0df7 48be 33e1 483e

node_model.2.bias f4 [16]
0.10566933 0.23680231 -0.08546373 -0.19901462 0.070578896 -0.17050286 -0.020923084 0.17911565
-0.14880596 -0.19887415 0.15956084 -0.20191944 0.15352318 0.11576494 0.18116143 -0.0087855905
00000000: 2969 d83d 4e7c 723e 9c07 afbd 7dca 4bbe
00000010: ab8b 903d 4d98 2ebe e366 abbc 186a 373e
00000020: 9760 18be aaa5 4bbe eb63 233e f8c3 4ebe
00000030: 2e35 1d3e 2b16 ed3d 6282 393e 70f1 0fbc

node_model.3.weight f4 [16]
1.441466 1.0784849 1.1684117 1.1654593 1.131355 1.2298821 1.5376512 1.1535509
1.2557011 1.1120805 1.0031883 1.2207022 1.2037343 1.4219381 1.099834 1.0087588
00000000: f581 b83f cb0b 8a3f 848e 953f c52d 953f
00000010: 3ed0 903f c76c 9d3f c1d1 c43f 8ea7 933f
00000020: d0ba a03f a758 8e3f 7968 803f f83f 9c3f
00000030: f713 9a3f 1102 b63f 5cc7 8c3f 021f 813f

node_model.3.bias f4 [16]
-0.14929213 -0.060537335 -0.15039717 0.050660107 -0.07137959 -0.11763347 -0.14286034 0.10735671
0.2292175 0.13326225 -0.024137538 0.10280603 -0.14294672 0.12147087 -0.07837233 0.0023654213
00000000: 09e0 18be fff5 77bd b701 1abe f980 4f3d
00000010: 762f 92bd d1e9 f0bd fb49 12be d6dd db3d
00000020: feb7 6a3e e675 083e 16bc c5bc f88b d23d
00000030: a060 12be b8c5 f83d ac81 a0bd 2f05 1b3b

edge_model.0.weight f4 [16, 96]
-0.012869675 0.0024682335 0.05520449 0.057184763 0.018382397 0.07787917 -0.0732591 0.07357308
0.085897245 0.024796251 0.032554522 -0.053242847 0.03132939 0.040542927 -0.052046884 0.058252733
0.025468089 0.088316925 -0.055617195 -0.054600842 -0.04081029 0.056244805 -0.07774455 -0.06244698
0.0072923056 -0.074413195 -0.017765194 0.051487923 -0.054385282 -0.016686233 -0.008542598 0.09509908
-0.03987467 -0.021014584 -0.047393356 -0.10876186 -0.082148425 -0.0016913603 0.10474917 0.06812135
0.061552417 0.055192664 0.09200438 0.058764875 -0.025699507 0.049054585 -0.108009055 -0.05602397
-0.0034320245 -0.08795525 -0.04435303 0.00039859908 0.10477617 -0.015958173 0.012016763 -0.014929987
-0.034071326 0.036887087 -0.028338043 -0.056110512 -0.052045584 -0.030435408 -0.080397055 -0.013092532
-0.030459143 -0.06355855 -0.044741787 0.0049022473 0.1075592 -0.057140943 0.087162435 0.056402363
0.034340832 -0.03835688 -0.035727236 -0.04582656 -0.12242149 -0.029766245 0.096607484 0.015293499
-0.009132519 0.022200799 -0.071486324 0.019893838 0.009438028 -0.061780266 -0.08100213 -0.07859048
0.014406384 -0.073295906 -0.033381946 -0.059213657 -0.039764848 0.009992519 0.10912637 0.016146593
0.014365621 -0.036421273 -0.023670439 0.082605734 -0.06846893 0.08229469 0.09773806 0.007078695
-0.02715665 0.028886182 0.098473474 0.08021992 0.023654988 -0.046806082 -0.024206132 0.035291266
0.06447813 -0.013752072 -0.019543817 -0.078777514 -0.08141611 -0.006342204 -0.027239518 0.0050262613
-0.028637175 0.06451101 0.05819743 -0.043052517 -0.086606026 -0.020557273 -0.054302897 -0.08853756
-0.0033430809 -0.066616535 0.07875031 -0.04747665 -0.06015116 -0.08726608 -0.023606123 0.028264482
0.020090466 0.08493013 -0.064038664 -0.09851511 -0.07863859 -0.11620932 -0.09672595 0.023211187
0.08146487 0.04233458 -0.008141245 -0.021279443 0.017017556 0.048087355 0.018644769 0.050633922
0.02368646 0.03898597 0.092740215 0.039407663 -0.03546661 -0.09305861 0.06890203 0.078800365
-0.0074253655 -0.09553256 -0.09081071 -0.030790597 -0.040337317 0.01616562 -0.059913177 0.024454193
-0.07241938 -0.08893735 0.06486978 -0.09322879 -0.08684224 0.06589198 0.07054235 0.10792772
-0.0790478 0.06663551 -0.09742182 0.08717716 0.08275522 0.028221969 0.02854958 0.02149396
-0.07565908 0.01811762 -0.014347572 0.009424425 0.0288218 -0.08855088 0.066833 0.054117158
0.082808696 0.05511441 -0.034186535 -0.025657851 -0.008747062 0.033144437 0.10956555 0.057042006
0.02596863 -0.050922588 0.04318304 0.025439538 0.013135306 -0.083533846 -0.019235227 0.066225916
-0.110108964 -0.083256945 -0.0815302 0.10050781 -0.0057217306 0.0057376116 -0.097423375 -0.05067355
-0.018188749 -0.064725555 -0.1126912 -0.08425106 0.030909391 -0.0449732 0.026887702 -0.009463124
0.021749485 0.050006647 -0.031864755 0.04722081 0.06773031 -0.002251196 -0.045407392 -0.07890924
-0.06718414 0.03195534 -0.07207636 0.02977494 0.02662806 -0.10372269 0.003349555 0.013052039
0.049763277 0.047942135 -0.041951247 -0.060169704 0.0003890589 0.053638548 -0.08203431 -0.10011029
0.020315858 0.008648661 0.02354875 0.016896123 0.042854756 -0.0040878863 0.048021063 0.08193146
00000000: 54db 52bc 16c2 213b 1a1e 623d 923a 6a3d
00000010: ae96 963c 1d7f 9f3d de08 96bd 7cad 963d
00000020: e5ea af3d 8221 cb3c e457 053d 2c15 5abd
00000030: 3f53 003d 5710 263d 1d2f 55bd 6b9a 6e3d
00000040: 74a2 d03c 81df b43d dbce 63bd 22a5 5fbd
00000050: b128 27bd f460 663d 8938 9fbd 68c8 7fbd
00000060: 4bf4 ee3b f265 98bd 5088 91bc 00e5 523d
00000070: 1ac3 5ebd 91b1 88bc 41f6 0bbc 4ec3 c23d
00000080: 9f53 23bd c726 acbc 891f 42bd 8abe debd
00000090: 6f3d a8bd a2b0 ddba bc86 d63d 3583 8b3d
000000a0: 631e 7c3d b411 623d cb6c bc3d 70b3 703d
000000b0: c687 d2bc 76ed 483d da33 ddbd 6479 65bd
000000c0: d1eb 60bb e221 b4bd 86ab 35bd 10fb d039
000000d0: e394 d63d b7ba 82bc f5e1 443c e79c 74bc
000000e0: 608e 0bbd ea16 173d 2f25 e8bc 23d4 65bd
000000f0: c02d 55bd ad53 f9bc 36a7 a4bd 0f82 56bc
00000100: 7485 f9bc fc2a 82bd 2a43 37bd 08a3 a03b
00000110: ff47 dc3d 9f0c 6abd 3882 b23d 2a06 673d
00000120: f9a8 0c3d 1b1c 1dbd b956 12bd a2b4 3bbd
00000130: 1eb8 fabd 57d8 f3bc 25da c53d 9691 7a3c
00000140: 90a0 15bc 73de b53c 6c67 92bd 67f8 a23c
00000150: f5a1 1a3c 4e0d 7dbd 72e4 a5bd 0cf4 a0bd
00000160: c108 6c3c 2a1c 96bd 82bb 08bd 058a 72bd
00000170: 77e0 22bd aab7 233c a57d df3d dc45 843c
00000180: c85d 6b3c 792e 15bd 82e8 c1bc 322d a93d
00000190: 7039 8cbd 1e8a a83d e42a c83d 66f4 e73b
000001a0: 9f77 debc b7a2 ec3c 76ac c93d 574a a43d
000001b0: 1bc8 c13c bcb7 3fbd f04b c6bc 938d 103d
000001c0: 1c0d 843d 5f50 61bc 5b1a a0bc 1b56 a1bd
000001d0: 7dbd a6bd 43d2 cfbb 6925 dfbc 56b3 a43b
000001e0: 8298 eabc 591e 843d 6e60 6e3d d657 30bd
000001f0: 805e b1bd ba67 a8bc b76c 5ebd 2e53 b5bd
00000200: 9717 5bbb 406e 88bd d847 a13d e076 42bd
00000210: 1061 76bd 8fb8 b2bd a161 c1bc ea8a e73c
00000220: c394 a43c d9ef ad3d b426 83bd 4ac2 c9bd
00000230: 450d a1bd 27ff edbd 4118 c6bd 6325 be3c
00000240: 0ed7 a63d 0667 2d3d db62 05bc 3a52 aebc
00000250: 6768 8b3c 3ff7 443d eabc 983c 8465 4f3d
00000260: 1b0a c23c c1af 1f3d 95ee bd3d ee69 213d
00000270: 7045 11bd 8395 bebd 821c 8d3d 1662 a13d
00000280: 7b50 f3bb 93a6 c3bd f7fa b9bd 903c fcbc
00000290: be38 25bd c36d 843c 8567 75bd 2954 c83c
000002a0: 9d50 94bd c924 b6bd 72da 843d bcee bebd
000002b0: 58da b1bd 60f2 863d 8278 903d 3509 dd3d
000002c0: d0e3 a1bd 3378 883d 1785 c7bd f089 b23d
000002d0: 927b a93d c231 e73c cfe0 e93c 1a14 b03c
000002e0: 26f3 9abd 676b 943c 1412 6bbc e768 1a3c
000002f0: b21b ec3c 2a5a b5bd bddf 883d f4a9 5d3d
00000300: 9b97 a93d a6bf 613d 2e07 0cbd 6a30 d2bc
00000310: d64f 0fbc 76c2 073d e763 e03d e1a4 693d
00000320: 2abc d43c 3494 50bd b3e0 303d 9466 d03c
00000330: 7735 573c cb13 abbd 3293 9dbc 74a1 873d
00000340: cf80 e1bd 9e82 aabd 4ef9 a6bd 0ad7 cd3d
00000350: 5b7d bbbb 9302 bc3b e885 c7bd 128f 4fbd
00000360: 9200 95bc d58e 84bd a5ca e6bd d28b acbd
00000370: b135 fd3c d135 38bd 9943 dc3c 380b 1bbc
00000380: fa2b b23c c5d3 4c3d 9e84 02bd 9c6a 413d
00000390: 30b6 8a3d cd88 13bb 1afd 39bd 2b9b a1bd
000003a0: d797 89bd 9ae3 023d c59c 93bd 93ea f33c
000003b0: 1723 da3c 906c d4bd 3584 5b3b 38d8 553c
000003c0: 94d4 4b3d f95e 443d 12d5 2bbd 8274 76bd
000003d0: 9afa cb39 18b4 5b3d 9b01 a8bd a006 cdbd
000003e0: 716d a63c 1db3 0d3c 4fe9 c03c bd69 8a3c
000003f0: 7888 2f3d adf3 85bb bcb1 443d aecb a73d

edge_model.0.bias f4 [16]
0.07819912 -0.09547874 0.0353987 0.041670468 -0.073988646 0.029677944 -0.0036471894 -0.055335257
0.045465853 0.071691975 0.0608945 -0.10581427 -0.034930278 -0.054937314 -0.09672343 -0.11152711
00000000: dc26 a03d 5c8a c3bd 3afe 103d a7ae 2a3d
00000010: 5c87 97bd 291f f33c af05 6fbb 39a7 62bd
00000020: 673a 3a3d 3ed3 923d 836c 793d 27b5 d8bd
00000030: 0d13 0fbd f305 61bd ef16 c6bd 5368 e4bd

edge_model.2.weight f4 [16, 16]
-0.25004485 -0.15633476 -0.020537699 0.045097258 -0.22619727 0.06991209 0.13012221 -0.15592065
0.27179933 0.011415483 0.20860046 0.16121028 -0.17145845 -0.04147404 0.03609079 -0.01439516
0.19529507 -0.04596421 0.20684323 0.0522144 0.09219995 0.069441706 0.2015248 -0.16504978
-0.13101505 0.0034655626 -0.08577723 -0.103902966 0.07128984 0.041100465 0.08672324 -0.064583294
-0.005294937 -0.063317806 -0.14967045 -0.097313195 0.06545237 0.17365205 0.24292049 0.03520758
-0.19396621 0.18340507 0.012332059 -0.055577304 -0.059480704 0.211917 -0.12980026 0.017640488
-0.019790769 0.057337597 -0.15797631 -0.21010603 0.06581825 -0.23502915 0.047339406 0.113316484
-0.20185195 0.16220863 0.05199362 0.19968204 -0.1844291 0.036827873 -0.053750396 0.033903744
0.037081186 -0.12382562 0.0031727091 -0.058661416 0.24219891 0.16493684 0.20531248 -0.111284435
-0.028252073 0.02237397 0.17692116 0.1861563 0.036356583 0.10910273 0.09701416 -0.037555054
-0.10739928 0.13200821 -0.01695985 0.109736525 -0.023878098 0.11832705 0.20522985 0.013302252
0.21374308 -0.11861217 0.17262737 0.10784897 -0.20968547 -0.15040067 -0.07295334 -0.2243947
0.101197444 0.06270611 0.208969 0.014495177 0.22529405 -0.17474115 -0.10673326 0.1853054
0.24972507 -0.18836167 -0.025284123 0.06219106 -0.18104045 -0.064329505 0.051494777 -0.21769321
0.17651565 0.017691419 0.06296784 -0.1436093 -0.12613112 0.107586205 0.06362531 0.048950937
0.026009684 0.15779182 -0.20751657 -0.14745952 -0.046974126 0.110138215 -0.104551405 -0.20123291
0.2464799 -0.21652512 -0.005211432 0.15438586 0.008288592 0.09264942 0.16332994 -0.061564103
-0.006756534 -0.0447487 0.011859313 -0.13829845 -0.08663918 0.203821 0.07981005 -0.19801223
-0.25383273 -0.18868077 0.23532775 0.1936446 -0.011723787 0.18593852 -0.037057932 0.05408639
-0.1866938 0.21420276 -0.107971326 -0.015912699 0.0648046 0.21477276 0.035078496 0.04517333
0.009233691 0.15695547 -0.16857392 -0.09714441 -0.008150518 -0.006657338 0.0671621 0.012524637
-0.14864735 0.32216838 0.22239237 -0.16137215 0.16912772 -0.009038016 -0.095980704 -0.15623346
-0.055061396 0.1682996 0.15765809 0.018673448 -0.10806003 0.17042227 -0.19424792 0.055464085
-0.17624316 0.1277176 0.23526445 0.0583231 -0.08485469 0.06562106 0.038672954 -0.0060038753
-0.054352265 -0.008844748 0.2442767 -0.04465145 0.1329174 0.20730475 0.0062481696 -0.16848034
-0.24059579 0.28139994 -0.16563274 0.062744804 -0.23104405 -0.12664193 -0.20478481 0.031759556
-0.09148193 0.09332314 0.103414886 -0.12542762 -0.12145862 -0.050045066 0.13078967 0.16945921
0.13484372 0.25448656 -0.10527767 -0.22683537 -0.12709178 -0.015698722 -0.12592751 0.25847867
-0.26019704 -0.24384716 0.15564784 -0.051230066 -0.20728844 -0.17718413 -0.22978283 -0.0026488097
0.04395203 -0.0148407845 -0.049159564 -0.16350926 0.13301222 0.088966586 0.029517055 -0.09701118
0.10834068 0.07402859 0.067621596 -0.12271014 -0.1350326 -0.07515655 -0.098446704 -0.3135412
-0.2813635 0.17257698 0.022073772 -0.1280538 -0.10622225 0.05947783 0.12596253 0.100280695
00000000: e105 80be 3816 20be ad3e a8bc e7b7 383d
00000010: 42a0 67be 122e 8f3d c23e 053e aaa9 1fbe
00000020: 4829 8b3e 0208 3b3c 5c9b 553e 4f14 253e
00000030: ce92 2fbe afe0 29bd f0d3 133d add9 6bbc
00000040: 6efb 473e f844 3cbd b6ce 533e c4de 553d
00000050: 54d3 bc3d 7437 8e3d 845c 4e3e cf02 29be
00000060: cf28 06be 7e1e 633b f9ab afbd 14cb d4bd
00000070: 6800 923d f658 283d f49b b13d 3f44 84bd
00000080: 2781 adbb c4ac 81bd 3643 19be 244c c7bd
00000090: e40b 863d d8d1 313e 26c0 783e d335 103d
000000a0: 149f 46be 8ace 3b3e 680c 4a3c 07a5 63bd
000000b0: 0aa2 73bd c500 593e 5cea 04be c982 903c
000000c0: 4020 a2bc d4da 6a3d 8bc4 21be 0926 57be
000000d0: b8cb 863d 7bab 70be f7e6 413d 7912 e83d
000000e0: 47b2 4ebe 051a 263e 43f7 543d 7379 4c3e
000000f0: fbda 3cbe d3d8 163d 6029 5cbd a7de 0a3d
00000100: 71e2 173d 4998 fdbd 3aed 4f3b f446 70bd
00000110: fe02 783e 34e5 283e 6f3d 523e 18e9 e3bd
00000120: e470 e7bc 9e49 b73c d22a 353e c29f 3e3e
00000130: a4ea 143d 4171 df3d 5caf c63d 54d3 19bd
00000140: 27f4 dbbd 292d 073e 62ef 8abc 8bbd e03d
00000150: 009c c3bc 7455 f23d c627 523e b0f1 593c
00000160: 77df 5a3e f0ea f2bd 3bc5 303e ecdf dc3d
00000170: cab7 56be a202 1abe 9068 95bd b9c7 65be
00000180: 9b40 cf3d 106c 803d f8fb 553e 2e7d 6d3c
00000190: 7cb3 663e 58ef 32be f896 dabd b3c0 3d3e
000001a0: eeb7 7f3e e2e1 40be a620 cfbc 0ebc 7e3d
000001b0: ab62 39be 30bf 83bd 30ec 523d f8ea 5ebe
000001c0: 85c0 343e 98ed 903c 48f5 803d 510e 13be
000001d0: 8428 01be 2856 dc3d fd4d 823d c780 483d
000001e0: 4312 d53c 2e94 213e 397f 54be a1ff 16be
000001f0: f167 40bd 2590 e13d 0c1f d6bd 0010 4ebe
00000200: 3a65 7c3e c3b8 5dbe a9c4 aabb 5417 1e3e
00000210: e0cc 073c fbbe bd3d f73f 273e a42a 7cbd
00000220: ea65 ddbb 6a4a 37bd 904d 423c 1c9e 0dbe
00000230: e26f b1bd 74b6 503e 7473 a33d b8c3 4abe
00000240: 5df6 81be 8835 41be c2f9 703e c54a 463e
00000250: 2015 40bc ab66 3e3e 0fca 17bd b189 5d3d
00000260: a92c 3fbe f857 5b3e 1220 ddbd 595b 82bc
00000270: 46b8 843d 64ed 5b3e 78ae 0f3d ab07 393d
00000280: e848 173c efb8 203e a49e 2cbe a6f3 c6bd
00000290: c089 05bc cc25 dabb 488c 893d 2334 4d3c
000002a0: 0337 18be 41f3 a43e d3ba 633e be3e 25be
000002b0: d12f 2d3e 3014 14bc 8891 c4bd aafb 1fbe
000002c0: 0f88 61bd bb56 2c3e 1f71 213e 0ff9 983c
000002d0: 944e ddbd 2d83 2e3e ede8 46be 4f2e 633d
000002e0: 1679 34be 67c8 023e 2ae9 703e 34e4 6e3d
000002f0: 4cc8 adbd 5664 863d 8867 1e3d 28bc c4bb
00000300: 7ba0 5ebd 90e9 10bc ac23 7a3e 70e4 36bd
00000310: 801b 083e b247 543e 72bd cc3b 1c86 2cbe
00000320: be5e 76be a713 903e a19b 29be 5980 803d
00000330: d096 6cbe 6cae 01be 1cb3 51be 4f16 023d
00000340: e15a bbbd 3420 bf3d 2fcb d33d 1970 00be
00000350: 4cbf f8bd 0efc 4cbd baed 053e b786 2d3e
00000360: 7914 0a3e 104c 823e d29b d7bd 8847 68be
00000370: 5924 02be 9b9a 80bc 24f3 00be 5157 843e
00000380: 8c38 85be 12b3 79be 2662 1f3e 9ed6 51bd
00000390: 6c43 54be c26f 35be 314c 6bbe a797 2dbb
000003a0: 0b07 343d c326 73bc 8a5b 49bd f96e 27be
000003b0: 5b34 083e 1d34 b63d c0cd f13c ccad c6bd
000003c0: b8e1 dd3d 4d9c 973d 317d 8a3d 744f fbbd
000003d0: fc45 0abe adeb 99bd 6d9e c9bd 7988 a0be
000003e0: e00e 90be 05b8 303e 0ed4 b43c 8920 03be
000003f0: 0d8b d9bd 069f 733d 52fc 003e f75f cd3d

edge_model.2.bias f4 [16]
-0.15445606 -0.029219385 0.07641066 0.16406636 -0.20991068 -0.11974484 0.08021893 0.17467742
0.000985433 -0.1872755 0.070225626 0.11947149 -0.069464564 0.07090007 -0.04116723 -0.057866763
00000000: bb29 1ebe 7e5d efbc 317d 9c3d 0301 283e
00000010: d3f2 56be c83c f5bd d349 a43d a3de 323e
00000020: a529 813a 26c5 3fbe 74d2 8f3d 78ad f43d
00000030: 7043 8ebd 0e34 913d f89e 28bd b305 6dbd

edge_model.3.weight f4 [16]
1.0204135 1.0133997 0.989212 1.0296216 0.9895153 1.0108047 1.0116373 0.9832769
1.033893 1.0476876 1.0060215 1.0072743 1.0105639 1.0504816 1.0181797 1.0164466
00000000: e99c 823f 15b7 813f ff3c 7d3f a4ca 833f
00000010: e050 7d3f 0c62 813f 557d 813f 09b8 7b3f
00000020: 9b56 843f a11a 863f 50c5 803f 5dee 803f
00000030: 285a 813f 2e76 863f b653 823f ec1a 823f

edge_model.3.bias f4 [16]
-0.004033984 -0.007847052 -0.0014328108 -0.024401406 0.011448126 -0.033742003 -0.01779701 -0.022489838
0.02415208 -0.0033781428 0.021308644 0.0036038584 0.018247074 -0.020500086 -0.020344729 -0.011841798
00000000: 832f 84bb ec90 00bc 27cd bbba 75e5 c7bc
00000010: ec90 3b3c 0e35 0abd 09cb 91bc 9c3c b8bc
00000020: 95da c53c d563 5dbb 778f ae3c b62e 6c3b
00000030: e37a 953c ccef a7bc fda9 a6bc 1a04 42bc

node_decoder.0.weight f4 [1, 16]
-0.55884945 -0.16252926 -0.11347128 0.2505309 -0.20160924 -0.28580672 -0.63242406 0.37575027
0.30868596 0.35167772 -0.06793426 0.37556624 -0.2310217 0.555408 -0.14751534 0.08771579
00000000: c210 0fbf 126e 26be a163 e8bd 9645 803e
00000010: a772 4ebe 4255 92be 8be6 21bf 5762 c03e
00000020: 160c 9e3e 1a0f b43e 1e21 8bbd 384a c03e
00000030: f490 6cbe 382f 0e3f 430e 17be 56a4 b33d
