tmp/tmp8model900.pt (torch, 23679 bytes, 25 tensors)

node_encoder.0.weight f4 [16, 5]
0	0x3de8cbd4	0.11367002
1	0x3eafced5	0.34337488
2	0x3ed92ddf	0.4241781
3	0xbe3a5b48	-0.18198884
4	0x3d3e2cab	0.046429317
5	0x3e121f29	0.14269699
6	0x3ebdb448	0.37051606
7	0xbede857d	-0.43461218
8	0x3d8fb4e8	0.07016927
9	0xbead3136	-0.33826607
10	0x3ebed3c4	0.3727094
11	0x3e159322	0.14606908
12	0xbe82e6c0	-0.25566673
13	0xbeb1a20c	-0.34693944
14	0xbee15236	-0.44008034
15	0x3eb27e60	0.3486204
16	0x3e8de0b6	0.27710503
17	0xbe46f6a8	-0.1943003
18	0xbce847c0	-0.028354526
19	0xbe979d48	-0.29612184
20	0xbe922600	-0.28544617
21	0x3c91f8d2	0.017818842
22	0xbeb40e33	-0.35167083
23	0x3da6f5e8	0.08152372
24	0x3e88dde9	0.26731804
25	0xbebddc8d	-0.3708233
26	0xbdf1ff18	-0.118162334
27	0xbcaf3090	-0.021385461
28	0x3dfdeaa8	0.12398273
29	0xbd3e6fd0	-0.04649335
30	0xbec091c0	-0.37611198
31	0xbe24faba	-0.1611127
32	0xbee3812a	-0.44434482
33	0xbd8ba624	-0.06818798
34	0xbe30d238	-0.17267692
35	0x3ebd6bfe	0.36996454
36	0xbdaffff4	-0.08593741
37	0x3e6d2268	0.23157656
38	0xbedefcbc	-0.43552196
39	0xbdfee151	-0.124453194
40	0x3e9517cb	0.29119715
41	0x3e90fd0f	0.28318068
42	0x3da5931d	0.080847
43	0xbe8e5a7a	-0.27803403
44	0x3e11131e	0.14167449
45	0x3eeb2580	0.45927048
46	0xbcc34f9f	-0.023841677
47	0x3e6ac512	0.22926739
48	0xbe9b134c	-0.3028816
49	0x3e639aa6	0.22226962
50	0x3d0ec756	0.03485807
51	0x3ecc05bf	0.39848134
52	0x3e4d74ac	0.20064038
53	0x3ed83e54	0.42235053
54	0xbdd67c75	-0.10472957
55	0x3ca12bd8	0.019674227
56	0xbd423f30	-0.04742354
57	0xbd2e1454	-0.042499855
58	0xbeb91373	-0.3614765
59	0xbe8ecdaf	-0.278913
60	0xbe046ede	-0.12932917
61	0xbe9dcf4a	-0.30822212
62	0xbed6a478	-0.41922355
63	0xbe5b7087	-0.21429645
64	0x3cbaa900	0.022785664
65	0xbee0460a	-0.43803436
66	0x3da817db	0.08207675
67	0x3ee28ac4	0.44246495
68	0xbe183860	-0.14865255
69	0xbe9026c0	-0.28154564
70	0x3e9b5b27	0.3034298
71	0x3c41344b	0.011792253
72	0x3e199bdf	0.15000866
73	0xbea6f273	-0.3260685
74	0xbeb16db2	-0.34654003
75	0xbd639555	-0.055562336
76	0xbecfd9df	-0.4059591
77	0xbd3f7118	-0.046738714
78	0xbdcb14b8	-0.09916061
79	0x3e297bce	0.16551134

node_encoder.0.bias f4 [16]
0	0x3dd08484	0.10181525
1	0xbeb6f550	-0.35734034
2	0x3ce77e75	0.028258542
3	0xbe1d919a	-0.15387574
4	0x3e21d434	0.15803605
5	0x3ea36194	0.31910384
6	0xbe8c173f	-0.27361485
7	0xbdc3b45d	-0.09555886
8	0x3d863332	0.065527335
9	0x3eb2d825	0.3493053
10	0xbe47a13c	-0.194951
11	0x3ee26df8	0.44224524
12	0xbec00344	-0.3750249
13	0x3eb9b0ef	0.36267802
14	0xbbbc2e68	-0.0057428367
15	0x3ee8704d	0.4539818

node_encoder.2.weight f4 [16, 16]
0	0x3e80bc9e	0.25143903
1	0xbd617118	-0.055039495
2	0xbd871a6f	-0.06596839
3	0x3e3d7d61	0.1850486
4	0xbdf50e48	-0.119656146
5	0x3c5b3540	0.013379395
6	0x3c570260	0.013123125
7	0xbe2c41cd	-0.16821976
8	0xbe231ff9	-0.15930165
9	0x3e550e05	0.2080613
10	0x3d96aac8	0.07356793
11	0x3d21d67f	0.0395112
12	0xbdfcfcc8	-0.12352902
13	0xbe80fd9f	-0.25193498
14	0x3dfa8288	0.12231928
15	0xbe17f026	-0.14837703
16	0xbe2e0d74	-0.1699732
17	0xbc199bee	-0.009375555
18	0x3d3fc999	0.046823118
19	0xbcce24dd	-0.025164062
20	0x3c386c60	0.011256307
21	0x3e5d60c4	0.21618944
22	0x3e5db9ae	0.21652862
23	0x3e303eda	0.17211476
24	0x3be1f6a7	0.0068958583
25	0x3e5689e3	0.20951037
26	0xbd71fa4e	-0.0590766
27	0x3e5fbd56	0.2184957
28	0x3dd59a14	0.10429779
29	0xbdd05945	-0.10173277
30	0x3d05e033	0.032684516
31	0x3e30c5e7	0.17262994
32	0xbe0af0f8	-0.13568485
33	0xbd4d4256	-0.05011209
34	0xbd97fc67	-0.07421189
35	0x3d57e5e0	0.05270946
36	0xbe016285	-0.12635238
37	0xbd228248	-0.039675027
38	0xbc9a2270	-0.01881525
39	0xbc823095	-0.015892306
40	0x3caac050	0.020843655
41	0xbdd614ee	-0.10453211
42	0x3d243efc	0.04009913
43	0xbe8501b4	-0.25977862
44	0xbd892260	-0.0669601
45	0x3e3ea923	0.18619208
46	0x3c472218	0.012154125
47	0xbd4c328c	-0.049852893
48	0xbc77a553	-0.0151151
49	0xbe6175a7	-0.22017537
50	0xbc8fc6c8	-0.017550841
51	0x3e25ecc4	0.162036
52	0x3d9ed22b	0.0775493
53	0xbe5498c0	-0.20761395
54	0xbdc74d5c	-0.09731552
55	0xbd93bec0	-0.07214117
56	0x3e3fe419	0.18739356
57	0xbdac9390	-0.08426583
58	0x3e130816	0.14358553
59	0xbdda93e0	-0.10672736
60	0xbb0a1f00	-0.0021075606
61	0xbe518982	-0.20462611
62	0xbc3141be	-0.010818897
63	0xbe8ea08a	-0.27856857
64	0x3e0b9230	0.13629985
65	0xbe84c518	-0.2593162
66	0xbe666b9c	-0.22501987
67	0x3d8778c7	0.06614833
68	0xbd68e593	-0.056859564
69	0x3e2b992c	0.16757649
70	0x3e1c9598	0.1529144
71	0x3c6d9f25	0.014503275
72	0xbd8d3400	-0.06894684
73	0x3e27baa7	0.16379796
74	0x3d996ae2	0.074910894
75	0x3e4fe392	0.20301655
76	0x3d970c74	0.07375422
77	0xbe49c105	-0.19702537
78	0xbe581077	-0.21100031
79	0x3c6fc3e1	0.0146341035
80	0xbc85f9b6	-0.016354423
81	0x3e38bf8e	0.18041822
82	0xbe26095a	-0.16214505
83	0x3dcb7ee2	0.0993631
84	0x3e06ea7b	0.13175385
85	0x3e15b6c2	0.14620498
86	0x3d994c80	0.07485294
87	0xbdefdcec	-0.117120594
88	0x3e6e3c10	0.232651
89	0x3d74b35e	0.05974137
90	0xbc87cd66	-0.016577434
91	0x3e3adc87	0.18248187
92	0x3a3faa00	0.0007311404
93	0xbbae46bf	-0.005318492
94	0xbc493017	-0.012279532
95	0x3e2befc4	0.16790682
96	0xbd1fb8b8	-0.03899452
97	0x3e548c77	0.20756708
98	0x3db0c672	0.086316004
99	0x3e1a10e1	0.15045501
100	0xbe50c97b	-0.20389359
101	0x3e0872c4	0.1332503
102	0x3e412f8e	0.18865797
103	0xbbcb7bd8	-0.0062098317
104	0x3c859146	0.016304623
105	0xbd366600	-0.04453087
106	0xbdb825d5	-0.08991591
107	0xbe17563f	-0.14778994
108	0x3e542ce0	0.20720243
109	0xbe1ec3a4	-0.15504318
110	0xbe491883	-0.19638257
111	0xbe15352f	-0.14571069
112	0x3d15280a	0.036415137
113	0x3e36a3eb	0.17835967
114	0xbe6ab6f4	-0.22921354
115	0xbd3f14bf	-0.046650644
116	0x3cebf0b2	0.028801296
117	0x3cf4b330	0.0298706
118	0xbe30ecda	-0.17277852
119	0xbe5949fa	-0.21219626
120	0xbe32a33b	-0.1744508
121	0x3e8268f4	0.25470698
122	0xbe14ca03	-0.14530186
123	0x3e346cb4	0.17619592
124	0xbc1cc820	-0.009569198
125	0x3e30958f	0.17244552
126	0xbe3f4742	-0.18679526
127	0x3e209c1d	0.15684552
128	0xbdb226aa	-0.08698781
129	0xbcf99bf1	-0.030469866
130	0xbe146dcb	-0.14495008
131	0x3db1494e	0.0865656
132	0xbe34ce3f	-0.17656802
133	0xbe349d3c	-0.17638105
134	0x3daecd0c	0.08535203
135	0xbde70c06	-0.1128159
136	0x3d2b376d	0.041800905
137	0x3e0fc53e	0.14040086
138	0x3e622c0c	0.22087115
139	0x3e70001d	0.23437543
140	0x3e23d6c6	0.15999898
141	0xbb918c48	-0.0044417717
142	0x3e4bf7ac	0.19918698
143	0x3e1e218e	0.15442488
144	0x3cba3720	0.022731364
145	0x3c7c3d34	0.015395451
146	0x3d9eba9d	0.077504374
147	0xbd84f66a	-0.06492312
148	0xbd26e04f	-0.04074126
149	0x3e28e738	0.16494453
150	0xbe56ee9c	-0.2098946
151	0x3d796291	0.060885016
152	0xbde18097	-0.11010855
153	0x3e1de0a2	0.15417722
154	0x3e8278aa	0.25482684
155	0x3e760149	0.24023928
156	0xbe6d546e	-0.23176739
157	0xbe149111	-0.14508463
158	0xbdf8512d	-0.12124858
159	0xbea0c59d	-0.31400767
160	0xbdf4a835	-0.119461454
161	0x3b9e9fbc	0.004840819
162	0xbe7384b0	-0.23781085
163	0xbdc37e80	-0.09545612
164	0xbdb5ef75	-0.088835634
165	0xbe582916	-0.21109423
166	0x3d16bfd0	0.03680402
167	0xbe191c0f	-0.1495211
168	0x3dde6625	0.10859326
169	0xbdb442fd	-0.088018395
170	0x3e65a9f7	0.22428118
171	0x3d6d112f	0.057877716
172	0xbe4dcb56	-0.20097098
173	0x3e62671c	0.22109646
174	0x3d417ba7	0.047237065
175	0xbe515b27	-0.20444928
176	0xbd89ff35	-0.0673813
177	0xbc23b52b	-0.009991924
178	0x3e5384a7	0.20656072
179	0xbcb033d0	-0.021509081
180	0x3c1f39cd	0.009718371
181	0xbe355dd6	-0.17711577
182	0x3dceba90	0.10094178
183	0x3da44bf3	0.08022299
184	0xbd9a6c85	-0.0754023
185	0xbc8bc56f	-0.017061917
186	0x3c3b48a9	0.011430898
187	0x3e075160	0.13214636
188	0x3cc6df10	0.024276286
189	0x3e4db1ad	0.20087309
190	0x3e37bbbb	0.17942707
191	0x3e8dcb97	0.2769439
192	0xbdfd86f9	-0.123792596
193	0xbe21bc41	-0.1579447
194	0xbdf08923	-0.11744907
195	0xbe4951f9	-0.19660176
196	0x3d7cca30	0.06171626
197	0xbe4c62be	-0.19959542
198	0xbe08cf5c	-0.13360351
199	0x3d958b86	0.073020026
200	0xbd639d49	-0.05556992
201	0xbe658b13	-0.22416334
202	0x3db75d62	0.08953358
203	0xbd0c4371	-0.034244005
204	0x3dc7ffb0	0.097655654
205	0x3cdfeabd	0.027333612
206	0xbd83eae7	-0.064412884
207	0x3e814cb8	0.25253844
208	0x3e33ddde	0.17565104
209	0xbd87c740	-0.06629801
210	0x3e428806	0.18997201
211	0xbe26e611	-0.16298701
212	0xbc126428	-0.008935012
213	0x3c89fd40	0.016844392
214	0xbdc98aa4	-0.09840897
215	0x3d496bf1	0.049175207
216	0xbe3bd9d0	-0.18344808
217	0x3dc62a44	0.0967603
218	0xbd4c759b	-0.049916845
219	0x3d41a6ad	0.047278095
220	0xbd5eebc0	-0.054424047
221	0x3e8093dc	0.25112808
222	0x3af49799	0.0018660902
223	0x3d9fe3ea	0.07807143
224	0xbe09b076	-0.13446221
225	0x3d0fb1ea	0.03508178
226	0x3e326e2b	0.17424838
227	0x3e3aee1a	0.18254891
228	0xbe58bc20	-0.21165514
229	0xbd39d3f8	-0.045368165
230	0x3e5f49ca	0.21805492
231	0x3e6a48b8	0.22879303
232	0xbe3a8161	-0.18213417
233	0x3dcfdacc	0.10149154
234	0xbe1d93a1	-0.15388347
235	0xbe8554ef	-0.26041362
236	0x3dfcb0f8	0.123384416
237	0xbe04b6c9	-0.12960352
238	0x3d948b13	0.07253089
239	0xbdbf7e8c	-0.09350309
240	0x3cf09995	0.029370109
241	0x3dbf436d	0.09339032
242	0xbe001506	-0.1250802
243	0x39aa99e6	0.0003253959
244	0x3dd5278e	0.10407935
245	0xbd987c3c	-0.07445571
246	0xbe78d834	-0.24301225
247	0xbe4f3707	-0.20235835
248	0x3e69cfae	0.2283313
249	0xbd403916	-0.04692944
250	0x3d404a89	0.046946082
251	0xbe5bce80	-0.21465492
252	0xbcc78210	-0.02435401
253	0xbdd45389	-0.103674956
254	0x3e58f3e9	0.21186794
255	0xbe196504	-0.1497994

node_encoder.2.bias f4 [16]
0	0xbe0e6161	-0.13904335
1	0xbdeb89dc	-0.11500904
2	0x3e410793	0.18850546
3	0x3e496633	0.19667892
4	0xbd4194ac	-0.047260925
5	0x3e12a0b5	0.14319117
6	0xbc906eb5	-0.017630914
7	0xbe1c82a5	-0.15284212
8	0x3e28703a	0.16449061
9	0x3e81ee4a	0.25377113
10	0xbe6a0797	-0.22854458
11	0x3c41cae3	0.011828157
12	0xbe61016b	-0.21973197
13	0x3dcbe536	0.09955828
14	0x3e2a6bf4	0.16642743
15	0xbe18d31f	-0.14924286

node_encoder.3.weight f4 [16]
0	0x3f7d3059	0.989019
1	0x3f864cb2	1.0492156
2	0x3f7de61d	0.9917925
3	0x3f7d971e	0.9905871
4	0x3f795a35	0.9740327
5	0x3f817882	1.0114901
6	0x3f820a3b	1.0159372
7	0x3f81321c	1.0093417
8	0x3f7cb8e8	0.98719645
9	0x3f846320	1.034275
10	0x3f80fe37	1.007758
11	0x3f8471fc	1.0347285
12	0x3f7dce97	0.99143356
13	0x3f815db3	1.010672
14	0x3f7d5101	0.9895173
15	0x3f7d6939	0.9898868

node_encoder.3.bias f4 [16]
0	0x3d200b68	0.039073378
1	0x3c83f2ce	0.01610699
2	0xbcb2c450	-0.021822125
3	0xbc60ea05	-0.01372767
4	0xbc09c02b	-0.008407633
5	0x3c615c88	0.013754971
6	0x3b184d40	0.0023239404
7	0x3be66eb5	0.0070322403
8	0xbbfbbd7e	-0.0076825013
9	0x3ce7c092	0.028290067
10	0xbc390ba0	-0.0112942755
11	0x3cea2a95	0.028584758
12	0x3c12cdd5	0.008960207
13	0xba8bc85b	-0.0010664569
14	0xbc1770a2	-0.009243162
15	0x3c9f678e	0.019458558

edge_encoder.0.weight f4 [16, 4]
0	0xbed6dac0	-0.41963768
1	0xbdaa6b05	-0.083211936
2	0xbeb04d2c	-0.34433877
3	0x3ef911a4	0.4864627
4	0x3d97a108	0.07403761
5	0x3dddb081	0.10824681
6	0x3e6395c1	0.22225095
7	0xbdd6e7c4	-0.104934245
8	0x3e7d1462	0.24714807
9	0x3e43f18a	0.19135109
10	0xbee65171	-0.4498401
11	0xbe93df03	-0.28881082
12	0x3de4d7c5	0.11173967
13	0x3ed1905a	0.40930444
14	0x3e926e02	0.28599554
15	0x3f1537e4	0.5828841
16	0xbe9c9aaa	-0.3058675
17	0xbe6c0e48	-0.23052323
18	0x3e6f7b59	0.23386897
19	0xbba6d300	-0.005091071
20	0xbebd294f	-0.36945578
21	0x3cca4f40	0.024695992
22	0x3e2c04fa	0.16798773
23	0x3e467266	0.19379577
24	0x3e7f85d8	0.24953401
25	0xbe4c0ce7	-0.19926797
26	0x3e39049f	0.18068169
27	0xbe1b78f4	-0.15182859
28	0xbdd66bd0	-0.10469782
29	0xbea604d4	-0.3242556
30	0xbee7a35c	-0.4524182
31	0x3eca57d4	0.39520133
32	0x3eef7a6c	0.46773088
33	0xbee13a0e	-0.43989605
34	0xbe701caf	-0.23448442
35	0xbe81ac78	-0.25326896
36	0x3e539434	0.20662004
37	0xbe85f212	-0.26161247
38	0xbe255d60	-0.16148901
39	0xbe91e1fa	-0.2849272
40	0xbcd56e61	-0.02605361
41	0x3ed7e42e	0.42166275
42	0xbd7aaf60	-0.061202407
43	0x3ea5d629	0.32389954
44	0xbeec255a	-0.46122247
45	0x3e1edf9e	0.1551499
46	0xbede0f3a	-0.43370992
47	0xbdc64a33	-0.09682121
48	0x3d2de0c7	0.042450693
49	0x3eb4647d	0.35232916
50	0xbe0a39fc	-0.13498682
51	0x3d7cde6e	0.061735563
52	0x3ea518b1	0.322454
53	0xbe660bc6	-0.22465429
54	0xbe8bb947	-0.27289793
55	0x3ed5f0c4	0.41785252
56	0x3dbfd498	0.09366721
57	0x3e90e896	0.2830245
58	0xbe75835e	-0.23975894
59	0xbf123533	-0.57112426
60	0xbeccb864	-0.3998443
61	0xbe4ec7e4	-0.2019344
62	0x3da76808	0.08174139
63	0x3ee4f694	0.44719374

edge_encoder.0.bias f4 [16]
0	0xbe1185b2	-0.14211157
1	0x3eca27e7	0.39483568
2	0x3efb6851	0.49103025
3	0xbed193f6	-0.40933198
4	0xbd7344ee	-0.05939191
5	0x3ee7ef69	0.45299843
6	0x3d904d7b	0.07046028
7	0xbe9ccf3a	-0.3062685
8	0xbe7c801c	-0.24658245
9	0xbe89a69a	-0.2688492
10	0xbea70a4a	-0.32625037
11	0xbd751f9c	-0.0598446
12	0x3d7d4742	0.061835535
13	0x3ed9579d	0.42449656
14	0x3e928957	0.28620407
15	0xbea59e22	-0.32347208

edge_encoder.2.weight f4 [16, 16]
0	0x3e161b63	0.14658885
1	0xbe404123	-0.18774848
2	0xbe75a680	-0.23989296
3	0x3ebdda22	0.37080485
4	0x3cd9dad5	0.026593605
5	0x3d4cf7db	0.05004106
6	0x3db32fea	0.08749373
7	0xbe12c950	-0.14334607
8	0x3dc41505	0.09574322
9	0x3d338648	0.043829232
10	0x3dd4b5fe	0.10386275
11	0xbe6175fa	-0.2201766
12	0xbe69fff1	-0.2285154
13	0x3e82a5cb	0.25517115
14	0x3c8ea7ed	0.017414058
15	0xbe1713f9	-0.14753713
16	0xbde94ed3	-0.11391988
17	0xbe7ffca3	-0.24998717
18	0x3e3346cd	0.17507477
19	0xbe9f582d	-0.3112196
20	0xbe0a8543	-0.13527398
21	0x3e022eec	0.12713212
22	0xbdcdf0ce	-0.100556955
23	0xbe56a028	-0.20959532
24	0xbe7c7e5b	-0.24657576
25	0x3e66c49e	0.22535941
26	0x3d90f2e7	0.0707758
27	0x3e277f94	0.16357261
28	0xbd3bcf4e	-0.045851998
29	0x3d6f5042	0.05842615
30	0x3e787197	0.24262081
31	0xbe16ff80	-0.14745903
32	0x3dbe5d5f	0.09295153
33	0xbdc11586	-0.094279334
34	0x3e07c548	0.1325885
35	0xbbef715f	-0.007307216
36	0x3cd0723c	0.025445096
37	0xbde1092e	-0.10988079
38	0xbe11f070	-0.14251876
39	0x3e39770a	0.18111816
40	0xbceae72d	-0.028674686
41	0xbe0b4cb2	-0.13603476
42	0x3e3a83ab	0.1821429
43	0x3e3ed029	0.18634094
44	0xbe32cc8d	-0.17460842
45	0xbd798de0	-0.06092632
46	0x3d640404	0.055667892
47	0x3dcef139	0.10104603
48	0x3d1fecbc	0.039044127
49	0xbd5fab47	-0.054606702
50	0x3e6b5a25	0.22983606
51	0xbe8d3712	-0.27581078
52	0xbc01c677	-0.007920853
53	0x3e5edc58	0.21763742
54	0xbe08446a	-0.13307348
55	0xbe80c254	-0.2514826
56	0xbd3482e2	-0.044070132
57	0xbe330ed4	-0.17486125
58	0x3e6e9df6	0.23302445
59	0x3dc622ed	0.0967463
60	0xbe4e4636	-0.20143971
61	0xbe08c544	-0.13356501
62	0x3d009417	0.03139123
63	0xbdd8d45f	-0.105873816
64	0xbe55d2b3	-0.20881157
65	0xbb29217e	-0.0025807316
66	0x3dfeb41d	0.12436698
67	0x3c32f807	0.010923392
68	0xbdde263f	-0.108471386
69	0x3b2df15f	0.0026541573
70	0xbdca6d75	-0.098841585
71	0xbc402685	-0.011727934
72	0x3e1eb392	0.15498188
73	0xbdee4188	-0.11633593
74	0x3e2e65d8	0.17031038
75	0x3d666db8	0.05625698
76	0x3d92eba9	0.07173855
77	0xbdc15e59	-0.094418235
78	0xbda30148	-0.07959229
79	0xbdff63ae	-0.12470184
80	0xbe921f4a	-0.28539497
81	0x3de99b34	0.11406556
82	0x3dd41bdb	0.103568755
83	0xbe1eac9d	-0.15495534
84	0xbe303936	-0.17209324
85	0xbe319d4f	-0.17345165
86	0x3d66f6b0	0.056387603
87	0x3ddaf3a0	0.10690999
88	0x3e854367	0.26027986
89	0x3e3044ca	0.17213741
90	0x3e88d8a4	0.26727784
91	0x3e735529	0.23762955
92	0x3e02f48c	0.127886
93	0x3e450890	0.19241548
94	0x3e1e04a7	0.15431462
95	0xbe3987c9	-0.18118204
96	0x3e393d97	0.18089901
97	0x3e0fab0a	0.1403009
98	0xbe76e986	-0.2411252
99	0xbd818a88	-0.06325251
100	0xbd9b9c2f	-0.07598149
101	0xbe7c5020	-0.2463994
102	0x3da55fa3	0.08074882
103	0x3e0123b7	0.1261128
104	0xbe49f33a	-0.1972169
105	0x3e1e4796	0.15456995
106	0xbe5bda6e	-0.21470043
107	0x3e38d54e	0.1805012
108	0xbe30e721	-0.17275669
109	0x3e2f35b2	0.17110327
110	0x3e3f8429	0.18702759
111	0x3da49140	0.08035517
112	0xbdda86ae	-0.10670219
113	0x3d25ca18	0.040475935
114	0xbe172a20	-0.14762163
115	0x3ea0a97f	0.31379315
116	0xbe81ef7d	-0.25378028
117	0xbe5560cc	-0.20837706
118	0xbe2d9748	-0.1695224
119	0x3d93c62e	0.07215534
120	0x3e2fa6eb	0.17153518
121	0x3e133d02	0.14378741
122	0x3e1740f7	0.14770876
123	0x3c0a1a00	0.00842905
124	0xbe040a24	-0.12894493
125	0x3e743f91	0.23852374
126	0xbe8415b7	-0.25797817
127	0xbd72049a	-0.05908642
128	0x3d01228b	0.031527083
129	0x3d7ca456	0.06168016
130	0xbd435664	-0.04768981
131	0xbc96930a	-0.01838066
132	0x3d72ddc3	0.05929352
133	0x3e80fcb7	0.25192806
134	0xbda465ba	-0.08027215
135	0xbdccc93a	-0.099993184
136	0x3e1c7b68	0.15281451
137	0x3e00017a	0.12500563
138	0xbe5ca0cd	-0.21545716
139	0x3e65c5ab	0.22438686
140	0x3d2ac25a	0.041689254
141	0x3e68b43d	0.22725005
142	0x3dae7777	0.0851888
143	0xbe493e4b	-0.19652669
144	0x3e4f919d	0.20270391
145	0x3e122a74	0.14274007
146	0xbdfb5ced	-0.122735836
147	0x3ef2fa54	0.4745661
148	0x3e70c9bd	0.23514457
149	0xbe381e6c	-0.17980355
150	0xbe70d8e3	-0.23520236
151	0x3e3c5f67	0.18395768
152	0xbe337435	-0.17524798
153	0x3dfb4184	0.122683555
154	0x3d609aa0	0.054834962
155	0xbe5bb9a8	-0.21457541
156	0xbd2b4bbb	-0.04182027
157	0xbd9b026c	-0.07568821
158	0xbe5fe609	-0.21865095
159	0xbe74f9d6	-0.2392343
160	0xbdd69efd	-0.10479543
161	0x3e3762df	0.1790881
162	0xbd07d171	-0.033158723
163	0x3ea86aef	0.32894084
164	0x3e6b02c7	0.22950278
165	0xbe42b8a1	-0.19015743
166	0x3caa30ec	0.02077528
167	0x3da90414	0.08252731
168	0xbe15ce10	-0.14629388
169	0x3da33704	0.07969478
170	0x3da768a4	0.081742555
171	0xbe42f687	-0.19039355
172	0x3dd48ff7	0.103790216
173	0x3daf0085	0.08545021
174	0x3dde4d88	0.10854632
175	0xbe287bb0	-0.16453433
176	0xbe2b3e34	-0.16722947
177	0x3e448710	0.19192147
178	0x3da5d8bb	0.08097979
179	0xbee95804	-0.45574963
180	0x3d298e37	0.041395392
181	0x3de49f83	0.11163237
182	0xbe08a780	-0.13345146
183	0x3e3301a8	0.174811
184	0xbe675332	-0.2259033
185	0xbde42680	-0.11140156
186	0x3d437743	0.04772116
187	0xbd9f0e64	-0.07766417
188	0xbe7e4723	-0.24831824
189	0xbd152908	-0.036416084
190	0xbd0d20aa	-0.03445498
191	0x3e5addf7	0.21373735
192	0xbda296eb	-0.079389416
193	0x3e0f4774	0.13992101
194	0xbe0b0389	-0.13575567
195	0x3edd8ae9	0.43270043
196	0x3dcb753a	0.099344686
197	0xbd3db898	-0.04631862
198	0x3e9178ff	0.28412625
199	0x3b92d769	0.0044812453
200	0xbe241030	-0.160218
201	0xbe2e6eec	-0.17034501
202	0x3e8971cf	0.26844642
203	0xbe28433a	-0.16431895
204	0x3e12a83a	0.14321986
205	0x3e7d30ac	0.24725598
206	0x3d81ce0b	0.06338128
207	0xbddd5c71	-0.108086474
208	0x3e1af6df	0.15133236
209	0x3b323aeb	0.0027195762
210	0x3c9c8fd6	0.019111555
211	0x3d5ff727	0.054679062
212	0x3e388e78	0.18023098
213	0x3cb2ccd1	0.02182618
214	0x3e04f16c	0.1298272
215	0xbe57e4cb	-0.21083371
216	0xbe5c5fec	-0.21520966
217	0x3e58752c	0.21138448
218	0xbe25f137	-0.16205297
219	0xbe5abb41	-0.21360494
220	0xbd812ace	-0.063069925
221	0xbd3b4f0b	-0.045729678
222	0xbe7d0aea	-0.24711195
223	0xbe01eb8c	-0.1268751
224	0x3e0455f3	0.12923412
225	0x3e28e6bb	0.16494267
226	0xbdbd3354	-0.09238306
227	0xbe8f3d2c	-0.27976358
228	0xbdc7b3c0	-0.097510815
229	0x3caa5efa	0.020797241
230	0x3d34e763	0.04416598
231	0x3de470e5	0.111543454
232	0xbd8f1322	-0.06986071
233	0xbdd968f8	-0.10615724
234	0xbd3e7a09	-0.0465031
235	0x3e69484e	0.22781488
236	0x3d8c64d6	0.068551704
237	0xbe385fea	-0.18005338
238	0x3e3aa40e	0.18226644
239	0x3d723f99	0.059142683
240	0xbdd32f0e	-0.10311709
241	0xbcf67014	-0.03008274
242	0xbe3ec053	-0.18628053
243	0x3e36180e	0.17782614
244	0x3e82b2d9	0.25527075
245	0x3dfd1f63	0.12359502
246	0x3e1da867	0.15396272
247	0x3d5fc9e9	0.054635916
248	0x3dfc03bd	0.123054005
249	0x3d66fad8	0.056391567
250	0x3de373c4	0.11106065
251	0x3d05febf	0.032713648
252	0xbe4bc0cf	-0.1989777
253	0xbd724222	-0.0591451
254	0xbe234833	-0.1594551
255	0xbe5569bf	-0.2084112

edge_encoder.2.bias f4 [16]
0	0x3e51be5e	0.20482776
1	0x3d588a8d	0.052866507
2	0x3e7a4b8b	0.2444288
3	0xbbd77252	-0.0065749073
4	0x3cc939d5	0.02456371
5	0xbc5a9e7e	-0.013343452
6	0x3e2065b9	0.15663804
7	0x3df7384b	0.12071284
8	0x3e72f007	0.23724376
9	0xbdc161f4	-0.09442511
10	0xbd1bcd7a	-0.038037755
11	0x3d3095a3	0.043111455
12	0x3c859d1a	0.016310263
13	0xbe5db873	-0.21652393
14	0x3e0da482	0.13832286
15	0xbe445b58	-0.1917547

edge_encoder.3.weight f4 [16]
0	0x3f81037f	1.0079192
1	0x3f80c172	1.0059035
2	0x3f7e5b21	0.993578
3	0x3f7e478f	0.9932794
4	0x3f7d2047	0.98877376
5	0x3f80d7b8	1.0065832
6	0x3f7eace8	0.99482584
7	0x3f8214ea	1.0162632
8	0x3f8132ce	1.0093629
9	0x3f80a8b1	1.005148
10	0x3f78df89	0.9721609
11	0x3f81ee20	1.0150795
12	0x3f853b33	1.0408691
13	0x3f808958	1.0041914
14	0x3f7d6151	0.9897662
15	0x3f8195d6	1.0123851

edge_encoder.3.bias f4 [16]
0	0x3c118335	0.00888138
1	0xbcb4be88	-0.022063509
2	0xbadf435c	-0.0017033624
3	0x3c6c20e7	0.014412141
4	0xbc8af18d	-0.016960884
5	0xbc96dbfb	-0.018415442
6	0xbc2c40d7	-0.010513506
7	0xbc8577d5	-0.016292492
8	0x3c0dea32	0.008661794
9	0xbb509f92	-0.0031833393
10	0xbba8f1f4	-0.005155796
11	0x3a1a79b7	0.0005892771
12	0x3c8a9d41	0.016920688
13	0xbb2af9cf	-0.002608884
14	0xbbf0b49d	-0.0073457495
15	0xbc3308e8	-0.010927416

node_model.0.weight f4 [16, 48]
0	0x3d9d5d91	0.07683862
1	0xbda4540c	-0.08023843
2	0xbd3abf48	-0.045592576
3	0xbdf96151	-0.12176765
4	0xbd7445d4	-0.059636906
5	0xbdd2f8f6	-0.10301392
6	0x3e13349d	0.14375539
7	0x3d42c161	0.0475477
8	0x3d49210f	0.049103793
9	0xbd82dbbe	-0.06389569
10	0x3e001640	0.12508488
11	0x3cb2bf72	0.021819804
12	0xbce594d0	-0.02802506
13	0x3c391ff0	0.011299118
14	0x3d051e7f	0.032499786
15	0x3dc52f36	0.096281454
16	0x3bf510a0	0.0074787885
17	0x3d113236	0.035448276
18	0x3d8095e2	0.06278588
19	0xbd379124	-0.04481615
20	0x3df971c3	0.121799015
21	0xbc3fb718	-0.011701368
22	0xbd7026d4	-0.05863078
23	0xbddd98d6	-0.10820167
24	0xbdc7b688	-0.09751612
25	0x3cf00962	0.02930135
26	0x3e05fb0e	0.13084051
27	0x3d7ad67c	0.061239704
28	0x3c3c4d2b	0.011493008
29	0xbd678fa4	-0.05653347
30	0x3c419798	0.011815928
31	0x3df01dcd	0.11724434
32	0xbcad60cc	-0.02116432
33	0xbdd95270	-0.10611427
34	0xbe04a1fb	-0.12952416
35	0xbd0c567f	-0.034262177
36	0xbb8a42d1	-0.004219391
37	0x3b8cb2d2	0.004293778
38	0xbdc1a631	-0.094555266
39	0x3d8b8d82	0.068141
40	0x3d9e8c93	0.07741656
41	0xbd85a0e8	-0.06524831
42	0xbdbca0b4	-0.09210339
43	0xbdd79bfa	-0.10527797
44	0xbe1538d6	-0.14572462
45	0x3da084b1	0.07837809
46	0xbd1b5485	-0.0379224
47	0x3dc3a0c3	0.09552147
48	0x3c4bff02	0.012450935
49	0x3d4b902c	0.04969804
50	0xb9ad89ff	-0.00033099946
51	0xbd9f3594	-0.07773891
52	0xbce96916	-0.028492492
53	0x3d94b42a	0.07260926
54	0x3cdf06d8	0.027224943
55	0xbd9f60aa	-0.07782109
56	0xbd8975bf	-0.067119114
57	0x3d41ade0	0.04728496
58	0x3dfbe3bd	0.12299297
59	0xbd682cf1	-0.056683484
60	0xbdc7b7a2	-0.09751822
61	0xbe0832ac	-0.1330058
62	0xbe10ba9e	-0.14133689
63	0xbdc779b4	-0.0974001
64	0xbd37c043	-0.04486109
65	0x3d139a3f	0.036035772
66	0x3dd6a561	0.10480762
67	0xbde9344a	-0.113869265
68	0xbdc0bd2d	-0.094110824
69	0x3d754ad6	0.059885822
70	0x3c612db9	0.013743811
71	0xbd852122	-0.0650046
72	0xbe05b28e	-0.13056394
73	0x3cc17767	0.023616506
74	0xbd2d85cc	-0.042363927
75	0xbdb633c8	-0.08896595
76	0xbd19cf8b	-0.037551444
77	0xbd2b0169	-0.04174939
78	0x3c8c7f90	0.01715067
79	0xbd106abd	-0.035258044
80	0x3d8eb10f	0.06967365
81	0x3d11339f	0.03544962
82	0x3db4839c	0.08814165
83	0x3e361cbe	0.17784402
84	0xbdfbedd5	-0.12301222
85	0x3bf05628	0.0073344894
86	0x3d190e40	0.037367105
87	0x3b81e1ab	0.0039636693
88	0xbd20960b	-0.039205592
89	0xbda5d6ad	-0.08097587
90	0x3dbeeaf0	0.093221545
91	0x3dccca77	0.099995546
92	0xbdc856e7	-0.097822
93	0x3d42a89f	0.04752409
94	0x3dc93bfc	0.09825894
95	0x3bccda94	0.0062516425
96	0x3dcc226b	0.09967502
97	0x3d9d7c5d	0.07689736
98	0x3c0aeedf	0.008479803
99	0xbd8d4fe5	-0.06900004
100	0x3dc836fa	0.09776111
101	0xbc668917	-0.014070771
102	0x3dbb657e	0.091502175
103	0x3c46eea3	0.012141856
104	0x3e1961d2	0.14978722
105	0x3d314bf2	0.043285318
106	0xbd4e5c33	-0.050380897
107	0x3d16b51a	0.036793806
108	0xbcc04fa6	-0.02347548
109	0xbd07bd08	-0.03313926
110	0x3cff5099	0.031166362
111	0x3d95d878	0.07316679
112	0xbe4a913d	-0.19781967
113	0x3d237c0b	0.03991322
114	0xbe0385fa	-0.12844077
115	0x3c79a9d6	0.015238246
116	0xbcd9e00e	-0.026596095
117	0xbdd32cb9	-0.103112645
118	0x3c8ed376	0.017434817
119	0xbd2c66be	-0.04209017
120	0x3d829492	0.06375994
121	0xbdd6b442	-0.104836
122	0x3d945384	0.07242492
123	0x3dddcd72	0.10830201
124	0x3d88b012	0.06674208
125	0x3df00b1d	0.1172087
126	0xbdbe710f	-0.09298908
127	0x3df1cf4e	0.11807118
128	0xbcd743d0	-0.026277453
129	0xbd6cf710	-0.057852805
130	0x3e203a32	0.156472
131	0xbce84b4b	-0.028356215
132	0xbaf7bddf	-0.001890119
133	0xbd27fe60	-0.041014075
134	0x3d90e5a4	0.070750505
135	0xbdb26604	-0.08710864
136	0x3cf35eab	0.029708227
137	0xbdb72063	-0.08941724
138	0x3d686e7c	0.05674599
139	0xbdb5e2a7	-0.08881121
140	0xbd96b034	-0.07357827
141	0x3dc400a2	0.09570433
142	0xbe1fc49b	-0.15602343
143	0xbe282da0	-0.16423655
144	0x3d2c813e	0.042115442
145	0x3da2461f	0.07923531
146	0x3c2dc140	0.010605156
147	0xbd5d7e9c	-0.054075822
148	0xbdbce261	-0.09222866
149	0x3e287ece	0.16454622
150	0xbda11c00	-0.07866669
151	0xbd8694e0	-0.065713644
152	0xbc6d4f0b	-0.014484177
153	0x3e062f85	0.13104065
154	0x3db33d3e	0.087519154
155	0x3ca5a258	0.020219013
156	0x3db6b627	0.089214616
157	0xbc1a9402	-0.009434702
158	0xbdc12755	-0.0943133
159	0x3b0ab70c	0.0021166233
160	0x3bb55f02	0.0055350075
161	0x3d910c3b	0.07082411
162	0x3da5e0af	0.080994956
163	0x3a9c28d3	0.0011914022
164	0x3d85c5f2	0.06531896
165	0x3d6e4955	0.058175404
166	0xbe07c46f	-0.13258527
167	0xbe1af1da	-0.15131322
168	0x3d646892	0.05576379
169	0x3dd8b146	0.10580687
170	0xbe10b317	-0.14130817
171	0x3e1d94c8	0.15388787
172	0xbdd2206f	-0.102600925
173	0xbd701c5e	-0.058620803
174	0x3e282cf2	0.16423395
175	0x3c6d48ff	0.014482736
176	0xbd507966	-0.050897025
177	0x3d0db9e0	0.034601092
178	0xbdc25e4a	-0.094906405
179	0x3e2e4ac2	0.17020705
180	0x3dc743e6	0.097297475
181	0x3cb96cf3	0.022634959
182	0x3e033b72	0.12815645
183	0x3daeac98	0.085290134
184	0xba7a94d4	-0.000955892
185	0x3cc15601	0.02360058
186	0x3d573eba	0.052550055
187	0x3e0b2d64	0.13591534
188	0x3d1e5c0b	0.038661998
189	0x3c1a9fd9	0.009437525
190	0x3dffa018	0.12481707
191	0x3d2e39f0	0.042535722
192	0x3df0f6bd	0.117658116
193	0xbdd43287	-0.103612
194	0x3c451c65	0.012030696
195	0xbdc0a26d	-0.0940598
196	0x3dc65f92	0.09686197
197	0x3c1dd27b	0.009632702
198	0xbc834a73	-0.016026711
199	0x3d0b68d4	0.03403552
200	0x3d6d8a3a	0.05799315
201	0xbe1c01ca	-0.15235057
202	0x3d8e65aa	0.06952985
203	0xbd053e12	-0.032529898
204	0x3e13fa85	0.14451034
205	0x3d603fe5	0.054748435
206	0xbd97353f	-0.07383203
207	0x3e0c312e	0.13690636
208	0x3d0273db	0.03184877
209	0x3df41d3b	0.11919638
210	0x3d0b90a2	0.03407348
211	0xbccc6419	-0.024950074
212	0x3d98a8c2	0.07454063
213	0xbd0ffd98	-0.035153955
214	0x3d0315a7	0.03200307
215	0x3bba13bf	0.0056786234
216	0xbd7e99bc	-0.06215833
217	0x3de1186c	0.10990986
218	0xbd331dad	-0.043729473
219	0xbd8fb2dc	-0.070165366
220	0xbdcb6a28	-0.09932357
221	0xbc422509	-0.01184965
222	0x3acb60f0	0.001551656
223	0xbe078e75	-0.13237937
224	0x3d911c26	0.07085447
225	0x3d85a53c	0.065256566
226	0x3dda35dd	0.10654805
227	0xbe145f8e	-0.14489576
228	0xbdc54001	-0.096313484
229	0xbdbeaed0	-0.093106866
230	0x3dae60ec	0.0851458
231	0xbdc38afa	-0.09547992
232	0x3de47b87	0.111563735
233	0xbdd77d30	-0.105219245
234	0x3c0bc076	0.008529773
235	0xbdc14fb4	-0.0943903
236	0xbdeded96	-0.116175815
237	0x3d970f2c	0.07375941
238	0xbd9413d8	-0.072303474
239	0x3ddfe6e6	0.10932712
240	0x3e242e77	0.1603335
241	0xbda65682	-0.08121969
242	0xbdd89840	-0.105759144
243	0x3e2ec082	0.17065623
244	0x3d8b2086	0.06793313
245	0x3ded3eee	0.115842685
246	0x3e1e13b9	0.15437211
247	0x3c267273	0.010159123
248	0x3de06e88	0.10958582
249	0x3dc32091	0.09527696
250	0x3bdc3398	0.0067200176
251	0x3e079c3d	0.13243194
252	0xbd87330c	-0.06601533
253	0xbdf5cfe5	-0.12002543
254	0xbd9dc60a	-0.077037886
255	0x3e0f5687	0.13997851

node_model.0.bias f4 [16]
0	0xbe0fef31	-0.14056088
1	0xbdd00a3c	-0.10158202
2	0x3df73dc7	0.1207233
3	0x3e1dc7fb	0.15408318
4	0x3dfde54b	0.1239725
5	0xbda70966	-0.081560895
6	0x3db7ec80	0.08980656
7	0xbc1983f1	-0.009369836
8	0x3d4c9899	0.049950216
9	0xbe011c02	-0.1260834
10	0xbd388b0f	-0.04505449
11	0xbc40cbe4	-0.011767361
12	0xbe007640	-0.12545109
13	0x3d545c82	0.051846035
14	0x3d991250	0.07474196
15	0x3dd42764	0.10359076

node_model.2.weight f4 [16, 16]
0	0xbd99aa7b	-0.0750322
1	0x3dfd74bd	0.12375782
2	0xbda0073d	-0.078138806
3	0x3e458a76	0.192911
4	0xbd64d917	-0.055871096
5	0xbe5cf91e	-0.21579406
6	0x3e3e437c	0.18580431
7	0x3db02d43	0.08602383
8	0xbe46da88	-0.194193
9	0xbde8980e	-0.11357127
10	0xbe1248ce	-0.14285585
11	0xbdbb9f7e	-0.0916128
12	0xbe682bb6	-0.22672924
13	0xbe3fdf0c	-0.1873743
14	0xbe841e8b	-0.25804552
15	0xbeba10a0	-0.3634081
16	0x3e63fcb6	0.2226437
17	0xbd58c003	-0.05291749
18	0xbc285471	-0.010274039
19	0x3e7ccca4	0.24687439
20	0xbe387a55	-0.18015416
21	0xbe811cfb	-0.25217423
22	0xbdfcf200	-0.12350845
23	0xbe37d1ae	-0.1795108
24	0xbe8c1303	-0.27358255
25	0xbd76b428	-0.060230404
26	0xbb859d0b	-0.004077559
27	0xbdb3d253	-0.087803505
28	0x3e2c67c4	0.16836458
29	0x3e27a4be	0.16371438
30	0xbe196937	-0.14981543
31	0x3dd3c148	0.103396
32	0xbe83a9f3	-0.25715598
33	0x3e341dbd	0.17589469
34	0x3e8ab9b8	0.27094817
35	0x3e8c0c87	0.27353308
36	0x3e31163b	0.17293637
37	0xbdb43244	-0.0879865
38	0x3db2a5e3	0.08723047
39	0xbdfc7a16	-0.123279735
40	0xbe23ee48	-0.16008866
41	0x3d905317	0.07047098
42	0x3dc0479b	0.09388658
43	0xbe67aa23	-0.22623496
44	0x3e0fa0ef	0.14026235
45	0x3e7396fe	0.23788068
46	0xbe2a6baa	-0.16642633
47	0xbd8be04a	-0.06829889
48	0x3dd372e3	0.10324647
49	0x3c0fe4d3	0.008782583
50	0xbae707a1	-0.0017626175
51	0x3e193d54	0.14964801
52	0xbd821b2f	-0.06352841
53	0xbd1d34fb	-0.038380604
54	0xbe420a12	-0.18949154
55	0x3e345d8e	0.17613813
56	0x3e6d51be	0.23175713
57	0x3e110390	0.14161515
58	0xbe6cd079	-0.23126401
59	0xbdd30df7	-0.10305398
60	0xbe253044	-0.16131693
61	0x3db1b3c9	0.086768694
62	0x3ccf1fc4	0.025283702
63	0x3e1635ce	0.14668962
64	0x3e26b09f	0.16278313
65	0xbdc54727	-0.09632712
66	0x3d21bc40	0.03948617
67	0x3e04db44	0.12974268
68	0xbd32c980	-0.043649197
69	0x3e806a43	0.2508107
70	0x3d63bade	0.055598132
71	0xbda14972	-0.07875337
72	0xbe52ebfd	-0.20597835
73	0x3e4b1992	0.19833973
74	0xbcd663d6	-0.026170652
75	0x3de29136	0.11062853
76	0xbe1c744a	-0.15278736
77	0xbe4e7b15	-0.2016414
78	0xbe0a7a68	-0.13523257
79	0xbc201a72	-0.00977193
80	0x3d47a9da	0.048745967
81	0xbe236b34	-0.15958863
82	0xbd8126d0	-0.06306231
83	0x3e567db3	0.20946388
84	0xbe3dcf3a	-0.18536082
85	0x3e70a082	0.23498729
86	0x3e7efb15	0.24900468
87	0xbe1295fa	-0.14315024
88	0x3e59a95f	0.21256016
89	0x3ce33721	0.027736248
90	0x3caaccd1	0.020849617
91	0x3e1b866a	0.15187994
92	0xbe7befd9	-0.24603213
93	0xbd2c3164	-0.04203929
94	0xbe500a89	-0.20316519
95	0x3e2db72a	0.16964403
96	0xbe3554a6	-0.17708072
97	0xbde9ac26	-0.11409788
98	0xbe3aa10d	-0.18225498
99	0x3dbee49f	0.0932095
100	0xbe5bf117	-0.21478687
101	0xbe7ce7a7	-0.24697743
102	0x3e60aead	0.21941634
103	0xbdc13dfd	-0.094356515
104	0x3dcac1bb	0.099002324
105	0x3cee93eb	0.029123267
106	0xbe7b35c2	-0.24532226
107	0x3e15cfce	0.14630052
108	0x3d828637	0.06373256
109	0xbd38bf2e	-0.0451042
110	0xbdba0d83	-0.090846084
111	0xbdbb5945	-0.09147886
112	0xbe1b8edf	-0.1519122
113	0x3e582a55	0.21109898
114	0xbdfd5a1f	-0.12370705
115	0x3d3b1857	0.04567751
116	0x3e8cd54a	0.27506477
117	0xbdf6c9b5	-0.12050191
118	0xbe4f7eef	-0.20263265
119	0x3e52934c	0.20564002
120	0x3e315956	0.17319235
121	0xbc1e37f8	-0.009656899
122	0x3e6e6209	0.23279585
123	0xbdc7de71	-0.09759224
124	0x3df625c7	0.12018924
125	0x3c9c064f	0.019045977
126	0xbdc3b7fd	-0.09556577
127	0x3e105db2	0.14098242
128	0xbdf6bac9	-0.12047345
129	0xbdcb1008	-0.09915167
130	0x3e491343	0.19636254
131	0xbe30ad59	-0.17253627
132	0xbe370cab	-0.17875926
133	0xbba26b6e	-0.0049566543
134	0xbd2f4480	-0.042789936
135	0x3e77e257	0.24207436
136	0x3e9aeabf	0.30257222
137	0xbdb92416	-0.09040086
138	0xbe5e8ad9	-0.21732654
139	0x3d82bc38	0.06383556
140	0x3d039ad7	0.03213009
141	0x3dada5af	0.08478867
142	0xbabf702f	-0.0014605577
143	0xbdce3751	-0.100691445
144	0xbe39ed01	-0.18156816
145	0x3b4feb94	0.003172611
146	0xbe5423be	-0.2071676
147	0xbdf9aa16	-0.121906444
148	0x3d9b9035	0.07595865
149	0x3e7201dc	0.23633522
150	0xbda4d77c	-0.08048913
151	0x3e92cdd1	0.2867265
152	0xbe5e96c0	-0.21737194
153	0xbd720c36	-0.059093677
154	0xbd833293	-0.06406131
155	0xbe589f62	-0.2115455
156	0xbc78b9e6	-0.01518104
157	0xbe47dea9	-0.19518532
158	0xbd11a243	-0.035555135
159	0x3e9416d5	0.2892367
160	0x3de28678	0.11060804
161	0x3d6962e3	0.05697907
162	0xbddceff8	-0.10787958
163	0x3e667f0b	0.225094
164	0xbe2ccbf0	-0.16874671
165	0x3e1142ac	0.1418559
166	0x3c957bae	0.018247452
167	0x3e004f84	0.12530333
168	0xbda6904c	-0.08132991
169	0x3e13cf44	0.14434534
170	0x3e84ce20	0.2593851
171	0x3e6f4b76	0.2336863
172	0xbe03b935	-0.1286362
173	0xbd6e8cb2	-0.058239646
174	0xbe85924e	-0.26088184
175	0xbd44e5e6	-0.04807081
176	0x3e6fe671	0.2342775
177	0xbe3579d1	-0.1772225
178	0x3e0158ba	0.12631503
179	0xbe4ac496	-0.19801554
180	0x3c30edb0	0.010798857
181	0xbde02a3a	-0.10945554
182	0xbbd0cc56	-0.006372015
183	0x3e996f69	0.29967812
184	0x3e785fc4	0.24255282
185	0x3e67e092	0.2264426
186	0x3d4dcd6b	0.05024473
187	0xbd0bebc2	-0.034160383
188	0xbdd889f2	-0.10573186
189	0x3e61dbad	0.22056456
190	0xbda21fd6	-0.079162285
191	0xbd4cacab	-0.049969357
192	0x3d866a8d	0.06563292
193	0xbca5bc7b	-0.020231476
194	0x3d70b81d	0.058769334
195	0xbe1e6836	-0.15469441
196	0xbe5d415d	-0.21606965
197	0x3d8b3124	0.06796482
198	0xbd16a1f9	-0.036775563
199	0xbe1f9446	-0.15583906
200	0x3e476ba9	0.19474663
201	0x3e8ef622	0.2792216
202	0x3e17b61d	0.14815564
203	0xbdba8e9a	-0.0910923
204	0xbe3a6b18	-0.18204916
205	0x3e12ba10	0.1432879
206	0x3e821b56	0.2541148
207	0xbb7d584b	-0.0038657363
208	0xbc81fe5e	-0.015868362
209	0xbe654c22	-0.22392324
210	0x3de96cb2	0.11397685
211	0xbe363621	-0.17794086
212	0x3e0ef12b	0.13959186
213	0xbcc0660b	-0.023486158
214	0xbe8b21bc	-0.27174175
215	0x3e933d3a	0.2875765
216	0x3e81064f	0.25200126
217	0xbbb12c55	-0.005406896
218	0xbe5107a1	-0.20413066
219	0xbe66ab0e	-0.2252619
220	0xbd240374	-0.040042356
221	0xbd8b023b	-0.06787535
222	0xbe556d5f	-0.20842503
223	0x3cb98464	0.022646137
224	0xbe07b462	-0.13252404
225	0x3c830f3c	0.015998475
226	0x3d57c9bd	0.052682627
227	0x3e38e6ad	0.18056746
228	0xbe4609a3	-0.19339614
229	0x3def0a43	0.11671879
230	0x3d11a6c2	0.035559423
231	0xbd902f50	-0.07040274
232	0xbdb24b51	-0.08705772
233	0x3c9cc9e5	0.01913924
234	0x3e38af12	0.18035534
235	0x3d3f89f9	0.04676244
236	0x3d4176a3	0.04723228
237	0xbe7705e7	-0.24123345
238	0xbe959d7c	-0.29221714
239	0xbd2f214a	-0.042756356
240	0x3e438a8b	0.19095819
241	0x3c2bf683	0.010495785
242	0xbe4cb4bd	-0.19990821
243	0xbe34e196	-0.17664179
244	0xbe6a73c5	-0.22895725
245	0xbd900f74	-0.070341974
246	0xbce68ede	-0.028144296
247	0x3decc89b	0.115617
248	0xbdedad8b	-0.11605366
249	0x3ddc1ba5	0.1074746
250	0x3e0970bf	0.13421915
251	0x3d95ae82	0.07308675
252	0xbd132e78	-0.035932988
253	0xbd567388	-0.052356273
254	0xbe49c805	-0.19705208
255	0x3e48bcd2	0.19603279

node_model.2.bias f4 [16]
0	0x3dd7286a	0.10505755
1	0x3e71d28e	0.23615476
2	0xbdadf29c	-0.0849354
3	0xbe4c96fc	-0.19979471
4	0x3d93167b	0.07182022
5	0xbe2ec033	-0.17065506
6	0xbcb3e5e4	-0.021960206
7	0x3e3919bb	0.18076222
8	0xbe170edf	-0.14751767
9	0xbe4bf707	-0.19918452
10	0x3e23dea4	0.160029
11	0xbe4e3742	-0.20138267
12	0x3e1e9183	0.15485196
13	0x3dee4098	0.11633414
14	0x3e3a19e1	0.18173935
15	0xbc14b698	-0.009076737

node_model.3.weight f4 [16]
0	0x3fb7d2e7	1.4361237
1	0x3f8a07f6	1.078368
2	0x3f954f4b	1.1664823
3	0x3f94f930	1.1638546
4	0x3f90544d	1.1275727
5	0x3f9ccf82	1.2250826
6	0x3fc2e8ca	1.5227292
7	0x3f932fb4	1.1498933
8	0x3f9fcc2c	1.2484183
9	0x3f8df7be	1.109123
10	0x3f8061eb	1.0029882
11	0x3f9aceec	1.2094398
12	0x3f99297f	1.1965789
13	0x3fb43561	1.407879
14	0x3f8c9da8	1.0985613
15	0x3f811191	1.0083486

node_model.3.bias f4 [16]
0	0xbe179944	-0.1480456
1	0xbd76e06d	-0.060272623
2	0xbe18ae82	-0.1491032
3	0x3d4dc2dc	0.05023466
4	0xbd8d0a9e	-0.06886791
5	0xbdec7c7e	-0.115471825
6	0xbe108c93	-0.14116125
7	0x3dd938b2	0.10606517
8	0x3e661f15	0.22472794
9	0x3e05d0b2	0.13067892
10	0xbcc500de	-0.024048265
11	0x3dd08483	0.101815246
12	0xbe0fcea5	-0.14043672
13	0x3df572c9	0.11984784
14	0xbd9efc50	-0.077629685
15	0x3ad09a79	0.0015915177

edge_model.0.weight f4 [16, 96]
0	0xbc513316	-0.0127685275
1	0x3a08d129	0.00052191556
2	0x3d64fd2a	0.0559055
3	0x3d6b7fc7	0.057494905
4	0x3c93ab8c	0.018026136
5	0x3d9e41f7	0.077274255
6	0xbd9070c6	-0.0705276
7	0x3d96a86a	0.07356341
8	0x3dae6b37	0.08516543
9	0x3cc7f5d8	0.02440922
10	0x3d07cda9	0.033155117
11	0xbd62222d	-0.055208374
12	0x3d01faa7	0.03173318
13	0x3d1ecbd4	0.038768604
14	0xbd55805b	-0.052124362
15	0x3d737705	0.059439678
16	0x3ccfa9d8	0.025349542
17	0x3db0b0a2	0.0862744
18	0xbd6108fc	-0.05494021
19	0xbd5e4b8b	-0.054271262
20	0xbd28f861	-0.041252498
21	0x3d638f9b	0.055556875
22	0xbd99a081	-0.07501317
23	0xbd7fa2a0	-0.06241095
24	0x3bd4e358	0.006496828
25	0xbd993b1c	-0.07481977
26	0xbc8c3433	-0.017114734
27	0x3d4d16a5	0.050070424
28	0xbd5cead6	-0.053934895
29	0xbc9848a7	-0.01858933
30	0xbc0d7fd8	-0.008636437
31	0x3dc5a28f	0.09650146
32	0xbd28d6b2	-0.041220374
33	0xbcad2105	-0.021133909
34	0xbd3ea8aa	-0.04654757
35	0xbde08616	-0.10963075
36	0xbda78340	-0.08179331
37	0xbb195491	-0.0023396353
38	0x3dd6c93e	0.10487603
39	0x3d8ef010	0.06979382
40	0x3d7a2878	0.06107375
41	0x3d5eb777	0.054374184
42	0x3dbdc42e	0.09265934
43	0x3d6fd386	0.058551334
44	0xbcccca7d	-0.024998898
45	0x3d4832c8	0.048876554
46	0xbddeaae6	-0.1087244
47	0xbd645fb4	-0.055755332
48	0xbba58f01	-0.005052448
49	0xbdb476e7	-0.08811741
50	0xbd3264b5	-0.043553073
51	0xb9e94688	-0.00044493773
52	0x3dd6e89d	0.10493586
53	0xbc88b76b	-0.016689023
54	0x3c465ea0	0.012107521
55	0xbc647f54	-0.013946373
56	0xbd0dab1e	-0.03458702
57	0x3d139e03	0.036039364
58	0xbce259f8	-0.027630791
59	0xbd66a971	-0.056313936
60	0xbd51f9f3	-0.05126376
61	0xbcfaaf00	-0.030601025
62	0xbda700d4	-0.08154455
63	0xbc513920	-0.012769967
64	0xbcfebb5e	-0.031095203
65	0xbd823aee	-0.06358896
66	0xbd39588e	-0.045250468
67	0x3bac4732	0.0052575106
68	0x3ddd40c9	0.108033724
69	0xbd6e25ed	-0.058141638
70	0x3db03729	0.08604271
71	0x3d66e07e	0.056366436
72	0x3d0a7607	0.033803966
73	0xbd1a31ed	-0.03764527
74	0xbd16922d	-0.036760498
75	0xbd3b0429	-0.045658264
76	0xbdfe0bf1	-0.124046214
77	0xbcef5e38	-0.029219732
78	0x3dc5c379	0.09656424
79	0x3c82430f	0.015901117
80	0xbc1f2484	-0.009713296
81	0x3cb56ee9	0.022147613
82	0xbd9356d0	-0.071942925
83	0x3ca57995	0.020199576
84	0x3c2190fe	0.009861229
85	0xbd809204	-0.0627785
86	0xbda8dd7c	-0.0824537
87	0xbda0f31a	-0.07858868
88	0x3c6200e3	0.013794157
89	0xbd948875	-0.072525896
90	0xbd0a02b3	-0.03369398
91	0xbd71ed91	-0.05906445
92	0xbd29d264	-0.04146041
93	0x3c2dfd0a	0.010619411
94	0x3ddf4365	0.10901526
95	0x3c896cd0	0.016775519
96	0x3c6b5dc8	0.014365621
97	0xbd152e79	-0.036421273
98	0xbcc1e882	-0.023670439
99	0x3da92d32	0.082605734
100	0xbd8c3970	-0.06846893
101	0x3da88a1e	0.08229469
102	0x3dc82ae4	0.09773806
103	0x3be7f466	0.007078695
104	0xbcde779f	-0.02715665
105	0x3ceca2b7	0.028886182
106	0x3dc9ac76	0.098473474
107	0x3da44a57	0.08021992
108	0x3cc1c81b	0.023654988
109	0xbd3fb7bc	-0.046806082
110	0xbcc64bf0	-0.024206132
111	0x3d108d93	0.035291266
112	0x3d840d1c	0.06447813
113	0xbc61505f	-0.013752072
114	0xbca01a5b	-0.019543817
115	0xbda1561b	-0.078777514
116	0xbda6bd7d	-0.08141611
117	0xbbcfd243	-0.006342204
118	0xbcdf2569	-0.027239518
119	0x3ba4b356	0.0050262613
120	0xbcea9882	-0.028637175
121	0x3d841e59	0.06451101
122	0x3d6e606e	0.05819743
123	0xbd3057d6	-0.043052517
124	0xbdb15e80	-0.086606026
125	0xbca867ba	-0.020557273
126	0xbd5e6cb7	-0.054302897
127	0xbdb5532e	-0.08853756
128	0xbb5b1797	-0.0033430809
129	0xbd886e40	-0.066616535
130	0x3da147d8	0.07875031
131	0xbd4276e0	-0.04747665
132	0xbd766110	-0.06015116
133	0xbdb2b88f	-0.08726608
134	0xbcc161a1	-0.023606123
135	0x3ce78aea	0.028264482
136	0x3ca494c3	0.020090466
137	0x3dadefd9	0.08493013
138	0xbd8326b4	-0.064038664
139	0xbdc9c24a	-0.09851511
140	0xbda10d45	-0.07863859
141	0xbdedff27	-0.11620932
142	0xbdc61841	-0.09672595
143	0x3cbe2563	0.023211187
144	0x3da6d70e	0.08146487
145	0x3d2d6706	0.04233458
146	0xbc0562db	-0.008141245
147	0xbcae523a	-0.021279443
148	0x3c8b6867	0.017017556
149	0x3d44f73f	0.048087355
150	0x3c98bcea	0.018644769
151	0x3d4f6584	0.050633922
152	0x3cc20a1b	0.02368646
153	0x3d1fafc1	0.03898597
154	0x3dbdee95	0.092740215
155	0x3d2169ee	0.039407663
156	0xbd114570	-0.03546661
157	0xbdbe9583	-0.09305861
158	0x3d8d1c82	0.06890203
159	0x3da16216	0.078800365
160	0xbbf3507b	-0.0074253655
161	0xbdc3a693	-0.09553256
162	0xbdb9faf7	-0.09081071
163	0xbcfc3c90	-0.030790597
164	0xbd2538be	-0.040337317
165	0x3c846dc3	0.01616562
166	0xbd756785	-0.059913177
167	0x3cc85429	0.024454193
168	0xbd94509d	-0.07241938
169	0xbdb624c9	-0.08893735
170	0x3d84da72	0.06486978
171	0xbdbeeebc	-0.09322879
172	0xbdb1da58	-0.08684224
173	0x3d86f260	0.06589198
174	0x3d907882	0.07054235
175	0x3ddd0935	0.10792772
176	0xbda1e3d0	-0.0790478
177	0x3d887833	0.06663551
178	0xbdc78517	-0.09742182
179	0x3db289f0	0.08717716
180	0x3da97b92	0.08275522
181	0x3ce731c2	0.028221969
182	0x3ce9e0cf	0.02854958
183	0x3cb0141a	0.02149396
184	0xbd9af326	-0.07565908
185	0x3c946b67	0.01811762
186	0xbc6b1214	-0.014347572
187	0x3c1a68e7	0.009424425
188	0x3cec1bb2	0.0288218
189	0xbdb55a2a	-0.08855088
190	0x3d88dfbd	0.066833
191	0x3d5da9f4	0.054117158
192	0x3da9626c	0.082707256
193	0x3d65ba3d	0.056085814
194	0xbd0dabb1	-0.034587566
195	0xbcd3ce7d	-0.025855297
196	0xbc136c3b	-0.008997972
197	0x3d08eba2	0.033427842
198	0x3dde92fe	0.1086788
199	0x3d69ec60	0.05711019
200	0x3cd71407	0.026254667
201	0xbd500e9a	-0.050795175
202	0x3d300146	0.042969964
203	0x3cd6eaa9	0.026234942
204	0x3c54a96e	0.012979848
205	0xbda9c755	-0.08289973
206	0xbc9dc7ce	-0.019260313
207	0x3d86b742	0.065779224
208	0xbddde8b5	-0.10835401
209	0xbda95b36	-0.0826935
210	0xbda6ad16	-0.08138482
211	0x3dcce28d	0.10004149
212	0xbbbcfc66	-0.005767393
213	0x3bb7d396	0.00560994
214	0xbdc48639	-0.095959134
215	0xbd50470e	-0.050849013
216	0xbc98fd2b	-0.018675407
217	0xbd8361d1	-0.064151414
218	0xbde78645	-0.11304907
219	0xbdacc477	-0.0843591
220	0x3cf55cc0	0.029951453
221	0xbd40116e	-0.046891622
222	0x3cdd49b8	0.02701269
223	0xbc17b62f	-0.009259745
224	0x3cb737f3	0.022365546
225	0x3d4d46c3	0.05011631
226	0xbd044dbb	-0.032300692
227	0x3d42d46e	0.04756587
228	0x3d8afa5f	0.06786036
229	0xbb019e78	-0.0019778293
230	0xbd3a4ebd	-0.045485247
231	0xbda23cb2	-0.07921733
232	0xbd893828	-0.06700164
233	0x3d03d326	0.03218379
234	0xbd941cbf	-0.072320454
235	0x3cf4643b	0.02983295
236	0x3cd8259a	0.026385117
237	0xbdd44115	-0.10363976
238	0x3b63e9fb	0.0034776914
239	0x3c53e4dc	0.012932982
240	0x3d4b6eea	0.049666323
241	0x3d3a829f	0.045534726
242	0xbd330049	-0.043701444
243	0xbd749b00	-0.059718132
244	0x3a22392c	0.0006188329
245	0x3d5e359f	0.054250356
246	0xbda94e41	-0.08266879
247	0xbdce82f7	-0.10083573
248	0x3cb1cd3c	0.021704309
249	0x3c20b09c	0.009807732
250	0x3cbb556e	0.022867884
251	0x3c922ad9	0.017842697
252	0x3d2a9848	0.041649133
253	0xbb7389f1	-0.0037161077
254	0x3d436052	0.04769928
255	0x3da52046	0.08062796

edge_model.0.bias f4 [16]
0	0x3d9ef2b9	0.077611394
1	0xbdc38a5c	-0.09547874
2	0x3d11e201	0.035615925
3	0x3d297666	0.04137268
4	0xbd97875c	-0.073988646
5	0x3cf62577	0.030047162
6	0xbb695b53	-0.0035607412
7	0xbd61d496	-0.05513438
8	0x3d30777b	0.043082695
9	0x3d93b3d1	0.07212032
10	0x3d7627db	0.060096603
11	0xbdd8b527	-0.10581427
12	0xbd0f130d	-0.034930278
13	0xbd604428	-0.0547525
14	0xbdc616ef	-0.09672343
15	0xbde4d2f1	-0.111730464

edge_model.2.weight f4 [16, 16]
0	0xbe8066be	-0.25078386
1	0xbe201638	-0.15633476
2	0xbcabd59a	-0.020975877
3	0x3d37d524	0.044881
4	0xbe67a042	-0.22619727
5	0x3d8f28b3	0.06990185
6	0x3e053c9c	0.13011402
7	0xbe1ff6a2	-0.15621427
8	0x3e8a84f1	0.2705455
9	0x3c1e4b7f	0.009661554
10	0x3e54f5d0	0.20796895
11	0x3e25144f	0.16121028
12	0xbe2f92ce	-0.17145845
13	0xbd2a6b13	-0.04160602
14	0x3d13d3f0	0.03609079
15	0xbc6a5e09	-0.014304646
16	0x3e488748	0.19582856
17	0xbd3c44f8	-0.04596421
18	0x3e53d7eb	0.20687835
19	0x3d549708	0.051901847
20	0x3dbcd354	0.09219995
21	0x3d8d9683	0.069134735
22	0x3e4e5edc	0.20153373
23	0xbe28c848	-0.16482651
24	0xbe059eaf	-0.13048814
25	0x3bad7588	0.005293552
26	0xbdaefb4e	-0.08544026
27	0xbdd4cb14	-0.103902966
28	0x3d920068	0.07128984
29	0x3d27910b	0.040909808
30	0x3db19bf4	0.08672324
31	0xbd83ffb0	-0.06445253
32	0xbbc3e7ed	-0.0059785754
33	0xbd81acc4	-0.063317806
34	0xbe19ea53	-0.15030794
35	0xbdc722b6	-0.097234175
36	0x3d860be4	0.06545237
37	0x3e31fd94	0.17381889
38	0x3e78c21e	0.242928
39	0x3d10bff6	0.03533932
40	0xbe481261	-0.19538261
41	0x3e3910d0	0.1807282
42	0x3c357fd5	0.011077841
43	0xbd63a507	-0.055577304
44	0xbd73a20a	-0.059480704
45	0x3e590c3c	0.21196073
46	0xbe04ea5c	-0.12980026
47	0x3c904665	0.017611692
48	0xbca5af4f	-0.020225195
49	0x3d6adad4	0.057337597
50	0xbe22aa41	-0.15885259
51	0xbe57c2c8	-0.21070397
52	0x3d86cbb8	0.06581825
53	0xbe70f53c	-0.2353105
54	0x3d41d557	0.047322597
55	0x3de8034d	0.113287546
56	0xbe4f565c	-0.20247787
57	0x3e255850	0.1614697
58	0x3d535f4a	0.051604547
59	0x3e4c7973	0.19968204
60	0xbe3cdafb	-0.1844291
61	0x3d1481a6	0.036256455
62	0xbd5c2960	-0.053750396
63	0x3d0b193a	0.033959605
64	0x3d17a587	0.037023094
65	0xbdfd9849	-0.12382562
66	0x3b5c3bda	0.003360501
67	0xbd6f8639	-0.058477614
68	0x3e7802fe	0.24219891
69	0x3e287fe0	0.1645503
70	0x3e523d92	0.205313
71	0xbde5e90e	-0.11226092
72	0xbcfe5a99	-0.03104906
73	0x3c9c8325	0.019105503
74	0x3e34619d	0.17615362
75	0x3e3e9fc2	0.1861563
76	0x3d14eaa4	0.036356583
77	0x3ddf64c1	0.10907889
78	0x3dc6af5c	0.09701416
79	0xbd1afaf8	-0.037837
80	0xbddd576a	-0.108076885
81	0x3e072d29	0.13200821
82	0xbc8e6d0e	-0.017385986
83	0x3de0c37f	0.10974788
84	0xbcc39c00	-0.023878098
85	0x3df270b3	0.11837902
86	0x3e5221fa	0.20520774
87	0x3c4cd618	0.012502216
88	0x3e597671	0.21236588
89	0xbdf8e38a	-0.12152775
90	0x3e2ff240	0.17182255
91	0x3ddcdfec	0.10784897
92	0xbe56b7ca	-0.20968547
93	0xbe1a0d8f	-0.15044235
94	0xbd956890	-0.07295334
95	0xbe65f3b4	-0.22456247
96	0x3dccc665	0.09998778
97	0x3d806c10	0.06270611
98	0x3e552005	0.20812996
99	0x3c5feab1	0.013666795
100	0x3e66b37c	0.22529405
101	0xbe3335fa	-0.17501059
102	0xbdda9805	-0.10673527
103	0x3e3def3d	0.18548293
104	0x3e7f4dea	0.24932066
105	0xbe407253	-0.18793611
106	0xbcd72eca	-0.026267428
107	0x3d7ebc0e	0.06219106
108	0xbe3962ab	-0.18104045
109	0xbd85248c	-0.065011114
110	0x3d52ec30	0.051494777
111	0xbe5ebb80	-0.21751213
112	0x3e35411f	0.17700623
113	0x3c90ed98	0.017691419
114	0x3d8450d5	0.0646073
115	0xbe11ccc0	-0.14238262
116	0xbe012884	-0.12613112
117	0x3dde2bf3	0.108482264
118	0x3d824bf3	0.063621424
119	0x3d487e17	0.048948374
120	0x3ce45ac1	0.027875306
121	0x3e2300ac	0.15918225
122	0xbe53603e	-0.20642182
123	0xbe16ffa1	-0.14745952
124	0xbd4067f1	-0.046974126
125	0x3de408ad	0.11134467
126	0xbdd61f0c	-0.104551405
127	0xbe4e094f	-0.20120738
128	0x3e7ba63a	0.24575129
129	0xbe5db8c3	-0.21652512
130	0xbbc5d6c5	-0.0060375654
131	0x3e1d1714	0.15340835
132	0x3c07cce0	0.008288592
133	0x3dbd3291	0.092381604
134	0x3e2742aa	0.16334024
135	0xbd7a9af4	-0.06118293
136	0xbbeffe93	-0.007324049
137	0xbd338b5c	-0.043834075
138	0x3c37f58f	0.011227979
139	0xbe0d9e1c	-0.13829845
140	0xbdb16fe2	-0.08663918
141	0x3e5000c4	0.20312792
142	0x3da37374	0.07981005
143	0xbe4a7d20	-0.19774294
144	0xbe81830d	-0.25295296
145	0xbe413588	-0.18868077
146	0x3e714f29	0.23565353
147	0x3e464d7f	0.193655
148	0xbc401520	-0.011723787
149	0x3e3e5731	0.18587948
150	0xbd17bfda	-0.0370482
151	0x3d5e5b8a	0.054286517
152	0xbe3cedff	-0.18450163
153	0x3e5cd1bf	0.21564387
154	0xbdda0d9e	-0.106471285
155	0xbc825b59	-0.015912699
156	0x3d84b846	0.0648046
157	0x3e5bf9b7	0.21481977
158	0x3d0fae78	0.035078496
159	0x3d39a0c7	0.045319345
160	0x3c29f08a	0.01037229
161	0x3e20b8ef	0.15695547
162	0xbe2c7821	-0.168427
163	0xbdc5f94d	-0.09666691
164	0xbc0589c0	-0.008150518
165	0xbbca29ff	-0.006169557
166	0x3d898d07	0.06716352
167	0x3c4ded20	0.012568742
168	0xbe1771ba	-0.14789477
169	0x3ea4a06c	0.32153642
170	0x3e640ed2	0.22271279
171	0xbe253ebe	-0.16137215
172	0x3e2d2fd1	0.16912772
173	0xbc0ef2b1	-0.008724854
174	0xbdc49188	-0.095980704
175	0xbe202f7b	-0.15643112
176	0xbd639feb	-0.05557243
177	0x3e2c56bb	0.1682996
178	0x3e216a45	0.15763195
179	0x3c99eea2	0.018790547
180	0xbddd4e94	-0.10806003
181	0x3e2ee035	0.17077716
182	0xbe46e975	-0.19424994
183	0x3d62315b	0.05522285
184	0xbe3429af	-0.17594026
185	0x3e02ff44	0.12792689
186	0x3e70fd5f	0.23534153
187	0x3d6ee434	0.0583231
188	0xbdadc84c	-0.08485469
189	0x3d86a2fe	0.06574057
190	0x3d1e6788	0.038672954
191	0xbbc8cd82	-0.006128014
192	0xbd5a3199	-0.053269956
193	0xbc10e990	-0.008844748
194	0x3e7ab024	0.24481255
195	0xbd35fadf	-0.044428702
196	0x3e081b80	0.1329174
197	0x3e54423e	0.20728394
198	0x3bccf04a	0.0062542306
199	0xbe2c2a5f	-0.16813038
200	0xbe7485d6	-0.2387918
201	0x3e909ee3	0.2824622
202	0xbe2897ad	-0.1646411
203	0x3d808059	0.062744804
204	0xbe6c96d0	-0.23104405
205	0xbe018f8d	-0.12652417
206	0xbe51b31c	-0.20478481
207	0x3d01ce78	0.031691045
208	0xbdbb46f8	-0.091443956
209	0x3dbf2034	0.09332314
210	0x3dd4a66a	0.103833035
211	0xbdfec65b	-0.12440177
212	0xbdf8bf4c	-0.12145862
213	0xbd49e6fc	-0.04929255
214	0x3e05e87e	0.1307697
215	0x3e2e3b83	0.1701489
216	0x3e0a5179	0.13507642
217	0x3e821629	0.25407532
218	0xbdd7c3cd	-0.10535393
219	0xbe684788	-0.22683537
220	0xbe022459	-0.12709178
221	0xbc73eed2	-0.014888482
222	0xbe00f324	-0.12592751
223	0x3e84552c	0.2584623
224	0xbe84c409	-0.25930813
225	0xbe79b312	-0.24384716
226	0x3e1f974a	0.15585056
227	0xbd517fc9	-0.051147256
228	0xbe54436c	-0.20728844
229	0xbe359471	-0.17732407
230	0xbe6b5300	-0.2298088
231	0xbb298951	-0.00258692
232	0x3d32c76f	0.043647226
233	0xbc73b1db	-0.014873947
234	0xbd46d4b7	-0.048542704
235	0xbe276ef9	-0.16350926
236	0x3e08345b	0.13301222
237	0x3db64e14	0.08901611
238	0x3cf1cdc0	0.029517055
239	0xbdc6d659	-0.09708852
240	0x3ddf823c	0.10913512
241	0x3d979c4d	0.07402859
242	0x3d8b04fe	0.067880616
243	0xbdfbd102	-0.122957245
244	0xbe0a45fc	-0.1350326
245	0xbd9a9d52	-0.07549538
246	0xbdc99c4d	-0.09844265
247	0xbea07c8c	-0.31345022
248	0xbe8f1c2b	-0.27951178
249	0x3e322c1b	0.17399637
250	0x3cbd80ce	0.023132708
251	0xbe032089	-0.1280538
252	0xbdd98b0d	-0.10622225
253	0x3d72951a	0.059224226
254	0x3e00fc52	0.12596253
255	0x3dcda365	0.10040931

edge_model.2.bias f4 [16]
0	0xbe1e56c6	-0.15462789
1	0xbcf05cc7	-0.029341115
2	0x3d9c7c23	0.07640865
3	0x3e27a678	0.16372097
4	0xbe5726fb	-0.21010964
5	0xbdf595e0	-0.11991477
6	0x3da3cdec	0.07998261
7	0x3e338702	0.1753197
8	0x3a3e2669	0.00072536484
9	0xbe3fb23c	-0.18720335
10	0x3d908093	0.070557736
11	0x3df4fb30	0.11961973
12	0xbd8e0ef3	-0.06936445
13	0x3d9263b1	0.07147921
14	0xbd28ea6c	-0.041239187
15	0xbd6d9506	-0.058003448
