tmp/tmp9model100.pt (torch, 23679 bytes, 25 tensors)

node_encoder.0.weight f4 [16, 5]
0.10867998 -0.19462788 -0.028216768 0.2480905 0.34318095 0.39161652 -0.204877 0.4269622
-0.106938094 -0.080399625 0.41547558 0.07345457 -0.32369718 -0.2621872 0.022258567 -0.013416648
0.017236829 -0.13704574 -0.046821 0.1176669 0.16517003 0.2678504 0.3670838 0.20706195
-0.06464544 -0.39396456 0.35679057 0.24911137 0.4217155 0.06868434 0.12641099 0.17554307
0.35739014 0.28423703 0.23141785 -0.0835104 -0.2267617 0.07357186 0.28748572 -0.012013972
0.39938724 -0.2974709 0.24279778 0.09538603 -0.25862464 0.20961945 -0.24140823 0.30288026
0.24529624 -0.40536577 0.2403549 0.08838697 0.19830611 0.21576923 -0.057234567 -0.17450681
-0.09151173 -0.15794873 -0.40029326 0.17065275 -0.19466358 0.11046928 -0.11361739 0.31949264
0.032716095 -0.41970563 -0.0061485097 -0.066691905 -0.23468609 0.37817252 0.08104789 -0.13839915
-0.4409667 0.4071511 -0.3406303 0.029806187 0.2626131 -0.3745748 0.14748025 0.41558602
00000000: 9c93 de3d 884c 47be da26 e7bc 700b 7e3e
00000010: 6ab5 af3e f681 c83e 47cb 51be ca9a da3e
00000020: 5c02 dbbd 8fa8 a4bd 37b9 d43e 596f 963d
00000030: a3bb a5be 673d 86be 9957 b63c 80d1 5bbc
00000040: 4034 8d3c b855 0cbe 60c7 3fbd 58fb f03d
00000050: 5522 293e b023 893e 68f2 bb3e 0c08 543e
00000060: d464 84bd b9b5 c9be 41ad b63e 0d17 7f3e
00000070: 18eb d73e 60aa 8c3d e271 013e 90c1 333e
00000080: d7fb b63e 8487 913e cdf8 6c3e 8007 abbd
00000090: 3834 68be d8ac 963d 5431 933e 40d6 44bc
000000a0: 7c7c cc3e 1b4e 98be fb9f 783e c059 c33d
000000b0: 736a 84be 7ba6 563e b833 77be 1f13 9b3e
000000c0: f02e 7b3e 1a8c cfbe 981f 763e 3a04 b53d
000000d0: c210 4b3e 9cf2 5c3e cb6e 6abd eab1 32be
000000e0: 806a bbbd 50bd 21be 3df3 ccbe 98bf 2e3e
000000f0: e455 47be b83d e23d 3cb0 e8bd 8a94 a33e
00000100: 5001 063d a8e3 d6be 7079 c9bb c495 88bd
00000110: 8d51 70be d49f c13e 70fc a53d 82b8 0dbe
00000120: 63c6 e1be 1c76 d03e 1867 aebe 1b2c f43c
00000130: 3975 863e 45c8 bfbe 1005 173e b1c7 d43e

node_encoder.0.bias f4 [16]
-0.21163404 -0.1446093 -0.3921043 -0.44396567 -0.13303035 0.32875893 0.015218482 -0.33604982
0.29775205 0.0510638 0.42499274 -0.435675 -0.40735087 0.041521102 -0.35466784 -0.39568642
00000000: 98b6 58be 7614 14be e5c1 c8be 784f e3be
00000010: 1c39 08be 1753 a83e f156 793c b90e acbe
00000020: f572 983e 4628 513d a698 d93e cb10 dfbe
00000030: 4b90 d0be 0812 2a3d 0697 b5be 6997 cabe

node_encoder.2.weight f4 [16, 16]
0.15871973 -0.21896213 -0.2093574 0.07248062 0.062237225 0.21428628 -0.09830668 0.024610102
-0.1638564 0.047100566 0.026643287 -0.11262074 0.18707779 -0.024956372 -0.049978673 -0.11228191
-0.06518922 -0.023690885 0.06434415 0.17960262 0.0291277 0.2445991 -0.058540836 0.10332233
-0.22441536 0.13328123 0.07445428 0.09354243 -0.20197591 0.21394533 -0.10287967 -0.009738315
0.20344414 -0.27472952 0.1896101 -0.13387871 -0.2592339 -0.14805129 -0.22194487 0.1929805
0.09942231 -0.20393199 0.07708989 0.11273134 0.011870086 0.13305141 -0.2136701 0.18246716
0.18371992 0.0056253183 -0.014391029 -0.043168455 -0.0080579035 -0.13424301 0.081680864 0.047221124
-0.013296663 0.24202342 -0.0061761076 -0.1969792 0.025086105 -0.20408367 -0.20400804 -0.06865597
-0.19915612 -0.20119484 -0.03795139 0.020751268 -0.014786908 0.038131453 0.010987489 0.20852247
0.03376819 0.013669812 0.01691315 0.0052422583 -0.038643748 -0.032251798 0.21690372 0.012277281
0.17448618 0.11576459 0.24235304 0.21519011 -0.1696632 -0.16339257 -0.20871507 -0.22598523
-0.049070336 -0.13977775 0.05722327 -0.14738134 0.15773565 0.25690448 0.110060394 0.06358484
-0.21395732 -0.17589068 -0.012278593 0.12054169 0.044602722 0.07867994 -0.21699844 0.1825769
-0.16123964 0.12324511 0.17542395 -0.010537803 0.15066656 0.106357 -0.015089959 -0.23927306
-0.12929863 -0.013925112 0.1922908 0.074860185 -0.010025745 -0.11030664 0.15917343 0.029907107
0.16571617 0.0701023 -0.03193681 0.20432428 -0.07686639 -0.23856871 0.07776767 -0.1340269
-0.09000448 -0.23361132 -0.21004261 -0.039327085 -0.15819597 0.071319595 -0.16456626 0.2200537
0.2296973 -0.025269257 -0.00037846869 0.0670436 -0.014552653 -0.24011374 -0.1768511 -0.041876666
0.10573752 0.014793178 -0.23966889 -0.21028242 0.17651524 0.15073393 -0.2558799 0.18230513
-0.093714446 0.015084391 -0.05641606 0.08199927 0.15272841 0.09628492 -0.12710223 -0.12093755
-0.04865861 0.15161493 0.11817209 0.21476355 0.21026994 0.10730237 0.11607668 -0.11805469
-0.20036176 -0.1263251 0.018080393 -0.20413625 0.0946621 0.15865709 0.17467123 -0.20228542
-0.04056141 0.02463325 0.02341972 -0.2020827 0.16232811 0.015864424 -0.17964697 0.010161996
-0.0007250152 -0.039048158 -0.17589904 0.055936098 0.074101955 0.087951414 -0.1660712 0.056571174
-0.15319014 0.19903603 -0.00053662277 -0.12855142 0.124198824 0.20628057 0.14822696 -0.037265092
0.02891279 0.0052940263 0.11872141 -0.24510935 0.23420438 -0.067517534 -0.112663716 -0.06956239
0.24809206 0.1910196 -0.082149506 0.21978438 0.041870464 -0.09832214 0.102881975 0.005631298
-0.0420334 0.10072872 0.09904952 -0.2342158 -0.07760596 0.10713697 0.19393009 -0.17337003
0.15192927 -0.17310415 -0.05428006 0.050266683 -0.24140099 0.23306476 0.021372851 0.15208659
-0.24725436 0.039790023 -0.21887706 -0.1754972 -0.20560378 -0.021019287 -0.14238673 0.19397873
-0.004784572 0.074442916 0.05565756 -0.12186152 0.22592093 -0.015055654 -0.055299114 -0.16538101
-0.12204164 -0.08380808 0.23680997 -0.15581545 0.056592643 0.015459792 -0.22675738 -0.20335028
00000000: 6d87 223e 9c37 60be c961 56be b870 943d
00000010: 76ec 7e3d dd6d 5b3e 0355 c9bd 209b c93c
00000020: f9c9 27be 86ec 403d 0643 da3c b4a5 e6bd
00000030: 5291 3f3e 4e71 ccbc 70b6 4cbd 0ff4 e5bd
00000040: ed81 85bd 6313 c2bc dec6 833d c0e9 373e
00000050: 379d ee3c 3078 7a3e 84c8 6fbd a89a d33d
00000060: 24cd 65be e07a 083e 7c7b 983d 2c93 bf3d
00000070: c6d2 4ebe 7c14 5b3e 94b2 d2bd 748d 1fbc
00000080: a953 503e 59a9 8cbe 2629 423e 8017 09be
00000090: 4eba 84be c29a 17be 8445 63be ae9c 453e
000000a0: ed9d cb3d 8cd3 50be 4ee1 9d3d b0df e63d
000000b0: c07a 423c a13e 083e 56cc 5abe acd8 3a3e
000000c0: 1321 3c3e 9754 b83b 5ac8 6bbc 68d1 30bd
000000d0: 4c05 04bc 0077 09be 4c48 a73d f06a 413d
000000e0: 3fda 59bc fdd4 773e f260 cabb eab4 49be
000000f0: 6081 cd3c 4ffb 50be 7ce7 50be 809b 8cbd
00000100: 95ef 4bbe 0506 4ebe eb72 1bbd 90fe a93c
00000110: ca44 72bc ba2f 1c3d de04 343c ea86 553e
00000120: 8350 0a3d 59f7 5f3c 728d 8a3c 40c7 ab3b
00000130: e848 1ebd 761a 04bd 021c 5e3e a626 493c
00000140: 81ac 323e fc15 ed3d 652b 783e cc5a 5c3e
00000150: 31bc 2dbe 6250 27be 67b9 55be ac68 67be
00000160: fafd 48bd e621 0fbe f362 6a3d 22eb 16be
00000170: 7485 213e fc88 833e 5867 e13d c538 823d
00000180: a117 5bbe b01c 34be 272c 49bc 90de f63d
00000190: 58b1 363d f322 a13d d734 5ebe 70f5 3a3e
000001a0: 011c 25be ef67 fc3d 56a2 333e c0a6 2cbc
000001b0: 5648 1a3e b3d1 d93d e03b 77bc ff03 75be
000001c0: dc66 04be 2726 64bc e1e7 443e 4c50 993d
000001d0: 0643 24bc 73e8 e1bd 5cfe 223e c0ff f43c
000001e0: 80b1 293e cb91 8f3d 2cd0 02bd 623a 513e
000001f0: 206c 9dbd 5b4b 74be a844 9f3d 593e 09be
00000200: 4554 b8bd ce37 6fbe 6915 57be 7015 21bd
00000210: 20fe 21be 0210 923d 0f84 28be c255 613e
00000220: c535 6b3e 7901 cfbc 356d c6b9 284e 893d
00000230: 406e 6ebc 60e0 75be 7418 35be de86 2bbd
00000240: ea8c d83d 165f 723c c36b 75be 4654 57be
00000250: 69c0 343e ff59 1a3e b102 83be 32ae 3a3e
00000260: 5ced bfbd 8624 773c 8714 67bd 3cef a73d
00000270: d664 1c3e 0731 c53d 1627 02be 1bae f7bd
00000280: 404e 47bd f240 1b3e 3504 f23d faea 5b3e
00000290: 0151 573e 58c1 db3d 9cb9 ed3d a8c6 f1bd
000002a0: a22b 4dbe 5e5b 01be 551d 943c 1809 51be
000002b0: 34de c13d 0177 223e 04dd 323e e923 4fbe
000002c0: b923 26bd abcb c93c b6da bf3c c4ee 4ebe
000002d0: 5739 263e 1cf6 813c 60f5 37be 807e 263c
000002e0: f20e 3eba f6f0 1fbd e11e 34be 401d 653d
000002f0: c4c2 973d df1f b43d 920e 2abe 2db7 673d
00000300: e0dd 1cbe 1ad0 4b3e 25ac 0cba fca2 03be
00000310: f45b fe3d 373b 533e cfc8 173e 48a3 18bd
00000320: 84da ec3c 8379 ad3b 3624 f33d f2fd 7abe
00000330: 46d3 6f3e a246 8abd 3cbc e6bd ba76 8ebd
00000340: d80b 7e3e a49a 433e 003e a8bd 280f 613e
00000350: 5d80 2b3d 1e5d c9bd c9b3 d23d c086 b83b
00000360: 372b 2cbd dc4a ce3d 7ada ca3d 44d6 6fbe
00000370: e0ef 9ebd a16a db3d 9c95 463e ea87 31be
00000380: 5993 1b3e 3742 31be c554 5ebd 70e4 4d3d
00000390: d231 77be 87a8 6e3e 1e16 af3c 96bc 1b3e
000003a0: 3f30 7dbe ddfa 223d 4f21 60be 8ab5 33be
000003b0: cc89 52be a430 acbc d4cd 11be 5ca2 463e
000003c0: e6c7 9cbb 8775 983d 2ef9 633d 8892 f9bd
000003d0: d157 673e fdab 76bc 5381 62bd a459 29be
000003e0: f8f0 f9bd 92a3 abbd 507e 723e 168e 1fbe
000003f0: b0cd 673d 114b 7d3c 1633 68be 0e3b 50be

node_encoder.2.bias f4 [16]
0.026943453 -0.22123282 -0.18496798 0.193401 -0.16418839 0.03768208 0.04885547 0.19568525
-0.0059122927 0.047220226 0.14009246 0.0252117 -0.08436608 0.24928786 -0.03071946 0.0036379728
00000000: 84b8 dc3c db8a 62be 3f68 3dbe e90a 463e
00000010: 0021 28be 8658 1a3d ac1c 483d b761 483e
00000020: e8bb c1bb ff69 413d 6674 0f3e c488 ce3c
00000030: 20c8 acbd 5145 7f3e 61a7 fbbc 0e6b 6e3b

node_encoder.3.weight f4 [16]
0.9614513 0.9901687 1.005408 0.99588543 0.986803 0.9782159 1.0172588 1.0014627
0.99367785 0.99512625 0.9806474 1.0029296 0.99976885 0.9952422 1.0042894 0.98998123
00000000: ac21 763f b27b 7d3f 36b1 803f 59f2 7e3f
00000010: 1f9f 7c3f 5b6c 7a3f 8935 823f ee2f 803f
00000020: ac61 7e3f 98c0 7e3f b50b 7b3f ff5f 803f
00000030: daf0 7f3f 31c8 7e3f 8e8c 803f 696f 7d3f

node_encoder.3.bias f4 [16]
-0.016674075 0.01497407 -0.007295018 0.00036624115 0.010855866 0.012999962 0.012787812 0.00321574
0.00073221093 -0.01285007 -0.013104495 -0.0015147274 1.5420665e-07 -0.0038608927 -0.00100296 -0.012127448
00000000: 1298 88bc cd55 753c 0c0b efbb 0e04 c039
00000010: cddc 313c cbfd 543c f983 513c 2abf 523b
00000020: d8f1 3f3a 1a89 52bc 3cb4 56bc d189 c6ba
00000030: 0094 2534 0807 7dbb c175 83ba 34b2 46bc

edge_encoder.0.weight f4 [16, 4]
0.092727445 -0.12636851 -0.26662374 0.08157356 -0.4367863 -0.33642113 0.31605098 0.047219753
0.27491364 0.3169537 0.24089167 -0.46661684 0.30812034 0.04717701 0.4102946 0.20203687
0.37143907 0.2747482 0.18614443 -0.35702172 0.4569121 0.26584524 0.19409367 0.25790453
0.088091694 0.32805967 -0.44850838 0.38852912 -0.22400884 -0.48072854 -0.18752033 0.3210962
-0.33786678 0.37068224 0.1939404 0.2014257 -0.055699125 -0.01603743 0.13304777 0.204872
-0.025831679 0.47536647 -0.34828997 -0.42864206 -0.49095452 0.046088446 -0.1317522 -0.18187037
0.48867407 -0.35388243 0.06009021 0.106297106 0.49368662 0.43866163 0.36298588 0.45309126
0.16185696 -0.13867007 0.23693311 0.21356477 -0.25013244 0.31969634 -0.12265736 0.13518727
00000000: e3e7 bd3d bf66 01be e882 88be 0a10 a73d
00000010: 74a2 dfbe 643f acbe 6fd1 a13e 8069 413d
00000020: 7bc1 8c3e c147 a23e 4eac 763e 67e8 eebe
00000030: f3c1 9d3e ae3c 413d 2212 d23e c1e2 4e3e
00000040: 432d be3e ccab 8c3e a59c 3e3e 8dcb b6be
00000050: 62f0 e93e de1c 883e 7ec0 463e 100c 843e
00000060: 6b69 b43d 70f7 a73e e4a2 e5be 4aed c63e
00000070: 9362 65be 0d22 f6be 5405 40be b966 a43e
00000080: e0fc acbe 10ca bd3e 5098 463e 8a42 4e3e
00000090: c424 64bd ee60 83bc ad3d 083e f7c9 513e
000000a0: f59c d3bc 3c63 f33e 1053 b2be f976 dbbe
000000b0: 645e fbbe 3dc7 3c3d 0cea 06be 3a3c 3abe
000000c0: 7d33 fa3e 1430 b5be 2721 763d 4cb2 d93d
000000d0: 7ec4 fc3e 4298 e03e 49d9 b93e 94fb e73e
000000e0: d5bd 253e 87ff 0dbe 989e 723e b9b0 5a3e
000000f0: 5c11 80be 3daf a33e c833 fbbd 886e 0a3e

edge_encoder.0.bias f4 [16]
0.10217919 -0.07210318 0.4625831 0.12143663 0.037007958 -0.27638358 0.059969757 0.15971552
0.0038085226 0.32331496 0.4630552 0.43521002 -0.032303624 0.33285427 0.388393 -0.3115091
00000000: 5343 d13d d5aa 93bd b1d7 ec3e c5b3 f83d
00000010: a895 173d 2682 8dbe d9a2 753d 778c 233e
00000020: 6898 793b 8a89 a53e 9215 ed3e d9d3 de3e
00000030: ce50 04bd e06b aa3e 73db c63e 1f7e 9fbe

edge_encoder.2.weight f4 [16, 16]
-0.23123927 -0.061674643 0.11217993 -0.14032923 0.00033356406 0.07544578 -0.07368844 -0.24002428
0.22532861 -0.047287088 0.21051084 0.14120218 -0.057319626 0.13391079 0.031413723 0.16898033
-0.065978505 -0.18071087 0.16753523 0.11692482 0.22467513 0.11932953 0.010119629 -0.07353571
-0.10993943 0.24970296 0.14273179 -0.059545655 -0.07265391 -0.0068242806 0.2515141 0.16265333
0.15919988 0.07590319 0.022729361 0.17736164 -0.13022658 -0.18690412 0.22923546 0.09886089
-0.12969534 -0.23572867 -0.06161054 0.14437766 0.1439982 -0.04553009 0.066709965 -0.15688711
0.027625857 0.05307902 -0.03546228 0.10798422 -0.036977943 0.12417102 0.00215347 -0.06556187
0.27508035 -0.055114266 0.10496147 -0.15465708 0.24251637 -0.1905255 0.1554778 0.04174513
-0.04628894 -0.11780658 0.04344659 -0.1883787 0.11832229 -0.2589915 -0.24453405 0.23513077
0.07481449 0.012493168 0.16486658 -0.040353343 -0.08276584 -0.23125286 0.20614126 -0.2803312
0.019914927 -0.26132676 -0.06956339 -0.09004351 -0.22752587 -0.19993779 -0.08103657 0.07943327
0.1858801 -0.09365904 0.120647006 -0.03916828 0.040197153 0.16982555 0.21065128 0.047153402
-0.022988832 -0.21353668 -0.2282789 0.15130411 0.19170296 0.13702892 0.24255247 -0.17822695
0.08139794 -0.13928951 0.03455105 -0.035998356 0.012140393 0.252734 -0.15502734 -0.119109266
-0.014884964 0.004534722 -0.18177906 -0.049848717 -0.25045526 -0.07657744 0.18647112 -0.23736636
0.008116179 0.2028651 -0.07068099 0.11619093 -0.09423877 -0.206531 -0.07503988 -0.008459244
0.19075944 -0.110958755 0.11891111 -0.22242215 0.22693026 0.09453029 -0.24810517 -0.2704825
0.039825216 -0.1718341 0.023509927 -0.007307313 0.060240872 0.052655786 -0.095615946 0.078744575
0.09824162 0.01521969 0.19336158 -0.00811703 -0.09879326 -0.020734651 0.17526427 -0.04461501
0.09199108 0.19473529 -0.19712356 0.14089555 -0.11262993 0.20262128 -0.16803774 -0.2545411
-0.22507285 -0.041880704 0.036039695 0.08060765 -0.12776579 -0.10851633 0.058978833 0.21695766
-0.083955355 0.22455573 -0.09281783 -0.15036808 0.19341286 -0.10714556 -0.0729005 0.08578786
0.22217874 0.07908214 0.08914774 -0.02006814 -0.12910482 0.2583903 -0.1729866 0.12491218
0.12136042 -0.17218518 0.18340622 -0.23398083 0.2060045 -0.23855549 -0.013506449 -0.024264101
0.13853322 -0.22999595 0.042686123 -0.2119249 -0.054513376 -0.018973088 -0.003829199 0.03705549
-0.16189492 -0.06980516 0.03245436 0.073242076 -0.041013885 -0.23825091 -0.07882207 0.1639967
0.057088725 -0.004629155 -0.21732107 0.13331187 -0.23855008 0.10772251 0.21970798 0.059173573
-0.013830508 0.23463058 -0.059452783 0.08397347 0.058450107 0.19901064 -0.08140262 -0.13046929
0.10503093 0.21002272 0.25068063 0.009675419 -0.20131043 0.08565392 0.015216673 0.052470945
0.08116101 0.031139517 0.102334954 -0.058413487 -0.24005994 0.19358306 0.045821942 -0.049993705
0.12779321 -0.096385084 -0.20190762 0.0019646923 -0.07857573 -0.21728164 -0.1468568 -0.0031775145
0.19344102 0.21272318 -0.23847315 -0.10029315 -0.049596302 -0.059118334 -0.21944596 0.06966943
00000000: fdc9 6cbe 8d9e 7cbd 97be e53d 77b2 0fbe
00000010: 36e2 ae39 5183 9a3d f7e9 96bd edc8 75be
00000020: 8bbc 663e 1bb0 41bd 2790 573e 4e97 103e
00000030: fcc7 6abd e91f 093e adab 003d 2e09 2d3e
00000040: bd1f 87bd 450c 39be 5b8e 2b3e 4876 ef3d
00000050: 3d11 663e 0a63 f43d cdcc 253c e499 96bd
00000060: ed27 e1bd 22b2 7f3e 4828 123e 25e6 73bd
00000070: 93cb 94bd 379e dfbb 75c6 803e 988e 263e
00000080: 4b05 233e 2273 9b3d ed32 ba3c 4a9e 353e
00000090: 1e5a 05be cb63 3fbe b3bc 6a3e 9477 ca3d
000000a0: dbce 04be db62 71be 555b 7cbd bdd7 133e
000000b0: 4474 133e c27d 3abd 3c9f 883d 04a7 20be
000000c0: 9f4f e23c 6369 593d e540 11bd d526 dd3d
000000d0: 2f76 17bd 604d fe3d 3b21 0d3b 4d45 86bd
000000e0: 55d7 8c3e 7fbf 61bd 0af6 d63d 6d5e 1ebe
000000f0: 3656 783e 1e19 43be 9335 1f3e f1fc 2a3d
00000100: 7999 3dbd 9444 f1bd 0df5 313d 59e6 40be
00000110: f552 f23d 899a 84be 2267 7abe 1fc6 703e
00000120: 5738 993d 25b0 4c3c c9d2 283e 8c49 25bd
00000130: 2381 a9bd 8dcd 6cbe b216 533e 9287 8fbe
00000140: a124 a33c 9fcc 85be 4077 8ebd bb68 b8bd
00000150: 8bfc 68be 7ebc 4cbe 80f6 a5bd e9ad a23d
00000160: 5a57 3e3e 50d0 bfbd c715 f73d eb6e 20bd
00000170: c5a5 243d c0e6 2d3e f8b4 573e ed23 413d
00000180: 1353 bcbc 5ca9 5abe f2c1 69be 77ef 1a3e
00000190: c84d 443e 4f51 0c3e ad5f 783e 2081 36be
000001a0: f7b3 a63d e9a1 0ebe 6785 0d3d 0373 13bd
000001b0: 80e8 463c 5a66 813e 7dbf 1ebe 8fef f3bd
000001c0: 10e0 73bc 0198 943b 4a24 3abe 2b2e 4cbd
000001d0: ac3b 80be a2d4 9cbd 49f2 3e3e 2b10 73be
000001e0: b9f9 043c debb 4f3e 32c1 90bd 83f5 ed3d
000001f0: 4200 c1bd dd7c 53be 82ae 99bd a498 0abc
00000200: 7156 433e 583e e3bd ab87 f33d a2c2 63be
00000210: 6860 683e 1999 c13d 480f 7ebe af7c 8abe
00000220: c41f 233d 47f5 2fbe e497 c03c 2f72 efbb
00000230: 22bf 763d 98ad 573d 4bd2 c3bd d644 a13d
00000240: e732 c93d 025c 793c 9400 463e 4bfd 04bc
00000250: 1f54 cabd b7db a9bc 7a78 333e 3bbe 36bd
00000260: d265 bc3d b068 473e c2da 49be ec46 103e
00000270: 85aa e6bd f47b 4f3e 1612 2cbe 3653 82be
00000280: 7f79 66be 1a8b 2bbd 5c9e 133d a015 a53d
00000290: 09d5 02be cf3d debd ca93 713d 262a 5e3e
000002a0: c9f0 abbd f0f1 653e 4617 bebd 17fa 19be
000002b0: 050e 463e 226f dbbd db4c 95bd 8cb1 af3d
000002c0: d382 633e d1f5 a13d 1793 b63d f165 a4bc
000002d0: 0e34 04be bc4b 843e 6623 31be f5d1 ff3d
000002e0: d08b f83d 5051 30be d7ce 3b3e ac98 6fbe
000002f0: d8f2 523e e447 74be 274a 5dbc 82c5 c6bc
00000300: a7db 0d3e 0f84 6bbe a5d7 2e3d d702 59be
00000310: 6b49 5fbd 736d 9bbc 4cf3 7abb 7fc7 173d
00000320: c8c7 25be 02f6 8ebd ddee 043d f1ff 953d
00000330: 2dfe 27bd 0cf8 73be 776d a1bd c0ee 273e
00000340: ded5 693d 2bb0 97bb 6a89 5ebe e882 083e
00000350: 7946 74be 9f9d dc3d 21fb 603e fd5f 723d
00000360: 5b99 62bc 0043 703e c384 73bd 48fa ab3d
00000370: 6169 6f3d 72c9 4b3e 6bb6 a6bd be99 05be
00000380: 751a d73d 3210 573e 3659 803e a685 1e3c
00000390: 5224 4ebe 536b af3d 5a4f 793c c6eb 563d
000003a0: be37 a63d 4d18 ff3c fd94 d13d fb42 6fbd
000003b0: 46d2 75be a33a 463e caaf 3b3d 33c6 4cbd
000003c0: 39dc 023e 8b65 c5bd dfc0 4ebe 11c2 003b
000003d0: 50ec a0bd 147f 5ebe a161 16be d93d 50bb
000003e0: 6715 463e 1bd4 593e 4e32 74be 7f66 cdbd
000003f0: 7e25 4bbd 1126 72bd 71b6 60be d9ae 8e3d

edge_encoder.2.bias f4 [16]
-0.097872406 -0.14587206 -0.030993266 0.13043524 -0.01118615 0.16890626 0.19981332 0.13456757
-0.054038174 -0.24079883 -0.080213435 0.17563246 0.19500285 0.20916384 0.18094072 -0.13085029
00000000: 5471 c8bd 7c5f 15be 97e5 fdbc d190 053e
00000010: 1d46 37bc c3f5 2c3e dd9b 4c3e 15cc 093e
00000020: 2257 5dbd f893 76be f146 a4bd ffd8 333e
00000030: d4ae 473e 0c2f 563e 8648 393e 9efd 05be

edge_encoder.3.weight f4 [16]
0.9969593 1.0019367 0.9704443 0.983179 0.98636585 0.9970124 1.0065835 0.989189
1.0180329 0.9391635 1.0037544 1.0177721 1.0050893 1.0014266 1.0132134 0.99932873
00000000: ba38 7f3f 763f 803f 0a6f 783f 9eb1 7b3f
00000010: 7982 7c3f 343c 7f3f bad7 803f 7e3b 7d3f
00000020: e74e 823f 056d 703f 067b 803f 5b46 823f
00000030: c4a6 803f bf2e 803f fab0 813f 02d4 7f3f

edge_encoder.3.bias f4 [16]
-0.0037132953 0.0036214865 0.011908799 0.020154668 0.015360945 -0.0025802362 0.013254833 0.0033704052
-0.009569468 -0.005784535 -0.005813358 -0.012115638 -0.01954005 0.004021085 0.012417823 0.0032888027
00000000: c25a 73bb 7656 6d3b 201d 433c 671b a53c
00000010: 79ac 7b3c 2e19 29bb cd2a 593c 04e2 5c3b
00000020: 42c9 1cbc 328c bdbb fb7d bebb ab80 46bc
00000030: 7412 a0bc 4ec3 833b 2074 4b3c f488 573b

node_model.0.weight f4 [16, 48]
-0.015794301 0.101707585 0.09559852 -0.022451488 -0.01418031 -0.0073415264 0.10348362 -0.09513847
-0.11732681 0.14665973 -0.114880845 -0.048030846 -0.03586077 -0.02914623 0.053513233 0.0019440535
0.08482248 -0.13234259 -0.042927656 -0.04139419 -0.01763182 -0.060076028 -0.106768064 -0.13334125
0.08006175 0.091984496 -0.112979926 -8.682464e-05 -0.01507315 0.012348369 0.0062986608 0.08505251
-0.047669202 0.027146582 -0.04505174 -0.095774926 -0.092823446 -0.007483363 0.08840795 -0.1365829
0.15299658 -0.01098312 0.048869282 0.12154599 0.06961894 0.13682906 -0.05702987 -0.109756194
-0.12507938 0.10451623 0.139384 0.06453916 -0.09990333 0.085725896 -0.10138531 -0.11253445
-0.07593278 0.13340774 -0.124773055 0.09816321 -0.09572791 -0.067515396 0.1286833 -0.08006312
0.024024073 0.046280622 -0.07245438 -0.06378013 -0.101696976 -0.089678064 -0.016425874 0.09405661
0.03315605 -0.06283509 0.08402409 0.1488379 -0.011492826 0.13146146 -0.088937946 0.068017595
-0.014044221 -0.035283465 -0.07166478 0.12426185 -0.045318943 -0.031099616 0.06972481 0.07746817
-0.11123313 0.040940266 0.09487707 0.054512866 0.101285614 -0.041673116 0.029682536 -0.13812983
0.044809945 0.117359795 0.08163622 -0.1266777 -0.034030844 0.10735756 0.09627108 -0.026325187
0.054888904 -0.03134532 0.07885931 -0.11555221 0.032398373 -0.053580325 0.046250544 0.10189199
0.043039154 -0.03657585 -0.14786199 -0.06970772 0.10890141 -0.16318277 -0.11144347 -0.111194365
0.020011794 -0.08874872 -0.009234625 -0.08344354 0.052722823 0.076938815 -0.0724952 0.068225324
0.045650836 0.1061467 -0.037563533 -0.12068373 -0.004888027 0.04166197 -0.13921623 -0.10843319
0.07140292 0.021902531 0.075274184 0.123968676 -0.00891527 0.007439998 0.010556618 0.10382335
-0.05247605 0.089636646 0.06524778 0.11029548 -0.0649835 0.009834407 0.020401705 0.13032089
0.037368443 0.04586617 -0.013138259 -0.078386664 0.12756534 -0.0019423694 0.08953151 0.014123254
-0.08727009 0.09692945 0.10828186 -0.06438038 0.12247343 -0.120198615 -0.04616598 -0.06577227
0.035636768 0.0969191 -0.14911339 0.10085994 0.030646194 -0.117390916 -0.06511626 0.05015476
0.14271991 0.030311398 -0.116807684 -0.12270818 0.16683383 0.15344086 0.09917455 0.17357479
-0.008880806 0.071193114 0.07069336 -0.013254473 -0.024726769 -0.12714458 -0.07065288 0.0680086
-0.038538508 0.010404 0.08965329 0.03696736 0.09978312 -0.12339349 0.02810242 0.08305731
-0.06465795 0.022671748 -0.12899517 0.14078021 -0.14017493 0.03370152 -0.087721296 -0.030201893
0.09546463 -0.10553225 -0.10034738 0.01620044 -0.09020827 0.08532619 -0.112549335 -0.10059733
0.124611825 0.021986272 0.13504787 -0.094719574 -0.06746021 -0.0534392 0.055072054 -0.1315541
-0.057729572 0.041155804 0.13487999 0.09391645 -0.04090671 0.06266089 0.05057734 -0.013180613
0.0793366 -0.109462015 -0.021529395 -0.033965513 -0.10389828 0.09546454 -0.041137554 -0.051019657
0.05047541 -0.11650379 -0.06681464 0.076311834 0.090846516 -0.14298217 -0.0019076196 0.062347103
0.104270376 -0.13267374 0.05847331 -0.10135335 -0.05900933 -0.005072508 -0.15436779 -0.03352769
00000000: 0d63 81bc 114c d03d 28c9 c33d 2fec b7bc
00000010: 8854 68bc 3091 f0bb 38ef d33d f5d7 c2bd
00000020: 0a49 f0bd f82d 163e a646 ebbd febb 44bd
00000030: bee2 12bd 13c4 eebc b130 5b3d 9ccf fe3a
00000040: 69b7 ad3d d184 07be e9d4 2fbd f48c 29bd
00000050: 9b70 90bc 4812 76bd 37a9 dabd 9c8a 08be
00000060: 6af7 a33d 5e62 bc3d 0562 e7bd a015 b6b8
00000070: 60f5 76bc d050 4a3c ff64 ce3b 0330 ae3d
00000080: c840 43bd 8262 de3c 2c88 38bd a525 c4bd
00000090: 381a bebd 0037 f5bb 3a0f b53d 63dc 0bbe
000000a0: 23ab 1c3e 8bf2 33bc 282b 483d 1bed f83d
000000b0: 6094 8e3d eb1c 0c3e 2798 69bd dbc7 e0bd
000000c0: cf14 00be 9b0c d63d aeba 0e3e 1b2d 843d
000000d0: 1e9a ccbd 0f91 af3d 1aa3 cfbd 7678 e6bd
000000e0: a582 9bbd 0a9c 083e 0489 ffbd cb09 c93d
000000f0: ff0c c4bd 8345 8abd 8ec5 033e 22f8 a3bd
00000100: 22ce c43c c090 3d3d f662 94bd 289f 82bd
00000110: 8146 d0bd 22a9 b7bd 8e8f 86bc c0a0 c03d
00000120: a3ce 073d afaf 80bd d214 ac3d f668 183e
00000130: 684c 3cbc d59d 063e 1925 b6bd cf4c 8b3d
00000140: bb19 66bc 6585 10bd fcc4 92bd ff7c fe3d
00000150: 5ba0 39bd 9fc4 febc e2cb 8e3d a2a7 9e3d
00000160: 32ce e3bd fbb0 273d e94e c23d e248 5f3d
00000170: d56e cf3d 6eb1 2abd ca28 f33c e871 0dbe
00000180: a28a 373d 555a f03d e430 a73d cdb7 01be
00000190: ed63 0bbd 48de db3d c629 c53d eba7 d7bc
000001a0: 30d3 603d f363 00bd fd80 a13d a3a6 ecbd
000001b0: 28b4 043d 0b77 5bbd 3671 3d3d bfac d03d
000001c0: d349 303d 8fd0 15bd 2269 17be ecc2 8ebd
000001d0: b407 df3d 6219 27be 793c e4bd dfb9 e3bd
000001e0: c6ef a33c e4c1 b5bd d34c 17bc 72e4 aabd
000001f0: e3f3 573d 1992 9d3d 5d78 94bd b8b9 8b3d
00000200: 5ffc 3a3d 7163 d93d 38dc 19bd 0829 f7bd
00000210: be2b a0bb bea5 2a3d b38e 0ebe 3812 debd
00000220: b23b 923d f06c b33c 5a29 9a3d 4ae3 fd3d
00000230: 5a11 12bc 3acb f33b aaf5 2c3c 56a1 d43d
00000240: 20f1 56bd 6b93 b73d a1a0 853d 99e2 e13d
00000250: 1216 85bd 7e20 213c 7a21 a73c d772 053e
00000260: a70f 193d 2ade 3b3d da41 57bc 3089 a0bd
00000270: 7da0 023e 1a97 feba 4c5c b73d 3965 673c
00000280: a9ba b2bd f382 c63d e1c2 dd3d dcd9 83bd
00000290: 5ad3 fa3d b12a f6bd 8a18 3dbd 9db3 86bd
000002a0: dcf7 113d 857d c63d 2eb1 18be a88f ce3d
000002b0: ba0d fb3c a66a f0bd ac5b 85bd 146f 4d3d
000002c0: 2b25 123e 9c4f f83c de38 efbd 6d4e fbbd
000002d0: 7dd6 2a3e 9a1f 1d3e 071c cb3d 97bd 313e
000002e0: cd80 11bc b2cd 913d aec7 903d 4a29 59bc
000002f0: cb8f cabc 3032 02be 75b2 90bd 1848 8b3d
00000300: 8eda 1dbd 8a75 2a3c 259c b73d 166b 173d
00000310: 185b cc3d bab5 fcbd 0c37 e63c f319 aa3d
00000320: 636b 84bd 1aba b93c 4f17 04be b028 103e
00000330: 048a 0fbe 9b0a 0a3d 39a7 b3bd f669 f7bc
00000340: f682 c33d 4b21 d8bd ed82 cdbd c9b6 843c
00000350: 1dbf b8bd 7fbf ae3d 4480 e6bd f905 cebd
00000360: 7c34 ff3d 8e1c b43c fd49 0a3e 56fc c1bd
00000370: 9428 8abd 10e3 5abd 3c93 613d 1eb6 06be
00000380: d875 6cbd fd92 283d fb1d 0a3e 4557 c03d
00000390: cb8d 27bd 5a54 803d 2f2a 4f3d 7ff3 57bc
000003a0: 3a7b a23d 9f2d e0bd 6a5e b0bc 6c1f 0bbd
000003b0: 9fc8 d4bd ea82 c33d da7f 28bd fdf9 50bd
000003c0: 4ebf 4e3d 8a99 eebd 1dd6 88bd 6149 9c3d
000003d0: bd0d ba3d eb69 12be 1809 faba ad5f 7f3d
000003e0: b58b d53d a0db 07be b681 6f3d 5892 cfbd
000003f0: c4b3 71bd 4837 a6bb 9712 1ebe 5554 09bd

node_model.0.bias f4 [16]
-0.13873859 -0.00740512 0.04251696 0.041772004 -0.06821408 0.0826623 -0.06444388 -0.03702158
-0.0062400266 0.12201741 0.12609327 -0.022803623 0.08268635 -0.13016492 -0.042187046 -0.08330478
00000000: 7d11 0ebe a6a6 f2bb 4426 2e3d 1f19 2b3d
00000010: d3b3 8bbd da4a a93d 27fb 83bd f1a3 17bd
00000020: 2379 ccbb 44e4 f93d 981e 013e aace babc
00000030: 7657 a93d f449 05be 53cc 2cbd b29b aabd

node_model.2.weight f4 [16, 16]
0.14273651 -0.06220109 0.020918746 -0.10880484 -0.19462 -0.07407381 -0.1639463 -0.15101822
0.22159982 0.2487292 -0.21901444 0.16398045 0.25914273 -0.02912511 -0.10729393 0.18982601
0.12899898 -0.1454751 0.08046216 0.0040032277 0.19900206 0.044235427 0.037346918 0.1552972
-0.18507385 0.09230338 0.11541543 -0.15889886 -0.15081567 0.010370778 -0.11057143 -0.20994811
-0.033704676 0.107766695 0.022188965 -0.06626367 0.22094372 0.071026005 0.06555134 0.2558881
0.24977332 0.044005875 -0.2217322 -0.21769352 -0.18174997 0.09541793 -0.16237397 -0.18737401
-0.16090171 -0.13308786 -0.19305603 0.07156613 0.17238216 -0.16139059 -0.026026653 0.3196837
-0.17886494 -0.08633409 -0.11726272 0.14953119 -0.1457699 0.1057335 -0.0011366314 -0.03621758
-0.0884752 -0.11358459 0.004726043 0.154167 0.073269635 -0.11010744 0.007473328 0.035934985
0.057678048 0.11974205 0.25913936 0.22702585 -0.029651789 0.11652821 -0.05918695 -0.12566802
-0.1142988 -0.1921971 0.26287943 -0.039777648 -0.1335522 0.05494565 -0.044727083 0.067648225
-0.118608736 0.00988734 0.17565481 0.04290928 0.08972323 -0.18354361 -0.00403231 0.26302502
0.0345876 0.19248703 -0.03333585 0.0800724 -0.14831056 0.053684294 0.08654719 -0.24363749
-0.04442532 -0.07049737 0.10909708 0.09964762 -0.03916201 0.14633496 -0.21653149 0.058326617
0.22235769 -0.22103797 0.05680016 -0.13544104 -0.12662905 -0.09944033 0.20459595 0.3498108
0.14858405 -0.0011003229 0.004170544 -0.00122084 0.09807486 0.15652777 0.1602282 0.022156142
-0.10819939 0.24360688 -0.020068377 0.13075477 0.061603673 -0.06682536 0.096013665 -0.22793521
0.16571923 -0.23611192 -0.09264185 -0.1462664 -0.1469126 -0.13260895 0.14196627 0.06777388
0.18257692 -0.21651717 0.13417006 0.12048158 -0.029450381 -0.0834784 0.19585346 -0.24178846
-0.10185829 -0.19338274 -0.1646132 -0.20584571 0.20561521 -0.14489082 -0.1442516 -0.21038863
0.09812521 -0.14852628 0.054274112 0.07118897 -0.1549932 0.26738346 -0.0995013 -0.3164515
-0.22398129 0.047012836 0.15353884 -0.17725179 -0.19965105 -0.2361642 0.07535725 -0.14357182
0.06446135 0.1680452 -0.097889714 -0.06297811 -0.056404877 0.084388815 0.061162625 -0.12134244
-0.10531857 0.082540885 0.17114897 0.05354647 -0.23106544 0.12750925 -0.08119869 0.1932751
0.10975681 -0.16162607 -0.1340801 -0.18183252 -0.19511956 0.07144078 0.033260174 -0.11266993
0.20898543 0.14840606 -0.10938598 0.06915797 -0.0147762615 -0.082425036 0.14422484 -0.16335239
-0.20658349 -0.013553253 -0.1931279 0.13904996 0.19379067 0.049166698 -0.053091075 -0.04157297
0.21623692 0.08691431 0.0576096 -0.10740935 -0.07693052 0.19881 -0.15052463 0.16383857
0.22156571 -0.1418773 -0.01791 0.07016546 0.08616381 0.123111375 0.22090776 -0.085975625
-0.012095354 0.20551232 0.19608654 -0.20466919 0.15148374 0.13711634 0.13511308 0.121899836
0.14915355 -0.00572618 0.06712873 0.17299546 -0.094810575 -0.21473461 -0.024261927 0.08014537
-0.10093987 0.032346793 -0.02087642 -0.0007945086 0.26285523 -0.24091858 0.004397869 -0.07958173
00000000: 8529 123e 92c6 7ebd ca5d ab3c 12d5 debd
00000010: 774a 47be 02b4 97bd 8ae1 27be 85a4 1abe
00000020: 10eb 623e deb2 7e3e 5245 60be 7eea 273e
00000030: 5bae 843e c897 eebc ecbc dbbd c061 423e
00000040: 4f18 043e 6df7 14be 58c9 a43d 822d 833b
00000050: 32c7 4b3e 3530 353d 15f9 183d 3b06 1f3e
00000060: 0084 3dbe 8e09 bd3d ed5e ec3d 62b6 22be
00000070: 6c6f 1abe 32ea 293c 4673 e2bd a3fc 56be
00000080: ea0d 0abd c9b4 dc3d a2c5 b53c 3fb5 87bd
00000090: 123f 623e 1576 913d c83f 863d c403 833e
000000a0: 94c4 7f3e 813f 343d c40d 63be 0deb 5ebe
000000b0: aa1c 3abe 7a6a c33d 5d45 26be f9de 3fbe
000000c0: 6bc3 24be 2f48 08be 7bb0 45be 4391 923d
000000d0: f384 303e 9343 25be d935 d5bc 95ad a33e
000000e0: 5f28 37be edcf b0bd 7027 f0bd b41e 193e
000000f0: b444 15be ce8a d83d 05fb 94ba e358 14bd
00000100: 7c32 b5bd 0a9f e8bd ecdc 9a3b f4dd 1d3e
00000110: 640e 963d 0280 e1bd d2e2 f43b 9030 133d
00000120: d13f 6c3d 523b f53d eaad 843e 7779 683e
00000130: 4fe8 f2bc 58a6 ee3d 046e 72bd 1eaf 00be
00000140: 7d15 eabd 51cf 44be 2298 863e e3ed 22bd
00000150: e8c1 08be b10e 613d bf33 37bd 278b 8a3d
00000160: 23e9 f2bd 82fe 213c dbde 333e a4c1 2f3d
00000170: d0c0 b73d dbf2 3bbe 7821 84bb 37ab 863e
00000180: baab 0d3d 521b 453e 2c8b 08bd 00fd a33d
00000190: b9de 17be 10e4 5b3d a73f b13d 1b7c 79be
000001a0: 53f7 35bd ed60 90bd 4a6e df3d 0d14 cc3d
000001b0: 5868 20bd d5d8 153e 6eba 5dbe e4e7 6e3d
000001c0: bcb1 633e c757 62be 49a7 683d 0eb1 0abe
000001d0: 0cab 01be 5fa7 cbbd 9a81 513e 671a b33e
000001e0: 6b26 183e b638 90ba 0fa9 883b 9804 a0ba
000001f0: 79db c83d d148 203e dc12 243e cc80 b53c
00000200: a497 ddbd 1574 793e 7066 a4bc 94e4 053e
00000210: 2254 7c3d bcdb 88bd d0a2 c43d d967 69be
00000220: 4db2 293e 53c7 71be 03bb bdbd dcc6 15be
00000230: 4270 16be a4ca 07be 9b5f 113e 08cd 8a3d
00000240: 72f5 3a3e adb6 5dbe e063 093e 0cbf f63d
00000250: ed41 f1bc b9f6 aabd cf8d 483e 6597 77be
00000260: 149b d0bd 2006 46be 5d90 28be 38c9 52be
00000270: cb8c 523e 425e 14be b1b6 13be 1e70 57be
00000280: dff5 c83d 4617 18be 884e 5e3d 86cb 913d
00000290: 8ab6 1ebe 7ce6 883e 56c7 cbbd ee05 a2be
000002a0: 5a5b 65be 8890 403d 4939 1d3e 7e81 35be
000002b0: 5371 4cbe 07d5 71be e754 9a3d 7e04 13be
000002c0: 5004 843d 0a14 2c3e 677a c8bd abfa 80bd
000002d0: cd08 67bd 0bd4 ac3d a985 7a3d 6382 f8bd
000002e0: 43b1 d7bd 320b a93d ad41 2f3e 8b53 5b3d
000002f0: 6b9c 6cbe c991 023e 804b a6bd e8e9 453e
00000300: 2ec8 e03d 4e81 25be 4b4c 09be 4e32 3abe
00000310: 6ccd 47be 8b4f 923d d23b 083d 7ebf e6bd
00000320: 4700 563e c2f7 173e c205 e0bd b2a2 8d3d
00000330: 2218 72bc 75ce a8bd adaf 133e d945 27be
00000340: 9f8a 53be 770e 5ebc 52c3 45be 1d63 0e3e
00000350: 1071 463e 0563 493d 0776 59bd 6b48 2abd
00000360: 366d 5d3e 2100 b23d 0bf8 6b3d 6ff9 dbbd
00000370: c08d 9dbd d994 4b3e 2123 1abe 4cc5 273e
00000380: 1fe2 623e 4848 11be feb7 92bc e9b2 8f3d
00000390: a776 b03d d121 fc3d a535 623e fd13 b0bd
000003a0: 972b 46bc d271 523e e9ca 483e cd94 51be
000003b0: 8e1e 1b3e 3a68 0c3e 155b 0a3e 9fa6 f93d
000003c0: b5bb 183e aea2 bbbb ca7a 893d b925 313e
000003d0: 0c2c c2bd 64e3 5bbe f3c0 c6bc 4123 a43d
000003e0: 90b9 cebd 127e 043d 0705 abbc 9246 50ba
000003f0: f694 863e 5cb3 76be 001c 903b bffb a2bd

node_model.2.bias f4 [16]
0.1375413 0.02611136 0.034772713 -0.009928891 0.026008712 -0.23310159 -0.052545547 -0.06938745
0.029817125 -0.12579313 -0.21195519 -0.2091045 0.102899514 -0.18856847 -0.2038672 -0.013309186
00000000: a0d7 0c3e 7ee7 d53c d56d 0e3d caac 22bc
00000010: 3910 d53c 2fb2 6ebe 003a 57bd 021b 8ebd
00000020: 0b43 f43c eacf 00be c80a 59be 7d1f 56be
00000030: fbbc d23d 1818 41be 90c2 50be c60e 5abc

node_model.3.weight f4 [16]
1.0440793 1.0055219 1.0569304 1.1513025 1.0350795 1.0857978 1.0680828 1.0512121
1.0331401 1.078451 1.0176483 1.0889579 1.0390201 0.9730384 1.1373248 1.07178
00000000: 64a4 853f f1b4 803f 7f49 873f e15d 933f
00000010: 7c7d 843f 6cfb 8a3f f0b6 883f 1e8e 863f
00000020: ef3d 843f af0a 8a3f 4d42 823f f962 8b3f
00000030: 9cfe 843f 0b19 793f dc93 913f 1630 893f

node_model.3.bias f4 [16]
0.07499427 0.043356765 -0.02260113 -0.07571829 0.042461544 0.0776462 0.08275957 -0.057689484
0.06052493 0.089478046 0.06439086 -0.053732093 -0.056425575 0.06437881 0.07575313 0.061125446
00000000: 9996 993d dd96 313d 0126 b9bc 3112 9bbd
00000010: 28ec 2d3d f904 9f3d d97d a93d cf4b 6cbd
00000020: fde8 773d 4440 b73d 5bdf 833d 2f16 5cbd
00000030: 811e 67bd 0ad9 833d 7524 9b3d ad5e 7a3d

edge_model.0.weight f4 [16, 96]
0.101580195 0.019294363 -0.044857785 -0.10340535 0.04321725 -0.038901415 -0.016419442 -0.07256691
0.034860227 -0.03247626 0.058782592 -0.076500885 -0.018974116 -0.022896653 -0.04477268 0.07465532
-0.013182331 0.015662234 0.03883144 -0.041109364 0.005513319 0.08076293 0.08518219 -0.054133996
0.07758546 -0.09287211 -0.06615453 0.072846845 0.08373061 -0.06285104 0.0024145204 0.03402852
0.09552455 -0.066924 0.06388154 0.05754502 0.04077883 0.016223071 -0.10570308 -0.05581283
-0.08173719 0.059172217 0.05196001 0.016906599 -0.022326874 0.0038528808 0.09524518 -0.021825192
-0.055241026 0.07444476 -0.032913037 0.09488944 0.1000291 -0.08805307 -0.032495532 -0.10401848
-0.049777206 0.068983845 0.017895741 -0.032448865 -0.018342562 -0.02825121 -0.009759057 -0.030001402
-0.08767373 -0.070675276 0.009565447 -0.087543 0.03122899 -0.01912576 -0.058126338 0.08460581
0.082580835 0.011419182 -0.034251127 -0.072246775 0.0631673 -0.02406665 0.037749868 0.014502334
-0.002459729 0.09530699 -0.02559581 0.04720481 0.029785933 -0.09684044 -0.05611656 -0.10027354
-0.044273205 0.031753425 0.03362593 -0.02267542 -0.049433805 -0.0658388 0.07231471 0.07983207
-0.04390124 -0.018121518 -0.06528022 -0.04825146 0.028963447 0.034543768 0.050328985 -0.03400085
0.013458781 -0.057235934 -0.039701875 -0.05682577 -0.054093823 0.037163153 -0.035460293 -0.09977541
-0.07836303 -0.08065779 0.050582647 -0.006503865 -0.0058085024 -0.07718092 -0.009388462 0.092737585
0.041541606 0.039298102 -0.07647304 0.06981705 -0.02541171 -0.0021624342 0.058091834 0.013022326
0.08911252 0.09244132 -0.08449962 -0.02049806 0.09209271 0.059095398 -0.033404887 -0.039644457
0.04639788 0.09989937 -0.047241192 0.032646 -0.09350559 0.060304374 -0.07114091 0.042106986
-0.060295615 -0.018506221 -0.0040112287 -0.047798127 -0.093544915 -0.09385002 0.010288157 -0.04462655
-0.0830537 0.048891023 -0.01933176 -0.10053982 -0.100377284 0.0037797615 -0.006588988 0.033460915
-0.053635355 0.026337072 0.04133886 -0.06139942 -0.042546093 -0.07965749 -0.036739066 -0.007222548
0.080072656 0.074980766 -0.050899163 0.0251704 -0.092827104 0.044850424 -0.04314674 0.10050067
-0.08128543 -0.050769296 0.02910474 0.061505422 0.05099581 -0.07141602 0.017669111 0.078573436
0.06819123 -0.029821746 0.014401369 0.029787794 0.064775094 0.030331954 -0.05465151 0.0057768673
-0.07704498 0.016709007 0.022448441 0.052221432 0.05494862 0.020998606 -0.004141855 -0.07449117
0.08260455 0.017131962 0.029115828 0.03924152 -0.05195159 -0.08634755 0.08974824 0.06447055
-0.008629043 0.013185634 0.036194608 -0.03409488 0.03829868 0.049235713 0.08531634 0.036887556
0.005573728 -0.09295125 0.10185014 -0.09982492 -0.10264049 0.0788199 0.014661351 0.005836112
0.036587786 -0.09310525 -0.04588209 0.069825955 -0.0741753 0.01463282 0.007781767 0.009725965
-0.10496524 0.025087075 -0.017360043 -0.058056295 -0.051185165 -0.014605003 -0.00085286616 0.09631933
-0.12666455 -0.04462335 0.02445487 0.058227863 -0.0056560826 0.025590947 0.08472824 0.054662533
0.10422618 0.0990687 0.11331659 -0.07054255 -0.14196965 -0.020264994 0.0070743198 0.020332973
00000000: 4709 d03d 360f 9e3c ccbc 37bd 2fc6 d3bd
00000010: 9204 313d 1757 1fbd 1182 86bc f69d 94bd
00000020: 99c9 0e3d d405 05bd 04c6 703d 7fac 9cbd
00000030: 9b6f 9bbc c391 bbbc 8f63 37bd e3e4 983d
00000040: b4fa 57bc 164e 803c b70d 1f3d 4b62 28bd
00000050: 12a9 b43b 0967 a53d 0074 ae3d 9cbb 5dbd
00000060: 20e5 9e3d bc33 bebd 077c 87bd ba30 953d
00000070: f47a ab3d 0cb8 80bd ee3c 1e3b 7d61 0b3d
00000080: 60a2 c33d 730f 89bd 53d4 823d 54b4 6b3d
00000090: b407 273d 3fe6 843c db7a d8bd fe9b 64bd
000000a0: d465 a7bd 915e 723d 05d4 543d b57f 8a3c
000000b0: d9e6 b6bc 9d80 7c3b e80f c33d bfca b2bc
000000c0: 6a44 62bd 7f76 983d d2cf 06bd 6555 c23d
000000d0: 0fdc cc3d 2b55 b4bd 091a 05bd a407 d5bd
000000e0: 2fe3 4bbd 6747 8d3d 179a 923c 1ae9 04bd
000000f0: 2443 96bc 156f e7bc 74e4 1fbc 80c5 f5bc
00000100: 498e b3bd 33be 90bd 65b8 1c3c bf49 b3bd
00000110: f0d3 ff3c a0ad 9cbc e215 6ebd d045 ad3d
00000120: 2420 a93d 8517 3b3c e94a 0cbd 1ef6 93bd
00000130: db5d 813d 6c27 c5bc 9b9f 1a3d 339b 6d3c
00000140: 6833 21bb 5030 c33d 4eae d1bc d559 413d
00000150: a101 f43c 4854 c6bd 7ada 65bd 375c cdbd
00000160: d257 35bd e10f 023d 58bb 093d cdc1 b9bc
00000170: 1a7b 4abd 7ed6 86bd bc19 943d ff7e a33d
00000180: c9d1 33bd 9473 94bc a3b1 85bd 53a3 45bd
00000190: c044 ed3c c47d 0d3d c425 4e3d 7a44 0bbd
000001a0: 3882 5c3c 3a70 6abd 6f9e 22bd 23c2 68bd
000001b0: 7c91 5dbd 6438 183d d03e 11bd 0d57 ccbd
000001c0: cc7c a0bd e92f a5bd c02f 4f3d 601e d5bb
000001d0: 4055 bebb 0811 9ebd 10d2 19bc 34ed bd3d
000001e0: 8827 2a3d 0cf7 203d e69d 9cbd 3efc 8e3d
000001f0: 382c d0bc a0b7 0dbb b4f1 6d3d 985b 553c
00000200: a080 b63d e051 bd3d 230e adbd 8ceb a7bc
00000210: 1a9b bc3d 040e 723d 90d3 08bd 3a62 22bd
00000220: b40b 3e3d 0a98 cc3d fb7f 41bd d0b7 053d
00000230: dc7f bfbd b801 773d 53b2 91bd 6078 2c3d
00000240: 89f8 76bd 5c9a 97bc a070 83bb f8c7 43bd
00000250: 7a94 bfbd 7034 c0bd a88f 283c 54ca 36bd
00000260: 0f18 aabd f441 483d a45d 9ebc d2e7 cdbd
00000270: 9b92 cdbd e0b5 773b 70e8 d7bb 500e 093d
00000280: bfb0 5bbd d8c0 d73c f052 293d f57d 7bbd
00000290: d044 2ebd 7723 a3bd b47b 16bd 20ab ecbb
000002a0: 22fd a33d 848f 993d a47b 50bd 2832 ce3c
000002b0: 231c bebd 14b5 373d a3ba 30bd 4cd3 cd3d
000002c0: fa78 a6bd 77f3 4fbd 106d ee3c 1ced 7b3d
000002d0: fce0 503d 9042 92bd d0be 903c 1ceb a03d
000002e0: d8a7 8b3d bc4c f4bc b8f3 6b3c 8805 f43c
000002f0: cea8 843d b87a f83c 43da 5fbd e04b bd3b
00000300: c2c9 9dbd 54e1 883c cbe5 b73c 24e6 553d
00000310: ce11 613d 4505 ac3c 66b8 87bb d48e 98bd
00000320: 932c a93d 5458 8c3c 5184 ee3c b7bb 203d
00000330: 31cb 54bd fcd6 b0bd edcd b73d 2309 843d
00000340: d460 0dbc 8f08 583c cc40 143d 13a7 0bbd
00000350: 14df 1c3d 63ab 493d 55ba ae3d 6817 173d
00000360: d2a3 b63b 3a5d bebd ce96 d03d 0271 ccbd
00000370: 2d35 d2bd 546c a13d 2a36 703c db3c bf3b
00000380: 13dd 153d f7ad bebd dcee 3bbd e900 8f3d
00000390: 38e9 97bd 7fbe 6f3c 31fe fe3b a759 1f3c
000003a0: 04f8 d6bd 6983 cd3c a636 8ebc 70cc 6dbd
000003b0: 89a7 51bd d349 6fbc e192 5fba 1243 c53d
000003c0: 5ab4 01be f9c6 36bd 9455 c83c 5780 6e3d
000003d0: a956 b9bb 1ba4 d13c 0086 ad3d d2e5 5f3d
000003e0: 8974 d53d 88e4 ca3d 8712 e83d 9d78 90bd
000003f0: 7e60 11be c602 a6bc b2cf e73b 5691 a63c

edge_model.0.bias f4 [16]
0.07703202 0.040399015 0.031444654 -0.07565816 -0.07575934 0.017212415 0.010290827 -0.09324105
-0.0051774117 -0.059703484 -0.08286743 0.079502806 0.022502303 0.094445564 -0.050782528 -0.08468518
00000000: f7c2 9d3d 7079 253d 1ccc 003d aaf2 9abd
00000010: b627 9bbd 0d01 8d3c db9a 283c 2af5 bebd
00000020: 47a7 a9bb a48b 74bd 66b6 a9bd 5ed2 a23d
00000030: c056 b83c ad6c c13d 5701 50bd 6c6f adbd

edge_model.2.weight f4 [16, 16]
-0.20799138 0.08522618 0.23610839 0.04607973 0.22230966 0.11980251 0.04163907 0.088458106
-0.19379838 0.01825059 0.13193893 -0.22551452 -0.052312165 0.08692331 0.24500394 0.059210163
0.023104714 -0.015455782 0.016213102 0.116001084 0.019876763 0.18028075 -0.16884649 -0.06765196
0.09830949 0.21459824 0.077556215 0.15587968 -0.08355948 -0.1698737 -0.20187138 0.040241465
-0.08858682 0.0069236457 -0.20979619 0.10307991 -0.21074025 -0.07243588 -0.040511943 0.12290196
0.06852056 0.19767761 -0.031214656 -0.0027803483 -0.16968623 0.17012033 0.21015342 0.17528133
-0.21934402 0.046462715 -0.13871953 -0.05908966 -0.2304004 0.046421826 0.15234485 0.12798119
0.01724181 0.110304326 0.07800468 0.23682041 -0.21489123 -0.25982204 -0.04705306 0.22459729
-0.022978745 0.099051446 0.15193856 0.1739151 -0.08943297 -0.052026883 -0.2214701 0.24074753
0.033474606 -0.16191731 -0.15904723 -0.15172423 0.23994884 0.16870242 0.0072954763 -0.19480741
0.16848212 0.10953307 -0.011567641 0.061508365 0.2447981 -0.18384294 -0.15682879 -0.07256994
0.13684961 -0.19161831 -0.18013614 0.07662698 -0.18015036 -0.0117807435 0.044558663 0.07295463
-0.14064659 0.10575488 -0.1347555 0.16738355 0.18009382 0.027716497 -0.042704385 -0.17279862
0.19358493 0.12883332 0.04569191 -0.048542272 0.20628762 -0.13178262 -0.039079547 0.23087357
0.0705652 -0.07987395 0.23133466 0.011366844 0.24915597 -0.0042484794 0.078926735 -0.14836292
-0.06336543 0.13837843 0.032844786 -0.19586994 0.058678567 0.16202979 -0.13369516 0.11807301
-0.16173868 -0.21822515 0.15398532 -0.0923091 -0.16072996 -0.13502765 -0.20744611 0.19327486
-0.093029045 0.22865604 0.03520173 -0.10743581 -0.19660959 -0.1721319 0.26620033 0.021547476
-0.2271216 0.19571662 -0.23266375 0.24196051 -0.16496862 0.10594813 -0.19599143 -0.24893129
0.11937549 0.050238114 0.09650898 0.08049008 0.2138778 -0.17371997 0.18957686 0.036984123
-0.075834624 0.0028737485 -0.19109567 0.19184428 0.190105 0.101610936 0.13485861 -0.15629406
0.022597717 0.26218975 -0.23440777 0.13736744 -0.17921492 -0.18885382 -0.05193714 -0.074447826
-0.13818105 0.1230548 0.03453491 0.2324898 0.17266347 0.046706934 0.078296386 -0.19090214
0.13220043 -0.13088986 -0.2347399 0.08450151 0.05536592 0.22970869 0.2315377 0.08883936
-0.24119318 0.21005127 -0.066389374 -0.1226879 -0.02164522 0.16528925 0.07087605 0.124365464
0.046878494 0.13887586 -0.11874437 -0.12503682 0.17696536 -0.113370895 0.18620163 -0.087121285
0.11133442 -0.18291113 -0.016712766 0.13798417 -0.18951246 -0.0010852364 0.14390883 0.010931368
-0.054664243 -0.19841738 0.0064027924 -0.13657294 -0.05589196 0.14716212 -0.12745748 0.02720449
-0.22181836 -0.1823056 -0.093015894 0.0697876 -0.08020364 0.1903298 0.22049613 -0.0014106774
0.11091257 0.05299715 -0.07287958 0.088202275 0.022047848 0.15398945 -0.08178922 0.0004791491
0.013138952 -0.033771902 0.1776399 -0.18980224 0.13346793 0.0687181 -0.07530327 -0.09180992
-0.029412342 0.021716207 0.20317206 -0.17078255 -0.110254854 -0.15130872 0.04506708 0.14046165
00000000: b1fb 54be 108b ae3d 66c6 713e 19be 3c3d
00000010: 25a5 633e 055b f53d bb8d 2a3d 8629 b53d
00000020: 1573 46be 4382 953c 001b 073e 47ed 66be
00000030: 4845 56bd d904 b23d 50e2 7a3e 5b86 723d
00000040: 1946 bd3c 403a 7dbc 57d1 843c fa91 ed3d
00000050: 98d4 a23c 849b 383e 18e6 2cbe 1c8d 8abd
00000060: 7c56 c93d a4bf 5b3e cbd5 9e3d ec9e 1f3e
00000070: 3c21 abbd 5ff3 2dbe 5fb7 4ebe 3cd4 243d
00000080: 026d b5bd c0df e23b d0d4 56be 8f1b d33d
00000090: 4bcc 57be 4359 94bd daef 25bd 06b4 fb3d
000000a0: 8254 8c3d 006c 4a3e e1b5 ffbc 8136 36bb
000000b0: 3ac2 2dbe 0634 2e3e 7532 573e f37c 333e
000000c0: b89b 60be b04f 3e3d 7e0c 0ebe 0008 72bd
000000d0: 15ee 6bbe d024 3e3d 4a00 1c3e 800d 033e
000000e0: b23e 8d3c 3ce7 e13d ebc0 9f3d 0d81 723e
000000f0: 720c 5cbe 6507 85be b6ba 40bd d5fc 653e
00000100: ec3d bcbc 7cdb ca3d c895 1b3e cd16 323e
00000110: a228 b7bd 241a 55bd 0fc9 62be 8586 763e
00000120: ab1c 093d a7cd 25be 47dd 22be 995d 1bbe
00000130: 26b5 753e 54c0 2c3e e40e ef3b 987b 47be
00000140: 9486 2c3e e052 e03d 3486 3dbc 32f0 7b3d
00000150: 5aac 7a3e 5341 3cbe ba97 20be 8c9f 94bd
00000160: 4e22 0c3e 9737 44be 9c75 38be 9bee 9c3d
00000170: 5679 38be 0504 41bc 2583 363d 3d69 953d
00000180: a905 10be 0496 d83d 59fd 09be 9866 2b3e
00000190: 846a 383e b50d e33c cbea 2ebd 1ff2 30be
000001a0: 213b 463e e2ec 033e 7127 3b3d 43d4 46bd
000001b0: 103d 533e 06f2 06be e011 20bd 1f6a 6c3e
000001c0: 7d84 903d f494 a3bd fee2 6c3e 003c 3a3c
000001d0: be22 7f3e d436 8bbb 57a4 a13d 73ec 17be
000001e0: bcc5 81bd 13b3 0d3e 4188 063d 2192 48be
000001f0: f058 703d 23eb 253e 62e7 08be 43d0 f13d
00000200: d39e 25be 6a76 5fbe 54ae 1d3e 8e0c bdbd
00000210: 6596 24be b044 0abe c16c 54be d8e9 453e
00000220: 0386 bebd cf24 6a3e b02f 103d 4e07 dcbd
00000230: 0654 49be 5843 30be 694b 883e 5584 b03c
00000240: 9192 68be f069 483e 683f 6ebe 7fc4 773e
00000250: 89ed 28be 55fb d83d fab1 48be d8e7 7ebe
00000260: 237b f43d 7bc6 4d3d 80a6 c53d fcd7 a43d
00000270: c802 5b3e a6e3 31be 7020 423e aa7c 173d
00000280: 2f4f 9bbd 8055 3c3b 95ae 43be d472 443e
00000290: e3aa 423e 6519 d03d 6018 0a3e 8d0b 20be
000002a0: d91e b93c bc3d 863e 9708 70be 0daa 0c3e
000002b0: 1e84 37be e562 41be 0abc 54bd 1a78 98bd
000002c0: 557f 0dbe 2804 fc3d 7a74 0d3d ce11 6e3e
000002d0: b1ce 303e c54f 3f3d db59 a03d da7b 43be
000002e0: 8d5f 073e fe07 06be a85f 70be 210f ad3d
000002f0: 60c7 623d c138 6b3e 3818 6d3e 69f1 b53d
00000300: 58fb 76be ae17 573e 27f7 87bd cb43 fbbd
00000310: 5151 b1bc 9641 293e 7627 913d 52b3 fe3d
00000320: aa03 403d 7935 0e3e 4030 f3bd a709 00be
00000330: 6836 353e 002f e8bd a4ab 3e3e a56c b2bd
00000340: 4d03 e43d 0e4d 3bbe 36e9 88bc b94b 0d3e
00000350: 8e0f 42be 7e3e 8eba d65c 133e 7b19 333c
00000360: 9de7 5fbd ed2d 4bbe 84ce d13b c7d9 0bbe
00000370: f8ee 64bd abb1 163e 3784 02be f3db de3c
00000380: 5a24 63be 52ae 3abe 1e7f bebd cdec 8e3d
00000390: ce41 a4bd d1e5 423e bdc9 613e 7be6 b8ba
000003a0: 2126 e33d 8a13 593d e441 95bd 65a3 b43d
000003b0: b09d b43c 69af 1d3e 1b81 a7bd 4e36 fb39
000003c0: c244 573c 6854 0abd 3ce7 353e 855b 42be
000003d0: d1ab 083e 13bc 8c3d 9a38 9abd d706 bcbd
000003e0: 27f2 f0bc 30e6 b13c 560c 503e 9fe1 2ebe
000003f0: 4ccd e1bd acf0 1abe 4298 383d 2ed5 0f3e

edge_model.2.bias f4 [16]
-0.18551606 0.052287277 -0.19343153 -0.116184324 0.20198403 0.20233868 -0.09624798 0.23471747
-0.23015785 -0.17021859 0.115011744 -0.24464971 0.22051376 -0.0061985874 0.122185536 0.12741484
00000000: ecf7 3dbe 2f2b 563d ea12 46be 0cf2 edbd
00000010: e7d4 4e3e df31 4f3e a91d c5bd c759 703e
00000020: 80ae 6bbe c84d 2ebe 478b eb3d 7485 7abe
00000030: 5cce 613e 851d cbbb 693c fa3d 0979 023e

edge_model.3.weight f4 [16]
1.0186799 0.999338 1.0162767 1.027001 1.0333332 1.0206215 0.99244404 1.0336394
0.9834223 0.99554235 0.99562824 0.99934345 1.0066068 1.0204172 0.9979104 1.0120534
00000000: 1a64 823f 9dd4 7f3f 5b15 823f c574 833f
00000010: 4344 843f baa3 823f d010 7e3f 4c4e 843f
00000020: 90c1 7b3f dddb 7e3f 7ee1 7e3f f9d4 7f3f
00000030: 7ed8 803f 089d 823f 0e77 7f3f f78a 813f

edge_model.3.bias f4 [16]
0.0017503599 -0.013673153 -0.013922579 -0.010650952 0.017687535 0.013361859 0.012275288 0.022099873
0.0103979185 -0.0042137015 0.010923619 0.0053754323 -0.0032580108 -0.02042511 -0.01214426 -0.0022149088
00000000: 556c e53a 5c05 60bc 871b 64bc 5581 2ebc
00000010: 73e5 903c b3eb 5a3c 4a1e 493c cb0a b53c
00000020: 085c 2a3c 1713 8abb fbf8 323c 6524 b03b
00000030: 5a84 55bb 8f52 a7bc b8f8 46bc 0128 11bb

node_decoder.0.weight f4 [1, 16]
0.22729464 0.030534344 -0.093054324 -0.30493906 0.12380827 0.22850434 0.23429278 -0.2922787
0.16780129 0.1460694 0.22128023 -0.2574559 -0.204387 0.07766057 0.2973227 0.20909072
00000000: edbf 683e 2923 fa3c 4493 bebd f920 9cbe
00000010: 318f fd3d 0bfd 693e 72ea 6f3e 8ea5 95be
00000020: 1ad4 2b3e 3793 153e 4997 623e 42d1 83be
00000030: d34a 51be 810c 9f3d ae3a 983e e11b 563e
