tmp/tmp9model500.pt (torch, 23679 bytes, 25 tensors)

node_encoder.0.weight f4 [16, 5]
00000000: 2aea c73d 3b68 55be f9bd b4bc 700b 7e3e
00000010: 0f0b aa3e ee38 c83e 9715 51be 05fa da3e
00000020: 5c02 dbbd 43f6 b9bd f3fa d83e 3176 a73d
00000030: a3bb a5be 673d 86be 76cf ccbb 80d1 5bbc
00000040: 4034 8d3c b855 0cbe 60c7 3fbd 58fb f03d
00000050: 84d9 253e aab8 853e 32fa c53e 0c08 543e
00000060: 7bf9 72bd 6c82 ccbe 7588 af3e d42c 893e
00000070: 18eb d73e 2cb5 893d 4d12 043e d1d9 373e
00000080: da91 b53e 8487 913e 1589 813e 8007 abbd
00000090: 3834 68be d8ac 963d 5431 933e 40d6 44bc
000000a0: 3c3d cc3e c327 99be b0c8 753e c059 c33d
000000b0: 9e9f 82be 0f5e 553e 7ae7 7abe 8e9b 9e3e
000000c0: f02e 7b3e e78b c6be 7069 7c3e 75fb f23d
000000d0: b44d 353e 9cf2 5c3e 36af 45bd eab1 32be
000000e0: 806a bbbd 50bd 21be 3df3 ccbe 98bf 2e3e
000000f0: e455 47be b83d e23d 3cb0 e8bd 8a94 a33e
00000100: 5001 063d a8e3 d6be 7079 c9bb c495 88bd
00000110: 8d51 70be d49f c13e 70fc a53d 82b8 0dbe
00000120: 63c6 e1be 1c76 d03e 1867 aebe 86fb c93c
00000130: 25d2 833e 45c8 bfbe 1005 173e 9d24 d23e
0.0976146 -0.20840542 -0.022063242 0.2480905 0.33211562 0.39105934 -0.20418392 0.42768875
-0.106938094 -0.09080174 0.4237896 0.0817684 -0.32369718 -0.2621872 -0.006250317 -0.013416648
0.017236829 -0.13704574 -0.046821 0.1176669 0.16196257 0.2611745 0.38667446 0.20706195
-0.059319954 -0.39943254 0.34283796 0.26792014 0.4217155 0.06724009 0.12897606 0.17954184
0.35462838 0.28423703 0.25299898 -0.0835104 -0.2267617 0.07357186 0.28748572 -0.012013972
0.39890468 -0.29913148 0.24002337 0.09538603 -0.25512403 0.20836662 -0.24502364 0.30978054
0.24529624 -0.38778612 0.24649596 0.11864368 0.17705423 0.21576923 -0.048262797 -0.17450681
-0.09151173 -0.15794873 -0.40029326 0.17065275 -0.19466358 0.11046928 -0.11361739 0.31949264
0.032716095 -0.41970563 -0.0061485097 -0.066691905 -0.23468609 0.37817252 0.08104789 -0.13839915
-0.4409667 0.4071511 -0.3406303 0.024656069 0.25746265 -0.3745748 0.14748025 0.4104356

node_encoder.0.bias f4 [16]
00000000: 4c0b 64be 9aa6 14be 2980 c4be 784f e3be
00000010: ee81 0bbe 6386 a53e a4ae 913c b90e acbe
00000020: b733 983e c306 4c3d 8dbd dc3e cb10 dfbe
00000030: 4b90 d0be 0812 2a3d 0697 b5be 7d3a cdbe
-0.22269934 -0.14516678 -0.38379028 -0.44396567 -0.13623783 0.3232909 0.01778347 -0.33604982
0.29726955 0.049811136 0.43113366 -0.435675 -0.40735087 0.041521102 -0.35466784 -0.40083686

node_encoder.2.weight f4 [16, 16]
00000000: 5ca8 3a3e 5ab0 5bbe f325 60be b870 943d
00000010: 7c34 7e3d ecac 583e b464 c5bd 209b c93c
00000020: ac4f 25be b913 4c3d 9210 dc3c b4a5 e6bd
00000030: 5291 3f3e 4e71 ccbc 70b6 4cbd 2014 07be
00000040: 1708 74bd fa00 cbbc 5739 893d c0e9 373e
00000050: e47a fa3c 06bc 803e 484e 67bd a89a d33d
00000060: 1be4 66be d98c 063e 8598 9a3d 2c93 bf3d
00000070: c6d2 4ebe 7c14 5b3e 94b2 d2bd 45a2 383b
00000080: a856 673e 2ded 8fbe 1027 603e 8017 09be
00000090: 2066 85be 92e7 12be 037b 65be ae9c 453e
000000a0: 033a c63d f30a 58be ace0 a13d b0df e63d
000000b0: c07a 423c a13e 083e 56cc 5abe f7cd 1f3e
000000c0: ea3d 463e 790e a73b 2925 3cbc 68d1 30bd
000000d0: e71e c1bb 62c9 06be b14c b03d f06a 413d
000000e0: 5912 44bc 1a9b 733e e0f1 69bb eab4 49be
000000f0: 6081 cd3c 4ffb 50be 7ce7 50be fa77 a0bd
00000100: 623b 3bbe 498e 43be 5107 18bd 90fe a93c
00000110: c2ef 52bc ab1c 203d bc94 6f3c ea86 553e
00000120: 5287 193d f798 b63c ed9f 9c3c 40c7 ab3b
00000130: e848 1ebd 761a 04bd 021c 5e3e dae6 ec3c
00000140: 269f 293e 8e03 e73d 02cb 793e cc5a 5c3e
00000150: 892a 2dbe ee5c 25be 31a6 55be ac68 67be
00000160: 20e8 4cbd 9465 12be c29f 6b3d 22eb 16be
00000170: 7485 213e fc88 833e 5867 e13d 00b7 313d
00000180: 4d3a 54be f52f 36be 22ab cabb 90de f63d
00000190: 9bf6 303d 16ce 9e3d 4546 60be 70f5 3a3e
000001a0: e9b8 25be 72d4 f83d 1cd8 333e c0a6 2cbc
000001b0: 5648 1a3e b3d1 d93d e03b 77bc fe6f 82be
000001c0: 7045 ddbd a03a 6dbc 013c 453e 4c50 993d
000001d0: 0f3e 40bc 6e76 e5bd 717a 223e c0ff f43c
000001e0: d7a4 283e aaae 893d 7bcd 06bd 623a 513e
000001f0: 206c 9dbd 5b4b 74be a844 9f3d 3b7a 0bbe
00000200: 1ae8 c4bd ec80 6bbe 397e 57be 7015 21bd
00000210: 0b5c 23be 064c 8d3d c513 2abe c255 613e
00000220: 507b 6b3e b77c 8fbc b1d3 a2ba 284e 893d
00000230: 406e 6ebc 60e0 75be 7418 35be 7419 b03c
00000240: 8664 c73d 7902 ea3c 5140 83be 4654 57be
00000250: 6bfa 333e bfeb 123e 8707 83be 32ae 3a3e
00000260: 0c37 afbd d881 fa3c f54d 7ebd 3cef a73d
00000270: d664 1c3e 0731 c53d 1627 02be a4f4 efbd
00000280: 1f7c 54bd 8350 193e 8094 f63d faea 5b3e
00000290: c34d 563e 5493 db3d 50ad e83d a8c6 f1bd
000002a0: 7bdb 4dbe b709 02be b382 983c 1809 51be
000002b0: 34de c13d 0177 223e 04dd 323e e56d 46be
000002c0: 2126 9cbd 9e76 f93c a9e2 1f3c c4ee 4ebe
000002d0: bb1d 253e 6e44 3d3c 8aa0 38be 807e 263c
000002e0: 0225 5e3a a957 00bd 4a28 36be 401d 653d
000002f0: c4c2 973d df1f b43d 920e 2abe 3218 933d
00000300: 2664 29be 0f2d 4c3e 8ef2 20bb fca2 03be
00000310: 504c 003e e346 543e 54da 173e 48a3 18bd
00000320: e785 e63c 4f62 d63b ef0d f03d f2fd 7abe
00000330: 46d3 6f3e a246 8abd 3cbc e6bd eae5 48bd
00000340: 2651 6c3e 9136 483e e205 abbd 280f 613e
00000350: e2d0 343d ba05 c7bd 28e2 d33d c086 b83b
00000360: 06d1 1fbd f459 de3d 8f2e cd3d 44d6 6fbe
00000370: e0ef 9ebd a16a db3d 9c95 463e fba6 3ebe
00000380: 53ed 063e 7475 2fbe 635e 6cbd 70e4 4d3d
00000390: d39e 74be afe7 703e 2f49 b43c 96bc 1b3e
000003a0: 096d 7cbe 37c0 323d c6ac 5fbe 8ab5 33be
000003b0: cc89 52be a430 acbc d4cd 11be 678c 413e
000003c0: 2d64 91ba e950 7e3d ebec 7c3d 8892 f9bd
000003d0: bb2c 673e 2764 44bc a0fc 64bd a459 29be
000003e0: c130 01be 58f1 c8bd b2ac 723e 168e 1fbe
000003f0: b0cd 673d 114b 7d3c 1633 68be eef0 4ebe
0.18228287 -0.21453992 -0.21889476 0.07248062 0.06206177 0.21159714 -0.09638348 0.024610102
-0.16143674 0.049823496 0.02686337 -0.11262074 0.18707779 -0.024956372 -0.049978673 -0.13191271
-0.059578028 -0.02478074 0.0670039 0.17960262 0.030576177 0.2514345 -0.05647114 0.10332233
-0.22547953 0.13139667 0.07548622 0.09354243 -0.20197591 0.21394533 -0.10287967 0.0028172892
0.2259165 -0.28110638 0.21889901 -0.13387871 -0.26054478 -0.1434615 -0.22410206 0.1929805
0.096790336 -0.21097927 0.07904181 0.11273134 0.011870086 0.13305141 -0.2136701 0.15605913
0.19359556 0.005098161 -0.011483469 -0.043168455 -0.0058935764 -0.13162759 0.08608378 0.047221124
-0.011967265 0.23789635 -0.0035697147 -0.1969792 0.025086105 -0.20408367 -0.20400804 -0.07835384
-0.18284371 -0.19097246 -0.037116352 0.020751268 -0.0128745455 0.03908984 0.014622863 0.20852247
0.037482567 0.022289736 0.019119227 0.0052422583 -0.038643748 -0.032251798 0.21690372 0.028918672
0.16564617 0.11279975 0.24393848 0.21519011 -0.16910757 -0.16148731 -0.20864178 -0.22598523
-0.05002606 -0.14296561 0.057525404 -0.14738134 0.15773565 0.25690448 0.110060394 0.043387413
-0.20725365 -0.17791732 -0.0061849514 0.12054169 0.04320393 0.077541515 -0.21901806 0.1825769
-0.16183819 0.12149896 0.17562908 -0.010537803 0.15066656 0.106357 -0.015089959 -0.25476068
-0.1080426 -0.014479309 0.19261171 0.074860185 -0.011733546 -0.11204229 0.1586702 0.029907107
0.16469131 0.06722768 -0.032910805 0.20432428 -0.07686639 -0.23856871 0.07776767 -0.13620846
-0.09614582 -0.22998399 -0.21044244 -0.039327085 -0.1595308 0.06899266 -0.16609104 0.2200537
0.22996259 -0.017515523 -0.0012422708 0.0670436 -0.014552653 -0.24011374 -0.1768511 0.021496512
0.0973597 0.028565632 -0.25635007 -0.21028242 0.17575996 0.14347742 -0.2559168 0.18230513
-0.08555421 0.030579492 -0.062086064 0.08199927 0.15272841 0.09628492 -0.12710223 -0.11716583
-0.051876184 0.14972119 0.12040043 0.21476355 0.20928101 0.1072146 0.11361182 -0.11805469
-0.20103256 -0.12699018 0.01861701 -0.20413625 0.0946621 0.15865709 0.17467123 -0.19377859
-0.0762446 0.030452069 0.00975863 -0.2020827 0.16124623 0.011551959 -0.18029991 0.010161996
0.00084741425 -0.0313336 -0.17788807 0.055936098 0.074101955 0.087951414 -0.1660712 0.07182349
-0.1654211 0.19939063 -0.0024558636 -0.12855142 0.12529111 0.20730166 0.1482938 -0.037265092
0.028140021 0.006542481 0.117214076 -0.24510935 0.23420438 -0.067517534 -0.112663716 -0.049047388
0.2307783 0.19552065 -0.083507314 0.21978438 0.04414452 -0.09717889 0.1034587 0.005631298
-0.0390177 0.10857001 0.10018646 -0.2342158 -0.07760596 0.10713697 0.19393009 -0.18618385
0.1317647 -0.17134649 -0.0577072 0.050266683 -0.23888712 0.2352588 0.022007553 0.15208659
-0.24650969 0.04364034 -0.21843252 -0.1754972 -0.20560378 -0.021019287 -0.14238673 0.18901215
-0.0011092477 0.06208888 0.06174938 -0.12186152 0.22575657 -0.011986769 -0.055904984 -0.16538101
-0.12616254 -0.09811658 0.2369869 -0.15581545 0.056592643 0.015459792 -0.22675738 -0.20209095

node_encoder.2.bias f4 [16]
00000000: db6f de3c 8c6c 61be a09f 39be 11da 483e
00000010: 35d7 25be 7f4e 1b3d dea6 4b3d 8ab6 473e
00000020: 5741 dabb 88da 233d fc64 103e 15fd b83c
00000030: fbfb b1bd 45e7 7f3e ff67 fdbc c6e0 863b
0.027152946 -0.22014064 -0.18127298 0.19614436 -0.16195376 0.037916657 0.049719684 0.19503227
-0.006660621 0.04000333 0.14101022 0.022581616 -0.086906396 0.24990566 -0.030933378 0.0041161506

node_encoder.3.weight f4 [16]
00000000: 00f0 713f 0f87 7d3f b6ea 803f 10fe 7e3f
00000010: 3995 7b3f 47e0 793f 3c73 823f 5d05 803f
00000020: b883 7e3f 4800 803f 6b7c 7a3f 9687 803f
00000030: d0b5 7f3f c1c5 7e3f 7077 803f bb9f 7d3f
0.94506836 0.9903421 1.0071628 0.9960642 0.9827457 0.97607845 1.0191417 1.0001637
0.99419737 1.0000086 0.97846097 1.0041378 0.998868 0.995205 1.003645 0.99071854

node_encoder.3.bias f4 [16]
00000000: d28a 37bc add7 783c 59ae fbbb 845b 153b
00000010: f060 883c 2325 553c e72c 4f3c 54be 083b
00000020: 00c6 8cb8 a5ea 42bc 7baa 67bc 16d3 b3ba
00000030: a5e1 1abb 52e1 39bb cf58 d5b9 53e5 5cbc
-0.011202531 0.01518814 -0.007680696 0.0022790143 0.016647786 0.013009342 0.012644983 0.0020865398
-6.7126006e-05 -0.011896764 -0.014139767 -0.0013719525 -0.002363303 -0.002836306 -0.00040692693 -0.0134824095

edge_encoder.0.weight f4 [16, 4]
00000000: d422 953d db9d 25be e882 88be e3e2 7d3d
00000010: 74a2 dfbe 643f acbe ab16 a03e 8069 413d
00000020: 740f 8a3e cc3d a93e 6d2d 6a3e ae9c 10bf
00000030: b09f a03e 44f8 de3c 5a98 db3e e96d 543e
00000040: 9759 bb3e 0fcf 8e3e e2df 393e 3c1e bfbe
00000050: 016b e23e 06f7 8a3e cadf 8f3e 5bdf 8a3e
00000060: 6e50 c13d 7647 9f3e e4a2 e5be d32a e03e
00000070: 0636 81be 8952 01bf 5405 40be 8878 a83e
00000080: e0fc acbe b170 c63e b670 343e e3e1 2b3e
00000090: f3b7 5abd f07a a3bc 3ca0 243e 8a81 853e
000000a0: 4122 febc 3d1c fb3e 0bc4 c9be 652f 02bf
000000b0: 645e fbbe df6c 343d 88c8 f9bd 9788 1fbe
000000c0: 6a76 f83e 1430 b5be c862 7e3d b2ef d73d
000000d0: 4433 ff3e c32d d03e 3754 bd3e 8e93 e23e
000000e0: 4746 233e e499 08be a40b 613e 808d 313e
000000f0: 5c11 80be 3edf a33e c833 fbbd 878e e03e
0.072820336 -0.16173498 -0.26662374 0.061983954 -0.4367863 -0.33642113 0.31267294 0.047219753
0.26964915 0.3305496 0.22868891 -0.56489074 0.31371832 0.027217992 0.42889673 0.20745052
0.3659179 0.27892348 0.18151811 -0.37327754 0.44222263 0.2714159 0.28100425 0.27123532
0.09439169 0.31109208 -0.44850838 0.43782672 -0.2523653 -0.50516564 -0.18752033 0.32904458
-0.33786678 0.38757852 0.17621121 0.16785388 -0.053398084 -0.019956082 0.1607675 0.26075393
-0.031022193 0.49044982 -0.3940738 -0.5085357 -0.49095452 0.04404914 -0.121964514 -0.15579449
0.48527843 -0.35388243 0.062105924 0.10543765 0.498438 0.40659913 0.36978313 0.442532
0.15944777 -0.13339955 0.21977097 0.17339134 -0.25013244 0.32006258 -0.12265736 0.4385874

edge_encoder.0.bias f4 [16]
00000000: b4d4 9e3d c695 9abd 427b ed3e c900 f03d
00000010: 894d 223d 21c2 93be b888 553d 1db0 2b3e
00000020: 690f 513c 635f a33e 49e2 ed3e 5729 de3e
00000030: 4bef 11bd 1690 a73e 82ec c73e ff55 9fbe
0.07755414 -0.07548098 0.463831 0.117189 0.039624725 -0.28859046 0.05213234 0.167664
0.012760022 0.31908712 0.46461704 0.43390915 -0.0356286 0.32727116 0.3904763 -0.31120297

edge_encoder.2.weight f4 [16, 16]
00000000: db01 70be af03 81bd f649 e83d 9de2 0ebe
00000010: b474 ae3a a0d0 9d3d 1ad9 92bd 3c56 77be
00000020: 9e55 693e 017b 3cbd 6e2f 593e dbab 123e
00000030: fb56 71bd 488b 0a3e e582 033d 1110 343e
00000040: 86a0 a2bd 3a72 39be b8f9 2a3e 8591 e53d
00000050: 10bb 643e a643 d83d a38d 143c 5639 a4bd
00000060: e801 debd 2d9c 7d3e 5589 123e 70e8 6ebd
00000070: bc56 b1bd 7028 10bc c8d5 7c3e 21a6 1a3e
00000080: 9501 283e f0d7 b13d 4e1a f53c 657a 3e3e
00000090: 9bc3 f7bd a31a 42be cd9b 6c3e e639 d83d
000000a0: e66b 03be 2134 6bbe 50be 6cbd 5ef8 163e
000000b0: 44f1 163e 20a8 22bd 67ea 9b3d 4347 4cbe
000000c0: bfab da3c 9854 543d f58d 08bd 4cb8 db3d
000000d0: 1d08 10bd c586 f73d 51ae 9a3b ea9f 85bd
000000e0: 3d1c 8f3e b284 5ebd e37e df3d f6b8 19be
000000f0: aeac 763e a400 42be c501 1f3e 8455 36bb
00000100: de63 13bd c1db fcbd 96df 363d f242 42be
00000110: a341 f63d 3d98 8abe 05d4 7abe 307e 823e
00000120: 93f7 963d 9667 4f3c 72ef 293e b24b 23bd
00000130: aa17 9fbd 07e0 6cbe 6f1d 543e c21d a5be
00000140: 0191 cd3c ec34 8cbe 6362 8ebd 884c cdbd
00000150: c958 68be f607 6abe fef8 a9bd 2697 ba3d
00000160: 9c16 3c3e 4154 c6bd 83c3 f93d 40e8 1dbd
00000170: f9c5 1c3d 9e92 2a3e 825c 523e 943d 39bd
00000180: 8000 6abc e8eb 4ebe 0bd7 6abe a3f9 1b3e
00000190: feed 433e 3bd4 0a3e 27ff 733e a249 2fbe
000001a0: bf59 9c3d dd45 10be 38b6 023d 16ed 21bd
000001b0: 0f1d a13c 987b 803e 7df5 1dbe f5c9 23be
000001c0: a69f d6bc a18e 103c a097 39be cd1a 40bd
000001d0: b438 80be 2fb4 4abd 4b14 413e da24 82be
000001e0: 3ee0 333c f079 513e baf4 8fbd c9cf ef3d
000001f0: d2df c9bd bf8a 51be 4f1e 97bd e4d9 3a3d
00000200: 7671 3a3e 96cd 07be 6c52 f83d 97cb 66be
00000210: 8de0 693e b9b9 b63d 161d 79be 27ae 91be
00000220: 39b5 433d 8228 2fbe 1507 eb3c 8e1b 9039
00000230: 750c 5b3d 1ac8 5c3d 6fd6 c8bd 051a 9b3d
00000240: 9576 c83d a235 433c 1c08 433e cbc3 0ebc
00000250: 2a01 d0bd f87c 8bbc 95cf 343e 0740 3abd
00000260: c7c9 bb3d 57e8 463e ff38 4dbe 5730 0d3e
00000270: 0a5d e7bd 7a34 4f3e 64ec 2cbe ecb0 1bbe
00000280: 0bd5 54be d7f6 f0bc 9147 f53c 00bd c03d
00000290: 2eab 07be 7283 8fbd 044f 613d c64a 683e
000002a0: 550d c5bd f752 693e 2898 dbbd cd29 2bbe
000002b0: 44fc 593e 7d2c d7bd 3677 81bd 10be 823e
000002c0: f76c 533e c53f 553d e016 bf3d 927a edbc
000002d0: c06c 01be c973 743e f34a 2bbe 6bbe d13d
000002e0: 7c20 083e 936b 31be 41a6 453e 7586 62be
000002f0: 0628 443e 5b3a 74be a392 a7bc 7068 c1bd
00000300: 45e1 153e fd6a 67be 4e8f 203d d37e 54be
00000310: 5941 6bbd 0bac e0bb 787a 90bb f514 423d
00000320: 1c15 2bbe 92be 8bbd 7991 d73c 4521 853d
00000330: bb79 0fbd 8453 73be 01fb 99bd 64e0 8c3e
00000340: 0b23 663d 5798 85bb 1d76 60be 0be6 0e3e
00000350: f7d8 76be 2036 fa3d 62cd 613e a1a0 113d
00000360: 3107 5cbc c1c2 703e 913a 7bbd 9352 a83d
00000370: 0953 743d ebda 4c3e d677 a2bd 7c81 93bd
00000380: 798b fc3d dd3a 573e 8f74 7f3e 4bcc 143c
00000390: f6fb 4dbe 2051 ac3d 1c17 193c c004 503d
000003a0: a288 993d 3ac5 de3c 76ff cb3d c23e 80bd
000003b0: 1214 5cbe 49ed 423e 6160 373d db9d e5bd
000003c0: 3c1d 033e e58a b9bd 2b4d 52be 7841 4eba
000003d0: 3de0 a9bd eca3 64be da68 15be 9909 c53b
000003e0: e39c 453e 0dc7 593e d1a6 76be 30f6 cebd
000003f0: bfaf 60bd 022b 79bd 9148 62be 0dea ed3d
-0.23438208 -0.06299531 0.11342232 -0.13953634 0.0013309927 0.07705808 -0.07170315 -0.2415399
0.22786567 -0.046015743 0.21209499 0.1432337 -0.05892084 0.13529694 0.032107253 0.17584254
-0.07940774 -0.1810998 0.16696823 0.11209396 0.22336984 0.10559778 0.009066972 -0.080187485
-0.10840207 0.24766608 0.143102 -0.05832714 -0.086591214 -0.008798704 0.24690926 0.15102436
0.16406853 0.08683765 0.02991977 0.18601377 -0.12097856 -0.18955474 0.23106308 0.10557918
-0.12834129 -0.22969104 -0.057798684 0.14743182 0.14740473 -0.039711118 0.07613068 -0.19949059
0.026693223 0.051838487 -0.033338506 0.10728511 -0.035163987 0.12086252 0.004720487 -0.06524642
0.27951232 -0.054325767 0.109128736 -0.15011963 0.2408931 -0.18945557 0.15528019 -0.0027821967
-0.035983913 -0.12346602 0.044646822 -0.1897085 0.12024238 -0.27069274 -0.24494942 0.25486898
0.0737144 0.012658974 0.16595247 -0.03986711 -0.077681854 -0.23132335 0.20714353 -0.32249266
0.025093557 -0.27384126 -0.069523595 -0.10024363 -0.22690119 -0.228546 -0.082994446 0.091108605
0.18368 -0.09684039 0.12195494 -0.03855157 0.03827474 0.16657493 0.20543101 -0.04522474
-0.014282346 -0.20207179 -0.22933595 0.15231948 0.19133756 0.13557522 0.23827802 -0.17117932
0.07634305 -0.1408915 0.03191206 -0.039532743 0.019667177 0.25094295 -0.15425678 -0.15995009
-0.026199173 0.008823068 -0.18124247 -0.04690056 -0.2504326 -0.049488243 0.18855397 -0.2541874
0.0109787565 0.20456672 -0.070291 0.11709554 -0.098571435 -0.20463084 -0.07378828 0.045617953
0.18207344 -0.13262019 0.12125096 -0.22538601 0.22839566 0.089221425 -0.24327502 -0.2845318
0.04778025 -0.17105296 0.0286899 0.0002748635 0.053478677 0.05390177 -0.09806525 0.07573322
0.09788243 0.0119146425 0.19046062 -0.008713673 -0.10156472 -0.017027363 0.17657311 -0.045471217
0.09169345 0.19424568 -0.20041274 0.13787971 -0.11297043 0.20234862 -0.16887051 -0.15204209
-0.20784394 -0.029414577 0.029941352 0.09411049 -0.13248894 -0.07007493 0.055006996 0.22684774
-0.096216835 0.22785555 -0.10722381 -0.16715164 0.21287638 -0.10506532 -0.06321566 0.2553563
0.20647036 0.05206277 0.09330535 -0.02898911 -0.12639141 0.23872294 -0.1672781 0.102413975
0.13293642 -0.17326193 0.19301702 -0.22121604 0.19155893 -0.23850386 -0.020455664 -0.09443748
0.14636715 -0.22599407 0.039199166 -0.20751505 -0.057435367 -0.0068564466 -0.0044091307 0.047383267
-0.16707271 -0.06823458 0.026314484 0.06500486 -0.0350282 -0.23762327 -0.07518578 0.27514946
0.056185763 -0.004076998 -0.21920057 0.13954942 -0.24106203 0.12217355 0.22051004 0.03555358
-0.013429449 0.23511793 -0.06133515 0.08218875 0.0596495 0.20005386 -0.07933013 -0.072024316
0.1233129 0.21018548 0.24946807 0.00908191 -0.20115647 0.08413911 0.009343889 0.05078578
0.07496764 0.027193654 0.09960835 -0.0626197 -0.21492031 0.1903583 0.04476965 -0.11211749
0.12804121 -0.09059695 -0.2053725 -0.0007868032 -0.08294723 -0.22328156 -0.14590779 0.006013107
0.19298129 0.21267338 -0.24087073 -0.1010555 -0.054855105 -0.06083203 -0.22097994 0.11616907

edge_encoder.2.bias f4 [16]
00000000: 681b c6bd 4d51 17be 8e0c c2bc ad12 073e
00000010: f6cc 22bc 2f46 2c3e 776e 4b3e 186b 0a3e
00000020: 96fd 57bd 4b3c 78be 6d01 a7bd 3c38 353e
00000030: efe7 463e cc12 553e f8ed 363e 3e97 07be
-0.09673196 -0.14777108 -0.023687627 0.13190718 -0.009936562 0.16823648 0.19866358 0.13517416
-0.052732073 -0.2424175 -0.08154569 0.17697233 0.19424413 0.20807952 0.17864215 -0.13241288

edge_encoder.3.weight f4 [16]
00000000: d565 7f3f 8b12 803f 6bee 773f 3334 7c3f
00000010: 960e 7e3f e9fb 7e3f a08d 803f 003a 7d3f
00000020: aa82 823f 46d7 713f 4628 823f a615 813f
00000030: 6090 7f3f e424 813f df55 813f 205b 803f
0.9976476 1.0005659 0.9684817 0.9851715 0.99241006 0.99603134 1.004322 0.98916626
1.0196126 0.94469106 1.016854 1.0084732 0.99829674 1.0089383 1.0104331 1.0027809

edge_encoder.3.bias f4 [16]
00000000: 6d73 52bb acc7 343b 809b a73c 3e0f b43c
00000010: e21f 773c d9cf 89bb 1870 3e3c 1370 893b
00000020: bbde 0fbc 8c75 eabb a69d bbbb 4330 33bc
00000030: a121 b1bc e2ab a73b 21f5 293c 8126 803a
-0.0032112256 0.0027584834 0.02045989 0.021979924 0.015083285 -0.0042056856 0.011623405 0.0041942685
-0.00878113 -0.007155126 -0.0057255803 -0.010936799 -0.02162248 0.0051169256 0.010373385 0.00097771

node_model.0.weight f4 [16, 48]
00000000: ae2a 8abc b5e9 cf3d 1e07 c33d b419 b5bc
00000010: e022 6abc 8856 fabb 81e5 d43d 401e c2bd
00000020: 34fd efbd 6f20 163e a849 ebbd f7ea 44bd
00000030: 9ab7 11bd cdea ecbc f534 593d d696 083b
00000040: 292b ad3d 1782 0abe 8072 31bd 529f 29bd
00000050: d66b 8fbc 88b2 73bd 285c dabd 94c6 08be
00000060: 14d9 a43d fff8 be3d d273 e7bd 555f a0b9
00000070: ff8d 92bc c618 4d3c e749 dd3b ae20 af3d
00000080: 6de1 3fbd 7466 c03c a788 39bd c0de c5bd
00000090: 8591 b0bd e077 e3bb a45f b03d 15bc 0bbe
000000a0: e460 1c3e 493b 20bc 6ac5 493d 99d3 fa3d
000000b0: 597d 933d 6cf8 0a3e 4627 6fbd 47ab e8bd
000000c0: cf14 00be 9b0c d63d aeba 0e3e 1b2d 843d
000000d0: 1e9a ccbd 0f91 af3d 1aa3 cfbd 7678 e6bd
000000e0: a582 9bbd 0a9c 083e 0489 ffbd cb09 c93d
000000f0: ff0c c4bd 8345 8abd 8ec5 033e 22f8 a3bd
00000100: 22ce c43c c090 3d3d f662 94bd 289f 82bd
00000110: 8146 d0bd 22a9 b7bd 8e8f 86bc c0a0 c03d
00000120: a3ce 073d afaf 80bd d214 ac3d f668 183e
00000130: 684c 3cbc d59d 063e 1925 b6bd cf4c 8b3d
00000140: bb19 66bc 6585 10bd fcc4 92bd ff7c fe3d
00000150: 5ba0 39bd 9fc4 febc e2cb 8e3d a2a7 9e3d
00000160: 32ce e3bd fbb0 273d e94e c23d e248 5f3d
00000170: d56e cf3d 6eb1 2abd ca28 f33c e871 0dbe
00000180: 5cc6 333d 2dbc f53d 1439 aa3d 90b5 02be
00000190: ae56 02bd 7642 df3d 40f9 ac3d 9762 e6bc
000001a0: 444b 633d 3630 d7bc d057 9c3d 4afc e5bd
000001b0: 995e 023d 15f9 60bd a085 443d 1a78 ca3d
000001c0: d4d9 2c3d 5314 2dbd 73ca 17be 8406 88bd
000001d0: a435 d43d a913 1cbe f790 e3bd 3e3d f0bd
000001e0: c03d 1e3d 7902 b0bd 069e 23bc a6ae a4bd
000001f0: 174f 213d f87e a33d 3a25 8cbd c1e7 8e3d
00000200: 73a7 473d ad29 e03d eccb 35bd 4b56 f9bd
00000210: 3559 bebb 871e 2c3d aa59 0abe d7fa d5bd
00000220: b50c 923d 0641 9c3c b315 9e3d 25b3 fd3d
00000230: 84f9 22bc 87d2 943b e1e0 b43b 80fa d83d
00000240: 8bc5 5bbd 4da8 b23d 9995 7b3d 7123 e73d
00000250: 85f8 89bd 2f75 6a3b 4be6 843c 5b83 083e
00000260: 90de 023d 03fa 2d3d b9a9 05bc 189d a9bd
00000270: 3ca7 063e 8724 893a de73 b13d 294b 903c
00000280: ad3a b6bd aa85 c83d d5a8 de3d ed42 81bd
00000290: a460 f73d b922 f2bd b247 1bbd 1dfe 8cbd
000002a0: 0760 1a3d efab bf3d 470b 13be b418 d03d
000002b0: 70a6 c63c 7e70 eabd 202c 82bd e24c 463d
000002c0: 67fd 113e a3eb 0f3d 92bf f1bd efc5 f9bd
000002d0: b54d 293e c75e 1c3e b126 d53d 1d97 323e
000002e0: 132e 1abc d81e 923d f161 933d 8de6 f3bb
000002f0: 1743 10bd 3211 02be 8677 8fbd e772 863d
00000300: bc6f 45bd 1ae0 aeba 6806 9b3d d03e 4e3d
00000310: e969 b63d 8c4c 0bbe adc3 f43c 82aa c23d
00000320: 512f 9ebd 5355 2e3c a89b edbd 77ba 053e
00000330: 6c4d 01be 08e8 3d3d 0d9b ccbd c517 a0bc
00000340: 7d0c fb3d 8410 cdbd f927 94bd bc3d 2a3c
00000350: aea0 cfbd 420a c43d 80ad bebd 8778 debd
00000360: 4049 ed3d dfe6 baba 16ce 063e 6f3a a7bd
00000370: 56bf 8ebd 427c b7bc f7bd 883d 1c96 1fbe
00000380: ffab adbd db6c 953d af48 003e e854 d13d
00000390: 65aa b3bc 0853 993d 58e8 3e3d eee8 e2bc
000003a0: ad9b 853d 3c55 bbbd 0d03 0ebc 0753 dbbc
000003b0: a840 d2bd a6af a93d 536f d5bc b0bf 98bd
000003c0: 3718 373d 8647 f3bd 445d 8dbd 94ef a13d
000003d0: db77 b43d e145 12be 6594 9ebb 7047 843d
000003e0: 3250 ce3d 82fb 09be adc7 753d 1fd0 d1bd
000003f0: 7104 68bd 92b8 19bb 6c4d 20be 3c06 01bd
-0.016866054 0.10151998 0.09522842 -0.022106983 -0.014290541 -0.00763971 0.10395337 -0.09478426
-0.117182165 0.1466081 -0.11488658 -0.048075642 -0.035575487 -0.028920555 0.05302902 0.0020841858
0.08455498 -0.13526188 -0.043322086 -0.041411705 -0.017507475 -0.059496433 -0.10662109 -0.13357002
0.08049217 0.09324836 -0.11301388 -0.00030588606 -0.017889975 0.0125181135 0.0067531946 0.08551155
-0.046845842 0.023486353 -0.045296337 -0.09661627 -0.08621506 -0.0069417804 0.08611992 -0.13645966
0.15271336 -0.00977976 0.049260534 0.1224739 0.072016425 0.13571328 -0.058387063 -0.113607936
-0.12507938 0.10451623 0.139384 0.06453916 -0.09990333 0.085725896 -0.10138531 -0.11253445
-0.07593278 0.13340774 -0.124773055 0.09816321 -0.09572791 -0.067515396 0.1286833 -0.08006312
0.024024073 0.046280622 -0.07245438 -0.06378013 -0.101696976 -0.089678064 -0.016425874 0.09405661
0.03315605 -0.06283509 0.08402409 0.1488379 -0.011492826 0.13146146 -0.088937946 0.068017595
-0.014044221 -0.035283465 -0.07166478 0.12426185 -0.045318943 -0.031099616 0.06972481 0.07746817
-0.11123313 0.040940266 0.09487707 0.054512866 0.101285614 -0.041673116 0.029682536 -0.13812983
0.043890342 0.11998782 0.08311668 -0.12764573 -0.031820945 0.10901348 0.08445978 -0.028123183
0.0554917 -0.026268106 0.076339364 -0.11229761 0.031828497 -0.054925043 0.047978997 0.09886189
0.042199925 -0.04225571 -0.14823322 -0.06641868 0.10361794 -0.15241875 -0.11111634 -0.11730431
0.03863311 -0.085942216 -0.009986406 -0.08041124 0.039382067 0.07983202 -0.06843038 0.06977797
0.048743676 0.10945449 -0.04438393 -0.12174662 -0.005808974 0.0420213 -0.13510767 -0.104482345
0.0713133 0.019073974 0.077189825 0.12387685 -0.0099471845 0.0045416984 0.0055199717 0.10594654
-0.05365519 0.08723507 0.061421964 0.11286057 -0.067368545 0.0035775413 0.016223093 0.13331358
0.031950533 0.042474758 -0.008158141 -0.082819164 0.13149732 0.0010463157 0.08664678 0.017613964
-0.0889791 0.097911194 0.10872046 -0.06311593 0.120789796 -0.11823029 -0.03791017 -0.06884406
0.037689235 0.093589656 -0.1435977 0.10160962 0.024249285 -0.114472374 -0.063560724 0.048413165
0.14256822 0.03513683 -0.11804117 -0.12195956 0.16533549 0.1527053 0.104077704 0.17440458
-0.009410399 0.07134789 0.07196415 -0.0074432553 -0.03522023 -0.12701872 -0.07005219 0.06564885
-0.04820226 -0.0013341934 0.07569581 0.05035287 0.089069195 -0.13603419 0.029878462 0.09505178
-0.07723869 0.01064046 -0.11601955 0.13059412 -0.1262719 0.04636386 -0.09990511 -0.019542584
0.12258241 -0.10012916 -0.07234187 0.010390695 -0.10138069 0.09572269 -0.09310436 -0.108628325
0.11586237 -0.0014259479 0.13164553 -0.08165442 -0.06970088 -0.022398118 0.06676858 -0.15584606
-0.08480071 0.07296153 0.12527727 0.10221273 -0.021931836 0.0748654 0.0466083 -0.02769896
0.065238334 -0.091471165 -0.00866772 -0.026772989 -0.102662385 0.082854554 -0.02605406 -0.074584365
0.044700827 -0.118788764 -0.06902555 0.07907024 0.08811923 -0.14284469 -0.0048394674 0.06458938
0.1007389 -0.13474849 0.06000488 -0.10244774 -0.05664486 -0.002345596 -0.15654534 -0.031500086

node_model.0.bias f4 [16]
00000000: 1dc9 0dbe a6a6 f2bb ba33 273d bedc 383d
00000010: 028b 64bd b1f5 ad3d c6fd 7ebd 3884 28bd
00000020: 0e7c 07bb b6e8 e43d ba4e 073e 1199 abbc
00000030: 0746 af3d 2f4a 05be b77a ecbc fb1d abbd
-0.1384625 -0.00740512 0.040820815 0.04513239 -0.05579663 0.084941275 -0.062253736 -0.04114172
-0.0020673308 0.111771986 0.13213626 -0.020947011 0.085582785 -0.1301658 -0.028867109 -0.08355328

node_model.2.weight f4 [16, 16]
00000000: 1e3d 123e 92c6 7ebd c0dd cb3c 6362 e1bd
00000010: 439c 63be b28e b3bd eca4 22be 6916 41be
00000020: e269 663e 9160 843e 62bb 6dbe 94b2 263e
00000030: 9a1f 823e d397 eebc 5c53 19be 6d55 433e
00000040: 2dfa a83d 6df7 14be 5288 993d 8e9f 963c
00000050: 42d7 d33d a2b8 213d 5cc8 193d 63e8 df3d
00000060: d71c 3ebe 3068 b83d 98a8 273e 0cd7 21be
00000070: ab47 08be 88e9 293c d4bd 18be 1690 5bbe
00000080: cb9c 14bd c9b4 dc3d 6be2 043d 482e 7fbd
00000090: 8d29 1f3e b1ad 833d 8fc2 823d 4042 773e
000000a0: a9ee 803e d696 1d3d 96f4 6fbe 73aa 6ebe
000000b0: 2c99 3dbe 7a6a c33d c34f 48be ff23 3ebe
000000c0: e894 24be 2f48 08be 7311 49be ceae 6e3d
000000d0: e42c 8f3e f250 12be 10d5 d9bc bf21 bf3e
000000e0: de44 36be a0f0 a8bd 9117 fabd e338 123e
000000f0: 24a3 16be ce8a d83d bbc6 823c 6c79 b9bc
00000100: b8b3 d0bd 0a9f e8bd 6ccf 973b 3b4c 203e
00000110: b978 b03c 0a0c e0bd fd9a 053c d66d 7a3c
00000120: 729d 5c3d f7e4 da3d 6c3d 8b3e 505b 6b3e
00000130: beb7 dbbc 58a6 ee3d 3751 7dbd 3327 fdbd
00000140: 2256 ebbd 51cf 44be 1a39 863e 9cf6 33bd
00000150: 7d33 22be b333 253d e0e3 4dbd 59fd cbbc
00000160: 7113 e8bd 4712 393c afe7 3d3e 8e17 483d
00000170: 53df b93d e9f2 3bbe 291a 1cbd 481d 7f3e
00000180: 720c 103d 521b 453e c8b3 e0bc 488c c73d
00000190: f32a 29be cfe2 703d 9b46 aa3d 0dd8 6cbe
000001a0: 234f 21bd dfd4 43bd 9bb0 dc3d fd59 d83d
000001b0: 47d2 f9bc d5d8 153e dd4c 62be 8aef 813d
000001c0: d705 643e c757 62be 42f9 4b3d a229 10be
000001d0: d83f aebd d933 d1bd 2d62 513e b886 c53e
000001e0: c4e4 173e 67b7 a2bb 00fa bb3b f6fc 86bb
000001f0: b65a cb3d d148 203e bf4c 2e3e 23cf b93b
00000200: 2063 debd 1574 793e 86e6 57bc 6894 0e3e
00000210: 47dd c5bd 17fb 83bd 6ede c13d 8358 6dbe
00000220: fbfd 293e b9c6 80be ca39 dfbd 2489 11be
00000230: e37a 0dbe a4ca 07be 0bde 023e f44e 9f3d
00000240: a447 423e adb6 5dbe 9fa0 0a3e cbe4 e63d
00000250: fa66 0c3d edf2 9cbd ad11 4d3e 507e 5ebe
00000260: 4945 d6bd bc42 36be b8b7 53be 4d64 56be
00000270: c994 4e3e 425e 14be e0e4 d1bd fa2f 4bbe
00000280: 237e ca3d 4617 18be e491 533d 6203 6a3d
00000290: 6651 29be 1fdc 863e d981 ccbd e59b 89be
000002a0: 07fa 5fbe 4141 6b3d 5904 233e 6325 32be
000002b0: 33a6 4ebe 07d5 71be 5348 b73d 248b 17be
000002c0: 65f2 823d 0a14 2c3e 3f02 c8bd 4ff8 8fbd
000002d0: 727c 253e d6b4 d53d d213 773d fa3a 34bd
000002e0: c462 debd 74d3 9f3d fc25 1e3e b5fe 513d
000002f0: afc3 70be c991 023e 75bf 07bd 7b21 453e
00000300: 05f3 de3d 4e81 25be 1dcc 03be 75c0 2abe
00000310: 5826 17be 880c af3d 60cc 0b3d a819 b8bd
00000320: 58ff 4f3e 3a02 183e 1a5e e9bd 683d 873d
00000330: 187a 64bc 75ce a8bd 469a 303e 9d08 32be
00000340: d7d4 52be 770e 5ebc ec43 4abe 140e 013e
00000350: c4d8 5b3e da8e 3e3d 3f4d 5ebd 045f b03c
00000360: 6138 623e bc69 bd3d 7386 603d bfba e3bd
00000370: d0d9 a6bd d994 4b3e 4013 cabd 7d8d 213e
00000380: 0e9c 613e 4848 11be d478 74bc 108f a53d
00000390: 23b9 e0bd b84a c13d 4738 623e de4b 39be
000003a0: 4492 7fbc e979 5c3e 69cd 5d3e 06d9 49be
000003b0: 8a10 163e 3a68 0c3e 8e58 e13d 37b4 fe3d
000003c0: 8fe9 1c3e aea2 bbbb 942d 7c3d 513d 2e3e
000003d0: 4628 38be 9ba1 62be 5e35 afbc cede 643d
000003e0: 1db7 f9bd d013 b43c 7efa 98bc aeb7 243b
000003f0: 29e7 853e 5cb3 76be 8839 a9bc 2f18 99bd
0.14281127 -0.06220109 0.024886012 -0.11005094 -0.22227578 -0.08767451 -0.15883225 -0.18856205
0.22501329 0.25854924 -0.23216012 0.1627906 0.25414735 -0.02912513 -0.14973205 0.19075556
0.08250842 -0.1454751 0.07496704 0.018386628 0.103437915 0.03948272 0.037544593 0.10932996
-0.18565689 0.09004247 0.16372907 -0.1580469 -0.13308589 0.01037062 -0.14916164 -0.21441683
-0.036282342 0.107766695 0.03244249 -0.062299997 0.15543194 0.064296134 0.06384765 0.24146366
0.25182083 0.038473926 -0.23433146 -0.23307209 -0.18515462 0.09541793 -0.19561677 -0.18568419
-0.16072428 -0.13308786 -0.19635563 0.058272175 0.27963936 -0.1428869 -0.026590854 0.37330434
-0.17799708 -0.082490206 -0.12211526 0.14279513 -0.1471067 0.1057335 0.015963903 -0.022640906
-0.10190529 -0.11358459 0.004632881 0.1565408 0.02154194 -0.10939796 0.008154628 0.015284976
0.05386109 0.10688203 0.271953 0.22984052 -0.026821014 0.11652821 -0.06184503 -0.12360992
-0.11491038 -0.1921971 0.2621544 -0.043936357 -0.15839954 0.040332507 -0.050266147 -0.024901079
-0.11331833 0.011295862 0.18545412 0.04885059 0.09075799 -0.18354382 -0.038110886 0.24913514
0.03516812 0.19248703 -0.027429476 0.097435534 -0.1652029 0.05881005 0.08314248 -0.23129292
-0.03938211 -0.04781043 0.10775872 0.10564039 -0.030495776 0.14633496 -0.22099634 0.063445166
0.22267853 -0.22103797 0.049798258 -0.14078382 -0.08508271 -0.10214967 0.20447607 0.38579345
0.14833361 -0.004965711 0.0057365894 -0.0041195108 0.09929411 0.15652777 0.17021464 0.0056704446
-0.1085875 0.24360688 -0.01317752 0.139238 -0.09661346 -0.06444376 0.09466253 -0.23178296
0.16600792 -0.25151613 -0.10899694 -0.14212471 -0.13816409 -0.13260895 0.12780015 0.07778731
0.18972641 -0.21651717 0.13537835 0.112741075 0.034277894 -0.07663522 0.20026274 -0.21727872
-0.10462434 -0.17798895 -0.20675552 -0.20936699 0.20173945 -0.14489082 -0.102487326 -0.1984252
0.0988734 -0.14852628 0.051652804 0.057132132 -0.16534957 0.26339814 -0.09985704 -0.2687675
-0.21872722 0.057435278 0.15919627 -0.17397074 -0.20180587 -0.2361642 0.089493416 -0.14799172
0.06393889 0.1680452 -0.097660534 -0.07029783 0.16160753 0.10434882 0.060321636 -0.044001557
-0.10858682 0.07804003 0.15444177 0.0512683 -0.23512147 0.12750925 -0.033141572 0.19251053
0.10886196 -0.16162607 -0.12870832 -0.16674979 -0.1476072 0.08547312 0.034130454 -0.089892685
0.2031225 0.148446 -0.113949016 0.06603509 -0.013945125 -0.082425036 0.1724635 -0.17386098
-0.20589004 -0.013553253 -0.19752473 0.12603027 0.21469408 0.046522953 -0.054272886 0.021529682
0.2209182 0.09248683 0.05481572 -0.11119603 -0.08147013 0.19881 -0.09866953 0.1577663
0.22032186 -0.1418773 -0.014921386 0.08083928 -0.10972812 0.094380796 0.2209178 -0.18095347
-0.015598837 0.2153088 0.21660389 -0.19711694 0.14654747 0.13711634 0.110032186 0.12436717
0.1532347 -0.00572618 0.061566904 0.17015578 -0.17984113 -0.2213196 -0.021387752 0.055876546
-0.12193129 0.021982104 -0.018674131 0.0025133896 0.26152924 -0.24091858 -0.020657316 -0.07475316

node_model.2.bias f4 [16]
00000000: 4ee3 ff3d fea4 7d3c 3890 fa3c a1f3 a23b
00000010: ec89 c23c b2ba 83be 5ca9 43bd 9487 8bbd
00000020: 29ba e03c 7ec6 f5bd 6bed 5abe 815d 3ebe
00000030: cb2c eb3d 3ae5 3fbe 26a9 64be 07ab bcbc
0.12494527 0.015481232 0.030586347 0.0049728905 0.023747407 -0.25728375 -0.047768936 -0.06812969
0.027432518 -0.1200075 -0.2137963 -0.18590356 0.11483153 -0.18739787 -0.2233015 -0.023030771

node_model.3.weight f4 [16]
00000000: e861 8d3f 9702 803f b289 913f c0fc af3f
00000010: 4c07 853f b1e5 943f a32a 9d3f 810f a33f
00000020: 38f7 8c3f 2167 8d3f 442e 8a3f ac3b 953f
00000030: c9c6 903f fe6f 7c3f 7cdf a23f 596a 8e3f
1.1045504 1.000079 1.1370146 1.3749008 1.0392852 1.1632596 1.2278637 1.2739106
1.1012945 1.1047097 1.0795369 1.1658835 1.1310664 0.98608387 1.2724452 1.1126205

node_model.3.bias f4 [16]
00000000: 3f36 fb3d 257d 2e3d fb27 7dbd 8e54 0ebe
00000010: 574e 5f3d 1418 033e 54ec 103e 53a7 dabd
00000020: 3769 b43d 2b08 e13d 0697 cf3d 65e0 c1bd
00000030: 0102 dcbd b862 be3d 04f3 0d3e a80f b13d
0.12266206 0.042599816 -0.061805706 -0.13899443 0.05451807 0.12802154 0.14152652 -0.10676446
0.08809131 0.10987886 0.10136227 -0.09466628 -0.1074257 0.09296173 0.13862234 0.08645564

edge_model.0.weight f4 [16, 96]
00000000: 9836 ce3d 600a 993c 20ca 3ebd 2932 d1bd
00000010: cfcd 2d3d 06a6 24bd b295 89bc bffe 91bd
00000020: 5bc7 093d d3fb 0cbd 8a45 753d 9431 9fbd
00000030: bdbc 8cbc c272 b1bc 7015 3dbd 1d2d 9b3d
00000040: f943 54bc 1d4d 8b3c 29dc 1e3d ccca 35bd
00000050: 4547 cc3b 3771 a43d 7af4 b33d f788 6abd
00000060: f65d a43d 76bc bdbd a3b6 84bd 562b 903d
00000070: 164b aa3d aaaa 80bd 7f41 703b 6794 0e3d
00000080: 65c5 c23d 1467 8abd 26ae 7e3d 5c54 6f3d
00000090: 929a 233d 941f 733c dfce d8bd efe7 5fbd
000000a0: 3790 aabd d64e 673d 8ff3 5a3d 9d60 7c3c
000000b0: b47a a9bc a1d6 a33b fca1 c03d 4c08 a8bc
000000c0: 6781 60bd c2e3 9b3d 42b1 05bd e0aa be3d
000000d0: aedb ce3d 7847 b9bd 0013 efbc 2a4d dcbd
000000e0: b564 3abd a0c5 8c3d 6f5e 9d3c d045 0dbd
000000f0: 174a 98bc dd6c e5bc 8299 1abc ce26 f4bc
00000100: cb6e b5bd 1b75 8fbd d05e 223c 8ab6 b0bd
00000110: 7396 f43c c730 92bc 97b0 66bd fbd8 ab3d
00000120: c90d a43d aec6 273c fa9d 0dbd 71a5 98bd
00000130: 5e2a 793d 4988 b6bc 9f52 1f3d 9211 5f3c
00000140: 19d4 2ebb 8741 c23d 3991 d7bc c251 3c3d
00000150: 23ac 073d 2d2f c3bd 2ef8 6dbd 81be ccbd
00000160: caf5 37bd 8861 073d c403 0f3d f95d b3bc
00000170: e598 45bd ab65 88bd ba17 943d 22df a03d
00000180: 9bad 15bd 4772 d5bc 9c7f 90bd 038e 32bd
00000190: 9e9d b33c 6c53 ea3c 7402 783d 3cc3 e0bc
000001a0: f16c 473c ca16 82bd 3311 07bd 4eba 83bd
000001b0: 86b0 51bd 0a3b 2f3d 6439 31bd 8494 bbbd
000001c0: e310 b6bd a810 92bd 11b1 803d 7e0d a83b
000001d0: 6895 7bbc 007f a4bd 2372 08bc 04f6 c43d
000001e0: 8f8a 2e3d 551c c83c decb b1bd 4d68 b43d
000001f0: 2029 62bb cd85 02bb 7d9f 363d ccd4 84bb
00000200: 3261 a73d 215f af3d f60d b9bd 97c5 5ebc
00000210: f8df af3d ad12 633d 952f 39bd b084 07bd
00000220: 755e 2c3d 93ac bf3d 0964 2cbd 82b5 de3c
00000230: 93b5 b2bd fb54 893d a409 9ebd f4f6 3f3d
00000240: ca95 48bd f624 96bc 138a 62bc 3af0 50bd
00000250: e5b5 04be b102 a9bd e00c 4b3c 0aa7 27bd
00000260: 8a06 a8bd a1c3 6a3d 5c50 cabc f836 d4bd
00000270: e255 94bd 5bd5 623c dab8 02b9 cdf6 233d
00000280: 6029 2fbd f9e4 f83c d2fe fe3c 0977 76bd
00000290: 44fa 21bd 34fe 94bd 2ee6 eebc 7bf9 4abc
000002a0: 6f83 b63d 67f8 8c3d 603f 77bd 9c73 fa3c
000002b0: a848 b9bd a53e 303d 0a73 19bd c4b1 bd3d
000002c0: 9125 bdbd 23f7 debc ac21 be3c e96a bf3d
000002d0: 45f8 543d bfba 83bd bb0e 123c c829 ab3d
000002e0: e33c 723d 85fe 34bd 305b bf3c 8010 823c
000002f0: 2e2b 933d 430a cd3c abec 2abd 4a4f 8f3c
00000300: f9d9 adbd 92e6 8a3c 3d40 ad3c ed8d 5c3d
00000310: 3259 623d 8257 a53c c260 25bc 40df 96bd
00000320: 7b67 a93d 932a 923c 75f4 e93c b4d2 233d
00000330: 34ec 4abd b69e aebd ee1d b63d 8cd7 823d
00000340: 24ff 01bc c41b 883c 7c6b 383d e3f9 04bd
00000350: 4b4f 4e3d e075 2e3d fa55 b83d 20eb d43c
00000360: 9a03 dc3c 555f c0bd b559 d03d 6413 d7bd
00000370: 1bab d4bd 4433 a63d 75d1 453c fae8 163c
00000380: 31d0 2f3d 0e36 bfbd c06c 41bd c858 8b3d
00000390: 3840 9bbd ba65 1f3c 2b93 643b 832a 173c
000003a0: b25e f9bd a232 b33c 7e01 22bc 64a8 7fbd
000003b0: 34dd 4cbd 3a66 67bc 3b4c 2639 3f86 cc3d
000003c0: d0ca f5bd 6f93 78bd cc0c ac3c 3e44 773d
000003d0: 5058 72bc 4d22 053d a9ab a13d bac0 723d
000003e0: df0d e83d d873 f53d 3734 cf3d 7569 99bd
000003f0: 76c4 2ebe e722 82bc dbea c43b f1db 553d
0.10069007 0.018681705 -0.04657948 -0.102146454 0.042432602 -0.040197395 -0.016795013 -0.07128667
0.033637386 -0.034419846 0.05988077 -0.07773128 -0.017179841 -0.021661166 -0.046163023 0.07576964
-0.012955659 0.017004544 0.03878418 -0.044382855 0.006234082 0.080294065 0.087868646 -0.057259526
0.08025734 -0.09264462 -0.06480148 0.07039516 0.08315103 -0.062825516 0.0036660132 0.034809496
0.09510306 -0.06757942 0.0621778 0.05843006 0.03994233 0.014839072 -0.105863325 -0.05466455
-0.08328288 0.05647167 0.05345493 0.015403894 -0.020688392 0.004999951 0.09405896 -0.020511769
-0.054810908 0.07611801 -0.03263975 0.093099356 0.10100494 -0.09046835 -0.029183865 -0.107569054
-0.045506198 0.068736315 0.019210069 -0.034490407 -0.018590016 -0.028006012 -0.009436013 -0.02980366
-0.08859023 -0.07004758 0.0099103 -0.086285666 0.029856896 -0.017845524 -0.056320753 0.08390995
0.08010442 0.01024024 -0.034574486 -0.074534304 0.06083142 -0.022281783 0.038897153 0.013615029
-0.0026676713 0.094851546 -0.026314365 0.045976408 0.033123147 -0.095304824 -0.05809801 -0.09997273
-0.044912137 0.033051997 0.0349157 -0.021895396 -0.048241515 -0.066600166 0.07231088 0.07855059
-0.036542516 -0.026055468 -0.070555896 -0.043592464 0.021925744 0.028604232 0.060549214 -0.027436845
0.01217197 -0.06352003 -0.032975387 -0.06432019 -0.051193736 0.042780913 -0.043267623 -0.091591865
-0.0888994 -0.07132083 0.06283773 0.0051285615 -0.015355445 -0.08032036 -0.008327994 0.09617236
0.04261261 0.024427572 -0.08681463 0.08808956 -0.0034509376 -0.0019916177 0.044585694 -0.0040536877
0.081728354 0.08563066 -0.09035866 -0.013596914 0.085876405 0.055437732 -0.045211393 -0.033085525
0.04208227 0.09359088 -0.04208759 0.027186159 -0.08726039 0.06705662 -0.077166826 0.046866372
-0.048970975 -0.018328171 -0.013826865 -0.051010348 -0.12960012 -0.082524665 0.012393206 -0.040930785
-0.08204372 0.057315473 -0.024696521 -0.10362047 -0.07242943 0.013844813 -0.00012466629 0.04003029
-0.042764068 0.03038262 0.031127367 -0.060172115 -0.039545313 -0.07275048 -0.029162493 -0.012388582
0.08911788 0.068833165 -0.060363173 0.030572705 -0.09047061 0.043028492 -0.037463225 0.09262422
-0.09235681 -0.027217453 0.023209415 0.09346563 0.05199458 -0.06432103 0.008914645 0.083575785
0.059140097 -0.04418804 0.023358911 0.015877008 0.0718597 0.025029307 -0.04172961 0.017493863
-0.084888406 0.016955648 0.021148795 0.05384629 0.055260845 0.020183329 -0.01009387 -0.073668
0.082716905 0.017842567 0.028558949 0.039995864 -0.049541667 -0.085263655 0.088924274 0.063887686
-0.007934365 0.016614802 0.04502438 -0.032464873 0.05036859 0.042592883 0.09000774 0.025991023
0.026857186 -0.09393183 0.1017336 -0.10501745 -0.10384198 0.08115247 0.012073864 0.009210819
0.042923156 -0.09336482 -0.047222853 0.06804043 -0.07580608 0.009728843 0.0034877758 0.009226444
-0.12176265 0.02187473 -0.009888051 -0.06241645 -0.050015643 -0.014123494 0.00015859392 0.09986543
-0.12001574 -0.06068748 0.021002196 0.060367815 -0.014791563 0.032503415 0.0789407 0.05926583
0.11330771 0.11984986 0.10117381 -0.074908175 -0.17067131 -0.015885783 0.0060094423 0.052211706

edge_model.0.bias f4 [16]
00000000: a36a a03d 68e2 3e3d f84c 043d 5b9d 97bd
00000010: 901c 9dbd 0d01 8d3c 8ec9 2c3c 2af5 bebd
00000020: 949c 31bc 53a8 63bd 1fda aabd 5e59 a43d
00000030: c056 b83c d37e c43d be8f 57bd 6c6f adbd
0.07832839 0.046602637 0.032299966 -0.0740306 -0.076714635 0.017212415 0.010546101 -0.09324105
-0.010840554 -0.05558045 -0.083423845 0.08024858 0.022502303 0.09594502 -0.052627318 -0.08468518

edge_model.2.weight f4 [16, 16]
00000000: 1422 55be a715 a43d c6dd 853e 7415 3d3d
00000010: ee33 683e 055b f53d b86a 1f3d 8629 b53d
00000020: 4d13 4bbe ddd0 673d cc0b 073e 7654 68be
00000030: 4845 56bd b221 b83d b18e 773e 5b86 723d
00000040: 88b8 ba3c 7147 1cbc 194a 073d 84ea f33d
00000050: 0ffa 933c 849b 383e 958a 2bbe 1c8d 8abd
00000060: 9a1d bf3d b988 613e 36ba 9e3d 928c 173e
00000070: 3c21 abbd 1f38 2ebe da8e 4fbe 3cd4 243d
00000080: 5e34 b6bd 4bac 023c 0eaa 6abe 59f6 c83d
00000090: abfe 59be 4359 94bd b7cb 30bd 06b4 fb3d
000000a0: 1c32 703d cd5d 393e 3e01 00bd ef3b 6cbc
000000b0: 3ac2 2dbe 8e5c 323e ac1c 583e f37c 333e
000000c0: bb81 60be d180 423d a0c2 1fbe aecd 70bd
000000d0: a12c 6cbe d024 3e3d 4679 153e 800d 033e
000000e0: 6cb8 1c3d 31aa ef3d a4bf 9f3d 916e 6f3e
000000f0: 720c 5cbe 0750 87be 9e7e 36bd d5fc 653e
00000100: 8211 babc c862 c83d 4aa9 3a3e 3963 313e
00000110: 6a55 babd 241a 55bd 9b45 5ebe 8586 763e
00000120: ae5f 363d f7da 2ebe bdcc 22be c7ff 0ebe
00000130: 26b5 753e b07f 293e fca7 de3b 987b 47be
00000140: 122b 2c3e 6363 dd3d 2c88 cbbc 0559 7f3d
00000150: dcc7 773e 5341 3cbe 7d2f 1ebe 8c9f 94bd
00000160: 15df f23d 9660 60be 2a70 38be ee9c 9f3d
00000170: 5679 38be 79d2 5dbc 2a02 363d 3d69 953d
00000180: 8cad 0fbe c34d dd3d 2c6a 00be 5a96 393e
00000190: 570f 333e b50d e33c f33c 2abd 1ff2 30be
000001a0: 7596 3b3e 2cda c73d a03f 3b3d 112f 28bd
000001b0: 103d 533e 4037 0abe 14ff 31bd 1f6a 6c3e
000001c0: 3cb3 923d 7ade d4bd 11ab 753e 57e4 743c
000001d0: 6932 7a3e d436 8bbb 6801 ac3d 73ec 17be
000001e0: 4f92 96bd b266 b73d 4ea6 063d e5ce 3dbe
000001f0: f058 703d 65b8 233e 3faf 0fbe 43d0 f13d
00000200: 3923 25be 8863 2fbe f7e8 303e ccb4 bebd
00000210: 8288 24be b044 0abe 203e 52be d8e9 453e
00000220: 44e0 96bd ecf7 453e 9ccb 103d bc51 cfbd
00000230: 0654 49be d177 33be b3aa 8a3e 5584 b03c
00000240: a138 69be f7cc 473e 9f32 6fbe c88a 773e
00000250: da9c 26be 55fb d83d 370e 47be d8e7 7ebe
00000260: ff60 1c3e f3b0 fb3c c539 c53d 7011 a13d
00000270: c802 5b3e a955 2ebe eb77 463e aa7c 173d
00000280: a189 9abd 144e b1bc 13de 3bbe d028 4b3e
00000290: 0a24 413e 6519 d03d 4b6c 0b3e 8d0b 20be
000002a0: bf79 aa3c b3cd 883e 7408 70be 22a9 1c3e
000002b0: 1e84 37be 0c9a 43be 77f6 4cbd 1a78 98bd
000002c0: 90dc 0dbe 2fea f03d c976 453d a7a8 6d3e
000002d0: b26b 2b3e c54f 3f3d 8018 a33d da7b 43be
000002e0: e324 2a3e b0eb 14be 3d70 70be b39d aa3d
000002f0: 60c7 623d 6cf8 6f3e b875 6d3e 69f1 b53d
00000300: a996 76be 2eea 563e 527f 96bd 4ac0 00be
00000310: 5fa1 97bc 9641 293e f29a 8e3d 52b3 fe3d
00000320: 3a38 833d 5a20 133e 3818 f3bd 25ae edbd
00000330: 6836 353e 2da0 e9bd 0cc3 413e a56c b2bd
00000340: 420e e43d 3d95 5abe 3cd8 b73b 9b9b 0b3e
00000350: 2015 3fbe 7e3e 8eba 4452 0f3e 7b19 333c
00000360: 98eb acbd 2ce1 49be 8af7 ce3b ab4e 14be
00000370: f8ee 64bd aa13 153e 8974 06be f3db de3c
00000380: 2e79 63be 8886 38be 5fd6 00be b502 863d
00000390: 680e 9dbd d1e5 423e 5112 5e3e 7be6 b8ba
000003a0: 8303 d13d 462c 9e3d 354e 95bd f783 8e3d
000003b0: b09d b43c 1222 203e e35d a5bd 6536 fb39
000003c0: 909b 553c 8e23 f9bc 467b 293e f86f 44be
000003d0: 69fc 0e3e 13bc 8c3d fc32 a1bd d706 bcbd
000003e0: 0556 f1bd 6613 023e f408 503e 9b75 2fbe
000003f0: 4ccd e1bd e5f6 17be ab8c 383d 2ed5 0f3e
-0.20813781 0.08011942 0.26145762 0.046163037 0.2267606 0.11980251 0.038920134 0.088458106
-0.19831581 0.056595672 0.13188094 -0.2268847 -0.052312165 0.08990802 0.24175526 0.059210163
0.02279307 -0.009538517 0.03302965 0.11909965 0.018063573 0.18028075 -0.16752084 -0.06765196
0.09331818 0.22024812 0.07750361 0.14799717 -0.08355948 -0.17013596 -0.20269337 0.040241465
-0.08896707 0.007975648 -0.22916433 0.09812612 -0.21288554 -0.07243588 -0.043163028 0.12290196
0.058641538 0.18102188 -0.031251185 -0.014418586 -0.16968623 0.1741812 0.21104687 0.17528133
-0.21924488 0.04748613 -0.15601587 -0.0587899 -0.230639 0.046421826 0.14597043 0.12798119
0.038261816 0.11702383 0.078002244 0.23382021 -0.21489123 -0.26428244 -0.044554345 0.22459729
-0.022713427 0.09784466 0.18228641 0.17323007 -0.09098323 -0.052026883 -0.2170624 0.24074753
0.04452484 -0.17075716 -0.15898414 -0.13964759 0.23994884 0.16552615 0.0067949276 -0.19480741
0.16813305 0.10809972 -0.024845205 0.062340755 0.24197334 -0.18384294 -0.15447803 -0.07256994
0.11858956 -0.21911845 -0.18011537 0.07793604 -0.18015036 -0.01353895 0.044435658 0.07295463
-0.14031047 0.108058475 -0.12540501 0.18123761 0.1748632 0.027716497 -0.041562032 -0.17279862
0.18319114 0.0975841 0.045714974 -0.04106051 0.20628762 -0.13497639 -0.043456152 0.23087357
0.071630925 -0.103939965 0.23991038 0.014947019 0.24433292 -0.0042484794 0.08398706 -0.14836292
-0.07352125 0.089551345 0.032873444 -0.18535955 0.058678567 0.1598831 -0.14031695 0.11807301
-0.16126718 -0.17127812 0.17276369 -0.09311828 -0.16067699 -0.13502765 -0.20531511 0.19327486
-0.07366994 0.19332856 0.035350427 -0.101230115 -0.19660959 -0.17526175 0.27083358 0.021547476
-0.22775508 0.19511782 -0.23359154 0.24174035 -0.16270772 0.10594813 -0.19439016 -0.24893129
0.15271376 0.030724024 0.09630159 0.07864654 0.2138778 -0.17024864 0.19381683 0.036984123
-0.07545782 -0.021643676 -0.18346433 0.19839787 0.18861404 0.101610936 0.13615529 -0.15629406
0.020810006 0.26719436 -0.23440725 0.15298894 -0.17921492 -0.19101733 -0.050039735 -0.074447826
-0.13853669 0.11763417 0.048208985 0.23208867 0.16740301 0.046706934 0.079636574 -0.19090214
0.16615634 -0.14543033 -0.23480316 0.0833086 0.05536592 0.23434609 0.23189437 0.08883936
-0.2408091 0.2098777 -0.07348503 -0.12573352 -0.018509565 0.16528925 0.06963147 0.124365464
0.06407209 0.1436781 -0.11869854 -0.11605481 0.17696536 -0.11407504 0.1892206 -0.087121285
0.11135532 -0.21345992 0.005610494 0.13633578 -0.18660402 -0.0010852364 0.13996226 0.010931368
-0.084433734 -0.19714803 0.00631613 -0.14483134 -0.05589196 0.14558282 -0.13130392 0.02720449
-0.22214195 -0.1802007 -0.12581776 0.06543485 -0.076687634 0.1903298 0.21686675 -0.0014106774
0.10205748 0.07723288 -0.072903074 0.06958764 0.022047848 0.15637997 -0.08074548 0.00047914978
0.013037577 -0.030412462 0.16550931 -0.19183338 0.13963474 0.0687181 -0.078710526 -0.09180992
-0.11783985 0.12702712 0.20315915 -0.17134707 -0.110254854 -0.14840277 0.045056026 0.14046165

edge_model.2.bias f4 [16]
00000000: a8e8 40be 2a66 593d 2698 4abe 0197 e6bd
00000010: 2955 4e3e a64f 483e 86de c4bd bc33 713e
00000020: 9ff9 67be 0050 2bbe 50d9 fd3d ec28 78be
00000030: 73ba 623e 09ca 59bc 098b ef3d ac11 013e
-0.18838751 0.053075947 -0.19784603 -0.112592705 0.20149674 0.19561633 -0.096127555 0.23554891
-0.22653817 -0.16729736 0.12394965 -0.2423436 0.22141437 -0.013292798 0.11696441 0.12604398

edge_model.3.weight f4 [16]
00000000: 7a7e 823f 60e5 7f3f f7ad 833f 933a 833f
00000010: ab94 843f a973 813f 18c9 7e3f 624b 843f
00000020: d05a 7b3f 54aa 803f f92b 803f 3346 7e3f
00000030: eb78 813f 95cc 823f a56f 7c3f 2f52 823f
1.0194848 0.99959373 1.0287465 1.025225 1.035787 1.0113422 0.99525595 1.0335505
0.98185444 1.005198 1.0013419 0.99325866 1.0115026 1.0218683 0.98607856 1.018133

edge_model.3.bias f4 [16]
00000000: 3b5d 433b 9fb0 ebbb 2971 aabc cb96 5bbc
00000010: d489 c53c 0c86 393c 3f3c 6c3c 86c1 043d
00000020: 37bf 573c c9b7 1cba 978a 903c 2e24 0f3c
00000030: 3ad2 9fbb 67fa 9dbc fec3 adbc e975 3bbb
0.0029810208 -0.0071926857 -0.020805912 -0.013402651 0.024113573 0.011323463 0.014418661 0.03241112
0.013168148 -0.0005978314 0.01764421 0.008736653 -0.004877356 -0.01928444 -0.02121162 -0.0028604215

node_decoder.0.weight f4 [1, 16]
00000000: 9480 8f3e e8a6 dfbc fa72 4bbe 7cca f2be
00000010: 609f 0d3e 0d0a ac3e 3e34 d83e 63f2 edbe
00000020: b6dd 873e d371 543e 38a5 903e 0900 a0be
00000030: c365 9dbe 127a c03d 1e57 de3e 723e 7b3e
0.28027785 -0.027301267 -0.19868079 -0.47420108 0.13830328 0.33601418 0.42227358 -0.4647399
0.2653634 0.20746545 0.28251052 -0.31250027 -0.307417 0.09398283 0.4342584 0.2453554
